route_TSC/model/0.5_astar_dqn_joint_0315/ep10/target_q_netveh.pt (torch, 13784 bytes, 6 tensors)

fc1.weight f4 [64, 8]
0	0x3e50458f	0.20339034
1	0x3d0763f8	0.033054322
2	0xbe9e1c3f	-0.30880925
3	0x3e0f41d8	0.13989961
4	0xbe39c782	-0.18142512
5	0xbe67676a	-0.22598043
6	0x3cfc7ab3	0.030820226
7	0xbe4abdbc	-0.1979894
8	0xbe0f1a61	-0.13974907
9	0x3d91605c	0.07098457
10	0x3e34415c	0.17603058
11	0xbe0f525d	-0.13996263
12	0x3e7b6de2	0.24553636
13	0x3e5ae2de	0.21375605
14	0x3dfa1432	0.12210883
15	0xbe3e4b2f	-0.18583368
16	0xbe419ee4	-0.18908268
17	0xbd43887c	-0.047737584
18	0x3dcc63e5	0.09979991
19	0xbda4a3ac	-0.080390304
20	0xbdb4d442	-0.088295475
21	0x3d522e0a	0.051313438
22	0xbdff5b11	-0.124685414
23	0x3cb9da93	0.022687232
24	0xbde6d97e	-0.11271952
25	0xbe9a90e6	-0.30188674
26	0xbe51c52d	-0.20485373
27	0x3ca80a9b	0.02051287
28	0x3b827faa	0.003982504
29	0xbe47836b	-0.19483726
30	0xbe563af1	-0.20920922
31	0x3c932ec7	0.017966641
32	0x3e252a4b	0.16129415
33	0x3e3d9626	0.18514308
34	0x3e58b2fe	0.2116203
35	0x3dd97f35	0.10619966
36	0xbe7b5e4e	-0.24547693
37	0xbdfeb8a9	-0.12437565
38	0x3e90d51d	0.28287593
39	0x3df98a8e	0.1218463
40	0x3d836a3e	0.064167485
41	0xbe6d95df	-0.23201703
42	0xbbce154c	-0.00628916
43	0xbd218efc	-0.039443
44	0xbd5c25ba	-0.053746916
45	0x3d548a35	0.051889617
46	0xbe0fd32e	-0.14045402
47	0xbba22d21	-0.0049492274
48	0x3da8d8a7	0.08244448
49	0x3e802ad0	0.25032663
50	0xbd497e5c	-0.04919277
51	0xbd8b97b8	-0.068160474
52	0xbd989ca1	-0.074517496
53	0x3e0e95a7	0.13924275
54	0x3e99ab94	0.30013716
55	0xbce4d6f3	-0.027934527
56	0x3d81e9c7	0.063434176
57	0x3dfb916d	0.12283597
58	0xbed66791	-0.4187589
59	0xbe836183	-0.25660333
60	0x3df6640a	0.120308
61	0xbe680968	-0.22659838
62	0xbe7d4237	-0.2473229
63	0xbf2c071e	-0.6719836
64	0xbccad4b1	-0.024759622
65	0x3e2827a3	0.1642137
66	0x3ee881ce	0.45411533
67	0x3e7dfb0b	0.24802797
68	0xbe25bd8b	-0.16185586
69	0x3f171700	0.5901947
70	0x3e38a14a	0.18030277
71	0xbcbf94da	-0.023386408
72	0xbf3dc28e	-0.7412499
73	0xbc4a5760	-0.012349933
74	0x3e3e969c	0.1861214
75	0x3d2d72f3	0.042345952
76	0x3d83a765	0.06428412
77	0x3e3ec2a6	0.1862894
78	0xbd7cfadf	-0.061762687
79	0x3e9565fc	0.2917937
80	0x3e3a10af	0.18170427
81	0x3e3809c4	0.17972475
82	0x3e5ee772	0.21767977
83	0xbde4b352	-0.11167015
84	0xbe9193f9	-0.28433207
85	0xbe568d37	-0.20952307
86	0x3de549cd	0.11195717
87	0xbe3af909	-0.18259062
88	0xbe7f4e58	-0.2493223
89	0xbcbc5e7c	-0.022994272
90	0x3d90a9a4	0.070636064
91	0xbe1f1e97	-0.15539013
92	0xbbaf2e96	-0.0053461296
93	0xbe8f050f	-0.27933547
94	0x3cbe67b5	0.02324281
95	0xbe9d92cd	-0.30776063
96	0x3e3ab890	0.18234468
97	0x3e872f7f	0.26403424
98	0x3d8121a6	0.06305246
99	0xbe46bd13	-0.19408064
100	0xbe0f32f7	-0.13984285
101	0xbe9536c5	-0.29143348
102	0xbe098dd4	-0.1343301
103	0xbe0ce024	-0.13757378
104	0xbe1d317a	-0.15350905
105	0x3d14af0b	0.036299746
106	0x3d824235	0.06360284
107	0x3ba41dcb	0.0050084344
108	0x3c7472ed	0.014919979
109	0x3f0b3acf	0.5438661
110	0xbf0400f3	-0.5156395
111	0x3ea8541f	0.3287668
112	0xbdc18b47	-0.09450393
113	0xbe35b961	-0.17746498
114	0xbe93d213	-0.2887121
115	0xbe09c26d	-0.13453074
116	0x3c8c396a	0.01711722
117	0xba4cbd22	-0.00078101654
118	0xbda4d486	-0.08048348
119	0x3e449230	0.19196391
120	0xbe046518	-0.12929189
121	0xbe13283f	-0.14370821
122	0xbe94b524	-0.2904445
123	0xbe28b6f8	-0.16476047
124	0x3e5c4f0a	0.21514526
125	0xbed6e308	-0.41970086
126	0xbee95042	-0.45569044
127	0xbea75741	-0.32683757
128	0x3e87c728	0.26519132
129	0xbd744afc	-0.059641823
130	0x3ea6a77b	0.32549652
131	0xbd686245	-0.056734342
132	0xbe0246ed	-0.12722369
133	0x3cf9fc1e	0.030515727
134	0x3e476961	0.19473793
135	0x3bd94512	0.0066305483
136	0xbe6bb9fa	-0.23020163
137	0xbe85123c	-0.25990474
138	0xbed47a5b	-0.414996
139	0xbe58dc8d	-0.21177883
140	0x3e109f42	0.14123252
141	0xbeb91996	-0.36152333
142	0x3edda6b9	0.43291262
143	0xbde64a8c	-0.112446874
144	0xbe865163	-0.26233968
145	0x3c565da4	0.013083849
146	0x3d1baa32	0.038004108
147	0xbe4c219d	-0.19934697
148	0x3e4cdbdc	0.20005745
149	0x3ed996b5	0.42497793
150	0xbd4186c1	-0.047247652
151	0x3d4ec756	0.05048307
152	0xbe2f6fd1	-0.17132498
153	0x3e935251	0.2877374
154	0xbd08fbbb	-0.033443194
155	0xbd38726b	-0.045030992
156	0xbe1a2f77	-0.15057169
157	0x3e0b8e55	0.13628514
158	0xbe52a772	-0.20571688
159	0xbda0a8f0	-0.07844722
160	0x3d4003af	0.046878513
161	0xbde12487	-0.10993295
162	0xbe7fa2ac	-0.24964398
163	0xbce84079	-0.028351055
164	0x3cdcd7d3	0.026958382
165	0xbcd9a2da	-0.026566911
166	0x3e1111da	0.14166966
167	0x3e20ae22	0.15691426
168	0xbd27fea7	-0.04101434
169	0xbe01a99e	-0.1266236
170	0xbd983f48	-0.07433945
171	0xbd3af32d	-0.045642067
172	0xbe29c635	-0.16579516
173	0x3da3c5b3	0.079966925
174	0xbd37549e	-0.04475843
175	0xbe6f97c9	-0.23397745
176	0x3e1742a4	0.14771515
177	0x3e76cbb7	0.24101149
178	0x3ebac432	0.3647781
179	0xbe3e5881	-0.18588449
180	0xbdb0925d	-0.086216666
181	0x3d5874c1	0.05284572
182	0x3dbd3339	0.092382856
183	0x3d1a2160	0.037629485
184	0xbe5ae3b4	-0.21375924
185	0x3d888041	0.066650875
186	0xbe33537b	-0.17512314
187	0xbc59c515	-0.013291617
188	0x3e5757b1	0.21029545
189	0xbf10aa63	-0.5650999
190	0xbdf3fef4	-0.11913863
191	0xbe257e98	-0.16161573
192	0xbb72c57e	-0.0037043984
193	0xbe837365	-0.25673977
194	0xbe70ed21	-0.23527957
195	0xbe7ebf8d	-0.24877758
196	0x3c9c257c	0.019060843
197	0xbea17f8a	-0.31542617
198	0x3e044782	0.12917903
199	0xbeadf6e6	-0.3397743
200	0xbe87df7d	-0.26537696
201	0x3d752166	0.059846304
202	0xbdef4ae8	-0.11684209
203	0xbd155b37	-0.036463942
204	0x3e5bd840	0.21469212
205	0x3d2cbb88	0.04217103
206	0xbe98fee4	-0.29881966
207	0x3e0da2fc	0.13831705
208	0x3e5baeb7	0.21453367
209	0xbcda2820	-0.026630461
210	0x3de55497	0.11197775
211	0xbe2e02ba	-0.16993228
212	0xbdf868e4	-0.12129381
213	0x3e0bebb2	0.1366413
214	0x3e1e7832	0.15475538
215	0x3e4c37ff	0.19943236
216	0xbd094f4a	-0.03352288
217	0x3e49131c	0.19636196
218	0x3e55fbca	0.20896831
219	0xbe32a1e2	-0.17444566
220	0xbe8a7381	-0.27041247
221	0xbe2e1e08	-0.17003644
222	0xbe0ec57d	-0.13942523
223	0x3e1e5413	0.1546176
224	0xbd97b1a2	-0.07406928
225	0x3ca0fbd6	0.019651335
226	0xbedf92b5	-0.43666616
227	0xbd1e18e0	-0.03859794
228	0x3d0d7027	0.034530785
229	0xbe57b219	-0.21064033
230	0xbde5481f	-0.11195397
231	0xbea89e4b	-0.32933268
232	0xbbb00bbb	-0.005372492
233	0xbe8189d6	-0.25300473
234	0xbea357ea	-0.3190301
235	0x3e30a3cd	0.17249985
236	0xbd843c90	-0.06456864
237	0x3dbf43d3	0.09339108
238	0xbe2c36ea	-0.16817823
239	0x3dad13f2	0.0845107
240	0x3e8d4345	0.27590385
241	0x3e2052c9	0.1565658
242	0x3dcde3ec	0.10053238
243	0x3e3dc1de	0.18530986
244	0x3dd1d08f	0.102448575
245	0xbe8f7f91	-0.28027013
246	0x3ec3affa	0.38220197
247	0xbe8b8449	-0.27249363
248	0xbd48b944	-0.049004808
249	0xbe588342	-0.21143821
250	0xbeaf599e	-0.3424806
251	0xbe234688	-0.15944874
252	0x3e056a6b	0.13028876
253	0xbeecac4a	-0.46225196
254	0xbe17e2b0	-0.14832568
255	0xbd827950	-0.06370795

fc1.bias f4 [64]
0	0xbd0c01cc	-0.0341814
1	0x3e9388b7	0.28815243
2	0x3ca3db55	0.020002047
3	0xbe3cdaa0	-0.18442774
4	0x3e5f0bf7	0.21781908
5	0x3e19f1a8	0.15033591
6	0x3e6a42dc	0.22877067
7	0xbf13ff53	-0.5781147
8	0x3e602705	0.21889885
9	0xbdcd582c	-0.10026583
10	0x3deb3e6e	0.11486517
11	0x3dd1822c	0.102299064
12	0xbce1afa6	-0.027549576
13	0x3e59fa67	0.21286927
14	0x3e196416	0.14979586
15	0xbde9b1cc	-0.11410865
16	0xbd406921	-0.04697526
17	0xbce2e90b	-0.027699014
18	0x3ede7f43	0.43456468
19	0xbe4611e9	-0.1934277
20	0xbcf7fb3d	-0.030271167
21	0x3e0970e9	0.13421978
22	0x3e85e16e	0.26148552
23	0xbf0c6aeb	-0.54850644
24	0xbf10774e	-0.56432045
25	0x3e267bdb	0.16258185
26	0x3e6dc1b2	0.2321842
27	0x3eaa2d38	0.33237624
28	0xbe9e092b	-0.3086637
29	0xbebc814e	-0.36817402
30	0xbd1065f2	-0.035253473
31	0xbec52a9b	-0.38509068
32	0xbe3277ae	-0.17428467
33	0x3ded2959	0.11580152
34	0x3eacb26c	0.33729875
35	0xbecebe1d	-0.4037942
36	0xbe0697b7	-0.13143812
37	0x3f3f56e5	0.74741966
38	0x3edfede5	0.43736187
39	0x3db87491	0.09006608
40	0xbea426b7	-0.32060787
41	0xbbb2b067	-0.0054531577
42	0xbe28a7d6	-0.16470274
43	0xbe8e8370	-0.27834654
44	0xbe2076b9	-0.15670289
45	0x3e36363b	0.17794125
46	0xbed163fd	-0.40896598
47	0xbe4defd1	-0.20111014
48	0x3e100437	0.14064108
49	0x3d9a1e53	0.07525315
50	0xbeeed4d3	-0.46646747
51	0xbea6900c	-0.32531774
52	0xbd1a7286	-0.037706874
53	0xbe446447	-0.19178878
54	0x3d3af086	0.045639537
55	0xbea6acb9	-0.32553652
56	0xbdacb771	-0.08433426
57	0x3e2bbea3	0.16771941
58	0x3d2ccc6e	0.042187147
59	0x3cb14e3f	0.021643756
60	0x3e0a8c8f	0.13530181
61	0xbea757d5	-0.32684198
62	0x3e456763	0.1927772
63	0x3da812d1	0.08206714

fc2.weight f4 [32, 64]
0	0x3d9b6f84	0.07589629
1	0x3d498031	0.04919452
2	0xbc3c3ee6	-0.0114896055
3	0xbd4a016b	-0.04931776
4	0x3d34281f	0.043983575
5	0x3dbe8cff	0.093042366
6	0xbdd675e1	-0.10471702
7	0x3dba2e86	0.09090905
8	0xbdbc0015	-0.09179703
9	0xbe5ef4d3	-0.2177308
10	0x3de77490	0.113015294
11	0xbd97fa20	-0.074207544
12	0xbd6fe623	-0.058569085
13	0x3d081c43	0.033230077
14	0x3d8dc4c2	0.06922294
15	0x3d5a5697	0.053305235
16	0xbe3da486	-0.18519792
17	0x3d7f27d7	0.062293854
18	0xbda71d37	-0.08159869
19	0x3ddfb9b1	0.1092409
20	0x3d92afcc	0.07162437
21	0xbd8befac	-0.06832823
22	0xbc10a614	-0.008828659
23	0xbc83d68c	-0.016093515
24	0xbcecf07e	-0.02892327
25	0x3d455a09	0.048181567
26	0xbca90456	-0.02063195
27	0x3d0b5ff3	0.03402705
28	0xbdd905c4	-0.10596803
29	0xbd6ee4ea	-0.05832378
30	0xbd91f7c8	-0.07127339
31	0xbd221ade	-0.039576404
32	0xbdc6a8e0	-0.09700179
33	0xbca9a0d7	-0.020706577
34	0xbcba0f96	-0.02271251
35	0x3cd5e7f6	0.026111584
36	0x3d35dec5	0.044401903
37	0xbc338029	-0.010955849
38	0xbdb1babe	-0.08678196
39	0xbb57be69	-0.003291989
40	0xbdd62d7d	-0.10457895
41	0xbbd0c8fc	-0.0063716155
42	0xbd049d45	-0.032376546
43	0x3ccefea8	0.025267914
44	0x3d3d54e5	0.04622354
45	0x3c84a02f	0.016189663
46	0x3d6023c9	0.054721627
47	0x3daa6c63	0.083214544
48	0xbb9c9a92	-0.0047791684
49	0x3c0d9c9d	0.008643297
50	0x3dd0994a	0.101854876
51	0x3d3a5988	0.04549554
52	0x3e4464ea	0.1917912
53	0x3d486e2a	0.048933186
54	0xbd1c2d65	-0.03812923
55	0xbc2cbb68	-0.010542728
56	0xbd45faa9	-0.04833475
57	0xbd842822	-0.06452967
58	0x3da2fa7f	0.079579346
59	0xbd52eefd	-0.05149745
60	0xbc6b69eb	-0.0143685145
61	0x3ce0c4c7	0.02743758
62	0xbdb53307	-0.08847623
63	0x3d26da0e	0.040735297
64	0xbcf4443f	-0.029817699
65	0xbdb62cfa	-0.08895297
66	0xbd6ab451	-0.05730087
67	0x3cc5d4e0	0.024149358
68	0x3db0d0c1	0.08633567
69	0x3d3f0747	0.0466378
70	0x3c06ba8b	0.008223186
71	0xbbf20ae0	-0.0073865503
72	0x3cacc6f2	0.021090958
73	0xbd90d554	-0.07071939
74	0xbd93fa27	-0.07225447
75	0xbd4d6a18	-0.050150007
76	0x3c2a54af	0.010396167
77	0xbd296c9f	-0.041363355
78	0xbd48392e	-0.048882656
79	0xbdad7bc2	-0.084708706
80	0x3d470c77	0.04859587
81	0x3c706340	0.014672101
82	0xbda4cffd	-0.08047483
83	0x3d8fdb52	0.07024254
84	0xbc758ec1	-0.014987648
85	0x3c1b3edb	0.009475435
86	0x3c1762c9	0.009239861
87	0x3da1b83a	0.078964666
88	0xbd1f0ffb	-0.0388336
89	0x3d7fc506	0.062443756
90	0x3bd67ae8	0.0065454133
91	0x3db96952	0.090532914
92	0x3d9ec174	0.07751742
93	0xbcf69b70	-0.030103415
94	0x3d72731e	0.059191816
95	0x3b0199ba	0.0019775466
96	0xbd9553b8	-0.07291359
97	0xbcfd22ce	-0.030900385
98	0xbca9d42a	-0.02073105
99	0xbc88cf6e	-0.016700473
100	0xbd923594	-0.071391255
101	0xbbcb1075	-0.00619703
102	0xbc9f0426	-0.019411158
103	0x3da2277e	0.07917689
104	0xbc9260e2	-0.017868463
105	0x3cfc5f59	0.030807184
106	0xbbe2888f	-0.0069132517
107	0xbd81fce2	-0.06347062
108	0x3dcae320	0.09906602
109	0xbd232390	-0.039828837
110	0x3b85241c	0.0040631425
111	0x3d2c3087	0.042038467
112	0xbd46eb4e	-0.048564248
113	0xbd3bf16c	-0.045884535
114	0x3d29aaf3	0.041422796
115	0x3d769ae5	0.060206313
116	0x3cb8f036	0.022575479
117	0x3da540b2	0.0806898
118	0xbd79a5fd	-0.060949314
119	0x3c984fab	0.018592676
120	0x3bf1a622	0.007374541
121	0x3d18cb41	0.037303213
122	0xbd3e84b7	-0.046513285
123	0xbd470202	-0.0485859
124	0x3d0ef4e1	0.034901503
125	0xbda0a0c7	-0.07843166
126	0x3d3ce6c3	0.04611851
127	0xbd91a7c9	-0.071120806
128	0xbb43cb1a	-0.0029875697
129	0xbd878938	-0.06617969
130	0xbda28c6a	-0.07936938
131	0x3d8b9257	0.068150215
132	0x3d93a0e0	0.07208419
133	0xbd202d47	-0.03910568
134	0xbb9b7bc1	-0.004744977
135	0xbde07371	-0.10959519
136	0xbd87b114	-0.06625572
137	0xbd655d97	-0.055997457
138	0xbb9bec5b	-0.0047584004
139	0xbce0db08	-0.027448192
140	0xbd57891a	-0.052620985
141	0xbd1c642e	-0.038181476
142	0xbd4f49be	-0.050607435
143	0x3cf90ea0	0.030402482
144	0xbd9b8367	-0.075934224
145	0x3d59b3d7	0.053150024
146	0x3ce6d4c0	0.028177619
147	0xbcdf8b53	-0.027288115
148	0xbc916684	-0.017749079
149	0xbd87382a	-0.06602509
150	0x3d8fbaab	0.07018026
151	0x3ccc696c	0.024952613
152	0x3cc4070a	0.023929138
153	0xbbf254c4	-0.0073953588
154	0x3dc0295e	0.0938289
155	0xbdc88df9	-0.09792704
156	0x3d38c8d1	0.04511339
157	0x3c23e04d	0.010002208
158	0xbdcace45	-0.09902624
159	0x3c117a32	0.008879231
160	0x3cf606b4	0.030032493
161	0x3d20b814	0.03923805
162	0xbcfc7e57	-0.030821962
163	0xbc56576d	-0.013082367
164	0xbd464c9a	-0.048412897
165	0x3dd85f44	0.105650455
166	0xbb00fdce	-0.001968253
167	0xbb703dc1	-0.0036657902
168	0x3d5faff0	0.054611146
169	0xbd922a8e	-0.07137023
170	0x3cbfe472	0.02342436
171	0x3d6ae19b	0.05734406
172	0xbb5dab0e	-0.003382388
173	0xbca64a98	-0.020299241
174	0xbd919dd0	-0.071101785
175	0xbded9b52	-0.116018906
176	0x3cad63a1	0.02116567
177	0x3cdc0c6a	0.026861388
178	0x3ce21092	0.027595792
179	0xbd99f2f8	-0.07517046
180	0x3d3c3da9	0.04595724
181	0x3d807f08	0.06274229
182	0xbc21cc08	-0.009875305
183	0xbcb90438	-0.02258502
184	0xbd768ccf	-0.06019288
185	0xbdfdee95	-0.123990215
186	0x3d532d19	0.05155668
187	0xbde64cd2	-0.11245121
188	0xbcbecdd4	-0.023291506
189	0xbdced77f	-0.10099696
190	0x3d4fd045	0.05073573
191	0xbd0d1ff5	-0.034454305
192	0x3c96ac6f	0.01839277
193	0xbc95ac89	-0.018270748
194	0x3d5f28b6	0.054482184
195	0xbc95ff55	-0.018310228
196	0xbc8b72d7	-0.017022533
197	0x3d824bc0	0.063621044
198	0xbe1514d1	-0.14558722
199	0xbdb5c9be	-0.0887637
200	0x3d5fa6a2	0.054602273
201	0x3e4b26ff	0.19839095
202	0xbbf83a70	-0.0075753257
203	0x3d85f22c	0.06540331
204	0x3dada734	0.08479157
205	0x3d9dd973	0.07707491
206	0x3cc0ddc1	0.02354324
207	0x3d48aa9c	0.04899083
208	0xbccf73f1	-0.02532384
209	0x3de06e46	0.10958533
210	0x3d5246a9	0.051336918
211	0xbbec290a	-0.0072070407
212	0xbd3b187f	-0.04567766
213	0x3c241afb	0.010016198
214	0x3d1847f2	0.037177987
215	0x3cd4c081	0.0259707
216	0x3cc5fb06	0.024167549
217	0x3b05350c	0.0020325808
218	0x3c235248	0.009968348
219	0x3d60ea47	0.054910924
220	0x3d46963c	0.04848312
221	0x3d551f0f	0.052031573
222	0x3dcb3722	0.09922625
223	0xbd3fd3d9	-0.046832893
224	0xbda270d6	-0.07931678
225	0x3be2b848	0.0069189407
226	0xbd4359ff	-0.04769325
227	0xbdaaf2f7	-0.08347123
228	0xbdbba737	-0.09162753
229	0x3d620294	0.05517824
230	0xbd4a177a	-0.049338795
231	0xbd3470d3	-0.04405291
232	0x3d997a4d	0.0749403
233	0x3d560a4c	0.052255914
234	0x3dae44fd	0.08509252
235	0x3d2c3e9a	0.04205189
236	0xbd4f6617	-0.05063447
237	0x3cf9f453	0.03051201
238	0xbd78696e	-0.06064742
239	0x3dc8fa0e	0.09813319
240	0x3a8e67f3	0.001086472
241	0x3c9dd684	0.019267328
242	0x3ba13917	0.0049201357
243	0xbd9f3520	-0.07773805
244	0xbce53be4	-0.02798266
245	0xbdb8c047	-0.09021049
246	0xbd3bb71c	-0.045828924
247	0xbca50f2e	-0.02014884
248	0xbccfad17	-0.02535109
249	0xbd8b3e43	-0.06798985
250	0xbdf22c05	-0.11824802
251	0xbd96bbb1	-0.07360018
252	0xbd8a3cd1	-0.06749881
253	0xbccf3154	-0.025292076
254	0x3d81a323	0.06329944
255	0x3d16d234	0.03682156

fc2.bias f4 [32]
0	0xbe94ba2d	-0.2904829
1	0xbd76849e	-0.060185067
2	0xbdc0dbd1	-0.09416927
3	0x3e16f8e7	0.14743386
4	0x3d90e72f	0.07075345
5	0xbd33ac40	-0.043865442
6	0xbe694621	-0.22780658
7	0x3ec9d28e	0.39418453
8	0x3da5023b	0.08057066
9	0x3b98bb28	0.0046609826
10	0xbeccbdf8	-0.39988685
11	0x3dd03a37	0.101673536
12	0xbdad18f6	-0.084520265
13	0x3eb3eea0	0.35142994
14	0xbe143b78	-0.1447581
15	0xbdaaeaae	-0.08345543
16	0x3ce5cea1	0.02805263
17	0xbd257844	-0.040397897
18	0x3e29af32	0.16570738
19	0xbe951f30	-0.29125357
20	0xbdd1078f	-0.1020652
21	0xbda7b3ce	-0.08188592
22	0x3d3f9cbb	0.04678033
23	0x3e032e23	0.12810569
24	0xbd829816	-0.06376664
25	0x3e300b6e	0.1719186
26	0x3d326098	0.04354915
27	0xbcbccd44	-0.023047097
28	0xbe82c133	-0.25538024
29	0xbec865ac	-0.3914007
30	0xbc7b0050	-0.015319899
31	0xbda1b3e5	-0.0789564

fc3.weight f4 [3, 32]
0	0x3db2c4e9	0.08728964
1	0x3d5bf428	0.053699642
2	0x3d760b1b	0.060069185
3	0xbdfa4417	-0.12220018
4	0xbca9d4f4	-0.020731427
5	0xbd89e5c4	-0.067332774
6	0xbd281dfd	-0.041044224
7	0xbdd325b8	-0.10309929
8	0x3d7b6a18	0.061380476
9	0x3ba9212a	0.005161424
10	0x3cd13344	0.02553714
11	0xbe430e82	-0.19048503
12	0xbda95eff	-0.08270072
13	0xbddfb8cc	-0.10923919
14	0x3d9388ed	0.07203851
15	0xbd96a859	-0.073563285
16	0xbe398cd5	-0.1812013
17	0x3dfcda24	0.123462945
18	0xbdf7447f	-0.120736115
19	0xbc65b719	-0.014020705
20	0xbcdedcfb	-0.027204981
21	0x3d96e17d	0.07367227
22	0x3cfc6d12	0.030813728
23	0xbce08129	-0.027405338
24	0x3c2910aa	0.010318914
25	0xbd5cc01f	-0.05389416
26	0xbcb015e1	-0.021494808
27	0x3d8dde6d	0.0692719
28	0x3dbe6767	0.09297066
29	0x3d970959	0.0737483
30	0x3dd12c56	0.102135345
31	0xbddc4e45	-0.10757116
32	0xbdcd36b1	-0.10020197
33	0xbda43878	-0.08018583
34	0xbd098232	-0.03357143
35	0x3d31cdc7	0.043409135
36	0xbd28cf20	-0.041213155
37	0xbd73a48f	-0.059483107
38	0x3b95545d	0.004557176
39	0xbd8f7977	-0.070055895
40	0x3d4efe94	0.050535753
41	0xbce6a70e	-0.02815583
42	0x3d82ce2d	0.06386981
43	0xbca2cf71	-0.019874306
44	0xbcaf779b	-0.021419337
45	0xbc7c6b3a	-0.015406424
46	0xbc3c01f3	-0.011475074
47	0x3d283d5b	0.041074138
48	0x3dcc071c	0.099622935
49	0xbd3ad9ce	-0.04561787
50	0xbc3cadde	-0.011516063
51	0xbd5da90d	-0.054116298
52	0x3dbaf676	0.0912904
53	0xbd09a952	-0.033608742
54	0xbdb25340	-0.08707285
55	0xbcf2d965	-0.029644677
56	0xbd92b831	-0.07164038
57	0xbd000757	-0.031257
58	0xbce2b343	-0.02767337
59	0x3cfcee56	0.030875366
60	0x3dbcdeb3	0.09222164
61	0xbd515c4c	-0.05111341
62	0x3cae4278	0.02127193
63	0xbd2a66c5	-0.041601915
64	0xbb7e24c2	-0.0038779234
65	0xbdcde316	-0.10053079
66	0xbda6d56b	-0.08146175
67	0xbe05bbb8	-0.1305989
68	0x3da0c0a4	0.07849243
69	0xbe2f1227	-0.17096768
70	0x3c78387d	0.015150187
71	0xbd41868d	-0.04724746
72	0xbdc3d9aa	-0.095630005
73	0x3dfceff4	0.12350455
74	0x3d87a060	0.06622386
75	0xbe3c15b8	-0.1836766
76	0x3d37f6b0	0.044912994
77	0xbdbf93a2	-0.093543306
78	0x3e0adcdf	0.13560818
79	0x3dc47012	0.09591688
80	0xbde09ab6	-0.10967009
81	0xbd1df475	-0.03856321
82	0xbc8910e1	-0.016731681
83	0x3ca6b57e	0.020350214
84	0xbdb31788	-0.087447226
85	0x3a8cdbbc	0.0010746638
86	0xbde299a7	-0.11064463
87	0x3caa4104	0.020782955
88	0xbca115c6	-0.019663703
89	0x3d94500e	0.07241832
90	0x3d9f849d	0.07788966
91	0xbbb65e04	-0.0055654068
92	0xbc36919f	-0.011143117
93	0x3d949462	0.07254864
94	0xbd8c7499	-0.06858177
95	0x3da9b2a1	0.08286024

fc3.bias f4 [3]
0	0xbe4caf1b	-0.19988672
1	0x3d24c815	0.040229876
2	0xbec66655	-0.38749948
