route_TSC/model/0.5_astar_dqn_joint_0315/best_model/q_netveh.pt (torch, 13650 bytes, 6 tensors)

fc1.weight f4 [64, 8]
000000 cb f1 9b 3e f1 41 3a 3e b0 36 cb be d2 1d 9b 3e
       0.3045791 0.18189217 -0.3969016 0.3029619
000010 78 9b 4e be 5d 8b 9d be 32 83 29 3d 77 ef 17 be
       -0.20176494 -0.30770388 0.041384883 -0.14837442
000020 6f 7b 94 be e9 b5 83 3c 0f fb 94 3e 55 7f 54 be
       -0.29000422 0.016077952 0.29097793 -0.20751698
000030 ab 91 57 3e d7 f4 24 3e 27 e6 0c 3e 83 7c 9e be
       0.21051662 0.16109024 0.13759671 -0.3095437
000040 6f 51 62 be 00 11 5f 3c 40 81 60 bc d0 2f 09 bd
       -0.22101377 0.013614893 -0.013702691 -0.033492863
000050 94 83 b4 bd 20 4c f7 3d f3 a7 0b be 5e f5 38 3e
       -0.08814159 0.120750666 -0.13638286 0.1806235
000060 85 ff 3b bd 16 6b 99 be d5 f9 b0 be 00 de ec 3d
       -0.04589798 -0.29964513 -0.34565607 0.11565781
000070 14 95 76 3d d0 74 5c be b1 7e 52 be 0a 83 06 3e
       0.060200766 -0.21528935 -0.20556141 0.13135925
000080 60 18 57 3e 9b 0c 5d 3e f3 74 3b 3e e5 e7 a3 bb
       0.21005392 0.2158684 0.18306331 -0.005002009
000090 07 d8 8b be 82 0e 44 be 35 85 89 3e d7 94 af 3d
       -0.27313253 -0.1914616 0.2685944 0.08573311
0000a0 be 52 54 3e bc 45 7f be 14 66 17 be 20 bb d6 bc
       0.20734689 -0.24928945 -0.14785033 -0.026212275
0000b0 19 e8 63 be 74 f9 c9 3d f0 ec 4d bd be 3c 14 3e
       -0.22256507 0.098620325 -0.05027479 0.14476296
0000c0 2b c8 2d bd ce 56 80 3e 35 24 25 3d 52 2f 0d be
       -0.042427223 0.25066227 0.040317733 -0.13787583
0000d0 e1 5a 66 bd d6 15 07 3e 5a 73 a0 3e 19 1b 4f bc
       -0.056239013 0.13191923 0.31338006 -0.012640738
0000e0 b9 ab 29 3e df 55 50 3e 30 55 c3 be f6 f9 8a be
       0.16569413 0.20345257 -0.3815093 -0.2714383
0000f0 fe f5 f7 3d 9a 64 88 be ca 1c cb be 84 af 32 bf
       0.12107466 -0.26639253 -0.39670402 -0.69799066
000100 1f b8 30 bd 7b b9 c6 3e a1 ab 15 3f 24 fb e1 3e
       -0.04314434 0.38813385 0.5846501 0.44136918
000110 9d ae f1 bd 4c c8 25 3f 9e 5e 6e 3e b6 62 55 3d
       -0.11800883 0.64758754 0.23278281 0.05209609
000120 92 5c 86 bf 27 58 bc bc ac df 89 3e 7f 0c ea 3d
       -1.0497 -0.022991253 0.2692846 0.11428165
000130 5f 05 d2 3c b1 4b 81 3e ce 3d 20 be d0 2d 86 3e
       0.025637327 0.2525306 -0.15648577 0.26206827
000140 37 32 17 3e 07 a6 57 3e de 0e 38 3e 75 19 f2 bd
       0.14765249 0.21059428 0.17974421 -0.11821262
000150 e4 d4 a7 be 92 d2 8f be ba c7 f1 3d ac 3c fd bd
       -0.3277961 -0.2809034 0.11805673 -0.12365088
000160 98 52 dd be 5a 2f 64 3d 3a 58 0f 3e 42 33 e2 bd
       -0.43227077 0.05570922 0.139985 -0.11044933
000170 3b 9e c7 3d 20 4b 5a be eb 27 1c be 41 82 ff be
       0.09746977 -0.2131772 -0.15249602 -0.49904063
000180 23 31 95 3e 17 5b bc 3e 6e 96 4e 3e e2 be 25 be
       0.2913905 0.36788246 0.20174572 -0.16186097
000190 48 aa 8f be fe 5f 9f be f4 cf 6b be a8 c2 c1 bd
       -0.28059602 -0.31127924 -0.23028547 -0.09460956
0001a0 7a 63 37 bd fb 9d 50 3d 02 e3 3a 3e 48 a6 d9 3d
       -0.044772603 0.050931912 0.18250659 0.10627419
0001b0 bf b9 f2 3d 2a 4e 14 3f ec 1e f7 be 60 46 b3 3e
       0.118518345 0.5793177 -0.4826578 0.3501463
0001c0 58 d6 08 be af 44 5e be 74 ad 8f be c8 37 2b be
       -0.13363016 -0.21705888 -0.28062022 -0.16720498
0001d0 00 28 bd bd c0 81 5c bc b1 b3 31 be 52 0d 24 3e
       -0.09236145 -0.013458669 -0.17353703 0.16020706
0001e0 9a b4 c9 bd 06 a6 7e be 18 13 8d be c6 97 20 be
       -0.098489 -0.2486802 -0.2755363 -0.15682897
0001f0 f2 31 45 3e c7 8b f2 be 83 c7 13 bf 66 db 89 be
       0.19257334 -0.47372267 -0.57726306 -0.269252
000200 ac 7a c2 3e 76 f9 0e bd 0a 01 cf 3e 93 dd 0f be
       0.37984216 -0.034905873 0.4043048 -0.14049368
000210 9c 1b 28 be ca 2d ab bd 80 dc 9b 3e a6 a5 47 bd
       -0.16416782 -0.08358343 0.30441666 -0.04874196
000220 94 be ab be 7e 0d bf be 11 ec d9 be dd f7 67 be
       -0.33543837 -0.3731498 -0.42562917 -0.22653146
000230 7e 7c fc 3d 9f 24 e1 be 47 b7 fb 3e ce 63 1a be
       0.123284325 -0.43973252 0.49163267 -0.15077135
000240 97 51 b9 be 65 6b df 39 bb ba f0 bb 04 c9 98 be
       -0.3619506 0.0004261389 -0.0073464788 -0.29840863
000250 5b d1 6d 3e a3 b6 fb 3e 41 e3 1e 3a cc ef 6a bd
       0.23224394 0.49162778 0.0006061085 -0.057357594
000260 bd ba ea bd 47 d7 8e 3e 39 1d 0f be 60 ab a3 3d
       -0.11461399 0.2789862 -0.13975991 0.079916716
000270 ab 37 a1 be 0b e0 72 3d 42 81 8c be 2c 31 38 bd
       -0.31487784 0.059295695 -0.27442366 -0.04496877
000280 00 e0 10 3e 24 b8 e2 bc ca 4e 73 be 42 fb 0d bc
       0.14147949 -0.027675696 -0.23760524 -0.008665862
000290 f0 fa e6 bd 78 b1 45 be 93 f4 0d 3e c2 6f 15 3e
       -0.11278331 -0.1930598 0.13862829 0.14593413
0002a0 c8 0a 20 be a8 db 91 bd 18 7d f8 bd ac 86 88 bd
       -0.15629113 -0.07121974 -0.12133235 -0.066663116
0002b0 d0 09 9a be b3 b2 87 3e 6f e2 0e be dc 56 a6 be
       -0.3008561 0.26503524 -0.13953565 -0.32488143
0002c0 b9 0d 37 3e 73 a9 37 3e ef ab 9d 3e 2d d5 1f be
       0.17876329 0.17935733 0.30795237 -0.15608664
0002d0 11 29 f4 bd 0e 21 62 3d c3 c1 60 3e 41 a7 9c bc
       -0.11921895 0.055207305 0.21948914 -0.019122722
0002e0 9c 43 9d be 23 c8 80 3e 70 05 33 be fc f3 c6 3d
       -0.30715644 0.25152692 -0.17482543 0.09714505
0002f0 a0 f4 4a 3e 4c 48 13 bf dc bc 0d be 5a eb 48 be
       0.1981988 -0.5753219 -0.13841575 -0.1962103
000300 97 6a 03 be 0f a8 9c be 6f 6f 99 be 2e 05 c9 be
       -0.1283363 -0.3059697 -0.2996783 -0.39261764
000310 96 d6 17 3e dd 34 74 be 89 bf a5 3e 44 1d b4 be
       0.14827952 -0.2384829 0.32372692 -0.35178578
000320 a6 68 aa be b8 d1 9c 3b 58 42 5c be 85 f1 d7 3d
       -0.33282965 0.0047857426 -0.21509683 0.10544113
000330 09 93 50 3e b0 30 90 bd 81 0f b1 be ba 04 f7 3d
       0.2036859 -0.070405364 -0.3458214 0.120614484
000340 0f 2e 84 3e 0a 8b 04 be 26 ad 6f 3e 29 b1 a7 be
       0.2581639 -0.12943664 0.23405895 -0.3275235
000350 23 2c 99 be 64 c0 d1 3d 42 77 74 3e 4e 5c 24 3e
       -0.29916486 0.10241774 0.23873618 0.16050836
000360 40 fd c5 3c d6 98 60 3e 7f 4e 9e 3e f3 5a ab be
       0.02416861 0.21933302 0.30919263 -0.33467826
000370 f7 5e 9b be c8 8a d0 bd a8 d5 b8 bd 50 c1 9f 3d
       -0.3034589 -0.101827204 -0.09025127 0.07800543
000380 32 88 17 3c 62 5b 90 bd fe ee e8 be e0 2d 4b bd
       0.00924878 -0.0704868 -0.45494837 -0.049604297
000390 a4 fa d6 3d 37 e9 16 be 9f 66 08 be 98 a9 e4 be
       0.10497025 -0.14737402 -0.13320397 -0.4466064
0003a0 93 1c 6b 3d b3 21 8e be b5 23 bc be 31 56 16 3e
       0.057400297 -0.27760085 -0.36745992 0.14681317
0003b0 c0 d8 ca 3c 24 4a 30 3d 1f 74 4c be 9c 00 66 3e
       0.024761558 0.043039456 -0.19966172 0.2246117
0003c0 53 03 9e 3e f5 30 8b 3e e2 1c 53 3d bf ca 78 3e
       0.3086191 0.2718579 0.051541217 0.24296091
0003d0 9e 7d 0f 3c af 71 db be 91 78 e6 3e 5f 0b cc be
       0.008757977 -0.4286017 0.4501386 -0.39852425
0003e0 1d 7e bf bd cb 2f 67 be 72 67 f3 be 50 0f 0f be
       -0.09350226 -0.22576825 -0.4753986 -0.13970685
0003f0 90 82 89 3d db 70 1a bf 65 65 a9 bd a1 71 19 3d
       0.06714356 -0.60328454 -0.082712926 0.03746188

fc1.bias f4 [64]
000000 60 ca 65 bd 66 7d 7a 3e 9c f4 d7 3d a1 00 62 be
       -0.056101203 0.24461898 0.105447024 -0.22070552
000010 86 40 8c 3e 21 ad 9a 3e 48 89 96 3e e0 a4 39 bf
       0.27392977 0.30210212 0.29401612 -0.72517204
000020 ce a8 ab 3e b9 d0 06 bc c1 f3 4d 3e 6e 0f a9 3d
       0.33527225 -0.008228474 0.20112516 0.08254896
000030 e3 1a ea bd 3b ee 53 3e 93 6e b2 3e 66 2a c4 bd
       -0.114309095 0.20696346 0.34849986 -0.09578399
000040 68 13 2d be 7a 23 f5 3d c7 75 fb 3e 06 43 99 be
       -0.16901934 0.11969657 0.49113294 -0.29933947
000050 16 7f 10 3d 10 ad 12 3e 70 91 a8 3e 6c cd 11 bf
       0.03527745 0.1432383 0.3292346 -0.56954074
000060 43 03 2a bf b8 23 5b 3e 8e 51 45 3e b7 67 ac 3e
       -0.66411227 0.21400344 0.19269392 0.33672878
000070 2d f7 bd be bd dc ec be 7f fb 1e bd 32 72 09 bf
       -0.37102643 -0.4626216 -0.038814064 -0.53689873
000080 c4 64 2f be 41 25 bd 3d 2d d9 b1 3e 99 7a 22 bf
       -0.17128283 0.09235621 0.34736004 -0.6346832
000090 73 9f ae be 50 26 62 3f 4e f9 cd 3e 4c 3f 80 3d
       -0.34106025 0.8833971 0.40229267 0.06262073
0000a0 7e d6 c1 be dc 53 9f 3d 06 52 6c be fe 2b f1 be
       -0.37858957 0.07779667 -0.23078164 -0.47103876
0000b0 1c 27 ac bd 87 be 99 3e c2 5a c5 be 1f 8e 4d be
       -0.08405897 0.30028173 -0.38545805 -0.20073746
0000c0 7f 6a 15 3e af f7 ff 3d 9f 3c 1f bf af f9 e2 be
       0.14591406 0.12498414 -0.62201875 -0.44331118
0000d0 a7 af 3e 3d 65 f6 52 bd 64 00 08 bd 8f ff d2 be
       0.046554234 -0.05150451 -0.033203498 -0.412106
0000e0 ee 77 25 bd e6 d9 14 3e 75 6a 55 3d 7c d4 ac bc
       -0.040397577 0.14536247 0.05210348 -0.021097414
0000f0 7a ef 78 3e 3c d4 bd be 74 11 b1 3d f6 5d 68 3e
       0.24310103 -0.37075984 0.08645907 0.22692093

fc2.weight f4 [32, 64]
000000 27 f6 b3 3d 95 d0 e5 3d 00 44 59 3b 68 0a 74 bc
       0.08787184 0.112214245 0.0033152103 -0.014895059
000010 d2 38 bb 3d dc d9 f3 3d 13 19 b0 bd 83 fb de 3d
       0.09141697 0.11906788 -0.085985325 0.10887816
000020 6d e3 2e be 46 b3 79 be 9d 3a f9 3d de c6 3c bd
       -0.17078944 -0.24384794 0.12169383 -0.046088092
000030 40 92 f4 bd 67 96 8a 3c a6 db d0 3d 67 2c c6 3d
       -0.119419575 0.01691742 0.101981446 0.09676438
000040 35 35 15 be c6 68 1e 3d 39 fe d1 bd 48 ff 1b 3e
       -0.14571078 0.03867414 -0.10253567 0.15234101
000050 ff c5 c7 3d 82 99 86 bd e2 3b 26 bd 6c b7 27 bd
       0.09754562 -0.06572248 -0.040584452 -0.04094641
000060 05 ee 4a bc 92 61 81 3d 50 99 7f bc 48 92 21 3d
       -0.01238585 0.06317438 -0.015600517 0.039446145
000070 3b 4f d6 bd 49 3f ed bc cb f6 d7 bd 2d f4 8a bd
       -0.10464331 -0.02896084 -0.10545119 -0.06784854
000080 f5 fb 63 bd 62 dd c5 3c f8 6d a9 bd 81 a3 d1 3d
       -0.055660207 0.024153415 -0.08272928 0.10236264
000090 32 c4 ad 3d e8 c4 16 bc d4 88 aa bd 68 75 9b 3c
       0.08484687 -0.00920222 -0.08326879 0.018976882
0000a0 b4 5e fb bd c8 bf c4 bc 74 8d 4c bd 4e a7 74 3d
       -0.122739226 -0.02401723 -0.049939588 0.059729867
0000b0 f4 0e f3 3d ee aa 87 3d 78 a0 93 3d 15 15 95 3d
       0.118680865 0.06624399 0.07208341 0.07279412
0000c0 dc 21 0e 3d d0 6e 41 bc 34 0c eb 3d 5e 3f fa 3d
       0.03470026 -0.011806205 0.11476937 0.122191176
0000d0 84 73 6d 3e 62 5a d1 3d 93 c1 bb bd 57 d2 3a 3c
       0.23188597 0.10222317 -0.09167781 0.011402688
0000e0 fb 3c 5f bd c2 1c b5 bd b3 79 1b 3e b0 ac f3 bd
       -0.054501515 -0.08843376 0.15183143 -0.11898172
0000f0 dc ab 02 3d 03 f7 8d 3d 09 4d 0c be 2e 1d 89 3d
       0.03190218 0.06931879 -0.13701262 0.06695019
000100 7f de c2 bd 88 91 12 be 90 7c 04 bd 9d fd 99 3d
       -0.09515094 -0.14313328 -0.032345355 0.07519076
000110 52 a8 a3 3d 78 a5 8f 3d 71 56 c8 bb 79 96 b9 bc
       0.07991089 0.070139825 -0.0061138202 -0.022654759
000120 b2 1f 8f bc b4 6c 6e bd 70 72 c9 bd 42 0c 9e bd
       -0.017471168 -0.058209136 -0.0983628 -0.07717182
000130 83 49 65 3d 45 17 87 bd 7c 37 30 bd 19 4c 0d be
       0.05597831 -0.06596235 -0.043021664 -0.1379856
000140 59 6f a7 3d 80 20 4a 3d 0c 42 bf bd f0 cf 05 3e
       0.08175535 0.0493474 -0.09338769 0.13067603
000150 61 5b 01 bd 48 ce df 3c 66 1e 72 3d 57 4d 7f 3d
       -0.031581286 0.027320042 0.05911102 0.062329616
000160 5e be ab bc 8f 40 42 3d c0 45 48 bc 4a e3 da 3d
       -0.020964798 0.04742485 -0.012223661 0.10687883
000170 14 75 9f 3d b1 ad 00 bd 47 62 a2 3d 48 cf 28 bd
       0.07786003 -0.031415645 0.07928901 -0.041213304
000180 86 0d 92 bd 88 45 90 bc d2 e2 a2 bd 99 74 f1 3c
       -0.07131486 -0.01761128 -0.07953419 0.029474543
000190 45 de 19 be c3 85 80 bd ab 57 a7 bc 76 0e a5 3d
       -0.15026195 -0.06275513 -0.020427546 0.08059399
0001a0 ad a9 81 bd 20 99 87 3d 58 23 d7 3c b3 02 e6 bd
       -0.06331191 0.06621003 0.02626197 -0.112309836
0001b0 e6 d1 e3 3d 17 e2 09 bd 55 85 94 bc 0b 70 a2 3b
       0.11124019 -0.03366288 -0.018129984 0.004957204
0001c0 5d 6a 41 bd 27 02 bc bd 17 2f 36 3d f8 06 6f 3d
       -0.047220577 -0.09180098 0.044478502 0.058356255
0001d0 d2 79 98 3d e5 42 a7 3d 4a 98 f5 bd 42 2b 85 3d
       0.074451104 0.08167056 -0.119919375 0.065023914
0001e0 e8 b1 8f 3a c8 e3 87 3d 1f 7a 49 bd fa 4d 64 bd
       0.0010963054 0.06635243 -0.04918873 -0.055738427
0001f0 a8 fc c8 3d 70 98 0e be c2 54 bc 3d ac f8 6a bd
       0.09813815 -0.13925338 0.09195854 -0.05736606
000200 79 13 6d bd b5 00 e6 bd 08 a0 7d bd 08 58 48 3d
       -0.0578799 -0.112306036 -0.061920196 0.04891208
000210 18 38 4e 3d cc 7a 5f bd 68 18 b0 ba 8f 9d 0b be
       0.050346464 -0.054560468 -0.0013435008 -0.13634323
000220 73 8e 8c bd 3b da 10 bd 2c de 37 bd f0 cc c4 bc
       -0.068631075 -0.03536437 -0.044889614 -0.024023503
000230 d8 ea 7d bd 60 b5 c1 bd ee 59 88 bd 7f 69 8e 3d
       -0.061991543 -0.09458423 -0.06657778 0.069537155
000240 46 cf e6 bd c6 0c aa 3c 16 39 16 3d e0 90 be 3b
       -0.11270003 0.020758044 0.036675535 0.0058156103
000250 db 01 2c bd fa 9a b2 bd 77 22 ab 3d ea 72 a6 3d
       -0.041993957 -0.08720966 0.08356183 0.08127387
000260 89 30 a0 3d 95 00 0f 3d 62 d2 bf 3d 8c e3 c0 bd
       0.07821757 0.034912664 0.09366299 -0.09418401
000270 3b 07 04 3d 0c 92 5b bc 19 a1 d4 bd b0 b4 2e 3b
       0.032233458 -0.0134015195 -0.103822894 0.002665799
000280 ca 1e 0a 3d 33 0f df 3d c0 c1 2d bc 5c 4f 1c 3b
       0.03372077 0.10891571 -0.010605276 0.0023851013
000290 82 70 fc bd bb f2 d1 3d f5 18 09 3d 54 a7 01 bd
       -0.12326147 0.10251375 0.033471067 -0.031653717
0002a0 53 97 9e 3d 7e 31 d3 bd 6a 9f 9e 3d b1 b6 29 3d
       0.077437066 -0.10312174 0.077452496 0.041433994
0002b0 54 c6 3a 3d c7 df a8 bc 2e 80 bb bd 19 19 11 be
       0.045599297 -0.020614518 -0.09155308 -0.1416973
0002c0 0e 6f 8a 3d b8 3a 28 3d 5b 13 ad 3d 54 f4 a6 bd
       0.06759463 0.041071624 0.084509574 -0.08152071
0002d0 78 2e af 3c 9b fc c0 3d a2 0e 9c bc b2 d2 1d bd
       0.021384463 0.09423181 -0.019049946 -0.038531013
0002e0 ce 0e 87 bd 2a 57 ff bd 04 a4 c0 3d e2 60 0b be
       -0.06594621 -0.12467797 0.094062835 -0.13611177
0002f0 c0 6d 47 bb c4 48 19 be 1f 2e da 3d a6 07 d4 bd
       -0.0030430406 -0.14969164 0.10653328 -0.10353021
000300 6d 32 8d 3d 74 17 9e 3b 40 05 6e 3d 39 3f 56 39
       0.068943836 0.004824573 0.058110476 0.00020432183
000310 bf 53 45 bd 9c 7b 8c 3d 79 10 e3 bd 6a e6 d0 bd
       -0.04817557 0.06859514 -0.11087126 -0.10200198
000320 6b 49 c3 3d c9 20 b4 3e d9 f5 37 3d f6 05 12 3e
       0.09535488 0.35181263 0.044912193 0.14260086
000330 20 b8 29 3e 2a 50 ae 3d 78 38 a0 3c 96 ae 24 3d
       0.16574144 0.08511384 0.019558176 0.04020556
000340 56 5d 2b 3d 47 b8 3e 3e a2 24 ac 3d cb 1d 31 3b
       0.04183706 0.18624984 0.08405425 0.0027025815
000350 92 26 69 bd 00 81 04 bd de 8d 78 3d c1 fd 16 3d
       -0.05692155 -0.032349586 0.06068217 0.036863092
000360 83 a3 bd 3d 28 d5 ae bc a8 ad 5c 3d 80 c6 2c 3d
       0.09259703 -0.021341875 0.05387655 0.04218149
000370 00 a9 e1 3c c7 4e a2 3d e4 0d d5 3d 3d c6 90 bc
       0.027546406 0.07925182 0.1040304 -0.017672652
000380 ca e5 03 3d 45 ee 52 3d b0 60 8b bc 89 9d dc bd
       0.032201566 0.051496763 -0.017013878 -0.10772235
000390 20 90 ea bd aa d3 bd 3d 7a 7c ce bd 3a 0a d5 bd
       -0.11453271 0.09268887 -0.10082336 -0.10402341
0003a0 71 3c 88 3d ca d1 9a 3d d0 d6 f1 3d dc 83 65 3d
       0.06652153 0.07559545 0.1180855 0.056033954
0003b0 0c d1 3b bd 95 3f e4 3d 2f 5d 6e bd 8e 93 ba 3d
       -0.04585366 0.1114494 -0.058194336 0.09110175
0003c0 e3 d5 51 bc 10 07 c5 3c 6c ee b1 bc c1 fd f5 bd
       -0.012807342 0.02405122 -0.021720134 -0.1201129
0003d0 eb 63 cb 3c 80 49 4c bc c1 5d 8b bd f9 a1 fc bc
       0.024827918 -0.012468696 -0.068049915 -0.030838953
0003e0 35 f1 28 bd 8c ce 63 bd 9d 8c aa bd 95 61 ff bd
       -0.041245658 -0.0556169 -0.08327601 -0.12469784
0003f0 10 da 6d bd 56 00 bc bd 40 6b ed 3d 9e 08 c1 3d
       -0.05806929 -0.091797516 0.11592722 0.09425472

fc2.bias f4 [32]
000000 f6 60 ae be c4 17 12 bd 67 98 19 be c6 53 55 3e
       -0.3405835 -0.035667196 -0.14999543 0.20832738
000010 00 5e 4e 3d 85 a5 bb bd 56 d7 91 be c7 8d e8 3e
       0.050382614 -0.0916243 -0.284846 0.45420668
000020 0f 07 ea 3d d8 64 35 bd 95 97 e2 be 78 93 d1 3d
       0.114271276 -0.044285625 -0.44256273 0.102332056
000030 36 49 fe bd e6 a2 d7 3e ba fb 19 be 00 46 8e bd
       -0.12416308 0.4211647 -0.15037432 -0.06946945
000040 e3 59 2e 3d bc 6a d4 bd d1 12 77 3e cd 95 a7 be
       0.04256619 -0.103719205 0.24128272 -0.32731476
000050 77 e7 f7 bd 17 3a 90 bd 98 b6 ce 3d 1f 11 2a 3e
       -0.12104695 -0.0704233 0.10093421 0.16608094
000060 b6 f8 72 bd 7a c9 80 3e 09 96 b7 3d 18 e8 98 bd
       -0.05931922 0.25153714 0.08964164 -0.07466143
000070 8f 4b a4 be 1c dd e2 be e2 5b 8f bd b6 3f b5 bd
       -0.32088897 -0.44309318 -0.06999947 -0.088500425

fc3.weight f4 [3, 32]
000000 ca f2 0e 3e db 3a 07 3c da 6d 97 3d d9 94 fb bd
       0.13959804 0.008253778 0.073939994 -0.1228425
000010 c0 8d d4 bb 43 cf 00 bb e2 45 5a 3d c6 37 a1 bd
       -0.0064866245 -0.0019654788 0.0532893 -0.07871966
000020 dd 8c 2b 3c e0 3c ad bb b5 21 00 3e 55 53 4f be
       0.010470596 -0.005286798 0.12512858 -0.20246632
000030 a0 c3 39 bd 11 40 4c bd 72 0d 1a 3e 8a 18 e3 bd
       -0.04535258 -0.049865786 0.15044191 -0.11088665
000040 4b 80 3c be ee fb e2 3d e9 9b 1f be ce a7 83 3c
       -0.18408315 0.11083208 -0.15586819 0.016071226
000050 a1 21 b3 bd 07 2d e9 3d 56 f3 d1 3d 99 fc 42 bc
       -0.087466486 0.113855414 0.10251491 -0.011901044
000060 cc 45 51 3d 8b 6d b4 bd 95 81 ae bd 7d 1a 25 3e
       0.051091954 -0.08809956 -0.085208096 0.16123386
000070 0f dd 84 3d ab 95 0d 3e e8 3c eb 3d 96 aa ff bd
       0.06487476 0.13826625 0.11486226 -0.124837086
000080 77 49 99 bd fb 70 ea bd 68 96 5d bd 29 4e cc 3d
       -0.074847154 -0.114473306 -0.054098517 0.09975845
000090 40 0f ff bb d3 42 86 bd f0 18 3f 3c 83 13 c6 bd
       -0.0077838004 -0.065557145 0.01166366 -0.0967169
0000a0 51 e9 e8 3d 50 5f 21 bc b2 46 e1 3d ad 31 bd bd
       0.113726266 -0.009849384 0.10999812 -0.092379905
0000b0 e8 35 45 3d 5c 66 94 bd a8 59 df 3c 00 ab 0c bc
       0.048147112 -0.07246086 0.027264431 -0.008585691
0000c0 82 b5 a5 3d 86 44 f8 bd 6f 8c 88 bd c7 ad b8 bd
       0.080912605 -0.12122445 -0.066674106 -0.090175204
0000d0 72 78 d9 3d 60 a8 ad 3c 77 43 2f be 80 36 c0 3b
       0.10618676 0.021198452 -0.1711558 0.005865872
0000e0 33 51 ef bd 6b e8 b7 bd b0 57 81 bd 26 d3 e0 3d
       -0.116854094 -0.08979877 -0.06315553 0.10977773
0000f0 0a 82 99 3d e3 04 b6 bd 82 2d 0b 3c d0 96 6f bc
       0.07495506 -0.08887651 0.008494737 -0.014623359
000100 a1 f1 15 3d e2 d3 00 be 95 c6 a2 bd 48 84 46 be
       0.03660739 -0.12580827 -0.07948033 -0.19386399
000110 c6 f5 a2 3d cd cd 15 be 20 96 60 bc b8 91 d1 bd
       0.07957034 -0.14629288 -0.013707668 -0.10232872
000120 29 9c 22 be 0a 84 f3 3d 1e 13 21 3e 6c 35 9d be
       -0.15879883 0.11890419 0.15729949 -0.3070482
000130 b2 9b b7 3d 83 95 87 bd 3d 89 2b 3e bf e7 2b 3e
       0.089652434 -0.06620314 0.16751571 0.16787623
000140 1f 55 75 be f4 c8 0a be b2 d8 6c bd 37 f7 f3 3d
       -0.23958252 -0.1355322 -0.057823844 0.11912387
000150 5a 5b ae bd d9 1a 3e bd 24 d7 02 be b7 b5 73 3d
       -0.08513518 -0.046412323 -0.12777382 0.05949947
000160 42 22 ea bc b2 9c 6f 3d 6b 48 da 3d 14 b5 7a 3d
       -0.028580789 0.058499046 0.10658344 0.061207846
000170 be fd 43 3d 9c 69 a2 3d 6e 95 c3 bd 34 f8 e1 3d
       0.04784941 0.079303 -0.09549986 0.11033669

fc3.bias f4 [3]
000000 96 dd 8b be b5 9b ec 3d 36 f6 c9 be
       -0.27317494 0.11553136 -0.39445657
