route_TSC/model/0.5_astar_dqn_joint_0315/best_model/target_q_netveh.pt (torch, 13784 bytes, 6 tensors)

fc1.weight f4 [64, 8]
0	0xbd001704	-0.03127195
1	0x3c8f8ac0	0.017522216
2	0xbde55263	-0.11197355
3	0x3e1930e5	0.14960058
4	0x3a614ee9	0.00085948274
5	0x3de460b8	0.1115126
6	0xbe91394c	-0.28364027
7	0xbe8aea01	-0.27131656
8	0xbcd3e9cd	-0.02586832
9	0xbe8a4fa5	-0.2701389
10	0xbd998225	-0.07495526
11	0xbe85ed46	-0.26157588
12	0x3e6e0d3f	0.2324724
13	0x3d8fb93a	0.07017751
14	0xbe5f3f3f	-0.2180147
15	0x3e932731	0.28740838
16	0x3e9a2f7d	0.30114356
17	0x3dec28e6	0.11531238
18	0x3d7025bb	0.058629733
19	0xbdde55dd	-0.10856221
20	0xbdc6c078	-0.09704679
21	0x3e8db6ad	0.27678433
22	0x3e2f98bf	0.17148112
23	0xbe83423e	-0.25636476
24	0x3e45ac39	0.19303979
25	0xbd7404e0	-0.05957496
26	0x3e67ed21	0.22649051
27	0xbe1f1bf8	-0.15538013
28	0x3d744cfc	0.05964373
29	0xbe3179e6	-0.17331657
30	0x3ea8f2b8	0.3299768
31	0x3ca711b7	0.02039419
32	0x3d84babe	0.06480931
33	0xbe048495	-0.12941201
34	0xbd61fda3	-0.055173527
35	0x3d59a847	0.053138997
36	0x3dff39bb	0.12462183
37	0xbdabfda5	-0.08397988
38	0x3d7c26f2	0.06156058
39	0x3e2624a0	0.16224909
40	0xbe804e44	-0.25059712
41	0x3d7976d2	0.06090433
42	0x3d49f1f2	0.049303003
43	0x3d58cfca	0.052932538
44	0x3dd4834e	0.10376607
45	0xbd63885a	-0.055549957
46	0xbc68eafc	-0.014216181
47	0xbea66960	-0.3250227
48	0x3e9515b5	0.29118124
49	0xbe920826	-0.28521842
50	0xbe3a9ea0	-0.18224573
51	0xbe92abde	-0.2864675
52	0xbdbcf8bf	-0.09227132
53	0xbe8829d2	-0.26594406
54	0xbe15fd78	-0.14647472
55	0xbe9dc8d5	-0.30817285
56	0x3e2f98ed	0.1714818
57	0xbe88df46	-0.26732844
58	0xbcd45ca5	-0.025923083
59	0xbe1e8389	-0.15479864
60	0x3e12d1c8	0.14337838
61	0x3e8222f9	0.25417307
62	0xbe65a9b8	-0.22428024
63	0xbd35ed3d	-0.0444157
64	0x3d17919b	0.037004095
65	0x3d11d886	0.035606883
66	0x3e42de53	0.19030122
67	0xbe169e0f	-0.14708732
68	0x3cf620fe	0.030045029
69	0x3db9dbe7	0.09075146
70	0x3ccd1929	0.025036411
71	0x3e719fec	0.23596162
72	0x3e75384b	0.23947255
73	0xbe928d9d	-0.28623667
74	0x3dccf1c3	0.1000705
75	0x3e1477f1	0.14498879
76	0xbe8822b3	-0.26588973
77	0x3d39ee96	0.04539355
78	0x3e8e6783	0.27813348
79	0x3e9459bd	0.28974715
80	0x3e789d18	0.24278677
81	0x3e8e526f	0.27797267
82	0xbe95e64e	-0.2927727
83	0xbe46fe0c	-0.19432849
84	0xbe9749bd	-0.29548445
85	0x3e9d84a0	0.30765247
86	0x3e75ac86	0.23991594
87	0xbe874777	-0.2642171
88	0x3e1f2517	0.15541492
89	0xbe042e99	-0.129084
90	0xbca58863	-0.020206636
91	0x3b96c478	0.0046010576
92	0x3e4b3ee9	0.19848217
93	0x3e8dfe87	0.2773325
94	0x3df3a8c1	0.11897422
95	0xbe961a87	-0.29317114
96	0xbdc3161f	-0.09525704
97	0xbe76421f	-0.2404866
98	0x3e8c0e99	0.27354887
99	0x3d2f3452	0.042774506
100	0xbb0ba93e	-0.0021310593
101	0xbeabc9fe	-0.33552545
102	0x3e631ac6	0.22178182
103	0xbe8cf29e	-0.27528852
104	0xbe0443f9	-0.12916555
105	0xbe566f45	-0.20940883
106	0x3e6ecacf	0.23319553
107	0xbcb71f6b	-0.022353848
108	0xbe004ac6	-0.12528524
109	0x3d8ddfe4	0.069274694
110	0x3da67a5b	0.08128806
111	0xbe9d9879	-0.3078039
112	0x3e2a596c	0.16635674
113	0x3bf9bf8f	0.0076217125
114	0xbe9bb3b1	-0.3041053
115	0xbdec2164	-0.11529806
116	0x3e6799ae	0.22617218
117	0x3e7b9aa1	0.24570705
118	0x3e48ea43	0.19620614
119	0x3ead3d96	0.3383605
120	0x3de6b262	0.112644926
121	0xbcb64892	-0.022251401
122	0xbe81bf11	-0.25341085
123	0xbe7fe52c	-0.24989766
124	0xbdb25e2b	-0.08709367
125	0x3dc1a006	0.0945435
126	0x3df67518	0.120340526
127	0xbe8fbab2	-0.28072125
128	0xbe264b1e	-0.16239592
129	0x3e252f25	0.16131265
130	0xbd8efff4	-0.06982413
131	0x3b01200c	0.001970294
132	0xbd32ea64	-0.043680564
133	0x3e44152c	0.19148701
134	0xbe9d3eb5	-0.30711904
135	0xbe96dc0e	-0.29464763
136	0xbe023ddc	-0.1271891
137	0xbe36eafc	-0.17863077
138	0x3ea5db69	0.3239396
139	0x3e735301	0.23762132
140	0x3e887815	0.26654115
141	0x3e3d10b0	0.18463397
142	0xbe810551	-0.2519937
143	0xbc75b212	-0.014996069
144	0xbd9260be	-0.07147358
145	0x3e48022b	0.19532077
146	0xbd5d062f	-0.053960975
147	0x3e9f24f7	0.3108289
148	0xbe74d860	-0.23910666
149	0x3e25ab27	0.1617857
150	0x3e911e06	0.2834322
151	0xbe9b6bf6	-0.30355805
152	0x3d23074b	0.039801877
153	0x3cdbc5f3	0.026827788
154	0x3d0a5e6b	0.03378145
155	0xbe71a2b4	-0.23597223
156	0x3e409ca5	0.18809755
157	0xbd171bcf	-0.036891755
158	0xbda07368	-0.07834512
159	0x3cc37fb1	0.023864599
160	0xbe443a1b	-0.1916279
161	0x3e98d210	0.29847765
162	0x3e9add6b	0.30247054
163	0x3e410928	0.18851149
164	0xbea2e5ce	-0.31815952
165	0x3e0d02c7	0.1377059
166	0x3ea01497	0.3126571
167	0x3e918195	0.28419176
168	0x3d2b48a2	0.041817315
169	0x3ccc6106	0.024948608
170	0xbd4795db	-0.048726898
171	0xbd106e60	-0.03526151
172	0xbe1dd53a	-0.1541337
173	0xbea42bdd	-0.32064715
174	0xbe1bab3a	-0.15202036
175	0x3e75da7e	0.2400913
176	0x3e0d5cc7	0.13804923
177	0xbe2f1138	-0.17096412
178	0x3e05e912	0.1307719
179	0x3dab8495	0.083748974
180	0xbe4351b4	-0.19074136
181	0x3e41b91b	0.18918268
182	0xbd5c1927	-0.053734925
183	0xbcc5cbbe	-0.024145003
184	0xbdd766df	-0.10517668
185	0x3df09321	0.117468126
186	0x3dc10c40	0.094261646
187	0x3c566e9e	0.013087897
188	0x3e855323	0.2603999
189	0x3e8ead16	0.2786643
190	0xbe9f4989	-0.3111079
191	0xbd7d9833	-0.061912727
192	0x3e914931	0.28376153
193	0xbe1ff450	-0.15620542
194	0xbe319a0d	-0.17343922
195	0x3ea949db	0.3306416
196	0x3d5a226e	0.05325549
197	0x3e4252be	0.18976876
198	0x3e02eb1b	0.12784998
199	0x3e5c2a07	0.21500407
200	0x3e3c023a	0.18360224
201	0xbe99c3e6	-0.3003227
202	0x3ce77977	0.028256161
203	0xbd545181	-0.05183554
204	0xbc7caaf0	-0.015421614
205	0xbda142f5	-0.07874099
206	0xbe35387d	-0.1769733
207	0x3d61ab92	0.055095263
208	0xbeac3845	-0.3363668
209	0x3da2cf3d	0.07949684
210	0x3ced6fd1	0.028983982
211	0x3dc187e2	0.09449746
212	0xbe94d948	-0.29072022
213	0xbd39126d	-0.045183588
214	0xbd4d450e	-0.050114684
215	0x3e52aa0a	0.20572677
216	0x3e13f50a	0.14448944
217	0x3d12d55e	0.035848014
218	0x3aa8ebda	0.0012887672
219	0x3bb60651	0.005554952
220	0x3e8450d8	0.2584293
221	0x3c856e2e	0.01628789
222	0x3db2f443	0.087379955
223	0x3d2c18b1	0.042015735
224	0x3e5d2eeb	0.21599929
225	0xbdf57790	-0.11985695
226	0x3e2acdbb	0.16680042
227	0xbe5bb6f8	-0.21456516
228	0x3df7fe0c	0.121090025
229	0xbe1e0969	-0.15433277
230	0x3e1d5296	0.15363535
231	0x3ccdf025	0.025138924
232	0x3e2d5c54	0.16929752
233	0x3e309d9c	0.17247623
234	0x3e336398	0.17518461
235	0x3ddeff54	0.10888544
236	0x3e93d9b6	0.28877038
237	0x3cc0ee41	0.023551108
238	0xbdee4c86	-0.116356894
239	0xbdc1ef27	-0.09469443
240	0x3e45dded	0.19322939
241	0xbd9b2e41	-0.075771816
242	0xbe40b6f8	-0.18819797
243	0xbea6d5b1	-0.3258491
244	0x3e0cd983	0.13754849
245	0x3c6a34ef	0.014294847
246	0xbe0b91fa	-0.13629904
247	0x3e423cc0	0.18968487
248	0x3e85ff22	0.26171213
249	0xbd4f224d	-0.05056982
250	0x3d9e45cd	0.07728157
251	0xbe835152	-0.2564798
252	0x3e7a49d1	0.24442221
253	0x3e8298f9	0.25507334
254	0xbe42b26a	-0.19013372
255	0x3e533bd5	0.20628293

fc1.bias f4 [64]
0	0xbcac3698	-0.021022126
1	0xbcaa8461	-0.020815076
2	0x3d918742	0.071058765
3	0x3ea9e9ab	0.33186087
4	0x3e8f0182	0.27930838
5	0x3e3ab731	0.18233944
6	0xbe793000	-0.24334717
7	0x3d2f11b0	0.042741477
8	0x3ea37ad4	0.31929648
9	0x3eadf6da	0.33977395
10	0x3e5b3ac3	0.21409135
11	0x3e43f874	0.19137746
12	0x3e14b678	0.14522731
13	0x3e13b036	0.14422688
14	0x3d4e0379	0.05029628
15	0xbea2faf0	-0.31832075
16	0xbea6ba38	-0.3256395
17	0xbe87fe02	-0.2656098
18	0x3e471db1	0.1944492
19	0xbde8e1ca	-0.11371191
20	0xbe00e965	-0.12589033
21	0xbc42ce82	-0.011890056
22	0xbe37fd20	-0.17967653
23	0x3e69fcc8	0.22850335
24	0xbdbbeb89	-0.09175784
25	0x3d7e129d	0.06202947
26	0xbe8bc2e5	-0.2729713
27	0xbe6be2e3	-0.23035769
28	0xbd3a7bdb	-0.045528274
29	0xbd7754a6	-0.06038346
30	0x3e198e39	0.1499566
31	0x3e124b5e	0.14286563
32	0xbea1413a	-0.31495076
33	0x3e6e9be9	0.23301663
34	0xbd72be47	-0.059263494
35	0xbdfee735	-0.12446443
36	0xbe311f4d	-0.17297097
37	0x3e7749fb	0.24149315
38	0xbe279092	-0.16363743
39	0xbe44a53b	-0.19203655
40	0x3ea2bde7	0.3178551
41	0xbe8ffe4d	-0.28123704
42	0xbe81949f	-0.253087
43	0x3ea33c2c	0.31881845
44	0xbd2902d6	-0.04126247
45	0xbdee0ce8	-0.116235554
46	0xbe5e2c75	-0.21696647
47	0xbe7eb341	-0.24873067
48	0xbd079725	-0.033103127
49	0xbe55290e	-0.20816442
50	0xbd507a98	-0.050898165
51	0x3c239420	0.009984046
52	0xbe5ec43a	-0.21754542
53	0x3e85d44d	0.26138535
54	0x3ea1c55b	0.31595883
55	0xbe0844c8	-0.13307488
56	0x3e5be0f3	0.2147253
57	0xbd556928	-0.052102238
58	0xbc9d998b	-0.019238254
59	0xbdb60b9f	-0.08888935
60	0xbe9738d2	-0.29535538
61	0x3e847586	0.25870913
62	0x3e9f09b5	0.31062093
63	0xbd0d98af	-0.03456944

fc2.weight f4 [32, 64]
0	0x3da70fcb	0.08157309
1	0xbc7b1247	-0.015324182
2	0xbd66171e	-0.05617439
3	0xbbc527c3	-0.006016703
4	0x3dd930d6	0.10605018
5	0x3de357cf	0.111007325
6	0xbd2d6680	-0.04233408
7	0x3c687200	0.014187336
8	0x3dd40629	0.103527375
9	0xbd08a60f	-0.03336149
10	0xbcf6570f	-0.03007081
11	0xbdee70b0	-0.11642587
12	0x3c8c9c33	0.017164325
13	0x3de20431	0.11035956
14	0x3c572536	0.01313143
15	0x3d950740	0.072767735
16	0xbdac378a	-0.08409031
17	0x3d340fab	0.043960255
18	0xbd633f7c	-0.055480465
19	0xbda1509f	-0.078767054
20	0xbdc18cdc	-0.09450695
21	0xbd395ef5	-0.045256574
22	0xbcd20dba	-0.025641311
23	0xbddcb20e	-0.10776149
24	0xbdea1012	-0.114288464
25	0x3c38868b	0.011262546
26	0x3d771bd6	0.06032928
27	0xbd7331b1	-0.05937356
28	0x3ddb4f95	0.107085384
29	0x3d6b306b	0.05741922
30	0x3c8cad0e	0.017172363
31	0x3c140329	0.009033957
32	0x3cebf500	0.028803349
33	0xbd59c217	-0.053163614
34	0x3d99ef24	0.075163156
35	0x3ca53ac8	0.02016963
36	0x3db9a86a	0.090653256
37	0x3ce97d76	0.028502207
38	0xbc69310c	-0.014232885
39	0xbda8b30c	-0.082372755
40	0x3cb4b6e5	0.022059867
41	0x3d9ef609	0.07761771
42	0x3dbd5974	0.092455775
43	0xbd2c86cb	-0.042120736
44	0xbd5d6f58	-0.054061264
45	0x3d3ada78	0.045618504
46	0xbb181688	-0.002320679
47	0xbdac6370	-0.08417404
48	0x3d3523d7	0.044223633
49	0x3ddd3320	0.10800767
50	0xbdb8031c	-0.08984968
51	0x3df8d358	0.121496856
52	0xbc555c61	-0.013022513
53	0xbd57012c	-0.052491352
54	0xbcc4c009	-0.02401735
55	0x3d94b9c9	0.07261998
56	0x3ca12cac	0.019674622
57	0xbd55a64b	-0.052160542
58	0xbd897a8b	-0.06712826
59	0xbd5ad93a	-0.05342982
60	0xbdd3bfe6	-0.10339336
61	0x3d933ff3	0.07189932
62	0xbdb995a3	-0.09061744
63	0x3c78c79f	0.015184312
64	0xbcce9072	-0.025215361
65	0xbd5b320a	-0.053514518
66	0x3d95f4cf	0.07322084
67	0x3dbd57b5	0.092452444
68	0xbddd649a	-0.10810204
69	0xbdda9703	-0.106733344
70	0xbc8c69bc	-0.017140262
71	0x3d9dc36e	0.07703291
72	0x3d02a5f2	0.03189654
73	0x3d8e244c	0.06940517
74	0xbcbc2d90	-0.022970945
75	0x3bc7878d	0.006089157
76	0xbda3dec4	-0.080014735
77	0x3c8a1bbe	0.016858932
78	0xbdc34c03	-0.095359825
79	0x3dd3809e	0.10327266
80	0xbd8b202f	-0.06793248
81	0xbbf6d188	-0.0075323023
82	0xbd889dee	-0.06670748
83	0xbdfd28d7	-0.12361305
84	0x3d942c88	0.07235056
85	0xbd5dac89	-0.05411962
86	0xbdb7724a	-0.08957346
87	0x3d3c06f3	0.045905065
88	0x3cb1009c	0.021606736
89	0x3cb35209	0.021889703
90	0x3c8948f6	0.016758423
91	0x3df437e0	0.1192472
92	0xbdc7950b	-0.097452246
93	0x3d75723e	0.059923403
94	0x3cca73fc	0.024713509
95	0xbda38822	-0.0798495
96	0xbd95a847	-0.07307487
97	0xbc567d2e	-0.013091369
98	0xbd841d3b	-0.06450888
99	0x3ded4892	0.11586107
100	0x3d53d0ad	0.05171268
101	0x3d39da08	0.045373946
102	0x3d5ae341	0.053439382
103	0xbcf65796	-0.030071061
104	0x3d291e3d	0.041288603
105	0xbded0612	-0.115734234
106	0x3d24ce0a	0.040235557
107	0xbd5cf558	-0.053944916
108	0xbce97271	-0.028496953
109	0xbbddf1e1	-0.006773219
110	0x3d3b6a14	0.04575546
111	0x3d57fd3b	0.052731734
112	0x3d52e470	0.051487386
113	0xbd355f43	-0.0442803
114	0x3d2753ca	0.04085139
115	0x3d8f98c9	0.07011563
116	0xbddd9ba8	-0.10820705
117	0xbd2df720	-0.042472005
118	0x3c21754f	0.009854629
119	0x3c985021	0.018592896
120	0xbd98fbbe	-0.07469891
121	0xbdd67f7f	-0.10473537
122	0xba522eda	-0.00080178457
123	0xbcde0d4c	-0.02710595
124	0xbd87bf8e	-0.06628333
125	0xbd4b2983	-0.049600136
126	0x3de67607	0.11252981
127	0x3d06cc24	0.032909527
128	0xbd821374	-0.06351367
129	0xbc8db435	-0.017297843
130	0x3da43f83	0.080199264
131	0x3d7fc14d	0.062440205
132	0xbddd26f4	-0.10798445
133	0x3de129d5	0.10994307
134	0xbc8ff491	-0.017572673
135	0xbdd0ed79	-0.10201544
136	0x3d6a098c	0.05713801
137	0xbd4eeb2c	-0.050517246
138	0x3de40a8e	0.11134826
139	0xbc12c708	-0.008958586
140	0x3cdeea01	0.027211191
141	0xbda3dd53	-0.080011986
142	0x3dcd548a	0.1002589
143	0x3d5faad2	0.054606266
144	0x3d423a8f	0.047419127
145	0x3de14860	0.110001326
146	0x3c287149	0.010280916
147	0x3d07d480	0.03316164
148	0x3ce725f9	0.028216349
149	0xbcf25cf3	-0.029585337
150	0xbde63ab2	-0.11241664
151	0x3dcfb61b	0.10142156
152	0x3ccfe0dc	0.025375776
153	0xbc5d31ad	-0.013500613
154	0x3bca3522	0.0061708847
155	0xbde791d6	-0.11307113
156	0xbd02e643	-0.031957876
157	0xbc740eb0	-0.01489608
158	0xbdf9d7ce	-0.121993646
159	0x3cc3b6cb	0.023890873
160	0xbd3b34e4	-0.045704737
161	0xbd34683b	-0.044044714
162	0xbd063aaf	-0.03277081
163	0x3d9fec6a	0.07808764
164	0xbd314913	-0.04328258
165	0x3d6deef5	0.058089215
166	0xbd2fa75d	-0.04288422
167	0x3defddc7	0.117122225
168	0x3ca989c9	0.020695584
169	0xbda18bdf	-0.078880064
170	0x3c5b74e5	0.013394569
171	0x3d5c05c3	0.053716432
172	0xbd36bd3e	-0.04461407
173	0x3db8552c	0.0900062
174	0x3db0a565	0.086252965
175	0x3db4698a	0.088091925
176	0x3d1f0aab	0.038828533
177	0xbd95955d	-0.073038794
178	0x3d23db6f	0.04000419
179	0xbdd6c96d	-0.10487638
180	0xbd3a96ed	-0.04555409
181	0x3df53c05	0.119743384
182	0x3bc7acaa	0.006093581
183	0x3c6fec08	0.014643677
184	0x3cbbd80f	0.022930173
185	0x3d80da18	0.06291598
186	0xbd37af83	-0.044845115
187	0x3dd82cf9	0.10555453
188	0xbce80349	-0.028321879
189	0xbc43dc27	-0.011954344
190	0x3bd39bd8	0.006457787
191	0x3d8ebfd2	0.069701806
192	0xbd847bf9	-0.064689584
193	0x3d10780a	0.03527073
194	0x3dea1df0	0.114314914
195	0xbc1cfaa6	-0.009581244
196	0x3d18af45	0.037276525
197	0xbd0ae5d6	-0.033910595
198	0x3dcb61c7	0.09930759
199	0x3cf69f57	0.030105276
200	0x3defbdcd	0.117061235
201	0x3dd36bea	0.10323317
202	0xbc31aaa1	-0.010843904
203	0xbcd33792	-0.025783334
204	0xbd8099a3	-0.06279304
205	0xbd23f75f	-0.040030833
206	0xbd7632dc	-0.060107097
207	0x3c73f8e9	0.014890888
208	0x3da53162	0.0806606
209	0xbc670258	-0.01409968
210	0x3b8a5cd0	0.00422249
211	0xbbf0db03	-0.007350327
212	0x39021112	0.00012404125
213	0xbda7bd3b	-0.0819039
214	0x3d877939	0.06614918
215	0x3da24182	0.07922651
216	0xbd82fbe5	-0.06395701
217	0xbdbba966	-0.091631696
218	0x3a7e46b6	0.0009699868
219	0x3d1afcde	0.03783881
220	0x3dfcdce0	0.12346816
221	0x3b47eea4	0.003050723
222	0x3b7f5c26	0.0038964837
223	0xbcfa8c81	-0.030584576
224	0xbd31cd49	-0.043408666
225	0x3de34abd	0.110982396
226	0x3dcd7879	0.10032744
227	0x3de30022	0.1108401
228	0xbdd846f2	-0.10560407
229	0x3d8c7705	0.06858639
230	0x3c656b43	0.014002624
231	0xbd83602c	-0.06414828
232	0xbc58c548	-0.013230629
233	0x3d901d57	0.07036846
234	0xbdf700ca	-0.120606974
235	0xbd6b1937	-0.057397094
236	0x3bd79ddd	0.006580098
237	0x3d60d43f	0.054889914
238	0x3cd00a4d	0.025395537
239	0xbddb7b9a	-0.107169345
240	0xbd2dafae	-0.04240387
241	0x3d6390e6	0.055558108
242	0x3daf2845	0.08552603
243	0x3d893eb5	0.067014135
244	0x3d8c937c	0.06864068
245	0xbd2d9935	-0.042382438
246	0xbd761434	-0.06007786
247	0x3d3e5076	0.046463452
248	0xbd28e0ee	-0.041230135
249	0x3dca45b3	0.09876575
250	0xbdcd9b20	-0.10039353
251	0xbd78813a	-0.060670115
252	0x3c8ad829	0.016948776
253	0x3db9a6bb	0.090650044
254	0xbd0333ec	-0.03203194
255	0xbcc3209b	-0.023819258

fc2.bias f4 [32]
0	0xbd748c92	-0.05970437
1	0xbd925179	-0.07144446
2	0xbd973a7c	-0.07384202
3	0x3daf42ba	0.08557649
4	0xbd505715	-0.050864298
5	0xbdb9095c	-0.09034988
6	0xbde7e039	-0.11322064
7	0xbdf4375e	-0.11924623
8	0xbd9a2d5f	-0.07528185
9	0x3d449b9e	0.04799997
10	0xbdb93f2c	-0.09045252
11	0x3defe46d	0.11713491
12	0xbcb08679	-0.021548497
13	0xbdbba9df	-0.0916326
14	0x3cbf031e	0.023316916
15	0xbd99750b	-0.07493027
16	0xbdcd1bda	-0.10015078
17	0x3dc009fa	0.09376903
18	0x3d825c01	0.063652046
19	0x3d7c91ca	0.061662473
20	0xbdd17142	-0.1022668
21	0xbd3d9007	-0.046279933
22	0x3dc57007	0.09640508
23	0xbd2927f2	-0.04129786
24	0x3cbb9a5e	0.022900756
25	0xbdc98fe3	-0.09841897
26	0x3c7545b9	0.014970236
27	0xbdb70fbc	-0.08938548
28	0xbc137c28	-0.009001769
29	0x3d53b1b7	0.051683154
30	0xbc7d56e2	-0.015462609
31	0xbdb39233	-0.0876812

fc3.weight f4 [3, 32]
0	0x3bf458b3	0.007456863
1	0xbd3b98ae	-0.045799904
2	0xbde0e936	-0.109819815
3	0x3d72a6d7	0.059241142
4	0x3d94a5a0	0.07258153
5	0xbd966ba4	-0.073447496
6	0xbcea0b00	-0.028569698
7	0xbd7bc150	-0.061463654
8	0xbd191735	-0.037375648
9	0xbe120212	-0.14258602
10	0x3e066a93	0.13126592
11	0xbd8e03a5	-0.06934289
12	0xbe205bec	-0.15660065
13	0x3da021d1	0.0781895
14	0x3d83d582	0.06437208
15	0x3d9a26b1	0.07526911
16	0xbdb203da	-0.08692141
17	0xbd7f4b27	-0.06232753
18	0xbdaff0c3	-0.085908435
19	0x3ddb95ce	0.10721932
20	0xbda23c67	-0.07921677
21	0xbdeca00b	-0.11553963
22	0x3e192cf7	0.14958559
23	0x3d9e5301	0.077306755
24	0x3dad56c8	0.08463818
25	0x3df76ebe	0.12081669
26	0xbd6f25aa	-0.05838553
27	0xbda6f179	-0.08151526
28	0x3d98658a	0.07441242
29	0xbd17f7c2	-0.037101515
30	0xbdeba4c2	-0.115060344
31	0x3d0cda2b	0.03438775
32	0xbe074a6a	-0.1321198
33	0x3ddc15a1	0.10746313
34	0x3db1ea6f	0.08687293
35	0x3e051c9e	0.12999198
36	0x3c2218d5	0.009893616
37	0xbdee9b82	-0.116507545
38	0x3d99f7d1	0.0751797
39	0xbe11fd5d	-0.14256807
40	0x3de5c49c	0.11219141
41	0x3e1f35cf	0.1554787
42	0xbdeda93d	-0.11604545
43	0xbd6e5070	-0.05818218
44	0x3c9286f9	0.017886626
45	0x3e052d3f	0.13005541
46	0xbd755ef8	-0.059905022
47	0x3df30685	0.11866478
48	0xbe20f7f4	-0.15719587
49	0xbe142158	-0.14465845
50	0x3d5411af	0.051774677
51	0x3de904b6	0.11377852
52	0x3d8ed5f1	0.069744
53	0x3b9bbedb	0.0047529764
54	0x3dcee8b1	0.10102976
55	0x3e110658	0.14162576
56	0xbe260dd4	-0.16216213
57	0xbe1b347d	-0.15156741
58	0xbd3f4e12	-0.046705313
59	0xbd4d24e1	-0.050084
60	0x3d13f2c2	0.036120184
61	0x3b17a4b6	0.0023138947
62	0xbcf7d6fa	-0.030253876
63	0xbd8e1edb	-0.06939479
64	0x3c07b560	0.008282989
65	0x3d86029c	0.065434664
66	0x3debb4b1	0.115090735
67	0xbdd48891	-0.103776105
68	0xbd964128	-0.07336646
69	0x3d6090ee	0.054825716
70	0xbe0e7c17	-0.13914524
71	0xbdf02e0a	-0.11727531
72	0x3dad0693	0.084485196
73	0x3c43a0ea	0.01194022
74	0x3df0fc1b	0.11766835
75	0x3d7076e2	0.058707125
76	0x3e21faa8	0.15818274
77	0x3e2b9124	0.16754586
78	0x3e192a37	0.1495751
79	0x3e0619f3	0.13095836
80	0x3e1fde61	0.15612175
81	0x3cb4bf4b	0.022063872
82	0xbda499f3	-0.08037176
83	0x3e0487fb	0.12942497
84	0xbda34a30	-0.079731345
85	0xbd01cf58	-0.03169188
86	0xbda45252	-0.08023514
87	0xbdd8d773	-0.10587969
88	0xbd27170d	-0.040793467
89	0x3d3556d4	0.04427226
90	0xbe1d1d31	-0.15343167
91	0xbd8b7b43	-0.0681062
92	0x3e07b2b8	0.1325177
93	0x3e064a68	0.13114321
94	0x3c446ca9	0.011988797
95	0x3d07c6fc	0.03314875

fc3.bias f4 [3]
0	0xbda1cb75	-0.079001345
1	0xbc9bc759	-0.019015955
2	0xbde4a9eb	-0.11165222
