route_TSC/model/0.5_hatt_router_joint_0315/ep80/q_netveh.pt (torch, 510246 bytes, 26 tensors)

attn f4 [1, 2, 37]
000000 80 01 88 50 f9 05 00 00 00 00 00 00 00 00 00 00
       1.8254397e+10 2.143e-42 0.0 0.0
000010 00 00 00 00 00 00 00 00 00 00 00 00 00 00 00 00
       0.0 0.0 0.0 0.0
000020 00 00 00 00 00 00 00 00 00 00 00 00 00 00 00 00
       0.0 0.0 0.0 0.0
000030 00 00 00 00 00 00 00 00 00 00 00 00 00 00 00 00
       0.0 0.0 0.0 0.0
000040 00 00 00 00 00 00 00 00 00 00 00 00 00 00 00 00
       0.0 0.0 0.0 0.0
000050 00 00 00 00 00 00 00 00 00 00 00 00 00 00 00 00
       0.0 0.0 0.0 0.0
000060 00 00 00 00 00 00 00 00 00 00 00 00 00 00 00 00
       0.0 0.0 0.0 0.0
000070 00 00 00 00 00 00 00 00 00 00 00 00 00 00 00 00
       0.0 0.0 0.0 0.0
000080 00 00 00 00 00 00 00 00 00 00 00 00 00 00 00 00
       0.0 0.0 0.0 0.0
000090 00 00 00 00 00 00 00 00 00 00 00 00 00 00 00 00
       0.0 0.0 0.0 0.0
0000a0 00 00 00 00 00 00 00 00 00 00 00 00 00 00 00 00
       0.0 0.0 0.0 0.0
0000b0 00 00 00 00 00 00 00 00 00 00 00 00 00 00 00 00
       0.0 0.0 0.0 0.0
0000c0 00 00 00 00 00 00 00 00 00 00 00 00 00 00 00 00
       0.0 0.0 0.0 0.0
0000d0 00 00 00 00 00 00 00 00 00 00 00 00 00 00 00 00
       0.0 0.0 0.0 0.0
0000e0 00 00 00 00 00 00 00 00 00 00 00 00 00 00 00 00
       0.0 0.0 0.0 0.0
0000f0 00 00 00 00 00 00 00 00 00 00 00 00 00 00 00 00
       0.0 0.0 0.0 0.0
000100 00 00 00 00 00 00 00 00 00 00 00 00 00 00 00 00
       0.0 0.0 0.0 0.0
000110 00 00 00 00 00 00 00 00 00 00 00 00 00 00 00 00
       0.0 0.0 0.0 0.0
000120 00 00 00 00 00 00 00 00
       0.0 0.0

fc0.weight f4 [32, 2315]
000000 0c cb 8e bb 7e 6c 10 3c 60 71 9d 3c 88 58 d8 3b
       -0.004357701 0.008814929 0.0192191 0.0066023506
000010 a0 cf 97 3c f9 c0 0a bc d4 84 9f 3c ff bc 30 bc
       0.01853162 -0.00846886 0.019472517 -0.010787248
000020 fc 32 8f 3c f6 ef 2a 3c d0 ec d4 ba 20 dd 8c 3c
       0.017480366 0.010433188 -0.0016244892 0.017195284
000030 40 72 62 3a 94 8c a4 3c 78 5e a8 3c f6 72 a3 3c
       0.00086382404 0.020086564 0.020552859 0.019952279
000040 9f bc a9 bc e2 e4 a2 bc 72 7b 27 3c c4 c1 b4 3b
       -0.020719824 -0.01988453 0.010222303 0.0055162627
000050 53 93 a6 bc b4 ef 69 3c 00 7b 4b ba a6 54 8e 3c
       -0.020333922 0.014278341 -0.0007762164 0.017374348
000060 6d 4b 9a bc 0c 75 62 3c 10 c9 7e bb 60 52 d3 3a
       -0.018834794 0.013821851 -0.0038877167 0.0016122572
000070 4c 9a 55 3c 2a 4e 25 bc 84 9c d1 bb da 4f 9e bc
       0.0130372755 -0.010089437 -0.006396832 -0.019325186
000080 98 84 6d 3b 68 57 df bb fa 4e 44 bc 30 1c 43 bc
       0.0036242362 -0.0068158396 -0.01198172 -0.011908576
000090 c6 76 a3 3c 54 4b b1 3b 00 1d 8c 3c 62 ed 06 bc
       0.019954097 0.005410591 0.017103672 -0.008235307
0000a0 90 82 7d bc 10 2c c1 3b d0 b0 44 3c 92 78 be bb
       -0.015473023 0.0058951452 0.012005046 -0.005812713
0000b0 20 07 a2 ba 40 05 6c bc ec 40 a2 bc 60 66 49 3a
       -0.0012361743 -0.014405549 -0.019806348 0.00076827966
0000c0 68 f0 04 3c 94 0a 80 bb a4 1f e2 bb 90 c7 c9 3b
       0.008113958 -0.003907511 -0.0069007445 0.006157823
0000d0 f4 e7 0c 3c 88 c6 a2 3c 20 52 92 3a b4 f8 63 bc
       0.008600224 0.019870058 0.0011163391 -0.013914276
0000e0 3e 4b ad bb a0 32 37 bb 1c b7 b8 bb 68 cd 37 3c
       -0.0052885106 -0.0027953759 -0.0056370627 0.011218406
0000f0 8c c7 e8 3b ac 52 5a 3c 9d 86 75 bc ac 9b 68 3c
       0.007103866 0.013325375 -0.014985708 0.014197271
000100 28 0c f2 bb 82 0b 6d bc a0 d2 d3 3b fe ad 64 bc
       -0.007386703 -0.014468076 0.0064643174 -0.013957499
000110 d4 09 6c 3c c4 12 31 3c a3 e9 81 bc 1b 6e 4c bc
       0.01440664 0.010807697 -0.015858477 -0.012477423
000120 44 38 e6 3b 50 26 14 bc 0c b5 34 3c bc 62 8c 3b
       0.0070257504 -0.009042338 0.011029493 0.004284231
000130 cc 7d 63 bc 80 1c 93 3c 7c 4b c9 3b a6 fd 96 3c
       -0.013884973 0.017957926 0.0061430316 0.018431496
000140 60 8f 01 ba 20 9a 66 bb 9c 41 fa 3b 70 cb fd ba
       -0.0004942324 -0.003518708 0.007637216 -0.0019362997
000150 c6 b2 a8 bc 29 f4 9f bc e0 0c 41 bc a2 af 9a bc
       -0.020593058 -0.019525604 -0.011782855 -0.018882576
000160 f0 03 a0 bb c6 58 8e bc 00 d9 c5 3b da 83 9f bc
       -0.004883282 -0.017376315 0.0060378313 -0.019472051
000170 a0 36 6f bb d1 54 94 bc b3 5e 94 bc 50 52 7e 3c
       -0.0036501065 -0.01810685 -0.018111562 0.0155225545
000180 c0 ed 22 3c 78 c2 dd 3b 00 47 99 3c a6 1d 86 3c
       0.009944379 0.0067675672 0.018710613 0.01637156
000190 16 34 ed bb 88 c0 63 3c 28 18 7e bb d2 c0 13 3c
       -0.007238875 0.0139008835 -0.0038771722 0.00901814
0001a0 5c ac c2 bb 68 40 2a 3b 80 90 65 ba fa ac 8d bc
       -0.005940957 0.002597833 -0.0008757189 -0.017294396
0001b0 be e4 74 bc 68 86 17 3c 76 28 b2 bb d8 bb 0f bb
       -0.0149471145 0.009248354 -0.005436952 -0.0021932032
0001c0 10 99 52 3c ad d6 01 bc d1 37 09 bc 53 4b 7e bc
       0.012853876 -0.007924718 -0.008375124 -0.015520888
0001d0 1c f5 49 3c 98 1f 27 3c 68 0d 0b bb e4 de 00 3c
       0.012326505 0.010200404 -0.0021217708 0.007865641
0001e0 5f 7d 4a bc 60 b9 51 bc 1a 70 8e 3c 70 3a a1 ba
       -0.012358992 -0.0128005445 0.017387439 -0.0012300741
0001f0 e2 11 37 bc 8c a2 35 3c 34 fd 32 3c b0 05 6d bb
       -0.011173697 0.0110861175 0.010924626 -0.003616672
000200 5c 47 fe 3b f8 a1 87 3b a8 7a 4f 3c 90 1e ee ba
       0.0077599715 0.004139181 0.012663521 -0.0018167067
000210 50 68 d8 3a d8 f3 cb bb a6 65 17 3c 60 ae 69 3a
       0.001651058 -0.006224137 0.0092405435 0.00089142285
000220 cc 5e d9 3b 0c c6 87 bc e4 e4 88 bc 80 03 81 ba
       0.006633615 -0.016573928 -0.016710706 -0.0009842962
000230 aa b9 89 bc a0 24 99 bb d1 61 89 bc 74 c2 60 3c
       -0.016812164 -0.0046735555 -0.016770275 0.013718236
000240 d8 2c 8b 3b 34 5a 56 bc c4 80 89 3c 1a 1b 99 3c
       0.004247289 -0.01308303 0.016785033 0.01868968
000250 dc dd e6 3b 40 3b 37 3b fa e8 db bb d4 0c cf bb
       0.0070454907 0.00279589 -0.0067111226 -0.006318668
000260 0a 81 8c 3c bc d7 21 3c 69 a4 80 bc 60 5e 41 3c
       0.017151374 0.009878095 -0.015703397 0.011802286
000270 40 38 5a bb 6c 1c 5d 3c f7 e2 23 bc 18 97 5e 3b
       -0.0033297688 0.013495546 -0.010002843 0.003396457
000280 39 7e 27 bc d0 e2 a3 3c a0 65 51 3a 10 2c 5f 3b
       -0.010222965 0.020005614 0.00079878606 0.0034053363
000290 ec 24 f3 bb 10 9b 49 bb 58 a8 41 3b e8 f1 df 3b
       -0.007420173 -0.003076259 0.0029549804 0.0068342574
0002a0 60 b1 95 bb a0 18 7f 3b 20 0d 18 3c f4 d3 7b bc
       -0.004568264 0.003892459 0.009280473 -0.015370358
0002b0 70 fb 60 3b f0 75 67 3b b0 41 85 3b e8 8a e9 3b
       0.0034329556 0.00353181 0.0040666685 0.0071271546
0002c0 e8 31 79 bb 40 08 ae ba 2a a4 a3 bc 54 24 8c 3c
       -0.0038024131 -0.0013277605 -0.01997574 0.017107166
0002d0 a0 94 8b bc b5 aa 41 bc 6e 18 8e bc 0e f1 c5 bb
       -0.017038643 -0.011820485 -0.017345633 -0.006040699
0002e0 22 e9 81 bc 14 1b 14 bc 2d cc 9e bc 14 be 28 3c
       -0.015858237 -0.009039659 -0.019384468 0.010299224
0002f0 21 40 8a bc 30 d7 9b ba d2 a5 28 bc 12 3e 0f 3c
       -0.016876282 -0.0011889692 -0.010293441 0.008742826
000300 90 d6 7c 3c 5b bf 69 bc 78 ca 6c bb 70 47 3b 3b
       0.015432015 -0.014266814 -0.0036131423 0.0028576516
000310 48 e8 04 3b 94 61 48 3c 93 c1 1d bc 70 7d d6 3a
       0.0020280052 0.012230296 -0.009628671 0.0016364288
000320 80 39 cd 3b a0 fa 3c 3a d0 cc 68 3c 7c 58 62 3c
       0.006262958 0.0007208977 0.014208987 0.013815042
000330 b8 3f 91 bc 10 ee c9 3b 30 2c 10 3c 5c 99 87 bc
       -0.017730579 0.0061624125 0.008799598 -0.01655262
000340 b8 70 05 3b 5c ec 85 3c 84 d3 97 3c 14 50 7e 3c
       0.0020361375 0.016348056 0.018533476 0.015522022
000350 c0 bf 8f 3c 8e 54 8f bc 8c 92 38 bc b8 79 99 bc
       0.017547488 -0.017496374 -0.011265408 -0.018734798
000360 ce 84 9a 3c 20 46 66 3c 4d 5a 86 bc 10 7c 22 3c
       0.018862154 0.014054805 -0.01640048 0.009917274
000370 ec 01 06 bc 30 ef b8 ba 00 2c 7a 38 34 e6 49 3c
       -0.008179169 -0.0014109369 5.9645623e-05 0.012322951
000380 56 9b 86 3c c4 13 d9 3b af 08 9a bc 1c 08 dc bb
       0.016431492 0.0066246707 -0.018802969 -0.006714834
000390 86 f0 63 bc 1c bb 8f 3c 60 c4 31 3b c0 5c b3 b9
       -0.013912326 0.017545275 0.0027125105 -0.00034210645
0003a0 81 e7 a3 bc 0c 76 62 3c fc 07 85 bc d4 69 fc bb
       -0.02000785 0.01382209 -0.016239159 -0.0077030454
0003b0 c6 f5 5c bc e4 9b 75 3c 20 9d 90 ba c8 19 ed bb
       -0.013486331 0.0149907805 -0.0011033155 -0.0072357394
0003c0 38 0c 72 3b 20 80 95 3b 27 1b 9b bc f6 b9 1f 3c
       0.0036933552 0.004562393 -0.018933846 0.009748926
0003d0 80 e6 d2 39 8c 1e 9c bc 52 cc fc bb e8 ea 5b 3c
       0.00040226057 -0.019057535 -0.0077147866 0.013422705
0003e0 40 01 7b 3c 78 01 42 3c f6 c5 a9 3c 48 79 df 3b
       0.015320122 0.0118411705 0.020724278 0.006819878
0003f0 20 82 1f ba 22 40 85 bc 4d df 78 bc a0 03 ad bb
       -0.0006084759 -0.016265932 -0.015189958 -0.005279973

fc0.bias f4 [32]
000000 8b ba 01 bc 2c 1c 8f 3c 18 f9 7f 3c 8c 94 6a bc
       -0.0079180105 0.017469488 0.015623353 -0.014317643
000010 ea f6 a3 bc a7 b9 6c bc 8e 23 04 bc 80 85 35 3c
       -0.020015199 -0.01444856 -0.0080651175 0.011079192
000020 c4 17 e6 bb 80 c6 5c 3b 00 f7 b6 38 64 f7 c6 bb
       -0.007021876 0.003368765 8.7244436e-05 -0.0060719717
000030 f6 33 b5 bb 28 40 85 bc 0b b9 68 bc 28 9a 66 3c
       -0.005529876 -0.016265944 -0.014204274 0.01407484
000040 8a f1 99 3c e0 5c 32 3b 10 a8 6e 3c 55 32 2a bc
       0.018791933 0.0027216002 0.014566436 -0.010387977
000050 80 4f 86 bb 8c 0a 9f 3c c0 64 85 ba 6b 6e 90 bc
       -0.0040988326 0.019414209 -0.001017712 -0.017630776
000060 e5 be a9 bc e0 97 2e 3a 10 ab 60 bc 9d 69 44 bc
       -0.020720908 0.00066602044 -0.0137126595 -0.011988071
000070 b0 4a 24 bc bc 14 1d bc 80 61 74 ba 07 d8 90 bc
       -0.0100275725 -0.009587463 -0.000932239 -0.017681135

fc1.weight f4 [32, 32]
000000 f6 a7 ae 3d f2 49 45 be 50 3d 6a 3d 23 5a f5 3d
       0.0852813 -0.19266489 0.05718738 0.11980083
000010 39 68 d4 bd b6 19 ad 3d 6e ed ed bc 55 70 98 bd
       -0.103714414 0.084521696 -0.02904388 -0.07443301
000020 20 81 ac be 73 28 34 3e fe 02 36 3e b8 3e 0d be
       -0.33692265 0.17593555 0.17774579 -0.13793457
000030 cb 83 8e be 1e 39 1c bf 85 43 e3 3d fc fd 11 be
       -0.27834925 -0.61024654 0.11096863 -0.14257044
000040 13 ac d4 3d 72 9c c7 be db 06 87 be 84 8f aa 3c
       0.10384383 -0.38986546 -0.26372418 0.020820387
000050 10 92 a1 3d 3a 1e 25 3e 8c 56 52 bd a8 26 c7 bd
       0.07889187 0.16124812 -0.05135207 -0.0972417
000060 1e 88 2c bc 91 45 9c bd fe c8 ed 3d 79 16 0b be
       -0.0105305 -0.07630456 0.11610602 -0.13582791
000070 aa c5 20 bf 55 bd 9e 3e e7 f2 93 bd aa 34 7e 3e
       -0.6280161 0.31003824 -0.07224064 0.24824777
000080 b0 eb 0c bf eb 7c 1c be d7 51 50 bf f0 2c 13 bd
       -0.5504713 -0.15282027 -0.8137488 -0.035931528
000090 16 8b 50 be 4a 87 58 be cf 74 7f 3e 3c dd 86 be
       -0.20365557 -0.21145359 0.24946903 -0.26340663
0000a0 45 c2 10 3d 02 9c 8c bf cd 61 24 be ee 70 85 be
       0.03534152 -1.098511 -0.16052933 -0.2606272
0000b0 66 41 83 3b a2 b7 79 bd 13 d1 a1 3d 45 55 0e 3e
       0.004005599 -0.06096614 0.07901206 0.13899715
0000c0 6a 6e 4d 3d 54 9d 2f 3e 41 c6 7f 3e 61 d4 99 3e
       0.050154127 0.1714986 0.24977972 0.30044845
0000d0 84 15 ff bd 2b ab 74 be d1 2a 14 be b3 98 ae 3d
       -0.12455276 -0.2389342 -0.14469458 0.08525219
0000e0 58 6f 4b 3d 4a d4 87 3e 5a 30 ee 3c 93 27 ce 3d
       0.049666733 0.2652915 0.02907579 0.10066142
0000f0 f4 64 08 3e 4c e0 a8 bf cd 73 d4 3c 5f 80 8f 3d
       0.1331976 -1.319345 0.025934124 0.07006907
000100 19 f6 43 3e 9d 04 22 3e 20 c5 ee 3d 38 c0 c7 3d
       0.19136848 0.15822072 0.11658692 0.0975346
000110 dc 2b 0d bd 5f f1 05 be 27 9e 6f be 96 43 a3 be
       -0.034465656 -0.13080357 -0.23400174 -0.318875
000120 0c 35 f6 be ef d6 b0 bd 32 d8 ca 3d 14 0c 6b 3e
       -0.48087347 -0.08634745 0.09904517 0.22953826
000130 ec 18 90 3e 73 73 ac 3d 8f b7 d2 bc 8e 15 95 3d
       0.28144014 0.08420458 -0.025722293 0.07279502
000140 f5 16 92 3e 55 a8 58 3e 8b cf 10 bc 54 b4 94 ba
       0.2853314 0.21157964 -0.008838545 -0.0011345246
000150 b7 37 76 bd dc 8f 3c 3e 5f 72 a7 3d f3 b8 2e 3d
       -0.060111728 0.18414253 0.081761114 0.04265685
000160 16 09 5e 3e f9 4b ea 3d 98 25 84 3e 98 21 05 3e
       0.21683154 0.11440272 0.25809932 0.13001096
000170 eb 93 a4 3e 58 c6 8f bd 11 79 67 3d e1 8a 6c be
       0.32144102 -0.07020253 0.056511942 -0.23099853
000180 4d 5c a4 3d 7c e3 5d 3c 5a f6 59 3d 6f e8 1b bd
       0.080254175 0.013543006 0.053213455 -0.038063463
000190 24 78 11 3e e3 35 ae bd c2 b5 9b 3e 35 4d 9c bd
       0.14205986 -0.08506372 0.30412108 -0.076319136
0001a0 54 59 e7 bb 69 a4 22 3e 06 1d 54 3e f0 c0 a7 3c
       -0.0070602093 0.1588303 0.20714197 0.020477742
0001b0 00 74 9e bd 55 b6 6e bf ef 2f 47 3e 1f e4 87 bd
       -0.07736969 -0.93246967 0.19451879 -0.066353075
0001c0 98 ba 23 3d aa 0e 49 bf 48 2c a5 be f3 11 b1 3e
       0.03997287 -0.78538 -0.32260346 0.34584007
0001d0 8e f8 6d be 01 2b ff bd 61 60 c9 3d 40 71 b0 3d
       -0.23239347 -0.12459374 0.09832836 0.08615351
0001e0 48 58 88 3d 00 0c 52 be d2 71 4e bd 44 f1 26 be
       0.06657463 -0.2051239 -0.050401516 -0.16302973
0001f0 48 d5 6e bf 9f 18 b6 3e 56 0d 8d bd 70 0e 5e 3d
       -0.9329419 0.3556566 -0.06887309 0.054212987
000200 ff 1c 59 be 6c 0c 75 be 85 5c 16 bf 6a d5 40 3d
       -0.21202467 -0.2393052 -0.58734924 0.047078528
000210 09 5a 8d 3e e5 b0 26 be 81 24 4c 3e 60 1a a2 3d
       0.27607754 -0.16278417 0.199358 0.07915187
000220 ce 2a 87 3d 11 16 26 be 25 4a b1 bd 61 bd 9b 3c
       0.06599961 -0.16219355 -0.0865672 0.019011201
000230 b0 da 6b be 66 bc 7d bf 92 58 8b bd 93 ef 3a bc
       -0.23032641 -0.991156 -0.06804003 -0.011409658
000240 a4 49 66 3e 59 f0 01 bd 8d b8 a8 3e e2 28 06 3e
       0.22489029 -0.031723354 0.329533 0.13101533
000250 76 5c 8f bd be 2e 27 3e 85 80 f4 be 24 5b 3f 3c
       -0.070000574 0.16326424 -0.47754303 0.011679444
000260 dc f7 c6 bd cb cd 19 3d 72 d1 7f 3e f7 b8 15 bd
       -0.09715244 0.037549775 0.24982241 -0.03655335
000270 79 d0 32 3e d1 29 60 bf a0 35 11 be 00 93 a9 3d
       0.17462339 -0.87563807 -0.14180613 0.08279991
000280 68 90 24 bd 12 f3 e2 bd bd e6 f8 be be a8 56 be
       -0.04017678 -0.11081518 -0.4861354 -0.20962808
000290 fb b7 84 3e 56 b3 8e 3b d9 63 d0 3d 40 d7 b2 3b
       0.25921616 0.0043548746 0.101752944 0.0054577887
0002a0 4a 38 4d 3e 19 fc 5b bf b8 19 3a be ca b0 41 be
       0.20041004 -0.85931545 -0.18173873 -0.18915096
0002b0 cf 51 0b be 5c 7a f2 bd 9d 3c f3 bd a5 8e f4 3d
       -0.13605426 -0.118397444 -0.118767954 0.1194127
0002c0 2e b1 bf 3d 43 9c 1b bd b5 5c 3a 3d 15 d2 02 bd
       0.09359966 -0.03799082 0.04549857 -0.03193863
0002d0 2f 91 69 3d fe 88 36 bd 9c 86 34 3d e8 ab b8 3d
       0.057023223 -0.04456424 0.044073686 0.090171635
0002e0 d7 38 eb 3d c4 8e 2e bd 83 fb 8d 3e 74 1d 7e 3e
       0.11485451 -0.04261662 0.2773095 0.24815923
0002f0 c2 8d 38 3c cf 56 fd be a3 ce 2a 3d 58 ec 06 bf
       0.011264266 -0.49480292 0.04170097 -0.5270438
000300 d2 8e ee be 82 b1 9e bf c5 d6 df bd c0 90 a1 bd
       -0.46593338 -1.2397921 -0.10929636 -0.07888937
000310 ec ab 0d bd 5f 62 97 be 77 51 4b 3d 5a 0f 83 be
       -0.034587786 -0.2956724 0.049638238 -0.2559765
000320 00 62 42 be f5 3d a5 3c 9c 42 15 be b5 33 ce bd
       -0.18982697 0.020171145 -0.1457619 -0.10068456
000330 e7 21 b7 be 30 0a 4e 3d 34 79 a7 bd 4b 8f 2e bf
       -0.35768053 0.050302684 -0.081774145 -0.681874
000340 86 3b 11 bf 77 24 fe bd 30 6b 6c 3e 05 80 c5 3e
       -0.5673145 -0.12409299 0.23087764 0.38574234
000350 89 46 b0 be 90 22 88 bf 7d b1 49 bf a0 42 5a 3e
       -0.34428814 -1.0635548 -0.7878645 0.21314478
000360 92 2a d7 3d 15 31 f6 bc a6 6a 57 be 2b e1 39 be
       0.105061665 -0.030052701 -0.21036777 -0.18152301
000370 37 dc 80 be d7 80 2a 3f 50 3a 9c be 51 d4 c2 3d
       -0.2516801 0.66602844 -0.3051324 0.095131524
000380 5b 1e 07 bf 88 73 20 be a7 bf 6b 3e ce ce f7 be
       -0.52780694 -0.15669072 0.23022328 -0.48399967
000390 e5 28 38 3e 04 d7 88 3e cf c3 5f be e8 92 01 bf
       0.1798435 0.26726544 -0.21852039 -0.50614786
0003a0 b1 0b 38 bf 58 8f b5 bc 28 d5 95 3e 74 2d 89 3d
       -0.7189284 -0.022163078 0.29264188 0.066981226
0003b0 f2 79 bf 3d 1d 9f b6 bc 49 26 f1 3d 5a 5b c5 be
       0.09349431 -0.022292668 0.117748804 -0.38546258
0003c0 98 2d 9c 3e 0a 40 60 bc 1f 49 67 bf e6 6b a0 be
       0.30503535 -0.013687143 -0.9034595 -0.3133232
0003d0 d4 53 f4 be 26 db 90 be 60 0d 2f be 1f fd 8b bf
       -0.47720206 -0.28292197 -0.17094946 -1.0936621
0003e0 9f 10 99 3d 78 f5 3b be 42 8e e2 3d 06 ee a7 3e
       0.07473873 -0.18355358 0.1106229 0.32798785
0003f0 42 68 c7 bd d1 9c 0c be a2 00 89 be 2f 50 d0 3d
       -0.097366825 -0.13731696 -0.26758295 0.10171544

fc1.bias f4 [32]
000000 96 28 ed 3e 69 09 d1 3e f4 54 6a 3f 09 1b 6c 3f
       0.46320027 0.40827492 0.9153588 0.9222875
000010 ec 75 62 3e 07 dd 55 3f f9 6f 6a 3f d6 f4 37 3e
       0.22115296 0.83540386 0.91577107 0.17964491
000020 aa 01 0d 3f 5f c5 8c 3e 6a 7d 81 3f 8d 28 40 3e
       0.55080664 0.27494332 1.0116398 0.18765469
000030 d2 ac 88 3f 7b 1a ec be 18 cc 8d 3d 0a f7 39 3f
       1.067774 -0.46113953 0.069236934 0.72642577
000040 f4 fe 7d 3e 75 fe 84 3e 10 c3 89 3e 2e 34 5d be
       0.24804288 0.25975385 0.26906633 -0.21601936
000050 ac 99 85 3f 0d 59 4b 3f 05 a4 f8 3e c7 36 12 be
       1.0437522 0.79432756 0.48562637 -0.14278708
000060 e1 bc a6 3e 0b ab 05 3f a5 a7 41 3f 21 79 82 3f
       0.32565978 0.52214116 0.7564643 1.0193216
000070 0a d4 91 3f d5 29 85 3f b1 ae 64 3f 19 4c 48 3f
       1.1392834 1.0403391 0.8932906 0.78241116

fc2.weight f4 [3, 32]
000000 23 19 44 3e 64 00 61 3e 8a ec 15 be 09 13 23 3e
       0.19150214 0.21972805 -0.14641014 0.1592523
000010 57 62 85 3e 61 20 d6 3b 84 df bb bd 0a 52 1d bd
       0.2605159 0.0065346216 -0.091734916 -0.038408317
000020 0a b4 bc 3d cc 6b 60 be 8f df 1e be 5c ac 1e 3e
       0.09214027 -0.21916121 -0.15514968 0.15495437
000030 bc 82 ea bd f8 fc 6f bc 44 00 65 3e c6 88 4c 3e
       -0.11450717 -0.014647715 0.22363383 0.1997405
000040 4e 7c 5b bc 9d 50 c9 3e 63 3c 4a bf 5e 30 2e be
       -0.013396336 0.39319316 -0.7899839 -0.17010638
000050 a9 08 52 3a 89 f0 38 3d 52 12 00 3e 61 b7 61 ba
       0.0008012155 0.045151267 0.12506989 -0.00086103944
000060 94 df 48 3c 67 cf 75 bd 9d 8a b4 be c2 8a 10 be
       0.012260336 -0.060012247 -0.35262004 -0.14115432
000070 5d a0 3f be fd 21 07 be b8 94 ec bd 2d 7f 11 3e
       -0.18713517 -0.13196559 -0.11551803 0.1420867
000080 ab 56 11 3e 15 ae 7b 3e d6 a8 28 be a5 3a 62 3e
       0.14193217 0.24578126 -0.16470656 0.22092684
000090 cd 7a 6f 3e 88 1d 87 3c c6 2d 1e 3d bd 21 0b 3d
       0.23386689 0.016493574 0.03861787 0.033967722
0000a0 86 44 1d 3e c4 f7 51 bd 65 1e f9 bd 2d f4 72 be
       0.15358171 -0.05126168 -0.121640004 -0.23725958
0000b0 dd af 48 be 99 87 89 bc 56 c7 df 3e 27 de 10 be
       -0.19598337 -0.01678829 0.4370677 -0.14147244
0000c0 1f 8a cc ba 3d e4 58 3d 0b 14 87 3e c7 d1 ed bc
       -0.0015605128 0.05295204 0.2638248 -0.029030694
0000d0 ff 67 b2 bd c3 99 96 bb 6e 05 01 bc 66 7b 33 bd
       -0.08711242 -0.0045959665 -0.00787483 -0.043818854
0000e0 52 e6 66 bf da 7c a9 3c 57 12 88 3d 11 79 59 be
       -0.9019519 0.020689417 0.06644123 -0.2123759
0000f0 63 10 3a be 58 f3 66 be 0a 07 ac bd 52 93 4d 3e
       -0.18170314 -0.22553766 -0.0839978 0.2007573
000100 2d 45 d3 bd 49 5c 5f bd 3f 10 c6 bd d8 e8 d2 bd
       -0.103159286 -0.05453137 -0.096710674 -0.10298318
000110 cb cf 80 3e e1 1e 4c bd 2e 71 37 3f 31 70 57 be
       0.25158533 -0.049834136 0.71657073 -0.21038891
000120 46 2a ec bd 05 d1 86 be 35 71 45 be 07 03 ea 3d
       -0.115315005 -0.26331344 -0.19281466 0.11426359
000130 d3 b4 26 be f9 f9 7e 3d 96 cc 4c 3e dc 17 08 be
       -0.16279916 0.06225011 0.19999918 -0.13290352
000140 35 f0 9b 3c 35 9c 54 3e 63 4c e4 3c b1 bc 21 bb
       0.019035438 0.20762713 0.027868455 -0.002467912
000150 95 e7 a1 bd 8b f9 8e bd f8 c8 24 bd 44 4f d4 bd
       -0.07905499 -0.0698119 -0.04023072 -0.10366681
000160 d1 14 7d bd 72 57 8e 3b a5 db 85 3e 7e 5d 39 be
       -0.06178743 0.0043439204 0.26144138 -0.1810207
000170 90 ff 69 be 8a 11 1e be 79 48 3d be 1c d5 90 bd
       -0.22851396 -0.15436378 -0.18484677 -0.070718974

fc2.bias f4 [3]
000000 70 dd 87 bf 1d bd 61 bf 8c 38 06 3f
       -1.0614452 -0.8817919 0.52430034

road_emb.0.weight f4 [144]
000000 81 7c d1 3f 4f f6 89 3f 9b 43 b3 3f 6f 8a 79 3f
       1.636612 1.0778292 1.4005007 0.9747686
000010 f3 9b 59 3f 2f 66 9c 3f d6 fd 96 3f c1 4f a6 3f
       0.85003585 1.2218684 1.1796215 1.2993089
000020 e7 02 76 3f ba 92 5f 3e dd 36 81 3f 9f e1 7c 3f
       0.9609818 0.21833315 1.0094868 0.9878177
000030 e8 cd 97 3f f5 88 70 3f 9d 35 b2 3f 20 50 6c 3f
       1.1859713 0.9395898 1.3922611 0.9230976
000040 05 dc 7d 3f 49 b1 79 3f 32 67 92 3f 9f f7 8f 3f
       0.9916385 0.9753614 1.1437743 1.1247443
000050 05 72 82 3f a6 10 78 3e 34 75 66 3f a5 54 64 3f
       1.0191046 0.24225101 0.9002259 0.8919166
000060 5f 7a ac 3f 7e 4d 7e 3f 0a 54 af 3f 0c 95 7f 3f
       1.3474845 0.99336994 1.3697522 0.998368
000070 74 bb 61 3f 3f 5b 96 3f 0e 43 8e 3f 96 c5 a1 3f
       0.88176656 1.1746596 1.1114213 1.2638423
000080 b0 ea 83 3f c5 a8 8b 3e 95 2f 84 3f ca c4 72 3f
       1.0305996 0.27277198 1.0327021 0.94831526
000090 f9 fe bd 3f c0 6c 86 3f de 24 b4 3f b1 f6 5b 3f
       1.4843436 1.0501938 1.4073751 0.85923296
0000a0 f0 93 63 3f fe 3e 9a 3f c7 29 c5 3f 37 6e 99 3f
       0.8889761 1.2050474 1.5403374 1.198676
0000b0 1f 52 97 3f 42 a9 43 3e 1a 01 84 3f 50 3b 62 3f
       1.1821936 0.19107535 1.0312836 0.88371754
0000c0 bb 96 b3 3f 34 80 82 3f 6a ac ac 3f c9 54 75 3f
       1.4030374 1.0195374 1.3490117 0.95832497
0000d0 90 41 6c 3f 74 5d 80 3f 3e 6a a2 3f 09 e3 91 3f
       0.9228754 1.002852 1.2688673 1.1397411
0000e0 d9 73 9c 3f 3e 0d 56 3e bf 63 88 3f 8d cf 5f 3f
       1.2222854 0.20903489 1.065544 0.8742607
0000f0 7f cc 92 3f a3 5e 6a 3f 5b 8c b3 3f ea 72 53 3f
       1.1468657 0.91550654 1.4027208 0.8259722
000100 e1 60 4d 3f 13 6c 5f 3f da 87 ab 3f 99 f2 9c 3f
       0.8022595 0.87274283 1.3400834 1.2261535
000110 fe 33 84 3f 54 42 c6 3e 88 aa 94 3f 0b 7c 52 3f
       1.0328367 0.3872248 1.1614542 0.82220525
000120 10 10 ce 3f 05 2b 80 3f db ce cd 3f 0c db 80 3f
       1.6098652 1.0013129 1.6078752 1.0066848
000130 1d 47 75 3f 14 10 98 3f 1b a0 96 3f d5 38 91 3f
       0.95811635 1.1879907 1.176761 1.1345469
000140 78 c1 8b 3f 6a 5f fc 3e f8 ae 8b 3f 9f 22 af 3f
       1.0918417 0.49291545 1.0912771 1.368244
000150 77 2b b2 3f 49 da 93 3f 4c 7a c6 3f 98 72 5f 3f
       1.3919514 1.155099 1.5506072 0.8728423
000160 41 24 41 3f 86 bd 70 3f c3 fc a2 3f 29 d0 8f 3f
       0.75445944 0.9403919 1.2733387 1.12354
000170 26 e8 8b 3f c6 44 6d 3e 67 da 87 3f 9f 5d b2 3f
       1.0930221 0.23170766 1.0613526 1.3934821
000180 64 f3 a2 3f 35 0c 6f 3f c1 27 ce 3f 2d 1c 6f 3f
       1.2730527 0.93378 1.6105882 0.9340237
000190 06 06 5b 3f f6 af 68 3f 52 60 b7 3f be 5e 95 3f
       0.85556066 0.90893495 1.432627 1.1669538
0001a0 47 3e 7b 3f 3d 0a 74 3e ec 94 92 3f 68 8f b2 3f
       0.981419 0.2383203 1.1451697 1.3950014
0001b0 fa 63 c4 3f f7 60 6f 3f d4 e7 bf 3f 81 40 60 3f
       1.534301 0.9350733 1.4992623 0.87598425
0001c0 cd 9b 77 3f ee 02 a9 3f 2d 1e a9 3f 24 f8 9a 3f
       0.9672211 1.3204019 1.3212334 1.2106977
0001d0 a0 cd a3 3f 3a dd 05 3f 34 9e bb 3f aa 68 6b 3f
       1.2797127 0.5229069 1.4657655 0.9195658
0001e0 3a 4c 92 3f 9b c0 89 3f 60 bc c1 3f 8b 0e 82 3f
       1.1429513 1.0761904 1.5135612 1.0160688
0001f0 b9 c7 87 3f 45 1d 89 3f f0 be a5 3f 24 61 9d 3f
       1.0607826 1.0712057 1.2948895 1.229527
000200 c7 bc 98 3f 85 82 f4 3e 4c 9b bf 3f b5 26 76 3f
       1.193261 0.47755828 1.4969268 0.9615281
000210 f8 d3 a8 3f 0a 52 74 3f 23 12 c4 3f a3 30 50 3f
       1.3189688 0.9543768 1.5318035 0.81324214
000220 a8 fe 68 3f 02 85 74 3f 6a 7f 9a 3f 21 f2 9c 3f
       0.91013575 0.95515454 1.2070134 1.2261392
000230 ed e1 8d 3f 1d f3 d3 3e 71 c5 af 3f 9c 65 64 3f
       1.1084572 0.41396418 1.3732129 0.89217544

road_emb.0.bias f4 [144]
000000 da 7b ba 3e 17 2b 5f 3e 74 9b 58 3e 2e 65 43 3e
       0.36422616 0.21793781 0.2115305 0.19081566
000010 b9 7c a9 3e 75 f1 1e 3e f7 0e 0b 3e c9 8f da 3e
       0.33102968 0.15521796 0.13579927 0.42687824
000020 fd 4b e3 3c f2 96 41 bf 8b ba b2 3e 63 16 a6 3e
       0.027746195 -0.7562095 0.34907946 0.32438955
000030 03 13 8c 3e 3f a8 b6 3e 50 b1 7f 3e 42 f2 94 3e
       0.27358255 0.35675237 0.24969983 0.29091078
000040 da b2 8b 3e cd a8 a3 3e 24 b6 2e 3e cb a0 b3 3e
       0.2728489 0.31964722 0.17061669 0.35083613
000050 b2 2c 10 bd 14 ff 4a bf a9 29 94 3e 69 5c 93 3e
       -0.035198875 -0.7929547 0.28938034 0.2878144
000060 df d4 9b 3e 1a 2e 73 3e 33 f8 bc 3e 0d 7e 2b 3e
       0.30435845 0.23748055 0.3690811 0.16747303
000070 e2 b7 af 3e 35 fe 9b 3e 3e 08 14 3e 36 29 c3 3e
       0.3431998 0.30467382 0.14456269 0.3811738
000080 ea 03 a7 bc db 62 35 bf 1e 0e c0 3e 43 48 a0 3e
       -0.020387609 -0.70853966 0.3751077 0.3130513
000090 e9 ba 93 3e 50 3a 72 3e b6 a6 b9 3e 19 55 8e 3e
       0.2885354 0.23655057 0.36260003 0.277993
0000a0 f6 1e 96 3e 88 9f f5 3d 7a 0a 13 3e 89 c1 d2 3e
       0.29320496 0.11993319 0.14359465 0.4116328
0000b0 30 42 e4 3b b3 6d 1a bf 8e 93 af 3e c3 6a 93 3e
       0.006965898 -0.6032364 0.34292263 0.2879239
0000c0 8d 43 c4 3e 58 6a 76 3e 31 9b bb 3e 84 73 60 3e
       0.38332787 0.24064004 0.3664184 0.21919066
0000d0 04 b3 ad 3e 28 01 a1 3e d1 45 05 3e cd 7a c4 3e
       0.3392564 0.31446195 0.13014914 0.3837494
0000e0 86 bb 64 3d 82 b7 2c bf c1 0e b9 3e 14 26 8b 3e
       0.0558429 -0.6746751 0.3614407 0.2717749
0000f0 ba 08 63 3e ae ed a4 3e 1d ee d1 3e ee 88 84 3e
       0.22171298 0.32212585 0.4100198 0.2588572
000100 92 9b a6 3e 9e 70 96 3e 09 8e 01 3e 5e 61 c8 3e
       0.32540566 0.29382795 0.12651838 0.39136785
000110 ee 28 f2 bc a6 c1 07 bf bd bc d0 3e c1 27 86 3e
       -0.029560532 -0.5302986 0.40768996 0.26202205
000120 8b ed c7 3e 96 20 a1 3e 73 ec 71 3e 17 fe 4d 3e
       0.39048418 0.31470174 0.23625354 0.20116459
000130 e8 df b3 3e 2a 1e 46 3e 67 f5 9b 3e 6b 8b ad 3e
       0.35131764 0.19347444 0.30460665 0.3389543
000140 0f fc 48 3b 46 6e e6 be 26 a0 b6 3e c4 bf 92 3e
       0.0030667817 -0.45006007 0.3566906 0.2866193
000150 66 86 a5 3e 65 40 25 3e e7 84 72 3e c7 13 8a 3e
       0.323291 0.16137846 0.2368351 0.26968214
000160 38 0f 96 3e be cc 90 3e 26 67 1d 3e 44 56 ba 3e
       0.29308486 0.28281206 0.1537138 0.3639394
000170 16 8c b5 3c 8f 06 44 bf fb 12 bc 3e 0f bd 78 3e
       0.022161525 -0.7657251 0.3673323 0.2429087
000180 74 c6 a6 3e 46 28 9d 3e d1 8d 87 3e 9b df 75 3e
       0.32573283 0.3069479 0.26475385 0.2401108
000190 01 57 9f 3e ba 3c ad 3e 1f 04 50 3e eb 68 c8 3e
       0.31121066 0.33835393 0.20314072 0.39142546
0001a0 2f 96 18 3c df a7 28 bf aa dd d6 3e 9f 1b 87 3e
       0.00931315 -0.6588115 0.4196599 0.2638826
0001b0 1d cc af 3e b4 fe a6 3e f7 1b b6 3e 06 19 98 3e
       0.34335414 0.32616198 0.3556821 0.2970659
0001c0 04 e6 8e 3e e2 c2 ba 3d ce 98 7d 3e 7f 69 ab 3e
       0.27909863 0.09119202 0.24765322 0.33478925
0001d0 d1 9e 29 3d ae 87 cb be 3b a7 6f 3e 9b ab 96 3e
       0.041411225 -0.39751953 0.23403637 0.294278
0001e0 db 6a ad 3e 40 37 82 3e 4d b8 b0 3e 3f 3a 81 3e
       0.33870587 0.25432777 0.3451561 0.2523975
0001f0 11 91 6a 3e 3a 2a 42 3e d2 93 56 3e be c0 cc 3e
       0.22906901 0.1896142 0.20954826 0.399908
000200 c7 4e e0 bc 07 f6 de be 33 b4 9b 3e 37 03 a5 3e
       -0.027381314 -0.4354708 0.3041092 0.32229015
000210 fa 7b b6 3e 43 b1 85 3e 21 77 c6 3e 6c b2 9a 3e
       0.35641462 0.26111802 0.38762763 0.3021425
000220 00 f7 71 3e 3e ed b4 3e 68 9f 91 3e e2 20 a5 3e
       0.2362938 0.3533725 0.2844193 0.3225165
000230 91 bf 2f 3d 32 aa 11 bf 67 4a 95 3e b2 08 96 3e
       0.0429073 -0.5690032 0.29158327 0.2930351

road_emb.1.weight f4 [64, 144]
000000 9c 23 a1 be b4 96 b1 bd 30 a7 45 bf bf 76 32 be
       -0.3147248 -0.086713225 -0.7720823 -0.1742811
000010 ab 3a 6d 3e 9a 26 ca 3d d7 51 ba bc ef cd 2e 3f
       0.23166911 0.09870644 -0.022744102 0.6828298
000020 48 02 87 3d 20 4b 1f be 15 ad 1c 3f 9c 76 af be
       0.06592232 -0.15556002 0.612016 -0.3427018
000030 b6 70 bf bd 4e 18 53 bd f3 97 17 bf 18 97 e0 be
       -0.0934767 -0.05153685 -0.5921623 -0.43865275
000040 61 a6 67 3e 4f e7 fd bc de 62 d8 3d e5 4a 0e 3f
       0.22622062 -0.030994086 0.105657324 0.5558303
000050 8b 82 a0 bd b4 87 1a bd 60 c1 f7 3e 91 79 7f be
       -0.07837399 -0.037727073 0.4838972 -0.24948718
000060 25 51 c6 be ba 20 a2 3d 65 47 6b bf 48 a3 aa 3d
       -0.38733783 0.07916398 -0.91905814 0.08331925
000070 c6 07 01 3e 4c 48 90 3e 5a c2 ed bc 9f 59 19 3f
       0.12600622 0.28180158 -0.029023338 0.59902376
000080 a8 27 d2 bc 97 52 28 bd 67 e5 2d 3f 70 d9 69 be
       -0.025653675 -0.04109439 0.67928165 -0.22836852
000090 41 01 cf be fc 33 92 3d 9c 13 1b bf 16 e8 0d bf
       -0.40430644 0.071388215 -0.60576797 -0.5543226
0000a0 38 2b 8a 3d d5 d2 86 3d 5f df 31 3f 81 fa 4b 3e
       0.067465246 0.06583182 0.6948146 0.19919778
0000b0 61 f9 42 be 66 34 63 3e 96 d6 79 3e e9 ba 29 be
       -0.19040443 0.22187957 0.24398264 -0.16575207
0000c0 0d 4d e3 3d 42 da 71 bd be 1a fd be 64 a6 ec bd
       0.11098681 -0.059046037 -0.49434465 -0.11555174
0000d0 da b7 04 3e 7c 5b 00 be 8e 88 9f 3e d9 d9 88 3d
       0.12960759 -0.12534899 0.3115887 0.06682176
0000e0 81 23 9f be 63 31 e4 3b ea 1f db 3e f0 8a 80 be
       -0.31081775 0.006963895 0.42797786 -0.25106
0000f0 d8 0a 84 be f7 2c e8 3d 27 ef 25 bf 57 7d cc be
       -0.25789523 0.11336701 -0.6481804 -0.39939377
000100 d4 b7 a7 3e 87 f5 00 3f ba 88 9a bd b4 ce 11 3d
       0.32757437 0.50374645 -0.0754561 0.035597518
000110 46 53 3d be aa de 03 be a1 03 02 3f 99 ca c1 be
       -0.18488798 -0.12877908 0.5078679 -0.37849882
000120 3d b8 c0 be ac 73 50 3c 0f 19 c3 be 2a 05 2e be
       -0.37640563 0.012722891 -0.38105056 -0.16994157
000130 eb 4b 6e 3e 9a 6b 09 3e cd 2f 56 bc 88 fb 83 3c
       0.23271148 0.13419953 -0.01307292 0.01611115
000140 87 f8 cc bd 6c 91 40 3e 8c 67 c1 3e 39 40 45 bf
       -0.1000834 0.18805474 0.37774312 -0.7705112
000150 48 23 c5 3e ad 19 08 be 2c 0d dd be dc c3 d2 be
       0.3850348 -0.13291045 -0.43174112 -0.41165054
000160 bf d5 81 3e 9d 60 1d 3d 20 94 90 bd 19 90 25 3e
       0.25358388 0.038422216 -0.070595026 0.1616825
000170 94 6f b1 be fd 59 60 bd 3d 96 0a 3f 38 a9 9f be
       -0.3465544 -0.05477332 0.54135495 -0.3118379
000180 65 66 1b 3d f1 16 ca bd 46 1f 05 bf 02 eb ae be
       0.037939448 -0.09867657 -0.52000844 -0.34163672
000190 96 6c 1a 3d 80 67 5f 3e ea 4f fc 3d 25 59 1d 3e
       0.037701212 0.21816826 0.1231993 0.15366037
0001a0 3b f4 bc 3b e6 21 8b 3e 86 62 0e 3f 96 1c c6 be
       0.005766419 0.271743 0.55619085 -0.38693684
0001b0 1e cf 78 be d6 dc f2 3d da 33 e8 be 68 f9 c6 be
       -0.24297759 0.11858527 -0.4535206 -0.38862157
0001c0 92 78 42 bb f9 0f 3f 3d 83 5a e7 3e bb 02 28 be
       -0.0029673916 0.046646092 0.45186242 -0.16407292
0001d0 c4 97 0f be b0 8f 03 3e f5 e3 01 3c 60 5e 4a be
       -0.14022738 0.12847781 0.007927884 -0.19762564
0001e0 51 15 0e bd fa 1a a1 be 9f 09 25 be a1 ac 5f be
       -0.034688298 -0.31465894 -0.16116951 -0.21843196
0001f0 5f 50 22 3d c7 54 c4 3a b5 98 0d 3f bd 1a 65 bd
       0.03962743 0.0014978879 0.5531114 -0.055933703
000200 4c 4e 77 3b d0 89 68 bc 20 cd 8e bd c2 87 12 be
       0.0037735878 -0.014193013 -0.06972718 -0.143096
000210 a3 08 0f be 9b 74 cb bd ad 0b 96 be b5 5e ff be
       -0.13968138 -0.0993435 -0.29305783 -0.49876943
000220 2d 01 20 3e 8a 18 fe 3e 0a 35 63 3f 27 ed 31 be
       0.15625449 0.49628097 0.88752806 -0.17375623
000230 0a f3 f0 bd 5e 13 a6 3d 8d e1 7a be 81 7c 5a be
       -0.11765106 0.08109163 -0.24500103 -0.21336557
000240 3c 82 9a be ae 37 2e be c7 9f 54 bf 75 42 df 3d
       -0.30177486 -0.17013428 -0.830563 0.109013475
000250 2d 18 36 3e db e5 b6 3c f6 80 c0 3e e7 2c b7 3e
       0.1778266 0.0223264 0.3759839 0.35776445
000260 cc 70 c4 3d dd 50 0a 3e a5 8c b4 3d 4c 9c 1e 3d
       0.09591827 0.1350741 0.08815888 0.038723275
000270 6d a8 d0 3d c9 ef ad be 4e 77 41 bf 20 bc 24 3c
       0.10188375 -0.33972004 -0.7557267 0.010054618
000280 ba fa ab 3c 63 6d 53 3d 36 a4 9d 3e 5b a7 4d 3e
       0.02099358 0.05161799 0.30789346 0.20083372
000290 60 39 7f 3c 6f 54 31 be 83 95 ce 3d b1 49 22 be
       0.015577644 -0.17317365 0.10087111 -0.15848424
0002a0 26 2a 06 be ba 2f 3a be 1f 1a 4b bf 01 f7 26 3e
       -0.13102016 -0.18182269 -0.7933673 0.16305162
0002b0 45 92 93 3e 59 c2 e9 3d 5c 75 f9 3d 9a 8a 66 3e
       0.28822532 0.11414022 0.12180588 0.2251381
0002c0 cc 1f 9d 3e 1f d2 66 3d 19 21 4c 3e 8a f3 03 bc
       0.30688322 0.05635273 0.19934501 -0.00805367
0002d0 61 2f 33 be cc 02 9f bc 81 d5 f6 be 82 50 ac 3e
       -0.17498542 -0.019410513 -0.48209766 0.33655173
0002e0 61 71 31 3e 4d 2a 77 3d 98 53 23 bd 00 e1 5b 3c
       0.17328407 0.060343076 -0.039874643 0.013420343
0002f0 13 36 b0 3d 30 7d 47 bd dc ff b0 be 21 79 25 3e
       0.08604064 -0.048703372 -0.34570205 0.16159488
000300 db c9 ab be 1b 5e 4e 3d 5c 00 c5 be 34 cc 34 3e
       -0.3355244 0.050382715 -0.38476837 0.17656022
000310 34 b9 98 3e 65 a8 56 3e 8a 5a d0 3d b0 ac 59 bd
       0.298288 0.20962675 0.10173519 -0.053143203
000320 c6 04 1e 3e 1f c8 27 3e d9 c4 3c be 5d 78 fc 3d
       0.15431508 0.16384934 -0.18434466 0.12327645
000330 c7 56 2e bd 02 d2 de bd 2b dc 10 bf e1 72 25 3e
       -0.042563226 -0.108798996 -0.5658595 0.16157104
000340 14 83 18 3e 19 e4 37 bd 37 b0 93 3e 3d fd 1a 3e
       0.14893752 -0.044895265 0.2884538 0.15135665
000350 6b aa a4 3e 14 82 53 bd 50 57 46 be 70 7c 59 3e
       0.3216127 -0.051637724 -0.19369245 0.21238875
000360 73 61 b9 be 8f 39 58 be 6b f6 41 bf f6 49 9a 3d
       -0.3620716 -0.21115707 -0.7576663 0.07533638
000370 c4 f1 11 3e 7d 8d 17 bb 90 0f 78 bd 08 93 49 3e
       0.14252383 -0.0023125105 -0.060561717 0.19684994
000380 56 ec 87 3e 54 20 31 3e 75 a9 f5 bd b4 9f ae be
       0.26547498 0.17297488 -0.11995212 -0.3410622
000390 dc 4f be bd 93 37 a0 3c df 87 14 bf a5 32 90 3d
       -0.09292576 0.01955775 -0.5801982 0.0704091
0003a0 53 03 31 3e 46 53 0b be 64 5c 10 3b a7 57 a6 bd
       0.17286424 -0.13605985 0.0022027725 -0.08122187
0003b0 2c f9 7c 3e ec d5 4f 3e 54 23 6d be 31 5a c5 be
       0.24704427 0.20296448 -0.23158008 -0.38545373
0003c0 94 12 2e be 70 e5 0d be 6e c4 24 bf 49 9d f6 bd
       -0.16999274 -0.13857055 -0.6436223 -0.120417185
0003d0 a9 84 19 3d 95 5d 75 be bb 88 cb 3e 3a dd 0f 3e
       0.03748003 -0.2396148 0.39752755 0.14049235
0003e0 3f 95 1d 3e 32 59 82 3d cd dd b7 be eb 26 0c bf
       0.15388964 0.06364669 -0.35911408 -0.54746884
0003f0 83 8a 0c bf 41 8f f1 bd 8a 6a 80 bf 0c d1 7f 3d
       -0.5489885 -0.11794902 -1.0032513 0.062455222

road_emb.1.bias f4 [64]
000000 14 2f 5b 3d 96 93 44 3d a8 29 d3 bc 7e d3 80 bc
       0.053511694 0.04799231 -0.0257767 -0.015725847
000010 16 54 0f 3e 4e 0f ce bd 24 69 19 be e9 14 04 bd
       0.1399692 -0.10061513 -0.14981514 -0.032246504
000020 3e 5f b3 3c 03 dd 22 be d3 dd 47 be bb eb 0f bd
       0.021896001 -0.15904622 -0.19518213 -0.03513692
000030 24 8a bf be 47 12 b9 bd 65 c4 47 bd ab f9 1f 3d
       -0.3741008 -0.09036689 -0.04877128 0.03905646
000040 14 00 a0 bd 8b 11 41 be d3 2d b9 be 6f d7 ce bc
       -0.07812515 -0.18854348 -0.36167774 -0.025249211
000050 16 37 68 be dc 75 d3 be 24 1a 37 bc 41 d5 13 be
       -0.22677264 -0.41300857 -0.011175666 -0.14436819
000060 50 b8 97 bc cc 1a 81 3e 18 25 e9 bd dd 37 b6 3d
       -0.018520504 0.25215757 -0.11384028 0.08897374
000070 2f 85 7d be 7a d3 52 be 2f 8d 3f bd 3a a4 91 bb
       -0.24757837 -0.20588484 -0.046765503 -0.004444626
000080 10 5a bf 3d 12 c0 08 3e 4e 16 1d 3c e2 d7 17 be
       0.0934335 0.13354519 0.009587837 -0.14828447
000090 c9 50 dc bd 57 1e fe bd fb 90 75 3e 69 f6 01 be
       -0.10757596 -0.124081306 0.23981087 -0.12691654
0000a0 eb 2a e5 bd 34 89 a8 bc ac ec 15 be 8e 18 da 3c
       -0.111898266 -0.020573236 -0.14641064 0.026623037
0000b0 f3 aa 85 3d 94 ac 4c bd b4 ff c4 bd ed 8a 12 bd
       0.065267466 -0.04996927 -0.09619084 -0.03577702
0000c0 0a 6a 42 3d 51 63 86 bd 9f 8c 24 3d 1b a0 cf 3c
       0.047464408 -0.06561912 0.04017317 0.025344899
0000d0 03 87 58 3b bf d6 b5 3d a9 a3 12 be c0 89 80 bd
       0.0033039458 0.0887885 -0.14320244 -0.06276274
0000e0 88 e2 1d be 70 75 9f be f8 91 2e be ae 4b 81 bd
       -0.15418446 -0.31144285 -0.1704787 -0.06313263
0000f0 c3 07 d1 bd ae 7b 08 3e 69 b6 b3 3d 3c 4a 3a bd
       -0.102065586 0.1332843 0.08775026 -0.04548095

cav_emb.0.weight f4 [11]
000000 60 5f 95 3f 88 8c f2 3e 55 d6 20 3f 60 86 3d 3f
       1.1669731 0.47372842 0.62827045 0.74033165
000010 f6 fa 01 40 5d b8 f2 3f f6 c2 ed 3f ab 57 4f 3f
       2.0309424 1.8962513 1.8575122 0.80993146
000020 2a 8f 10 3f f5 9e ae 3f 7e 5e db 3f
       0.5646845 1.364226 1.7138212

cav_emb.0.bias f4 [11]
000000 67 ad c3 3d 72 5a f6 3c 75 67 5e 3d 7c 03 08 3e
       0.09554558 0.030072425 0.054297883 0.13282579
000010 1e 2e fc 3b b3 da 97 3d 91 4a 58 bd 56 fc 2c 3e
       0.0076959273 0.074147604 -0.052805487 0.16893134
000020 96 b7 75 3e c9 e9 8d 3c 98 87 33 3c
       0.23995814 0.017323392 0.010957621

cav_emb.1.weight f4 [64, 11]
000000 e6 7b ce be 9b 97 d4 3e f0 b6 16 3e 2c b2 10 3e
       -0.40328902 0.41521916 0.14718223 0.14130467
000010 83 92 0c 3f b4 37 d7 be 00 6e e6 3e e7 b6 3f 3e
       0.5491106 -0.42034686 0.45005798 0.18722115
000020 e8 bc 8a 3e 04 47 a1 be 54 3a 80 3d e6 b3 8d be
       0.2709725 -0.31499493 0.06261125 -0.27676314
000030 54 98 4e be 66 5c 05 be 57 50 5e be 24 c8 e2 be
       -0.20175296 -0.13023528 -0.21710335 -0.4429332
000040 f7 55 cf 3e b9 47 14 be 90 04 b5 be 77 4e 5a be
       0.40495273 -0.14480485 -0.35355043 -0.21318994
000050 3b b7 10 3f 33 9d d8 3e 1b 14 e1 be 3c 78 fb be
       0.5652959 0.42307433 -0.43960652 -0.4911517
000060 a0 d9 5e bc bf 57 03 3f 46 cd 5c 3f 3c b9 de 3d
       -0.0136016905 0.51305765 0.8625072 0.108751744
000070 cb f4 95 bd 60 22 cb 3d 53 21 85 3e eb 3d 34 bc
       -0.07322081 0.09918666 0.26001987 -0.0110010905
000080 60 ae ab 3e 0b 11 f9 3d 47 0d 9c be 0a ac 2b be
       0.33531475 0.12161454 -0.3047888 -0.16764846
000090 ff 21 49 be 67 08 72 bf 4f f6 a3 3f c4 35 38 bf
       -0.19641875 -0.9454407 1.2809542 -0.7195704
0000a0 3e d2 e6 3d 6a 6c 37 be b2 80 dc 3d 51 76 11 be
       0.11270569 -0.1791245 0.10766734 -0.1420529
0000b0 26 b9 ae be aa ff c8 3e 5f 98 ec 3e 53 2c 10 bf
       -0.34125632 0.39257556 0.4621 -0.56317633
0000c0 68 f5 da bd 7f 47 25 3e 17 cc c1 3d 21 cb 49 be
       -0.10691339 0.16140555 0.09462755 -0.19706394
0000d0 31 7e a1 3d 40 b8 9f be 10 e6 b4 3e f4 47 1f bf
       0.07885397 -0.3119526 0.35331774 -0.62219167
0000e0 3f fa 54 be fe c2 c9 3e ff 7f 85 bd 50 66 8c 3e
       -0.20798586 0.3940658 -0.06518554 0.27421808
0000f0 c9 0f 20 3f da 6a 94 be 63 74 61 be db d6 bf bd
       0.62524086 -0.2898777 -0.22017054 -0.09367152
000100 5c 8c 50 3d f3 86 fc bd 57 55 7b be 1b 8e d5 3c
       0.050915107 -0.12330427 -0.24544273 0.026068738
000110 bd ac 2e 3e ef bc 82 be a0 e1 52 3e 10 98 00 3c
       0.17058082 -0.2553477 0.20593882 0.0078487545
000120 da a7 a7 be c4 42 2c 3e 7c a6 06 be 1c f1 61 be
       -0.32745248 0.16822344 -0.13149446 -0.22064632
000130 a4 8e 69 be 6d 66 91 be a1 5f e6 3e 88 8d 5a 3c
       -0.2280832 -0.28398457 0.44994834 0.013339408
000140 5a 21 38 bd 85 b8 75 bd 58 88 96 be 39 5e 58 3f
       -0.04495368 -0.059990425 -0.29400897 0.8451877
000150 81 bc 5f 3e 90 91 4a 3e 20 67 8e bf 93 41 08 3f
       0.21849252 0.1978209 -1.1125221 0.5322506
000160 fb 42 11 bf ad 8c 46 3b c7 a9 ce 3d 03 9a 61 3e
       -0.5674283 0.0030296252 0.10090976 0.22031407
000170 0a 03 c9 3e 9b d4 84 3c d3 a2 d7 bd 33 71 fc 3e
       0.3926013 0.01621466 -0.10529103 0.49305114
000180 33 3e 67 3d e4 e7 38 bd 57 34 ad bd 3e ff 0a bf
       0.056455802 -0.045143023 -0.08457249 -0.5429572
000190 a7 75 d2 3d 0c 3f cb 3e 44 9a 90 3e c8 93 c9 be
       0.10276347 0.39696538 0.28242695 -0.3937056
0001a0 f3 6a 9b be a2 15 28 3f 52 19 fa bc 9e e9 ad 3e
       -0.30355033 0.6565801 -0.030529652 0.33967298
0001b0 5e 6a a8 be e3 78 89 3e 87 e1 8c bd 5b 81 a0 be
       -0.32893652 0.26850042 -0.068789534 -0.3134869
0001c0 40 40 b1 3e 84 42 9b be 4b 21 52 3f 34 55 29 3d
       0.3461933 -0.30324185 0.8208205 0.04134102
0001d0 81 f0 4a bc 78 43 9a 3d 43 00 73 3d 06 3e 0b be
       -0.012386442 0.075324 0.05932642 -0.13597879
0001e0 9a 50 a5 be 21 06 55 bb 3f 36 07 3c e7 ff 54 3e
       -0.32288057 -0.0032504874 0.008252679 0.20800744
0001f0 50 34 06 bd b6 fc a6 3b 11 88 01 3d 53 e9 87 3e
       -0.032764733 0.0050960435 0.031623904 0.265452
000200 93 e8 69 be d3 7b 6b 3d ed 1b 3a 3e 3e a5 24 3d
       -0.22842626 0.057491135 0.18174715 0.04019665
000210 5b 56 98 be 23 79 a6 3e 67 11 63 3e 43 58 df 3b
       -0.29753384 0.32514295 0.22174607 0.0068159415
000220 b4 35 0d 3f 4f 03 b9 3d 21 4a cf be 49 f4 01 3f
       0.5516007 0.09033834 -0.40486243 0.50763375
000230 ea 0a 39 3e 10 52 3c bf 0a 23 12 3e f8 51 b2 be
       0.1807057 -0.7356272 0.14271179 -0.34828162
000240 18 d7 63 be 95 a0 b5 3e 93 d0 33 be 33 f5 d0 3e
       -0.2225002 0.35474077 -0.17560034 0.40812072
000250 f0 99 64 3e 0c 4c c0 be 71 53 92 bd c8 c2 6e bd
       0.22324347 -0.3755802 -0.071448214 -0.058291227
000260 d5 76 d3 be 69 c3 24 3d 33 5f b7 be 26 bf a6 be
       -0.413016 0.04022542 -0.3581482 -0.3256771
000270 b3 a9 5b bd 89 dc bb 3d 62 2c 38 3f 89 7d a4 3d
       -0.053628635 0.09172923 0.7194272 0.080317564
000280 f3 33 9b 3e 52 de 7b bc 0a 2d ed 3d 33 7a 42 3f
       0.30313072 -0.0153728295 0.11580856 0.7596771
000290 c5 13 16 be d6 71 0e bf cc 74 ea bd 38 c9 e6 3d
       -0.14655979 -0.5564245 -0.114480585 0.11268848
0002a0 3b a2 f7 bd 36 a0 3a be 81 dc b0 3e 9e 9e 73 3e
       -0.1209149 -0.18225178 0.3454323 0.23790976
0002b0 ab 8e 64 3d c3 92 1c bc 00 1c 7d bf c5 60 da 3e
       0.05580012 -0.009556475 -0.9887085 0.42651954
0002c0 38 5a e0 be 6b 71 81 bd 29 b1 8d 3c 0c c7 70 3d
       -0.4381883 -0.06320461 0.01729639 0.058783576
0002d0 dc dd aa 3e 57 a6 26 3f 9b e9 09 bf d9 cc 2e 3d
       0.3337239 0.65097564 -0.5387208 0.042675827
0002e0 b4 fb 80 bb fa 90 ca 3e 9c 7d b8 be cc 3b e2 3e
       -0.0039362554 0.39563733 -0.36033332 0.44186246
0002f0 38 47 46 be 32 cc de bc 5c 5d 9e bd ce f5 0b bf
       -0.19363105 -0.027196977 -0.07732651 -0.54671943
000300 c9 2f e4 3c 09 9c a8 3e d0 79 01 be 6f c8 65 be
       0.027854817 0.32931545 -0.12644124 -0.2243974
000310 f2 4e d6 be 7b bc 1a bd a4 b6 3c 3d d5 a6 a1 3e
       -0.41857105 -0.037777405 0.046072617 0.31572595
000320 81 af 7a 3e 0e 24 70 3e ae d5 42 3e 18 4a 86 3d
       0.24481012 0.23451254 0.19026825 0.06557101
000330 25 d9 ce bd 9c b0 24 3e bb 13 13 3e 2c a4 30 3d
       -0.10100011 0.16082996 0.14362995 0.043125317
000340 02 ae d6 3d 9c 1d 92 bd 4c 46 44 bc 4d d8 43 3e
       0.10482408 -0.07134554 -0.011979651 0.19125481
000350 c1 e1 7d 3e 5a 0f ea 3e 46 ca 00 3e cb 8e 84 3e
       0.2479315 0.45714837 0.12577161 0.25890192
000360 f8 b3 a2 be a2 49 43 bd b8 fa 67 bd 9f 76 2b 3d
       -0.3177793 -0.047677644 -0.05663559 0.041861173
000370 cd 23 b4 be 44 f6 77 be 1b 1c 6a be f4 6a 9d bd
       -0.35183564 -0.24215037 -0.22862284 -0.07686415
000380 43 f9 a5 bf 35 c7 54 3f 07 f9 05 3f 3b 95 1b bc
       -1.2966694 0.83116466 0.5233311 -0.009496029
000390 88 9d 6e be f5 b4 20 be 6d 17 bf be ea 6f 95 be
       -0.23302281 -0.1569403 -0.3732256 -0.29186946
0003a0 b8 c5 4a 3e 5b 7b a4 3e b6 37 cb 3d 28 25 5c 3f
       0.19801986 0.32125363 0.099227354 0.85994196
0003b0 03 9d e7 be c6 72 35 be 26 45 84 3e 24 fd 59 3d
       -0.45236978 -0.17719564 0.25834006 0.05321993
0003c0 0e a5 94 be 6e ba 21 be 3e 56 d2 be bf c3 a4 3c
       -0.29032177 -0.15793774 -0.41081423 0.02011287
0003d0 12 05 2d 3e 7a 6a c9 3e da 6a 3d be c5 36 89 bd
       0.16896465 0.39339048 -0.18497792 -0.066998996
0003e0 3c c8 c3 be 4e 78 cb 3e 04 39 4d 3e 67 0b 19 3e
       -0.38238704 0.39740223 0.20041281 0.14945756
0003f0 fa 9a 47 bd 97 77 52 be 02 f1 cc bd 9e 37 d8 3d
       -0.04873178 -0.20553432 -0.10006906 0.10557483

cav_emb.1.bias f4 [64]
000000 ff 9b d8 bd f7 6c 6b 3d 69 b0 1d be bf b3 93 3e
       -0.10576629 0.057476964 -0.15399326 0.28848073
000010 c0 bc d7 3d 6a 93 bc bd 09 d9 c6 bd 11 57 59 be
       0.10534048 -0.092078045 -0.09709365 -0.2122462
000020 36 52 ce be 20 e4 13 be 59 5d 4b 3d 77 73 8d 3d
       -0.40297097 -0.14442492 0.04964957 0.06906789
000030 67 f5 f8 bd 05 66 35 be af 89 d8 bc 04 2f 1c be
       -0.12156182 -0.17714699 -0.02643284 -0.1525231
000040 6d 50 90 bd 7e 7a f6 3c fc cd 88 be be d4 1e be
       -0.0704659 0.030087706 -0.26719654 -0.15510842
000050 b6 fe 52 be cd 76 3f be d0 c0 54 be 5d 82 64 be
       -0.20604977 -0.18697663 -0.20776677 -0.22315355
000060 8d 20 21 3d c5 c8 e8 be b3 46 01 3e 75 e1 e1 bd
       0.039337683 -0.45465675 0.12624626 -0.11029331
000070 38 da 63 bd cc 83 60 be 62 ad c7 be 88 54 27 bb
       -0.05562803 -0.21925277 -0.38999468 -0.0025532562
000080 0a ac ef bd 2e 97 af bd de e6 8c 3b c1 c2 e3 bc
       -0.11702736 -0.08573757 0.0042999825 -0.027802827
000090 35 d3 6b bd 93 bf 4f be 4e 5b 11 be 52 29 fe bd
       -0.05757447 -0.20287924 -0.14194986 -0.12410225
0000a0 1d 27 87 be b5 e6 8b bd 41 c9 51 bd 86 a0 4b bc
       -0.2639703 -0.06831113 -0.05121732 -0.0124284085
0000b0 8d f1 2e 3d 85 0e a2 bc 15 4c 65 be 8e bd 4a 3c
       0.04271083 -0.019782314 -0.22392304 0.012374295
0000c0 1d 71 86 3d c9 7e a5 be 4a b7 1f bd a7 96 ca be
       0.065645434 -0.32323292 -0.038993157 -0.39568064
0000d0 95 16 56 bd ca 59 f4 bd be 0a d5 be 57 f8 0a bf
       -0.05226763 -0.119311884 -0.41609758 -0.54285187
0000e0 92 c4 83 be 22 3c 75 bb b7 43 14 3d ef f1 9d be
       -0.2573591 -0.0037419875 0.03619739 -0.30848643
0000f0 f1 41 a9 bd 26 04 4b be 92 fd 1f be e4 63 55 bd
       -0.082645305 -0.19825801 -0.15624073 -0.052097216
