route_TSC/model/0.5_nav_0315/q_netveh.pt (torch, 934534 bytes, 9 tensors)

fc1.weight f4 [512, 196]
000000 e3 50 0a bd 4c 0c 5e bd 9c 9d c3 bc b5 e0 8f bd
       -0.033768546 -0.054210946 -0.023878865 -0.07025281
000010 b5 3c 05 bd c4 37 de 3c bb b3 87 bd 58 fa 75 bd
       -0.032528598 0.0271262 -0.06626078 -0.0600532
000020 ba d9 31 3d 36 d6 5f 3d da 83 23 3d 6e b2 3e bd
       0.04342053 0.054647647 0.039920665 -0.046556883
000030 28 59 26 bd f2 4e 92 bc fe db 68 3d a6 50 88 bd
       -0.04061237 -0.01785991 0.056850426 -0.066560075
000040 c0 ed 39 bb 9c 69 41 3d 9b 52 84 3d 64 58 57 bc
       -0.002837047 0.047219858 0.06461068 -0.013143633
000050 80 d6 16 bd 9a 82 3c 3d 54 a8 c3 3c ca 62 5e bd
       -0.036825657 0.04602299 0.023883976 -0.05429343
000060 86 5a f8 bc e6 b5 35 3d c3 07 0e bd 98 94 7c bd
       -0.030316602 0.044362925 -0.03467537 -0.061665148
000070 80 41 93 ba 00 6a 71 b9 32 84 c4 bc 46 c8 33 3d
       -0.001123473 -0.00023023039 -0.023988817 0.043892168
000080 6c 38 66 bd 16 07 62 3d 5c 80 96 3c 03 1a 4c bd
       -0.05620615 0.05518254 0.018371753 -0.049829494
000090 24 fe 74 bc f9 a0 8b 3d 56 06 8d bd 8f 28 8d 3d
       -0.01495317 0.068178125 -0.06885974 0.068925016
0000a0 f0 37 0b bd 0a ad 1b 3d 5c 08 e0 bc f0 99 cf 3c
       -0.033988893 0.03800682 -0.027347736 0.025341958
0000b0 d8 03 7a bd 68 e6 a4 3c cd aa 82 bd a6 12 69 3d
       -0.061038822 0.020129398 -0.06380234 0.05690255
0000c0 30 39 3d bc 50 7b 80 3c 3a 29 57 3d 80 3a 88 3b
       -0.011549279 0.0156838 0.05252955 0.0041573644
0000d0 40 83 de 3c 3d 49 83 3d 6a cc 33 3d 4a 80 74 3d
       0.027162194 0.064104535 0.043896116 0.05969266
0000e0 2e 5d 30 bd f6 56 2d 3d 19 0e 85 3d fa a3 54 3d
       -0.043057613 0.04231926 0.064968295 0.051914193
0000f0 e4 8b 52 bc f8 29 1d 3c 8a ff 74 bd 00 1e 25 bb
       -0.012850735 0.009592526 -0.059814014 -0.0025194883
000100 28 04 35 bd 60 0d f9 3b 7f 6b 8e 3d 96 7d 26 3d
       -0.044193417 0.0076004714 0.06954097 0.04064711
000110 38 51 95 bc 80 c2 09 3c 74 16 85 3c 00 5b 83 bc
       -0.018227205 0.008408189 0.016246058 -0.016034603
000120 64 71 bb 3c de cb 1f bd 8a e5 03 3d ab fe 86 3d
       0.022881217 -0.039012782 0.032201327 0.06591543
000130 54 73 7f bc 52 03 5b 3d bc df 9d bc c3 91 73 bd
       -0.015591461 0.053469963 -0.019271724 -0.05946518
000140 fa 9f 76 bd e6 cf 6f 3d ce 55 11 3d 73 1f 67 bd
       -0.06021116 0.058547877 0.03548222 -0.056426477
000150 fe 0c 11 3d 9a a0 17 3d 00 44 f3 3b f2 36 6d 3d
       0.03541278 0.037018396 0.0074238777 0.057913728
000160 7a f0 0b 3d ca 08 02 3d 1c 42 27 bc 5a 36 7a 3d
       0.034164883 0.031746663 -0.010208633 0.06108699
000170 af 68 89 3d 70 f3 e6 3c 7e e8 1e 3d 54 99 45 bc
       0.0670942 0.028192252 0.03879594 -0.012060482
000180 f2 9c 20 3d c0 66 84 bd 40 a1 92 ba 1a de 43 3d
       0.039212175 -0.064649105 -0.0011186972 0.047819234
000190 ce 7a 84 bd b4 5b b5 3c ee 47 ea bc ee 2b 4f 3d
       -0.06468736 0.022138454 -0.028598752 0.050579004
0001a0 b0 cb c7 bb ca 00 2a bd b8 06 69 bd f7 1b 8a bd
       -0.0060972795 -0.04150466 -0.056891173 -0.06743615
0001b0 58 ef e3 3c 98 e3 1c 3c 2c 1c 19 bd 5c 08 cd bc
       0.027824089 0.009575747 -0.037380382 -0.0250284
0001c0 81 7b 76 bd 5c 3d 1e 3d 40 4c 1c 3c 08 46 7d bc
       -0.060176376 0.038632736 0.009539664 -0.015458591
0001d0 12 0a 8c bc 0c 15 21 3d 5c 00 3d bd 9c 29 09 bd
       -0.017094646 0.039326712 -0.04614292 -0.033486947
0001e0 e2 77 89 bd 56 4d 74 3d ac 9b 44 bd 64 6a 3f bc
       -0.06712319 0.059644066 -0.048000023 -0.01168308
0001f0 f8 ae 81 3c 50 2e 15 3c e0 3d 14 bb f0 29 c0 3c
       0.015830502 0.00910528 -0.0022619888 0.023457497
000200 a6 5b 5f 3d 20 d2 46 3c 64 32 fb 3c c6 d8 51 3d
       0.054530762 0.012135059 0.030663677 0.051232122
000210 f2 f6 5e 3d 9e ca 45 3d aa 0d 35 3d d8 cf 8b bc
       0.054434724 0.048288934 0.044202484 -0.017066881
000220 20 a6 81 bc 7e e4 14 3d d8 53 40 3c 9f 79 8d 3d
       -0.015826285 0.03635072 0.01173874 0.06907963
000230 10 7a 7d 3c 40 ca 49 bc 2e ef 0b bd 72 d5 66 3d
       0.0154709965 -0.012316287 -0.034163646 0.0563559
000240 a0 42 e3 bb 72 8a 1b 3d 95 78 35 bd 2f 06 80 3d
       -0.0069354326 0.03797383 -0.04430445 0.062511794
000250 37 23 8c 3d 00 4e 12 bb 7e ea 72 bd 96 a1 6a 3d
       0.06842654 -0.0022324324 -0.05930566 0.057283007
000260 50 35 df bb e8 39 1e 3d d5 96 7b bd 70 31 2c bd
       -0.0068117753 0.038629442 -0.06142314 -0.042039335
000270 20 07 a6 3b d5 d4 12 bd 50 37 ff 3c d0 f4 c3 3c
       0.0050667673 -0.035847504 0.031154305 0.023920447
000280 74 51 f2 3c 1e ae 03 bd b5 88 19 bd 5e 91 72 bd
       0.029579856 -0.032148473 -0.03748389 -0.059220664
000290 3a 97 45 bd 1e 7d 7b bd 80 95 b8 ba 66 48 c3 bc
       -0.048239924 -0.061398618 -0.001408264 -0.023838233
0002a0 58 22 55 bd 1f 4d 88 3d 9c 4e fd bc 25 90 27 bd
       -0.052034706 0.06655335 -0.030921273 -0.04090895
0002b0 03 91 8c 3d 8c 3b 16 3d 8a 52 d3 bc f2 9a 26 3d
       0.06863596 0.036677882 -0.025796194 0.04067511
0002c0 ec c1 74 bd 38 75 7d bc 4c 20 4e bd 9e dd 4b bd
       -0.05975525 -0.015469842 -0.05032377 -0.049771897
0002d0 3e 2b 6a 3d 40 57 58 3d 9c cc 1e bd d0 a2 f9 bb
       0.057170145 0.052817583 -0.03876935 -0.0076182857
0002e0 8e 4a 7b 3d 0a 48 fb bc 46 d7 72 3d d6 61 63 3d
       0.061350398 -0.030674 0.059287332 0.055513225
0002f0 ec cb 05 3d 6c 7d 41 3d 35 8f 23 bd 73 e2 03 bd
       0.03266518 0.047238752 -0.039931495 -0.03219838
000300 bb c2 80 bd 00 04 eb bc bc 16 74 bd b0 20 8d bb
       -0.06287142 -0.02868843 -0.059591994 -0.004306875
000310 58 51 a9 bd c1 70 9b bd 78 5c 2f bb 6e be 46 bd
       -0.08267468 -0.075898655 -0.0026757997 -0.04852145
000320 fe a1 1d bc b1 b6 9d 3c 8e fc a5 3b 6b 9e b5 bd
       -0.0096211415 0.019252153 0.0050655073 -0.088681065
000330 00 c9 dc 38 09 00 19 bd b2 d5 56 bd 87 56 a5 bc
       0.00010527857 -0.03735355 -0.05244989 -0.020182861
000340 24 68 37 3b 47 60 42 bd 80 2d 0c b9 5a 9b ac bd
       0.0027985657 -0.0474551 -0.0001336839 -0.084280685
000350 38 b1 d3 3c d5 e6 96 3c 1e 86 25 bc 3c 72 62 bd
       0.02584134 0.018420616 -0.010102777 -0.055284724
000360 b0 b4 82 bd a2 b6 66 3c c7 0b 7c bd 71 33 8d 3c
       -0.0638212 0.014081629 -0.06153467 0.017236443
000370 8d ff 1c bd 68 b4 69 bd d3 d5 85 bc 36 82 85 bd
       -0.03832965 -0.057056814 -0.01633731 -0.065189764
000380 26 94 b0 bd c7 09 04 3d 58 3b 97 bc 98 35 8e bd
       -0.08622007 0.032235887 -0.018460914 -0.06943816
000390 7d f7 f9 bc 6a ff b7 bc 16 a9 88 bd 29 bb 9a bd
       -0.03051352 -0.022460658 -0.066728756 -0.07555229
0003a0 ef d1 af bd ab 79 8b bd 81 68 6b bd 76 b9 32 bd
       -0.085849635 -0.06810316 -0.05747271 -0.0436339
0003b0 ce af b6 bd 0c 9d 51 3d 8a fa 03 3d bf 99 99 bd
       -0.08920251 0.051175162 0.032221355 -0.07500028
0003c0 c1 92 68 bd b4 bd e1 3c 13 6c 31 bc 63 f1 fd bc
       -0.05678058 0.027556278 -0.01082899 -0.030998891
0003d0 6c ec 92 3c 28 f4 34 3d 1f 3b ce bc 5e b6 59 3c
       0.017935 0.044178158 -0.025174676 0.013288109
0003e0 7b e6 90 bd b0 ca 41 3d 89 8a 5b 3c 3c dd 8e 3b
       -0.07075211 0.04731244 0.013399729 0.0043598693
0003f0 4a 19 9e bd c8 ad 44 bb ec 25 80 bc 21 aa 39 3d
       -0.07719667 -0.0030010808 -0.015643083 0.045328263

fc1.bias f4 [512]
000000 0e 6b bd bc 15 47 0d bc c0 8f 7c bd a5 d4 81 bd
       -0.023122337 -0.008622904 -0.06166053 -0.06339387
000010 21 af 4f 3d b8 aa d9 3c c3 83 a4 bd 2b 91 7c bd
       0.050704125 0.026570663 -0.08032944 -0.06166188
000020 32 f4 3d 3d ef 63 18 3d 55 6a d3 3c b2 68 53 3d
       0.04637546 0.03720468 0.025807539 0.051613517
000030 b3 49 12 bd 49 83 48 3c c2 85 8e bc 51 bb 80 3d
       -0.035714816 0.012238332 -0.017397765 0.06285728
000040 53 5d 20 3c bd 37 24 bd 49 93 56 bd 70 30 ea 3c
       0.009787875 -0.04009222 -0.052386556 0.02858755
000050 fa c2 87 3d 96 c2 a4 bd cd fd 33 3d c2 5f ba bc
       0.06628986 -0.08044927 0.043943215 -0.022750739
000060 89 da 2f bc fe fc f2 3c 13 a5 5a 3d 0b a5 cb 3c
       -0.010733255 0.029661652 0.053380083 0.024858972
000070 9a e0 63 bd 33 e4 23 bd 10 d2 6a ba 60 1b 9e bd
       -0.05563412 -0.04001255 -0.00089576934 -0.07720065
000080 00 9e b4 3b 15 4a c1 bd e0 a6 6d bd 30 a0 28 3d
       0.005511999 -0.09437958 -0.058020473 0.04116839
000090 36 63 2e bd c0 dd 37 bd 00 fe 6d 3d 90 58 7c 3c
       -0.042575084 -0.04488921 0.05810356 0.015401974
0000a0 11 34 90 bd 80 ba 5e bd ea 89 f1 3c 75 af 8a bd
       -0.07041181 -0.05437708 0.029484708 -0.06771747
0000b0 0d a9 44 bd 0e 22 0e 3d ce d0 93 3b 9b c7 2d 3d
       -0.048012782 0.034700446 0.0045109754 0.042426687
0000c0 24 74 87 3c b8 d0 06 3d d6 a2 a1 bc ba 5a 7b 3d
       0.016534872 0.032913893 -0.019730967 0.06136582
0000d0 13 e9 f1 bc 3a ca 71 bd 76 72 8a 3d 38 42 01 3c
       -0.029530084 -0.05903075 0.06760113 0.007889323
0000e0 90 47 67 3d 00 0e f9 39 14 4c 3e bd 81 af 86 bd
       0.05646473 0.00047503412 -0.046459273 -0.065764435
0000f0 61 5c 8e 3d 84 bc ba 3c 9e 50 a2 bd b4 87 f4 3b
       0.06951214 0.02279497 -0.07925533 0.007462466
000100 6f 84 cc bc f0 d4 ed 3b 2a ab 24 3d 26 75 43 3d
       -0.024965493 0.00725805 0.040202297 0.047719143
000110 52 a0 a5 3c ed d6 97 bd cc 89 9f 3d 97 4f 5d 3c
       0.020218048 -0.07414041 0.077899545 0.013507745
000120 a6 bf 1e 3d 96 42 0e 3d 49 66 68 bd 34 97 3b 3b
       0.03875699 0.03473147 -0.05673817 0.002862406
000130 08 b6 b7 3c 75 03 04 3d 6e 2b f0 3b e5 05 44 bd
       0.022425666 0.03222986 0.007329396 -0.047857184
000140 fd 42 60 bd a1 ae 7e bd ce 51 85 bd bc b2 ab bc
       -0.054751385 -0.062178258 -0.06509744 -0.02095925
000150 28 ef 6b bd a4 33 6d 3d 47 b0 83 3d 90 be 5f bd
       -0.057601124 0.057910576 0.064301066 -0.054625094
000160 3c f4 8f bc ec 6c c7 3c 80 ad b8 3a 1b 83 38 bd
       -0.017572515 0.02434393 0.0014089793 -0.045046907
000170 ee 4d c1 3c 46 f9 2f 3d 4a 4d 28 3d 46 34 89 bd
       0.02359673 0.042962335 0.041089334 -0.066994235
000180 1f 4b 58 bd ab d2 9b bc e9 2d 6d 3c e8 41 66 bd
       -0.052806016 -0.019021353 0.014476278 -0.056215197
000190 2a 2e 2e 3d 2b be 41 bd 9a a4 f0 bc a0 4b f2 3b
       0.042524494 -0.0473005 -0.029375363 0.007394269
0001a0 31 d6 0b bd 4a fc 23 bd e0 90 af bc 26 08 80 bd
       -0.034139816 -0.040035523 -0.021431386 -0.06251554
0001b0 ba 09 d8 bc 3a 80 4f bc a4 92 dd 3c bc 86 e0 bc
       -0.026371825 -0.012664849 0.027047463 -0.027407996
0001c0 7a d0 9f bc 4c 7d da bc 49 b0 87 3d a4 1d 62 bc
       -0.019508589 -0.026671074 0.066254206 -0.013801012
0001d0 a4 03 ba bc e4 91 6a 3d ea 29 b9 bc 11 6a 47 3d
       -0.022706814 0.05726804 -0.022602994 0.048685137
0001e0 d4 7d 89 3c 30 14 6e bd a0 e9 3b bd 29 2c 2c 3b
       0.016783632 -0.05812472 -0.0458771 0.0026271439
0001f0 c0 b8 b2 39 35 53 62 bd ee 68 ff 3b 9f 17 15 3d
       0.00034088455 -0.055255134 0.007794491 0.03639948
000200 d1 95 30 3d 00 a1 03 ba aa 20 e8 bc 87 6f 13 3d
       0.043111626 -0.0005021244 -0.028335888 0.035995033
000210 ee 83 6b 3d af 15 8b bd a6 99 bc 3c a8 99 f7 3c
       0.057498865 -0.06791245 0.023022484 0.030224636
000220 fc df ba 3c db b0 5a bd c5 9d 7b 3c 1e 3e 01 bd
       0.022811882 -0.05339132 0.015357439 -0.03155338
000230 b2 0a 9a bc be 50 8c bd ac 20 0b bd c4 a2 8d 3c
       -0.018803928 -0.06851338 -0.033966705 0.017289527
000240 aa 3d ad bc a8 1f 7d bd 87 c8 fd 3c e4 35 4d 3d
       -0.021147568 -0.061797768 0.030979408 0.050100222
000250 6d 73 63 bc 46 22 c5 3b 22 46 44 3d 70 6d 35 3d
       -0.0138825 0.0060160486 0.047918446 0.04429382
000260 8b 00 e2 3c af 22 05 3d 6c 4d 71 bd 2c 3c 8a bd
       0.02758815 0.03250378 -0.058911726 -0.06749758
000270 a2 1f 92 bd 8c 9d 97 3c 02 32 99 bd 08 ad dd 3b
       -0.0713494 0.018507741 -0.07480241 0.0067650117
000280 ba 44 91 bd fa 2c 00 bd cc 91 33 3d 8e 98 a9 3c
       -0.07093187 -0.031292893 0.043840215 0.020702627
000290 07 6d 7b bd 84 9b 0a bd 36 5b 8e bd 6c 5d ca 3c
       -0.061383273 -0.033839718 -0.06950991 0.02470275
0002a0 a1 f8 f3 bc f6 97 49 3d 54 f0 b3 3c 14 c4 eb 3c
       -0.029781641 0.049217187 0.021965183 0.02878002
0002b0 82 80 7b 3d 4a 66 4e bd 44 3f 3d 3d a0 fa f3 bc
       0.06140185 -0.05039052 0.046202913 -0.029782593
0002c0 80 34 77 ba 6f fc 8a 3d c0 93 a4 bc b0 ae 14 3b
       -0.00094301254 0.06786429 -0.020089984 0.002268713
0002d0 1e c8 5b 3d be b5 27 bd 22 1e 6a 3d 08 69 ae bc
       0.053657643 -0.040944807 0.057157643 -0.021290317
0002e0 86 b8 81 bd 10 41 02 bd 9e 62 3d 3d c5 0c ac 3c
       -0.06334023 -0.03180033 0.046236627 0.021002183
0002f0 6e ac c0 bc fc 6c 43 bd 3f 9b 92 bd 82 bd 5c 3d
       -0.02351972 -0.047711357 -0.07158517 0.053891666
000300 30 6e 96 bd ae c4 d0 3b 6f 85 d6 3b c4 41 76 3d
       -0.07345235 0.0063711023 0.0065466682 0.060121313
000310 00 12 7c 39 fb fd 9a bd 40 dd 22 3b d0 fd b9 3c
       0.00024039298 -0.07567974 0.0024851114 0.022704035
000320 76 72 9a bd 5c 39 50 3d 62 2b 69 3d 88 70 eb bb
       -0.07541363 0.050835952 0.05692614 -0.0071850456
000330 84 a2 c6 bc f5 56 8a 3d 52 4f 6a bd 5e fd 6a 3d
       -0.024247415 0.06754867 -0.057204552 0.057370536
000340 9b 6b e9 3c 34 81 39 bc 37 ab 11 bd cd d8 88 3d
       0.028493693 -0.011322308 -0.035563674 0.066819765
000350 00 be 61 3c c6 ce 70 3d e8 e0 c1 3a f0 c5 51 bc
       0.01377821 0.058790945 0.0014791759 -0.01280354
000360 92 55 f9 bb 47 b2 0e bd 40 8f 28 ba b9 2c c4 bc
       -0.0076090777 -0.034837987 -0.00064300373 -0.023947107
000370 09 e3 93 bd 04 31 8d 3b af 39 4c bd b2 ec bc 3c
       -0.07221038 0.0043088216 -0.0498597 0.023062084
000380 b0 d2 2b bd 81 ba aa bd c2 ab 43 bd c8 0b 2d 3d
       -0.041948974 -0.08336354 -0.047771223 0.042247564
000390 88 a1 43 3c f2 33 66 3d ab c1 44 bd 02 21 37 3b
       0.0119403675 0.056201883 -0.04803626 0.0027943258
0003a0 b4 f6 c0 bc aa 46 4a 3d cb ac 59 3d f7 8a 9b bd
       -0.023555137 0.049383797 0.053143304 -0.07594865
0003b0 72 85 37 3d 0a 22 17 bd 14 36 4c 3d 81 63 91 3d
       0.044804998 -0.036897697 0.04985626 0.07099057
0003c0 b1 99 db bc 76 a8 29 bd 01 47 99 bd e9 20 8d bd
       -0.026806684 -0.041420422 -0.07484246 -0.06891043
0003d0 20 5f 91 3c 6b 57 86 bd 8c 4d aa bd ba 2f f1 bb
       0.017745554 -0.065596424 -0.08315572 -0.007360426
0003e0 f0 f5 83 bd 0c 99 18 bd 30 09 f2 3c 56 d6 ab bd
       -0.06443393 -0.037255332 0.029545397 -0.08390491
0003f0 bd c5 94 bd e0 43 79 3c 2e c5 c9 3a 71 5e cf 3c
       -0.07264278 0.015213937 0.0015393847 0.025313588

fc_value.weight f4 [128, 512]
000000 1d 2d aa bc 78 88 96 ba 60 52 5d 3b 97 df 23 bd
       -0.020773465 -0.0011484763 0.0033771023 -0.040008154
000010 ee 50 6f bc 91 49 30 3d 44 b5 bc 3c c4 05 f6 bc
       -0.0146066975 0.04303891 0.023035653 -0.030032046
000020 6e ee 07 bd 17 af 97 3e 52 56 11 3c d8 4e da 3c
       -0.03318637 0.2962577 0.008870678 0.026648924
000030 31 08 29 3d 97 6f 59 bc c9 8d f2 bc 11 ae 33 3d
       0.041267578 -0.013271234 -0.029608624 0.043867175
000040 c6 df 0e 3d 05 f2 08 bd dc 32 1a 3c 40 b2 76 3b
       0.034881376 -0.033433933 0.00941154 0.0037642866
000050 bf e8 82 bd c2 75 cf bc c3 26 c8 3b c8 98 16 3b
       -0.06392049 -0.025324706 0.0061081364 0.0022979248
000060 25 70 76 3c 42 16 2b bc 8f 7f f3 ba 5a 90 44 bb
       0.015041386 -0.010442318 -0.0018577444 -0.0029993267
000070 e3 32 06 bd 8c 6e 02 3c 21 89 ee ba 8d ef 1a 3c
       -0.032763373 0.007960927 -0.0018198827 0.009456527
000080 90 57 2a 3b 95 35 2e 3d b5 9a 55 3c 41 76 7f 3c
       0.0025992133 0.04253157 0.013037373 0.015592159
000090 90 20 e1 bc d2 ec a8 3c 4c 57 0e bd 10 19 73 3b
       -0.027481347 0.020620737 -0.03475122 0.0037093796
0000a0 a8 a3 96 bc 3e ad 97 bc 2a 85 33 bd cc 51 06 bd
       -0.018388584 -0.018515225 -0.043828167 -0.03279285
0000b0 c5 db 4e 3c d3 19 02 bd 03 c4 24 3d ce ed ac 3c
       0.012625639 -0.03176291 0.040225994 0.021109488
0000c0 34 08 46 3b 94 97 05 3d 54 39 e9 3b 06 c5 e9 3c
       0.0030217292 0.03261526 0.0071174297 0.02853633
0000d0 18 44 25 3d 16 1d f7 bc b3 7c 3b bc fa 07 b9 3c
       0.040348142 -0.030165236 -0.011443305 0.022586811
0000e0 dc 44 f6 bb 14 a4 f1 bc d0 2e 1f 3d 2a 20 15 3d
       -0.007515533 -0.029497184 0.038863003 0.036407627
0000f0 43 8e b5 bc 90 01 b0 bb a0 c2 c3 bc 42 44 58 bc
       -0.022162562 -0.00537128 -0.023896515 -0.013199868
000100 cd 01 27 3d a1 c2 31 3d 1f 4b cb 3c 1f 1d 21 bc
       0.0407732 0.043398503 0.024816094 -0.009833603
000110 94 24 3f bd 93 01 25 3c 35 d8 92 be 56 5d b5 3b
       -0.046665743 0.010071176 -0.28680578 0.005534808
000120 d6 72 14 3d 58 65 17 3c 30 6e b9 bb f1 6b 6a 3c
       0.03624233 0.009240471 -0.0056588873 0.014307962
000130 ca b7 ac 3c c1 38 e4 bc 2b b9 2e 3d df f0 f4 bc
       0.021083731 -0.027859094 0.04265706 -0.029900013
000140 26 de f7 bc 6b 29 2e bd 1c d6 05 3c b8 18 d2 bc
       -0.030257296 -0.042519968 0.008168723 -0.025646552
000150 87 f6 2e 3d 56 d3 f6 bc f0 29 7c 3c 66 9f b2 3c
       0.042715576 -0.03013007 0.015390858 0.021804523
000160 c2 71 bf bc 52 97 a4 3c 48 73 ac bc 80 f7 0f 3c
       -0.023369674 0.020091686 -0.021051064 0.008787036
000170 d3 e9 27 3d 80 d2 a4 3a 46 8d b0 3c 0f a2 a2 bc
       0.040994477 0.0012574941 0.02155174 -0.019852666
000180 94 a7 43 bc 2c 7a c0 3b 63 a9 1b 3e b0 ae 8f bc
       -0.011941809 0.005873939 0.15201335 -0.017539352
000190 f0 c2 91 3c c1 11 9e 3b b3 7a 39 3b b8 5e 05 bd
       0.017793149 0.004823894 0.0028301894 -0.032561034
0001a0 94 01 18 bd 9c 84 6c 3c 24 e7 41 bb 7a 76 95 bc
       -0.03711088 0.014435913 -0.0029587233 -0.01824497
0001b0 3f 5b 63 bc cb da e5 bc 88 43 d0 bb 5b 93 a9 bc
       -0.013876735 -0.02805843 -0.0063557066 -0.020700147
0001c0 ee 35 84 bc b4 d1 70 bb 7f c3 b4 bc fe 62 a7 3c
       -0.016138997 -0.0036746087 -0.022065876 0.020432945
0001d0 8c aa fb bc 5d b4 c5 3c 25 54 db bc 00 b8 bd ba
       -0.030720972 0.024133855 -0.026773522 -0.0014474392
0001e0 08 f6 ef 3b 70 38 c8 3c 3c 3b 43 bc c6 67 23 3d
       0.0073230304 0.024440974 -0.011915978 0.039893888
0001f0 9f 52 a8 3b c4 d0 76 3c c6 08 d8 bc f9 9e 3b 3d
       0.0051368023 0.015064422 -0.026371371 0.045805905
000200 a7 5e 4e bc 7a 26 1f bd b3 46 2f bc f9 ab 10 bc
       -0.012595809 -0.038855053 -0.010698008 -0.008830064
000210 e0 55 1e bc 4b 25 57 bd 2a 1d f7 bc 99 12 26 3d
       -0.009664029 -0.0525258 -0.030165274 0.04054508
000220 ec 17 06 3d 38 15 50 3a 39 6e 1b bd 64 ca 8d 3c
       0.032737657 0.0007937732 -0.037946913 0.017308421
000230 bb da 05 bd 83 c4 09 bd aa 28 97 3c 48 03 4c 3c
       -0.0326793 -0.033634674 0.018452007 0.012451954
000240 66 ff 6f bc 24 d5 5f 3c 98 b6 1f bd b6 f8 00 bd
       -0.014648294 0.0136616565 -0.038992494 -0.03148719
000250 c0 92 22 3c 79 19 cb bc f8 4a de bc 91 3a 3f 3c
       0.009922683 -0.02479242 -0.027135357 0.011671678
000260 20 af ed 3b 24 8c 59 bd 84 51 24 bb e5 0f 19 bd
       0.0072535425 -0.053112164 -0.0025073 -0.037368674
000270 e4 c4 52 3c bb d9 1f 3d 86 03 09 bb a7 ab 3f 3d
       0.012864325 0.039026003 -0.002090664 0.04679456
000280 84 79 dc bb 0c ae 8a bc e6 4e 9d 3c 7e 08 46 3c
       -0.006728353 -0.016928695 0.01920266 0.012086986
000290 b6 47 0b bd 89 80 f3 bc 53 a0 4c 3c 9b 9e ea 3c
       -0.034003936 -0.029724376 0.012489396 0.028640082
0002a0 e0 ce 73 3c fd 42 14 3d b0 c2 1f bd 3b 55 31 3d
       0.014880866 0.036196698 -0.039004028 0.043294173
0002b0 64 c3 24 3b d5 a0 42 bc 1e 9e 6d bc 04 29 0b bd
       0.0025140876 -0.011879166 -0.01450303 -0.033974662
0002c0 15 6f 12 3d 00 ca 22 ba 00 7e f5 3a de 8f cc bc
       0.035750467 -0.000620991 0.0018729568 -0.024970945
0002d0 0c a4 19 bc cf 83 b5 3c 50 3f 68 bb 1c d2 ba 3b
       -0.009377491 0.022157578 -0.0035438128 0.0057013165
0002e0 18 73 19 bc 52 1c 9c bc f7 09 24 bc b9 43 b4 3c
       -0.009365819 -0.019056473 -0.010012141 0.022004949
0002f0 9a a7 cd 3c c0 4f 65 3c bc 68 15 bd 93 89 0d 3d
       0.025104333 0.013996065 -0.036476836 0.03455503
000300 35 b4 e1 3a 2e 07 13 3d 0d 0b bb bc a2 92 27 3c
       0.0017219844 0.03589552 -0.022832418 0.010227831
000310 10 2b 10 bb 00 71 8e 3c fe 06 ea bc a8 cc fe 3a
       -0.0021998324 0.017387867 -0.028567787 0.0019439654
000320 1e d9 04 bd 88 63 02 bc 4f 5f 4a 3d 29 12 2c 3b
       -0.03243362 -0.0079583 0.0494073 0.0026255941
000330 13 67 2c bd ac 1d 39 bc 86 79 e4 bc f6 ab 29 bd
       -0.042090487 -0.011298578 -0.027889978 -0.04142376
000340 71 69 0c bd 8d ba f5 3c c9 e1 13 3d 53 ed 69 bf
       -0.034280244 0.02999618 0.036103997 -0.91377753
000350 ee 03 14 bd 44 43 b2 bb 56 e7 fb 3c 90 3e 61 3c
       -0.03613656 -0.0054401476 0.030749958 0.013747826
000360 ca 36 92 3c fe 6d 9e 3c 0c 55 e8 bb 15 ab 4f bd
       0.017848391 0.019339558 -0.0070902165 -0.050700266
000370 5c 3e c6 3c 15 8f ca bc 95 20 dc bc e0 86 20 3d
       0.024199657 -0.02472643 -0.026871005 0.039191127
000380 15 ce 17 3d c8 f4 15 3d 11 d3 38 bd 3a b6 59 3c
       0.03706177 0.036610395 -0.045123164 0.013288075
000390 17 cf 02 bd 70 58 4c bc b4 7d 81 3c 3d fa e1 bc
       -0.031935778 -0.012472257 0.01580701 -0.027585143
0003a0 36 3b ef 3c 46 70 fb 3c 4e c8 92 bc 01 38 23 bc
       0.029203039 0.030693185 -0.017917778 -0.009962083
0003b0 c0 9d 2a bc d6 3e 28 3d 5c 17 10 3d 0f f3 04 3d
       -0.010413587 0.04107555 0.035178527 0.03245836
0003c0 5d 0b 5d 3c f0 c4 bb 3a 3e db 03 3d 51 e7 2a 3d
       0.013491479 0.001432566 0.032191508 0.041724507
0003d0 e4 48 fe bc 15 7d 10 bd 35 43 0d bd 0b 45 0e bd
       -0.031040616 -0.035275538 -0.03448792 -0.034733813
0003e0 46 a3 8d 3b 64 e5 78 3c 58 32 89 3b d7 29 14 bc
       0.004322442 0.01519141 0.0041869096 -0.0090431785
0003f0 40 2a 13 bc 05 e4 1e bd bb e9 02 bd a5 ee 35 bd
       -0.008982241 -0.038791675 -0.031961184 -0.044417042

fc_value.bias f4 [128]
000000 a1 51 41 bf f6 55 1b bd 66 2e 7d be f9 41 b5 3b
       -0.7551518 -0.037923776 -0.24724731 0.005531546
000010 77 d6 7f bd 57 be 57 bf b9 33 85 bd 49 33 ea bc
       -0.06246039 -0.8427481 -0.06504006 -0.028588908
000020 06 ff c2 3d 22 15 f9 bd f3 63 7e bd bd cc 76 bc
       0.09521298 -0.12162234 -0.062107038 -0.015063462
000030 34 ad 08 bd 29 0c ac bd dd e7 31 3d a4 d3 11 bc
       -0.033368304 -0.08400757 0.043434013 -0.008900557
000040 47 f4 59 3e d5 c5 46 bf e5 7e c6 ba 9e 8b b0 bc
       0.2128459 -0.7764562 -0.0015144019 -0.02155095
000050 23 35 35 be 24 9d 95 3c ac 33 b7 bc 83 77 c2 bd
       -0.17696051 0.018263407 -0.022363506 -0.09495451
000060 f2 f6 28 bf bc 61 0e 3c b2 42 01 3d 00 d9 0e bd
       -0.6600181 0.008690294 0.031557746 -0.034874916
000070 c4 19 4e bd 4e e1 46 bd b4 b7 12 be 83 6e be 3c
       -0.05031754 -0.04855471 -0.1432789 0.023246055
000080 d9 97 3b be c2 41 f2 bd 74 53 61 bc e0 ed a0 bd
       -0.18319644 -0.118289486 -0.013752807 -0.07857871
000090 f9 7d 5c 3d 3f 12 c0 3e c0 44 b6 be d7 de ff bc
       0.053831074 0.3751392 -0.35599327 -0.031234188
0000a0 ae 41 ee bc 31 0c f3 3d b3 c0 3a 3d d8 ba 0d 3f
       -0.029084053 0.1186756 0.04559393 0.55363226
0000b0 ba 2a 78 be 1b df be 3e bd e8 fd 3d 4e c3 c1 3c
       -0.24235049 0.3727959 0.12397907 0.023652699
0000c0 76 f9 4f bf 77 e6 9c 3c 02 96 47 bd 35 96 05 bd
       -0.8124002 0.019152863 -0.048727043 -0.03261395
0000d0 d4 4d bc bb 37 1c 6c be b5 f6 da be 26 81 fb bc
       -0.0057465825 -0.23057638 -0.42766348 -0.030701231
0000e0 b0 fc dd bc 26 d7 d8 bc 8c 1c 2c bd 12 d8 81 bd
       -0.02709803 -0.026469778 -0.042019412 -0.0634004
0000f0 58 b4 88 bd 79 1e 3e bf b8 ac d4 bb 20 f4 a7 bc
       -0.06675023 -0.7426525 -0.0064903162 -0.02050215
000100 39 3c 08 bd 78 0d d9 bb c0 a8 ea bc b2 09 e6 3e
       -0.033260558 -0.00662392 -0.02864492 0.44929272
000110 fb 0b 09 3e 6c 0d 5a bc c9 3c bb 3e 82 35 1a bd
       0.13383476 -0.013308864 0.36569813 -0.037648685
000120 a7 ca 35 be 60 2c d6 bc de ff 58 bd 1d a0 55 bd
       -0.17753087 -0.026144207 -0.05297839 -0.05215465
000130 ee 56 b4 3d e3 d5 ae 3d e4 c7 b2 3c 62 83 c4 3c
       0.08805643 0.085368894 0.02182383 0.02398843
000140 16 c7 9d bc a5 88 56 bc ca 03 93 bc 3f a4 73 bf
       -0.01925997 -0.013094102 -0.017946143 -0.95172495
000150 49 5d b6 3e d5 d5 a2 3c 70 52 0d 3b 5a db 78 3e
       0.35618046 0.019877354 0.002156403 0.24302426
000160 a4 68 86 3d 42 c2 05 bd 90 57 6a 3c c9 d7 60 bd
       0.06562927 -0.03265596 0.014303103 -0.05489329
000170 7d 8e 65 bc e7 36 30 bd 5a 7b 30 bd 93 f3 26 3c
       -0.014011023 -0.04302111 -0.043086387 0.010189909
000180 7e e8 a2 3c e4 ea aa be ec ed 0e bb 66 cb 86 3d
       0.019886252 -0.33382332 -0.0021809293 0.06581764
000190 46 aa 47 3b 8e 8a 24 3d 3f 98 95 3c fc 13 02 bd
       0.003046648 0.0401712 0.018261073 -0.03175734
0001a0 84 25 0b 3e 44 63 1d bd a2 cd 1a 3c d9 06 31 3d
       0.1358853 -0.038424745 0.009448441 0.04321942
0001b0 c8 31 ff 3c f9 9a 53 be 28 6d 35 bd 13 ac 27 bc
       0.031151667 -0.20664586 -0.044293553 -0.010233897
0001c0 f4 1d 73 bf d2 c4 fc be f6 ed 2e 3c 5f 52 9e bd
       -0.9496758 -0.49368912 0.0106768515 -0.07730555
0001d0 5b 2e 6e bc ea de 36 3c df ca 16 be 37 10 50 bd
       -0.014537419 0.011161545 -0.14725827 -0.050796714
0001e0 38 47 8f be 11 81 4b 3c a8 82 96 3e 72 9a c1 bc
       -0.27984023 0.012420909 0.29396558 -0.023633216
0001f0 3a 03 1c bd f0 ab 41 bf 36 f6 1f bd e8 f3 dc bc
       -0.038089015 -0.7565298 -0.039053164 -0.026971772

fc_adv.weight f4 [128, 512]
000000 20 4f 8b ba f0 33 ac bb 2a 57 ae bc 6b ac 25 bd
       -0.001062844 -0.005255215 -0.021281797 -0.040447634
000010 fd 1b 1c bd f4 7f 65 bc 81 cc 0d bd 18 06 29 bc
       -0.03811263 -0.014007557 -0.03461886 -0.010316394
000020 d6 23 fd 3c 38 89 d5 bc 9c dc 1d bd c1 e9 2e 3d
       0.030900877 -0.026066408 -0.038540468 0.042703394
000030 00 92 0e 39 86 9c 81 3c a0 e9 e3 3b c7 2a be bc
       0.00013596565 0.015821707 0.0069553405 -0.023213757
000040 f0 86 06 3b ce 6b f2 3c 0c 3f 77 bc 3e 8c f6 3c
       0.0020527206 0.02959242 -0.015090715 0.03009617
000050 69 f0 86 bc 5b 34 00 3d 2f 87 c7 bc 70 02 a6 bb
       -0.016472058 0.03129993 -0.024356453 -0.0050662085
000060 db cc a3 bc 91 a0 13 3d 51 73 1c bd 40 f1 de 3b
       -0.019995144 0.0360418 -0.03819591 0.0068036616
000070 98 5c ea bc 58 a7 73 3c d8 22 31 bc 3d 92 df bc
       -0.028608605 0.014871441 -0.01081153 -0.027291412
000080 70 fc 31 bb 15 43 08 3d a8 51 6f 3c 77 0e 0c 3d
       -0.002715852 0.0332671 0.014606871 0.034193482
000090 20 17 e8 3b 44 94 0d 3c 10 3c 0a bb 70 30 03 bd
       0.007082835 0.008641306 -0.002109293 -0.032028615
0000a0 e8 51 c1 3b e1 6f 04 3d 9e b3 72 bc 14 1e d8 bc
       0.0058996566 0.03233326 -0.014813332 -0.02638153
0000b0 b9 6b 31 bd 50 4e 6d bb f6 96 0b bd 4e 34 a6 bc
       -0.043315623 -0.0036210008 -0.034079514 -0.020288613
0000c0 c1 a9 97 bc 88 6f 1a bd b6 cb 8e 3c 95 a7 b5 bc
       -0.018513562 -0.03770402 0.017431121 -0.022174636
0000d0 20 8f 09 bc 60 b5 c2 3b 10 02 e4 bb 72 5c bc 3c
       -0.00839594 0.0059420317 -0.0069582537 0.0229933
0000e0 6f 7e 07 3d 2d bf 32 3d 36 77 81 3c 50 2f 34 3b
       0.03307956 0.04363935 0.015803915 0.002749402
0000f0 72 94 16 bd 44 08 4b bc 12 3a da 3c db 6e 1b 3d
       -0.036762662 -0.012392107 0.026639018 0.037947517
000100 e8 3c b3 3b a0 c1 f8 bb 7c ee 29 bd 3e f8 b1 3c
       0.005469907 -0.0075914413 -0.041487202 0.021724816
000110 38 0e 36 3c 3e eb ff 3c 7c 3a 25 bd 65 bf 2b 3d
       0.011111788 0.031240102 -0.04033898 0.041930575
000120 71 0a 13 3d b6 0e b4 bc 8c af 23 bd b4 88 b1 bc
       0.03589863 -0.021979671 -0.039962336 -0.02167163
000130 54 12 2c bc da a6 0a bd f4 ff 0f bd 61 cc 24 3d
       -0.010502417 -0.03385053 -0.035156205 0.040233973
000140 68 d3 3d 3c 4a 35 fa bc ae 93 b4 bc 28 3d 88 3c
       0.011586048 -0.030542988 -0.022043075 0.016630724
000150 08 dd 32 3c ae 8c ec 3c 39 04 1c 3d af a1 07 bd
       0.010916956 0.028875675 0.038089965 -0.033113178
000160 aa 6a 8d bc 33 da 82 bc 2a 1e a7 3c 29 bd 1c bd
       -0.017262775 -0.015973186 0.020400126 -0.038266335
000170 83 8b 00 3d 45 5a 07 3d 99 9d dd bc 04 de fd bc
       0.03138305 0.033045072 -0.027052687 -0.030989654
000180 be 0c 8d 3c b8 3b 51 bc 52 8f 9e bc 50 ec 24 bc
       0.01721799 -0.012770586 -0.01935545 -0.010066107
000190 22 0a ef 3c 2a 92 c7 3c 1b d4 04 3d c2 2b 03 bd
       0.029179636 0.024361689 0.032428842 -0.032024153
0001a0 cb 00 1d bd 62 cd d6 bc 7e 13 df 3c 3e c8 99 3c
       -0.038330834 -0.026220981 0.027230974 0.01877224
0001b0 87 8a 34 bd 7c 03 1a 3c fc de 7c 3c f8 5f f3 3b
       -0.044077422 0.009400245 0.015434023 0.007427212
0001c0 e0 82 0c bc 37 13 1b 3d 0e a3 ef 3c 30 f9 6e bb
       -0.008576125 0.03786012 0.029252555 -0.0036464445
0001d0 50 eb 3e bc d2 2d 97 3c ca 03 ba 3c 2f 2a f8 bc
       -0.011652783 0.018454466 0.022706885 -0.030293552
0001e0 b6 2e da 3c 83 1b 34 bd 52 19 75 bc cb fb 2f bd
       0.026633602 -0.04397155 -0.01495965 -0.042964738
0001f0 74 47 77 3c 49 ac 1b 3d 40 d0 9b bb bf 10 23 3d
       0.015092719 0.0380061 -0.00475505 0.039810892
000200 a7 1f 19 bd 10 9d 58 3c e1 32 c6 bc 81 77 0d 3d
       -0.0373837 0.01322104 -0.024194183 0.034537796
000210 90 4e ce bb 1f dd d5 bc aa d5 c0 bc c3 06 03 3d
       -0.0062959865 -0.026106415 -0.023539383 0.03198887
000220 88 54 9a 3b 6c 4a 93 3c 65 49 10 3d 70 68 51 3b
       0.004709784 0.017979823 0.035226244 0.0031953119
000230 60 b9 9c 3a 11 db e2 bc 30 f5 d3 bc 1e 82 a6 3c
       0.0011957102 -0.02769235 -0.02587375 0.020325717
000240 22 6e 16 bd a0 b4 1e 3c d6 e5 f3 bc d5 0f 32 3d
       -0.036726125 0.009686619 -0.02977268 0.04347213
000250 3a 02 ff bc 05 56 31 3d df 1d 81 bc 1c 1a 8b 3c
       -0.031128991 0.043294925 -0.015761314 0.016980223
000260 78 16 f1 bc be 77 d7 3c 26 a6 db 3c e0 e8 f8 ba
       -0.02942966 0.026302215 0.026812624 -0.0018990301
000270 db 97 d4 bc df c1 27 3d 70 b2 35 bc 00 ef 31 3c
       -0.025951317 0.040956374 -0.011089906 0.010860205
000280 2e 65 d6 3c 52 29 6c bc c9 fb 09 bd a6 3f 91 3c
       0.026171293 -0.014414148 -0.033687387 0.017730545
000290 20 9c 2b bb b4 12 0a bc ae 46 e8 3c a2 a4 9e 3c
       -0.0026185587 -0.008427311 0.028354015 0.019365612
0002a0 94 64 fe bc be 16 05 bd b5 e0 80 bc 39 1e 19 3d
       -0.031053819 -0.03249239 -0.015732149 0.03738234
0002b0 60 41 25 bd f2 a6 a4 bc 05 bf 09 3d 2f ea a0 bc
       -0.04034555 -0.020099137 0.033629436 -0.019642917
0002c0 00 24 6a bb 11 e3 05 bd c4 38 22 bd 84 cd 09 3c
       -0.0035727024 -0.03268725 -0.039604917 0.008410815
0002d0 ff e5 b1 bc da 76 93 bc b8 9b 14 3c 52 50 b1 bc
       -0.021716116 -0.018001009 0.009070329 -0.021644745
0002e0 08 48 48 bc 2b a4 09 3d 40 8d a2 3a 9d bf 28 3d
       -0.012224205 0.03360383 0.0012401715 0.04119836
0002f0 60 fe ca 3a b0 f4 06 bb d2 f5 b5 3c 42 66 5c bc
       0.0015487187 -0.0020592622 0.022211943 -0.013452115
000300 94 22 28 3c be 4c a6 3c 6b ab 0f bd 85 a3 a6 bc
       0.01026215 0.020300265 -0.035075586 -0.020341644
000310 a8 a0 9c bc 10 85 d1 bb 43 1f 26 bd 40 81 33 bb
       -0.019119576 -0.006394036 -0.040557157 -0.0027390271
000320 98 f9 00 bd fe 3c a0 3c f0 d0 98 bb 60 22 19 bb
       -0.03148803 0.019560333 -0.004663579 -0.0023366436
000330 15 b8 eb bc 90 99 b5 3b e8 19 e7 3b 2d df 15 bd
       -0.0287743 0.0055419877 0.007052649 -0.03658979
000340 18 2b 44 3c 60 9c fa bb f8 2d d5 3b b7 c4 17 bd
       0.011973165 -0.007648036 0.006505724 -0.037052836
000350 50 17 26 bd 22 61 a1 bc 25 df 25 3d f7 4b 13 3d
       -0.040549576 -0.019699637 0.04049601 0.035961118
000360 52 24 c7 bc 3d 06 2a bd 3e c4 a0 3c e0 20 1e bc
       -0.024309311 -0.041509856 0.019624826 -0.009651393
000370 fc 60 53 3c 72 37 2d bd 8e c0 f6 bc 62 bf 86 3c
       0.012901541 -0.042289205 -0.030121114 0.01644868
000380 94 fd 97 bc 50 d4 93 bb 15 b5 18 bd 30 ef 2a bc
       -0.018553533 -0.0045113936 -0.03728207 -0.010433003
000390 93 6f 34 3d 4c 41 02 bc 06 4b be 3c 1a be ce bc
       0.044051718 -0.007950138 0.023229133 -0.025237132
0003a0 a4 a4 90 3c 75 44 b3 bc 68 03 2d bc ae 47 11 bd
       0.017656632 -0.021883229 -0.010559894 -0.03546875
0003b0 c0 e7 26 3b c0 78 ea ba ec 59 27 bc 5e e8 10 bd
       0.0025467724 -0.001788877 -0.01021431 -0.035377853
0003c0 50 6e 97 bc 25 95 bd bc 00 78 89 38 40 9c 2f bd
       -0.018485218 -0.023142407 6.555021e-05 -0.04287362
0003d0 ee d3 b4 3c 75 a5 dc bc ca 68 92 bc 44 fa ed bc
       0.022073712 -0.026934365 -0.017872233 -0.02905
0003e0 40 16 9d 3a e2 7d ee bc 8a 89 fb 3c 2d c3 d4 bc
       0.001198478 -0.02911276 0.030705232 -0.025971973
0003f0 c0 bc 58 3b 97 8e 05 bd 5c 5c 3b 3c ea d8 a1 3c
       0.0033071488 -0.032606687 0.011435594 0.019756753

fc_adv.bias f4 [128]
000000 e8 66 8d 3c 47 bb 85 bc 4a 13 37 bd 18 7e da be
       0.017260984 -0.016324652 -0.04469613 -0.42674327
000010 60 bf 4d bd 2a 7b 06 3c 71 62 33 bd 1f 87 37 be
       -0.050231338 0.008208076 -0.043795053 -0.17922638
000020 84 ef 08 3e 62 bb 98 bd a4 70 1f 3b 0a ee 50 bd
       0.13372618 -0.074576154 0.0024328614 -0.05100826
000030 b1 80 0b 3e e8 91 02 bd ec df 2e bf 1c 7c 5c 3b
       0.1362331 -0.03187743 -0.6831043 0.003364331
000040 ec cf f8 bd 32 83 ee be b8 70 a8 3c 70 98 80 3e
       -0.12149033 -0.4658447 0.020561561 0.251163
000050 80 ca 53 3a 4f 95 3c bc 25 9c e9 bc 65 95 8a 3d
       0.0008079186 -0.011510207 -0.028516838 0.06766776
000060 a4 a3 c9 bd 1b 75 0e 3d 8e 82 57 bd 99 3a cd 3c
       -0.09845665 0.03477965 -0.05261474 0.025052356
000070 77 91 6b 3e 36 92 5d be 22 43 05 bf 07 d1 f6 bc
       0.23004709 -0.21637806 -0.5205556 -0.030128969
000080 7a 72 d3 3c c9 5d 2e bd 35 a6 9d bc 69 fb 22 bf
       0.025811423 -0.04256991 -0.019244293 -0.6366487
000090 50 91 1b 3e 5b 30 46 bd 97 f5 57 bd 33 41 2c bf
       0.15192151 -0.04838596 -0.052724447 -0.67286986
0000a0 43 e2 82 be ec 62 96 3c 76 b2 b5 be 3a 56 85 be
       -0.2556325 0.018357717 -0.35487717 -0.26042348
0000b0 da ee 9a bc c1 6e 7f 3c 55 25 b9 3e 1e b5 3e bd
       -0.018912721 0.015590371 0.36161295 -0.046559446
0000c0 17 06 b7 be a4 52 4c bf b8 fb 4e bc f7 d0 a6 3c
       -0.35746834 -0.798136 -0.012633257 0.020363314
0000d0 bd 68 0d 3e 48 f3 3a bd 88 db 52 b9 e6 28 77 bd
       0.13809486 -0.045642167 -0.00020108942 -0.06034174
0000e0 c5 60 df bd ba 2d df bb 55 1a 11 bd 45 cd 93 3d
       -0.10907129 -0.006810871 -0.035425503 0.072168864
0000f0 54 1b 36 be 69 57 fc 3c 04 54 9c bb d1 de 8c bd
       -0.17783862 0.0308034 -0.0047707576 -0.06878436
000100 96 38 ff 3c a8 07 5f 3e b3 60 2f bd 9a 50 10 3e
       0.031154912 0.21780264 -0.04281683 0.14093247
000110 30 90 d6 3d 94 c1 4b 3e e6 a9 7a bc d5 10 5d bd
       0.1047672 0.19898063 -0.015299296 -0.05397113
000120 9d 85 66 bd 8c b0 f0 be 82 6b 41 bd 63 89 de 3b
       -0.056279767 -0.47009695 -0.047221668 0.00679128
000130 a1 86 11 3d c2 84 26 be 4f 23 bf bd 80 c1 10 be
       0.035528783 -0.1626158 -0.093329065 -0.14136314
000140 3e f0 4a bd 96 ec 60 be 58 53 ad bc 70 a9 29 bd
       -0.04954552 -0.2196525 -0.021157905 -0.041421354
000150 3a 6a b5 3e 46 4a 34 bd 86 4b d7 be cd 08 d2 ba
       0.35432607 -0.044016145 -0.42049807 -0.0016024351
000160 ed 2f 1d bd 17 07 94 bd 6c 5b f9 be 1d 31 a3 bd
       -0.038375784 -0.07227915 -0.48702562 -0.07968352
000170 75 e2 f4 3e dc bc 89 bc 41 a8 03 3c c9 7e 52 bd
       0.47829023 -0.016813688 0.00803572 -0.051390443
000180 8d 7c c5 3d 58 88 0c bb 29 9c 81 bd ac c7 50 bc
       0.09642897 -0.0021443572 -0.06328613 -0.012742918
000190 4b 11 b1 3d f6 34 e2 be ba 7b 90 bb 10 14 7c bb
       0.086458765 -0.4418103 -0.0044092806 -0.0038464107
0001a0 ea c8 f7 3d cf b5 35 be 92 1a ac bc 7a 10 ff bc
       0.12098868 -0.17745136 -0.021008763 -0.031135786
0001b0 31 c9 b8 bc 6c f8 73 3e 4b a9 fd 3d 44 f9 80 bd
       -0.022556873 0.23825234 0.12385806 -0.06297544
0001c0 fa ab 63 bc 85 3f 2d 3c 1a 8b 9f 3c a8 81 96 bc
       -0.013895983 0.010574226 0.019475508 -0.018372372
0001d0 d2 98 4b 3b b1 b6 2e be 6f a7 b0 bd a2 9d 81 bd
       0.003106643 -0.17061879 -0.086256854 -0.06328894
0001e0 e8 ee e8 3c aa a2 0b bb 9a e9 53 bd 31 87 06 bd
       0.028434232 -0.0021306672 -0.05173645 -0.032843772
0001f0 38 71 1c bd 46 a5 d8 3e a8 1a 62 be a6 61 41 bd
       -0.03819391 0.42313594 -0.22080481 -0.047212265

value.weight f4 [1, 128]
000000 0f 09 e8 3e c2 f5 17 bc 9a a4 1b 3f 39 59 68 be
       0.4531941 -0.009274902 0.6079804 -0.22690286
000010 ea 2a 8c 3c c4 8c 94 3e 90 89 18 3d 42 7f c5 3c
       0.017110307 0.29013646 0.037240565 0.024108533
000020 c8 87 79 bd 50 12 f3 3e 8c cf 0e bb 23 08 1a bd
       -0.060920507 0.4747491 -0.0021791188 -0.037605416
000030 f1 55 95 bd 12 26 1b 3d 0c f6 2b be 4f 57 06 bc
       -0.07291783 0.037878104 -0.16793078 -0.008199527
000040 51 3e 06 bf 84 4e 40 3e 1c 01 61 be cb b6 15 3d
       -0.5243884 0.18779951 -0.2197308 0.036551278
000050 a1 cc 91 3e 63 2b 32 3d a0 23 11 3c 40 72 9e b9
       0.28476432 0.043498408 0.008858591 -0.0003022123
000060 7a 65 6e 3e f8 58 01 3d 80 d2 ab b8 9b ce 17 bc
       0.23280898 0.031578988 -8.193124e-05 -0.009265567
000070 d9 3f be 3d e0 67 a6 3c 9f ae 96 be 55 75 51 be
       0.09289522 0.020313203 -0.294301 -0.20454915
000080 fd d3 12 3f 6e 12 0c 3d 38 a4 b9 3a 72 43 8b bd
       0.5735472 0.034197263 0.0014163321 -0.067999735
000090 98 76 d5 3a c9 31 1f be 57 02 0b be 4b fd 81 be
       0.0016285954 -0.15546335 -0.13575111 -0.2538856
0000a0 32 f6 65 3d 6b 52 9d bb 94 50 8a 3c 0a 82 c4 be
       0.056142993 -0.0048010848 0.016884126 -0.38380462
0000b0 63 8c b8 be fe 24 6f be a2 b2 aa bc 98 7c 68 3d
       -0.36044607 -0.23353955 -0.020837132 0.056759447
0000c0 9d ce 1e 3f 25 48 d3 bd ed 16 23 3c 35 af db 3d
       0.62034017 -0.10316495 0.009954196 0.107267775
0000d0 be 37 90 3e d7 33 df 3d 8b 43 0b 3e a0 b6 2c 3a
       0.28167528 0.108985595 0.13599984 0.00065884925
0000e0 a1 a1 a5 be 4f 4e ba 3c c9 f2 81 3e 90 93 5b 3d
       -0.32349876 0.022742419 0.25380543 0.053607523
0000f0 80 5b 7b b9 64 71 0d 3e 3a 8f 5b 3d fa 4b 1c 3c
       -0.00023971312 0.13812786 0.05360339 0.009539599
000100 ce 7a 67 bd c8 09 ff 3b 90 13 93 ba 85 4a 13 be
       -0.0565136 0.0077831484 -0.001122104 -0.14383896
000110 20 0f 3a 3b 30 82 35 3d 5f 45 f7 be dc 12 3b 3b
       0.0028390363 0.04431361 -0.48295113 0.0028545177
000120 67 04 a0 3e 46 23 f4 3b 5f 94 b6 bc c6 15 4b 3c
       0.3125336 0.007450494 -0.022287546 0.012395328
000130 1a 58 0b 3c 01 cb 9f be d5 cb 88 3e f2 ea 9f 3d
       0.008504892 -0.31209567 0.26718011 0.07808484
000140 23 5c 16 3e c1 bf d9 be 40 56 76 3a d2 41 9e 3e
       0.14683585 -0.4252911 0.00093970075 0.30909592
000150 d7 1b 62 bf 54 53 0a bc 50 4d 9c 3d 66 78 ee 3e
       -0.8832373 -0.008442719 0.07631934 0.46576232
000160 03 07 1f 3c 14 a8 4c 3b 68 70 e4 ba 5b 93 83 bd
       0.009706262 0.0031228112 -0.0017428519 -0.0642459
000170 84 7c 4e 3d d6 46 b2 bb 5f 5b 00 3d 44 e0 d8 3b
       0.050411716 -0.005440573 0.03133714 0.0066185314
000180 7c 26 6a 3d dd 1e 38 3e 94 b4 21 3d f6 f8 22 3c
       0.057165608 0.17980523 0.039478853 0.009947052
000190 06 27 41 3d 29 14 b9 bd 36 1e 84 3d c8 11 f0 ba
       0.047156356 -0.09037048 0.06451075 -0.0018315846
0001a0 24 a9 19 bc 5e d5 56 3d 67 4e cf 3d 94 8f 8b bc
       -0.009378705 0.052449577 0.10122376 -0.017036237
0001b0 f8 b2 4d 3a 3a b5 6b 3e 6c 7b 81 3d 40 46 6c 39
       0.0007846798 0.23018351 0.06322369 0.00022532884
0001c0 fa 2f 9f 3e f0 fe 49 3e d0 07 2b 3d d8 fb e3 be
       0.3109129 0.19726157 0.041755497 -0.4452808
0001d0 40 ef 7c ba 80 a0 88 bb 5e d7 58 3f d4 c4 b6 3c
       -0.0009648688 -0.0041695237 0.84703624 0.022310652
0001e0 d5 2b 79 3e b2 a9 39 be e4 9c 46 be bc ca 83 bb
       0.24333127 -0.1813114 -0.19395787 -0.0040219706
0001f0 16 af 87 be f7 8c 2b 3f c0 20 e1 3d 17 8d 28 bd
       -0.26500767 0.6701197 0.10992575 -0.04115018

adv.weight f4 [3, 128]
000000 b0 72 b4 bd bc da 99 bc 2c f0 91 3d 01 56 ab 3e
       -0.088109374 -0.018781058 0.07125887 0.33464053
000010 08 e8 ff 3b 13 de a5 be 40 cf 70 bd e6 1a 1f 3d
       0.0078096427 -0.32395992 -0.0587914 0.03884401
000020 c7 7b af ba 75 56 02 bc e4 8c 90 3d 42 b1 19 3c
       -0.0013388329 -0.007955183 0.07058123 0.00938064
000030 a1 e7 ac 3e 2c e6 80 bd 25 c9 b3 3e a0 4c bf b9
       0.3377047 -0.06293902 0.351144 -0.0003648745
000040 7d 05 4c bf b3 39 52 bc b9 d6 35 bd 3e 96 85 3e
       -0.79695874 -0.012831139 -0.04439423 0.26091188
000050 45 46 ec 3c 8d 5a 30 bd fe 6a 5e bd e7 36 02 bf
       0.0288421 -0.043055106 -0.054301254 -0.50865024
000060 f9 bc 9a 3d 66 3b 30 3d 4f 8d c8 bb ac 7a 35 3d
       0.07555575 0.043025397 -0.006120361 0.044306442
000070 e4 91 fc 3e f2 77 b1 3e 8f f7 b5 3e 4d a9 c3 3e
       0.49330056 0.34661824 0.35540435 0.38215104
000080 3a 80 46 bd 74 3f 35 bb 68 5f 89 bd dc 9a 06 bf
       -0.04846213 -0.002765623 -0.067076504 -0.52580047
000090 89 9e b5 be da 02 ff 3b 02 06 21 bd a5 49 52 3f
       -0.35472515 0.0077823224 -0.03931237 0.8214362
0000a0 96 d3 d8 3e 17 12 23 bc 48 a3 a7 bf 84 e6 e0 bd
       0.42348927 -0.009953043 -1.3096704 -0.10981467
0000b0 3c c0 3d 3e c1 b2 60 3d 1d 59 df 3d f9 d9 6c bd
       0.18530363 0.054857973 0.10905669 -0.057825062
0000c0 13 d3 06 3f 3e 34 11 3f b1 9b 62 bd 8c 9e 5b 3e
       0.52665824 0.5672034 -0.05532426 0.214472
0000d0 e2 ea 22 3f 9e 89 ee 3c 17 8d 44 bd 48 1d 33 3d
       0.6363965 0.029118355 -0.047986116 0.043729097
0000e0 fd 25 25 be fc 39 0f bd c6 01 bf 3e c2 b6 ba 3e
       -0.16127773 -0.034967408 0.3730604 0.36467558
0000f0 16 31 85 3e 54 0c 91 bd e2 ec 04 3d 93 20 45 bd
       0.26014012 -0.070824295 0.03245247 -0.04812677
000100 6f 7d 46 bf 70 50 32 bf c7 84 7c bd c3 00 b7 be
       -0.77535146 -0.6965399 -0.061650064 -0.3574277
000110 6d ee 08 3f e3 16 c8 be ad 68 91 3d 7e e2 74 be
       0.5348881 -0.3907996 0.071000434 -0.23914525
000120 51 ae 95 3d 2e 1a 59 be a5 42 7a 3d 72 78 17 3d
       0.07308639 -0.21201393 0.061098713 0.0369801
000130 cc 27 98 3d a9 55 b1 3e 87 6b 3e 3c 74 5a 09 bf
       0.07429466 0.34635666 0.011622316 -0.53653646
000140 2d ff 5b bd b6 ac a3 be 74 fe 85 3c a0 18 6e 3b
       -0.05371015 -0.31967705 0.016356684 0.0036330596
000150 93 e7 01 bf d9 b8 1f 3b 5a 31 cc 3e db 6b d9 3e
       -0.5074398 0.0024371652 0.39881402 0.424651
000160 88 65 6d 3d 66 32 90 3e 50 7c 64 3e a5 4d 42 bf
       0.057958156 0.2816345 0.22313046 -0.75899726
000170 f4 c1 70 be 58 f8 8b bd 1b 51 3d bd 89 c2 3e 3d
       -0.23511487 -0.06834477 -0.046219926 0.046572242
000180 dc 8d 29 3e 9f a7 06 bd 0a bd f9 bc 62 55 cd 3c
       0.16558021 -0.0328747 -0.030485649 0.025065128
000190 39 54 55 3e 74 f1 03 bf 20 59 d7 3d 3c c6 f7 3b
       0.2083291 -0.51540303 0.10515046 0.007561473
0001a0 43 8d a3 bd 64 66 6b 3e 87 54 17 3d fb 86 7e 3d
       -0.07985928 0.22988278 0.036945846 0.062140446
0001b0 94 76 9e bd 08 1f 86 be cc 59 46 bf ef 3a cb bc
       -0.07737461 -0.2619555 -0.7748077 -0.024808375
0001c0 40 2a 52 3d 61 55 0b bf d8 37 53 3d 65 24 99 be
       0.051309824 -0.5442715 0.05156693 -0.2991058
0001d0 18 07 33 bd 0a a1 e6 3e c6 5e 83 bd b0 7a 01 3e
       -0.043707937 0.45044738 -0.06414561 0.12644458
0001e0 c8 c2 d5 3b 37 28 c1 3e d4 40 3c 3b 04 74 0d bc
       0.006523464 0.37725994 0.0028725164 -0.008633617
0001f0 ab 93 4d bc 61 5d 81 bf d3 0e d6 3e 4c 3f 0f 3c
       -0.012547414 -1.0106622 0.41808185 0.0087431185
000200 e9 7b ac 3d 5e e3 25 bd 0f 44 bf 3c f0 2c 52 bd
       0.084220715 -0.040500037 0.023347883 -0.051312387
000210 b1 6f 7e bd 40 52 07 3e 71 32 91 bc 05 39 2f 3e
       -0.062118236 0.1321497 -0.017724248 0.17111595
000220 72 02 64 bf 60 68 87 bc c8 a0 8f 3d 4a c0 82 bc
       -0.8906623 -0.016529262 0.070130885 -0.015960831
000230 a7 57 9c 3d 16 40 d7 3c 78 2c 21 3e b2 4d f1 bc
       0.07633906 0.026275676 0.1573962 -0.029455993
000240 b7 71 b5 3e fb b4 2f bf 0f f2 81 3d 01 69 47 bf
       0.3543832 -0.6863553 0.06344997 -0.778946
000250 79 84 a1 3d 43 ea 89 bd 30 03 86 bd b9 18 a0 3d
       0.07886595 -0.06734135 -0.06543577 0.078172155
000260 2c a6 b0 be 97 e5 9b bc 66 48 d3 3c 25 5d af 3d
       -0.3450178 -0.019030375 0.025791358 0.08562688
000270 4e 7c 44 bf 56 67 d0 3c 93 33 4a 3e c7 8a 04 bf
       -0.76752174 0.0254399 0.19746237 -0.5177426
000280 a6 b4 d8 3c 40 b3 06 3d 58 84 9a bd 36 99 bd 3e
       0.026453327 0.03288579 -0.07544774 0.37030953
000290 07 0c 02 3e ae 2a 29 bd 1e 17 79 3d 83 7a ea 3c
       0.126999 -0.04130047 0.060813062 0.028622871
0002a0 e1 86 a9 3d f3 4b e5 bc 29 24 a0 3f 8c c0 97 3e
       0.08277679 -0.027990317 1.2511035 0.2963909
0002b0 7c b5 57 3e c2 7a a4 3d 5f 45 f2 bd 1e dc 35 3d
       0.21065325 0.08031227 -0.11829638 0.044399373
0002c0 42 5a 24 3d cb b1 59 3e fc 85 34 3b 2a d9 af 3d
       0.04012514 0.21259229 0.0027545681 0.08586343
0002d0 87 6e a8 bd d0 06 47 bd 18 aa 9b bb 2e 9e 02 3d
       -0.082242064 -0.04859048 -0.0047505014 0.031889133
0002e0 b1 31 8a 3d 16 8e 99 3d 43 3e b7 bd df 55 1c 3e
       0.06747759 0.07497804 -0.08947422 0.15267132
0002f0 78 79 f1 3e f8 53 3a 3d d6 5c ab bb 78 cd ca 3a
       0.47162986 0.045490235 -0.0052295728 0.0015472611
000300 2b 5f 9a 3e f9 cc d3 3d 78 3c 81 3d 76 d1 13 3e
       0.30150732 0.1034183 0.063103616 0.14435372
000310 9c 7a 29 3e bc ed d8 bd 45 fa fc 3d 09 57 c4 3e
       0.16550678 -0.10592219 0.123524226 0.38347653
000320 68 46 a0 3d b2 bc 76 3e 8a e3 70 3d 87 61 16 3b
       0.07825929 0.24095419 0.05881075 0.0022946314
000330 4e f5 0c 3d 18 6e 72 3d 96 d4 2f bd 9d 29 85 be
       0.03441363 0.059187025 -0.042927347 -0.2600831
000340 fb f8 13 3d 7c 06 90 3e e8 02 99 3b 3b cd 28 3d
       0.03612612 0.28129947 0.004669536 0.041211348
000350 48 4e a4 3d 12 d8 bf ba 81 14 88 bd 29 8a 1d bd
       0.080227435 -0.0014636538 -0.06644536 -0.038461838
000360 9a 95 9e 3d 13 fe c9 be a2 89 b3 bd 76 9d ac 3e
       0.07743378 -0.39451656 -0.08766486 0.33713883
000370 ce 52 0f bd f4 22 03 bd 90 10 e5 3b 20 ac 21 bd
       -0.034991078 -0.032015756 0.0069905 -0.03947079
000380 23 43 a6 be af 1c 58 bd 24 92 72 3d ba 31 a5 3b
       -0.32473096 -0.05276173 0.0592214 0.0050413283
000390 f6 5a 6e be fe c4 19 3f 4c 27 36 3d 5b 25 13 bc
       -0.23276886 0.6006621 0.04447107 -0.008981074
0003a0 0d 71 aa be 2f 62 c7 3e 0d f8 8f 3d 30 01 da bd
       -0.33289376 0.38942096 0.07029734 -0.10644758
0003b0 dc 4a 8f 3d 78 98 59 be ad 6b f6 3d 38 a2 9d bc
       0.069967 -0.21249568 0.12032256 -0.019242391
0003c0 4f db 78 3d 54 d0 4b be 71 fb 18 3d d4 04 b2 3e
       0.060756024 -0.1990369 0.03734917 0.3476931
0003d0 d4 ed 80 bd 64 f8 81 bd d4 e9 32 3d a0 fe d3 be
       -0.06295362 -0.06346205 0.043680027 -0.414052
0003e0 d8 04 c3 bc 5b 1e 25 be d2 17 86 bd 0d 8b c7 3c
       -0.02380602 -0.16124861 -0.06547512 0.024358297
0003f0 a8 95 c0 bc 95 9d fa 3e 6c 64 4e be c6 11 e3 bc
       -0.023508862 0.4894835 -0.20155495 -0.027718436

adv.bias f4 [3]
000000 9b 7f bf be a4 05 aa be 67 1a 26 3f
       -0.37402043 -0.33207428 0.64884037
