route_TSC/model/0.5_nav_0315/best_model/target_q_netveh.pt (torch, 934632 bytes, 9 tensors)

fc1.weight f4 [512, 196]
00000000: e350 0abd 4c0c 5ebd 9c9d c3bc b5e0 8fbd
00000010: b53c 05bd c437 de3c bbb3 87bd 58fa 75bd
00000020: bad9 313d 36d6 5f3d da83 233d 6eb2 3ebd
00000030: 2859 26bd f24e 92bc fedb 683d a650 88bd
00000040: c0ed 39bb 9c69 413d 9b52 843d 6458 57bc
00000050: 80d6 16bd 9a82 3c3d 54a8 c33c ca62 5ebd
00000060: 865a f8bc e6b5 353d c307 0ebd 9894 7cbd
00000070: 8041 93ba 006a 71b9 3284 c4bc 46c8 333d
00000080: 6c38 66bd 1607 623d 5c80 963c 031a 4cbd
00000090: 24fe 74bc f9a0 8b3d 5606 8dbd 8f28 8d3d
000000a0: f037 0bbd 0aad 1b3d 5c08 e0bc f099 cf3c
000000b0: d803 7abd 68e6 a43c cdaa 82bd a612 693d
000000c0: 3039 3dbc 507b 803c 3a29 573d 803a 883b
000000d0: 4083 de3c 3d49 833d 6acc 333d 4a80 743d
000000e0: 2e5d 30bd f656 2d3d 190e 853d faa3 543d
000000f0: e48b 52bc f829 1d3c 8aff 74bd 001e 25bb
00000100: 2804 35bd 600d f93b 7f6b 8e3d 967d 263d
00000110: 3851 95bc 80c2 093c 7416 853c 005b 83bc
00000120: 6471 bb3c decb 1fbd 8ae5 033d abfe 863d
00000130: 5473 7fbc 5203 5b3d bcdf 9dbc c391 73bd
00000140: fa9f 76bd e6cf 6f3d ce55 113d 731f 67bd
00000150: fe0c 113d 9aa0 173d 0044 f33b f236 6d3d
00000160: 7af0 0b3d ca08 023d 1c42 27bc 5a36 7a3d
00000170: af68 893d 70f3 e63c 7ee8 1e3d 5499 45bc
00000180: f29c 203d c066 84bd 40a1 92ba 1ade 433d
00000190: ce7a 84bd b45b b53c ee47 eabc ee2b 4f3d
000001a0: b0cb c7bb ca00 2abd b806 69bd f71b 8abd
000001b0: 58ef e33c 98e3 1c3c 2c1c 19bd 5c08 cdbc
000001c0: 817b 76bd 5c3d 1e3d 404c 1c3c 0846 7dbc
000001d0: 120a 8cbc 0c15 213d 5c00 3dbd 9c29 09bd
000001e0: e277 89bd 564d 743d ac9b 44bd 646a 3fbc
000001f0: f8ae 813c 502e 153c e03d 14bb f029 c03c
00000200: a65b 5f3d 20d2 463c 6432 fb3c c6d8 513d
00000210: f2f6 5e3d 9eca 453d aa0d 353d d8cf 8bbc
00000220: 20a6 81bc 7ee4 143d d853 403c 9f79 8d3d
00000230: 107a 7d3c 40ca 49bc 2eef 0bbd 72d5 663d
00000240: a042 e3bb 728a 1b3d 9578 35bd 2f06 803d
00000250: 3723 8c3d 004e 12bb 7eea 72bd 96a1 6a3d
00000260: 5035 dfbb e839 1e3d d596 7bbd 7031 2cbd
00000270: 2007 a63b d5d4 12bd 5037 ff3c d0f4 c33c
00000280: 7451 f23c 1eae 03bd b588 19bd 5e91 72bd
00000290: 3a97 45bd 1e7d 7bbd 8095 b8ba 6648 c3bc
000002a0: 5822 55bd 1f4d 883d 9c4e fdbc 2590 27bd
000002b0: 0391 8c3d 8c3b 163d 8a52 d3bc f29a 263d
000002c0: ecc1 74bd 3875 7dbc 4c20 4ebd 9edd 4bbd
000002d0: 3e2b 6a3d 4057 583d 9ccc 1ebd d0a2 f9bb
000002e0: 8e4a 7b3d 0a48 fbbc 46d7 723d d661 633d
000002f0: eccb 053d 6c7d 413d 358f 23bd 73e2 03bd
00000300: bbc2 80bd 0004 ebbc bc16 74bd b020 8dbb
00000310: 5851 a9bd c170 9bbd 785c 2fbb 6ebe 46bd
00000320: fea1 1dbc b1b6 9d3c 8efc a53b 6b9e b5bd
00000330: 00c9 dc38 0900 19bd b2d5 56bd 8756 a5bc
00000340: 2468 373b 4760 42bd 802d 0cb9 5a9b acbd
00000350: 38b1 d33c d5e6 963c 1e86 25bc 3c72 62bd
00000360: b0b4 82bd a2b6 663c c70b 7cbd 7133 8d3c
00000370: 8dff 1cbd 68b4 69bd d3d5 85bc 3682 85bd
00000380: 2694 b0bd c709 043d 583b 97bc 9835 8ebd
00000390: 7df7 f9bc 6aff b7bc 16a9 88bd 29bb 9abd
000003a0: efd1 afbd ab79 8bbd 8168 6bbd 76b9 32bd
000003b0: ceaf b6bd 0c9d 513d 8afa 033d bf99 99bd
000003c0: c192 68bd b4bd e13c 136c 31bc 63f1 fdbc
000003d0: 6cec 923c 28f4 343d 1f3b cebc 5eb6 593c
000003e0: 7be6 90bd b0ca 413d 898a 5b3c 3cdd 8e3b
000003f0: 4a19 9ebd c8ad 44bb ec25 80bc 21aa 393d
-0.033768546 -0.054210946 -0.023878865 -0.07025281 -0.032528598 0.0271262 -0.06626078 -0.0600532
0.04342053 0.054647647 0.039920665 -0.046556883 -0.04061237 -0.01785991 0.056850426 -0.066560075
-0.002837047 0.047219858 0.06461068 -0.013143633 -0.036825657 0.04602299 0.023883976 -0.05429343
-0.030316602 0.044362925 -0.03467537 -0.061665148 -0.001123473 -0.00023023039 -0.023988817 0.043892168
-0.05620615 0.05518254 0.018371753 -0.049829494 -0.01495317 0.068178125 -0.06885974 0.068925016
-0.033988893 0.03800682 -0.027347736 0.025341958 -0.061038822 0.020129398 -0.06380234 0.05690255
-0.011549279 0.0156838 0.05252955 0.0041573644 0.027162194 0.064104535 0.043896116 0.05969266
-0.043057613 0.04231926 0.064968295 0.051914193 -0.012850735 0.009592526 -0.059814014 -0.0025194883
-0.044193417 0.0076004714 0.06954097 0.04064711 -0.018227205 0.008408189 0.016246058 -0.016034603
0.022881217 -0.039012782 0.032201327 0.06591543 -0.015591461 0.053469963 -0.019271724 -0.05946518
-0.06021116 0.058547877 0.03548222 -0.056426477 0.03541278 0.037018396 0.0074238777 0.057913728
0.034164883 0.031746663 -0.010208633 0.06108699 0.0670942 0.028192252 0.03879594 -0.012060482
0.039212175 -0.064649105 -0.0011186972 0.047819234 -0.06468736 0.022138454 -0.028598752 0.050579004
-0.0060972795 -0.04150466 -0.056891173 -0.06743615 0.027824089 0.009575747 -0.037380382 -0.0250284
-0.060176376 0.038632736 0.009539664 -0.015458591 -0.017094646 0.039326712 -0.04614292 -0.033486947
-0.06712319 0.059644066 -0.048000023 -0.01168308 0.015830502 0.00910528 -0.0022619888 0.023457497
0.054530762 0.012135059 0.030663677 0.051232122 0.054434724 0.048288934 0.044202484 -0.017066881
-0.015826285 0.03635072 0.01173874 0.06907963 0.0154709965 -0.012316287 -0.034163646 0.0563559
-0.0069354326 0.03797383 -0.04430445 0.062511794 0.06842654 -0.0022324324 -0.05930566 0.057283007
-0.0068117753 0.038629442 -0.06142314 -0.042039335 0.0050667673 -0.035847504 0.031154305 0.023920447
0.029579856 -0.032148473 -0.03748389 -0.059220664 -0.048239924 -0.061398618 -0.001408264 -0.023838233
-0.052034706 0.06655335 -0.030921273 -0.04090895 0.06863596 0.036677882 -0.025796194 0.04067511
-0.05975525 -0.015469842 -0.05032377 -0.049771897 0.057170145 0.052817583 -0.03876935 -0.0076182857
0.061350398 -0.030674 0.059287332 0.055513225 0.03266518 0.047238752 -0.039931495 -0.03219838
-0.06287142 -0.02868843 -0.059591994 -0.004306875 -0.08267468 -0.075898655 -0.0026757997 -0.04852145
-0.0096211415 0.019252153 0.0050655073 -0.088681065 0.00010527857 -0.03735355 -0.05244989 -0.020182861
0.0027985657 -0.0474551 -0.0001336839 -0.084280685 0.02584134 0.018420616 -0.010102777 -0.055284724
-0.0638212 0.014081629 -0.06153467 0.017236443 -0.03832965 -0.057056814 -0.01633731 -0.065189764
-0.08622007 0.032235887 -0.018460914 -0.06943816 -0.03051352 -0.022460658 -0.066728756 -0.07555229
-0.085849635 -0.06810316 -0.05747271 -0.0436339 -0.08920251 0.051175162 0.032221355 -0.07500028
-0.05678058 0.027556278 -0.01082899 -0.030998891 0.017935 0.044178158 -0.025174676 0.013288109
-0.07075211 0.04731244 0.013399729 0.0043598693 -0.07719667 -0.0030010808 -0.015643083 0.045328263

fc1.bias f4 [512]
00000000: 0e6b bdbc 1547 0dbc c08f 7cbd a5d4 81bd
00000010: 21af 4f3d b8aa d93c c383 a4bd 2b91 7cbd
00000020: 32f4 3d3d 8b4d d53c 556a d33c b268 533d
00000030: b349 12bd 4983 483c c285 8ebc 51bb 803d
00000040: 535d 203c bd37 24bd 4993 56bd 7030 ea3c
00000050: fac2 873d 96c2 a4bd cdfd 333d c25f babc
00000060: 89da 2fbc fefc f23c 13a5 5a3d 0ba5 cb3c
00000070: 9ae0 63bd 33e4 23bd 10d2 6aba 601b 9ebd
00000080: 009e b43b fe5d b5bd e0a6 6dbd 30a0 283d
00000090: 3663 2ebd c0dd 37bd 00fe 6d3d 9058 7c3c
000000a0: 1134 90bd 80ba 5ebd ea89 f13c 75af 8abd
000000b0: 0da9 44bd 0e22 0e3d ced0 933b 9bc7 2d3d
000000c0: 2474 873c b8d0 063d d6a2 a1bc ba5a 7b3d
000000d0: 13e9 f1bc 3aca 71bd 7672 8a3d 3842 013c
000000e0: 9047 673d 000e f939 144c 3ebd 81af 86bd
000000f0: 615c 8e3d 84bc ba3c 9e50 a2bd b487 f43b
00000100: 6f84 ccbc f0d4 ed3b 2aab 243d 2675 433d
00000110: 52a0 a53c edd6 97bd 8456 a43d 974f 5d3c
00000120: a6bf 1e3d 9642 0e3d 4966 68bd 3497 3b3b
00000130: 08b6 b73c 7503 043d 6e2b f03b e505 44bd
00000140: fd42 60bd a1ae 7ebd ce51 85bd bcb2 abbc
00000150: 28ef 6bbd a433 6d3d 47b0 833d 90be 5fbd
00000160: 3cf4 8fbc ec6c c73c 80ad b83a 1b83 38bd
00000170: ee4d c13c 46f9 2f3d 4a4d 283d 4634 89bd
00000180: 1f4b 58bd abd2 9bbc 92e9 863c e841 66bd
00000190: 2a2e 2e3d 2bbe 41bd 9aa4 f0bc a04b f23b
000001a0: 31d6 0bbd 4afc 23bd e090 afbc 2608 80bd
000001b0: ba09 d8bc 3a80 4fbc a492 dd3c bc86 e0bc
000001c0: 7ad0 9fbc 4c7d dabc 49b0 873d a41d 62bc
000001d0: a403 babc e491 6a3d ea29 b9bc 116a 473d
000001e0: d47d 893c 3014 6ebd a0e9 3bbd 292c 2c3b
000001f0: c0b8 b239 3553 62bd ee68 ff3b 9f17 153d
00000200: d195 303d 00a1 03ba aa20 e8bc 876f 133d
00000210: ee83 6b3d af15 8bbd a699 bc3c a899 f73c
00000220: fcdf ba3c dbb0 5abd c59d 7b3c 1e3e 01bd
00000230: b20a 9abc be50 8cbd ac20 0bbd c4a2 8d3c
00000240: aa3d adbc a81f 7dbd 87c8 fd3c e435 4d3d
00000250: 6d73 63bc 4622 c53b 2246 443d 706d 353d
00000260: 8b00 e23c af22 053d 6c4d 71bd 2c3c 8abd
00000270: a21f 92bd 8c9d 973c 0232 99bd 08ad dd3b
00000280: ba44 91bd fa2c 00bd cc91 333d 8e98 a93c
00000290: 076d 7bbd 849b 0abd 365b 8ebd 6c5d ca3c
000002a0: a1f8 f3bc f697 493d 54f0 b33c 14c4 eb3c
000002b0: 8280 7b3d 4a66 4ebd 443f 3d3d a0fa f3bc
000002c0: 8034 77ba 6ffc 8a3d c093 a4bc b0ae 143b
000002d0: 1ec8 5b3d beb5 27bd 221e 6a3d 0869 aebc
000002e0: 86b8 81bd 1041 02bd 9e62 3d3d c50c ac3c
000002f0: 6eac c0bc fc6c 43bd 3f9b 92bd 82bd 5c3d
00000300: 306e 96bd aec4 d03b 6f85 d63b c441 763d
00000310: 0012 7c39 fbfd 9abd 40dd 223b d0fd b93c
00000320: 7672 9abd 5c39 503d 622b 693d 8870 ebbb
00000330: 84a2 c6bc f556 8a3d 524f 6abd 5efd 6a3d
00000340: 9b6b e93c 3481 39bc 37ab 11bd c449 803d
00000350: 00be 613c c6ce 703d e8e0 c13a f0c5 51bc
00000360: 9255 f9bb 47b2 0ebd 408f 28ba b92c c4bc
00000370: 09e3 93bd 0431 8d3b af39 4cbd b2ec bc3c
00000380: b0d2 2bbd 81ba aabd c2ab 43bd c80b 2d3d
00000390: 88a1 433c f233 663d abc1 44bd 0221 373b
000003a0: b4f6 c0bc aa46 4a3d cbac 593d f78a 9bbd
000003b0: 7285 373d 0a22 17bd 1436 4c3d 8163 913d
000003c0: b199 dbbc 76a8 29bd 0147 99bd e920 8dbd
000003d0: 205f 913c 6b57 86bd 8c4d aabd ba2f f1bb
000003e0: f0f5 83bd 0c99 18bd 3009 f23c 56d6 abbd
000003f0: bdc5 94bd e043 793c 2ec5 c93a 715e cf3c
-0.023122337 -0.008622904 -0.06166053 -0.06339387 0.050704125 0.026570663 -0.08032944 -0.06166188
0.04637546 0.026037952 0.025807539 0.051613517 -0.035714816 0.012238332 -0.017397765 0.06285728
0.009787875 -0.04009222 -0.052386556 0.02858755 0.06628986 -0.08044927 0.043943215 -0.022750739
-0.010733255 0.029661652 0.053380083 0.024858972 -0.05563412 -0.04001255 -0.00089576934 -0.07720065
0.005511999 -0.08855818 -0.058020473 0.04116839 -0.042575084 -0.04488921 0.05810356 0.015401974
-0.07041181 -0.05437708 0.029484708 -0.06771747 -0.048012782 0.034700446 0.0045109754 0.042426687
0.016534872 0.032913893 -0.019730967 0.06136582 -0.029530084 -0.05903075 0.06760113 0.007889323
0.05646473 0.00047503412 -0.046459273 -0.065764435 0.06951214 0.02279497 -0.07925533 0.007462466
-0.024965493 0.00725805 0.040202297 0.047719143 0.020218048 -0.07414041 0.08024314 0.013507745
0.03875699 0.03473147 -0.05673817 0.002862406 0.022425666 0.03222986 0.007329396 -0.047857184
-0.054751385 -0.062178258 -0.06509744 -0.02095925 -0.057601124 0.057910576 0.064301066 -0.054625094
-0.017572515 0.02434393 0.0014089793 -0.045046907 0.02359673 0.042962335 0.041089334 -0.066994235
-0.052806016 -0.019021353 0.016468797 -0.056215197 0.042524494 -0.0473005 -0.029375363 0.007394269
-0.034139816 -0.040035523 -0.021431386 -0.06251554 -0.026371825 -0.012664849 0.027047463 -0.027407996
-0.019508589 -0.026671074 0.066254206 -0.013801012 -0.022706814 0.05726804 -0.022602994 0.048685137
0.016783632 -0.05812472 -0.0458771 0.0026271439 0.00034088455 -0.055255134 0.007794491 0.03639948
0.043111626 -0.0005021244 -0.028335888 0.035995033 0.057498865 -0.06791245 0.023022484 0.030224636
0.022811882 -0.05339132 0.015357439 -0.03155338 -0.018803928 -0.06851338 -0.033966705 0.017289527
-0.021147568 -0.061797768 0.030979408 0.050100222 -0.0138825 0.0060160486 0.047918446 0.04429382
0.02758815 0.03250378 -0.058911726 -0.06749758 -0.0713494 0.018507741 -0.07480241 0.0067650117
-0.07093187 -0.031292893 0.043840215 0.020702627 -0.061383273 -0.033839718 -0.06950991 0.02470275
-0.029781641 0.049217187 0.021965183 0.02878002 0.06140185 -0.05039052 0.046202913 -0.029782593
-0.00094301254 0.06786429 -0.020089984 0.002268713 0.053657643 -0.040944807 0.057157643 -0.021290317
-0.06334023 -0.03180033 0.046236627 0.021002183 -0.02351972 -0.047711357 -0.07158517 0.053891666
-0.07345235 0.0063711023 0.0065466682 0.060121313 0.00024039298 -0.07567974 0.0024851114 0.022704035
-0.07541363 0.050835952 0.05692614 -0.0071850456 -0.024247415 0.06754867 -0.057204552 0.057370536
0.028493693 -0.011322308 -0.035563674 0.0626407 0.01377821 0.058790945 0.0014791759 -0.01280354
-0.0076090777 -0.034837987 -0.00064300373 -0.023947107 -0.07221038 0.0043088216 -0.0498597 0.023062084
-0.041948974 -0.08336354 -0.047771223 0.042247564 0.0119403675 0.056201883 -0.04803626 0.0027943258
-0.023555137 0.049383797 0.053143304 -0.07594865 0.044804998 -0.036897697 0.04985626 0.07099057
-0.026806684 -0.041420422 -0.07484246 -0.06891043 0.017745554 -0.065596424 -0.08315572 -0.007360426
-0.06443393 -0.037255332 0.029545397 -0.08390491 -0.07264278 0.015213937 0.0015393847 0.025313588

fc_value.weight f4 [128, 512]
00000000: 1d2d aabc 7888 96ba 6052 5d3b 97df 23bd
00000010: ee50 6fbc 9149 303d 44b5 bc3c c405 f6bc
00000020: 6eee 07bd 907a 973e 5256 113c d84e da3c
00000030: 3108 293d 976f 59bc c98d f2bc 11ae 333d
00000040: c6df 0e3d 05f2 08bd dc32 1a3c 40b2 763b
00000050: bfe8 82bd c275 cfbc c326 c83b c898 163b
00000060: 2570 763c 4216 2bbc 8f7f f3ba 5a90 44bb
00000070: e332 06bd 8c6e 023c 2189 eeba 8def 1a3c
00000080: 9057 2a3b cceb 453d b59a 553c 4176 7f3c
00000090: 9020 e1bc d2ec a83c 4c57 0ebd 1019 733b
000000a0: a8a3 96bc 3ead 97bc 2a85 33bd cc51 06bd
000000b0: c5db 4e3c d319 02bd 03c4 243d ceed ac3c
000000c0: 3408 463b 9497 053d 5439 e93b 06c5 e93c
000000d0: 1844 253d 161d f7bc b37c 3bbc fa07 b93c
000000e0: dc44 f6bb 14a4 f1bc d02e 1f3d 2a20 153d
000000f0: 438e b5bc 9001 b0bb a0c2 c3bc 4244 58bc
00000100: cd01 273d a1c2 313d 1f4b cb3c 1f1d 21bc
00000110: 9424 3fbd 9301 253c 1d17 87be 565d b53b
00000120: d672 143d 5865 173c 306e b9bb f16b 6a3c
00000130: cab7 ac3c c138 e4bc 2bb9 2e3d dff0 f4bc
00000140: 26de f7bc 6b29 2ebd 1cd6 053c b818 d2bc
00000150: 87f6 2e3d 56d3 f6bc f029 7c3c 669f b23c
00000160: c271 bfbc 5297 a43c 4873 acbc 80f7 0f3c
00000170: d3e9 273d 80d2 a43a 468d b03c 0fa2 a2bc
00000180: 94a7 43bc 2c7a c03b 63a9 1b3e b0ae 8fbc
00000190: f0c2 913c c111 9e3b b37a 393b b85e 05bd
000001a0: 9401 18bd 9c84 6c3c 24e7 41bb 7a76 95bc
000001b0: 3f5b 63bc cbda e5bc 8843 d0bb 5b93 a9bc
000001c0: ee35 84bc b4d1 70bb 7fc3 b4bc fe62 a73c
000001d0: 8caa fbbc 5db4 c53c 2554 dbbc 00b8 bdba
000001e0: 08f6 ef3b 7038 c83c 3c3b 43bc c667 233d
000001f0: 9f52 a83b c4d0 763c c608 d8bc f99e 3b3d
00000200: a75e 4ebc 7a26 1fbd b346 2fbc f9ab 10bc
00000210: e055 1ebc 4b25 57bd 2a1d f7bc 9912 263d
00000220: ec17 063d 3815 503a 396e 1bbd 64ca 8d3c
00000230: bbda 05bd 83c4 09bd aa28 973c 4803 4c3c
00000240: 66ff 6fbc 24d5 5f3c 98b6 1fbd b6f8 00bd
00000250: c092 223c 7919 cbbc f84a debc 913a 3f3c
00000260: 20af ed3b 248c 59bd 8451 24bb e50f 19bd
00000270: e4c4 523c bbd9 1f3d 8603 09bb a7ab 3f3d
00000280: 8479 dcbb 0cae 8abc e64e 9d3c 7e08 463c
00000290: b647 0bbd 8980 f3bc 53a0 4c3c 9b9e ea3c
000002a0: e0ce 733c fd42 143d b0c2 1fbd 3b55 313d
000002b0: 64c3 243b d5a0 42bc 1e9e 6dbc 0429 0bbd
000002c0: 156f 123d 00ca 22ba 007e f53a de8f ccbc
000002d0: 0ca4 19bc cf83 b53c 503f 68bb 1cd2 ba3b
000002e0: 1873 19bc 521c 9cbc f709 24bc b943 b43c
000002f0: 9aa7 cd3c c04f 653c bc68 15bd 9389 0d3d
00000300: 35b4 e13a 2e07 133d 0d0b bbbc a292 273c
00000310: 102b 10bb 0071 8e3c fe06 eabc a8cc fe3a
00000320: 1ed9 04bd 8863 02bc 4f5f 4a3d 2912 2c3b
00000330: 1367 2cbd ac1d 39bc 8679 e4bc f6ab 29bd
00000340: 7169 0cbd 8dba f53c c9e1 133d b310 59bf
00000350: ee03 14bd 4443 b2bb 56e7 fb3c 903e 613c
00000360: ca36 923c fe6d 9e3c 0c55 e8bb 15ab 4fbd
00000370: 5c3e c63c 158f cabc 9520 dcbc e086 203d
00000380: 15ce 173d c8f4 153d 11d3 38bd 3ab6 593c
00000390: 17cf 02bd 7058 4cbc b47d 813c 3dfa e1bc
000003a0: 363b ef3c 4670 fb3c 4ec8 92bc 0138 23bc
000003b0: c09d 2abc d63e 283d 5c17 103d 0ff3 043d
000003c0: 5d0b 5d3c f0c4 bb3a 3edb 033d 51e7 2a3d
000003d0: e448 febc 157d 10bd 3543 0dbd 0b45 0ebd
000003e0: 46a3 8d3b 64e5 783c 5832 893b d729 14bc
000003f0: 402a 13bc 05e4 1ebd bbe9 02bd a5ee 35bd
-0.020773465 -0.0011484763 0.0033771023 -0.040008154 -0.0146066975 0.04303891 0.023035653 -0.030032046
-0.03318637 0.29585695 0.008870678 0.026648924 0.041267578 -0.013271234 -0.029608624 0.043867175
0.034881376 -0.033433933 0.00941154 0.0037642866 -0.06392049 -0.025324706 0.0061081364 0.0022979248
0.015041386 -0.010442318 -0.0018577444 -0.0029993267 -0.032763373 0.007960927 -0.0018198827 0.009456527
0.0025992133 0.048320577 0.013037373 0.015592159 -0.027481347 0.020620737 -0.03475122 0.0037093796
-0.018388584 -0.018515225 -0.043828167 -0.03279285 0.012625639 -0.03176291 0.040225994 0.021109488
0.0030217292 0.03261526 0.0071174297 0.02853633 0.040348142 -0.030165236 -0.011443305 0.022586811
-0.007515533 -0.029497184 0.038863003 0.036407627 -0.022162562 -0.00537128 -0.023896515 -0.013199868
0.0407732 0.043398503 0.024816094 -0.009833603 -0.046665743 0.010071176 -0.26384822 0.005534808
0.03624233 0.009240471 -0.0056588873 0.014307962 0.021083731 -0.027859094 0.04265706 -0.029900013
-0.030257296 -0.042519968 0.008168723 -0.025646552 0.042715576 -0.03013007 0.015390858 0.021804523
-0.023369674 0.020091686 -0.021051064 0.008787036 0.040994477 0.0012574941 0.02155174 -0.019852666
-0.011941809 0.005873939 0.15201335 -0.017539352 0.017793149 0.004823894 0.0028301894 -0.032561034
-0.03711088 0.014435913 -0.0029587233 -0.01824497 -0.013876735 -0.02805843 -0.0063557066 -0.020700147
-0.016138997 -0.0036746087 -0.022065876 0.020432945 -0.030720972 0.024133855 -0.026773522 -0.0014474392
0.0073230304 0.024440974 -0.011915978 0.039893888 0.0051368023 0.015064422 -0.026371371 0.045805905
-0.012595809 -0.038855053 -0.010698008 -0.008830064 -0.009664029 -0.0525258 -0.030165274 0.04054508
0.032737657 0.0007937732 -0.037946913 0.017308421 -0.0326793 -0.033634674 0.018452007 0.012451954
-0.014648294 0.0136616565 -0.038992494 -0.03148719 0.009922683 -0.02479242 -0.027135357 0.011671678
0.0072535425 -0.053112164 -0.0025073 -0.037368674 0.012864325 0.039026003 -0.002090664 0.04679456
-0.006728353 -0.016928695 0.01920266 0.012086986 -0.034003936 -0.029724376 0.012489396 0.028640082
0.014880866 0.036196698 -0.039004028 0.043294173 0.0025140876 -0.011879166 -0.01450303 -0.033974662
0.035750467 -0.000620991 0.0018729568 -0.024970945 -0.009377491 0.022157578 -0.0035438128 0.0057013165
-0.009365819 -0.019056473 -0.010012141 0.022004949 0.025104333 0.013996065 -0.036476836 0.03455503
0.0017219844 0.03589552 -0.022832418 0.010227831 -0.0021998324 0.017387867 -0.028567787 0.0019439654
-0.03243362 -0.0079583 0.0494073 0.0026255941 -0.042090487 -0.011298578 -0.027889978 -0.04142376
-0.034280244 0.02999618 0.036103997 -0.84791106 -0.03613656 -0.0054401476 0.030749958 0.013747826
0.017848391 0.019339558 -0.0070902165 -0.050700266 0.024199657 -0.02472643 -0.026871005 0.039191127
0.03706177 0.036610395 -0.045123164 0.013288075 -0.031935778 -0.012472257 0.01580701 -0.027585143
0.029203039 0.030693185 -0.017917778 -0.009962083 -0.010413587 0.04107555 0.035178527 0.03245836
0.013491479 0.001432566 0.032191508 0.041724507 -0.031040616 -0.035275538 -0.03448792 -0.034733813
0.004322442 0.01519141 0.0041869096 -0.0090431785 -0.008982241 -0.038791675 -0.031961184 -0.044417042

fc_value.bias f4 [128]
00000000: fc99 2fbf f655 1bbd 0ef7 72be 5217 7e3b
00000010: 77d6 7fbd 1048 34bf b933 85bd 4933 eabc
00000020: 4fad 513d 7ef8 01be f363 7ebd bdcc 76bc
00000030: 34ad 08bd 290c acbd 9614 063c a4d3 11bc
00000040: ec9f 083e 91ea 35bf da5f 6f3d 9e8b b0bc
00000050: a8a6 8bbd 249d 953c ac33 b7bc 8377 c2bd
00000060: 872d 15bf bc61 0e3c b242 013d 00d9 0ebd
00000070: c419 4ebd 4ee1 46bd 06f5 15be ef0f cf3c
00000080: 6885 f0bd c241 f2bd d2ba 96bb f83f afbd
00000090: 0221 673d 75fd a33e acb1 c0be 9a77 febd
000000a0: ae41 eebc 8a0c 6a3e b3c0 3a3d ee84 d63e
000000b0: 2fc4 5ebe 331a 7f3e bde8 fd3d 4ec3 c13c
000000c0: 2589 2bbf f3bb ad3c 0296 47bd 3596 05bd
000000d0: 2ded 943d ebff 67be 58de d5be 2d28 cebc
000000e0: 8c3b f2bc 26d7 d8bc 85bd d83b 12d8 81bd
000000f0: 58b4 88bd 1e67 25bf b8ac d4bb 20f4 a7bc
00000100: f5fe 27bd 4462 453b c0a8 eabc 1ef3 ca3e
00000110: 1df1 9c3e 6c0d 5abc a6bc a03e 8235 1abd
00000120: 7d16 81be 602c d6bc 0ebd 95bb 1da0 55bd
00000130: ee56 b43d 5001 6c3d 40b5 4d3c 6283 c43c
00000140: 7e5b ca3c 11d4 673c ca03 93bc 93bc 4dbf
00000150: ab1b 8c3e fab3 ca3c 7052 0d3b 1a68 7b3e
00000160: 2640 d23d 42c2 05bd 9057 6a3c 7239 b6bd
00000170: 7d8e 65bc e736 30bd 5a7b 30bd 93f3 263c
00000180: 7ee8 a23c 9050 1dbe eced 0ebb 66cb 863d
00000190: 46aa 473b 1da0 47bd 3f98 953c fc13 02bd
000001a0: 8425 0b3e 4463 1dbd ec1a fe3c d906 313d
000001b0: 0f93 8a3d a9b5 24be 286d 35bd 13ac 27bc
000001c0: 98f7 3cbf 9650 aebe f6ed 2e3c aa0d f5bd
000001d0: 5b2e 6ebc 0e3d dfbb 641e 97bd 3710 50bd
000001e0: bcf4 81be 4239 e53c 045f 5d3e 729a c1bc
000001f0: 56db b1bd 7f87 35bf 36f6 1fbd e8f3 dcbc
-0.68594337 -0.037923776 -0.23727056 0.0038771224 -0.06246039 -0.7042246 -0.06504006 -0.028588908
0.05119067 -0.12692448 -0.062107038 -0.015063462 -0.033368304 -0.08400757 0.008183619 -0.008900557
0.13342255 -0.71061045 0.05844102 -0.02155095 -0.068188965 0.018263407 -0.022363506 -0.09495451
-0.58272594 0.008690294 0.031557746 -0.034874916 -0.05031754 -0.04855471 -0.1464425 0.025276152
-0.11744195 -0.118289486 -0.0045999074 -0.08557123 0.056427963 0.3202931 -0.37635553 -0.12425156
-0.029084053 0.22856346 0.04559393 0.41898292 -0.21754526 0.24912338 0.12397907 0.023652699
-0.6700614 0.021207785 -0.048727043 -0.03261395 0.072718 -0.22656219 -0.41771197 -0.025165642
-0.02956941 -0.026469778 0.0066143894 -0.0634004 -0.06675023 -0.6461047 -0.0064903162 -0.02050215
-0.04101463 0.0030118385 -0.02864492 0.3963861 0.30652705 -0.013308864 0.31393927 -0.037648685
-0.2521247 -0.026144207 -0.004569656 -0.05215465 0.08805643 0.05761844 0.01255542 0.02398843
0.02470183 0.014149682 -0.017946143 -0.80365866 0.2736486 0.024744023 0.002156403 0.2455143
0.102661416 -0.03265596 0.014303103 -0.088976756 -0.014011023 -0.04302111 -0.043086387 0.010189909
0.019886252 -0.15362763 -0.0021809293 0.06581764 0.003046648 -0.04873668 0.018261073 -0.03175734
0.1358853 -0.038424745 0.031018697 0.04321942 0.067663305 -0.16084923 -0.044293553 -0.010233897
-0.738153 -0.34045857 0.0106768515 -0.11965497 -0.014537419 -0.006812698 -0.073788434 -0.050796714
-0.2538203 0.027981404 0.21618277 -0.023633216 -0.08684413 -0.70909876 -0.039053164 -0.026971772

fc_adv.weight f4 [128, 512]
00000000: 204f 8bba f033 acbb 2a57 aebc 6bac 25bd
00000010: fd1b 1cbd f47f 65bc 81cc 0dbd 1806 29bc
00000020: d623 fd3c 3889 d5bc 9cdc 1dbd c1e9 2e3d
00000030: 0092 0e39 869c 813c a0e9 e33b c72a bebc
00000040: f086 063b ce6b f23c 0c3f 77bc 3e8c f63c
00000050: 69f0 86bc 5b34 003d 2f87 c7bc 7002 a6bb
00000060: dbcc a3bc 91a0 133d 5173 1cbd 40f1 de3b
00000070: 985c eabc 58a7 733c d822 31bc 3d92 dfbc
00000080: 70fc 31bb 1543 083d a851 6f3c 770e 0c3d
00000090: 2017 e83b 4494 0d3c 103c 0abb 7030 03bd
000000a0: e851 c13b e16f 043d 9eb3 72bc 141e d8bc
000000b0: b96b 31bd 504e 6dbb f696 0bbd 4e34 a6bc
000000c0: c1a9 97bc 886f 1abd b6cb 8e3c 95a7 b5bc
000000d0: 208f 09bc 60b5 c23b 1002 e4bb 725c bc3c
000000e0: 6f7e 073d 2dbf 323d 3677 813c 502f 343b
000000f0: 7294 16bd 4408 4bbc 123a da3c db6e 1b3d
00000100: e83c b33b a0c1 f8bb 7cee 29bd 3ef8 b13c
00000110: 380e 363c 3eeb ff3c 7c3a 25bd 65bf 2b3d
00000120: 710a 133d b60e b4bc 8caf 23bd b488 b1bc
00000130: 5412 2cbc daa6 0abd f4ff 0fbd 61cc 243d
00000140: 68d3 3d3c 4a35 fabc ae93 b4bc 283d 883c
00000150: 08dd 323c ae8c ec3c 3904 1c3d afa1 07bd
00000160: aa6a 8dbc 33da 82bc 2a1e a73c 29bd 1cbd
00000170: 838b 003d 455a 073d 999d ddbc 04de fdbc
00000180: be0c 8d3c b83b 51bc 528f 9ebc 50ec 24bc
00000190: 220a ef3c 2a92 c73c 1bd4 043d c22b 03bd
000001a0: cb00 1dbd 62cd d6bc 7e13 df3c 3ec8 993c
000001b0: 878a 34bd 7c03 1a3c fcde 7c3c f85f f33b
000001c0: e082 0cbc 3713 1b3d 0ea3 ef3c 30f9 6ebb
000001d0: 50eb 3ebc d22d 973c ca03 ba3c 2f2a f8bc
000001e0: b62e da3c 831b 34bd 5219 75bc cbfb 2fbd
000001f0: 7447 773c 49ac 1b3d 40d0 9bbb bf10 233d
00000200: a71f 19bd 109d 583c e132 c6bc 8177 0d3d
00000210: 904e cebb 1fdd d5bc aad5 c0bc c306 033d
00000220: 8854 9a3b 6c4a 933c 6549 103d 7068 513b
00000230: 60b9 9c3a 11db e2bc 30f5 d3bc 1e82 a63c
00000240: 226e 16bd a0b4 1e3c d6e5 f3bc d50f 323d
00000250: 3a02 ffbc 0556 313d df1d 81bc 1c1a 8b3c
00000260: 7816 f1bc be77 d73c 26a6 db3c e0e8 f8ba
00000270: db97 d4bc dfc1 273d 70b2 35bc 00ef 313c
00000280: 2e65 d63c 5229 6cbc c9fb 09bd a63f 913c
00000290: 209c 2bbb b412 0abc ae46 e83c a2a4 9e3c
000002a0: 9464 febc be16 05bd b5e0 80bc 391e 193d
000002b0: 6041 25bd f2a6 a4bc 05bf 093d 2fea a0bc
000002c0: 0024 6abb 11e3 05bd c438 22bd 84cd 093c
000002d0: ffe5 b1bc da76 93bc b89b 143c 5250 b1bc
000002e0: 0848 48bc 2ba4 093d 408d a23a 9dbf 283d
000002f0: 60fe ca3a b0f4 06bb d2f5 b53c 4266 5cbc
00000300: 9422 283c be4c a63c 6bab 0fbd 85a3 a6bc
00000310: a8a0 9cbc 1085 d1bb 431f 26bd 4081 33bb
00000320: 98f9 00bd fe3c a03c f0d0 98bb 6022 19bb
00000330: 15b8 ebbc 9099 b53b e819 e73b 2ddf 15bd
00000340: 182b 443c 609c fabb f82d d53b b7c4 17bd
00000350: 5017 26bd 2261 a1bc 25df 253d f74b 133d
00000360: 5224 c7bc 3d06 2abd 3ec4 a03c e020 1ebc
00000370: fc60 533c 7237 2dbd 8ec0 f6bc 62bf 863c
00000380: 94fd 97bc 50d4 93bb 15b5 18bd 30ef 2abc
00000390: 936f 343d 4c41 02bc 064b be3c 1abe cebc
000003a0: a4a4 903c 7544 b3bc 6803 2dbc ae47 11bd
000003b0: c0e7 263b c078 eaba ec59 27bc 5ee8 10bd
000003c0: 506e 97bc 2595 bdbc 0078 8938 409c 2fbd
000003d0: eed3 b43c 75a5 dcbc ca68 92bc 44fa edbc
000003e0: 4016 9d3a e27d eebc 8a89 fb3c 2dc3 d4bc
000003f0: c0bc 583b 978e 05bd 5c5c 3b3c ead8 a13c
-0.001062844 -0.005255215 -0.021281797 -0.040447634 -0.03811263 -0.014007557 -0.03461886 -0.010316394
0.030900877 -0.026066408 -0.038540468 0.042703394 0.00013596565 0.015821707 0.0069553405 -0.023213757
0.0020527206 0.02959242 -0.015090715 0.03009617 -0.016472058 0.03129993 -0.024356453 -0.0050662085
-0.019995144 0.0360418 -0.03819591 0.0068036616 -0.028608605 0.014871441 -0.01081153 -0.027291412
-0.002715852 0.0332671 0.014606871 0.034193482 0.007082835 0.008641306 -0.002109293 -0.032028615
0.0058996566 0.03233326 -0.014813332 -0.02638153 -0.043315623 -0.0036210008 -0.034079514 -0.020288613
-0.018513562 -0.03770402 0.017431121 -0.022174636 -0.00839594 0.0059420317 -0.0069582537 0.0229933
0.03307956 0.04363935 0.015803915 0.002749402 -0.036762662 -0.012392107 0.026639018 0.037947517
0.005469907 -0.0075914413 -0.041487202 0.021724816 0.011111788 0.031240102 -0.04033898 0.041930575
0.03589863 -0.021979671 -0.039962336 -0.02167163 -0.010502417 -0.03385053 -0.035156205 0.040233973
0.011586048 -0.030542988 -0.022043075 0.016630724 0.010916956 0.028875675 0.038089965 -0.033113178
-0.017262775 -0.015973186 0.020400126 -0.038266335 0.03138305 0.033045072 -0.027052687 -0.030989654
0.01721799 -0.012770586 -0.01935545 -0.010066107 0.029179636 0.024361689 0.032428842 -0.032024153
-0.038330834 -0.026220981 0.027230974 0.01877224 -0.044077422 0.009400245 0.015434023 0.007427212
-0.008576125 0.03786012 0.029252555 -0.0036464445 -0.011652783 0.018454466 0.022706885 -0.030293552
0.026633602 -0.04397155 -0.01495965 -0.042964738 0.015092719 0.0380061 -0.00475505 0.039810892
-0.0373837 0.01322104 -0.024194183 0.034537796 -0.0062959865 -0.026106415 -0.023539383 0.03198887
0.004709784 0.017979823 0.035226244 0.0031953119 0.0011957102 -0.02769235 -0.02587375 0.020325717
-0.036726125 0.009686619 -0.02977268 0.04347213 -0.031128991 0.043294925 -0.015761314 0.016980223
-0.02942966 0.026302215 0.026812624 -0.0018990301 -0.025951317 0.040956374 -0.011089906 0.010860205
0.026171293 -0.014414148 -0.033687387 0.017730545 -0.0026185587 -0.008427311 0.028354015 0.019365612
-0.031053819 -0.03249239 -0.015732149 0.03738234 -0.04034555 -0.020099137 0.033629436 -0.019642917
-0.0035727024 -0.03268725 -0.039604917 0.008410815 -0.021716116 -0.018001009 0.009070329 -0.021644745
-0.012224205 0.03360383 0.0012401715 0.04119836 0.0015487187 -0.0020592622 0.022211943 -0.013452115
0.01026215 0.020300265 -0.035075586 -0.020341644 -0.019119576 -0.006394036 -0.040557157 -0.0027390271
-0.03148803 0.019560333 -0.004663579 -0.0023366436 -0.0287743 0.0055419877 0.007052649 -0.03658979
0.011973165 -0.007648036 0.006505724 -0.037052836 -0.040549576 -0.019699637 0.04049601 0.035961118
-0.024309311 -0.041509856 0.019624826 -0.009651393 0.012901541 -0.042289205 -0.030121114 0.01644868
-0.018553533 -0.0045113936 -0.03728207 -0.010433003 0.044051718 -0.007950138 0.023229133 -0.025237132
0.017656632 -0.021883229 -0.010559894 -0.03546875 0.0025467724 -0.001788877 -0.01021431 -0.035377853
-0.018485218 -0.023142407 6.555021e-05 -0.04287362 0.022073712 -0.026934365 -0.017872233 -0.02905
0.001198478 -0.02911276 0.030705232 -0.025971973 0.0033071488 -0.032606687 0.011435594 0.019756753

fc_adv.bias f4 [128]
00000000: e866 8d3c 47bb 85bc 4a13 37bd 57be 9dbe
00000010: 60bf 4dbd 07c1 e73d 7162 33bd 3247 2abe
00000020: c777 d73d 62bb 98bd a470 1f3b 0aee 50bd
00000030: ba1e d23d e891 02bd 1af4 0fbf 1c7c 5c3b
00000040: 13f7 c33a 4499 b9be b870 a83c 59db 2c3e
00000050: 80ca 533a 4f95 3cbc 259c e9bc 5ca5 4a3d
00000060: 2e93 00bc 1b75 0e3d 900f 2dbd 993a cd3c
00000070: a100 113e 25a9 ecbd f853 c8be e8a7 19bb
00000080: 7a72 d33c c95d 2ebd 35a6 9dbc 1e6d 02bf
00000090: 0aaf 113e 5b30 46bd 3068 30bd 9eef 14bf
000000a0: 0b09 eabd f162 a13c bfca 26be 1723 7bbe
000000b0: b223 b5bc c16e 7f3c 70fa 803e 1eb5 3ebd
000000c0: 0236 c3bd 0f4b 0ebf b8fb 4ebc e865 083d
000000d0: 9533 cd3d 48f3 3abd 88db 52b9 b69b 4fbd
000000e0: b0a5 f9bd ba2d dfbb fa78 bd39 7c93 d3bc
000000f0: aaa3 86bd 6957 fc3c 0454 9cbb d1de 8cbd
00000100: 9638 ff3c 15c6 313e b360 2fbd fb79 173e
00000110: ee1a 0f3e 3fd6 583e 6001 8bbc 112a 0bba
00000120: 9d85 66bd 112b d5be 826b 41bd cfc5 163c
00000130: a186 113d b3df 0dbe 4f23 bfbd f9cb 1dbe
00000140: 3ef0 4abd 0c0b 5cbe 3350 43bc 70a9 29bd
00000150: 0525 b03e 464a 34bd a912 a1be 7a1a 493d
00000160: ed2f 1dbd 1707 94bd af41 07bf 6a81 03bc
00000170: ec51 d03e dcbc 89bc 41a8 033c c97e 52bd
00000180: c204 e0bb 5888 0cbb 299c 81bd acc7 50bc
00000190: baa1 9cbd fbe7 a8be ba7b 90bb 1014 7cbb
000001a0: 0ef7 193e 6007 87bd 921a acbc ac74 e5bb
000001b0: 31c9 b8bc 946b 333e 912d 0f3e 44f9 80bd
000001c0: faab 63bc e998 64bd 1a8b 9f3c 0807 5eba
000001d0: d298 4b3b 5a7c 24be 6fa7 b0bd 0551 abbc
000001e0: e8ee e83c 91ee 9c3d 9ae9 53bd 3187 06bd
000001f0: 3871 1cbd aeb5 d23e 13fd 10be a661 41bd
0.017260984 -0.016324652 -0.04469613 -0.3080928 -0.050231338 0.11316114 -0.043795053 -0.16628721
0.105208926 -0.074576154 0.0024328614 -0.05100826 0.10259767 -0.03187743 -0.56231844 0.003364331
0.0014950953 -0.36249745 0.020561561 0.1688055 0.0008079186 -0.011510207 -0.028516838 0.049474105
-0.00784759 0.03477965 -0.04225117 0.025052356 0.14160396 -0.11555699 -0.39126563 -0.0023446027
0.025811423 -0.04256991 -0.019244293 -0.5094775 0.14226928 -0.04838596 -0.04306811 -0.58178127
-0.11427506 0.0197005 -0.16288279 -0.24525104 -0.022111747 0.015590371 0.2519107 -0.046559446
-0.095317855 -0.5558328 -0.012633257 0.03330031 0.10019604 -0.045642167 -0.00020108942 -0.050685607
-0.121898055 -0.006810871 0.00036139024 -0.025827162 -0.06574185 0.0308034 -0.0047707576 -0.06878436
0.031154912 0.17360719 -0.04281683 0.14792626 0.13975117 0.21175478 -0.01696843 -0.00053086976
-0.056279767 -0.4163442 -0.047221668 0.009202435 0.035528783 -0.13854866 -0.093329065 -0.1540984
-0.04954552 -0.21488589 -0.011920976 -0.041421354 0.34403244 -0.044016145 -0.3145955 0.049097516
-0.038375784 -0.07227915 -0.528346 -0.00802646 0.406875 -0.016813688 0.00803572 -0.051390443
-0.0068365047 -0.0021443572 -0.06328613 -0.012742918 -0.076480344 -0.32989487 -0.0044092806 -0.0038464107
0.1503565 -0.065932035 -0.021008763 -0.0070024338 -0.022556873 0.17521507 0.13982226 -0.06297544
-0.013895983 -0.05580989 0.019475508 -0.00084696757 0.003106643 -0.16063061 -0.086256854 -0.020912657
0.028434232 0.076626904 -0.05173645 -0.032843772 -0.03819391 0.41154236 -0.1415904 -0.047212265

value.weight f4 [1, 128]
00000000: a25b 223f c2f5 17bc 0f2f 1e3f d9dc 5dbd
00000010: ea2a 8c3c be11 b03e 9089 183d 427f c53c
00000020: 5865 11be 184c 063f 8ccf 0ebb 2308 1abd
00000030: f155 95bd 1226 1b3d a47d 82be 4f57 06bc
00000040: d1b9 f7be 1197 993e 316e 22be cbb6 153d
00000050: a588 9a3e 632b 323d a023 113c 4072 9eb9
00000060: f1b4 693e f858 013d 80d2 abb8 9bce 17bc
00000070: d93f be3d e067 a63c f459 b9be 08c4 86be
00000080: 5483 c13e 6e12 0c3d df98 0cbc 5c8d 1cbb
00000090: abdc 3d3c e3f4 21be b22c 00be 39e9 89be
000000a0: 32f6 653d 2bea 27bd 9450 8a3c ca11 c0be
000000b0: 1f19 cdbe be7b 4fbe a2b2 aabc 987c 683d
000000c0: 203e 203f 9890 dbbd ed16 233c 35af db3d
000000d0: 98fe 9d3e ba81 ed3d e580 153e 838d 18bc
000000e0: a77f a9be 4f4e ba3c 634e 303e 9093 5b3d
000000f0: 805b 7bb9 3d5a 5e3d 3a8f 5b3d fa4b 1c3c
00000100: ef28 7fbe 8fa4 913c 9013 93ba fdef 20be
00000110: 382b 34bd 3082 353d 7638 03bf dc12 3b3b
00000120: 0ee5 983e 4623 f43b 6b71 b8bd c615 4b3c
00000130: 1a58 0b3c dbbb 8fbe 4c12 aabc f2ea 9f3d
00000140: d20b 463e 05a8 6cbe 4056 763a 52f7 eb3e
00000150: a067 5fbf 9568 03bb 504d 9c3d 5a35 103f
00000160: 9088 57bd 14a8 4c3b 6870 e4ba bbaf 8ebd
00000170: 847c 4e3d d646 b2bb 5f5b 003d 44e0 d83b
00000180: 7c26 6a3d e211 a23d 94b4 213d f6f8 223c
00000190: 0627 413d 9bdd febd 361e 843d c811 f0ba
000001a0: 24a9 19bc 5ed5 563d 8158 133e 948f 8bbc
000001b0: cd71 7aba 8513 7e3e 6c7b 813d 4046 6c39
000001c0: f87d bd3e 67d1 5b3e d007 2b3d 1d64 f1be
000001d0: 40ef 7cba a472 ecbb dd95 283f d4c4 b63c
000001e0: 9409 983e ec6b a0be 43bb 8dbe bcca 83bb
000001f0: 404d 9bbe ad52 5f3f c020 e13d 178d 28bd
0.6342107 -0.009274902 0.61790556 -0.054165695 0.017110307 0.34388536 0.037240565 0.024108533
-0.14198816 0.5245986 -0.0021791188 -0.037605416 -0.07291783 0.037878104 -0.2548648 -0.008199527
-0.48383954 0.29998067 -0.15862347 0.036551278 0.30182377 0.043498408 0.008858591 -0.0003022123
0.2282293 0.031578988 -8.193124e-05 -0.009265567 0.09289522 0.020313203 -0.3620144 -0.26321435
0.37795508 0.034197263 -0.008581369 -0.0023887968 0.011588256 -0.15816073 -0.1251705 -0.26935747
0.056142993 -0.040994804 0.016884126 -0.37513572 -0.40058228 -0.20262048 -0.020837132 0.056759447
0.62594795 -0.107209384 0.009954196 0.107267775 0.30858302 0.11597009 0.1459995 -0.009311083
-0.33105204 0.022742419 0.17217402 0.053607523 -0.00023971312 0.054285277 0.05360339 0.009539599
-0.24917959 0.017778663 -0.001122104 -0.15716548 -0.04398653 0.04431361 -0.5125803 0.0028545177
0.29862255 0.007450494 -0.09006008 0.012395328 0.008504892 -0.2807301 -0.020760678 0.07808484
0.19340447 -0.2311097 0.00093970075 0.46087128 -0.87267494 -0.002005135 0.07631934 0.5633141
-0.05262047 0.0031228112 -0.0017428519 -0.06967112 0.050411716 -0.005440573 0.03133714 0.0066185314
0.057165608 0.07913567 0.039478853 0.009947052 0.047156356 -0.12444612 0.06451075 -0.0018315846
-0.009378705 0.052449577 0.1438923 -0.017036237 -0.0009553701 0.24812134 0.06322369 0.00022532884
0.3701017 0.214666 0.041755497 -0.47146693 -0.0009648688 -0.0072158147 0.65853673 0.022310652
0.29694808 -0.31332338 -0.27681932 -0.0040219706 -0.30332375 0.8723553 0.10992575 -0.04115018

adv.weight f4 [3, 128]
00000000: b072 b4bd bcda 99bc 2cf0 913d 54d4 813e
00000010: 08e8 ff3b 1f3e 5ebe 40cf 70bd e3c1 80bd
00000020: ca63 bf3c 7556 02bc e48c 903d 42b1 193c
00000030: 8679 c83e 2ce6 80bd 2e34 193e a04c bfb9
00000040: ca67 30bf 4306 683e b9d6 35bd ac54 bf3e
00000050: 4546 ec3c 8d5a 30bd fe6a 5ebd 1e59 03bf
00000060: 6072 ce3d 663b 303d 33fc 193c ac7a 353d
00000070: ad8b 2e3f 3b1d c03e 3269 f83e 8d11 843e
00000080: 3a80 46bd 743f 35bb 685f 89bd eb3c 6cbf
00000090: 9903 cbbe da02 ff3b 7736 47bd b098 7e3f
000000a0: 55e0 453f 305a a3bc 1701 82bf dbd0 583e
000000b0: 23bd 063e c1b2 603d b1a8 743d f9d9 6cbd
000000c0: 4bda 9e3e 119c 343f b19b 62bd 5d4e 3a3e
000000d0: 186b ef3e 9e89 ee3c 178d 44bd 1f0e 5c3d
000000e0: afd3 8ebd fc39 0fbd 8604 a93e a2f3 803d
000000f0: 44ce 583e 540c 91bd e2ec 043d 9320 45bd
00000100: 6f7d 46bf c3c6 2bbf c784 7cbd 92c5 a3be
00000110: 7d33 b13e bfb8 ccbe a0fa 4a3e e7e9 4a3d
00000120: 51ae 953d 7d19 12be a542 7a3d 87d8 b43c
00000130: cc27 983d 5deb fb3e 876b 3e3c 9157 9bbe
00000140: 2dff 5bbd ae8f b9bc 74d0 d03b a018 6e3b
00000150: 2132 0cbf d9b8 1f3b 7f97 a13e e376 b33e
00000160: 8865 6d3d 6632 903e a2fc 5a3e 7165 12bc
00000170: 85f5 5ebe 58f8 8bbd 1b51 3dbd 89c2 3e3d
00000180: 8af0 ed3d 9fa7 06bd 0abd f9bc 6255 cd3c
00000190: 677d 363e db40 4abf 2059 d73d 3cc6 f73b
000001a0: 76c9 3fbf 4bd5 85bc 8754 173d 8548 983d
000001b0: 9476 9ebd f38a 5fbe 559c 37bf ef3a cbbc
000001c0: 402a 523d 150d 34bf d837 533d 1cf8 8bbe
000001d0: 1807 33bd 1cbf eb3e c65e 83bd 3f5e b33c
000001e0: c8c2 d53b b22d be3e d440 3c3b 0474 0dbc
000001f0: ab93 4dbc 91c6 6abf 43f0 ce3e 4c3f 0f3c
00000200: e97b ac3d 5ee3 25bd 0f44 bf3c 9cd8 1a3e
00000210: b16f 7ebd 1932 35bd 7132 91bc 42da 033e
00000220: 20b7 4cbf 6068 87bc c8a0 8f3d 4ac0 82bc
00000230: d476 09bc 1640 d73c 6ac0 b63e b24d f1bc
00000240: 2db7 9c3e 8eba 5fbf 0ff2 813d 6f9c 4fbf
00000250: 7984 a13d 43ea 89bd 3003 86bd 8085 4c3e
00000260: f581 f5be 97e5 9bbc c9ec 073d 255d af3d
00000270: 9a9b f4be 803d a4bc 033e 9d3d 57ec 5abe
00000280: a6b4 d83c 40b3 063d 5884 9abd ee1b 413f
00000290: 0d36 ca3e ae2a 29bd e84e 903d 2da0 7ebd
000002a0: fb21 0c3e 9f6d 93bc fd34 5b3f c9ad 913e
000002b0: 2e94 6c3e c27a a43d 934c 65bd 1edc 353d
000002c0: 38e1 533e 8013 6f3e fc85 343b 7f18 41be
000002d0: a283 0cbf d006 47bd 18aa 9bbb 8164 b33c
000002e0: dccf 8a3d 168e 993d 2b18 63bc 7a8d c73c
000002f0: 36ca 0e3c f853 3a3d d65c abbb 78cd ca3a
00000300: 2b5f 9a3e 8cbc 8c3e 783c 813d 0345 b43d
00000310: c3c6 41bd ec6f b8bd 3921 963e 8b1f c53c
00000320: 6846 a03d 4387 833e 8ae3 703d 5f99 b7bc
00000330: 4ef5 0c3d ed77 d6bd 96d4 2fbd d973 efbe
00000340: fbf8 133d 8a64 113e 7426 aebb 3bcd 283d
00000350: 7703 b43d 12d8 bfba 2e5d c93d 906e cbbd
00000360: 9a95 9e3d 13fe c9be c31b abbd 51c8 223b
00000370: 0e36 8dbd f422 03bd 9010 e53b 20ac 21bd
00000380: 33ea c5bd af1c 58bd 2492 723d ba31 a53b
00000390: ca1d 2bbe 2bd9 263f 4c27 363d 5b25 13bc
000003a0: 6cbf 11be 44ae 583c 0df8 8f3d 9226 f0bd
000003b0: dc4a 8f3d 07fd 32be 2b84 743c 38a2 9dbc
000003c0: 4fdb 783d eb76 80be 71fb 183d 93fa ba3e
000003d0: d4ed 80bd 875f 96bd d4e9 323d 31f6 adbc
000003e0: d804 c3bc bcdd 6fbe d217 86bd 0d8b c73c
000003f0: a895 c0bc 3d5f 063f 10be 9bbe c611 e3bc
-0.088109374 -0.018781058 0.07125887 0.25357306 0.0078096427 -0.21703385 -0.0587914 -0.06286981
0.023363013 -0.007955183 0.07058123 0.00938064 0.39155215 -0.06293902 0.14961311 -0.0003648745
-0.6890837 0.22658639 -0.04439423 0.37369287 0.0288421 -0.043055106 -0.054301254 -0.5130786
0.10080409 0.043025397 0.009398508 0.044306442 0.6818188 0.375223 0.48517758 0.2579464
-0.04846213 -0.002765623 -0.067076504 -0.92280453 -0.39651182 0.0077823224 -0.048635926 0.9945173
0.7729543 -0.019940466 -1.0156583 0.21173422 0.13158087 0.054857973 0.05973119 -0.057825062
0.3102592 0.7055064 -0.05532426 0.18193956 0.46761394 0.029118355 -0.047986116 0.053724404
-0.06973969 -0.034967408 0.33011264 0.06296469 0.21172434 -0.070824295 0.03245247 -0.04812677
-0.77535146 -0.6710016 -0.061650064 -0.31986672 0.34609595 -0.399847 0.19822168 0.049539473
0.07308639 -0.14267536 0.061098713 0.022075905 0.07429466 0.49203005 0.011622316 -0.30340245
-0.05371015 -0.02265152 0.006372506 0.0036330596 -0.5476399 0.0024371652 0.31560895 0.3505164
0.057958156 0.2816345 0.21385434 -0.008935318 -0.21773346 -0.06834477 -0.046219926 0.046572242
0.11618145 -0.0328747 -0.030485649 0.025065128 0.17821275 -0.7900521 0.10515046 0.007561473
-0.7491678 -0.016337058 0.036945846 0.07435707 -0.07737461 -0.21830349 -0.7172292 -0.024808375
0.051309824 -0.7033246 0.05156693 -0.2733773 -0.043707937 0.46044242 -0.06414561 0.021895526
0.006523464 0.37144238 0.0028725164 -0.008633617 -0.012547414 -0.9170924 0.4041768 0.0087431185
0.084220715 -0.040500037 0.023347883 0.15121692 -0.062118236 -0.04423723 -0.017724248 0.12876227
-0.79966927 -0.016529262 0.070130885 -0.015960831 -0.008390147 0.026275676 0.35693675 -0.029455993
0.30608502 -0.87394035 0.06344997 -0.81098074 0.07886595 -0.06734135 -0.06543577 0.19972801
-0.47950712 -0.019030375 0.0331848 0.08562688 -0.47774965 -0.020048857 0.076778434 -0.21379219
0.026453327 0.03288579 -0.07544774 0.7543324 0.39494362 -0.04130047 0.070463 -0.062164474
0.13684838 -0.017996607 0.8562773 0.284529 0.23103401 0.08031227 -0.05598123 0.044399373
0.20691383 0.23347282 0.0027545681 -0.18857001 -0.54888356 -0.04859048 -0.0047505014 0.02189851
0.06777927 0.07497804 -0.013860743 0.024359453 0.008715203 0.045490235 -0.0052295728 0.0015472611
0.30150732 0.274876 0.063103616 0.088022254 -0.047308695 -0.090057224 0.29322222 0.024062892
0.07825929 0.25689134 0.05881075 -0.022412 0.03441363 -0.10472093 -0.042927347 -0.46768072
0.03612612 0.14198509 -0.0053146426 0.041211348 0.08789723 -0.0014636538 0.09832226 -0.099331975
0.07743378 -0.39451656 -0.083549045 0.0024838636 -0.06895076 -0.032015756 0.0069905 -0.03947079
-0.096638106 -0.05276173 0.0592214 0.0050413283 -0.16710582 0.6517512 0.04447107 -0.008981074
-0.14233178 0.013225142 0.07029734 -0.11726107 0.069967 -0.17479335 0.014924089 -0.019242391
0.060756024 -0.25090727 0.03734917 0.36519298 -0.06295362 -0.07342439 0.043680027 -0.021235557
-0.02380602 -0.23424429 -0.06547512 0.024358297 -0.023508862 0.5248907 -0.30418444 -0.027718436

adv.bias f4 [3]
00000000: 5768 84be 151f e6bd 7b79 ae3e
-0.25860855 -0.11236397 0.34077057
