route_TSC/model/0.5_hatt_router_joint_0315/ep25/q_netveh.pt (torch, 510246 bytes, 26 tensors)

attn f4 [1, 2, 37]
1.8254397e+10 2.143e-42 0.0 0.0 0.0 0.0 0.0 0.0
0.0 0.0 0.0 0.0 0.0 0.0 0.0 0.0
0.0 0.0 0.0 0.0 0.0 0.0 0.0 0.0
0.0 0.0 0.0 0.0 0.0 0.0 0.0 0.0
0.0 0.0 0.0 0.0 0.0 0.0 0.0 0.0
0.0 0.0 0.0 0.0 0.0 0.0 0.0 0.0
0.0 0.0 0.0 0.0 0.0 0.0 0.0 0.0
0.0 0.0 0.0 0.0 0.0 0.0 0.0 0.0
0.0 0.0 0.0 0.0 0.0 0.0 0.0 0.0
0.0 0.0
00000000: 8001 8850 f905 0000 0000 0000 0000 0000
00000010: 0000 0000 0000 0000 0000 0000 0000 0000
00000020: 0000 0000 0000 0000 0000 0000 0000 0000
00000030: 0000 0000 0000 0000 0000 0000 0000 0000
00000040: 0000 0000 0000 0000 0000 0000 0000 0000
00000050: 0000 0000 0000 0000 0000 0000 0000 0000
00000060: 0000 0000 0000 0000 0000 0000 0000 0000
00000070: 0000 0000 0000 0000 0000 0000 0000 0000
00000080: 0000 0000 0000 0000 0000 0000 0000 0000
00000090: 0000 0000 0000 0000 0000 0000 0000 0000
000000a0: 0000 0000 0000 0000 0000 0000 0000 0000
000000b0: 0000 0000 0000 0000 0000 0000 0000 0000
000000c0: 0000 0000 0000 0000 0000 0000 0000 0000
000000d0: 0000 0000 0000 0000 0000 0000 0000 0000
000000e0: 0000 0000 0000 0000 0000 0000 0000 0000
000000f0: 0000 0000 0000 0000 0000 0000 0000 0000
00000100: 0000 0000 0000 0000 0000 0000 0000 0000
00000110: 0000 0000 0000 0000 0000 0000 0000 0000
00000120: 0000 0000 0000 0000

fc0.weight f4 [32, 2315]
-0.004357701 0.008814929 0.0192191 0.0066023506 0.01853162 -0.00846886 0.019472517 -0.010787248
0.017480366 0.010433188 -0.0016244892 0.017195284 0.00086382404 0.020086564 0.020552859 0.019952279
-0.020719824 -0.01988453 0.010222303 0.0055162627 -0.020333922 0.014278341 -0.0007762164 0.017374348
-0.018834794 0.013821851 -0.0038877167 0.0016122572 0.0130372755 -0.010089437 -0.006396832 -0.019325186
0.0036242362 -0.0068158396 -0.01198172 -0.011908576 0.019954097 0.005410591 0.017103672 -0.008235307
-0.015473023 0.0058951452 0.012005046 -0.005812713 -0.0012361743 -0.014405549 -0.019806348 0.00076827966
0.008113958 -0.003907511 -0.0069007445 0.006157823 0.008600224 0.019870058 0.0011163391 -0.013914276
-0.0052885106 -0.0027953759 -0.0056370627 0.011218406 0.007103866 0.013325375 -0.014985708 0.014197271
-0.007386703 -0.014468076 0.0064643174 -0.013957499 0.01440664 0.010807697 -0.015858477 -0.012477423
0.0070257504 -0.009042338 0.011029493 0.004284231 -0.013884973 0.017957926 0.0061430316 0.018431496
-0.0004942324 -0.003518708 0.007637216 -0.0019362997 -0.020593058 -0.019525604 -0.011782855 -0.018882576
-0.004883282 -0.017376315 0.0060378313 -0.019472051 -0.0036501065 -0.01810685 -0.018111562 0.0155225545
0.009944379 0.0067675672 0.018710613 0.01637156 -0.007238875 0.0139008835 -0.0038771722 0.00901814
-0.005940957 0.002597833 -0.0008757189 -0.017294396 -0.0149471145 0.009248354 -0.005436952 -0.0021932032
0.012853876 -0.007924718 -0.008375124 -0.015520888 0.012326505 0.010200404 -0.0021217708 0.007865641
-0.012358992 -0.0128005445 0.017387439 -0.0012300741 -0.011173697 0.0110861175 0.010924626 -0.003616672
0.0077599715 0.004139181 0.012663521 -0.0018167067 0.001651058 -0.006224137 0.0092405435 0.00089142285
0.006633615 -0.016573928 -0.016710706 -0.0009842962 -0.016812164 -0.0046735555 -0.016770275 0.013718236
0.004247289 -0.01308303 0.016785033 0.01868968 0.0070454907 0.00279589 -0.0067111226 -0.006318668
0.017151374 0.009878095 -0.015703397 0.011802286 -0.0033297688 0.013495546 -0.010002843 0.003396457
-0.010222965 0.020005614 0.00079878606 0.0034053363 -0.007420173 -0.003076259 0.0029549804 0.0068342574
-0.004568264 0.003892459 0.009280473 -0.015370358 0.0034329556 0.00353181 0.0040666685 0.0071271546
-0.0038024131 -0.0013277605 -0.01997574 0.017107166 -0.017038643 -0.011820485 -0.017345633 -0.006040699
-0.015858237 -0.009039659 -0.019384468 0.010299224 -0.016876282 -0.0011889692 -0.010293441 0.008742826
0.015432015 -0.014266814 -0.0036131423 0.0028576516 0.0020280052 0.012230296 -0.009628671 0.0016364288
0.006262958 0.0007208977 0.014208987 0.013815042 -0.017730579 0.0061624125 0.008799598 -0.01655262
0.0020361375 0.016348056 0.018533476 0.015522022 0.017547488 -0.017496374 -0.011265408 -0.018734798
0.018862154 0.014054805 -0.01640048 0.009917274 -0.008179169 -0.0014109369 5.9645623e-05 0.012322951
0.016431492 0.0066246707 -0.018802969 -0.006714834 -0.013912326 0.017545275 0.0027125105 -0.00034210645
-0.02000785 0.01382209 -0.016239159 -0.0077030454 -0.013486331 0.0149907805 -0.0011033155 -0.0072357394
0.0036933552 0.004562393 -0.018933846 0.009748926 0.00040226057 -0.019057535 -0.0077147866 0.013422705
0.015320122 0.0118411705 0.020724278 0.006819878 -0.0006084759 -0.016265932 -0.015189958 -0.005279973
00000000: 0ccb 8ebb 7e6c 103c 6071 9d3c 8858 d83b
00000010: a0cf 973c f9c0 0abc d484 9f3c ffbc 30bc
00000020: fc32 8f3c f6ef 2a3c d0ec d4ba 20dd 8c3c
00000030: 4072 623a 948c a43c 785e a83c f672 a33c
00000040: 9fbc a9bc e2e4 a2bc 727b 273c c4c1 b43b
00000050: 5393 a6bc b4ef 693c 007b 4bba a654 8e3c
00000060: 6d4b 9abc 0c75 623c 10c9 7ebb 6052 d33a
00000070: 4c9a 553c 2a4e 25bc 849c d1bb da4f 9ebc
00000080: 9884 6d3b 6857 dfbb fa4e 44bc 301c 43bc
00000090: c676 a33c 544b b13b 001d 8c3c 62ed 06bc
000000a0: 9082 7dbc 102c c13b d0b0 443c 9278 bebb
000000b0: 2007 a2ba 4005 6cbc ec40 a2bc 6066 493a
000000c0: 68f0 043c 940a 80bb a41f e2bb 90c7 c93b
000000d0: f4e7 0c3c 88c6 a23c 2052 923a b4f8 63bc
000000e0: 3e4b adbb a032 37bb 1cb7 b8bb 68cd 373c
000000f0: 8cc7 e83b ac52 5a3c 9d86 75bc ac9b 683c
00000100: 280c f2bb 820b 6dbc a0d2 d33b fead 64bc
00000110: d409 6c3c c412 313c a3e9 81bc 1b6e 4cbc
00000120: 4438 e63b 5026 14bc 0cb5 343c bc62 8c3b
00000130: cc7d 63bc 801c 933c 7c4b c93b a6fd 963c
00000140: 608f 01ba 209a 66bb 9c41 fa3b 70cb fdba
00000150: c6b2 a8bc 29f4 9fbc e00c 41bc a2af 9abc
00000160: f003 a0bb c658 8ebc 00d9 c53b da83 9fbc
00000170: a036 6fbb d154 94bc b35e 94bc 5052 7e3c
00000180: c0ed 223c 78c2 dd3b 0047 993c a61d 863c
00000190: 1634 edbb 88c0 633c 2818 7ebb d2c0 133c
000001a0: 5cac c2bb 6840 2a3b 8090 65ba faac 8dbc
000001b0: bee4 74bc 6886 173c 7628 b2bb d8bb 0fbb
000001c0: 1099 523c add6 01bc d137 09bc 534b 7ebc
000001d0: 1cf5 493c 981f 273c 680d 0bbb e4de 003c
000001e0: 5f7d 4abc 60b9 51bc 1a70 8e3c 703a a1ba
000001f0: e211 37bc 8ca2 353c 34fd 323c b005 6dbb
00000200: 5c47 fe3b f8a1 873b a87a 4f3c 901e eeba
00000210: 5068 d83a d8f3 cbbb a665 173c 60ae 693a
00000220: cc5e d93b 0cc6 87bc e4e4 88bc 8003 81ba
00000230: aab9 89bc a024 99bb d161 89bc 74c2 603c
00000240: d82c 8b3b 345a 56bc c480 893c 1a1b 993c
00000250: dcdd e63b 403b 373b fae8 dbbb d40c cfbb
00000260: 0a81 8c3c bcd7 213c 69a4 80bc 605e 413c
00000270: 4038 5abb 6c1c 5d3c f7e2 23bc 1897 5e3b
00000280: 397e 27bc d0e2 a33c a065 513a 102c 5f3b
00000290: ec24 f3bb 109b 49bb 58a8 413b e8f1 df3b
000002a0: 60b1 95bb a018 7f3b 200d 183c f4d3 7bbc
000002b0: 70fb 603b f075 673b b041 853b e88a e93b
000002c0: e831 79bb 4008 aeba 2aa4 a3bc 5424 8c3c
000002d0: a094 8bbc b5aa 41bc 6e18 8ebc 0ef1 c5bb
000002e0: 22e9 81bc 141b 14bc 2dcc 9ebc 14be 283c
000002f0: 2140 8abc 30d7 9bba d2a5 28bc 123e 0f3c
00000300: 90d6 7c3c 5bbf 69bc 78ca 6cbb 7047 3b3b
00000310: 48e8 043b 9461 483c 93c1 1dbc 707d d63a
00000320: 8039 cd3b a0fa 3c3a d0cc 683c 7c58 623c
00000330: b83f 91bc 10ee c93b 302c 103c 5c99 87bc
00000340: b870 053b 5cec 853c 84d3 973c 1450 7e3c
00000350: c0bf 8f3c 8e54 8fbc 8c92 38bc b879 99bc
00000360: ce84 9a3c 2046 663c 4d5a 86bc 107c 223c
00000370: ec01 06bc 30ef b8ba 002c 7a38 34e6 493c
00000380: 569b 863c c413 d93b af08 9abc 1c08 dcbb
00000390: 86f0 63bc 1cbb 8f3c 60c4 313b c05c b3b9
000003a0: 81e7 a3bc 0c76 623c fc07 85bc d469 fcbb
000003b0: c6f5 5cbc e49b 753c 209d 90ba c819 edbb
000003c0: 380c 723b 2080 953b 271b 9bbc f6b9 1f3c
000003d0: 80e6 d239 8c1e 9cbc 52cc fcbb e8ea 5b3c
000003e0: 4001 7b3c 7801 423c f6c5 a93c 4879 df3b
000003f0: 2082 1fba 2240 85bc 4ddf 78bc a003 adbb

fc0.bias f4 [32]
-0.0079180105 0.017469488 0.015623353 -0.014317643 -0.020015199 -0.01444856 -0.0080651175 0.011079192
-0.007021876 0.003368765 8.7244436e-05 -0.0060719717 -0.005529876 -0.016265944 -0.014204274 0.01407484
0.018791933 0.0027216002 0.014566436 -0.010387977 -0.0040988326 0.019414209 -0.001017712 -0.017630776
-0.020720908 0.00066602044 -0.0137126595 -0.011988071 -0.0100275725 -0.009587463 -0.000932239 -0.017681135
00000000: 8bba 01bc 2c1c 8f3c 18f9 7f3c 8c94 6abc
00000010: eaf6 a3bc a7b9 6cbc 8e23 04bc 8085 353c
00000020: c417 e6bb 80c6 5c3b 00f7 b638 64f7 c6bb
00000030: f633 b5bb 2840 85bc 0bb9 68bc 289a 663c
00000040: 8af1 993c e05c 323b 10a8 6e3c 5532 2abc
00000050: 804f 86bb 8c0a 9f3c c064 85ba 6b6e 90bc
00000060: e5be a9bc e097 2e3a 10ab 60bc 9d69 44bc
00000070: b04a 24bc bc14 1dbc 8061 74ba 07d8 90bc

fc1.weight f4 [32, 32]
-0.028566942 -0.20137276 0.13959734 0.15119746 0.0014450857 0.11308266 -0.12047786 -0.024431497
-0.1758989 0.18434139 0.21903919 -0.070304476 -0.21561603 -0.42775774 0.12566239 0.005016671
0.14976434 -0.24838138 -0.12882899 0.043937128 -0.02901303 0.17997791 -0.20082572 -0.15632844
0.021142678 -0.0059983707 0.14429739 -0.09304348 -0.37851512 0.21725172 -0.025625147 0.14600408
-0.096757494 -0.18871047 -0.55962783 0.033916652 0.0714973 -0.12692714 0.23641893 -0.16113015
0.11142579 -0.7031384 -0.13762893 -0.09244658 0.068708 -0.01937429 0.12546898 0.16954862
0.08682064 0.09157472 0.13701257 0.21620232 -0.071150534 -0.20209482 0.08629032 -0.033445142
0.124616265 0.3001293 0.08497299 0.13895041 0.048497282 -0.72957295 0.14619261 0.0756874
0.18883242 0.094650395 0.030159136 0.13206287 -0.041559987 -0.09285417 -0.08732016 -0.03448744
-0.28705156 -0.163244 0.06338463 0.18497066 0.2586277 0.1453449 -0.05617354 0.15334901
0.2942128 0.21436675 0.0781485 0.17760934 0.061504886 0.16979769 0.06707693 0.09460741
0.19754738 0.056614254 0.2490654 0.1179241 0.26948962 -0.097166434 0.24461074 0.17291063
0.029351827 0.030239893 0.12508085 -0.063924536 0.21659051 -0.09232565 0.18502724 -0.09062472
0.05515308 0.16987936 0.23119068 0.06584956 -0.036210243 -0.47707823 0.20191872 0.0028789842
0.05779764 -0.50160235 -0.27983177 0.29135767 -0.36621726 -0.014912004 0.036982514 -0.044422552
0.0887899 -0.14178377 -0.04270467 -0.1439237 -0.58961153 0.25856274 -0.0818799 -0.088133305
0.10734559 -0.17094283 -0.42258117 0.09406748 0.095997125 -0.12436632 0.10056783 0.054237712
0.091871314 -0.40886542 -0.13537967 0.03622137 -0.15720427 0.16158059 0.002032796 0.061873097
0.29989707 -0.048791718 0.23706967 -0.043530323 0.0010670021 0.12401851 0.00032085046 -0.04332166
0.012581213 0.20795028 0.32484344 0.037749764 0.14650142 -0.5620337 -0.06445663 0.038477045
0.053848404 -0.06039541 -0.33744663 -0.1771799 0.22467741 0.015226061 0.12723608 -0.028802872
0.1790253 -0.63394314 -0.18138577 -0.09813629 -0.14654078 -0.039250277 -0.10346723 0.040147804
-0.018725289 0.056373492 0.14484237 0.059037592 -0.010841322 0.048670348 0.1352204 0.16274779
0.116406515 -0.08868783 0.23187499 0.208778 0.055550557 -0.45626953 -0.023640767 -0.08526546
-0.4302292 -0.5772138 -0.08615427 -0.09011354 -0.05739944 -0.3926812 0.11956758 -0.229882
-0.07615701 0.013948666 -0.13586974 -0.12383239 -0.19016933 0.0011502199 -0.1338364 -0.34065077
-0.23298343 0.030037574 0.2167469 0.3919419 -0.2178933 -0.5611515 -0.6056176 0.1766744
0.07612724 -0.0006281638 -0.09189681 -0.048832495 -0.1328738 0.6661711 -0.007217074 0.026744187
-0.0076779174 -0.15291366 0.14884374 0.026449054 0.15073118 0.2396617 -0.19734666 -0.04981153
-0.30521733 -0.13285607 0.2315755 0.04002025 0.058996536 0.049082525 0.059998147 -0.16758798
0.32700762 0.009454199 0.121074356 -0.11406521 -0.14330608 0.0022416224 -0.17070317 0.16470665
0.057331115 0.009225731 0.12958671 0.3562205 -0.11208955 -0.22915393 -0.006069141 0.111773886
00000000: 3805 eabc a934 4ebe 9bf2 0e3e 82d3 1a3e
00000010: 0869 bd3a e297 e73d 19bd f6bd 9024 c8bc
00000020: d71e 34be fdc3 3c3e cf4b 603e cbfb 8fbd
00000030: 73ca 5cbe 1003 dbbe a4ad 003e e362 a43b
00000040: d35b 193e b057 7ebe bfeb 03be 6bf7 333d
00000050: bcac edbc 214c 383e 42a5 4dbe 9014 20be
00000060: 6933 ad3c fb8d c4bb b2c2 133e 948d bebd
00000070: bccc c1be 3c77 5e3e d4eb d1bc 1882 153e
00000080: cb28 c6bd 513d 41be c543 0fbf 30ec 0a3d
00000090: 2d6d 923d 30f9 01be ce17 723e 4dff 24be
000000a0: 3433 e43d e100 34bf 99ee 0cbe a254 bdbd
000000b0: c8b6 8c3d d5b6 9ebc f17a 003e 279e 2d3e
000000c0: 05cf b13d 878b bb3d 064d 0c3e 2464 5d3e
000000d0: 5fb7 91bd f2f1 4ebe fbb8 b03d c6fd 08bd
000000e0: d036 ff3d 8caa 993e 5206 ae3d 0449 0e3e
000000f0: 16a5 463d 4bc5 3abf 84b3 153e ff01 9b3d
00000100: 495d 413e 11d8 c13d 4b10 f73c 7d3b 073e
00000110: ce3a 2abd 542a bebd e9d4 b2bd b442 0dbd
00000120: 6cf8 92be 6f29 27be cdcf 813d f368 3d3e
00000130: da6a 843e 4bd5 143e 3a16 66bd 8607 1d3e
00000140: 0fa3 963e f582 5b3e 520c a03d 39df 353e
00000150: 8cec 7b3d 72df 2d3e a15f 893d 88c1 c13d
00000160: dc49 4a3e 59e4 673d 000b 7f3e 3182 f13d
00000170: 8bfa 893e 32ff c6bd 3d7b 7a3e 7c0f 313e
00000180: 3e73 f03c a7b9 f73c 3215 003e deea 82bd
00000190: e7c9 5d3e 3b15 bdbd c877 3d3e 7499 b9bd
000001a0: 32e8 613d dbf4 2d3e 40bd 6c3e 22dc 863d
000001b0: 3151 14bd 9943 f4be c8c3 4e3e 57ad 3c3b
000001c0: 38bd 6c3d 0369 00bf 1c46 8fbe d52c 953e
000001d0: d480 bbbe 7a51 74bc fa7a 173d 6cf4 35bd
000001e0: 7bd7 b53d c42f 11be 18eb 2ebd bc60 13be
000001f0: c8f0 16bf 5662 843e a6b0 a7bd 3c7f b4bd
00000200: 01d8 db3d a30b 2fbe 8f5c d8be 73a6 c03d
00000210: 249a c43d c5b3 febd 82f6 cd3d 5d28 5e3d
00000220: 0727 bc3d cf56 d1be f8a0 0abe dc5c 143d
00000230: 28fa 20be 6275 253e a838 053b a56e 7d3d
00000240: 1c8c 993e d3d9 47bd 64c2 723e da4c 32bd
00000250: a6da 8b3a 6bfd fd3d d237 a839 0e72 31bd
00000260: 6f21 4e3c ebf0 543e e151 a63e 7f9f 1a3d
00000270: 7804 163e 71e1 0fbf d601 84bd 1b9a 1d3d
00000280: 2590 5c3d 2d61 77bd cec5 acbe a66e 35be
00000290: d611 663e bb76 793c 2d4a 023e 00f4 ebbc
000002a0: 6952 373e 194a 22bf 31bd 39be aefb c8bd
000002b0: c90e 16be e6c4 20bd a1e6 d3bd 0672 243d
000002c0: c765 99bc e4e7 663d 8f51 143e 67d1 713d
000002d0: cd9f 31bc 8f5a 473d 3777 0a3e 5ba7 263e
000002e0: 8a66 ee3d f7a1 b5bd a370 6d3e e6c9 553e
000002f0: fb88 633d 299c e9be 48aa c1bc a89f aebd
00000300: 0047 dcbe 49c4 13bf a671 b0bd 738d b8bd
00000310: ad1b 6bbd 830d c9be d9df f43d 3066 6bbe
00000320: 35f8 9bbd f288 643c 7021 0bbe d69b fdbd
00000330: c0bb 42be fac2 963a 690c 09be c769 aebe
00000340: 3593 6ebe 5c11 f63c e6f2 5d3e 9cac c83e
00000350: 6c1f 5fbe a0a7 0fbf c109 1bbf 22ea 343e
00000360: 99e8 9b3d 5cab 24ba 6534 bcbd 9504 48bd
00000370: 1210 08be 308a 2a3f 347d ecbb a016 db3c
00000380: 0a97 fbbb 6695 1cbe 7e6a 183e b0ab d83c
00000390: 4659 1a3e e069 753e 3e15 4abe 2d07 4cbd
000003a0: 7245 9cbe 6c0b 08be 2122 6d3e 46ec 233d
000003b0: 5aa6 713d c20a 493d 9ec0 753d 2f9c 2bbe
000003c0: 8b6d a73e c9e5 1a3c d5f5 f73d 059b e9bd
000003d0: d4be 12be 2fe8 123b d0cc 2ebe dca8 283e
000003e0: 08d4 6a3d 8527 173c 61b2 043e 8962 b63e
000003f0: 358f e5bd 54a7 6abe a5df c6bb b5e9 e43d

fc1.bias f4 [32]
0.029542806 0.33671764 0.48613885 0.36483675 0.16493405 0.4532034 0.791326 0.25469777
0.21970627 0.10657933 0.35838228 0.0021306006 0.46679208 -0.089718156 0.08485106 0.5012312
0.151748 0.25111264 -0.08929041 -0.12764284 0.49398458 0.42268828 0.40866968 -0.22530419
0.019107923 0.29478592 0.42154807 0.3966945 0.47578976 0.40881068 0.26847994 0.227475
00000000: c103 f23c 4166 ac3e 31e7 f83e e2cb ba3e
00000010: 79e4 283e 470a e83e 5794 4a3f bf67 823e
00000020: aefa 603e 4446 da3d e27d b73e 8ca1 0b3b
00000030: 5fff ee3e 27be b7bd 64c6 ad3d b050 003f
00000040: d463 1b3e d691 803e e4dd b6bd ceb4 02be
00000050: 8ceb fc3e 996a d83e 273d d13e 24b6 66be
00000060: 3888 9c3c 2eee 963e 26d5 d73e 8b1b cb3e
00000070: b79a f33e a24f d13e 3476 893e 35ef 683e

fc2.weight f4 [3, 32]
0.09233294 -0.097718485 -0.049425036 0.08065597 -0.017864525 -0.099657826 -0.07802075 0.026134633
-0.07291058 -0.064600475 -0.09950836 0.0075410306 -0.057427786 -0.033388577 0.015031522 -0.034357138
0.045713708 0.03145946 0.013437756 0.0002951902 -0.08423761 -0.009830961 -0.0266333 0.008782054
0.28376937 0.07241244 -0.1037383 -0.060828112 -0.10881996 -0.07675971 -0.087399706 0.05493861
0.15121607 -0.028910946 -0.13486499 0.2249221 -0.025733452 -0.07288686 -0.10964565 -0.08756794
-0.033171304 -0.025577357 -0.082880676 -0.017198734 -0.14456253 -0.044357907 0.01508687 -0.035585433
-0.040327016 -0.17920862 0.14125478 -0.006141976 -0.04721816 -0.088570766 -0.084988765 -0.00018888252
-0.48236218 0.1442852 0.022418164 -0.1418293 -0.077333264 -0.14894183 -0.05956137 0.24085338
-0.06656945 -0.20994909 -0.07178724 -0.04832364 -0.10865545 -0.11766889 0.5657591 -0.10744293
-0.15955949 -0.14753652 -0.1110466 -0.018717883 -0.09820961 0.06472769 -0.15756613 -0.124456525
-0.056968395 0.10654307 -0.04930896 -0.0027423454 -0.15753213 -0.14411215 -0.069339715 -0.0019798025
0.2452393 -0.054936837 0.17976956 -0.10055514 -0.13383423 -0.09514005 -0.11284229 -0.06517106
00000000: 0d19 bd3d a120 c8bd e871 4abd f52e a53d
00000010: a058 92bc 6719 ccbd 58c9 9fbd 4c18 d63c
00000020: 2452 95bd 414d 84bd 0acb cbbd c01a f73b
00000030: 6639 6bbd 76c2 08bd c646 763c 12ba 0cbd
00000040: 4c3e 3b3d a2db 003d 092a 5c3c c2c3 9a39
00000050: c584 acbd 0a12 21bc 142e dabc 9be2 0f3c
00000060: 384a 913e f94c 943d bf74 d4bd e626 79bd
00000070: 00dd debd 3234 9dbd 9efe b2bd 4f07 613d
00000080: 63d8 1a3e a6d6 ecbc 0c1a 0abe fb51 663e
00000090: f6ce d2bc b545 95bd e68d e0bd d256 b3bd
000000a0: a2de 07bd 9b87 d1bc 58bd a9bd 5ce4 8cbc
000000b0: 3308 14be a3b0 35bd eb2e 773c 08c2 11bd
000000c0: f12d 25bd 7782 37be 18a5 103e a142 c9bb
000000d0: d467 41bd 9764 b5bd 970e aebd c40e 46b9
000000e0: 2df8 f6be 80bf 133e 4ca6 b73c b33b 11be
000000f0: e760 9ebd 3584 18be a0f6 73bd 45a2 763e
00000100: 9055 88bd e5fc 56be 3005 93bd 02ef 45bd
00000110: c086 debd 63fc f0bd 97d5 103f 0a0b dcbd
00000120: 9063 23be d013 17be 666c e3bd 3f56 99bc
00000130: 1f22 c9bd f38f 843d 0459 21be 10e3 febd
00000140: b157 69bd 4133 da3d 31f8 49bd ecb8 33bb
00000150: 1a50 21be 2392 13be fb01 8ebd 93bf 01bb
00000160: 0320 7b3e 7305 61bd 8315 383e daef cdbd
00000170: d70b 09be c9d8 c2bd dc19 e7bd 6878 85bd

fc2.bias f4 [3]
-0.59273934 -0.42693064 0.95278513
00000000: c4bd 17bf a796 dabe bae9 733f

road_emb.0.weight f4 [144]
1.3651918 1.0352342 1.2464519 1.0008495 0.96665716 1.0313017 1.1488202 1.1910672
1.2600216 0.6075176 1.0044583 1.043635 1.1303624 1.0278786 1.2231088 0.9429028
1.0768198 1.0557055 1.1141927 1.0621848 1.3421636 0.58677053 0.95213157 0.9614458
1.4392289 1.0205077 1.1600401 1.0329618 0.90630454 1.1323267 1.0951295 1.1887836
1.3147085 0.7575681 1.0589292 1.0401028 1.3629295 1.0413513 1.215676 0.84063196
1.0772277 1.0783712 1.5397127 1.1133176 1.3630291 0.72862375 0.9989587 0.9364737
1.3115594 1.0670903 1.1493162 0.9914281 0.996847 0.95908266 1.1891861 1.0814234
1.395034 0.63728344 1.001711 0.9112668 1.2840508 1.0824934 1.2069148 0.87132084
0.9229828 0.96946347 1.2919801 1.1388835 1.3394256 0.7881659 1.0430394 0.8898334
1.4385464 1.0312537 1.2771618 1.0221738 1.0697265 1.0697659 1.0692228 1.0596733
1.4056963 0.8306551 1.0399619 1.2629278 1.3592851 1.2266058 1.2540728 0.9093537
0.915888 0.9857983 1.2485442 1.0474662 1.2938164 0.6571417 1.0142905 1.32845
1.1446728 1.0064032 1.2674806 0.93918186 0.92411625 0.9985277 1.3324722 1.0859071
1.3652873 0.7593633 1.0341313 1.3097242 1.3566107 0.89554477 1.1564404 0.9814897
1.0112761 1.1632645 1.2173308 1.1256555 1.3598564 0.8373621 1.2655033 1.041427
1.1182829 1.0710186 1.2020478 1.0481019 1.1836987 1.0658665 1.1961293 1.1516302
1.3697717 0.80901307 1.2741101 1.0417129 1.3282641 1.0821717 1.170887 0.87970096
1.046213 1.0436782 1.0906912 1.1703342 1.4095258 0.84971505 1.2043586 1.070396
00000000: 9bbe ae3f 8e82 843f bc8b 9f3f d61b 803f
00000010: d876 773f b201 843f 8a0c 933f e474 983f
00000020: 6348 a13f 4686 1b3f 1792 803f d595 853f
00000030: b7af 903f 8791 833f d48e 9c3f 1462 713f
00000040: 3bd5 893f 5c21 873f de9d 8e3f acf5 873f
00000050: 04cc ab3f 9836 163f e5be 733f 5021 763f
00000060: a738 b83f ff9f 823f 327c 943f 1838 843f
00000070: 9303 683f 15f0 903f 342d 8c3f 102a 983f
00000080: 5e48 a83f fcef 413f fe8a 873f 1722 853f
00000090: 7974 ae3f 004b 853f 459b 9b3f a833 573f
000000a0: 99e2 893f 1108 8a3f 4e15 c53f 3181 8e3f
000000b0: bd77 ae3f 1687 3a3f c2bb 7f3f bebc 6f3f
000000c0: 2ee1 a73f 6a96 883f cb1c 933f 3bce 7d3f
000000d0: 5d31 7f3f 7186 753f 4037 983f 156c 8a3f
000000e0: 7990 b23f 0225 233f 1138 803f c848 693f
000000f0: c75b a43f 258f 8a3f 2f7c 9a3f e20e 5f3f
00000100: 9a48 6c3f c22e 783f 9b5f a53f efc6 913f
00000110: 4c72 ab3f 3ec5 493f 5182 853f 1fcc 633f
00000120: 4a22 b83f 1f00 843f 0a7a a33f 97d6 823f
00000130: ccec 883f 17ee 883f 4bdc 883f 60a3 873f
00000140: dbed b33f d0a5 543f 791d 853f 9ea7 a13f
00000150: 0efd ad3f 6b01 9d3f 7585 a03f 67cb 683f
00000160: a377 6a3f 475d 7c3f 4cd0 9f3f 5f13 863f
00000170: c79b a53f 703a 283f 45d4 813f a60a aa3f
00000180: a384 923f d2d1 803f ce3c a23f 396e 703f
00000190: e292 6c3f 839f 7f3f 738e aa3f 01ff 8a3f
000001a0: bcc1 ae3f a265 423f 6a5e 843f 0ba5 a73f
000001b0: 6ba5 ad3f 6c42 653f 3d06 943f e942 7b3f
000001c0: 7f71 813f dae5 943f 7fd1 9b3f 7b15 903f
000001d0: c60f ae3f 5d5d 563f 03fc a13f 7b4d 853f
000001e0: e523 8f3f 2317 893f b4dc 993f 3428 863f
000001f0: 7083 973f 506e 883f c41a 993f 9e68 933f
00000200: ae54 af3f 7b1b 4f3f 0a16 a33f d956 853f
00000210: 8f04 aa3f 9a84 8a3f a0df 953f 1534 613f
00000220: 4fea 853f 3f97 853f c59b 8b3f 83cd 953f
00000230: 576b b43f ed86 593f 6c28 9a3f bc02 893f

road_emb.0.bias f4 [144]
0.10601066 0.15614954 0.055932194 0.11561272 0.19111073 0.114809245 0.09262038 0.26515824
0.039944433 -0.43751222 0.215185 0.18137969 0.16927148 0.119009845 0.0855209 0.20992988
0.13624518 0.12939762 0.10420884 0.17159282 0.036208037 -0.46693206 0.1436992 0.16410404
0.09082076 0.13700977 0.2165548 0.08642858 0.2677785 0.19926587 0.099313855 0.21470255
0.030231146 -0.29342622 0.23052838 0.16678706 0.061939362 0.12879005 0.19758803 0.22808164
0.1257525 0.08586645 0.073292 0.28556558 0.012339158 -0.22340804 0.17798969 0.20368184
0.17616323 0.14774802 0.19136116 0.11715971 0.21959843 0.1452428 0.112408325 0.24645656
0.039809667 -0.36715055 0.17868003 0.21157949 0.11714128 0.11425802 0.23906916 0.18669896
0.21017963 0.10948266 0.024859916 0.23748851 -0.0008362565 -0.17180724 0.26088703 0.16887352
0.20166655 0.15784083 0.08102526 0.110689685 0.18303734 0.11790935 0.15477732 0.18927655
0.04018274 -0.17630689 0.16716127 0.12620328 0.15092649 0.081472285 0.07259365 0.17793082
0.16866457 0.17671806 0.051372766 0.24031898 0.039729398 -0.4017034 0.1706365 0.09222187
0.23667389 0.13930549 0.10776855 0.15652436 0.25744072 0.17905179 0.0848357 0.25453085
0.03956019 -0.22343677 0.28187767 0.083653994 0.12924746 0.20386158 0.2192539 0.11219241
0.19355084 0.046909705 0.21214065 0.11137622 0.034325518 -0.13726543 0.06619704 0.13165927
0.2607027 0.13766654 0.17315738 0.12707642 0.08473854 0.093138576 0.1590462 0.22841763
0.017452605 -0.16959189 0.14450593 0.1783513 0.18519558 0.11815196 0.24327768 0.15833423
0.09482968 0.11958861 0.22529994 0.14129323 0.04753154 -0.15006132 0.11748894 0.120946385
00000000: 1e1c d93d aae5 1f3e 2819 653d 5dc6 ec3d
00000010: 88b2 433e 1c21 eb3d c1af bd3d d2c2 873e
00000020: c69c 233d 9a01 e0be 7559 5c3e 99bb 393e
00000030: 8155 2d3e 6fbb f33d 9525 af3d dcf7 563e
00000040: db83 0b3e cf80 043e 726b d53d 07b6 2f3e
00000050: e14e 143d b811 efbe e225 133e e40a 283e
00000060: 3c00 ba3d 4a4c 0c3e 8bc0 5d3e 7801 b13d
00000070: 431a 893e 5a0c 4c3e 1065 cb3d fcda 5b3e
00000080: 4fa7 f73c f63b 96be a20f 6c3e 3aca 2a3e
00000090: 21b4 7d3d 8ae1 033e 8454 4a3e 3c8e 693e
000000a0: 43c5 003e c0da af3d 1e1a 963d a735 923e
000000b0: 2e2a 4a3c 14c5 64be ee42 363e f991 503e
000000c0: 2264 343e 424b 173e 2ef4 433e 6ef1 ef3d
000000d0: 69de 603e 87ba 143e 5636 e63d 1c5f 7c3e
000000e0: 760f 233d 28fb bbbe e6f7 363e 4ba8 583e
000000f0: c4e7 ef3d 1c00 ea3d 8cce 743e 032e 3f3e
00000100: 5439 573e 7238 e03d 06a7 cb3c 3030 733e
00000110: 3938 5bba 3dee 2fbe fc92 853e 2eed 2c3e
00000120: ad81 4e3e 07a1 213e 92f0 a53d 46b1 e23d
00000130: 246e 3b3e 757a f13d f27d 1e3e b6d1 413e
00000140: a896 243d cb89 34be 532c 2b3e 6f3b 013e
00000150: 798c 1a3e f1da a63d fbab 943d 7f33 363e
00000160: 68b6 2c3e 94f5 343e 406c 523d 2e16 763e
00000170: 4bbb 223d 11ac cdbe 56bb 2e3e d2de bc3d
00000180: a45a 723e 19a6 0e3e c2b5 dc3d ec47 203e
00000190: 45cf 833e 5a59 373e 57be ad3d de51 823e
000001a0: de09 223d 9ccc 64be 4552 903e c952 ab3d
000001b0: 7259 043e 17c1 503e 1884 603e 22c5 e53d
000001c0: 3132 463e 6424 403d 663b 593e 3719 e43d
000001d0: ea98 0c3d 4f8f 0cbe 5092 873d b0d1 063e
000001e0: d37a 853e 75f8 0c3e 2b50 313e 5220 023e
000001f0: 668b ad3d 70bf be3d 02dd 223e 50e6 693e
00000200: c4f8 8e3c 7fa9 2dbe 5df9 133e b9a1 363e
00000210: e9a3 3d3e a8f9 f13d c91d 793e 5e22 223e
00000220: 1036 c23d e0ea f43d 07b5 663e 2caf 103e
00000230: 6fb0 423d ada9 19be 0b9e f03d bdb2 f73d

road_emb.1.weight f4 [64, 144]
-0.17144537 -0.049656928 -0.5858737 -0.010742041 -0.04628136 0.0756242 0.034614254 0.13397007
0.06946704 -0.066042416 0.087684594 -0.035804734 0.06362174 -0.036718413 -0.38061908 -0.15775988
0.07513331 -0.10121758 0.16243626 0.03962119 -0.06854356 0.12189026 0.085137755 0.017416716
-0.13889773 0.096344456 -0.5798268 0.22625336 -0.100535475 0.08715178 0.027617091 0.13941327
-0.014873652 -0.052332744 0.12446969 0.073947735 -0.38013357 0.05562729 -0.31955895 -0.25000194
-0.18438041 0.064226046 0.40506446 -0.031679466 -0.18508984 0.23065896 -0.170543 0.051807467
0.031578843 -0.0026711451 -0.1951646 0.02429133 -0.12109068 -0.11069312 0.16957866 -0.15866376
-0.3098832 0.023236368 -0.0018425327 -0.035190262 0.003018061 0.06615733 -0.30012453 -0.061109696
0.09125268 0.13895492 -0.20783794 -0.19843505 -0.17961082 -0.12227328 0.0733264 -0.18139988
-0.22257571 0.16343403 -0.15106514 0.0026725424 -0.017375782 0.103625886 0.14128749 -0.07332209
-0.09515567 0.1768434 -0.014244759 -0.45054585 0.23496714 -0.07515013 -0.20805442 -0.122512005
0.026395751 0.22329593 -0.10637947 0.032190733 -0.33647358 0.013812048 0.10687185 -0.054487806
-0.04582775 0.111529626 -0.27509552 -0.15461841 -0.22250615 -0.014257849 0.111538924 -0.009974724
0.016969543 0.2851865 0.12679876 -0.10897933 -0.11513029 0.16388457 -0.11886062 -0.12987393
-0.18732718 0.016496964 0.11276265 -0.10234868 -0.13172975 0.12579286 -0.07611152 0.0711421
0.06838673 -0.10559944 0.14364763 -0.06308756 -0.10335573 5.1949424e-05 0.24950483 0.013259068
0.010134115 -0.024976281 -0.16423777 0.1539247 0.0030917937 0.11452602 0.091772266 -0.14247382
0.007237165 0.18666224 0.48519847 -0.14812736 -0.11424785 0.08466341 -0.35262838 0.06911561
-0.18660145 -0.015641829 -0.56726617 0.14247565 0.10079897 0.11329392 0.3250043 -0.05521005
0.12814869 0.09840277 0.06958054 -0.043025427 -0.08769569 0.0676417 -0.47231916 0.008520556
-0.0013835573 0.20879494 0.25623074 -0.21273379 0.054081656 -0.21207209 0.10504857 -0.2812568
-0.12141523 -0.110825434 -0.40128237 0.1954708 0.22955932 0.1138672 0.07390636 -0.16522439
0.34905842 -0.015344836 0.17550795 -0.1269093 -0.26810235 -0.05197316 -0.13157123 0.30725774
0.116275586 0.14982739 -0.005260987 -0.20458283 0.12785017 -0.09593188 -0.24428897 -0.049266327
-0.28375298 0.12860528 -0.028872235 0.1913253 0.2534273 0.08690853 0.10987896 -0.28795496
0.19133957 0.10318233 -0.08138608 -0.04272434 0.282263 -0.06250065 -0.16834152 0.16230147
0.08261179 0.122789554 0.29816225 -0.09230837 0.36220667 -0.10154858 -0.055654798 -0.017627986
-0.30462804 -0.096556894 -0.4798967 0.11685452 0.09696767 0.07401651 0.27284253 0.050045066
0.29940253 0.09664237 -0.016481843 -0.21950647 -0.22792538 0.07323597 -0.30426493 0.08454309
0.117051095 0.01289909 -0.006894448 -0.22156481 0.28776827 0.1649075 -0.13545649 -0.2783105
-0.027291605 -0.08579778 -0.35140875 -0.1163456 -0.0509755 -0.16534995 0.34709528 0.012876818
0.19623883 0.040912263 -0.21984045 -0.43960437 -0.4264265 0.10785978 -0.54018134 0.07868377
00000000: 608f 2fbe 1065 4bbd d2fb 15bf 63ff 2fbc
00000010: 8691 3dbd dce0 9a3d adc7 0d3d 732f 093e
00000020: bc44 8e3d 3f41 87bd fb93 b33d fca7 12bd
00000030: 1d4c 823d 0c66 16bd 81e0 c2be ce8b 21be
00000040: 7edf 993d 2a4b cfbd b155 263e d449 223d
00000050: 9160 8cbd 9aa1 f93d b45c ae3d 80ad 8e3c
00000060: 353b 0ebe 3e50 c53d 876f 14bf f6ae 673e
00000070: 8be5 cdbd a27c b23d 3d3d e23c 5ac2 0e3e
00000080: 9eb0 73bc dc5a 56bd f7e9 fe3d e971 973d
00000090: dea0 c2be 71d9 633d 3b9d a3be 4100 80be
000000a0: 38ce 3cbe f288 833d 9c64 cf3e 54c2 01bd
000000b0: 3188 3dbe dd31 6c3e d3a2 2ebe 1134 543d
000000c0: d158 013d 610e 2fbb 3bd9 47be 9cfe c63c
000000d0: 64fe f7bd 13b3 e2bd 07a6 2d3e c178 22be
000000e0: 03a9 9ebe 325a be3c 2381 f1ba aa23 10bd
000000f0: a9ca 453b 7f7d 873d eca9 99be 294e 7abd
00000100: afe2 ba3d 334a 0e3e 78d3 54be 8f32 4bbe
00000110: e6eb 37be 6a6a fabd 272c 963d e4c0 39be
00000120: e3ea 63be 405b 273e d2b0 1abe d225 2f3b
00000130: a857 8ebc cf39 d43d abad 103e e429 96bd
00000140: fae0 c2bd 7016 353e da62 69bc f2ad e6be
00000150: 3a9b 703e 50e8 99bd 380c 55be 93e7 fabd
00000160: e73b d83c b0a7 643e 7bdd d9bd 6eda 033d
00000170: 4446 acbe ee4b 623c a1df da3d 9b2e 5fbd
00000180: e1b5 3bbd a569 e43d 52d9 8cbe 4a54 1ebe
00000190: a7d8 63be c199 69bc 856e e43d 066d 23bc
000001a0: b603 8b3c f703 923e 89d7 013e 8e30 dfbd
000001b0: 6ec9 ebbd 5bd1 273e 326d f3bd acfd 04be
000001c0: b2d2 3fbe a424 873c 1bf0 e63d 2f9c d1bd
000001d0: 2ae4 06be d8cf 003e 5be0 9bbd f3b2 913d
000001e0: 580e 8c3d 8544 d8bd 5d18 133e 0d34 81bd
000001f0: 2bac d3bd 45e4 5938 327e 7f3e 903c 593c
00000200: 8f09 263c 0f9b ccbc f22d 28be 709e 1d3e
00000210: b19f 4a3b 9e8c ea3d 19f3 bb3d a8e4 11be
00000220: bd25 ed3b 6324 3f3e ef6b f83e b3ae 17be
00000230: c7fa e9bd 0364 ad3d b58b b4be 7c8c 8d3d
00000240: 7314 3fbe 4b23 80bc 5b38 11bf 23e5 113e
00000250: b16f ce3d a506 e83d f766 a63e ef23 62bd
00000260: 6939 033e 6487 c93d 3e80 8e3d 6e3b 30bd
00000270: cc99 b3bd bb87 8a3d d1d3 f1be cd99 0b3c
00000280: 7b58 b5ba 57ce 553e ad30 833e e3d6 59be
00000290: ba84 5d3d 6d29 59be b423 d73d e400 90be
000002a0: 8ca8 f8bd 72f8 e2bd e274 cdbe 7f29 483e
000002b0: 9911 6b3e 3533 e93d 385c 973d 9530 29be
000002c0: c9b7 b23e e868 7bbc 5bb8 333e 83f4 01be
000002d0: b644 89be cfe1 54bd 9cba 06be e350 9d3e
000002e0: e521 ee3d 5a6c 193e 5c64 acbb 297e 51be
000002f0: 28eb 023e ef77 c4bd e326 7abe 7dcb 49bd
00000300: 1248 91be 1ab1 033e 7785 ecbc c8ea 433e
00000310: 39c1 813e 19fd b13d 3808 e13d d56e 93be
00000320: 85ee 433e 4251 d33d bfad a6bd b8ff 2ebd
00000330: c784 903e 5700 80bd b861 2cbe 5b32 263e
00000340: 5f30 a93d 1779 fb3d b9a8 983e 2c0c bdbd
00000350: 2773 b93e b4f8 cfbd 49f6 63bd 9168 90bc
00000360: 35f8 9bbe 9fbf c5bd 05b5 f5be 6c51 ef3d
00000370: fc96 c63d f895 973d 04b2 8b3e 0efc 4c3d
00000380: 4a4b 993e 6fec c53d ee04 87bc 4ec6 60be
00000390: 4565 69be befc 953d 9dc8 9bbe ed24 ad3d
000003a0: 7cb8 ef3d b456 533c d2ea e1bb e3e1 62be
000003b0: 5d56 933e 83dd 283e 1bb5 0abe b77e 8ebe
000003c0: a592 dfbc bfb6 afbd d9eb b3be 9a46 eebd
000003d0: b0cb 50bd 7f51 29be 79b6 b13e 4af9 523c
000003e0: d5f2 483e 9e93 273d db1d 61be d313 e1be
000003f0: 9354 dabe 97e5 dc3d 5349 0abf f524 a13d

road_emb.1.bias f4 [64]
0.0429486 -0.012282139 -0.051476933 0.018358072 0.052662555 -0.019770026 -0.028570652 -0.010197862
-0.006473472 -0.04190638 -0.014664281 -0.00048605312 -0.10820624 -0.0022249327 0.04747156 -0.041982528
-0.049997244 -0.12009852 -0.13412645 0.0196017 -0.084153585 -0.11351336 -0.00061378855 -0.046816044
-0.011067688 0.06353504 -0.041307304 0.034366343 -0.073983334 -0.046527036 -0.016312012 0.01902099
0.010326446 0.08680446 0.03263796 -0.030086646 -0.0401945 -0.052024454 0.046776354 0.0039271866
-0.070381574 -0.034034487 -0.032393504 0.013425614 -0.012562966 -0.051296916 -0.07389308 0.038334884
0.029688936 -0.03245208 0.0074071055 -0.0019138393 -0.00077261054 0.004185894 -0.04586628 -0.010927211
-0.021819957 -0.14643769 -0.022921618 -0.02733809 -0.030555548 0.06824269 0.013108169 0.112028144
00000000: dfea 2f3d 063b 49bc 7ad9 52bd ab63 963c
00000010: b1b4 573d c0f4 a1bc 000d eabc ef14 27bc
00000020: 6b1f d4bb 06a6 2bbd 7442 70bc f2d4 feb9
00000030: 3c9b ddbd 2dd0 11bb 8a71 423d dff5 2bbd
00000040: e9c9 4cbd 36f6 f5bd 7258 09be bf93 a03c
00000050: b758 acbd b179 e8bd a7e6 20ba 2ec2 3fbd
00000060: 4055 35bc a91e 823d d931 29bd b9c3 0c3d
00000070: 9384 97bd 2293 3ebd c5a0 85bc e8d1 9b3c
00000080: 4130 293c 89c6 b13d 62af 053d 4578 f6bc
00000090: fda2 24bd 9817 55bd 9098 3f3d a1af 803b
000000a0: 3724 90bd bf67 0bbd 0daf 04bd 1bf7 5b3c
000000b0: e6d4 4dbc b71c 52bd 4155 97bd 0a05 1d3d
000000c0: 3636 f33c 79ec 04bd 4eb7 f23b cad9 faba
000000d0: 0489 4aba d329 893b 48de 3bbd 0b08 33bc
000000e0: c4bf b2bc c3f3 15be 1ec6 bbbc 21f4 dfbc
000000f0: a14f fabc d3c2 8b3d a5c3 563c 036f e53d

cav_emb.0.weight f4 [11]
1.091219 0.6584332 0.6771852 0.89839077 1.6376344 1.7010543 1.428239 1.0845485
0.8390519 0.8050642 1.009443
00000000: 10ad 8b3f 148f 283f 025c 2d3f f0fc 653f
00000010: 019e d13f 26bc d93f 89d0 b63f 7cd2 8a3f
00000020: 1bcc 563f b018 4e3f 6e35 813f

cav_emb.0.bias f4 [11]
0.037738845 0.03339067 0.041186474 0.060514703 0.0067488933 0.13096608 -0.006361055 0.12518062
0.11891085 -0.074280955 -0.082222566
00000000: 0c94 1a3d a8c4 083d 26b3 283d 44de 773d
00000010: d225 dd3b f91b 063e 6670 d0bb 592f 003e
00000020: 8887 f33d 9d20 98bd 4e64 a8bd

cav_emb.1.weight f4 [64, 11]
-0.21501654 0.11666939 0.088075764 -0.07225534 0.7480116 -0.30335122 0.10252834 0.058325514
0.079193436 -0.12712687 0.079115964 -0.22164194 -0.06726456 -0.2780904 -0.23352663 -0.58275247
0.33624882 -0.016776621 -0.17297685 -0.017255614 0.08635605 0.3040957 -0.2219211 -0.42640477
-0.13399005 0.015850639 0.7243116 0.2505018 -0.07529771 0.07886793 0.22441249 -0.31789127
0.48824263 0.12220182 -0.22104527 -0.0658974 -0.24360178 -0.79785764 1.133235 -0.45191348
-0.13931353 -0.081614554 0.009263938 -0.16684672 -0.31481022 0.3349336 -0.02117013 -0.13778386
-0.08278248 0.000595171 0.33347785 0.06346923 0.05743513 -0.09402259 0.11676809 -0.21113119
-0.15745115 0.27779257 -0.054721743 0.5304154 0.08644082 -0.1601877 -0.26729605 0.08399467
-0.041117888 0.008498582 -0.23757985 -0.05768049 -0.04871462 -0.32074532 0.22764663 -0.004266698
-0.26181296 0.19215329 -0.096036576 -0.08346791 -0.04174826 0.05251286 0.056559864 0.032677073
0.33095273 -0.0041040457 -0.18980873 0.80276144 0.003198336 0.32794338 -0.49273792 -0.20902668
-0.27583858 -0.10868396 0.054482993 0.13354313 0.39120358 -0.1226555 -0.2618734 0.19330305
0.15146498 0.15462975 0.15578517 -0.4705303 0.13385014 0.13732804 0.22798757 -0.35374984
-0.2977224 0.5519006 -0.00640401 -0.046934087 0.049240176 0.23169604 -0.15224537 -0.06839072
0.11198524 -0.08415077 0.72137994 -0.05088827 0.039194074 -0.07381422 0.059175126 -0.21516474
0.10511721 -0.039821714 -0.21986142 -0.082293145 -0.032512598 -0.3856609 -0.08457391 0.36319822
-0.03704988 0.05831308 0.30161795 0.20209156 -0.2818417 0.11050959 0.115970165 -0.08704363
0.75255126 0.13163885 -0.17786486 0.22842695 0.004416855 -0.36805573 0.2481641 -0.24960878
-0.12248254 0.09735559 -0.22450855 0.59643614 0.0083152 -0.22109683 -0.2297934 0.15275308
-0.28239045 0.12064028 -0.2939848 -0.3259736 0.17366117 -0.014709938 0.4802908 0.06944814
0.2338717 0.0014236659 0.039639506 0.7163748 -0.049808726 -0.30267116 -0.16335978 -0.04854669
0.09057735 -0.0009849757 -0.13717389 0.14763156 -0.08321477 0.015517324 -0.37201124 0.50731814
-0.060126167 -0.26394728 -0.04401182 0.00069756544 -0.19403733 0.6961353 -0.43395892 0.024666274
0.01837193 0.04874581 -0.3710082 0.23033555 -0.016972274 -0.20189558 0.28565776 -0.19851805
0.05539428 0.2527971 -0.13296738 -0.20661868 -0.3047563 -0.20671405 0.12299338 -0.08446146
0.012267597 -0.07473097 0.25920454 0.06913926 -0.023622705 0.38555723 0.2050608 0.0033844307
0.13293605 -0.07468268 0.119685024 0.19416687 0.042888194 0.5124286 0.05350694 0.17726347
-0.16842864 -0.049474068 -0.068833865 0.20502822 -0.3086113 -0.25837138 -0.28495297 -0.0035288862
-1.080463 0.8276469 0.33656925 0.00155433 -0.19626807 -0.19014905 -0.3806332 -0.19809875
-0.008088168 0.24680007 0.08971408 0.7251176 -0.3985725 -0.21698333 0.2666367 0.14037979
-0.21734622 -0.04489789 -0.103471614 -0.16123272 -0.0029912936 0.15289584 -0.23220432 -0.13772312
-0.43214163 0.27668506 0.19236565 0.13790318 0.11314096 -0.10658173 -0.07154981 0.23001048
00000000: 4c2d 5cbe 5cf0 ee3d 1161 b43d 9cfa 93bd
00000010: b07d 3f3f da50 9bbe 61fa d13d bce6 6e3d
00000020: 2b30 a23d 8c2d 02be 8d07 a23d 1bf6 62be
00000030: 00c2 89bd dd61 8ebe 9b21 6fbe 442f 15bf
00000040: ce28 ac3e 206f 89bc d820 31be a55b 8dbc
00000050: 71db b03d 6eb2 9b3e 493f 63be ba51 dabe
00000060: b034 09be 33d9 813c 7c6c 393f c641 803e
00000070: b035 9abd 8285 a13d 63cc 653e a5c2 a2be
00000080: f0fa f93e f344 fa3d b159 62be 37f5 86bd
00000090: bf72 79be 6640 4cbf d80d 913f 3461 e7be
000000a0: 35a8 0ebe 8825 a7bd c6c7 173c ded9 2abe
000000b0: ce2e a1be 6b7c ab3e fb6c adbc 3617 0dbe
000000c0: dc89 a9bd 4005 1c3a 9cbd aa3e 28fc 813d
000000d0: 1941 6b3d ea8e c0bd 1c24 ef3d c632 58be
000000e0: e03a 21be d43a 8e3e e823 60bd 4ec9 073f
000000f0: e207 b13d 3f08 24be 07db 88be 6605 ac3d
00000100: 3b6b 28bd a33d 0b3c 2248 73be 6142 6cbd
00000110: fb88 47bd bb38 a4be 331c 693e a8cf 8bbb
00000120: 590c 86be d5c3 443e d3ae c4bd 39f1 aabd
00000130: 3900 2bbd ba17 573d 51ab 673d 65d8 053d
00000140: a372 a93e 3b7b 86bb 385d 42be c681 4d3f
00000150: 2d9b 513b 32e8 a73e 2548 fcbe 170b 56be
00000160: b73a 8dbe b295 debd 8f29 5f3d 88bf 083e
00000170: d64b c83e cf32 fbbd 4514 86be 3cf1 453e
00000180: a319 1b3e 4357 1e3e 2686 1f3e 59e9 f0be
00000190: 0310 093e b99f 0c3e 9375 693e b31e b5be
000001a0: 126f 98be 5c49 0d3f bbd8 d1bb f53d 40bd
000001b0: 11b0 493d ba41 6d3e 36e6 1bbe 6f10 8cbd
000001c0: 8458 e53d 3d57 acbd 5bac 383f 3870 50bd
000001d0: f789 203d e92b 97bd 9e61 723d 2554 5cbe
000001e0: b147 d73d 181c 23bd 5a23 61be 4f89 a8bd
000001f0: ee2b 05bd 5875 c5be 1635 adbd 1ef5 b93e
00000200: 9dc1 17bd b2d9 6e3d ab6d 9a3e 17f1 4e3e
00000210: 8e4d 90be da52 e23d c481 ed3d ee43 b2bd
00000220: 33a7 403f 56cc 063e 3522 36be c1e8 693e
00000230: 44bb 903b cd71 bcbe bb1e 7e3e 7299 7fbe
00000240: 20d8 fabd 5e62 c73d 92e5 65be 0ab0 183f
00000250: 7a3c 083c 3567 62be f64e 6bbe 4e6b 1c3e
00000260: 7b95 90be 4012 f73d 2d85 96be 03e6 a6be
00000270: 3cd4 313e f401 71bc ade8 f53e d43a 8e3d
00000280: 107c 6f3e 4d9a ba3a 095d 223d 5764 373f
00000290: 3c04 4cbd b7f7 9abe c947 27be e5d8 46bd
000002a0: 9e80 b93d 4d1a 81ba 5077 0cbe ba2c 173e
000002b0: 816c aabd 603c 7e3c 4278 bebe 9adf 013f
000002c0: db46 76bd 1924 87be bd45 34bd d3dc 363a
000002d0: b9b1 46be ec35 323f dd2f debe ed10 ca3c
000002e0: bb80 963c b0a9 473d c9f4 bdbe 15dd 6b3e
000002f0: 7009 8bbc b7bd 4ebe bc41 923e 5148 4bbe
00000300: 1de5 623d 9f6e 813e 9a28 08be d993 53be
00000310: 0509 9cbe d9ac 53be f4e3 fb3d 21fa acbd
00000320: 08fe 483c 8d0c 99bd 75b6 843e e298 8d3d
00000330: 6784 c1bc c267 c53e 75fb 513e 53cd 5d3b
00000340: 6320 083e 3cf3 98bd 6c1d f53d aed3 463e
00000350: 88ab 2f3d 852e 033f 182a 5b3d 8e84 353e
00000360: 8f78 2cbe 52a5 4abd c5f8 8cbd ebf2 513e
00000370: 4d02 9ebe 4149 84be 5be5 91be e344 67bb
00000380: 9d4c 8abf abe0 533f ce52 ac3e a9ba cb3a
00000390: 7ffa 48be 6fb6 42be 5be2 c2be 66da 4abe
000003a0: 3c84 04bc 28b9 7c3e 04bc b73d 4fa1 393f
000003b0: b211 ccbe e130 5ebe 9b84 883e b8bf 0f3e
000003c0: 0290 5ebe dae6 37bd ede8 d3bd 311a 25be
000003d0: 9409 44bb ba90 1c3e f8c6 6dbe 4a07 0dbe
000003e0: ab41 ddbe aaa9 8d3e 80fb 443e 7e36 0d3e
000003f0: 73b6 e73d 8647 dabd b588 92bd de87 6b3e

cav_emb.1.bias f4 [64]
-0.019657638 0.086623296 0.03222677 0.21555297 -0.018001085 -0.071041286 0.015740877 -0.1015611
-0.08878008 0.04079819 -0.10659901 0.04250464 -0.025451705 -0.1542361 0.08295322 -0.037442964
0.028717842 0.04339503 -0.121375635 -0.15987593 -0.1315937 -0.0767691 -0.06353161 -0.014455755
0.006899747 -0.09438847 0.04542687 -0.032799937 -0.04766345 -0.06614475 -0.121826574 0.04526062
0.014220151 -0.013067856 0.0839255 -0.022430925 -0.028367255 -0.15237156 0.03391517 -0.022067709
-0.07161825 -0.010354277 -0.079468325 0.110550925 -0.0026876088 0.06770033 0.0075707952 0.0030824936
-0.023090126 -0.11977618 -0.0029644715 -0.10122962 -0.08438523 -0.1320264 -0.1011478 -0.069751926
-0.10321801 -0.013284884 0.002439123 -0.13503416 0.06079332 -0.18117332 0.013961877 -0.054611403
00000000: 0e09 a1bc 8e67 b13d 3800 043d ebb9 5c3e
00000010: 0377 93bc 187e 91bd 03f3 803c 44ff cfbd
00000020: 55d2 b5bd 011c 273d 9550 dabd 5819 2e3d
00000030: 1880 d0bc 11f0 1dbe 61e3 a93d cb5d 19bd
00000040: ae41 eb3c fdbe 313d ca93 f8bd 84b6 23be
00000050: 80c0 06be 1e39 9dbd dc1c 82bd d5d7 6cbc
00000060: 4617 e23b be4e c1bd 8711 3a3d 3a59 06bd
00000070: c03a 43bd e676 87bd 3680 f9bd 3363 393d
00000080: a3fb 683c 901a 56bc 22e1 ab3d 0fc1 b7bc
00000090: 7262 e8bc 4a07 1cbe a2ea 0a3d 57c7 b4bc
000000a0: 97ac 92bd fca4 29bc 4ac0 a2bd 8668 e23d
000000b0: 9822 30bb 78a6 8a3d 6f14 f83b a903 4a3b
000000c0: 8127 bdbc 374d f5bd 9447 42bb 7a51 cfbd
000000d0: 2ad2 acbd ee31 07be 9426 cfbd 19da 8ebd
000000e0: f763 d3bd d8a8 59bc b2d9 1f3b 6546 0abe
000000f0: 6b02 793d 8085 39be 5bc0 643c 35b0 5fbd

att.mask f4 [1, 1, 145, 145]
1.0 0.0 0.0 0.0 0.0 0.0 0.0 0.0
0.0 0.0 0.0 0.0 0.0 0.0 0.0 0.0
0.0 0.0 0.0 0.0 0.0 0.0 0.0 0.0
0.0 0.0 0.0 0.0 0.0 0.0 0.0 0.0
0.0 0.0 0.0 0.0 0.0 0.0 0.0 0.0
0.0 0.0 0.0 0.0 0.0 0.0 0.0 0.0
0.0 0.0 0.0 0.0 0.0 0.0 0.0 0.0
0.0 0.0 0.0 0.0 0.0 0.0 0.0 0.0
0.0 0.0 0.0 0.0 0.0 0.0 0.0 0.0
0.0 0.0 0.0 0.0 0.0 0.0 0.0 0.0
0.0 0.0 0.0 0.0 0.0 0.0 0.0 0.0
0.0 0.0 0.0 0.0 0.0 0.0 0.0 0.0
0.0 0.0 0.0 0.0 0.0 0.0 0.0 0.0
0.0 0.0 0.0 0.0 0.0 0.0 0.0 0.0
0.0 0.0 0.0 0.0 0.0 0.0 0.0 0.0
0.0 0.0 0.0 0.0 0.0 0.0 0.0 0.0
0.0 0.0 0.0 0.0 0.0 0.0 0.0 0.0
0.0 0.0 0.0 0.0 0.0 0.0 0.0 0.0
0.0 1.0 1.0 0.0 0.0 0.0 0.0 0.0
0.0 0.0 0.0 0.0 0.0 0.0 0.0 0.0
0.0 0.0 0.0 0.0 0.0 0.0 0.0 0.0
0.0 0.0 0.0 0.0 0.0 0.0 0.0 0.0
0.0 0.0 0.0 0.0 0.0 0.0 0.0 0.0
0.0 0.0 0.0 0.0 0.0 0.0 0.0 0.0
0.0 0.0 0.0 0.0 0.0 0.0 0.0 0.0
0.0 0.0 0.0 0.0 0.0 0.0 0.0 0.0
0.0 0.0 0.0 0.0 0.0 0.0 0.0 0.0
0.0 0.0 0.0 0.0 0.0 0.0 0.0 0.0
0.0 0.0 0.0 0.0 0.0 0.0 0.0 0.0
0.0 0.0 0.0 0.0 0.0 0.0 0.0 0.0
0.0 0.0 0.0 0.0 0.0 0.0 0.0 0.0
0.0 0.0 0.0 0.0 0.0 0.0 0.0 0.0
00000000: 0000 803f 0000 0000 0000 0000 0000 0000
00000010: 0000 0000 0000 0000 0000 0000 0000 0000
00000020: 0000 0000 0000 0000 0000 0000 0000 0000
00000030: 0000 0000 0000 0000 0000 0000 0000 0000
00000040: 0000 0000 0000 0000 0000 0000 0000 0000
00000050: 0000 0000 0000 0000 0000 0000 0000 0000
00000060: 0000 0000 0000 0000 0000 0000 0000 0000
00000070: 0000 0000 0000 0000 0000 0000 0000 0000
00000080: 0000 0000 0000 0000 0000 0000 0000 0000
00000090: 0000 0000 0000 0000 0000 0000 0000 0000
000000a0: 0000 0000 0000 0000 0000 0000 0000 0000
000000b0: 0000 0000 0000 0000 0000 0000 0000 0000
000000c0: 0000 0000 0000 0000 0000 0000 0000 0000
000000d0: 0000 0000 0000 0000 0000 0000 0000 0000
000000e0: 0000 0000 0000 0000 0000 0000 0000 0000
000000f0: 0000 0000 0000 0000 0000 0000 0000 0000
00000100: 0000 0000 0000 0000 0000 0000 0000 0000
00000110: 0000 0000 0000 0000 0000 0000 0000 0000
00000120: 0000 0000 0000 0000 0000 0000 0000 0000
00000130: 0000 0000 0000 0000 0000 0000 0000 0000
00000140: 0000 0000 0000 0000 0000 0000 0000 0000
00000150: 0000 0000 0000 0000 0000 0000 0000 0000
00000160: 0000 0000 0000 0000 0000 0000 0000 0000
00000170: 0000 0000 0000 0000 0000 0000 0000 0000
00000180: 0000 0000 0000 0000 0000 0000 0000 0000
00000190: 0000 0000 0000 0000 0000 0000 0000 0000
000001a0: 0000 0000 0000 0000 0000 0000 0000 0000
000001b0: 0000 0000 0000 0000 0000 0000 0000 0000
000001c0: 0000 0000 0000 0000 0000 0000 0000 0000
000001d0: 0000 0000 0000 0000 0000 0000 0000 0000
000001e0: 0000 0000 0000 0000 0000 0000 0000 0000
000001f0: 0000 0000 0000 0000 0000 0000 0000 0000
00000200: 0000 0000 0000 0000 0000 0000 0000 0000
00000210: 0000 0000 0000 0000 0000 0000 0000 0000
00000220: 0000 0000 0000 0000 0000 0000 0000 0000
00000230: 0000 0000 0000 0000 0000 0000 0000 0000
00000240: 0000 0000 0000 803f 0000 803f 0000 0000
00000250: 0000 0000 0000 0000 0000 0000 0000 0000
00000260: 0000 0000 0000 0000 0000 0000 0000 0000
00000270: 0000 0000 0000 0000 0000 0000 0000 0000
00000280: 0000 0000 0000 0000 0000 0000 0000 0000
00000290: 0000 0000 0000 0000 0000 0000 0000 0000
000002a0: 0000 0000 0000 0000 0000 0000 0000 0000
000002b0: 0000 0000 0000 0000 0000 0000 0000 0000
000002c0: 0000 0000 0000 0000 0000 0000 0000 0000
000002d0: 0000 0000 0000 0000 0000 0000 0000 0000
000002e0: 0000 0000 0000 0000 0000 0000 0000 0000
000002f0: 0000 0000 0000 0000 0000 0000 0000 0000
00000300: 0000 0000 0000 0000 0000 0000 0000 0000
00000310: 0000 0000 0000 0000 0000 0000 0000 0000
00000320: 0000 0000 0000 0000 0000 0000 0000 0000
00000330: 0000 0000 0000 0000 0000 0000 0000 0000
00000340: 0000 0000 0000 0000 0000 0000 0000 0000
00000350: 0000 0000 0000 0000 0000 0000 0000 0000
00000360: 0000 0000 0000 0000 0000 0000 0000 0000
00000370: 0000 0000 0000 0000 0000 0000 0000 0000
00000380: 0000 0000 0000 0000 0000 0000 0000 0000
00000390: 0000 0000 0000 0000 0000 0000 0000 0000
000003a0: 0000 0000 0000 0000 0000 0000 0000 0000
000003b0: 0000 0000 0000 0000 0000 0000 0000 0000
000003c0: 0000 0000 0000 0000 0000 0000 0000 0000
000003d0: 0000 0000 0000 0000 0000 0000 0000 0000
000003e0: 0000 0000 0000 0000 0000 0000 0000 0000
000003f0: 0000 0000 0000 0000 0000 0000 0000 0000
