route_TSC/model/0.5_dso_0315/best_model/q_netveh.pt (torch, 559396 bytes, 27 tensors)

attn f4 [1, 2, 38]
0	0x04443180	2.3062419e-36
1	0x000002a0	9.42e-43
2	0x00000000	0.0
3	0x00000000	0.0
4	0x00000000	0.0
5	0x00000000	0.0
6	0x00000000	0.0
7	0x00000000	0.0
8	0x00000000	0.0
9	0x00000000	0.0
10	0x00000000	0.0
11	0x00000000	0.0
12	0x00000000	0.0
13	0x00000000	0.0
14	0x00000000	0.0
15	0x00000000	0.0
16	0x00000000	0.0
17	0x00000000	0.0
18	0x00000000	0.0
19	0x00000000	0.0
20	0x00000000	0.0
21	0x00000000	0.0
22	0x00000000	0.0
23	0x00000000	0.0
24	0x00000000	0.0
25	0x00000000	0.0
26	0x00000000	0.0
27	0x00000000	0.0
28	0x00000000	0.0
29	0x00000000	0.0
30	0x00000000	0.0
31	0x00000000	0.0
32	0x00000000	0.0
33	0x00000000	0.0
34	0x00000000	0.0
35	0x00000000	0.0
36	0x00000000	0.0
37	0x00000000	0.0
38	0x00000000	0.0
39	0x00000000	0.0
40	0x00000000	0.0
41	0x00000000	0.0
42	0x00000000	0.0
43	0x00000000	0.0
44	0x00000000	0.0
45	0x00000000	0.0
46	0x00000000	0.0
47	0x00000000	0.0
48	0x00000000	0.0
49	0x00000000	0.0
50	0x00000000	0.0
51	0x00000000	0.0
52	0x00000000	0.0
53	0x00000000	0.0
54	0x00000000	0.0
55	0x00000000	0.0
56	0x00000000	0.0
57	0x00000000	0.0
58	0x00000000	0.0
59	0x00000000	0.0
60	0x00000000	0.0
61	0x00000000	0.0
62	0x00000000	0.0
63	0x00000000	0.0
64	0x00000000	0.0
65	0x00000000	0.0
66	0x00000000	0.0
67	0x00000000	0.0
68	0x00000000	0.0
69	0x00000000	0.0
70	0x00000000	0.0
71	0x00000000	0.0
72	0x00000000	0.0
73	0x00000000	0.0
74	0x00000000	0.0
75	0x00000000	0.0

fc0.weight f4 [32, 2315]
0	0x3c042d48	0.0080674365
1	0xbc8ed65b	-0.017436197
2	0xbc2b3390	-0.010449305
3	0xbc984f33	-0.018592453
4	0xbbc5f714	-0.006041417
5	0xbc99c215	-0.018769303
6	0x3c07ca1c	0.008287933
7	0x3c7a8f50	0.015292957
8	0x3bfd2bbc	0.007726161
9	0x39e4ce00	0.0004364103
10	0xbbc65984	-0.0060531516
11	0xbbd62c56	-0.006536047
12	0xbafc94c0	-0.0019270405
13	0x3bb52260	0.0055277795
14	0x3bd47c38	0.0064845346
15	0x3c8bf6aa	0.017085392
16	0x3c4ec4d0	0.012620166
17	0xbb19dc40	-0.0023477226
18	0xbc3331ca	-0.010937164
19	0xbc94ac94	-0.018148698
20	0x3bc2ab08	0.0059407987
21	0xbc351580	-0.011052489
22	0x3b9c0908	0.004761819
23	0xbc7f7be6	-0.0155935045
24	0xbc8311d3	-0.01599971
25	0xbc843a76	-0.016141158
26	0xbca07d45	-0.019590983
27	0x3ca1e1c8	0.019760981
28	0xbbdc2382	-0.0067181
29	0xbc23ea95	-0.010004659
30	0xbc2431a5	-0.010021602
31	0xbba9b7f8	-0.0051794015
32	0xbbe1008a	-0.0068665193
33	0xbb5a8c58	-0.0033347812
34	0xbc9a58f2	-0.01884124
35	0x3c83a8fe	0.016071793
36	0x39d60400	0.0004082024
37	0x3bd47e30	0.0064847693
38	0xbb55a980	-0.003260225
39	0xbb00bfd8	-0.0019645598
40	0xbca79898	-0.020458505
41	0xbc412de9	-0.011790731
42	0x3a6698e0	0.0008796584
43	0xbc1620d3	-0.009163099
44	0x3c84d8a6	0.016216587
45	0xbc36a390	-0.011147395
46	0xbc19d910	-0.009390131
47	0xbc1c2f68	-0.009532787
48	0xbc0139a7	-0.007887281
49	0xbc5aab77	-0.0133465445
50	0x3c611e98	0.013740204
51	0xbc49ebd0	-0.0123242885
52	0x3c53b954	0.012922604
53	0x3c626e20	0.013820201
54	0xbc8c25e6	-0.017107915
55	0xba8a5650	-0.0010554288
56	0xbbf97aee	-0.0076135313
57	0x3ab52df0	0.0013822895
58	0x3ca8f244	0.020623334
59	0x3bba7a4c	0.0056908485
60	0xba596f20	-0.0008294452
61	0xbb94c9f8	-0.004540678
62	0xbbfeac62	-0.0077720145
63	0xbc91bbac	-0.017789684
64	0x3a9d0dd0	0.0011982266
65	0xbc293dbb	-0.010329659
66	0x3c8b2b44	0.016988404
67	0xbbfa8b02	-0.0076459656
68	0x3c895696	0.01676492
69	0xbc99071b	-0.018680146
70	0x3a9d19a0	0.0011985786
71	0xbac01650	-0.0014655087
72	0x3b98b8dc	0.004660709
73	0x3c180704	0.009279016
74	0xbc10663c	-0.008813437
75	0x3ca2b750	0.0198628
76	0x3b737648	0.0037149359
77	0xbb9e7310	-0.004835494
78	0x3c284794	0.010270972
79	0x3c008742	0.007844748
80	0x3c981752	0.018565807
81	0x3ca13c82	0.019682173
82	0xbbd369da	-0.0064518275
83	0x3bc489a8	0.005997855
84	0x3b8b6d60	0.004254982
85	0x3ca2cf1a	0.019874144
86	0x3b7efed8	0.0038909223
87	0xbc2ef18d	-0.010677707
88	0xbc8d6332	-0.017259214
89	0xbc8aa7a2	-0.016925637
90	0x3bf23900	0.007392049
91	0x3b3fd040	0.0029268414
92	0xbc96d2b6	-0.018411022
93	0xbca6a523	-0.020342415
94	0xbc35c2c4	-0.011093799
95	0x3a42d520	0.0007432271
96	0x3b638b10	0.003472034
97	0x3c8ab38c	0.016931318
98	0xba1887a0	-0.00058185495
99	0x3c855c02	0.016279224
100	0xba8bc400	-0.0010663271
101	0xbc0f71f9	-0.008755201
102	0xbc21b76d	-0.009870392
103	0x3b68cfa8	0.0035524163
104	0x3c812c4e	0.015768196
105	0x3b90da74	0.004420573
106	0x3c3c94e8	0.011510111
107	0xbbd023c0	-0.006351918
108	0xbc85b8b6	-0.016323429
109	0xbca23cc9	-0.019804375
110	0xbb3f87b0	-0.0029225163
111	0xbc53ce50	-0.012927607
112	0x3c9bb0c6	0.01900519
113	0xbad283c0	-0.0016060993
114	0x3c34cd14	0.011035223
115	0xbbb7b046	-0.00560573
116	0x3c2e9aa8	0.01065699
117	0xbb03ca50	-0.0020109601
118	0x3c869de2	0.016432706
119	0x3c9d556a	0.019205768
120	0x3b86bb18	0.004111659
121	0xbc8e0ba6	-0.017339539
122	0x395f1e80	0.000212783
123	0xbc36640f	-0.011132254
124	0x3b8a4240	0.0042193234
125	0xbb58c678	-0.003307728
126	0x3c517998	0.012785338
127	0x3b82c140	0.0039903224
128	0xbc8e806a	-0.017395217
129	0x3c44b930	0.012007043
130	0xbb7ba658	-0.003839871
131	0x3c725988	0.014791854
132	0xbbb05012	-0.005380639
133	0x3c5e15d0	0.013555005
134	0xbc9f4918	-0.019444034
135	0x3b7ef4c8	0.0038903225
136	0xbc940afe	-0.018071648
137	0xbacf00d0	-0.0015793089
138	0x3c3d578c	0.011556517
139	0xbb853b0c	-0.004065877
140	0xbc8493e0	-0.016183794
141	0x3c16aa3a	0.009195859
142	0xbc82c27d	-0.01596188
143	0x3c1fe82e	0.009759946
144	0x3c802a20	0.015645087
145	0x3c2ead50	0.010661438
146	0x3bb544e0	0.005531892
147	0x3c7fe6f4	0.015619028
148	0xbc7ae4d6	-0.015313348
149	0x3c8cc1fa	0.017182339
150	0xbc5aed02	-0.013362171
151	0x3c4dcdb0	0.012561247
152	0x3c4f7514	0.012662191
153	0xbb7ebaf8	-0.0038868766
154	0x3be96fb8	0.0071239136
155	0x3a544660	0.0008097645
156	0x3ae46f10	0.0017428119
157	0xbbc3a460	-0.0059705228
158	0xbc62eb68	-0.013850071
159	0x3c72f904	0.014829878
160	0x3c4b9280	0.012425065
161	0x3caa1c00	0.020765305
162	0xbc8feacd	-0.017568016
163	0xbc80fa5d	-0.015744383
164	0x3b4fb9c0	0.003169641
165	0x3c1ea1d4	0.0096821375
166	0x3c7e7590	0.015530959
167	0xbc9bc7d9	-0.019016193
168	0xbc10420d	-0.00880481
169	0xbc77b6ec	-0.015119296
170	0x3ca5d09c	0.020241074
171	0xbc012e7e	-0.00788462
172	0xbc45706a	-0.012050727
173	0xbb866d6c	-0.0041023996
174	0x3c2c3e40	0.010512888
175	0x3bf40628	0.007447023
176	0xbc5ee21c	-0.013603713
177	0xbc9ecf47	-0.019385947
178	0xbc8c7bb2	-0.017148826
179	0x3bb9933c	0.0056633037
180	0xbb1bc688	-0.0023769457
181	0xbc99a04b	-0.018753191
182	0xbca3698f	-0.019947795
183	0xbc0dce37	-0.0086551225
184	0xbc24d509	-0.010060557
185	0x3b6eaa30	0.0036417358
186	0xbbf5c6f0	-0.007500522
187	0x3ba10318	0.004913699
188	0xbb21e898	-0.0024705287
189	0x3bdf5fac	0.006816825
190	0x3ca5b98a	0.020230073
191	0xb96a5500	-0.00022347644
192	0x3c46523c	0.012104567
193	0xba5ff0a0	-0.0008542631
194	0x3b24a110	0.0025120415
195	0x3c9369f6	0.017994862
196	0xbc7f753a	-0.015591914
197	0xbc1ddf3e	-0.009635745
198	0xbc945a94	-0.018109597
199	0xbca90a5f	-0.020634828
200	0xbbb40cfe	-0.005494713
201	0x3c923280	0.017846346
202	0xbc436c22	-0.011927636
203	0xbb359b78	-0.0027711075
204	0xbbfa6ece	-0.0076426035
205	0x3bf51b90	0.0074800923
206	0xbc006156	-0.007835707
207	0x3b1e8ef8	0.0024194103
208	0xbc9400db	-0.018066814
209	0x3c9ccb0a	0.019139785
210	0x3c81c1d4	0.015839495
211	0xbc0fd6d7	-0.008779249
212	0xbc020d7c	-0.007937785
213	0x3c24dc18	0.01006224
214	0x3a441b20	0.00074808486
215	0x3c97666a	0.018481452
216	0x3c2e9aa8	0.01065699
217	0x3ba1c4ac	0.004936775
218	0x399b2a40	0.00029595383
219	0x3c916dfe	0.017752644
220	0xbb6cc2e8	-0.0036126915
221	0xbca24a20	-0.019810736
222	0xbc8cebe9	-0.017202334
223	0xbbf1e5ee	-0.007382146
224	0x3c9eb06e	0.019371238
225	0x3c8d1628	0.017222479
226	0xbc924575	-0.017855385
227	0x3c7232ac	0.014782589
228	0xbc01c8cb	-0.007921408
229	0xbca19706	-0.019725334
230	0x3c3e6744	0.0116213
231	0xbbe0914e	-0.006853259
232	0xbc0c4fa9	-0.008563914
233	0x3ca02de2	0.019553129
234	0x3b4ae770	0.0030960701
235	0xbb552f88	-0.0032529552
236	0xbc87fe17	-0.016600652
237	0x3c5d9f24	0.013526712
238	0x3aa50210	0.0012589116
239	0xbbf229c6	-0.0073902337
240	0xbc800de9	-0.015631633
241	0xbc176b5b	-0.009241904
242	0xbc8d846c	-0.017275058
243	0xbba773d0	-0.0051102415
244	0xbb840c4c	-0.004029786
245	0x3bc5822c	0.0060274806
246	0xbc614adc	-0.013750758
247	0xbc9ec138	-0.019379243
248	0x3c2a66b2	0.010400461
249	0x3b0ec268	0.0021783356
250	0x3b81e7d4	0.0039644036
251	0x3c328c08	0.010897644
252	0x3be0736c	0.006849697
253	0xbc5bb9e8	-0.013411023
254	0x3c5eb52c	0.013592999
255	0x3b4ec990	0.0031553246

fc0.bias f4 [32]
0	0x3c7784e0	0.015107363
1	0xbc881fbe	-0.016616698
2	0xbc80ab90	-0.015706807
3	0xba7df720	-0.00096880086
4	0xbc58d422	-0.01323417
5	0xbc19d6b7	-0.009389571
6	0xba7d3960	-0.00096597336
7	0xbc4f09d9	-0.012636625
8	0xbc961239	-0.018319236
9	0xbc2a1dfa	-0.0103831235
10	0xbc733b86	-0.014845734
11	0x3b39dea0	0.0028361455
12	0xbbb1d048	-0.0054264404
13	0x3ca78114	0.020447291
14	0x3c8d6078	0.017257914
15	0xbc58ca2a	-0.013231793
16	0xbc7cbf02	-0.015426399
17	0x3b8b568c	0.0042522606
18	0x3b4fad08	0.0031688828
19	0xbc8e2e54	-0.017356075
20	0xbc8480c1	-0.016174676
21	0xbc892464	-0.016740985
22	0xbc20cb80	-0.009814143
23	0xb9a73980	-0.00031895563
24	0xbc83b2d2	-0.01607648
25	0x3bfab75c	0.0076512527
26	0xbc7de191	-0.015495674
27	0x3c1b17da	0.009466136
28	0xbb9c2f04	-0.004766347
29	0x3c9a66c8	0.018847838
30	0x3c583288	0.013195641
31	0x3b866324	0.004101174

fc1.weight f4 [32, 32]
0	0xbe0194d5	-0.12654431
1	0x3d255d72	0.04037232
2	0xbdcef0ab	-0.101044975
3	0xbd98f1da	-0.074680045
4	0x3de42797	0.11140364
5	0x3e27fe0d	0.16405506
6	0xbbe3f25a	-0.006956381
7	0xbe11f9fb	-0.14255516
8	0x3bf879f8	0.007582899
9	0xbdc04eaa	-0.09390004
10	0x3e17da76	0.1482943
11	0x3d5871ec	0.05284302
12	0xbe12e9a7	-0.14346944
13	0x3c991d20	0.018690646
14	0x3dfd7097	0.123749904
15	0xbbfca460	-0.0077100247
16	0xbda297b6	-0.07939093
17	0xbe1a425d	-0.15064378
18	0xbdaf2469	-0.085518666
19	0xbc8de660	-0.017321765
20	0xbddf7b8a	-0.10912235
21	0xbdaa113c	-0.083040684
22	0xbc848818	-0.016178176
23	0xbe23eaa6	-0.1600748
24	0x3d7ee3e5	0.062229056
25	0xbe33e33a	-0.17567149
26	0xbd00bb44	-0.03142859
27	0x39a98400	0.0003233254
28	0x3df65d2c	0.1202949
29	0xbc919954	-0.017773308
30	0xbe22f4e4	-0.15913731
31	0xbe198ea5	-0.14995821
32	0xbf0793d7	-0.5295996
33	0xbebc1505	-0.36734787
34	0x3e95ce8c	0.29259145
35	0xbe0ffc9f	-0.14061211
36	0xbe1e4cc0	-0.15458965
37	0x3f1c1b27	0.6097893
38	0xbebcb8f0	-0.36859846
39	0x3dbe085b	0.092789374
40	0xbe216cbd	-0.15764137
41	0xbed5fc97	-0.41794273
42	0x3e1b3872	0.15158251
43	0x3f20b7d3	0.62780493
44	0xbe110676	-0.14162621
45	0x3eb72786	0.3577234
46	0xbe088a31	-0.13333966
47	0xbdf08388	-0.117438376
48	0x3d804f9a	0.06265183
49	0xbc195e4c	-0.009360861
50	0xbed18571	-0.4092212
51	0x3db0d84f	0.086350076
52	0xbf08f95b	-0.53505486
53	0xbe5181ab	-0.2045962
54	0xbeb69e06	-0.35667437
55	0xbf2dbd91	-0.6786738
56	0x3ed0e4d4	0.40799582
57	0x3edc82dd	0.4306859
58	0xbd515e0d	-0.051115084
59	0x3e8be675	0.27324262
60	0xbe98f102	-0.29871374
61	0xbf1b9c89	-0.6078573
62	0xbf114910	-0.5675211
63	0x3d1de8d5	0.038552124
64	0x3e251068	0.1611954
65	0xbf4b275d	-0.7935694
66	0x3d5c6b29	0.053813133
67	0xbebdabbb	-0.37045082
68	0xbf062422	-0.52398884
69	0xbf370c38	-0.7150302
70	0xbffb1cfc	-1.961822
71	0x3e4df341	0.20112325
72	0x3d79edbe	0.061017744
73	0xbe6b0baf	-0.22953676
74	0xbce119ac	-0.027478062
75	0x3dd0897d	0.10182474
76	0xbcfe93d6	-0.031076353
77	0x3cc0de15	0.023543397
78	0x3e3b31d2	0.18280724
79	0x3cb090f7	0.0215535
80	0x3df5e0c7	0.120057635
81	0x3e168390	0.14698625
82	0xbd70b3bc	-0.058765158
83	0x3e5bc394	0.21461326
84	0xbfed0776	-1.8517902
85	0xbff891ae	-1.9419458
86	0x3daed542	0.085367694
87	0xbe6e983e	-0.23300263
88	0xbe22a4b3	-0.1588314
89	0x3e812fe2	0.25231844
90	0xbdf75cc4	-0.120782405
91	0x3ee26fc1	0.44225886
92	0x3ec6c955	0.3882548
93	0xbfbaf574	-1.4606156
94	0x3e3ca396	0.18421778
95	0xbea729a1	-0.32648948
96	0x3efcaece	0.49352115
97	0x3e9de6f5	0.3084027
98	0xbe8c5963	-0.27411947
99	0x3d9648ff	0.07338142
100	0xbdc28648	-0.09498268
101	0x3e4cb434	0.19990617
102	0x3e1059d2	0.14096764
103	0xbdd5fb4d	-0.104483224
104	0x3e2b306f	0.16717695
105	0xbf2533e2	-0.6453229
106	0xbe6772ad	-0.22602339
107	0x3ebce880	0.36896133
108	0xbf2575b9	-0.64632756
109	0x3e7569e2	0.23966172
110	0xbef627b1	-0.48077157
111	0x3d9f146f	0.07767569
112	0x3d85db59	0.06535978
113	0xbf83d382	-1.0298922
114	0xbf4e4105	-0.8056796
115	0xbe288199	-0.16455688
116	0xbd75cac1	-0.060007814
117	0x3e2ce381	0.16883661
118	0xbf8b9821	-1.0905801
119	0x3e779974	0.24179631
120	0xbeaf1c3d	-0.34201232
121	0xbf879be6	-1.0594451
122	0xbed749a8	-0.42048383
123	0xbf8b3588	-1.0875711
124	0x3dad292b	0.08455118
125	0x3f00cd18	0.5031295
126	0x3e94b710	0.29045916
127	0xbe013d88	-0.12621129
128	0xbd441e2b	-0.047880333
129	0x3d82bb58	0.06383389
130	0x3e97a7d6	0.29620236
131	0x3eb05d9d	0.3444642
132	0xbec82a3e	-0.39094728
133	0x3da59d62	0.08086659
134	0x3e4c1dc4	0.1993323
135	0x3bf0def8	0.0073507987
136	0x3e815947	0.25263426
137	0xbf423899	-0.7586761
138	0x3e19edd8	0.15032136
139	0x3ce20474	0.027590014
140	0xbdd4b355	-0.10385767
141	0xbd3c11de	-0.045915477
142	0xbe272c9c	-0.16325611
143	0xbf3b9508	-0.7327428
144	0x3ea45817	0.32098457
145	0xbf99cb90	-1.2015247
146	0xbf10a8a5	-0.5650733
147	0xbee65f8e	-0.44994777
148	0xbd84cd69	-0.064844914
149	0x3e4728f7	0.1944922
150	0xbf2c3f30	-0.67283916
151	0x3e8ee9b6	0.27912682
152	0xbd825901	-0.063646324
153	0xbf2fb56f	-0.6863622
154	0xbd08a673	-0.033361863
155	0xbfb392ce	-1.4029176
156	0x3d684f74	0.056716397
157	0x3ec1648f	0.37772033
158	0x3dbcbd7f	0.09215831
159	0x3c2aadda	0.010417426
160	0x3da7002a	0.08154328
161	0xbec938ee	-0.39301246
162	0x3ec2128b	0.37904772
163	0xbe81e426	-0.25369376
164	0xbeaa72cc	-0.33290708
165	0xbdafc1fc	-0.085819215
166	0x3e3d8c67	0.1851059
167	0x3e28b834	0.16476518
168	0x3e267edb	0.16259329
169	0xbeb03522	-0.34415537
170	0x3c602057	0.013679585
171	0x3d0128f8	0.03153321
172	0xbf100231	-0.56253344
173	0x3dd7c8ed	0.105363704
174	0x3e2a6365	0.16639479
175	0xbfb00977	-1.3752888
176	0x3e7ea8f9	0.24869145
177	0x3e823266	0.25429076
178	0x3e79ce70	0.24395156
179	0x3d31c487	0.043400314
180	0xbefb5aaa	-0.4909261
181	0xbcf91ecc	-0.030410193
182	0x3ea8a5c1	0.3293896
183	0x3e420649	0.1894771
184	0xbf3b1228	-0.7307458
185	0x3d6673bb	0.056262713
186	0xbeb2d552	-0.34928375
187	0x3e401b8d	0.1876051
188	0x3eaf97fb	0.3429564
189	0x3d3d695d	0.04624306
190	0x3d16f688	0.036856204
191	0xbe8dc84e	-0.27691883
192	0x3e19a650	0.1500485
193	0xbd88e0b0	-0.06683481
194	0x3d068195	0.032838423
195	0x3ea944aa	0.330602
196	0xbe905541	-0.28190044
197	0x3ea28282	0.31740195
198	0x3e23999c	0.15976566
199	0xbde22e7a	-0.11044021
200	0x3d473804	0.048637405
201	0xbf209a13	-0.627351
202	0x3da61453	0.08109345
203	0x3e2dfef9	0.16991796
204	0xbf2acbed	-0.66717416
205	0x3e6a9510	0.22908425
206	0x3e45c123	0.19311957
207	0xbf84f5a9	-1.038747
208	0x3ea948df	0.3306341
209	0x3e2d2acd	0.16910858
210	0x3e00f5c9	0.1259376
211	0x3bb955d5	0.005655984
212	0xbed343e7	-0.41262743
213	0x3e079b16	0.13242754
214	0x3d35bdc6	0.044370435
215	0x3d0cd5ab	0.034383457
216	0xbc6bd157	-0.014393172
217	0x3cb61391	0.022226127
218	0x3f1bc004	0.6083987
219	0xbdc56639	-0.09638638
220	0x3e49834d	0.19678994
221	0x3e350577	0.17677866
222	0x3b4a56bd	0.0030874454
223	0xbf313615	-0.6922315
224	0x3ef7fa62	0.48433214
225	0xbf575436	-0.8411287
226	0x3d97498c	0.07387075
227	0xbea9b85c	-0.33148468
228	0x3e1b4207	0.15161906
229	0xbda2db9f	-0.07952046
230	0xbf883c67	-1.0643433
231	0xbde48c54	-0.11159578
232	0xbea05b6c	-0.3131975
233	0x3d9fe68e	0.07807647
234	0xbe267d8e	-0.16258833
235	0xbf19382f	-0.59851354
236	0x3e896814	0.26837218
237	0x3c7f5312	0.01558377
238	0x3d518791	0.051154677
239	0xbdd97f11	-0.10619939
240	0xbe5d540f	-0.21614097
241	0xbeac9abc	-0.33711803
242	0xbb12e542	-0.002241448
243	0xbe36fd10	-0.17869973
244	0x3f24af63	0.6433012
245	0xbee218ac	-0.44159448
246	0xbe96b843	-0.29437456
247	0xbf12d8ec	-0.57362247
248	0xbdd4d3a1	-0.103919275
249	0xbe215a55	-0.15757115
250	0xbee1cedd	-0.44103137
251	0x3ef738fc	0.48285663
252	0xbed03eb0	-0.40672827
253	0xbf8ace75	-1.0844256
254	0xbe078594	-0.1323455
255	0x3e45b93a	0.1930894

fc1.bias f4 [32]
0	0xbc08a5c0	-0.008340299
1	0x3f95f02e	1.1713922
2	0x3f5eab53	0.8698017
3	0x3f2b4873	0.66907424
4	0x3dcd3b51	0.10021079
5	0x3fd08520	1.6290627
6	0x3fada259	1.356517
7	0x3fb27f4d	1.3945099
8	0x3eef136b	0.46694502
9	0x3fce0e21	1.6098062
10	0x3f787025	0.9704612
11	0x3f0a7fda	0.54101336
12	0x3fd7536b	1.6822332
13	0x3f96a9bf	1.1770552
14	0xbe7339e4	-0.23752552
15	0x3fc637c3	1.5485767
16	0x3fb47f43	1.4101337
17	0x3f694a75	0.9112924
18	0x3fccad1f	1.5990332
19	0x3f3890b7	0.7209582
20	0x3f9b3bfa	1.2127678
21	0x3f99b0f2	1.2007124
22	0x3fc2fe7d	1.5233914
23	0x3e217a49	0.15769304
24	0x3f38c2f0	0.7217245
25	0x3e855e7d	0.2604865
26	0xbcf61f0f	-0.030044107
27	0x3fb61903	1.4226383
28	0x3f3e08f2	0.742324
29	0xbf977f86	-1.1835792
30	0x3e4261f3	0.18982677
31	0x3fb66e84	1.4252477

fc2.weight f4 [3, 32]
0	0xba5d8b2c	-0.0008451219
1	0xbd8d4d22	-0.068994775
2	0xbf68235b	-0.9067895
3	0xbcab2549	-0.020891802
4	0x3ccc65ef	0.02495095
5	0x3d7e158c	0.062032267
6	0x3e35b98d	0.17746563
7	0xbe127349	-0.1430179
8	0x3ca45e11	0.020064386
9	0x3ec15dd5	0.377669
10	0xbd203ea2	-0.03912223
11	0xbe12a29d	-0.14319845
12	0xbe2de118	-0.16980398
13	0xbe0fd316	-0.14045367
14	0x3e821bf6	0.25411958
15	0xbe59b627	-0.21260892
16	0xbd125250	-0.03572303
17	0x3e109f4d	0.14123268
18	0x3d40084e	0.04688292
19	0x3cb49fe6	0.022048902
20	0x3df1378a	0.11778171
21	0x3e1824aa	0.14857736
22	0xbcb9cf24	-0.02268178
23	0x3e57f3d3	0.21089105
24	0x3eb92f36	0.36168832
25	0x3dbee2ed	0.093206264
26	0xbe9aeb21	-0.30257514
27	0xbe493cf2	-0.19652155
28	0xbdb8a148	-0.09015137
29	0xbe63c96f	-0.2224481
30	0xbe0aa582	-0.13539699
31	0xbec1fc2d	-0.37887707
32	0x3bee4a2c	0.0072720256
33	0x3e059aec	0.1304738
34	0x3d811ffe	0.0630493
35	0x3d4c8fb5	0.049941737
36	0x3dbab86f	0.09117209
37	0x3da89df1	0.0823325
38	0x3e6ae0d2	0.22937325
39	0xbded80c8	-0.11596829
40	0xbfb8946b	-1.4420294
41	0x3e73e520	0.23817873
42	0xbf4a862d	-0.79110986
43	0x3f00b0bf	0.50269693
44	0xbe025d2f	-0.12730859
45	0x3d946a8f	0.07246887
46	0x3e56e280	0.2098484
47	0xbe848f7e	-0.25890726
48	0xbe8d618e	-0.2761349
49	0xbe897ee4	-0.26854622
50	0xbe581959	-0.2110342
51	0x3db4c341	0.08826304
52	0x3e052379	0.13001813
53	0x3d8fe78c	0.07026586
54	0xbe4c3176	-0.19940743
55	0xbe986bc0	-0.29769707
56	0x3f0f5a71	0.5599738
57	0xbe9f7972	-0.31147343
58	0xbec30eee	-0.38097328
59	0xbd2a4cbd	-0.04157709
60	0xbe8d26df	-0.2756872
61	0xbca615e8	-0.020274118
62	0x3ccbd8e3	0.024883693
63	0xbe70f0ff	-0.23529433
64	0x3b3b3b04	0.0028569112
65	0xbeaef70b	-0.34172854
66	0x3e1965bb	0.14980213
67	0xbeb39fc4	-0.3508283
68	0xbec6d23c	-0.3883227
69	0x3e02c0c6	0.1276885
70	0x3df89e66	0.12139587
71	0xbdfd3f89	-0.12365634
72	0x3de9de7d	0.114193894
73	0x3e0f37da	0.1398615
74	0x3e30fb16	0.17283282
75	0xbe2884de	-0.16456935
76	0xbe147be1	-0.14500381
77	0xbf02d1e8	-0.5110154
78	0xbe3d8d2a	-0.18510881
79	0xbe0b19dc	-0.13584083
80	0xbd08faf3	-0.03344245
81	0xbee6118a	-0.44935256
82	0xbe0ee9b8	-0.13956344
83	0xbf65d5ac	-0.8977916
84	0x3e3a796b	0.1821038
85	0xbe9f74e9	-0.31143883
86	0xbe63ff3b	-0.22265331
87	0x3d4231ab	0.04741065
88	0x3e5b5f69	0.21423115
89	0xbcb75ddc	-0.022383623
90	0x3eee6c20	0.46566868
91	0xbded8a0c	-0.11598596
92	0xbd9b6496	-0.075875446
93	0x3df6b172	0.12045564
94	0x3ea2acbf	0.3177242
95	0xbe6177e3	-0.2201839

fc2.bias f4 [3]
0	0xbfdc12ee	-1.7193277
1	0xbe3f2cbf	-0.18669413
2	0xbf25cc06	-0.6476444

road_emb.0.weight f4 [144]
0	0x3f226eeb	0.634505
1	0x3fa630b0	1.2983608
2	0x3fbd98f0	1.4812298
3	0x3f419703	0.7562105
4	0x3ecca466	0.39969176
5	0x3f87c0cf	1.0605716
6	0x3f374e35	0.7160371
7	0x3fa30403	1.2735599
8	0x3fb18a05	1.3870245
9	0x3f18dff5	0.5971673
10	0x3ec71039	0.38879564
11	0x3ef778b1	0.48334268
12	0x3f0fb8e4	0.56141496
13	0x3f9232b3	1.1421722
14	0x3fc44280	1.5332794
15	0x3f07718b	0.5290763
16	0x3edb1c3a	0.42794973
17	0x3ecd0c0c	0.40048254
18	0x3f3a84f4	0.7285912
19	0x3fa1d63c	1.2643504
20	0x3fc504b1	1.5392057
21	0x3f1e529e	0.61844814
22	0x3ef1e319	0.47243574
23	0x3f502611	0.81308085
24	0x3f3c615a	0.73586047
25	0x3f772708	0.9654393
26	0x3fccf987	1.601365
27	0x3f166afb	0.5875699
28	0x3eccf975	0.4003407
29	0x3f3182e2	0.69340336
30	0x3f1dfa91	0.6171046
31	0x3f91e424	1.1397748
32	0x3fe809a7	1.8127946
33	0x3f50269b	0.8130891
34	0x3ec26ac5	0.37972084
35	0x3f1156f9	0.56773335
36	0x3f680501	0.90632635
37	0x3f9c9a86	1.2234657
38	0x3f9c2ec9	1.2201778
39	0x3f27492e	0.6534604
40	0x3f023974	0.50868917
41	0x3f98b9af	1.1931666
42	0x3f2cca71	0.674964
43	0x3f5eddd9	0.8705726
44	0x3f7b9574	0.9827492
45	0x3f1ad5ee	0.6048268
46	0x3f365f9e	0.7123965
47	0x3f0180ea	0.5058733
48	0x3eb3e2e2	0.35134035
49	0x3f78a8e1	0.9713269
50	0x3f52bedc	0.8232248
51	0x3f0edb02	0.5580293
52	0x3ee608a2	0.4492846
53	0x3ef0e568	0.47050023
54	0x3f5356b0	0.8255415
55	0x3f9ccf25	1.2250715
56	0x3fb39f6b	1.4033026
57	0x3f1cc396	0.6123594
58	0x3eda54a7	0.4264271
59	0x3f83a004	1.0283208
60	0x3f30545a	0.6887871
61	0x3f850948	1.0393457
62	0x3fa6339b	1.2984499
63	0x3f33d317	0.7024397
64	0x3ec3ae48	0.38218904
65	0x3f0ac950	0.5421343
66	0x3ef99f50	0.48754358
67	0x3f82da3f	1.0222853
68	0x3fabe0fa	1.3428032
69	0x3f065fde	0.5249003
70	0x3f1b21cf	0.6059846
71	0x3eed7d43	0.4638463
72	0x3f538627	0.82626575
73	0x3fca1400	1.5787354
74	0x3f841126	1.0317733
75	0x3e731ae5	0.23740728
76	0x3ec59ee8	0.38597798
77	0x3f808c41	1.0042802
78	0x3f1baefe	0.6081389
79	0x3f71889d	0.9434908
80	0x3fb0f622	1.3825114
81	0x3f32e437	0.6987948
82	0x3ea3d832	0.3200088
83	0x3f0969d9	0.53677136
84	0x3f0aa9aa	0.54165137
85	0x3f9de4a1	1.2335397
86	0x3f8d9c24	1.1063275
87	0x3f39c0cf	0.7255983
88	0x3eeaad37	0.45835277
89	0x3f049df7	0.51803535
90	0x3f64240e	0.89117515
91	0x3f9f086f	1.2424449
92	0x3ea6d9d9	0.3258808
93	0x3f3a627e	0.7280654
94	0x3ee7d6d3	0.45281085
95	0x3f91184e	1.1335542
96	0x3f470f63	0.77757853
97	0x3f5191e2	0.81863225
98	0x3f4605cc	0.77352595
99	0x3f0682f9	0.525436
100	0x3ef3c683	0.4761239
101	0x3f1e8e75	0.6193612
102	0x3f273f71	0.6533118
103	0x3f97f9c6	1.18731
104	0x3f1f0034	0.62109685
105	0x3f2e9fd0	0.68212605
106	0x3ecddefe	0.40209192
107	0x3ef39b6f	0.47579524
108	0x3f38d51e	0.7220019
109	0x3f95cad7	1.1702527
110	0x3fd4ef74	1.6635575
111	0x3f055eda	0.52097857
112	0x3ea78051	0.32715085
113	0x3f68684a	0.9078413
114	0x3f22798b	0.6346671
115	0x3f905479	1.1275779
116	0x3fdd1b6e	1.7273996
117	0x3f25a17c	0.6469953
118	0x3eae02cf	0.33986518
119	0x3f1d473d	0.61436826
120	0x3f1ed58a	0.62044585
121	0x3fa0a07a	1.2548974
122	0x3fba5e6c	1.4560065
123	0x3f12abfe	0.5729369
124	0x3e9ed208	0.31019616
125	0x3ed04092	0.40674263
126	0x3f6473d9	0.8923927
127	0x3f9843f6	1.189574
128	0x3f8115b1	1.0084745
129	0x3f0ce598	0.5503783
130	0x3ed68973	0.4190174
131	0x3f8aac43	1.083382
132	0x3f13bc0a	0.577088
133	0x3f7ed105	0.9953769
134	0x3fb1d224	1.3892255
135	0x3f189131	0.59596545
136	0x3ee0b01f	0.4388437
137	0x3f12f334	0.5740235
138	0x3f13fa34	0.57803655
139	0x3fb208e8	1.3908968
140	0x3fb9d116	1.4516933
141	0x3f18a3bb	0.5962483
142	0x3ec02c22	0.3753367
143	0x3f2c9118	0.67408895

road_emb.0.bias f4 [144]
0	0xbf39cc4f	-0.72577375
1	0x3ed7b911	0.42133382
2	0x3e02cdcd	0.1277382
3	0x3e811fca	0.25219566
4	0x3e7a1c3b	0.24424832
5	0x3ecb7390	0.39736605
6	0xbdecf35d	-0.11569855
7	0x3d1b0430	0.03784579
8	0x3d1315e0	0.035909534
9	0x3e055519	0.13020743
10	0x3e8d8840	0.27643013
11	0x3e9c4985	0.3052484
12	0xbceb2e19	-0.028708505
13	0x3e8bd3f8	0.27310157
14	0x3dee439b	0.116339885
15	0x3e8482df	0.25881097
16	0x3e95ca14	0.29255736
17	0x3ebf7b77	0.37398884
18	0xbf6899c8	-0.9085965
19	0x3db3ebc2	0.087852016
20	0xbda7f335	-0.08200685
21	0x3e00d266	0.1258026
22	0x3e94cc96	0.29062337
23	0x3ec58f37	0.38585827
24	0xbe049ecb	-0.129512
25	0x3d6d0824	0.05786909
26	0xbd17ca9b	-0.037058454
27	0x3e8c45c2	0.2739697
28	0x3e720eec	0.23638505
29	0x3efad5d2	0.48991257
30	0xbe1ec4f1	-0.15504815
31	0x3e4e6220	0.20154619
32	0x3d402a99	0.046915624
33	0x3e8ab1ae	0.27088684
34	0x3e792bdb	0.24333136
35	0x3eb02d9f	0.34409806
36	0xbf59eb03	-0.85124224
37	0x3e398001	0.18115236
38	0xbd49e136	-0.049287044
39	0x3d8213a2	0.06351401
40	0x3e9c67da	0.30547982
41	0x3e4706ca	0.19436184
42	0xbdbbbc2b	-0.091667496
43	0xbd323f06	-0.043517135
44	0xbde97cfc	-0.11400792
45	0x3ea8eed0	0.329947
46	0x3e97aca7	0.2962391
47	0x3eca61d2	0.39527756
48	0xbe05d4ec	-0.13069504
49	0x3eba7fff	0.36425778
50	0xbe4e974e	-0.20174906
51	0x3ea02a76	0.31282395
52	0x3e82dc49	0.2555869
53	0x3eb617a1	0.35564902
54	0xbf256afa	-0.6461636
55	0x3e9bf67a	0.30461484
56	0xbda8c882	-0.08241369
57	0x3db3f806	0.08787541
58	0x3debab1b	0.11507245
59	0x3e12955d	0.1431479
60	0xbecac793	-0.39605388
61	0x3ea6611f	0.32495973
62	0xbe0e22db	-0.13880484
63	0x3e1373a5	0.14399584
64	0x3e3c1c92	0.18370274
65	0x3ec594bb	0.38590035
66	0xbe56f991	-0.2099364
67	0x3f056169	0.5210176
68	0xbe0eacd8	-0.13933122
69	0x3e3d7caf	0.18504594
70	0x3ece32a8	0.40273023
71	0x3ebda4a4	0.37039673
72	0xbf0a243c	-0.5396154
73	0x3ed5f705	0.41790023
74	0xbda46512	-0.0802709
75	0x3e3230bf	0.17401408
76	0x3e949021	0.29016212
77	0x3e5b0eec	0.21392411
78	0xbaa12beb	-0.0012296414
79	0x3e99eaf7	0.30062076
80	0x3d9cf36e	0.07663618
81	0x3eb17d5e	0.3466596
82	0x3e90fbd3	0.28317127
83	0x3ee786d9	0.45220068
84	0xbe2a3f09	-0.16625609
85	0x3f08c26a	0.5342165
86	0x3d477ac9	0.04870108
87	0x3dd1ff2a	0.10253747
88	0x3ea8c62d	0.32963696
89	0x3e9fb6db	0.31194195
90	0xbecbd9be	-0.39814562
91	0xbe14f74d	-0.14547463
92	0xbde59d9f	-0.112117045
93	0x3eea46c6	0.4575712
94	0x3eb6ac65	0.35678402
95	0x3e490b22	0.19633153
96	0xbdf94904	-0.1217213
97	0xbe783323	-0.24238257
98	0xbe5a159e	-0.21297309
99	0x3e3f0aa1	0.18656398
100	0x3e9cf0ed	0.30652562
101	0x3efef457	0.49795792
102	0xbe928588	-0.286175
103	0x3dff10de	0.12454389
104	0xbe54e6e1	-0.20791198
105	0x3f020c3f	0.50799936
106	0x3e9cf93b	0.30658898
107	0x3ea5b080	0.3236122
108	0xbf602d3a	-0.8756901
109	0x3e1160b3	0.14197044
110	0xbe18e2ff	-0.14930342
111	0x3e4435f7	0.19161211
112	0x3e85399a	0.2602051
113	0x3ea9c5f1	0.3315883
114	0xbed6f92b	-0.41986975
115	0x3e87feba	0.26561528
116	0xbc958457	-0.018251581
117	0x3e8716d5	0.26384607
118	0x3e920bc9	0.28524616
119	0x3f0de4c4	0.55427194
120	0xbea95ebb	-0.33080086
121	0x3ee8d4d6	0.4547488
122	0xbea06dd2	-0.31333786
123	0x3dca2fd8	0.09872407
124	0x3e6e5b8e	0.23277113
125	0x3e8ae773	0.27129707
126	0xbf1fca64	-0.624182
127	0x3e97c5b9	0.29643038
128	0xbe78b1b5	-0.2428654
129	0x3eb31621	0.3497782
130	0x3eb51017	0.35363838
131	0x3ebd7d43	0.3700963
132	0xbe86abf1	-0.26303056
133	0x3dbfdcad	0.093682624
134	0xbea1ec1a	-0.31625444
135	0x3e96f2b2	0.29482037
136	0x3e99a949	0.30011967
137	0x3ee5e33f	0.44899938
138	0xbeec02fc	-0.46096027
139	0x3ea44abc	0.32088268
140	0xbe37ff51	-0.17968489
141	0x3e8b0402	0.27151495
142	0x3e99807a	0.29980832
143	0x3ef4b8cb	0.47797236

road_emb.1.weight f4 [64, 144]
0	0xbe796bed	-0.24357577
1	0xbf76d2f4	-0.9641564
2	0xbf5170bf	-0.8181266
3	0xbdbb6598	-0.09150237
4	0x3e1c9990	0.15292954
5	0x3e80a62b	0.25126776
6	0xbf40e7d5	-0.7535375
7	0xbebea5b3	-0.37235793
8	0xbf5e408e	-0.8681725
9	0xbdf9b27a	-0.12192245
10	0x3e624b7a	0.22099105
11	0xbeb576ec	-0.35442293
12	0xbe045f6e	-0.12927029
13	0x3e2c76a7	0.16842137
14	0xbf55b7d2	-0.8348361
15	0xbe9c7006	-0.30554217
16	0x3eb78108	0.3584063
17	0x3e20ed65	0.15715559
18	0xbcc7e2c2	-0.024400119
19	0x3dc58de2	0.096462026
20	0x3af75d84	0.0018872474
21	0xbd0aa254	-0.033846214
22	0x3de28702	0.11060907
23	0x3eae109f	0.33997056
24	0x3dce229c	0.10065195
25	0xbd0cf391	-0.03441197
26	0xbe2aba0e	-0.16672537
27	0xbe0d6ec1	-0.1381178
28	0x3e873166	0.26404876
29	0xbe82370c	-0.25432622
30	0xbd80aa49	-0.06282479
31	0xbdc71610	-0.09721005
32	0x3db33776	0.08750813
33	0xbe011925	-0.12607248
34	0x3e9910a9	0.29895523
35	0x3f39425c	0.7236688
36	0xbe40dc40	-0.18834019
37	0x3e555d96	0.20836481
38	0x3e6b7ae6	0.22996101
39	0xbda3d33b	-0.079992734
40	0x3e8d78b6	0.27631158
41	0x3e86ecb1	0.26352456
42	0xbec2b579	-0.38029078
43	0x3e1c6d95	0.15276177
44	0x3d894bbf	0.067039005
45	0xbe654d73	-0.22392826
46	0x3e82d8aa	0.25555927
47	0xbf156f06	-0.58372533
48	0xbe19094b	-0.14944951
49	0x3db6a873	0.08918848
50	0x3e052307	0.13001643
51	0xbe5727cd	-0.21011277
52	0x3e32e9e6	0.17472038
53	0xbc966839	-0.018360244
54	0xbe4ea039	-0.20178308
55	0xbe5fe95e	-0.21866366
56	0x3dc7fd73	0.097651385
57	0x3c307bf1	0.010771737
58	0x3e66a6a4	0.22524506
59	0x3e4d625f	0.20057057
60	0xbe37946d	-0.17927714
61	0x3e7e4a55	0.24833043
62	0x3e539116	0.20660815
63	0x3e46bc06	0.19407663
64	0x3eaf64ba	0.34256536
65	0xbe4ac9f3	-0.198036
66	0x3c41d9e2	0.0118317325
67	0x3e9ccb34	0.30623782
68	0x3e40fc85	0.18846329
69	0xbd979d68	-0.0740307
70	0x3e60a03b	0.21936123
71	0x3d239a12	0.039941855
72	0xbd377965	-0.044793505
73	0xbf746cad	-0.95478326
74	0xbd9964de	-0.07489942
75	0xbdeb0a34	-0.114765555
76	0x3d25cdfe	0.040479653
77	0x3eb5c0e7	0.35498735
78	0xbf827a57	-1.0193585
79	0x3e5cfdf4	0.2158125
80	0xbd06cbc8	-0.032909185
81	0xbeaddacf	-0.33956
82	0xbebb30ae	-0.36560577
83	0xbe3d58d0	-0.1849091
84	0xbebb571f	-0.36589906
85	0xbf0eaf41	-0.55736166
86	0xbe7dcc2d	-0.24784918
87	0x3c9cd5fc	0.019145004
88	0x3debcaf5	0.1151332
89	0xbe94342b	-0.2894605
90	0xbefddbd6	-0.49581784
91	0x3dfb63e5	0.12274913
92	0x3e83d65c	0.2574948
93	0xbf03e859	-0.5152641
94	0xbd881a92	-0.06645693
95	0x3eb14239	0.34620836
96	0xbeb2dac7	-0.3493254
97	0x3d99f933	0.07518234
98	0x3dabcbfe	0.08388518
99	0xbe1ecf8c	-0.1550886
100	0x3e3cf737	0.1845368
101	0x3e03549b	0.12825243
102	0xbf111a8d	-0.5668114
103	0x3ea2ae2d	0.3177351
104	0x3e03dc81	0.12877084
105	0xbf0b9e3e	-0.54538333
106	0x3e2c7dce	0.16844866
107	0xbd8f3a4b	-0.069935404
108	0xbd968a8a	-0.07350643
109	0xbf6e016a	-0.9297091
110	0x3eeba271	0.4602237
111	0xbd7ab07a	-0.061203457
112	0xbddd0ea1	-0.10793806
113	0x3e97a491	0.29617742
114	0xbc350c07	-0.011050231
115	0xbe1d6f77	-0.15374552
116	0x3e97c238	0.29640365
117	0xbe811ed2	-0.25218827
118	0xbe1e09ff	-0.154335
119	0x3c78dae2	0.0151889045
120	0xbeaf67ce	-0.34258884
121	0xbeb081ac	-0.34473932
122	0x3e91dfb1	0.28490975
123	0xbe4de92b	-0.20108478
124	0x3d7bc33f	0.061465498
125	0xbe837e29	-0.2568219
126	0xbe4e8784	-0.20168883
127	0xbe89dce9	-0.26926354
128	0x3ea212f5	0.31655088
129	0xbed875b7	-0.4227731
130	0xbe672521	-0.22572757
131	0x3d8262e1	0.06366516
132	0x3d76db14	0.060267523
133	0x3e519330	0.20466304
134	0x3eb75dfe	0.35813898
135	0xbed6c178	-0.4194448
136	0x3e343d32	0.17601469
137	0xbe17728f	-0.14789794
138	0xbf0b3f33	-0.5439331
139	0xbe84dfb1	-0.25951913
140	0x3edafbca	0.42770225
141	0xbe7aa9a0	-0.2447877
142	0xbe2ffa18	-0.17185247
143	0xbe23b51b	-0.15987055
144	0xbd11e108	-0.035614997
145	0xbe58b176	-0.21161446
146	0x3e4eb553	0.20186357
147	0x3bcd36c7	0.0062626335
148	0xbf1741d2	-0.5908481
149	0xbe38be05	-0.18041237
150	0x3e3b88aa	0.18313852
151	0xbf0d722c	-0.5525234
152	0x3e0aa7cb	0.1354057
153	0x3d40e5e6	0.04709425
154	0xbf285608	-0.65756273
155	0xbde4d293	-0.11172976
156	0xbc3da8fc	-0.011575934
157	0xbedeabbd	-0.434904
158	0x3e018658	0.12648904
159	0xbaf632e2	-0.0018783475
160	0xbf28c137	-0.6591982
161	0xbe34ee98	-0.17669141
162	0xbe84c2d7	-0.259299
163	0xbee7ac65	-0.45248714
164	0xbee488c9	-0.4463561
165	0xbc7971e0	-0.015224904
166	0xbf283944	-0.6571238
167	0xbcd1d115	-0.025612393
168	0xbe7bfe29	-0.24608673
169	0x3e54234e	0.20716593
170	0xbe80aee7	-0.2513344
171	0xbdbdcbdf	-0.09267401
172	0xbef39a0a	-0.4757846
173	0x3e38b137	0.18036352
174	0x3b5597f4	0.0032591792
175	0xbb8bd7a6	-0.0042676507
176	0xbe453f7d	-0.192625
177	0xbe3d2f2d	-0.18475027
178	0xbf083e23	-0.53219813
179	0xbd95b57c	-0.07310006
180	0xbf0e73f8	-0.55645704
181	0x3d9d04dc	0.076669425
182	0x3f0adbd7	0.542417
183	0x3e3c6a0e	0.18399832
184	0xbf29c02a	-0.66308844
185	0xbe7683c1	-0.24073698
186	0x3c89e66a	0.016833503
187	0x3e59c58f	0.21266769
188	0x3eff934a	0.4991706
189	0x3e09fdb2	0.13475683
190	0xbf114518	-0.56746054
191	0xbdaabd19	-0.08336849
192	0x3deb642b	0.11493715
193	0x3ec4b9f2	0.38423115
194	0x3f30e32e	0.6909665
195	0x3dc3b504	0.0955601
196	0xbeeedc5a	-0.4665249
197	0x3ce3dadf	0.027814327
198	0xbdf17a72	-0.11790933
199	0x3edd4279	0.43214777
200	0x3f09d95a	0.5384728
201	0xbdaf12c1	-0.08548499
202	0xbedf4906	-0.436104
203	0xbce3a94e	-0.027790692
204	0xbce6bdfc	-0.028166763
205	0x3da55ad1	0.080739625
206	0x3e583341	0.21113302
207	0xbe106070	-0.14099288
208	0xbe93320c	-0.2874912
209	0x3d780d93	0.06055982
210	0xbd7f20db	-0.062287193
211	0xbedaed04	-0.42758954
212	0x3f03ded7	0.515119
213	0x3cbec41d	0.023286873
214	0xbf6947da	-0.9112526
215	0xbdec36b6	-0.11533873
216	0xbd28d995	-0.041223127
217	0x3e769554	0.24080402
218	0x3ebf2ce2	0.3733893
219	0x3d2d7dfb	0.042356472
220	0xbe0848fc	-0.13309091
221	0xbedf6e1a	-0.43638688
222	0x3de2e19f	0.1107819
223	0xbe29cb06	-0.16581354
224	0x3dd8765d	0.10569451
225	0x3d88de1e	0.066829905
226	0xbe448c12	-0.19194058
227	0xbe586e74	-0.21135885
228	0xbdba2f88	-0.09091097
229	0xbbf4a95b	-0.007466478
230	0x3e764d20	0.24052858
231	0x3e6bb1d6	0.23017058
232	0x3d147d85	0.036252517
233	0x3e2d28b2	0.16910055
234	0xbece7107	-0.40320608
235	0xbefcd34a	-0.4937995
236	0x3eeb9b08	0.46016717
237	0x3e3c2d58	0.18376672
238	0xbd3a94df	-0.04555213
239	0xbe9d1372	-0.30678898
240	0xbe415526	-0.18880138
241	0xbe09caab	-0.13456218
242	0x3f5bdef6	0.85887086
243	0x3e5d70e6	0.21625099
244	0x3c931e89	0.017958896
245	0x3c877ee3	0.016539996
246	0x3e5371e3	0.20648913
247	0x3defd199	0.117098995
248	0x3f1c3129	0.6101251
249	0x3d8357bc	0.064132184
250	0x3e9ae07d	0.30249396
251	0xbdd451e7	-0.10367184
252	0xbe952109	-0.29126766
253	0xbd82ccf1	-0.06386746
254	0x3e705d48	0.23473084
255	0x3ec41c24	0.3830272

road_emb.1.bias f4 [64]
0	0xbe4a1df3	-0.19737987
1	0xbdaf0154	-0.08545175
2	0x3e5053bc	0.20344442
3	0xbdbef89b	-0.093247615
4	0x3d948775	0.07252399
5	0xbdeb1b14	-0.11479774
6	0xbebeff55	-0.37304178
7	0xbea7641c	-0.32693565
8	0xbcb522cd	-0.02211132
9	0xbe1c9f33	-0.15295105
10	0xbe1c471c	-0.15261501
11	0x3dc9d788	0.098555624
12	0xbeb44b18	-0.35213542
13	0xbe46e6c2	-0.19423965
14	0x3ceb9762	0.028758708
15	0xbe2b97ed	-0.16757174
16	0xbe1edc2f	-0.15513681
17	0xbdedfcb2	-0.116204634
18	0xbf0a9316	-0.54130685
19	0xbd444ec2	-0.04792667
20	0xbe0c3e70	-0.13695693
21	0xbd1a9fc0	-0.037750006
22	0x3d9e4b94	0.07729259
23	0xbde2fc79	-0.110833116
24	0xbe303c11	-0.17210414
25	0xbdd61fe2	-0.104553
26	0xbe8aebfb	-0.27133164
27	0xbdefc9f1	-0.11708439
28	0xbe64b7bd	-0.22335716
29	0xbe42b758	-0.19015253
30	0xbd58f29a	-0.052965738
31	0xbd14b87e	-0.036308758
32	0xbe3720a5	-0.17883547
33	0xbe7a7e50	-0.24462247
34	0xbe360daf	-0.17778657
35	0xbe880183	-0.26563653
36	0xbee5243e	-0.44754213
37	0xbe397319	-0.18110313
38	0xbdec30a6	-0.115327165
39	0xbe415741	-0.18880941
40	0xbdb0f1fd	-0.086399056
41	0xbe0c7503	-0.13716511
42	0xbe86aeee	-0.26305336
43	0xbdb1f333	-0.08688965
44	0xbe59b751	-0.21261336
45	0xbe49c96d	-0.19705744
46	0xbe1fe531	-0.15614773
47	0xbe3eb296	-0.18622813
48	0x3b83ca65	0.00402193
49	0xbe09a918	-0.1344341
50	0xbed1e70f	-0.40996596
51	0xbd11d067	-0.03559914
52	0xbe855d78	-0.26047873
53	0x3d97df72	0.07415666
54	0xbe9a9c41	-0.30197337
55	0xbeb89b87	-0.36056158
56	0xbf0dade8	-0.55343485
57	0xbdd4ae73	-0.10384836
58	0xbe60c6e7	-0.21950875
59	0xbda64348	-0.08118302
60	0xbe29ac1c	-0.16569561
61	0xbe0e0b63	-0.13871531
62	0xbdaae5c9	-0.08344609
63	0xbe6847c3	-0.22683625

cav_emb.0.weight f4 [11]
0	0x3f800000	1.0
1	0x3f800000	1.0
2	0x3f800000	1.0
3	0x3f800000	1.0
4	0x3f800000	1.0
5	0x3f800000	1.0
6	0x3f800000	1.0
7	0x3f800000	1.0
8	0x3f800000	1.0
9	0x3f800000	1.0
10	0x3f800000	1.0

cav_emb.0.bias f4 [11]
0	0x00000000	0.0
1	0x00000000	0.0
2	0x00000000	0.0
3	0x00000000	0.0
4	0x00000000	0.0
5	0x00000000	0.0
6	0x00000000	0.0
7	0x00000000	0.0
8	0x00000000	0.0
9	0x00000000	0.0
10	0x00000000	0.0

cav_emb.1.weight f4 [64, 11]
0	0x3e249e53	0.16076021
1	0xbeb2f547	-0.34952757
2	0xbde6a812	-0.112625256
3	0x3e932e68	0.28746343
4	0xbc8b7e44	-0.017027982
5	0x3d933112	0.07187094
6	0x3dc99625	0.09843091
7	0xbe845d08	-0.25852227
8	0x3cde68a1	0.0271495
9	0xbdce2c62	-0.10067059
10	0xbe472804	-0.19448858
11	0x3e7c0829	0.24612488
12	0xbed2c062	-0.411624
13	0xbd88b159	-0.066744514
14	0x3dfb8572	0.12281312
15	0xbc6771bc	-0.0141262375
16	0x3e029160	0.12750769
17	0x3dd96596	0.10615079
18	0xbd6a9af5	-0.057276685
19	0x3dc17bb9	0.09447426
20	0xbe924ae1	-0.28572753
21	0xbe1f1d0a	-0.15538421
22	0xbd06a140	-0.032868624
23	0xbe187ee4	-0.14892155
24	0xbd98bcfd	-0.07457922
25	0xbebbbb46	-0.36666316
26	0xbdc1f5c7	-0.094707064
27	0x3e1d683e	0.15371796
28	0x3e139467	0.1441208
29	0x3d71f32b	0.059069794
30	0xbe4b242e	-0.1983802
31	0x3e4f51b2	0.20246008
32	0xbe82ad04	-0.25522625
33	0xbde471e4	-0.111545354
34	0x3da40470	0.08008659
35	0x3d8f79d2	0.07005657
36	0xbe4881a2	-0.19580701
37	0x3dfb6706	0.122755095
38	0xbc1a7938	-0.009428315
39	0x3e57eed3	0.21087198
40	0xbde69dc2	-0.11260559
41	0xbd1426db	-0.036169868
42	0xbeca21eb	-0.39479002
43	0x3e77a1c7	0.24182807
44	0x3e6c4a47	0.2307521
45	0x3de8080c	0.1132966
46	0xbe3b6724	-0.18301064
47	0x3ead6dde	0.33872885
48	0x3deb3586	0.11484818
49	0x3e2ece57	0.170709
50	0x3dd76310	0.105169415
51	0x3ddee876	0.10884182
52	0x3e2cfa2b	0.16892307
53	0x3c524d9a	0.0128358845
54	0x3e2c29ab	0.1681277
55	0xbe4c05bc	-0.19924062
56	0x3dd35a45	0.10319952
57	0x3e6a65d6	0.2289041
58	0x3d19f9e3	0.037591826
59	0x3d411f8f	0.047149237
60	0xbe533644	-0.2062617
61	0x3cb32671	0.021868916
62	0xbe8210a0	-0.2540331
63	0xbc870af2	-0.016484711
64	0x3d84dba3	0.06487205
65	0x3d9d4636	0.07679407
66	0x3ea2710d	0.31726876
67	0x3db4cd64	0.08828238
68	0x3d379e20	0.044828534
69	0xbed49f76	-0.4152791
70	0x3e2e0a7b	0.16996185
71	0xbda9a125	-0.08282689
72	0xbe03d4b3	-0.12874107
73	0x3cc9e6d1	0.024646195
74	0xbe244266	-0.16040954
75	0x3e1bf389	0.1522962
76	0xbe42dae4	-0.19028813
77	0x3d86fdc4	0.06591371
78	0x3e0fde71	0.14049698
79	0x3d0fcd14	0.035107687
80	0x3dc66590	0.0968734
81	0x3ea45e10	0.32103014
82	0xbe7884f3	-0.24269466
83	0xbe3447db	-0.17605536
84	0xbe6583d4	-0.2241357
85	0xbda59dad	-0.08086715
86	0x3e6f8ae1	0.23392822
87	0xbdd3d987	-0.103442244
88	0x3d41bd5d	0.04729973
89	0xbe5d38bd	-0.21603675
90	0x3eda5ae4	0.4264747
91	0x3e2460cc	0.1605255
92	0xbe9188c9	-0.2842467
93	0xbe39ee67	-0.1815735
94	0x3b11d8df	0.002225451
95	0xbdeac5be	-0.114634976
96	0x3e33657c	0.17519182
97	0x3b08e9e6	0.0020891367
98	0xbec654fd	-0.38736716
99	0x3d62c476	0.05536314
100	0xbe333eb7	-0.17504393
101	0xbdcdb11f	-0.10043549
102	0xbeabad11	-0.33530477
103	0xbe18a6f6	-0.1490744
104	0x3d9f2896	0.07771413
105	0xbdd1a995	-0.10237423
106	0x3edae50a	0.42752868
107	0xbe3127b4	-0.17300302
108	0xbdbd5883	-0.09245398
109	0x3dc23c70	0.09484184
110	0xbd93951b	-0.07206174
111	0xbd8205a9	-0.06348736
112	0x3daa629c	0.083195895
113	0xbe8b1a3d	-0.27168456
114	0x3e4ed9af	0.20200227
115	0x3cf690bd	0.030098313
116	0xbd6011e6	-0.05470457
117	0xbeb2e3c9	-0.3493941
118	0xbcbc18bf	-0.022961019
119	0x3df726c8	0.12067944
120	0xbe8ad821	-0.27118018
121	0xbda10019	-0.07861347
122	0xbe314485	-0.17311294
123	0xbd8c9dfa	-0.06866069
124	0xbdd830ea	-0.105562046
125	0x3e754e5d	0.23955674
126	0x3ecf77ed	0.40521184
127	0x3c975fc3	0.01847828
128	0xbcc5c24c	-0.0241405
129	0xbdbff8e0	-0.09373641
130	0x3e0b6b99	0.13615264
131	0x3d8bb05c	0.06820747
132	0x3e020f16	0.12701067
133	0x3b8c9da9	0.0042912555
134	0xbdf75224	-0.12076214
135	0x3e41ee9a	0.18938676
136	0x3e0fa65f	0.1402831
137	0xbe2e05fc	-0.1699447
138	0xbe12c4f8	-0.1433295
139	0x3bfae414	0.0076565836
140	0x3dd298a2	0.10283019
141	0x3ebebcc1	0.37253383
142	0xbd9c3c50	-0.07628691
143	0xbe3c2d10	-0.18376565
144	0xbc2c2a4f	-0.010508134
145	0x3e99da39	0.30049303
146	0x3e3bfb42	0.18357566
147	0xbbb8766f	-0.0056293528
148	0xbe97043d	-0.2949542
149	0xbdeff3d7	-0.11716431
150	0x3e911511	0.28336385
151	0x3e3eb2e8	0.18622935
152	0x3d146fa1	0.03623927
153	0xbdcf618c	-0.101260275
154	0x3e26ad08	0.16276944
155	0xbd920864	-0.07130507
156	0xbe54e267	-0.2078949
157	0xbe1d8bde	-0.15385386
158	0xbd991566	-0.074747846
159	0x3e34a3c8	0.17640603
160	0xbdd051b5	-0.101718344
161	0x3db078a6	0.08616762
162	0xbd839bd6	-0.06426208
163	0x3e860425	0.26175037
164	0xbd62fdae	-0.05541771
165	0x3ea002cb	0.3125213
166	0xbc232c6f	-0.009959324
167	0x3d0d0c58	0.0344356
168	0x3dd979b0	0.10618913
169	0x3d14a603	0.036291134
170	0x3de13239	0.10995907
171	0xbdea28fa	-0.11433597
172	0x3db08851	0.0861975
173	0x3d3df10b	0.046372455
174	0xbd544eab	-0.051832836
175	0x3ea16c8a	0.3152812
176	0x3d209dc2	0.03921295
177	0x3da90068	0.082520306
178	0xbd10d21a	-0.03535662
179	0x3dfb868d	0.12281523
180	0xbb562bab	-0.0032679837
181	0x3ed74547	0.42045042
182	0xbdb65f5e	-0.089049086
183	0x3e56fde2	0.20995286
184	0xbd93aaf7	-0.07210343
185	0x3e5d1ec6	0.2159377
186	0x3cf6440c	0.030061744
187	0xbdb588a0	-0.0886395
188	0xbdb6d6c3	-0.08927681
189	0x3e5c5d7a	0.21520033
190	0xbdea70df	-0.1144731
191	0xbdb20dfd	-0.08694074
192	0xbe420157	-0.18945824
193	0xbf00c653	-0.5030262
194	0xbe166a78	-0.14689052
195	0x3d3e501c	0.046463117
196	0x3d210941	0.039315466
197	0xbdd6f607	-0.10496145
198	0xbe0223c0	-0.1270895
199	0xbecabb7e	-0.3959617
200	0x3df16f3a	0.11788793
201	0x3d5b3f7a	0.053527333
202	0xbcc71db0	-0.024306148
203	0xbd9a047a	-0.07520385
204	0xbeb74a3f	-0.35798833
205	0xbdf3a563	-0.118967794
206	0x3e76ef2b	0.24114673
207	0x3e1f487a	0.15554991
208	0x3e8cd3ed	0.27505437
209	0x3d65d7a8	0.05611387
210	0x3d9e20e0	0.07721114
211	0x3e532135	0.20618136
212	0xbe06a5fe	-0.13149258
213	0x3dcfb750	0.10142386
214	0x3dfcd99c	0.12346193
215	0xbd851b51	-0.06499351
216	0x3ec24368	0.37942052
217	0x3eb851b4	0.35999835
218	0x3cae13fa	0.02124976
219	0xbe7e7f88	-0.24853337
220	0x3e2c9ccc	0.16856688
221	0xbbd89de0	-0.006610617
222	0x3c4dd33e	0.012562571
223	0xbd85088b	-0.0649577
224	0x3c91a1e9	0.0177774
225	0x3d5a978f	0.053367194
226	0x3d11d022	0.03559888
227	0xbd3c1299	-0.045916174
228	0xbe82f610	-0.25578356
229	0x3e24e882	0.1610432
230	0x3ccf630d	0.025315786
231	0xbe278cd9	-0.16362323
232	0x3e9915f2	0.29899555
233	0xbe3c371d	-0.18380399
234	0x3e0342ca	0.12818447
235	0x3dbeccdc	0.093164176
236	0xbd06d0b5	-0.032913882
237	0x3db2cbeb	0.087303005
238	0x3da89187	0.08230882
239	0x3e36948b	0.17830102
240	0x3cd2ec1d	0.025747353
241	0xbe10290a	-0.14078155
242	0x3ee75219	0.45179823
243	0xbe229356	-0.15876517
244	0xbd8b6e32	-0.068081275
245	0xbd1adc64	-0.037807837
246	0x3e8b830f	0.27248427
247	0x3e62f202	0.22162631
248	0xbcac6b63	-0.0210473
249	0xbe05483e	-0.1301584
250	0x3bcb76a6	0.0062092124
251	0x3dda6444	0.106636554
252	0xbe174f27	-0.14776288
253	0xbb6cc4f4	-0.0036128135
254	0x3df75340	0.120764256
255	0x3e5b513f	0.21417712

cav_emb.1.bias f4 [64]
0	0x00000000	0.0
1	0x00000000	0.0
2	0x00000000	0.0
3	0x00000000	0.0
4	0x00000000	0.0
5	0x00000000	0.0
6	0x00000000	0.0
7	0x00000000	0.0
8	0x00000000	0.0
9	0x00000000	0.0
10	0x00000000	0.0
11	0x00000000	0.0
12	0x00000000	0.0
13	0x00000000	0.0
14	0x00000000	0.0
15	0x00000000	0.0
16	0x00000000	0.0
17	0x00000000	0.0
18	0x00000000	0.0
19	0x00000000	0.0
20	0x00000000	0.0
21	0x00000000	0.0
22	0x00000000	0.0
23	0x00000000	0.0
24	0x00000000	0.0
25	0x00000000	0.0
26	0x00000000	0.0
27	0x00000000	0.0
28	0x00000000	0.0
29	0x00000000	0.0
30	0x00000000	0.0
31	0x00000000	0.0
32	0x00000000	0.0
33	0x00000000	0.0
34	0x00000000	0.0
35	0x00000000	0.0
36	0x00000000	0.0
37	0x00000000	0.0
38	0x00000000	0.0
39	0x00000000	0.0
40	0x00000000	0.0
41	0x00000000	0.0
42	0x00000000	0.0
43	0x00000000	0.0
44	0x00000000	0.0
45	0x00000000	0.0
46	0x00000000	0.0
47	0x00000000	0.0
48	0x00000000	0.0
49	0x00000000	0.0
50	0x00000000	0.0
51	0x00000000	0.0
52	0x00000000	0.0
53	0x00000000	0.0
54	0x00000000	0.0
55	0x00000000	0.0
56	0x00000000	0.0
57	0x00000000	0.0
58	0x00000000	0.0
59	0x00000000	0.0
60	0x00000000	0.0
61	0x00000000	0.0
62	0x00000000	0.0
63	0x00000000	0.0

att.mask f4 [1, 1, 145, 145]
0	0x3f800000	1.0
1	0x00000000	0.0
2	0x00000000	0.0
3	0x00000000	0.0
4	0x00000000	0.0
5	0x00000000	0.0
6	0x00000000	0.0
7	0x00000000	0.0
8	0x00000000	0.0
9	0x00000000	0.0
10	0x00000000	0.0
11	0x00000000	0.0
12	0x00000000	0.0
13	0x00000000	0.0
14	0x00000000	0.0
15	0x00000000	0.0
16	0x00000000	0.0
17	0x00000000	0.0
18	0x00000000	0.0
19	0x00000000	0.0
20	0x00000000	0.0
21	0x00000000	0.0
22	0x00000000	0.0
23	0x00000000	0.0
24	0x00000000	0.0
25	0x00000000	0.0
26	0x00000000	0.0
27	0x00000000	0.0
28	0x00000000	0.0
29	0x00000000	0.0
30	0x00000000	0.0
31	0x00000000	0.0
32	0x00000000	0.0
33	0x00000000	0.0
34	0x00000000	0.0
35	0x00000000	0.0
36	0x00000000	0.0
37	0x00000000	0.0
38	0x00000000	0.0
39	0x00000000	0.0
40	0x00000000	0.0
41	0x00000000	0.0
42	0x00000000	0.0
43	0x00000000	0.0
44	0x00000000	0.0
45	0x00000000	0.0
46	0x00000000	0.0
47	0x00000000	0.0
48	0x00000000	0.0
49	0x00000000	0.0
50	0x00000000	0.0
51	0x00000000	0.0
52	0x00000000	0.0
53	0x00000000	0.0
54	0x00000000	0.0
55	0x00000000	0.0
56	0x00000000	0.0
57	0x00000000	0.0
58	0x00000000	0.0
59	0x00000000	0.0
60	0x00000000	0.0
61	0x00000000	0.0
62	0x00000000	0.0
63	0x00000000	0.0
64	0x00000000	0.0
65	0x00000000	0.0
66	0x00000000	0.0
67	0x00000000	0.0
68	0x00000000	0.0
69	0x00000000	0.0
70	0x00000000	0.0
71	0x00000000	0.0
72	0x00000000	0.0
73	0x00000000	0.0
74	0x00000000	0.0
75	0x00000000	0.0
76	0x00000000	0.0
77	0x00000000	0.0
78	0x00000000	0.0
79	0x00000000	0.0
80	0x00000000	0.0
81	0x00000000	0.0
82	0x00000000	0.0
83	0x00000000	0.0
84	0x00000000	0.0
85	0x00000000	0.0
86	0x00000000	0.0
87	0x00000000	0.0
88	0x00000000	0.0
89	0x00000000	0.0
90	0x00000000	0.0
91	0x00000000	0.0
92	0x00000000	0.0
93	0x00000000	0.0
94	0x00000000	0.0
95	0x00000000	0.0
96	0x00000000	0.0
97	0x00000000	0.0
98	0x00000000	0.0
99	0x00000000	0.0
100	0x00000000	0.0
101	0x00000000	0.0
102	0x00000000	0.0
103	0x00000000	0.0
104	0x00000000	0.0
105	0x00000000	0.0
106	0x00000000	0.0
107	0x00000000	0.0
108	0x00000000	0.0
109	0x00000000	0.0
110	0x00000000	0.0
111	0x00000000	0.0
112	0x00000000	0.0
113	0x00000000	0.0
114	0x00000000	0.0
115	0x00000000	0.0
116	0x00000000	0.0
117	0x00000000	0.0
118	0x00000000	0.0
119	0x00000000	0.0
120	0x00000000	0.0
121	0x00000000	0.0
122	0x00000000	0.0
123	0x00000000	0.0
124	0x00000000	0.0
125	0x00000000	0.0
126	0x00000000	0.0
127	0x00000000	0.0
128	0x00000000	0.0
129	0x00000000	0.0
130	0x00000000	0.0
131	0x00000000	0.0
132	0x00000000	0.0
133	0x00000000	0.0
134	0x00000000	0.0
135	0x00000000	0.0
136	0x00000000	0.0
137	0x00000000	0.0
138	0x00000000	0.0
139	0x00000000	0.0
140	0x00000000	0.0
141	0x00000000	0.0
142	0x00000000	0.0
143	0x00000000	0.0
144	0x00000000	0.0
145	0x3f800000	1.0
146	0x3f800000	1.0
147	0x00000000	0.0
148	0x00000000	0.0
149	0x00000000	0.0
150	0x00000000	0.0
151	0x00000000	0.0
152	0x00000000	0.0
153	0x00000000	0.0
154	0x00000000	0.0
155	0x00000000	0.0
156	0x00000000	0.0
157	0x00000000	0.0
158	0x00000000	0.0
159	0x00000000	0.0
160	0x00000000	0.0
161	0x00000000	0.0
162	0x00000000	0.0
163	0x00000000	0.0
164	0x00000000	0.0
165	0x00000000	0.0
166	0x00000000	0.0
167	0x00000000	0.0
168	0x00000000	0.0
169	0x00000000	0.0
170	0x00000000	0.0
171	0x00000000	0.0
172	0x00000000	0.0
173	0x00000000	0.0
174	0x00000000	0.0
175	0x00000000	0.0
176	0x00000000	0.0
177	0x00000000	0.0
178	0x00000000	0.0
179	0x00000000	0.0
180	0x00000000	0.0
181	0x00000000	0.0
182	0x00000000	0.0
183	0x00000000	0.0
184	0x00000000	0.0
185	0x00000000	0.0
186	0x00000000	0.0
187	0x00000000	0.0
188	0x00000000	0.0
189	0x00000000	0.0
190	0x00000000	0.0
191	0x00000000	0.0
192	0x00000000	0.0
193	0x00000000	0.0
194	0x00000000	0.0
195	0x00000000	0.0
196	0x00000000	0.0
197	0x00000000	0.0
198	0x00000000	0.0
199	0x00000000	0.0
200	0x00000000	0.0
201	0x00000000	0.0
202	0x00000000	0.0
203	0x00000000	0.0
204	0x00000000	0.0
205	0x00000000	0.0
206	0x00000000	0.0
207	0x00000000	0.0
208	0x00000000	0.0
209	0x00000000	0.0
210	0x00000000	0.0
211	0x00000000	0.0
212	0x00000000	0.0
213	0x00000000	0.0
214	0x00000000	0.0
215	0x00000000	0.0
216	0x00000000	0.0
217	0x00000000	0.0
218	0x00000000	0.0
219	0x00000000	0.0
220	0x00000000	0.0
221	0x00000000	0.0
222	0x00000000	0.0
223	0x00000000	0.0
224	0x00000000	0.0
225	0x00000000	0.0
226	0x00000000	0.0
227	0x00000000	0.0
228	0x00000000	0.0
229	0x00000000	0.0
230	0x00000000	0.0
231	0x00000000	0.0
232	0x00000000	0.0
233	0x00000000	0.0
234	0x00000000	0.0
235	0x00000000	0.0
236	0x00000000	0.0
237	0x00000000	0.0
238	0x00000000	0.0
239	0x00000000	0.0
240	0x00000000	0.0
241	0x00000000	0.0
242	0x00000000	0.0
243	0x00000000	0.0
244	0x00000000	0.0
245	0x00000000	0.0
246	0x00000000	0.0
247	0x00000000	0.0
248	0x00000000	0.0
249	0x00000000	0.0
250	0x00000000	0.0
251	0x00000000	0.0
252	0x00000000	0.0
253	0x00000000	0.0
254	0x00000000	0.0
255	0x00000000	0.0
