route_TSC/model/0.5_dso_0315/best_model/target_q_netveh.pt (torch, 559613 bytes, 27 tensors)

attn f4 [1, 2, 38]
2.3063796e-36 9.42e-43 0.0 0.0 0.0 0.0 0.0 0.0
0.0 0.0 0.0 0.0 0.0 0.0 0.0 0.0
0.0 0.0 0.0 0.0 0.0 0.0 0.0 0.0
0.0 0.0 0.0 0.0 0.0 0.0 0.0 0.0
0.0 0.0 0.0 0.0 0.0 0.0 0.0 0.0
0.0 0.0 0.0 0.0 0.0 0.0 0.0 0.0
0.0 0.0 0.0 0.0 0.0 0.0 0.0 0.0
0.0 0.0 0.0 0.0 0.0 0.0 0.0 0.0
0.0 0.0 0.0 0.0 0.0 0.0 0.0 0.0
0.0 0.0 0.0 0.0
00000000: 8034 4404 a002 0000 0000 0000 0000 0000
00000010: 0000 0000 0000 0000 0000 0000 0000 0000
00000020: 0000 0000 0000 0000 0000 0000 0000 0000
00000030: 0000 0000 0000 0000 0000 0000 0000 0000
00000040: 0000 0000 0000 0000 0000 0000 0000 0000
00000050: 0000 0000 0000 0000 0000 0000 0000 0000
00000060: 0000 0000 0000 0000 0000 0000 0000 0000
00000070: 0000 0000 0000 0000 0000 0000 0000 0000
00000080: 0000 0000 0000 0000 0000 0000 0000 0000
00000090: 0000 0000 0000 0000 0000 0000 0000 0000
000000a0: 0000 0000 0000 0000 0000 0000 0000 0000
000000b0: 0000 0000 0000 0000 0000 0000 0000 0000
000000c0: 0000 0000 0000 0000 0000 0000 0000 0000
000000d0: 0000 0000 0000 0000 0000 0000 0000 0000
000000e0: 0000 0000 0000 0000 0000 0000 0000 0000
000000f0: 0000 0000 0000 0000 0000 0000 0000 0000
00000100: 0000 0000 0000 0000 0000 0000 0000 0000
00000110: 0000 0000 0000 0000 0000 0000 0000 0000
00000120: 0000 0000 0000 0000 0000 0000 0000 0000

fc0.weight f4 [32, 2315]
0.008053379 -0.017423129 -0.010455104 -0.018569874 -0.0060260235 -0.018753193 0.0082751205 0.015277304
0.0077287387 0.00043236878 -0.0060570855 -0.006531042 -0.001934739 0.005524618 0.006482433 0.01708145
0.0126200495 -0.0023560175 -0.010936924 -0.018129094 0.005925782 -0.011037657 0.004765596 -0.015590958
-0.016002044 -0.01614402 -0.019570334 0.019756468 -0.006714468 -0.009992461 -0.010022556 -0.0051833657
-0.0068621784 -0.0033227382 -0.018837167 0.01606519 0.00040756795 0.006490078 -0.0032691865 -0.0019726404
-0.020437567 -0.011787293 0.00086848653 -0.00914544 0.01620682 -0.011152618 -0.009391111 -0.009527903
-0.007887008 -0.013347559 0.013743561 -0.012307338 0.0129236635 0.013803479 -0.017099084 -0.0010461997
-0.007603742 0.0013848849 0.020599803 0.0056900564 -0.00082016684 -0.0045450698 -0.007761235 -0.017772375
0.0011997491 -0.010324703 0.01697777 -0.0076483763 0.01675398 -0.01868164 0.0012083838 -0.0014658249
0.0046686633 0.009270121 -0.008800293 0.019847468 0.0037061705 -0.004822328 0.010265398 0.007833434
0.018560618 0.019671133 -0.006460534 0.0059846644 0.0042424235 0.01986208 0.003891987 -0.010681577
-0.017248685 -0.016927604 0.0073985 0.002923261 -0.018396385 -0.020318009 -0.01108315 0.00074275845
0.0034726115 0.01691858 -0.0005926028 0.016276766 -0.0010541235 -0.0087550115 -0.009874841 0.0035508196
0.015750436 0.00441219 0.01150789 -0.006344085 -0.016312255 -0.019802967 -0.0029301452 -0.012920818
0.01898535 -0.0015954722 0.011018299 -0.005591933 0.010644007 -0.0019996956 0.016415695 0.019192908
0.004112439 -0.017337523 0.00021761982 -0.011125303 0.0042216005 -0.003311342 0.012771827 0.0039811465
-0.017386552 0.01200723 -0.0038327847 0.014782636 -0.0053801294 0.013548648 -0.019443393 0.0038785317
-0.018068936 -0.0015767859 0.011562173 -0.004053159 -0.016180577 0.009202645 -0.015960282 0.009752816
0.015640656 0.0106456205 0.005537435 0.015610462 -0.015315205 0.017164255 -0.0133636175 0.012551128
0.01266289 -0.0038906527 0.0071134386 0.0008079341 0.0017440295 -0.0059705535 -0.013840154 0.014815509
0.012420873 0.020762999 -0.017554667 -0.015733417 0.003172021 0.00966504 0.015516225 -0.018998964
-0.008796719 -0.0151091125 0.02024157 -0.007880355 -0.012053546 -0.004106442 0.010506396 0.007432433
-0.013608336 -0.019369341 -0.017146198 0.0056545995 -0.0023719107 -0.018749915 -0.019930273 -0.008644486
-0.010056166 0.0036404433 -0.0074979807 0.004904188 -0.0024710647 0.0068031456 0.020220177 -0.00022101367
0.012106152 -0.0008649495 0.0025059627 0.017976956 -0.015585575 -0.009622222 -0.018103203 -0.020622846
-0.0054876227 0.017839648 -0.011925864 -0.0027691147 -0.0076254536 0.007468215 -0.007844156 0.0024303554
-0.018052788 0.019119022 0.01583438 -0.008780156 -0.007940896 0.010061674 0.00073521654 0.018473988
0.010650016 0.0049363673 0.0002946783 0.01772978 -0.003615544 -0.019795595 -0.017203085 -0.0073864837
0.019350244 0.017205963 -0.017840412 0.014768323 -0.007917844 -0.019721255 0.011602113 -0.00684138
-0.008558162 0.019546507 0.0030890396 -0.003241944 -0.016597545 0.013510117 0.0012696804 -0.0073939273
-0.015615084 -0.009239664 -0.01726363 -0.0051176585 -0.004032251 0.006030408 -0.013745639 -0.01937307
0.010402112 0.0021792997 0.0039581573 0.010887537 0.006839296 -0.013395399 0.013595731 0.0031552
00000000: 52f2 033c f3ba 8ebc e24b 2bbc d91f 98bc
00000010: f375 c5bb 4ca0 99bc 5f94 073c a84d 7a3c
00000020: 5c41 fd3b 8eaf e239 847a c6bb 5a02 d6bb
00000030: 1197 fdba db07 b53b 976a d43b 66ee 8b3c
00000040: 53c4 4e3c 6a67 1abb c930 33bc 7783 94bc
00000050: 102d c23b 4ad7 34bc b728 9c3b 3871 7fbc
00000060: b816 83bc 7740 84bc f751 a0bc 51d8 a13c
00000070: 0a05 dcbb 6bb7 23bc a635 24bc 39d9 a9bb
00000080: 20dc e0bb 4cc2 59bb 6750 9abc 259b 833c
00000090: d8ae d539 b8aa d43b d93f 56bb 6a47 01bb
000000a0: af6c a7bc 7d1f 41bc 25ab 633a c1d6 15bc
000000b0: 2ac4 843c 78b9 36bc 2ddd 19bc ec1a 1cbc
000000c0: 8238 01bc b8af 5abc ac2c 613c b8a4 49bc
000000d0: c6bd 533c fd27 623c 6113 8cbc a320 89ba
000000e0: d028 f9bb 0785 b53a ebc0 a83c a773 ba3b
000000f0: 7700 57ba cfee 94bb f551 febb 5f97 91bc
00000100: e640 9d3a f128 29bc f714 8b3c 3b9f fabb
00000110: a53f 893c 3d0a 99bc a262 9e3a ec20 c0ba
00000120: 96fb 983b b5e1 173c 1b2f 10bc 2897 a23c
00000130: 39e3 723b 9f04 9ebb 3330 283c ce57 003c
00000140: 700c 983c 5b25 a13c e3b2 d3bb 011b c43b
00000150: 0704 8b3b cdb5 a23c b510 7f3b c801 2fbc
00000160: 1d4d 8dbc c2ab 8abc 1e6f f23b 2e94 3f3b
00000170: 04b4 96bc f471 a6bc 1a96 35bc adb5 423a
00000180: c194 633b d598 8a3c e758 1bba da56 853c
00000190: 842a 8aba 2e71 0fbc 16ca 21bc deb4 683b
000001a0: 0f07 813c 2294 903b 978b 3c3c 0be2 cfbb
000001b0: 47a1 85bc d539 a2bc ae07 40bb d7b1 53bc
000001c0: 2a87 9b3c 2a1f d1ba 1886 343c 893c b7bb
000001d0: 3364 2e3c 530d 03bb 357a 863c 723a 9d3c
000001e0: a4c1 863b 6c07 8ebc e030 6439 e746 36bc
000001f0: 5a55 8a3b 1a03 59bb ed40 513c 4774 823b
00000200: 3e6e 8ebc f9b9 443c 752f 7bbb df32 723c
00000210: cc4b b0bb 26fb 5d3c c047 9fbc f72e 7e3b
00000220: 4e05 94bc 28ac ceba 456f 3d3c 5dd0 84bb
00000230: 218d 84bc b1c6 163c 23bf 82bc 46ca 1f3c
00000240: d520 803c f86a 2e3c 5f73 b53b 06c3 7f3c
00000250: a0ec 7abc 0d9c 8c3c 13f3 5abc 3fa3 4d3c
00000260: 0378 4f3c 52fa 7ebb d917 e93b 8acb 533a
00000270: eb97 e43a a2a4 c3bb d0c1 62bc c0bc 723c
00000280: eb80 4b3c 2a17 aa3c cece 8fbc 5ee3 80bc
00000290: aee1 4f3b 1e5a 1e3c c437 7e3c b7a3 9bbc
000002a0: 1d20 10bc 368c 77bc a6d1 a53c 9b1c 01bc
000002b0: 3c7c 45bc 558f 86bb 0523 2c3c c48b f33b
000002c0: 80f5 5ebc 74ac 9ebc 2f76 8cbc 384a b93b
000002d0: 0f72 1bbb 6c99 99bc d044 a3bc 9aa1 0dbc
000002e0: 9ec2 24bc 8194 6e3b 9fb1 f5bb 50b3 a03b
000002f0: 96f1 21bb ecec de3b c9a4 a53c e8bf 67b9
00000300: e258 463c c7bd 62ba 143b 243b 6944 933c
00000310: a45a 7fbc 86a6 1dbc 2b4d 94bc 3ef1 a8bc
00000320: 84d1 b3bb 7424 923c b364 43bc 097a 35bb
00000330: f1de f9bb eeb7 f43b c684 00bc 9946 1f3b
00000340: 71e3 93bc 7f9f 9c3c 1ab7 813c a5da 0fbc
00000350: 881a 02bc b8d9 243c 8cbb 403a c356 973c
00000360: 687d 2e3c 40c1 a13b 0d7f 9a39 0b3e 913c
00000370: c3f2 6cbb 5f2a a2bc 7ced 8cbc 510a f2bb
00000380: 6784 9e3c 85f3 8c3c 0e26 92bc d6f6 713c
00000390: d8b9 01bc 788e a1bc ca16 3e3c a82d e0bb
000003a0: 8837 0cbc ff1f a03c 7c71 4a3b cb76 54bb
000003b0: 93f7 87bc 8a59 5d3c 686b a63a c248 f2bb
000003c0: 69d6 7fbc f661 17bc 756c 8dbc 08b2 a7bb
000003d0: f920 84bb bb9a c53b 6335 61bc 46b4 9ebc
000003e0: 9f6d 2a3c 95d2 0e3b 6eb3 813b a461 323c
000003f0: 2c1c e03b 6078 5bbc a1c0 5e3c 79c7 4e3b

fc0.bias f4 [32]
0.015092073 -0.016610501 -0.01569177 -0.0009588843 -0.0132242385 -0.009390915 -0.00096362905 -0.012617911
-0.018312495 -0.0103819575 -0.014839271 0.0028241763 -0.0054322504 0.020423569 0.017246699 -0.013231936
-0.015422903 0.0042587887 0.0031644055 -0.017340617 -0.016162988 -0.016725348 -0.009808754 -0.00033004172
-0.016059805 0.007634826 -0.015497092 0.009467881 -0.0047532087 0.01884928 0.0131944455 0.004105592
00000000: be44 773c bf12 88bc 078c 80bc a35d 7bba
00000010: 7aaa 58bc 5adc 19bc 0d9c 7cba 5bbb 4ebc
00000020: 1604 96bc 1619 2abc 6a20 73bc d115 393b
00000030: 0501 b2bb 544f a73c f348 8d3c c3ca 58bc
00000040: 58b0 7cbc 4f8d 8b3b ea61 4f3b e90d 8ebc
00000050: 3e68 84bc 9903 89bc e5b4 20bc 7309 adb9
00000060: da8f 83bc 902d fa3b 84e7 7dbc 2c1f 1b3c
00000070: cec0 9bbb ce69 9a3c 842d 583c 3488 863b

fc1.weight f4 [32, 32]
-0.12637372 0.040385112 -0.10091393 -0.074454136 0.11150106 0.1640263 -0.0068190047 -0.14233465
0.007654079 -0.09375029 0.14834239 0.05286706 -0.14341186 0.01862873 0.12382717 -0.0077610197
-0.07930442 -0.150395 -0.08541417 -0.017335344 -0.10891773 -0.082842536 -0.016008288 -0.1599037
0.062288325 -0.17549546 -0.03151168 0.0002360238 0.12019972 -0.017678743 -0.1589116 -0.14984474
-0.26664495 -0.5644985 0.25717926 -0.22837265 -0.17303544 0.5469798 -0.27944803 0.10530534
-0.2702454 -0.2978017 0.14005943 0.51645607 -0.13064915 0.30046323 -0.1379841 -0.06857619
0.056835394 -0.08649773 -0.32203233 0.04479007 -0.33756095 -0.13035323 -0.28389108 -0.68622714
0.35893992 0.33748364 -0.058274414 0.24213207 -0.21790192 -0.60643584 -0.45757627 0.041780382
0.15429416 -0.8575734 0.10732729 -0.28413305 -0.49142137 -0.50994617 -1.6662309 0.20123672
-0.02980191 -0.26494393 -0.06837475 -0.0060338113 -0.06795244 0.023003988 0.21775717 -0.040717978
0.08740692 0.21627934 -0.067737654 0.21439028 -1.6593618 -1.6867114 0.07177617 -0.2692283
-0.14406253 0.32731378 -0.15343145 0.42999363 0.30960923 -1.3274204 0.042471275 -0.29289106
0.45263454 0.2955343 -0.3112302 0.05840184 -0.057890702 0.15865467 0.10729958 -0.10107411
0.1448884 -0.35068873 -0.19731113 0.3076049 -0.43658122 0.24021296 -0.39939934 0.06587831
0.02523175 -1.0032387 -0.6943514 -0.13742109 -0.07982955 0.13155477 -0.74661267 0.21871242
-0.30969584 -0.9326166 -0.44424304 -0.8845659 0.056378294 0.48837778 0.2773487 -0.05919428
-0.06323265 0.044455927 0.21104905 0.37193277 -0.37644467 0.037629683 0.21572538 0.003066101
0.20923695 -0.5337875 0.17017204 -0.063912 -0.09669253 -0.030329375 -0.08853256 -0.80395555
0.292843 -1.1751816 -0.45431286 -0.3828292 -0.088425964 0.15183301 -0.4834001 0.24040675
-0.044032935 -0.5926298 -0.029613841 -1.3292692 0.017243762 0.33894268 0.0847023 0.016562374
0.0875716 -0.41499186 0.26767993 -0.21266983 -0.34922975 -0.069955654 0.23078449 0.14607823
0.18121175 -0.4097217 -0.0142823355 0.057992615 -0.55184054 0.0138849495 0.18253052 -1.5343344
0.25395307 0.23139139 0.24987085 0.088106334 -0.5008093 0.0174184 0.26001787 0.21646106
-0.39196098 0.054552417 -0.3653115 0.19412182 0.34575742 0.034713812 0.04889897 -0.32435435
0.15912957 -0.08175348 -0.058046907 0.30259705 -0.27640453 0.33545253 0.18390144 -0.12191436
0.05040133 -0.5880931 0.102626026 0.1470131 -0.4618185 0.21411574 0.20737919 -1.148706
0.3336921 0.14298284 0.15371823 -0.002118141 -0.42734697 0.14432229 0.0049247704 0.028720517
-0.08553536 0.025559267 0.6254579 -0.08750617 0.19269942 0.18744452 -0.0062023387 -0.6644653
0.39541662 -1.0040985 0.045298394 -0.34007713 0.18260029 -0.019587079 -0.7198751 -0.24367209
-0.29683837 0.09672513 -0.10669874 -0.09477747 0.26698613 0.045902066 0.013262811 -0.15998712
-0.18793392 -0.32351983 -0.037703887 -0.107914604 0.62514234 -0.25297204 -0.18591817 -0.542653
-0.10376263 -0.12555328 -0.20536779 0.48606178 -0.38215962 -1.045126 -0.26202625 0.20193376
00000000: 1d68 01be dc6a 253d f6ab cebd 697b 98bd
00000010: ab5a e43d 83f6 273e f571 dfbb 2dc0 11be
00000020: 11cf fa3b 2700 c0bd 11e7 173e 218b 583d
00000030: 8fda 12be 479b 983c 1999 fd3d 2750 febb
00000040: 5b6a a2bd 2601 1abe a0ed aebd da02 8ebc
00000050: 4210 dfbd 59a9 a9bd d023 83bc ccbd 23be
00000060: 0b22 7f3d 15b5 33be 6412 01bd 287d 7739
00000070: 452b f63d 03d3 90bc b9b9 22be e670 19be
00000080: b085 88be f982 10bf 00ad 833e 85da 69be
00000090: 3430 31be de06 0c3f d013 8fbe 53aa d73d
000000a0: 9b5d 8abe 7779 98be bd6b 0f3e 7736 043f
000000b0: e4c8 05be 51d6 993e b44b 0dbe ac71 8cbd
000000c0: 3bcc 683d b925 b1bd 6ce1 a4be cb75 373d
000000d0: cad4 acbe 517b 05be 2c5a 91be 95ac 2fbf
000000e0: f9c6 b73e a8ca ac3e 27b1 6ebd 78f1 773e
000000f0: ae21 5fbe 613f 1bbf 7047 eabe e821 2b3d
00000100: 4aff 1d3e ee89 5bbf 69ce db3d e379 91be
00000110: 959b fbbe d58b 02bf 0e47 d5bf 0011 4e3e
00000120: 2323 f4bc bba6 87be 1008 8cbd 47b7 c5bb
00000130: a62a 8bbd dc72 bc3c bcfb 5e3e e5c7 26bd
00000140: 6602 b33d 5578 5d3e 0aba 8abd 2089 5b3e
00000150: f865 d4bf 29e6 d7bf 62ff 923d 4bd8 89be
00000160: 2185 13be ac95 a73e 221d 1dbe 2028 dc3e
00000170: 1a85 9e3e e9e8 a9bf 5cf6 2d3d d1f5 95be
00000180: b7bf e73e 4650 973e 9159 9fbe c536 6f3d
00000190: cd1e 6dbd 5f76 223e e2bf db3d f1ff cebd
000001a0: a05d 143e 798d b3be ee0b 4abe 647e 9d3e
000001b0: 9387 dfbe 63fa 753e 127e ccbe 35eb 863d
000001c0: d1b2 ce3c 206a 80bf 03c1 31bf 1db8 0cbe
000001d0: ad7d a3bd 4bb6 063e 0222 3fbf 26f6 5f3e
000001e0: 7490 9ebe f6bf 6ebf d373 e3be e972 62bf
000001f0: edec 663d a70c fa3e a600 8e3e b475 72bd
00000200: 1f80 81bd 6b17 363d 3e1d 583e f96d be3e
00000210: 5bbd c0be 9521 1a3d 1de7 5c3e a4f0 483b
00000220: 3642 563e 4ca6 08bf 9441 2e3e 4be4 82bd
00000230: bc06 c6bd 4f75 f8bc 8f50 b5bd 08d0 4dbf
00000240: 85ef 953e 5a6c 96bf b29b e8be 3002 c4be
00000250: ac18 b5bd 1d7a 1b3e 3880 f7be 302d 763e
00000260: e15b 34bd 96b6 17bf ba98 f2bc 7e25 aabf
00000270: ca42 8d3c e589 ad3e 6678 ad3d d1ad 873c
00000280: bd58 b33d d079 d4be 580d 893e 1fc6 59be
00000290: 3ece b2be e944 8fbd c552 6c3e 8895 153e
000002a0: 938f 393e 0bc7 d1be 7500 6abc aa89 6d3d
000002b0: 6c45 0dbf b37d 633c 48e9 3a3e 1265 c4bf
000002c0: 2306 823e ddf1 6c3e 25de 7f3e 1871 b43d
000002d0: 0a35 00bf 08b1 8e3c 1021 853e f8a7 5d3e
000002e0: 1caf c8be 5b72 5f3d 1c0a bbbe dfc7 463e
000002f0: 1e07 b13e 1230 0e3d 494a 483d c611 a6be
00000300: ddf2 223e 5e6e a7bd 98c2 6dbd 00ee 9a3e
00000310: e584 8dbe 6fc0 ab3e a950 3c3e 3cae f9bd
00000320: a071 4e3d 458d 16bf 982d d23d 9a8a 163e
00000330: 7973 ecbe 2841 5b3e 365b 543e cc08 93bf
00000340: b1d9 aa3e 186a 123e 5068 1d3e 82d0 0abb
00000350: 39cd dabe 39c9 133e f85f a13b 4a47 eb3c
00000360: 2a2d afbd ab61 d13c 021e 203f 6f36 b3bd
00000370: ff52 453e 75f1 3f3e fd3c cbbb 661a 2abf
00000380: 0c74 ca3e 4d86 80bf cf8a 393d 971e aebe
00000390: 92fb 3a3e 1575 a0bc bc49 38bf 2d85 79be
000003a0: 33fb 97be d317 c63d de84 dabd b11a c2bd
000003b0: 68b2 883e ce03 3c3d 434c 593c aad3 23be
000003c0: c071 40be 64a4 a5be 646f 1abd 5502 ddbd
000003d0: 5409 203f 8d85 81be 5561 3ebe 4feb 0abf
000003e0: 8081 d4bd 0a91 00be ef4b 52be 17dd f83e
000003f0: 6daa c3be b0c6 85bf 4e28 86be b9c7 4e3e

fc1.bias f4 [32]
-0.008187853 1.267472 0.8940671 0.6259576 0.12629913 1.4216768 1.1441493 1.244128
0.42315575 1.5504011 0.8261189 0.6979667 1.5928743 1.0460091 -0.20051257 1.3646313
1.1721146 0.781888 1.4132136 0.6140416 1.0633827 1.1287646 1.3301128 0.114764534
0.70459557 0.17613496 0.008338086 1.3183296 0.5823523 -1.0214243 0.19040464 1.3027815
00000000: 5826 06bc 863c a23f 95e1 643f c23e 203f
00000010: 8f54 013e 81f9 b53f 7c73 923f 963f 9f3f
00000020: dfa7 d83e 8b73 c63f 877c 533f f2ad 323f
00000030: 4ee3 cb3f a0e3 853f 2b53 4dbe 3dac ae3f
00000040: da07 963f d029 483f 2fe4 b43f d531 1d3f
00000050: ed1c 883f 5c7b 903f 2341 aa3f ab09 eb3d
00000060: 6060 343f b95c 343e 789c 083c 06bf a83f
00000070: 0a15 153f 08be 82bf 6ff9 423e 8bc1 a63f

fc2.weight f4 [3, 32]
-0.00084463455 -0.08129999 -0.8765924 -0.0069738263 0.06367551 0.102393284 0.19322743 -0.14631797
-0.03220541 0.3706028 0.000493199 -0.1363497 -0.14910462 -0.14832056 0.15236555 -0.20380975
-0.049053837 0.11237492 0.016553681 0.10220213 0.117248535 0.1256461 -0.022497417 0.20715801
0.19809714 0.078050226 -0.41465226 -0.18098158 -0.04037283 -0.2161376 -0.16288161 -0.35298082
0.007187551 0.10614729 0.050165277 0.06265409 0.084102966 0.07739047 0.24205741 -0.13771525
-1.3669187 0.21551038 -0.65814316 0.4048919 -0.09821894 0.06860958 0.12936619 -0.22394887
-0.25637794 -0.21282607 -0.19769171 0.10598704 0.14459895 0.07777929 -0.19326611 -0.27394754
0.5010896 -0.27677387 -0.2589458 -0.04307566 -0.28890258 0.03738359 9.628017e-05 -0.2222064
0.0028549766 -0.26467758 0.13302158 -0.27503946 -0.39292452 0.11229147 0.13351236 -0.1114523
0.20066994 0.14283086 0.13839445 -0.12585458 -0.14901832 -0.52068114 -0.11082699 -0.13871647
-0.047650825 -0.44613653 -0.14316614 -0.8532351 0.16792317 -0.362822 -0.19299485 0.07774298
0.20140728 -0.05069941 0.37954888 -0.09747746 -0.048935425 0.085577816 0.25197452 -0.20653641
00000000: 776a 5dba 9c80 a6bd 5c68 60bf b284 e4bb
00000010: 4e68 823d 92b3 d13d 69dd 453e 61d4 15be
00000020: d2e9 03bd a6bf bd3e 064a 013a 419f 0bbe
00000030: e2ae 18be 58e1 17be b705 1c3e 81b3 50be
00000040: adec 48bd d224 e63d 969b 873c 5a4f d13d
00000050: 0020 f03d 5fa9 003e 814c b8bc 3b21 543e
00000060: fad9 4a3e ccd8 9f3d 4d4d d4be 3c53 39be
00000070: fb5d 25bd 2d53 5dbe 70ca 26be e7b9 b4be
00000080: 8c85 eb3b c063 d93d 1b7a 4d3d ca50 803d
00000090: 2d3e ac3d e57e 9e3d e6dd 773e 3a05 0dbe
000000a0: 31f7 aebf c1ae 5c3e 127c 28bf fe4d cf3e
000000b0: 0327 c9bd 2e83 8c3d 9278 043e da52 65be
000000c0: f843 83be 14ef 59be b26f 4abe bc0f d93d
000000d0: bf11 143e c04a 9f3d 8de7 45be da42 8cbe
000000e0: 6847 003f 4eb5 8dbe 8b94 84be 1a70 30bd
000000f0: 0aeb 93be 891f 193d 06ea c938 138a 63be
00000100: 8f1a 3b3b d283 87be cf36 083e f9d1 8cbe
00000110: 672d c9be 12f9 e53d 77b7 083e 1a41 e4bd
00000120: 6c7c 4d3e 4142 123e 46b7 0d3e 06e0 00be
00000130: 4298 18be 5c4b 05bf 43f9 e2bd b10b 0ebe
00000140: 832d 43bd 026c e4be 259a 12be 9e6d 5abf
00000150: 0df4 2b3e cec3 b9be 71a0 45be b637 9f3d
00000160: b63d 4e3e 2faa 4fbd 3b54 c23e 43a2 c7bd
00000170: 8370 48bd 6c43 af3d ce02 813e 487e 53be

fc2.bias f4 [3]
-1.7572298 -0.06652888 -0.6115574
00000000: e8ec e0bf 4b40 88bd 078f 1cbf

road_emb.0.weight f4 [144]
0.6221037 1.2419279 1.4470068 0.7795608 0.43191457 1.045852 0.7457749 1.2757484
1.3623513 0.64770496 0.4226659 0.4721489 0.61324906 1.1784123 1.4986851 0.56314677
0.4340114 0.46990702 0.72630674 1.2987148 1.483698 0.66001666 0.49820468 0.8570839
0.79423356 0.9927094 1.5317949 0.62605 0.4252677 0.7764677 0.6623277 1.1816128
1.7505057 0.84320325 0.40881738 0.563369 0.9093626 1.2205929 1.1970466 0.696358
0.52648294 1.1694264 0.7088017 0.9143041 0.967775 0.64383525 0.72344637 0.5547208
0.44679236 0.9810268 0.7954953 0.5804888 0.49523112 0.48823848 0.8227018 1.2570498
1.3972131 0.6659173 0.46559274 1.0267584 0.6759977 1.0581566 1.2843357 0.7441695
0.44703048 0.5883204 0.52683806 1.0738382 1.3444871 0.5772539 0.60181 0.5526694
0.8694959 1.6562337 1.0155303 0.30525133 0.43671352 0.9733968 0.664463 1.01726
1.36468 0.71128523 0.34577182 0.5938692 0.5946319 1.3057069 1.0830524 0.7600383
0.49450397 0.53359675 0.9035441 1.300158 0.34570622 0.7521368 0.47457638 1.1117494
0.82378054 0.95028 0.76325893 0.5932626 0.5409803 0.5855727 0.6426358 1.1588256
0.6357636 0.6927733 0.4468256 0.50829816 0.70547736 1.1463895 1.607544 0.59418505
0.3618939 0.90284467 0.68115026 1.1395483 1.6289113 0.6823016 0.37883678 0.68693244
0.6317094 1.1479498 1.3774099 0.62219226 0.36520177 0.48910528 0.90778166 1.2151
0.9604992 0.59948766 0.43690303 1.0558423 0.58790016 0.9579736 1.3262409 0.6513786
0.4788725 0.6396318 0.61399037 1.5029591 1.4000001 0.64701843 0.40028125 0.63813746
00000000: 3042 1f3f 7ef7 9e3f 8537 b93f 4c91 473f
00000010: e823 dd3e 7ade 853f 1beb 3e3f b94b a33f
00000020: 8761 ae3f fecf 253f aa67 d83e 80bd f13e
00000030: e4fd 1c3f 37d6 963f ead4 bf3f 632a 103f
00000040: be36 de3e a797 f03e 3def 393f 493c a63f
00000050: d1e9 bd3f daf6 283f af14 ff3e da69 5b3f
00000060: e452 4b3f 3422 7e3f db11 c43f d044 203f
00000070: b0bc d93e 96c6 463f 4f8e 293f 173f 973f
00000080: 9210 e03f 2bdc 573f 8350 d13e f338 103f
00000090: fdcb 683f 633c 9c3f d338 993f 8544 323f
000000a0: 96c7 063f c4af 953f 0774 353f d50f 6a3f
000000b0: 1ac0 773f 63d2 243f c833 393f 2f02 0e3f
000000c0: f8c1 e43e 9324 7b3f 94a5 4b3f ea9a 143f
000000d0: ef8e fd3e 65fa f93e 969c 523f 02e7 a03f
000000e0: e1d7 b23f 8e79 2a3f 2c62 ee3e d26c 833f
000000f0: 2f0e 2d3f ad71 873f 1d65 a43f e481 3e3f
00000100: 2ee1 e43e 2a9c 163f dcde 063f 8873 893f
00000110: 2718 ac3f e9c6 133f 3810 1a3f be7b 0d3f
00000120: 4997 5e3f 77ff d33f e6fc 813f e749 9c3e
00000130: ea98 df3e 8830 793f 3f1a 2a3f 9335 823f
00000140: d6ad ae3f ca16 363f 0109 b13e d007 183f
00000150: cc39 183f 6721 a73f 76a1 8a3f df91 423f
00000160: a02f fd3e cc99 083f ab4e 673f 946b a63f
00000170: 6800 b13e 0a8c 403f adfb f23e ce4d 8e3f
00000180: 48e3 523f 8d45 733f f064 433f 0fe0 173f
00000190: af7d 0a3f 18e8 153f c883 243f 6654 943f
000001a0: 67c1 223f 9759 313f 53c6 e43e d41f 023f
000001b0: 2a9a 343f e4bc 923f 00c4 cd3f 831c 183f
000001c0: 284a b93e d420 673f dd5f 2e3f b8dc 913f
000001d0: 2a80 d03f 51ab 2e3f e5f6 c13e ceda 2f3f
000001e0: b5b7 213f 05f0 923f f84e b03f fe47 1f3f
000001f0: bafb ba3e 026c fa3e 6164 683f 6688 9b3f
00000200: 47e3 753f 0678 193f c1b1 df3e d725 873f
00000210: a080 163f c23d 753f 43c2 a93f bfc0 263f
00000220: c72e f53e e9be 233f 792e 1d3f f760 c03f
00000230: 3433 b33f 00a3 253f aaf1 cc3e fa5c 233f

road_emb.0.bias f4 [144]
-0.7199423 0.4166179 0.10657451 0.27547395 0.24033824 0.36367416 -0.10937924 0.0069296225
0.031651787 0.15920067 0.26856717 0.28930146 -0.0128119085 0.23857367 0.10709258 0.28582868
0.29093695 0.39734325 -0.86019576 0.03968263 -0.08220597 0.16050538 0.2872305 0.37073272
-0.13297524 0.02635683 -0.03442961 0.3043516 0.23669432 0.47612974 -0.13314867 0.21673794
0.034191813 0.29363412 0.23791642 0.381368 -0.8015997 0.154033 -0.05334213 0.10295332
0.30242142 0.19789214 -0.102756605 -0.08687662 -0.09809819 0.34810933 0.2769545 0.39555508
-0.15294956 0.33639976 -0.18669884 0.33228308 0.25329593 0.34325084 -0.58966017 0.2700075
-0.09987708 0.12985484 0.12011066 0.13662945 -0.37999514 0.2679711 -0.1539377 0.1785292
0.17981917 0.37389132 -0.21287392 0.45510533 -0.14214152 0.21477261 0.39589545 0.34271806
-0.48537552 0.3733224 -0.080308504 0.19457895 0.2876392 0.23015726 0.00063304586 0.27825722
0.072264686 0.352548 0.27734238 0.43370286 -0.13973448 0.48176032 0.052543316 0.11163699
0.30355704 0.28724214 -0.3783614 -0.13776805 -0.10394328 0.4453441 0.33676308 0.20948689
-0.12864107 -0.23466928 -0.21199916 0.18301415 0.28414446 0.48470002 -0.32130975 0.08609437
-0.20752352 0.50433964 0.30413476 0.296658 -0.8142289 0.110671125 -0.13064636 0.19173619
0.26152533 0.298277 -0.42399922 0.25163612 -0.0050262883 0.26657015 0.2852683 0.55908185
-0.34310275 0.4186539 -0.27978116 0.11241665 0.23040858 0.27324262 -0.5738126 0.28666493
-0.24759726 0.3436831 0.3506032 0.3500793 -0.19589671 0.03391764 -0.30389506 0.29072624
0.29123098 0.4466347 -0.46608385 0.24710928 -0.18152767 0.26881924 0.30413043 0.46001896
00000000: 234e 38bf f14e d53e bd43 da3d ec0a 8d3e
00000010: 3a1b 763e 8033 ba3e 3902 e0bd e311 e33b
00000020: 4ea5 013d 8005 233e a381 893e 521f 943e
00000030: 0ae9 51bc a84c 743e 5b53 db3d 2358 923e
00000040: b0f5 943e 9370 cb3e ca35 5cbf 418a 223d
00000050: 9b5b a8bd 865b 243e e00f 933e aed0 bd3e
00000060: a92a 08be 47ea d73c 1006 0dbd f9d3 9b3e
00000070: ff5f 723e 47c7 f33e 2058 08be 8df0 5d3e
00000080: b70c 0c3d 3657 963e 5da0 733e ab42 c33e
00000090: a335 4dbf d4ba 1d3e 477d 5abd 31d9 d23d
000000a0: fbd6 9a3e 3da4 4a3e 0e72 d2bd 5fec b1bd
000000b0: b4e7 c8bd 633b b23e fbcc 8d3e 3286 ca3e
000000c0: cf9e 1cbe 973c ac3e fb2d 3fbe 0221 aa3e
000000d0: 01b0 813e 93be af3e f8f3 16bf 6c3e 8a3e
000000e0: 5b8c ccbd abf8 043e 94fc f53d 97e8 0b3e
000000f0: b98e c2be 8233 893e d8a1 1dbe 5cd0 363e
00000100: 8422 383e af6e bf3e 9ffb 59be 9103 e93e
00000110: 8c8d 11be 5aed 5b3e cfb2 ca3e be78 af3e
00000120: 2483 f8be 1d24 bf3e c978 a4bd b43f 473e
00000130: 7245 933e 58ae 6b3e fdf2 253a bb77 8e3e
00000140: 82ff 933d 2c81 b43e d2ff 8d3e 4d0e de3e
00000150: 8e16 0fbe 4aa9 f63e a937 573d efa1 e43d
00000160: d46b 9b3e 6711 933e 96b8 c1be 1113 0dbe
00000170: 37e0 d4bd 2404 e43e 366c ac3e bb83 563e
00000180: 7cba 03be 254d 70be 4f16 59be 1068 3b3e
00000190: 627b 913e 9a2a f83e b682 a4be 3f52 b03d
000001a0: 0c81 54be 671c 013f 8db7 9b3e 8fe3 973e
000001b0: 4e71 50bf 8ba7 e23d 29c8 05be 7e56 443e
000001c0: a6e6 853e c3b7 983e 6d16 d9be 73d6 803e
000001d0: 90b3 a4bb e27b 883e b00e 923e fd1f 0f3f
000001e0: 2aab afbe ce59 d63e 7a3f 8fbe b33a e63d
000001f0: 3af0 6b3e 75e6 8b3e 62e5 12bf bfc5 923e
00000200: 238a 7dbe 3bf7 af3e 4382 b33e 983d b33e
00000210: 2699 48be 39ed 0a3d 2298 9bbe 12da 943e
00000220: 3a1c 953e 4ead e43e 8ba2 eebe 370a 7d3e
00000230: 64e2 39be ada2 893e fcb6 9b3e 9b87 eb3e

road_emb.1.weight f4 [64, 144]
-0.18009189 -0.78097445 -0.78196615 -0.102184 0.14125296 0.18680683 -0.6494934 -0.2949953
-0.8317021 -0.12982957 0.2100972 -0.17032814 -0.08893021 0.19023007 -0.79937893 -0.31408805
0.34968433 0.19622679 -0.007302499 0.050716266 0.013280971 -0.042410795 0.098573335 0.28743294
0.058161274 -0.09808385 -0.15437303 -0.15192558 0.25234807 -0.16825427 -0.10817562 0.07944889
0.10199236 -0.13500273 0.2882307 0.78066194 -0.1862025 0.08942383 0.21519208 -0.09329084
0.26375026 0.23303305 -0.297527 -0.19191675 0.04787211 -0.23168293 0.23912631 -0.5753481
-0.075343154 0.13623157 0.103908814 -0.21827845 0.15963893 -0.11506579 -0.27980518 -0.2669205
0.09919671 -0.00029706405 0.20487927 0.17333378 -0.17302069 0.1509225 0.20700733 0.18534464
0.32703686 -0.22524327 0.07896945 0.2313839 0.18899864 -0.08572843 0.20949706 0.04011288
0.025686307 -0.9532873 -0.09497061 -0.02036255 0.028508501 0.32221895 -0.86432016 0.19542973
-0.043676253 -0.2853264 -0.36310795 -0.120667756 -0.23551893 -0.46040666 -0.25875887 0.036613427
0.10906707 -0.22924526 -0.48981613 0.13767314 0.24244374 -0.43872362 -0.04390191 0.3130654
-0.3409537 0.23098324 0.06523945 -0.12498261 0.16390453 -0.08599288 -0.51356417 0.39896175
0.10798963 -0.4403858 0.19614887 -0.16107433 -0.27081287 -0.8435585 0.44370854 -0.028127033
-0.09214952 0.23220019 0.17989682 -0.08212378 0.28384736 -0.21141712 -0.14068957 0.007827543
-0.28998792 -0.36042586 0.26436946 -0.18327554 0.044985414 -0.17346515 -0.34652898 -0.24522108
0.3081369 -0.3461526 -0.21571809 0.059255973 0.11752654 0.20515546 0.349867 -0.3705776
0.14572577 -0.22559357 -0.4518678 -0.1807075 0.42338327 -0.20219079 -0.18810537 0.0010897496
-0.026877701 -0.1426617 0.1717987 -0.009033961 -0.531084 -0.17232044 0.14997508 -0.48424104
0.10434639 0.03320142 -0.5905163 -0.13280503 -0.06941552 -0.45986685 0.09603034 -0.011035169
-0.5725677 -0.04451142 -0.27563933 -0.43783313 -0.43431997 -0.02607973 -0.5835551 -0.001155051
-0.2391176 0.24204917 -0.23928274 -0.106083855 -0.42380086 0.045650747 0.042344574 0.012400787
-0.1805128 -0.19937822 -0.47605073 -0.04676434 -0.500465 -0.023219967 0.45961824 0.16719705
-0.5957677 -0.23566745 -0.072826914 0.26672503 0.41124305 0.124717295 -0.51790106 -0.02951156
0.22403798 0.35833114 0.5931372 0.08705068 -0.42319992 0.07448819 -0.053605307 0.47416157
0.5196829 -0.09893108 -0.40873593 -0.030210253 -0.027098553 0.1455803 0.19212283 -0.1550129
-0.25839445 0.07656329 -0.14683343 -0.35035858 0.49730495 0.009061391 -0.81058556 -0.14424127
0.0713199 0.2092864 0.3314611 0.051023196 -0.097857095 -0.42633417 0.07742939 -0.13705769
0.0673783 0.076151475 -0.16079007 -0.15943095 -0.11697023 -0.095284276 0.20388448 0.24251911
0.079479545 0.21999626 -0.3751183 -0.4322786 0.39213404 0.19392766 -0.0051578907 -0.29734603
-0.18447784 -0.051836316 0.7673749 0.22629716 0.048633702 -0.06427676 0.21805158 0.08071206
0.51627266 0.07412452 0.34367785 0.014979851 -0.2812503 -0.09359345 0.20208111 0.39551738
00000000: 026a 38be f1ed 47bf ef2e 48bf d845 d1bd
00000010: 9ea4 103e 4a4a 3f3e 3345 26bf a009 97be
00000020: 6eea 54bf 0bf2 04be b823 573e 806a 2ebe
00000030: 0b21 b6bd accb 423e 19a4 4cbf 26d0 a0be
00000040: d309 b33e adef 483e cd49 efbb dcbb 4f3d
00000050: 6e98 593c f1b6 2dbd d1e0 c93d 692a 933e
00000060: 843a 6e3d 30e0 c8bd f713 1ebe 6192 1bbe
00000070: c433 813e d94a 2cbe 2e8b ddbd 1ab6 a23d
00000080: 5fe1 d03d 283e 0abe f992 933e 76d9 473f
00000090: deab 3ebe d723 b73d 505b 5c3e 450f bfbd
000000a0: 460a 873e 37a0 6e3e 7555 98be d385 44be
000000b0: 8c15 443d 4a3e 6dbe 87dd 743e 034a 13bf
000000c0: 834d 9abd 4a80 0b3e 25ce d43d 6384 5fbe
000000d0: 6378 233e 9da7 ebbd a042 8fbe cea9 88be
000000e0: a527 cb3d 43bf 9bb9 dfcb 513e 697e 313e
000000f0: 562c 31be 6e8b 1a3e bbf9 533e fcca 3d3e
00000100: 6071 a73e 2ca6 66be bcba a13d e7ef 6c3e
00000110: dc88 413e 6392 afbd 6686 563e 674d 243d
00000120: 176c d23c a30a 74bf f47f c2bd 5dcf a6bc
00000130: a98a e93c e2f9 a43e 1644 5dbf bb1e 483e
00000140: dfe5 32bd 4d16 92be 49e9 b9be a820 f7bd
00000150: e02b 71be 6cba ebbe 0b7c 84be f6f7 153d
00000160: 8e5e df3d 45bf 6abe 2ec9 fabe 30fa 0c3e
00000170: 2c43 783e 62a0 e0be 7dd2 33bd 1c4a a03e
00000180: 7c91 aebe df86 6c3e 439c 853d e2f6 ffbd
00000190: 97d6 273e 091d b0bd f178 03bf b744 cc3e
000001a0: ab29 dd3d 3f7a e1be 40db 483e abf0 24be
000001b0: fca7 8abe 73f3 57bf c42d e33e aa6a e6bc
000001c0: e3b8 bcbd e3c5 6d3e df36 383e 8330 a8bd
000001d0: 7154 913e bb7d 58be ed10 10be 183f 003c
000001e0: 4c79 94be bd89 b8be 6f5b 873e 95ac 3bbe
000001f0: a042 383d d9a0 31be 3f6c b1be 3c1b 7bbe
00000200: 1fc4 9d3e ea3a b1be 34e5 5cbe 64b6 723d
00000210: c1b1 f03d 4614 523e c421 b33e 59bc bdbe
00000220: 2339 153e 0002 67be 375b e7be 630b 39be
00000230: b1c5 d83e 1a0b 4fbe b29e 40be eed5 8e3a
00000240: a02e dcbc e915 12be 00ec 2f3e 2e03 14bc
00000250: 1ff5 07bf c574 30be 1193 193e 71ee f7be
00000260: 8fb3 d53d 36fe 073d 142c 17bf 0bfe 07be
00000270: b929 8ebd ab73 ebbe 8eab c43d dacc 34bc
00000280: cc93 12bf 9b51 36bd 9920 8dbe aa2b e0be
00000290: 305f debe 28a5 d5bc de63 15bf 1565 97ba
000002a0: 3edb 74be bddb 773e 8906 75be 7e42 d9bd
000002b0: 6dfc d8be 47fc 3a3d 8171 2d3d ac2c 4b3c
000002c0: 59d8 38be ce29 4cbe ecbc f3be f78b 3fbd
000002d0: 791e 00bf cd37 bebc 1553 eb3e b435 2b3e
000002e0: 3b84 18bf cf52 71be 4726 95bd 2f90 883e
000002f0: 738e d23e c86b ff3d 2a95 04bf 3ac2 f1bc
00000300: 366a 653e 2e77 b73e d7d7 173f a047 b23d
00000310: a9ad d8be 448d 983d 3d91 5bbd 4ec5 f23e
00000320: f009 053f 619c cabd d645 d1be 7e7b f7bc
00000330: c9fd ddbc 0113 153e d9bb 443e b4bb 1ebe
00000340: 474c 84be 37cd 9c3d 815b 16be 3362 b3be
00000350: c19e fe3e 3b76 143c 8982 4fbf fcb3 13be
00000360: 2b10 923d 2d4f 563e 45b5 a93e b3fd 503d
00000370: 4d69 c8bd 7948 dabe 4d93 9e3d da58 0cbe
00000380: a2fd 893d 4ef5 9b3d 27a6 24be de41 23be
00000390: 178e efbd 6724 c3bd 18c7 503e ee56 783e
000003a0: 2cc6 a23d b346 613e 810f c0be 9f53 ddbe
000003b0: cbc5 c83e f994 463e 8603 a9bb bd3d 98be
000003c0: c2e7 3cbe 5152 54bd ae72 443f 71ba 673e
000003d0: 2234 473d 89a3 83bd ea48 5f3e 5d4c a53d
000003e0: 722a 043f 99ce 973d 8bf6 af3e 0d6e 753c
000003f0: 0a00 90be ecad bfbd 5aee 4e3e 4181 ca3e

road_emb.1.bias f4 [64]
-0.1726307 -0.087270536 0.14646848 -0.09391068 0.056786012 -0.1101673 -0.3501434 -0.30596933
-0.01999405 -0.115303956 -0.13655041 0.09382861 -0.3565626 -0.15512532 0.02136413 -0.16026452
-0.14083485 -0.10075998 -0.47359094 -0.049892325 -0.111743 -0.026340155 0.066276595 -0.09904782
-0.14988467 -0.09287361 -0.2443949 -0.12881267 -0.1783129 -0.1557646 -0.036895495 -0.034165826
-0.16804726 -0.20580614 -0.14688599 -0.21463768 -0.43350905 -0.16681224 -0.11205829 -0.13321453
-0.06446828 -0.099712186 -0.22691797 -0.06742926 -0.17502698 -0.1901079 -0.15278608 -0.17263217
-0.019299323 -0.11630915 -0.38392776 -0.029110165 -0.23382741 0.05106071 -0.2711304 -0.31331462
-0.5102626 -0.10778902 -0.1788956 -0.052993894 -0.17956188 -0.15229373 -0.10425651 -0.21451217
00000000: 1ac6 30be e5ba b2bd d5fb 153e 3e54 c0bd
00000010: 7398 683d 659f e1bd ff45 b3be 03a8 9cbe
00000020: 90ca a3bc 7b24 ecbd dfd3 0bbe 3729 c03d
00000030: 608f b6be 2cd9 1ebe d403 af3c 621c 24be
00000040: 0337 10be 405b cebd 837a f2be e55b 4cbd
00000050: 84d9 e4bd 4fc7 d7bc 06bc 873d 95d9 cabd
00000060: 5e7b 19be 8534 bebd a842 7abe 78e7 03be
00000070: a897 36be c180 1fbe bb1f 17bd 77f1 0bbd
00000080: 9514 2cbe d8be 52be 4869 16be fbc9 5bbe
00000090: e6f4 ddbe d4d0 2abe d17e e5bd 6469 08be
000000a0: f207 84bd e735 ccbd 2f5d 68be 5a18 8abd
000000b0: 463a 33be a5ab 42be f473 1cbe 7dc6 30be
000000c0: 9d19 9ebc 7e33 eebd 2e92 c4be 7178 eebc
000000d0: 7470 6fbe 0925 513d 9bd1 8abe c66a a0be
000000e0: 92a0 02bf 7dc0 dcbd 6830 37be 2010 59bd
000000f0: 12df 37be e3f2 1bbe 7084 d5bd 14a9 5bbe

cav_emb.0.weight f4 [11]
1.0 1.0 1.0 1.0 1.0 1.0 1.0 1.0
1.0 1.0 1.0
00000000: 0000 803f 0000 803f 0000 803f 0000 803f
00000010: 0000 803f 0000 803f 0000 803f 0000 803f
00000020: 0000 803f 0000 803f 0000 803f

cav_emb.0.bias f4 [11]
0.0 0.0 0.0 0.0 0.0 0.0 0.0 0.0
0.0 0.0 0.0
00000000: 0000 0000 0000 0000 0000 0000 0000 0000
00000010: 0000 0000 0000 0000 0000 0000 0000 0000
00000020: 0000 0000 0000 0000 0000 0000

cav_emb.1.weight f4 [64, 11]
0.16077742 -0.34917575 -0.11258541 0.28734884 -0.01681029 0.07184698 0.09837298 -0.25833833
0.026886212 -0.1005342 -0.19442725 0.24598688 -0.41136357 -0.06690604 0.12271933 -0.01419281
0.12747206 0.10601023 -0.05742732 0.09450983 -0.2856134 -0.1555259 -0.032789115 -0.14891213
-0.07462437 -0.36627913 -0.09471774 0.1537707 0.14401747 0.059067104 -0.19818842 0.20222634
-0.25518507 -0.11152272 0.08003149 0.06980961 -0.19566834 0.12276107 -0.009390071 0.21064614
-0.11260016 -0.036074508 -0.39444396 0.24162178 0.23058414 0.11314878 -0.18301098 0.3386362
0.11470679 0.1703875 0.10509649 0.10880977 0.16890353 0.012873853 0.1680269 -0.1989723
0.103237815 0.22875708 0.03760985 0.04711726 -0.20605043 0.02202561 -0.25400284 -0.016367719
0.06483178 0.07671104 0.31741843 0.088207126 0.04472353 -0.4147842 0.16995029 -0.08283893
-0.12866534 0.024651999 -0.16029789 0.15229927 -0.18998556 0.065892056 0.14036618 0.035014983
0.09672048 0.32083878 -0.24243817 -0.17604531 -0.22392173 -0.08077589 0.23389678 -0.10333296
0.04727609 -0.21596606 0.42613143 0.1603864 -0.28413776 -0.1816334 0.0021345885 -0.114605136
0.17506838 0.0021332437 -0.38730815 0.05545617 -0.17489429 -0.100310475 -0.33506072 -0.14896862
0.077644736 -0.102323666 0.42731202 -0.17298357 -0.092199415 0.09481683 -0.072047524 -0.06353594
0.08301169 -0.27147377 0.20193164 0.030202407 -0.054639544 -0.3492177 -0.023104856 0.120489426
-0.27098054 -0.078599975 -0.17299284 -0.06862079 -0.105492465 0.23949347 0.4048951 0.01852479
-0.02402705 -0.09348097 0.13583101 0.0681314 0.1268957 0.0041637444 -0.12066645 0.18919732
0.13997985 -0.1697922 -0.14315428 0.0076569756 0.102702826 0.37233388 -0.076222666 -0.18372536
-0.0106014 0.30034015 0.18366273 -0.005754281 -0.29501817 -0.1170821 0.28329703 0.18601373
0.03614295 -0.101364054 0.16262248 -0.07122763 -0.2078534 -0.15377551 -0.074624196 0.17618743
-0.101550296 0.08603724 -0.06427399 0.26144245 -0.055406146 0.3124318 -0.009762266 0.03427103
0.106163666 0.036210842 0.10992942 -0.11431021 0.086000144 0.04634907 -0.05186167 0.31502777
0.039283644 0.08244461 -0.03533991 0.12284229 -0.003261937 0.42026523 -0.08900008 0.20971432
-0.07209872 0.21584544 0.029894194 -0.08858232 -0.08936256 0.21519789 -0.1146313 -0.086828314
-0.18949915 -0.502683 -0.14681883 0.04630906 0.039110817 -0.10461809 -0.12695901 -0.3955314
0.11788165 0.053627912 -0.024278833 -0.07537934 -0.35795337 -0.11882832 0.24101442 0.15546483
0.2748471 0.05622259 0.07724262 0.20605995 -0.13145664 0.101286925 0.123457074 -0.06492176
0.379169 0.35975254 0.021197759 -0.24841017 0.16872714 -0.0064786333 0.012436641 -0.064900324
0.017636236 0.053085983 0.035693996 -0.04585506 -0.2555676 0.16074671 0.025426915 -0.1636392
0.29870152 -0.1836377 0.12800592 0.09315095 -0.032996755 0.08738095 0.08225835 0.17827952
0.02580127 -0.14078054 0.45142758 -0.15855609 -0.0679061 -0.037614673 0.27246743 0.22146483
-0.020926695 -0.13005081 0.0061966893 0.10654354 -0.14776926 -0.0034871404 0.120623015 0.21416971
00000000: d6a2 243e 2ac7 b2be 2e93 e6bd 631f 933e
00000010: bcb5 89bc 8224 933d c677 c93d ec44 84be
00000020: 7940 dc3c e0e4 cdbd f017 47be fce3 7b3e
00000030: 3f9e d2be 0906 89bd 4654 fb3d f688 68bc
00000040: 0988 023e e41b d93d e938 6bbd 5f8e c13d
00000050: eb3b 92be 2e42 1fbe e14d 06bd 6c7c 18be
00000060: a9d4 98bd f088 bbbe 60fb c1bd 1176 1d3e
00000070: 5179 133e 59f0 713d e8f1 4abe 6c14 4f3e
00000080: 9ea7 82be 0666 e4bd 8de7 a33d 57f8 8e3d
00000090: 485d 48be 286a fb3d d0d8 19bc 9fb3 573e
000000a0: ea9a e6bd ddc2 13bd 8ff4 c9be b36b 773e
000000b0: 401e 6c3e 8cba e73d 3b67 3bbe b961 ad3e
000000c0: 65eb ea3d 107a 2e3e d43c d73d a8d7 de3d
000000d0: 0cf5 2c3e daec 523c 3e0f 2c3e 65bf 4bbe
000000e0: 596e d33d 4c3f 6a3e c90c 1a3d 07fe 403d
000000f0: e2fe 52be 0d6f b43c a90c 82be 9815 86bc
00000100: 86c6 843d ae1a 9d3d ab84 a23e f0a5 b43d
00000110: 0530 373d 985e d4be 7307 2e3e 75a7 a9bd
00000120: d9c0 03be fdf2 c93c 2125 24be 57f4 1b3e
00000130: 938b 42be 6af2 863d 27bc 0f3e df6b 0f3d
00000140: 6315 c63d fb44 a43e b641 78be 3945 34be
00000150: bd4b 65be d46d a5bd a382 6f3e 3ba0 d3bd
00000160: 93a4 413d 3526 5dbe e62d da3e 553c 243e
00000170: 817a 91be 1bfe 39be 74e4 0b3b 19b6 eabd
00000180: 2045 333e e4cd 0b3b 414d c6be 0226 633d
00000190: 7d17 33be 946f cdbd 148d abbe 3b8b 18be
000001a0: 3404 9f3d 128f d1bd a4c8 da3e 9b22 31be
000001b0: 0cd3 bcbd 532f c23d a78d 93bd 221f 82bd
000001c0: 0802 aa3d 9cfe 8abe 2bc7 4e3e 0a6b f73c
000001d0: b7cd 5fbd aacc b2be 6546 bdbc 29c3 f63d
000001e0: f6bd 8abe 06f9 a0bd 0925 31be 0f89 8cbd
000001f0: 6f0c d8bd c73d 753e 694e cf3e 4dc1 973c
00000200: 60d4 c4bc f372 bfbd 4917 0b3e 7a88 8b3d
00000210: f2f0 013e 0570 883b f91f f7bd f1bc 413e
00000220: e156 0f3e 02de 2dbe 0997 12be 5ee7 fa3b
00000230: dc55 d23d 8ca2 be3e a11a 9cbd 8022 3cbe
00000240: 7fb1 2dbc 2fc6 993e 1512 3c3e 688e bcbb
00000250: 9f0c 97be bdc8 efbd 4f0c 913e 627a 3e3e
00000260: a10a 143d f597 cfbd 8286 263e cbdf 91bd
00000270: 86d7 54be 5477 1dbe 92d4 98bd 7a6a 343e
00000280: 9af9 cfbd 4b34 b03d 15a2 83bd c9db 853e
00000290: 8ef1 62bd 10f7 9f3e e9f1 1fbc c85f 0c3d
000002a0: 566c d93d d251 143d ad22 e13d 791b eabd
000002b0: d820 b03d 86d8 3d3d e76c 54bd 524b a13e
000002c0: e3e7 203d b8d8 a83d 95c0 10bd bd94 fb3d
000002d0: 39c6 55bb 012d d73e ad45 b6bd 5abf 563e
000002e0: 7ea8 93bd 9606 5d3e abe4 f43c a66a b5bd
000002f0: b803 b7bd d65c 5c3e d1c3 eabd 0bd3 b1bd
00000300: 110c 42be d5af 00bf ad57 16be 92ae 3d3d
00000310: aa32 203d 0242 d6bd 8b01 02be 1783 cabe
00000320: ef6b f13d f1a8 5b3d 67e4 c6bc 7c60 9abd
00000330: aa45 b7be 435c f3bd 7ccc 763e 2c32 1f3e
00000340: c2b8 8c3e a949 663d 6131 9e3d 6101 533e
00000350: 929c 06be 856f cf3d 10d7 fc3d b3f5 84bd
00000360: 7022 c23e 7c31 b83e eca6 ad3c 3c5f 7ebe
00000370: cfc6 2c3e b74a d4bb 0ec3 4b3c 76ea 84bd
00000380: de79 903c b070 593d de33 123d 84d2 3bbd
00000390: c2d9 82be c99a 243e 1b4c d03c 0991 27be
000003a0: 68ef 983e 850b 3cbe fc13 033e edc5 be3d
000003b0: 9b27 07bd c9f4 b23d 1177 a83d e88e 363e
000003c0: 2f5d d33c c628 10be 8421 e73e 875c 22be
000003d0: 5a12 8bbd d811 1abd da80 8b3e adc7 623e
000003e0: 766e abbc 0a2c 05be 990d cb3b 8033 da3d
000003f0: d350 17be 8288 64bb 3309 f73d 4e4f 5b3e

cav_emb.1.bias f4 [64]
0.0 0.0 0.0 0.0 0.0 0.0 0.0 0.0
0.0 0.0 0.0 0.0 0.0 0.0 0.0 0.0
0.0 0.0 0.0 0.0 0.0 0.0 0.0 0.0
0.0 0.0 0.0 0.0 0.0 0.0 0.0 0.0
0.0 0.0 0.0 0.0 0.0 0.0 0.0 0.0
0.0 0.0 0.0 0.0 0.0 0.0 0.0 0.0
0.0 0.0 0.0 0.0 0.0 0.0 0.0 0.0
0.0 0.0 0.0 0.0 0.0 0.0 0.0 0.0
00000000: 0000 0000 0000 0000 0000 0000 0000 0000
00000010: 0000 0000 0000 0000 0000 0000 0000 0000
00000020: 0000 0000 0000 0000 0000 0000 0000 0000
00000030: 0000 0000 0000 0000 0000 0000 0000 0000
00000040: 0000 0000 0000 0000 0000 0000 0000 0000
00000050: 0000 0000 0000 0000 0000 0000 0000 0000
00000060: 0000 0000 0000 0000 0000 0000 0000 0000
00000070: 0000 0000 0000 0000 0000 0000 0000 0000
00000080: 0000 0000 0000 0000 0000 0000 0000 0000
00000090: 0000 0000 0000 0000 0000 0000 0000 0000
000000a0: 0000 0000 0000 0000 0000 0000 0000 0000
000000b0: 0000 0000 0000 0000 0000 0000 0000 0000
000000c0: 0000 0000 0000 0000 0000 0000 0000 0000
000000d0: 0000 0000 0000 0000 0000 0000 0000 0000
000000e0: 0000 0000 0000 0000 0000 0000 0000 0000
000000f0: 0000 0000 0000 0000 0000 0000 0000 0000

att.mask f4 [1, 1, 145, 145]
1.0 0.0 0.0 0.0 0.0 0.0 0.0 0.0
0.0 0.0 0.0 0.0 0.0 0.0 0.0 0.0
0.0 0.0 0.0 0.0 0.0 0.0 0.0 0.0
0.0 0.0 0.0 0.0 0.0 0.0 0.0 0.0
0.0 0.0 0.0 0.0 0.0 0.0 0.0 0.0
0.0 0.0 0.0 0.0 0.0 0.0 0.0 0.0
0.0 0.0 0.0 0.0 0.0 0.0 0.0 0.0
0.0 0.0 0.0 0.0 0.0 0.0 0.0 0.0
0.0 0.0 0.0 0.0 0.0 0.0 0.0 0.0
0.0 0.0 0.0 0.0 0.0 0.0 0.0 0.0
0.0 0.0 0.0 0.0 0.0 0.0 0.0 0.0
0.0 0.0 0.0 0.0 0.0 0.0 0.0 0.0
0.0 0.0 0.0 0.0 0.0 0.0 0.0 0.0
0.0 0.0 0.0 0.0 0.0 0.0 0.0 0.0
0.0 0.0 0.0 0.0 0.0 0.0 0.0 0.0
0.0 0.0 0.0 0.0 0.0 0.0 0.0 0.0
0.0 0.0 0.0 0.0 0.0 0.0 0.0 0.0
0.0 0.0 0.0 0.0 0.0 0.0 0.0 0.0
0.0 1.0 1.0 0.0 0.0 0.0 0.0 0.0
0.0 0.0 0.0 0.0 0.0 0.0 0.0 0.0
0.0 0.0 0.0 0.0 0.0 0.0 0.0 0.0
0.0 0.0 0.0 0.0 0.0 0.0 0.0 0.0
0.0 0.0 0.0 0.0 0.0 0.0 0.0 0.0
0.0 0.0 0.0 0.0 0.0 0.0 0.0 0.0
0.0 0.0 0.0 0.0 0.0 0.0 0.0 0.0
0.0 0.0 0.0 0.0 0.0 0.0 0.0 0.0
0.0 0.0 0.0 0.0 0.0 0.0 0.0 0.0
0.0 0.0 0.0 0.0 0.0 0.0 0.0 0.0
0.0 0.0 0.0 0.0 0.0 0.0 0.0 0.0
0.0 0.0 0.0 0.0 0.0 0.0 0.0 0.0
0.0 0.0 0.0 0.0 0.0 0.0 0.0 0.0
0.0 0.0 0.0 0.0 0.0 0.0 0.0 0.0
00000000: 0000 803f 0000 0000 0000 0000 0000 0000
00000010: 0000 0000 0000 0000 0000 0000 0000 0000
00000020: 0000 0000 0000 0000 0000 0000 0000 0000
00000030: 0000 0000 0000 0000 0000 0000 0000 0000
00000040: 0000 0000 0000 0000 0000 0000 0000 0000
00000050: 0000 0000 0000 0000 0000 0000 0000 0000
00000060: 0000 0000 0000 0000 0000 0000 0000 0000
00000070: 0000 0000 0000 0000 0000 0000 0000 0000
00000080: 0000 0000 0000 0000 0000 0000 0000 0000
00000090: 0000 0000 0000 0000 0000 0000 0000 0000
000000a0: 0000 0000 0000 0000 0000 0000 0000 0000
000000b0: 0000 0000 0000 0000 0000 0000 0000 0000
000000c0: 0000 0000 0000 0000 0000 0000 0000 0000
000000d0: 0000 0000 0000 0000 0000 0000 0000 0000
000000e0: 0000 0000 0000 0000 0000 0000 0000 0000
000000f0: 0000 0000 0000 0000 0000 0000 0000 0000
00000100: 0000 0000 0000 0000 0000 0000 0000 0000
00000110: 0000 0000 0000 0000 0000 0000 0000 0000
00000120: 0000 0000 0000 0000 0000 0000 0000 0000
00000130: 0000 0000 0000 0000 0000 0000 0000 0000
00000140: 0000 0000 0000 0000 0000 0000 0000 0000
00000150: 0000 0000 0000 0000 0000 0000 0000 0000
00000160: 0000 0000 0000 0000 0000 0000 0000 0000
00000170: 0000 0000 0000 0000 0000 0000 0000 0000
00000180: 0000 0000 0000 0000 0000 0000 0000 0000
00000190: 0000 0000 0000 0000 0000 0000 0000 0000
000001a0: 0000 0000 0000 0000 0000 0000 0000 0000
000001b0: 0000 0000 0000 0000 0000 0000 0000 0000
000001c0: 0000 0000 0000 0000 0000 0000 0000 0000
000001d0: 0000 0000 0000 0000 0000 0000 0000 0000
000001e0: 0000 0000 0000 0000 0000 0000 0000 0000
000001f0: 0000 0000 0000 0000 0000 0000 0000 0000
00000200: 0000 0000 0000 0000 0000 0000 0000 0000
00000210: 0000 0000 0000 0000 0000 0000 0000 0000
00000220: 0000 0000 0000 0000 0000 0000 0000 0000
00000230: 0000 0000 0000 0000 0000 0000 0000 0000
00000240: 0000 0000 0000 803f 0000 803f 0000 0000
00000250: 0000 0000 0000 0000 0000 0000 0000 0000
00000260: 0000 0000 0000 0000 0000 0000 0000 0000
00000270: 0000 0000 0000 0000 0000 0000 0000 0000
00000280: 0000 0000 0000 0000 0000 0000 0000 0000
00000290: 0000 0000 0000 0000 0000 0000 0000 0000
000002a0: 0000 0000 0000 0000 0000 0000 0000 0000
000002b0: 0000 0000 0000 0000 0000 0000 0000 0000
000002c0: 0000 0000 0000 0000 0000 0000 0000 0000
000002d0: 0000 0000 0000 0000 0000 0000 0000 0000
000002e0: 0000 0000 0000 0000 0000 0000 0000 0000
000002f0: 0000 0000 0000 0000 0000 0000 0000 0000
00000300: 0000 0000 0000 0000 0000 0000 0000 0000
00000310: 0000 0000 0000 0000 0000 0000 0000 0000
00000320: 0000 0000 0000 0000 0000 0000 0000 0000
00000330: 0000 0000 0000 0000 0000 0000 0000 0000
00000340: 0000 0000 0000 0000 0000 0000 0000 0000
00000350: 0000 0000 0000 0000 0000 0000 0000 0000
00000360: 0000 0000 0000 0000 0000 0000 0000 0000
00000370: 0000 0000 0000 0000 0000 0000 0000 0000
00000380: 0000 0000 0000 0000 0000 0000 0000 0000
00000390: 0000 0000 0000 0000 0000 0000 0000 0000
000003a0: 0000 0000 0000 0000 0000 0000 0000 0000
000003b0: 0000 0000 0000 0000 0000 0000 0000 0000
000003c0: 0000 0000 0000 0000 0000 0000 0000 0000
000003d0: 0000 0000 0000 0000 0000 0000 0000 0000
000003e0: 0000 0000 0000 0000 0000 0000 0000 0000
000003f0: 0000 0000 0000 0000 0000 0000 0000 0000
