route_TSC/model/0.5_hatt_router_joint_0315/ep50/q_netveh.pt (torch, 510246 bytes, 26 tensors)

attn f4 [1, 2, 37]
000000 80 01 88 50 f9 05 00 00 00 00 00 00 00 00 00 00
       1.8254397e+10 2.143e-42 0.0 0.0
000010 00 00 00 00 00 00 00 00 00 00 00 00 00 00 00 00
       0.0 0.0 0.0 0.0
000020 00 00 00 00 00 00 00 00 00 00 00 00 00 00 00 00
       0.0 0.0 0.0 0.0
000030 00 00 00 00 00 00 00 00 00 00 00 00 00 00 00 00
       0.0 0.0 0.0 0.0
000040 00 00 00 00 00 00 00 00 00 00 00 00 00 00 00 00
       0.0 0.0 0.0 0.0
000050 00 00 00 00 00 00 00 00 00 00 00 00 00 00 00 00
       0.0 0.0 0.0 0.0
000060 00 00 00 00 00 00 00 00 00 00 00 00 00 00 00 00
       0.0 0.0 0.0 0.0
000070 00 00 00 00 00 00 00 00 00 00 00 00 00 00 00 00
       0.0 0.0 0.0 0.0
000080 00 00 00 00 00 00 00 00 00 00 00 00 00 00 00 00
       0.0 0.0 0.0 0.0
000090 00 00 00 00 00 00 00 00 00 00 00 00 00 00 00 00
       0.0 0.0 0.0 0.0
0000a0 00 00 00 00 00 00 00 00 00 00 00 00 00 00 00 00
       0.0 0.0 0.0 0.0
0000b0 00 00 00 00 00 00 00 00 00 00 00 00 00 00 00 00
       0.0 0.0 0.0 0.0
0000c0 00 00 00 00 00 00 00 00 00 00 00 00 00 00 00 00
       0.0 0.0 0.0 0.0
0000d0 00 00 00 00 00 00 00 00 00 00 00 00 00 00 00 00
       0.0 0.0 0.0 0.0
0000e0 00 00 00 00 00 00 00 00 00 00 00 00 00 00 00 00
       0.0 0.0 0.0 0.0
0000f0 00 00 00 00 00 00 00 00 00 00 00 00 00 00 00 00
       0.0 0.0 0.0 0.0
000100 00 00 00 00 00 00 00 00 00 00 00 00 00 00 00 00
       0.0 0.0 0.0 0.0
000110 00 00 00 00 00 00 00 00 00 00 00 00 00 00 00 00
       0.0 0.0 0.0 0.0
000120 00 00 00 00 00 00 00 00
       0.0 0.0

fc0.weight f4 [32, 2315]
000000 0c cb 8e bb 7e 6c 10 3c 60 71 9d 3c 88 58 d8 3b
       -0.004357701 0.008814929 0.0192191 0.0066023506
000010 a0 cf 97 3c f9 c0 0a bc d4 84 9f 3c ff bc 30 bc
       0.01853162 -0.00846886 0.019472517 -0.010787248
000020 fc 32 8f 3c f6 ef 2a 3c d0 ec d4 ba 20 dd 8c 3c
       0.017480366 0.010433188 -0.0016244892 0.017195284
000030 40 72 62 3a 94 8c a4 3c 78 5e a8 3c f6 72 a3 3c
       0.00086382404 0.020086564 0.020552859 0.019952279
000040 9f bc a9 bc e2 e4 a2 bc 72 7b 27 3c c4 c1 b4 3b
       -0.020719824 -0.01988453 0.010222303 0.0055162627
000050 53 93 a6 bc b4 ef 69 3c 00 7b 4b ba a6 54 8e 3c
       -0.020333922 0.014278341 -0.0007762164 0.017374348
000060 6d 4b 9a bc 0c 75 62 3c 10 c9 7e bb 60 52 d3 3a
       -0.018834794 0.013821851 -0.0038877167 0.0016122572
000070 4c 9a 55 3c 2a 4e 25 bc 84 9c d1 bb da 4f 9e bc
       0.0130372755 -0.010089437 -0.006396832 -0.019325186
000080 98 84 6d 3b 68 57 df bb fa 4e 44 bc 30 1c 43 bc
       0.0036242362 -0.0068158396 -0.01198172 -0.011908576
000090 c6 76 a3 3c 54 4b b1 3b 00 1d 8c 3c 62 ed 06 bc
       0.019954097 0.005410591 0.017103672 -0.008235307
0000a0 90 82 7d bc 10 2c c1 3b d0 b0 44 3c 92 78 be bb
       -0.015473023 0.0058951452 0.012005046 -0.005812713
0000b0 20 07 a2 ba 40 05 6c bc ec 40 a2 bc 60 66 49 3a
       -0.0012361743 -0.014405549 -0.019806348 0.00076827966
0000c0 68 f0 04 3c 94 0a 80 bb a4 1f e2 bb 90 c7 c9 3b
       0.008113958 -0.003907511 -0.0069007445 0.006157823
0000d0 f4 e7 0c 3c 88 c6 a2 3c 20 52 92 3a b4 f8 63 bc
       0.008600224 0.019870058 0.0011163391 -0.013914276
0000e0 3e 4b ad bb a0 32 37 bb 1c b7 b8 bb 68 cd 37 3c
       -0.0052885106 -0.0027953759 -0.0056370627 0.011218406
0000f0 8c c7 e8 3b ac 52 5a 3c 9d 86 75 bc ac 9b 68 3c
       0.007103866 0.013325375 -0.014985708 0.014197271
000100 28 0c f2 bb 82 0b 6d bc a0 d2 d3 3b fe ad 64 bc
       -0.007386703 -0.014468076 0.0064643174 -0.013957499
000110 d4 09 6c 3c c4 12 31 3c a3 e9 81 bc 1b 6e 4c bc
       0.01440664 0.010807697 -0.015858477 -0.012477423
000120 44 38 e6 3b 50 26 14 bc 0c b5 34 3c bc 62 8c 3b
       0.0070257504 -0.009042338 0.011029493 0.004284231
000130 cc 7d 63 bc 80 1c 93 3c 7c 4b c9 3b a6 fd 96 3c
       -0.013884973 0.017957926 0.0061430316 0.018431496
000140 60 8f 01 ba 20 9a 66 bb 9c 41 fa 3b 70 cb fd ba
       -0.0004942324 -0.003518708 0.007637216 -0.0019362997
000150 c6 b2 a8 bc 29 f4 9f bc e0 0c 41 bc a2 af 9a bc
       -0.020593058 -0.019525604 -0.011782855 -0.018882576
000160 f0 03 a0 bb c6 58 8e bc 00 d9 c5 3b da 83 9f bc
       -0.004883282 -0.017376315 0.0060378313 -0.019472051
000170 a0 36 6f bb d1 54 94 bc b3 5e 94 bc 50 52 7e 3c
       -0.0036501065 -0.01810685 -0.018111562 0.0155225545
000180 c0 ed 22 3c 78 c2 dd 3b 00 47 99 3c a6 1d 86 3c
       0.009944379 0.0067675672 0.018710613 0.01637156
000190 16 34 ed bb 88 c0 63 3c 28 18 7e bb d2 c0 13 3c
       -0.007238875 0.0139008835 -0.0038771722 0.00901814
0001a0 5c ac c2 bb 68 40 2a 3b 80 90 65 ba fa ac 8d bc
       -0.005940957 0.002597833 -0.0008757189 -0.017294396
0001b0 be e4 74 bc 68 86 17 3c 76 28 b2 bb d8 bb 0f bb
       -0.0149471145 0.009248354 -0.005436952 -0.0021932032
0001c0 10 99 52 3c ad d6 01 bc d1 37 09 bc 53 4b 7e bc
       0.012853876 -0.007924718 -0.008375124 -0.015520888
0001d0 1c f5 49 3c 98 1f 27 3c 68 0d 0b bb e4 de 00 3c
       0.012326505 0.010200404 -0.0021217708 0.007865641
0001e0 5f 7d 4a bc 60 b9 51 bc 1a 70 8e 3c 70 3a a1 ba
       -0.012358992 -0.0128005445 0.017387439 -0.0012300741
0001f0 e2 11 37 bc 8c a2 35 3c 34 fd 32 3c b0 05 6d bb
       -0.011173697 0.0110861175 0.010924626 -0.003616672
000200 5c 47 fe 3b f8 a1 87 3b a8 7a 4f 3c 90 1e ee ba
       0.0077599715 0.004139181 0.012663521 -0.0018167067
000210 50 68 d8 3a d8 f3 cb bb a6 65 17 3c 60 ae 69 3a
       0.001651058 -0.006224137 0.0092405435 0.00089142285
000220 cc 5e d9 3b 0c c6 87 bc e4 e4 88 bc 80 03 81 ba
       0.006633615 -0.016573928 -0.016710706 -0.0009842962
000230 aa b9 89 bc a0 24 99 bb d1 61 89 bc 74 c2 60 3c
       -0.016812164 -0.0046735555 -0.016770275 0.013718236
000240 d8 2c 8b 3b 34 5a 56 bc c4 80 89 3c 1a 1b 99 3c
       0.004247289 -0.01308303 0.016785033 0.01868968
000250 dc dd e6 3b 40 3b 37 3b fa e8 db bb d4 0c cf bb
       0.0070454907 0.00279589 -0.0067111226 -0.006318668
000260 0a 81 8c 3c bc d7 21 3c 69 a4 80 bc 60 5e 41 3c
       0.017151374 0.009878095 -0.015703397 0.011802286
000270 40 38 5a bb 6c 1c 5d 3c f7 e2 23 bc 18 97 5e 3b
       -0.0033297688 0.013495546 -0.010002843 0.003396457
000280 39 7e 27 bc d0 e2 a3 3c a0 65 51 3a 10 2c 5f 3b
       -0.010222965 0.020005614 0.00079878606 0.0034053363
000290 ec 24 f3 bb 10 9b 49 bb 58 a8 41 3b e8 f1 df 3b
       -0.007420173 -0.003076259 0.0029549804 0.0068342574
0002a0 60 b1 95 bb a0 18 7f 3b 20 0d 18 3c f4 d3 7b bc
       -0.004568264 0.003892459 0.009280473 -0.015370358
0002b0 70 fb 60 3b f0 75 67 3b b0 41 85 3b e8 8a e9 3b
       0.0034329556 0.00353181 0.0040666685 0.0071271546
0002c0 e8 31 79 bb 40 08 ae ba 2a a4 a3 bc 54 24 8c 3c
       -0.0038024131 -0.0013277605 -0.01997574 0.017107166
0002d0 a0 94 8b bc b5 aa 41 bc 6e 18 8e bc 0e f1 c5 bb
       -0.017038643 -0.011820485 -0.017345633 -0.006040699
0002e0 22 e9 81 bc 14 1b 14 bc 2d cc 9e bc 14 be 28 3c
       -0.015858237 -0.009039659 -0.019384468 0.010299224
0002f0 21 40 8a bc 30 d7 9b ba d2 a5 28 bc 12 3e 0f 3c
       -0.016876282 -0.0011889692 -0.010293441 0.008742826
000300 90 d6 7c 3c 5b bf 69 bc 78 ca 6c bb 70 47 3b 3b
       0.015432015 -0.014266814 -0.0036131423 0.0028576516
000310 48 e8 04 3b 94 61 48 3c 93 c1 1d bc 70 7d d6 3a
       0.0020280052 0.012230296 -0.009628671 0.0016364288
000320 80 39 cd 3b a0 fa 3c 3a d0 cc 68 3c 7c 58 62 3c
       0.006262958 0.0007208977 0.014208987 0.013815042
000330 b8 3f 91 bc 10 ee c9 3b 30 2c 10 3c 5c 99 87 bc
       -0.017730579 0.0061624125 0.008799598 -0.01655262
000340 b8 70 05 3b 5c ec 85 3c 84 d3 97 3c 14 50 7e 3c
       0.0020361375 0.016348056 0.018533476 0.015522022
000350 c0 bf 8f 3c 8e 54 8f bc 8c 92 38 bc b8 79 99 bc
       0.017547488 -0.017496374 -0.011265408 -0.018734798
000360 ce 84 9a 3c 20 46 66 3c 4d 5a 86 bc 10 7c 22 3c
       0.018862154 0.014054805 -0.01640048 0.009917274
000370 ec 01 06 bc 30 ef b8 ba 00 2c 7a 38 34 e6 49 3c
       -0.008179169 -0.0014109369 5.9645623e-05 0.012322951
000380 56 9b 86 3c c4 13 d9 3b af 08 9a bc 1c 08 dc bb
       0.016431492 0.0066246707 -0.018802969 -0.006714834
000390 86 f0 63 bc 1c bb 8f 3c 60 c4 31 3b c0 5c b3 b9
       -0.013912326 0.017545275 0.0027125105 -0.00034210645
0003a0 81 e7 a3 bc 0c 76 62 3c fc 07 85 bc d4 69 fc bb
       -0.02000785 0.01382209 -0.016239159 -0.0077030454
0003b0 c6 f5 5c bc e4 9b 75 3c 20 9d 90 ba c8 19 ed bb
       -0.013486331 0.0149907805 -0.0011033155 -0.0072357394
0003c0 38 0c 72 3b 20 80 95 3b 27 1b 9b bc f6 b9 1f 3c
       0.0036933552 0.004562393 -0.018933846 0.009748926
0003d0 80 e6 d2 39 8c 1e 9c bc 52 cc fc bb e8 ea 5b 3c
       0.00040226057 -0.019057535 -0.0077147866 0.013422705
0003e0 40 01 7b 3c 78 01 42 3c f6 c5 a9 3c 48 79 df 3b
       0.015320122 0.0118411705 0.020724278 0.006819878
0003f0 20 82 1f ba 22 40 85 bc 4d df 78 bc a0 03 ad bb
       -0.0006084759 -0.016265932 -0.015189958 -0.005279973

fc0.bias f4 [32]
000000 8b ba 01 bc 2c 1c 8f 3c 18 f9 7f 3c 8c 94 6a bc
       -0.0079180105 0.017469488 0.015623353 -0.014317643
000010 ea f6 a3 bc a7 b9 6c bc 8e 23 04 bc 80 85 35 3c
       -0.020015199 -0.01444856 -0.0080651175 0.011079192
000020 c4 17 e6 bb 80 c6 5c 3b 00 f7 b6 38 64 f7 c6 bb
       -0.007021876 0.003368765 8.7244436e-05 -0.0060719717
000030 f6 33 b5 bb 28 40 85 bc 0b b9 68 bc 28 9a 66 3c
       -0.005529876 -0.016265944 -0.014204274 0.01407484
000040 8a f1 99 3c e0 5c 32 3b 10 a8 6e 3c 55 32 2a bc
       0.018791933 0.0027216002 0.014566436 -0.010387977
000050 80 4f 86 bb 8c 0a 9f 3c c0 64 85 ba 6b 6e 90 bc
       -0.0040988326 0.019414209 -0.001017712 -0.017630776
000060 e5 be a9 bc e0 97 2e 3a 10 ab 60 bc 9d 69 44 bc
       -0.020720908 0.00066602044 -0.0137126595 -0.011988071
000070 b0 4a 24 bc bc 14 1d bc 80 61 74 ba 07 d8 90 bc
       -0.0100275725 -0.009587463 -0.000932239 -0.017681135

fc1.weight f4 [32, 32]
000000 0d b8 85 bc cb 09 48 be 54 a4 00 3e 35 65 f1 3d
       -0.016323114 -0.19534986 0.12562686 0.11786882
000010 ec df 17 bd 54 c6 ed 3d 38 1e 8e bd d6 98 f2 bd
       -0.037078783 0.11610094 -0.069393575 -0.118455574
000020 be 78 9e be 35 cb 41 3e 6c b0 55 3e 63 c3 9d bc
       -0.30951494 0.18925174 0.20868081 -0.019258207
000030 8c 66 43 be 1f d2 02 bf 1d ce 03 3e 81 6d ac bd
       -0.19082087 -0.5110187 0.12871595 -0.08419324
000040 d9 fb 2d 3e a1 65 f4 be 99 3c 41 bd c6 af 3c bb
       0.16990604 -0.47733787 -0.04717693 -0.0028791293
000050 70 1a 0a 3e ea 10 31 3e 04 f2 73 be b1 61 12 bd
       0.13486648 0.17291608 -0.2382279 -0.035737697
000060 8a f7 58 3c 29 fd 6b 3d e9 ed 17 3e 50 57 ac bd
       0.013242612 0.05761448 0.1483685 -0.08415091
000070 d3 5c 26 bf b7 2e 84 3e d6 b0 de bc 6d 73 24 3e
       -0.6498539 0.2581689 -0.027183931 0.16059656
000080 ca 80 40 be 53 5e 4b be 71 d0 56 bf 1c b0 59 bd
       -0.18799129 -0.198602 -0.83911806 -0.053146467
000090 64 49 d3 bd 12 05 31 be 8f 25 4a 3e 88 9a 4a be
       -0.103167325 -0.1728709 0.1974089 -0.19785511
0000a0 21 e7 98 3d ca a6 83 bf cf ed 2b be 9a 8a df bd
       0.07465959 -1.0285275 -0.16789936 -0.10915108
0000b0 3d c9 54 3d fb 50 cf 3c 69 2c b6 3d 45 55 0e 3e
       0.05194973 0.02530717 0.08895189 0.13899715
0000c0 6a 6e 4d 3d f9 ed c4 3d 63 ee 18 3e ed d1 83 3e
       0.050154127 0.09615702 0.14934687 0.25746098
0000d0 84 2e ef bd 71 53 63 be e0 24 9a 3d 45 39 ac bc
       -0.11678794 -0.22199799 0.075265646 -0.021023402
0000e0 64 ac 8b 3d 15 b6 a9 3e 38 f6 45 3d 07 ac d1 3d
       0.0681999 0.3314673 0.048330516 0.1023789
0000f0 0f d2 53 3d 8f 17 86 bf cd 73 d4 3c 1d 10 9f 3c
       0.051714 -1.047594 0.025934124 0.019416863
000100 80 d4 fb 3d 2d 89 0c 3e 40 b8 79 3d e8 e7 ac 3d
       0.122963905 0.13724203 0.06096673 0.0844267
000110 3d b0 40 bc 20 48 d7 bd 70 a1 52 be bc b6 1b be
       -0.0117607685 -0.105118036 -0.20569396 -0.15206426
000120 76 53 d1 be eb 6a f5 bd bc f9 bf 3d c6 7b 01 3e
       -0.40883988 -0.119832836 0.09373805 0.12644872
000130 f5 2e 67 3e 1e 02 7f 3d e1 3d 82 bd 41 12 27 3d
       0.22576506 0.06225788 -0.06359459 0.040788893
000140 32 3a 86 3e 52 ae 62 3e 91 83 a1 3c bc 9b 8f 3d
       0.26216274 0.2213681 0.019716056 0.07012126
000150 cc 69 e6 bd 64 86 47 3e 3c 89 b1 3d be be 76 3d
       -0.11250648 0.1948486 0.086687535 0.0602405
000160 67 0a 36 3e 76 d7 9b bd 3f e8 5e 3e 78 25 b5 3d
       0.17777406 -0.07609455 0.21768282 0.08845037
000170 21 2c 9b 3e 9a e9 a2 bd 4d 29 4b 3d c9 90 cf bd
       0.30307105 -0.07954712 0.049599934 -0.101350375
000180 29 3f 13 3d 27 8a 18 3d 0a d1 cb 3d 6e 29 6a bd
       0.035948906 0.037241127 0.099519804 -0.057168417
000190 94 6c 2b 3e 86 fe bf bd 7d 10 78 3e 19 44 18 be
       0.16740638 -0.09374718 0.2422504 -0.14869727
0001a0 dc b3 01 bd e8 d2 1e 3e 92 60 56 3e ad 9a d7 3d
       -0.031665668 0.15510142 0.20935276 0.10527549
0001b0 70 28 d6 bc 62 59 39 bf fb cb 41 3e 69 46 21 bd
       -0.026142329 -0.7240201 0.18925469 -0.03937379
0001c0 c1 d0 8b 3d 46 19 68 bf 6f f9 3e be 49 03 89 3e
       0.06826926 -0.90663564 -0.18649839 0.2676032
0001d0 26 7f 51 be 95 c1 b8 bc ce 8c 80 38 09 a2 c0 3d
       -0.2045866 -0.022553245 6.1297425e-05 0.09405906
0001e0 a7 80 90 3d 73 86 92 bd 56 70 3a bd 22 94 13 be
       0.070557885 -0.071545504 -0.04551729 -0.14411977
0001f0 f1 70 84 bf 18 f3 90 3e a1 20 6a bd 57 6c 8f bd
       -1.0346967 0.28310466 -0.057160024 -0.07003086
000200 79 58 20 bc 59 6b 84 be 67 59 25 bf fb c0 40 3d
       -0.0097867185 -0.2586315 -0.6458954 0.04705904
000210 6b e7 3f bc b5 b4 50 be f6 a0 c0 3d 60 1a a2 3d
       -0.011712889 -0.20381434 0.09405701 0.07915187
000220 ce 2a 87 3d 8b bb 2d bf 22 27 46 be 41 40 1f bd
       0.06599961 -0.6786429 -0.19350865 -0.038879637
000230 b0 da 6b be 10 6c b0 be b6 4f 8b bd 93 ef 3a bc
       -0.23032641 -0.34457445 -0.06802313 -0.011409658
000240 a4 49 66 3e c7 b9 90 bd 71 a6 87 3e 52 11 2e 3d
       0.22489029 -0.07066684 0.26494172 0.042496987
000250 76 5c 8f bd b3 29 40 3d b1 7c 71 bd ce 77 eb bc
       -0.070000574 0.046914767 -0.058956806 -0.02874365
000260 46 22 9d bd 34 5b cf 3d 72 d1 7f 3e f7 b8 15 bd
       -0.07672553 0.101248175 0.24982241 -0.03655335
000270 56 58 02 3e be f2 4a bf a0 35 11 be 8b 64 e4 3d
       0.1272901 -0.79276645 -0.14180613 0.111519895
000280 54 97 36 3d 84 55 04 bd 6e 37 e2 be c7 b2 3d be
       0.04457791 -0.032308117 -0.44182914 -0.1852523
000290 9a f4 8c 3e 4f 5b 51 3d d5 4b 8c 3d 71 11 cf 3d
       0.27530366 0.05111247 0.06850401 0.101107486
0002a0 8f ed 87 3e 1b b2 38 bf ed bc 12 be c6 de 42 bd
       0.2654843 -0.7214677 -0.14329882 -0.047575735
0002b0 a2 00 9d bd b9 6b 94 bd 51 9f 27 bd 88 bf b0 3d
       -0.07666136 -0.07247109 -0.04092342 0.08630282
0002c0 a2 6f 8f 3d 99 e6 90 3d b3 b0 18 3e 9c 5c 1f 3d
       0.07003714 0.07075233 0.14911155 0.03890668
0002d0 92 96 09 3c 6d f9 4d 3d 0f 0c 0b 3e d1 c5 33 3e
       0.008397715 0.0502867 0.13578819 0.1755593
0002e0 9b b5 1e 3e 50 b3 d5 bd 50 56 9e 3e ff 03 94 3e
       0.15498964 -0.10434592 0.30925226 0.289093
0002f0 a9 6e bc 3d a9 ca db be 41 e4 26 bb 2e 08 cb be
       0.09200794 -0.42928055 -0.002546564 -0.39654678
000300 24 94 eb be 6d f8 66 bf 94 eb b3 bd f9 29 f8 bd
       -0.4601146 -0.9022282 -0.08785167 -0.12117381
000310 bb 62 08 bd ce 5f b6 be 23 47 c8 3d 8c 4f 88 be
       -0.03329728 -0.35619968 0.09779193 -0.2662319
000320 de 29 14 be 99 96 0f 3b 0c 2b 17 be 24 86 e3 bd
       -0.14469096 0.0021909832 -0.14762515 -0.1110957
000330 b3 9c 69 be 30 0a 4e 3d b7 73 81 bd e3 42 e9 be
       -0.22813682 0.050302684 -0.06320899 -0.45558843
000340 24 00 be be 00 71 e3 bc a1 fa 5e 3e 25 16 c8 3e
       -0.37109482 -0.027763844 0.21775295 0.39079395
000350 30 6e 80 be 31 e1 4c bf 9f a6 49 bf 2a 8e 28 3e
       -0.25084066 -0.80031115 -0.7876987 0.16460481
000360 d3 83 19 3e 17 4d 47 bd 54 a9 25 be 29 23 fb bd
       0.14991693 -0.048657503 -0.16177875 -0.12262566
000370 fc a9 40 be e9 74 27 3f 2d 53 d4 bd a6 19 30 3d
       -0.18814844 0.65412766 -0.10367427 0.04299321
000380 81 59 20 be 88 73 20 be 89 ef 33 3e 2c 16 5f be
       -0.15659143 -0.15669072 0.17571844 -0.21785802
000390 89 ee 18 3e 80 2d 69 3e bc ff 5c be 37 df 82 be
       0.14934744 0.22771263 -0.2158193 -0.25560924
0003a0 9e 42 10 bf 35 ea b1 bd 2d 20 7b 3e b6 34 87 bc
       -0.5635165 -0.086872496 0.24523993 -0.016504627
0003b0 ee 8d 74 3c 1d 9f b6 bc 55 8b 8e 3d fa cb e5 be
       0.014926417 -0.022292668 0.06960169 -0.44882184
0003c0 07 87 8c 3e 8d 81 91 3c 62 24 aa be ed 44 88 be
       0.27446768 0.01776197 -0.33230883 -0.26615086
0003d0 3f 5b 9b be 3a 7f 48 3c a0 18 2f be 1b 65 cd be
       -0.30343053 0.012237364 -0.17099237 -0.401162
0003e0 47 64 29 3d 15 79 08 be 4f f9 84 3d e0 41 99 3e
       0.041355398 -0.13327439 0.06492864 0.2993307
0003f0 42 68 c7 bd ae 7f 43 be 6f 46 9e be 6d 31 b0 3d
       -0.097366825 -0.19091675 -0.30913112 0.08603177

fc1.bias f4 [32]
000000 c2 07 94 3e 7f 98 d3 3e 9e 96 35 3f 00 ba 25 3f
       0.2891217 0.41327283 0.7093295 0.6473694
000010 6a d7 8d 3e 2a f6 47 3f 27 e4 46 3f ed 44 49 3e
       0.2770341 0.7810999 0.7769188 0.196552
000020 60 58 fc 3e bd 8c 8a 3e 57 8d 33 3f 16 b3 29 3e
       0.49286175 0.270605 0.7013754 0.16572222
000030 7e 90 48 3f 01 40 e2 be fd dd 32 3e 70 98 2d 3f
       0.7834548 -0.44189456 0.17467494 0.67810726
000040 b0 8d 87 3e a1 e1 91 3e 62 82 0a 3e c7 7d 0e be
       0.26475286 0.28492454 0.135263 -0.13915168
000050 06 3d 50 3f 39 5a 2e 3f dd b2 e7 3e 65 7e 44 be
       0.81343114 0.6810642 0.4525365 -0.1918884
000060 55 1d 0c 3e 65 62 09 3f 57 66 11 3f cb f7 37 3f
       0.13683064 0.53665763 0.56796783 0.7186248
000070 ac db 54 3f 00 ff 3c 3f d7 9d 1a 3f 50 20 0a 3f
       0.8314769 0.738266 0.60397094 0.53955555

fc2.weight f4 [3, 32]
000000 fa 98 0e 3e 8e c7 ce 3d c6 0a ae bd 01 87 08 3e
       0.13925543 0.10096656 -0.084981486 0.1333275
000010 3c 2c 38 3e da 1f 97 bd 80 36 3f be 16 1f e0 3a
       0.17985624 -0.07379122 -0.18673134 0.0017099108
000020 63 df 2b bd a2 59 35 3d 4d 10 fe bd 20 a8 0a 3e
       -0.041961085 0.044274934 -0.12405453 0.13540697
000030 5a 23 b5 bd 30 2f 14 bd cc 46 b2 3e 03 ca db 3d
       -0.088446334 -0.036177814 0.3481964 0.1073189
000040 80 71 b1 bc d4 50 fa 3d c3 ab 54 be c4 41 48 3c
       -0.021660566 0.12222448 -0.20768647 0.012222711
000050 4b 02 b1 bd 56 5f 39 3d 7d 3d 92 3a 12 6b 37 bc
       -0.086430155 0.045256935 0.0011157241 -0.011194961
000060 3a 72 ab 3d 36 34 d6 bc a1 d6 b2 be ec 93 d9 bd
       0.08371396 -0.026147943 -0.34929374 -0.10623917
000070 80 92 29 be 4c 37 0a be 6c 4d cb bd 14 f6 95 3d
       -0.16559792 -0.13497657 -0.099268764 0.07322326
000080 7a 69 09 3e 56 23 26 3e 19 ad 12 be 11 da 56 3e
       0.13419142 0.16224417 -0.14323844 0.20981623
000090 96 6f 0a 3e 79 e9 98 bd f0 1a 95 bc 68 08 6b bc
       0.13519129 -0.074664064 -0.018201321 -0.014345266
0000a0 c5 36 8a bc 2c d2 52 3d 74 08 fb bd fd 31 74 bd
       -0.01687182 0.051469967 -0.12257472 -0.059617985
0000b0 97 27 2c be 5b 59 21 bd 6a 90 c8 3e f5 35 08 bd
       -0.16811977 -0.039391857 0.3917268 -0.033254582
0000c0 fd e1 e5 3b 48 5a 61 bc b3 aa 99 3e 05 81 7b 3b
       0.0070154653 -0.013754435 0.30013046 0.0038376462
0000d0 cf e1 6c bd e3 77 3b bd 49 83 9e 3b 26 15 a4 bb
       -0.057832535 -0.04576863 0.0048374278 -0.005007404
0000e0 ce ad 50 bf 6a 8a bb 3c bd 14 e0 3c 2a 34 34 be
       -0.81515205 0.02289315 0.027353639 -0.17598024
0000f0 e0 c8 01 be 20 00 42 be d8 6a c4 bd bd 50 4b 3e
       -0.12674284 -0.1894536 -0.09590691 0.19855018
000100 9d 5e c5 bd 20 4e 87 bd 85 76 a3 bd dd a2 a5 bd
       -0.09637187 -0.06606698 -0.0798159 -0.08087704
000110 46 20 bb 3d dc 7f 17 be c6 0c 19 3f 5d dd ea bd
       0.09137015 -0.14794868 0.59785116 -0.11468003
000120 5b 73 11 be 7a d3 7d bd 41 5d 25 be 19 c4 20 3c
       -0.14204161 -0.061969258 -0.16148855 0.009812378
000130 c1 25 0e be 38 0d 94 3d 65 cf 08 3e 1c 3e c6 bc
       -0.1388159 0.07229084 0.13360365 -0.024199538
000140 6b f8 1e 3c 07 ed 2b 3d f8 25 d5 3d 3a 82 9f ba
       0.009702782 0.041974094 0.104076326 -0.0012169548
000150 28 1d 3e be d3 cb 11 be 40 52 32 bd e6 cc 52 bd
       -0.1856581 -0.14237909 -0.04353547 -0.051464938
000160 4a d6 fd 3d 90 64 f3 bb f5 0a 29 3e b7 56 14 be
       0.12394388 -0.0074277595 0.16508086 -0.14486204
000170 44 6d 47 be eb 11 05 be b6 fb 1e be 4c 99 99 bd
       -0.19475275 -0.12995116 -0.15525708 -0.07499942

fc2.bias f4 [3]
000000 44 3f 6a bf 09 0f 20 bf 90 55 29 3f
       -0.91502786 -0.6252294 0.66146183

road_emb.0.weight f4 [144]
000000 95 6a bf 3f af 08 8a 3f e1 88 a8 3f ef 74 77 3f
       1.4954401 1.07839 1.3166772 0.966628
000010 cf 63 58 3f a5 36 8a 3f 3f 50 9a 3f 84 25 a0 3f
       0.84527296 1.0797926 1.2055739 1.2511449
000020 b1 6b 98 3f af d2 8a 3e 1a 46 7f 3f 8a d6 80 3f
       1.1907865 0.27113864 0.9971634 1.0065472
000030 f1 0b 93 3f eb 6a 60 3f 9e 80 a5 3f e3 13 68 3f
       1.1488019 0.87663144 1.2929876 0.90655345
000040 99 b4 83 3f b5 70 77 3f 54 ee 93 3f ed 05 89 3f
       1.0289489 0.9665635 1.1557107 1.0704933
000050 be 6e a0 3f 81 b8 80 3e 85 c2 61 3f aa 3a 6d 3f
       1.2533796 0.25140765 0.8818744 0.9266764
000060 c2 e5 b1 3f 89 2e 85 3f 3a 76 9f 3f 74 d7 7d 3f
       1.3898242 1.0404826 1.2457955 0.9915688
000070 8e 8b 5d 3f 80 8c 8b 3f 45 91 94 3f 61 2f 9c 3f
       0.8654107 1.0902252 1.1606833 1.2201959
000080 fc 30 a0 3f 3a d0 01 3f 21 e7 80 3f af 19 7b 3f
       1.2514949 0.50708354 1.0070535 0.98086065
000090 84 27 bb 3f 00 5f 88 3f 19 8d a7 3f da e1 56 3f
       1.4621434 1.0653992 1.3089935 0.8393837
0000a0 e9 78 71 3f 3e a9 8b 3f 14 33 e0 3f 46 44 96 3f
       0.9432512 1.0911024 1.7515588 1.1739585
0000b0 f1 9d a8 3f dd 6d b2 3e 33 be 7d 3f 65 7d 60 3f
       1.31732 0.34849444 0.99118346 0.87691337
0000c0 b7 ae af 3f eb 15 89 3f 9c 81 9e 3f e9 58 75 3f
       1.3725194 1.0709814 1.2383304 0.9583879
0000d0 0e a9 75 3f 0d 62 6c 3f de 9d b9 3f d7 db 8e 3f
       0.9596108 0.92337114 1.4501302 1.116084
0000e0 af a2 b0 3f 5e 2c aa 3e 68 dd 83 3f 62 e9 5f 3f
       1.3799647 0.33236974 1.0301943 0.8746549
0000f0 e0 34 90 3f e7 53 84 3f e1 90 a6 3f 91 3f 4d 3f
       1.1266136 1.0338105 1.3012964 0.8017512
000100 02 71 59 3f 10 8d 4c 3f 22 d7 bc 3f f9 96 99 3f
       0.8493806 0.79902744 1.4753153 1.1999198
000110 8e 1a a0 3f 3f c8 0f 3f 5a 24 8e 3f 1d 25 4d 3f
       1.2508104 0.56164926 1.1104844 0.80134755
000120 fe 19 c9 3f dd cf 82 3f ef 9a b2 3f 35 73 78 3f
       1.5711057 1.0219685 1.3953532 0.9705079
000130 f4 3f 81 3f f7 e4 8a 3f 7b 10 8f 3f 4e 33 8e 3f
       1.0097642 1.0851125 1.1176904 1.1109407
000140 96 13 ad 3f 4e 4d 27 3f d1 e3 86 3f e8 bf aa 3f
       1.3521602 0.6535233 1.0538274 1.3339815
000150 1e c8 b0 3f f4 85 9e 3f 31 04 ad 3f d2 a2 55 3f
       1.3811071 1.2384629 1.3516904 0.8345157
000160 4a 1d 47 3f b4 89 7d 3f 6a e7 b7 3f 6f 31 8e 3f
       0.77779067 0.99038243 1.4367497 1.1108836
000170 21 e2 a0 3f 4b d4 99 3e cb cb 80 3f f8 55 b0 3f
       1.2569009 0.3004478 1.0062193 1.3776236
000180 47 06 9d 3f 8b 28 81 3f 15 16 b3 3f 5d a5 67 3f
       1.2267541 1.0090498 1.3991114 0.904867
000190 c9 ca 5b 3f 54 71 5c 3f 19 9a c1 3f 4c 03 94 3f
       0.858563 0.86110425 1.5125152 1.1563506
0001a0 b7 c8 a7 3f 5c 0f fa 3e 83 24 8e 3f e3 5d b0 3f
       1.3108128 0.48839843 1.1104892 1.3778652
0001b0 2e 2b bc 3f 61 cb 6b 3f 69 12 a9 3f ca c6 64 3f
       1.4700677 0.92107207 1.3208743 0.8936583
0001c0 bc 48 78 3f 69 de 9b 3f b9 09 ac 3f 71 76 93 3f
       0.96985984 1.2177249 1.3440467 1.152052
0001d0 b3 a0 b0 3f bd fd 24 3f 9f a1 b0 3f 99 0b 74 3f
       1.3799042 0.64449674 1.3799323 0.95330197
0001e0 3b dd 8e 3f 58 99 92 3f 62 0d aa 3f 3e f2 84 3f
       1.1161264 1.1453047 1.3285334 1.0386426
0001f0 23 0a 8e 3f 59 e6 86 3f 07 ca ab 3f fb 2f 99 3f
       1.1096843 1.0539047 1.3421029 1.1967767
000200 d3 78 ad 3f 85 49 22 3f a7 7e b3 3f 70 46 81 3f
       1.3552498 0.6339343 1.4023026 1.0099621
000210 b2 82 b5 3f 84 73 83 3f 6a bb aa 3f ca 40 4b 3f
       1.418051 1.0269628 1.3338444 0.79395735
000220 48 10 7f 3f 59 b7 7e 3f 8d cc 9d 3f e7 9c 9a 3f
       0.9963422 0.99498516 1.2328049 1.2079133
000230 6b 2a ad 3f b1 0c 24 3f a3 cd a6 3f b2 65 78 3f
       1.352857 0.64081866 1.3031505 0.97030175

road_emb.0.bias f4 [144]
000000 d0 69 74 3e 9a 1e 38 3e ad 8a ef 3d 53 76 33 3e
       0.2386849 0.17980424 0.11696372 0.17525606
000010 e1 47 9e 3e b2 9f 1d 3e 37 8c e3 3d 75 22 bc 3e
       0.30914214 0.1539295 0.11110728 0.3674504
000020 10 6a a6 3c 37 75 3d bf 15 ea 99 3e de 62 9e 3e
       0.020314246 -0.7400698 0.30061403 0.30934805
000030 e1 8d 8e 3e 1f 1a 90 3e ea 42 21 3e 4f 83 93 3e
       0.2784262 0.2814493 0.15748182 0.28811118
000040 f7 df 4a 3e 4a 18 58 3e c3 15 09 3e 22 6f 96 3e
       0.19811998 0.21103016 0.13387208 0.29381663
000050 66 72 c3 bb a5 ca 4a bf b2 d1 6c 3e ba f6 86 3e
       -0.005964565 -0.7921546 0.23126867 0.26360112
000060 b6 67 5e 3e 97 8a 38 3e af fa 8f 3e 16 38 21 3e
       0.2171925 0.18021618 0.28120944 0.15744051
000070 02 48 a6 3e d4 f6 7e 3e 24 f2 dd 3d 76 d3 a3 3e
       0.32476813 0.24898845 0.108372 0.3199727
000080 3c bd 4c bb 77 5b 04 bf 5d c7 a7 3e 06 23 96 3e
       -0.0031240722 -0.51702064 0.3276929 0.29323596
000090 b9 c4 25 3e 63 31 27 3e d8 6f 8c 3e 42 54 8e 3e
       0.16188325 0.16327433 0.2742908 0.2779866
0000a0 7d dd 68 3e 48 7c 02 3e cd 13 cc 3d 8c 6a ba 3e
       0.22740741 0.12742722 0.09964714 0.36409414
0000b0 c3 b0 a8 3b ef c0 07 bf fe d2 90 3e c2 94 91 3e
       0.0051480248 -0.5302877 0.28285974 0.28433806
0000c0 5b f7 94 3e b9 c9 44 3e 4b 22 8d 3e 51 27 3f 3e
       0.29094967 0.19217576 0.27565226 0.18667342
0000d0 5e 6f 9b 3e c9 fb 83 3e 94 31 0b 3e 93 dc aa 3e
       0.30358404 0.25778034 0.13593131 0.3337141
0000e0 3c e9 d1 3c 1e d7 22 bf 8a 19 94 3e 43 88 88 3e
       0.02562391 -0.6360949 0.28925735 0.2666646
0000f0 3c 11 3d 3e 7f a3 5c 3e b1 fd a1 3e 1a 90 87 3e
       0.18463606 0.21546744 0.31638864 0.26477128
000100 cc 36 a8 3e 14 79 96 3e 8f 2c b4 3d c9 11 ac 3e
       0.32854307 0.2938925 0.087975614 0.3360732
000110 71 67 c2 bc 97 b5 c0 be c8 fc af 3e 09 f8 8a 3e
       -0.023730965 -0.37638542 0.34372544 0.2714236
000120 b3 c2 96 3e fa 7d 6b 3e 5c fa 12 3e f3 8b 47 3e
       0.2944542 0.22997275 0.14353317 0.1948698
000130 aa eb 96 3e 41 c3 25 3e 3e 5b 89 3e 23 80 92 3e
       0.29476672 0.16187765 0.26827425 0.28613386
000140 3a 6e b8 3c 26 ad a5 be 1b 08 93 3e b0 67 62 3e
       0.022513498 -0.32358664 0.2871712 0.22109866
000150 18 a5 6f 3e 01 43 da 3d 38 b4 0c 3e ef 79 81 3e
       0.23402822 0.10657311 0.13740623 0.2528834
000160 21 4a 99 3e c2 e9 61 3e fc e1 fe 3d 08 57 a1 3e
       0.29939368 0.22061828 0.12445447 0.31511712
000170 80 50 e6 3c 07 f0 3d bf a9 47 97 3e bb 75 33 3e
       0.028114557 -0.7419438 0.2954686 0.1752538
000180 61 64 a4 3e d4 c7 5b 3e a4 35 2f 3e c2 0c 63 3e
       0.32107833 0.21462947 0.17110306 0.22172835
000190 fb 43 97 3e 40 42 95 3e 37 49 28 3e 86 3e ae 3e
       0.29544052 0.29152107 0.16434179 0.34032077
0001a0 68 6f b2 3c 00 99 ea be 7b 11 b5 3e 2b e1 3d 3e
       0.021781638 -0.45819855 0.353649 0.18542926
0001b0 c2 ea 78 3e a0 35 89 3e bd d2 8e 3e bb 8b 81 3e
       0.24308303 0.26798725 0.27895156 0.25301918
0001c0 55 e8 78 3e 7d cc 86 3d e8 46 72 3e 38 95 82 3e
       0.24307378 0.06581972 0.23659861 0.2550447
0001d0 22 78 c3 3c d0 40 9b be 4c c8 17 3e 24 01 81 3e
       0.023860995 -0.30322886 0.14822501 0.25196183
0001e0 34 40 9d 3e fb 71 44 3e 22 fd 84 3e 31 bf 58 3e
       0.30713046 0.19184105 0.25974375 0.21166684
0001f0 66 6a 19 3e d7 85 1d 3e b1 37 42 3e ac a0 a8 3e
       0.14981994 0.15383087 0.18966557 0.32935083
000200 89 96 5b bc 87 be a0 be e2 f7 6d 3e 2a f9 94 3e
       -0.01340259 -0.3139536 0.23239091 0.29096347
000210 b0 8d 94 3e db d2 30 3e 7c 30 9d 3e 4a f7 92 3e
       0.2901435 0.17267935 0.30701053 0.28704292
000220 80 64 1f 3e 6e 14 71 3e e1 ff 81 3e 9e e7 7b 3e
       0.15565681 0.2354295 0.25390533 0.24600074
000230 5b 07 2e 3d c8 74 b6 be 87 65 55 3e a1 7d 83 3e
       0.042487483 -0.35635972 0.20839511 0.25681785

road_emb.1.weight f4 [64, 144]
000000 ad e6 70 be 81 b4 2d be a9 e6 2a bf 92 a5 84 bd
       -0.23525496 -0.16963388 -0.6675821 -0.064768925
000010 f4 d2 19 bd d0 8b e3 3d 91 a5 2a 3d 2b f2 3e 3e
       -0.037554696 0.111106515 0.041661803 0.18647067
000020 9f cb d5 3d b8 61 a7 bd 06 21 5e 3e f2 89 3c 3b
       0.10439228 -0.08172935 0.21692285 0.0028768745
000030 6c be 4a 3d fa aa 7a be 42 18 f4 be ce 7c 81 be
       0.049498007 -0.24479285 -0.47674757 -0.2529053
000040 b4 73 9c 3d 6f a5 a6 bd d6 c6 30 3e 95 a8 f3 3d
       0.07639256 -0.08137023 0.1726335 0.11897389
000050 12 3f 00 bd c0 01 9e 3d 98 e2 3f 3e ca 6f 7d 3d
       -0.03131015 0.077151775 0.18738782 0.06187419
000060 2e 4a d8 bd b8 95 e6 3b 61 ba 41 bf 9d 99 3c 3e
       -0.10561024 0.007036891 -0.75675017 0.18417974
000070 62 3d fb bd c9 b1 a1 3d a6 be 0d 3d 61 59 53 3e
       -0.12267567 0.07895238 0.034605645 0.20639564
000080 e3 f4 af 3c 00 5e 8a bd 65 19 84 3e 9d 2c e6 3d
       0.021479076 -0.0675621 0.25800624 0.11238978
000090 55 e1 e3 be 13 0b 30 bc 65 95 02 bf 18 45 ba be
       -0.44507852 -0.010744828 -0.5100921 -0.3638084
0000a0 6c 87 28 be 5b 5e b4 3d bd fb 1b 3f 3b 0c 24 be
       -0.1645791 0.088070594 0.60931 -0.1602029
0000b0 93 90 16 be a1 34 56 3e 9e 1b e6 bd 06 96 07 3e
       -0.14703588 0.20918514 -0.11235736 0.13240823
0000c0 4e 15 88 bd a5 4a d1 bd 43 ae c9 be 3e 74 2b bc
       -0.066446885 -0.102193154 -0.39390764 -0.010464726
0000d0 1d 3f 06 be 38 17 e9 bd 63 e5 b8 3e 9f b2 88 be
       -0.13110013 -0.11381382 0.36112508 -0.26698777
0000e0 a0 b5 8b be 2a af 99 3c 78 33 90 3d 0e e0 4a 3c
       -0.27287006 0.018760283 0.07041067 0.01238252
0000f0 6b 4a cd bd 45 2e a4 3c 14 7e 09 bf a4 0d 40 be
       -0.1002396 0.020041594 -0.53708005 -0.18755203
000100 d0 05 97 3d b8 eb 8a 3e 59 d9 57 3a fd 64 87 be
       0.073741555 0.27132964 0.00082339864 -0.26444235
000110 39 26 10 be 0d da 15 be 6d 9c 12 3e aa f1 a6 bd
       -0.14077081 -0.14633961 0.14317484 -0.081515625
000120 aa ab c6 be 1b 6e 4a 3e e1 ad 76 be f7 2f 58 bd
       -0.38802844 0.19768564 -0.24089767 -0.052780118
000130 83 33 bf bc 49 db 05 3e 13 79 cc 3e 71 57 e8 3b
       -0.023339992 0.13071932 0.39936122 0.007090502
000140 88 0b 70 bd 3b 2b 20 3e 90 99 58 3d 70 74 fc be
       -0.058604747 0.15641491 0.052880824 -0.49307585
000150 77 4e a8 3d 7d 65 35 bd d0 03 96 be 90 69 63 be
       0.08218091 -0.04428624 -0.29299784 -0.22208238
000160 4b f8 4e 3c c8 b8 25 3e de 81 c4 3d 54 a3 01 3e
       0.01263244 0.1618377 0.09595083 0.12659961
000170 48 5d 9b be 28 9b 3e 3c 82 2e 3a 3e 1a d3 b6 bd
       -0.30344605 0.011633672 0.18181804 -0.08926983
000180 4f 56 ce 3d 1b 3f 95 3a d8 d8 be be 74 e2 5a be
       0.10075056 0.0011386605 -0.37274814 -0.21375448
000190 dd 2b 6f be 43 90 0b ba dc 73 ad 3e 10 1c b7 3d
       -0.23356576 -0.0005323926 0.33877456 0.08940899
0001a0 fc 32 4d 3d 88 c0 85 3e 4a 31 41 3e a2 24 14 be
       0.05009745 0.26123452 0.18866459 -0.144671
0001b0 35 e6 75 be e3 a9 b1 3c 35 eb 9e be 49 b5 4c be
       -0.24013598 0.021687454 -0.31038824 -0.1999103
0001c0 40 4d 41 be 70 ec 48 3d 2c f8 94 3e b6 5a 70 bd
       -0.18877125 0.04905361 0.2909559 -0.05868026
0001d0 30 b1 c4 bd 27 a2 da 3d ee d6 9c bd 7f 96 de 3d
       -0.09604108 0.10675459 -0.07658182 0.108685486
0001e0 a7 d3 0b 3c eb c1 86 be ef 1b c3 bc ec 0a dc bd
       0.008534349 -0.26319823 -0.02381703 -0.10744271
0001f0 22 73 a2 bd 13 39 d0 3b 19 96 d0 3e e8 ef 49 3d
       -0.07932116 0.00635446 0.40739515 0.049301058
000200 55 a3 46 3d d3 e7 38 bd 4f 8c 37 be a0 99 38 3e
       0.04849561 -0.04514296 -0.17924617 0.18027353
000210 9b 4f 21 bd f5 e8 f4 bb a6 82 0b be 8d 46 6d be
       -0.03938256 -0.0074740597 -0.13624057 -0.23171444
000220 8b 2e 5a 3c 84 89 26 3e d1 43 2e 3f 98 80 c5 bd
       0.013316761 0.16263396 0.6807223 -0.09643668
000230 40 b7 a3 bd f4 54 74 3d ae 5f b9 be b5 b6 d3 3d
       -0.079939365 0.05965133 -0.3620581 0.10337583
000240 c2 1d 5a be c6 0e 26 be cd 7f 2f bf 6d 3e 19 3e
       -0.21300414 -0.16216573 -0.68554384 0.1496522
000250 d2 e1 c0 3d fe 63 76 3d 44 61 ab 3e 0b 00 83 bd
       0.09418072 0.060153954 0.33472645 -0.063964926
000260 06 65 ee 3d fe c4 2d 3e b1 cc a1 3d 06 1a 24 be
       0.116403624 0.16969678 0.0790037 -0.16025552
000270 cb 7f 61 bc 9a 31 7c bd 6d cd 18 bf ec 29 2f 3d
       -0.013763378 -0.06157074 -0.59688455 0.04276459
000280 80 cc e5 bc 08 29 7b 3d 23 da 88 3e 0e 0d 51 be
       -0.028051615 0.061318427 0.26728925 -0.20415136
000290 e0 21 2a 3d 2f 96 1c be 1c d6 c8 3d 42 a2 bf be
       0.041536212 -0.15291665 0.09806463 -0.3742848
0002a0 49 a4 0a be d3 7b 4f be ec 43 15 bf a3 37 4f 3e
       -0.13539232 -0.20262079 -0.58306766 0.20236067
0002b0 e2 3e 5e 3e d1 6a 83 3d ff 7b aa 3d c0 50 2d be
       0.21703675 0.06416858 0.08324432 -0.16925335
0002c0 b4 76 ab 3e 3a a1 4c 3d 3c 9e 48 3e 92 86 5d be
       0.33489 0.049958445 0.19591612 -0.21633366
0002d0 f7 08 82 be a7 86 2f be 44 75 a8 be 33 b2 b8 3e
       -0.25397465 -0.1714121 -0.32901967 0.36073455
0002e0 4b 8d d5 3d 5f 32 d3 3d 6d b7 bd 3d cf 0f ce be
       0.1042734 0.10312342 0.09263501 -0.40246436
0002f0 66 f3 e8 3d 74 eb 0c bd 9b 57 9c be 6b 92 8b bd
       0.113745496 -0.034404233 -0.30535588 -0.068150364
000300 1c 12 c8 be a5 ea c7 bc 0c 4a 68 be a9 7d 55 3e
       -0.39076316 -0.02440388 -0.22684497 0.20848717
000310 5d ff 6c 3e cc af 20 3e 8a cc 58 3e 86 76 eb be
       0.23144288 0.15692061 0.21171775 -0.45988864
000320 35 57 37 3e eb fb 33 3e ac 4e 14 be ff 4f a2 bd
       0.1790436 0.17576568 -0.14483136 -0.07925414
000330 4f 3a 24 3e 34 4f 26 be 96 89 ca be 21 f6 52 3e
       0.16037868 -0.16241151 -0.39558095 0.20601703
000340 b0 15 97 3d ea ee 4d 3d 1d 55 c0 3e ae fe 77 be
       0.073771834 0.050276674 0.37564936 -0.24218246
000350 24 95 b1 3e 3c 96 47 bd 13 2e 19 be 45 47 52 bc
       0.34684098 -0.04872726 -0.14958982 -0.012834375
000360 a5 06 06 bf 01 7e 03 be a2 92 1a bf 49 16 fa 3d
       -0.5235389 -0.12841035 -0.60379994 0.12211282
000370 53 c5 94 3d 20 4d f9 3c d0 e3 7c 3e 4d 4f fa bc
       0.07264199 0.030432284 0.24696279 -0.030555392
000380 8e 88 93 3e 8b 3b 1e 3e f4 8e 95 bd fb 66 c9 be
       0.2881512 0.15452401 -0.07302657 -0.3933638
000390 88 a8 61 be b3 f7 d2 3b a6 65 da be 57 04 e9 3d
       -0.22036946 0.0064382195 -0.42655677 0.11377781
0003a0 98 46 ce 3d 6e 33 d2 bd c3 16 ef 3c a7 0a a6 be
       0.100720584 -0.10263716 0.029185658 -0.32430002
0003b0 dd 73 8c 3e 80 d3 73 3e 84 48 44 be 1b 10 db be
       0.27432147 0.2381115 -0.19168288 -0.42785725
0003c0 61 9b 7c 3b 2d 0d 81 be eb 3b f7 be e6 e6 ad bd
       0.0038544761 -0.25205365 -0.482879 -0.08491306
0003d0 a2 b9 41 bd 78 33 64 be 1b 3f e4 3e 86 ac d9 bd
       -0.047296174 -0.22285259 0.44579396 -0.10628609
0003e0 b1 ed 39 3e 4b 2c c4 3d 1c d9 a5 be e2 22 17 bf
       0.18157078 0.09578761 -0.32392204 -0.590376
0003f0 72 64 f7 be 3f 33 38 bd b9 fd 5c bf fe f1 d9 3d
       -0.4831882 -0.044970747 -0.8632465 0.106418595

road_emb.1.bias f4 [64]
000000 a1 fb c4 3c 4a 3e de 3c 23 52 4d bd e7 c0 54 39
       0.024045767 0.027129311 -0.05012716 0.00020289757
000010 41 34 c9 3d df d7 2e bd 01 d5 a9 bd 87 64 8a bc
       0.0982442 -0.04268634 -0.082925804 -0.016893638
000020 a2 7b 06 3d 43 a2 93 bd f0 63 8f bd d6 bb 99 bc
       0.03283275 -0.07208683 -0.070014834 -0.018766325
000030 2a 7e 81 be ff e2 51 bc 4a ae 98 3b a1 f6 8c 3c
       -0.25291568 -0.012810468 0.0046594488 0.017207446
000040 15 f8 91 bd 35 49 0e be bc b6 4c be 35 4f 31 bd
       -0.07127396 -0.13895114 -0.19991583 -0.04328843
000050 83 f6 20 be 6f 55 59 be d8 15 cf bb a9 db af bd
       -0.15719037 -0.21223997 -0.0063197426 -0.08586819
000060 49 9d 38 bd d7 e8 1e 3e a0 86 92 bd 82 92 8e 3d
       -0.045071874 0.15518509 -0.07154584 0.06961538
000070 00 ee de bd da 69 0c be c2 9a d5 bc e7 13 27 3d
       -0.10885239 -0.13712254 -0.02607477 0.040790465
000080 14 e7 1c 3d f7 40 e9 3d 8b 36 55 3d c7 30 41 bd
       0.03830631 0.11389344 0.05205397 -0.04716566
000090 48 9d cf bd 90 ed 94 bd 4f e0 ee 3d d2 c5 d9 bd
       -0.10137421 -0.07271874 0.11663877 -0.10633434
0000a0 1e 38 d1 bd a0 30 e3 bc 78 49 6f bd 74 1d 8a 3d
       -0.10215782 -0.027733147 -0.058419675 0.06743899
0000b0 bb 7a 73 3c f6 39 e0 bc b9 a6 94 bd 13 1d 59 3c
       0.014860804 -0.027371388 -0.07258362 0.013251561
0000c0 b5 12 6b 3d 40 2e 5a bd 94 9a d2 3c ff 53 8c ba
       0.057390887 -0.053266764 0.025708474 -0.0010706185
0000d0 5f ce 7d bc a9 76 ba 3c cd d9 dd bd a5 45 9c bc
       -0.015491097 0.02276166 -0.10832558 -0.019076178
0000e0 5b 29 9b bd 6b a4 87 be 35 b2 f1 bd 44 a1 6c bd
       -0.07576247 -0.26492628 -0.118015684 -0.057770982
0000f0 09 ca 98 bd 9a ad ad 3d c6 c6 ed 3c 1e bf a9 3d
       -0.0746041 0.084803775 0.029025447 0.08288406

cav_emb.0.weight f4 [11]
000000 b2 2d 92 3f e7 b4 25 3f 50 09 34 3f 9f 63 67 3f
       1.1420195 0.6472916 0.7032671 0.90386385
000010 93 43 e7 3f f8 dd ea 3f 84 fa d2 3f ed 77 90 3f
       1.8067497 1.834899 1.6482701 1.1286598
000020 2d 07 36 3f 0b 01 7f 3f 20 ad a8 3f
       0.711047 0.99610966 1.3177834

cav_emb.0.bias f4 [11]
000000 93 95 7a 3d 87 f7 05 3d cb 94 36 3d d0 3c b7 3d
       0.0611778 0.032706764 0.044575494 0.08947146
000010 a8 43 f4 bb 67 10 27 3e 04 cc e8 bc ce f5 dc 3d
       -0.0074543543 0.16314851 -0.028417595 0.10789071
000020 2c f5 1a 3e 77 14 fe bc b3 f2 89 bd
       0.15132588 -0.031015618 -0.06735744

cav_emb.1.weight f4 [64, 11]
000000 c8 0c a9 be ab 2a 05 3e fb c2 8d 3d 86 76 35 3d
       -0.33017564 0.13004558 0.06921955 0.044302486
000010 49 a0 33 3f 01 ca a5 be ad 21 6f 3e 04 a3 01 3e
       0.7016645 -0.3238068 0.2335269 0.12659842
000020 d1 ec 18 3e b7 66 30 be 43 5c ab 3d 0d a8 46 be
       0.14934088 -0.17226683 0.08367207 -0.19400044
000030 72 78 69 3d fb 1a 2c be b7 0c 5a be 18 09 01 bf
       0.05699963 -0.16807167 -0.21293913 -0.504045
000040 a1 d2 83 3e 7e 4a 3a bc 8e af ad be 03 d5 82 be
       0.25746635 -0.011370299 -0.33923 -0.2555314
000050 b8 b0 c5 3e d7 57 9a 3e 34 96 84 be c5 09 d8 be
       0.38611388 0.3014514 -0.25895846 -0.42194954
000060 b9 f4 9f bd 3e 72 16 3e 74 f4 75 3f 5c f0 88 3e
       -0.07810349 0.14692017 0.9607613 0.2674588
000070 77 c2 83 be 00 71 ce b9 ec 2a c7 3d fe 8d f8 bd
       -0.25734302 -0.00039375573 0.097249836 -0.12136458
000080 32 3a fb 3e 90 42 e0 3d 51 91 a3 be 17 57 24 be
       0.49067837 0.10950196 -0.31946805 -0.16048847
000090 8c 42 a0 be b4 93 52 bf 9b f5 9d 3f 87 15 22 bf
       -0.3130077 -0.8225663 1.2340578 -0.633141
0000a0 ff 43 4b bd 6b 98 00 be e0 9d 07 3e a8 16 03 be
       -0.049625393 -0.12558143 0.13243818 -0.12801611
0000b0 c8 42 b3 be 5c 82 9e 3e 62 8c a1 3e 6d 88 d0 be
       -0.35011888 0.3095883 0.31552416 -0.40729085
0000c0 59 d6 33 be d3 b6 d3 3d b0 2e 72 3e ff e0 ed bd
       -0.17562236 0.10337605 0.23650622 -0.1161518
0000d0 4c 30 18 3e 35 70 80 be c3 89 74 3e 5a 57 c6 be
       0.14862174 -0.25085607 0.23880677 -0.3873852
0000e0 19 4d ce be 04 dc 04 3f c4 0e 32 3c 8f 20 01 3f
       -0.40293196 0.5189822 0.010867778 0.50440305
0000f0 30 14 7f 3e 31 2e 40 be 1d 95 78 be 7a 11 a4 3d
       0.24910045 -0.1876762 -0.24275632 0.08011146
000100 6c 3c cf bd fb 15 04 be 5a b3 6f be 0c 28 87 bd
       -0.101189464 -0.1289901 -0.23408261 -0.06599435
000110 72 5b 66 3e 9a a8 85 be 3f 76 d3 3d 14 91 80 3c
       0.22495821 -0.26105195 0.10325288 0.015694179
000120 d6 69 a8 be d0 d8 0e 3e 85 ef b1 bd 1c b5 2a be
       -0.32893246 0.13949895 -0.08688263 -0.1667065
000130 6a 67 c6 bd ff fc 6e bd b5 18 3a be 06 1e 01 be
       -0.096876934 -0.058346745 -0.18173487 -0.1260911
000140 13 4a 2e 3f 1e e4 9c bd 0f ed 67 be e8 e1 35 3f
       0.6808178 -0.076606974 -0.22649024 0.7104783
000150 1f 3f d9 3e 19 d5 87 3e 3d fb 7e bf 26 99 26 3e
       0.4243097 0.26529768 -0.9960211 0.16269359
000160 d4 05 96 be b1 ae 51 bc ec 72 43 3e da 94 6a 3b
       -0.29301322 -0.012797997 0.19086808 0.003579429
000170 c8 a0 ff 3e 0b eb 70 bd f0 69 92 be 95 88 2a 3e
       0.49927354 -0.058817904 -0.2859645 0.16653664
000180 50 21 83 3d 7e 0e ec 3d a2 8f d4 3d d5 92 0a bf
       0.06402838 0.11526202 0.10378958 -0.541303
000190 d1 f1 29 3e 75 13 98 3e bd 11 5d 3e 79 a8 c4 be
       0.16596152 0.29702345 0.21588798 -0.38409784
0001a0 07 94 9f be 39 00 10 3f 0e cb 3d bc 89 0e db 3d
       -0.31167623 0.5625034 -0.011584057 0.10696132
0001b0 57 66 2e be 59 a2 2c 3e 02 57 64 be 12 df f4 be
       -0.17031227 0.16858806 -0.22298816 -0.4782644
0001c0 0a 50 c3 3e 8e 5c 42 be 46 0f 43 3f fc de 36 bb
       0.38147002 -0.1898062 0.7619518 -0.0027903905
0001d0 c3 de a6 3d ab 07 2d 3d a1 f7 1a 3d b8 3d 0b bd
       0.08147957 0.04224364 0.037833814 -0.033994406
0001e0 b6 4b b6 bb c7 ed 4b 3c e3 3f e0 bb dc 78 9d 3d
       -0.0055632247 0.012446827 -0.0068435534 0.07689068
0001f0 81 30 39 bc a4 22 e9 bd 5e 51 7d 3a 31 73 74 3e
       -0.011303068 -0.1138356 0.0009663309 0.23872067
000200 69 64 12 be 10 4f 1a 3d aa de 99 3e 52 20 ef 3b
       -0.14296116 0.037673056 0.30052692 0.007297554
000210 fa 70 b8 be 86 ef 78 3e 78 6c b5 3e 6a 39 1f be
       -0.36023694 0.24310121 0.35434318 -0.15549245
000220 4d 8f 3d 3f 8a a3 a4 3d db 5b 9f be 8d 12 d5 3e
       0.74046785 0.08039005 -0.31124768 0.41615716
000230 23 eb 9b 3d b7 72 b0 be f9 c3 4c 3e 52 b4 b1 be
       0.07613208 -0.3446252 0.19996633 -0.34707886
000240 e6 4a 8b be d0 98 9f 3e 84 ba e8 bd 39 5b fd 3e
       -0.2720558 0.31171274 -0.113637 0.4948366
000250 d2 f9 1c 3e 1c 0f 95 be d6 4d 64 be f7 54 fd 3d
       0.15329674 -0.2911309 -0.22295317 0.123697214
000260 91 f4 6c be e9 a6 3e bd 56 9b 86 be e0 0d 66 be
       -0.2314017 -0.046545897 -0.26290387 -0.2246623
000270 40 6d 1f 3e e8 a4 28 3d cc c7 07 3f ae ca 25 3d
       0.1556902 0.04117289 0.5303924 0.040476494
000280 51 1e 4d 3e 30 7b ce bd 9b 77 fc 3c 4c 22 57 3f
       0.20031096 -0.1008209 0.030818751 0.8403671
000290 72 fc db bd 83 f7 ab be 3b f9 3a be b6 a2 3b 3e
       -0.107415095 -0.33587274 -0.18259136 0.18323788
0002a0 f3 0f c9 bd 54 b8 c7 bd 73 d4 df 3c ea 9e d6 3d
       -0.09817495 -0.09751955 0.027322983 0.10479529
0002b0 38 8d 08 be 6a 71 3b 3d d1 59 0a bf cf b1 0f 3f
       -0.1333512 0.045762457 -0.540433 0.5613069
0002c0 4f 9c 39 be bb 2f 87 be f5 b6 90 3d 0d ff 27 3e
       -0.18126033 -0.26403603 0.07066146 0.16405888
0002d0 35 e0 2d bd a6 14 1f 3f b7 c5 03 bf 1b e6 de 3d
       -0.04245015 0.6214088 -0.51473564 0.10883733
0002e0 09 ee 0b 3d 7c 71 02 3d d2 c7 9e be 0b 1b a2 3e
       0.034162555 0.03184651 -0.31011826 0.31661257
0002f0 db f8 94 be 7b 00 f2 bd e2 49 ad 3d 53 65 0d be
       -0.29096112 -0.11816498 0.08461358 -0.13808183
000300 92 0c 7c 3a 06 a6 ae 3e b5 76 63 3c 4c 5f 32 be
       0.000961491 0.3411104 0.013883282 -0.17419165
000310 5b fe 1e bf 50 03 c2 bc 3b 4b 2a 3d 3b 6b dc 3d
       -0.62106866 -0.02368322 0.04157565 0.1076264
000320 3e 8b a5 3e 5a f8 1c 3e 00 ba a3 3e 2a a1 c9 3d
       0.32332796 0.15329114 0.31977844 0.09845193
000330 d7 43 0c be a9 fb 4c 3e 1c 99 44 3e 93 6d 5d 3d
       -0.13697754 0.20017876 0.19199032 0.054059576
000340 45 26 c7 3d 97 0d b0 bd 5b 70 43 3d bf 31 18 3e
       0.09724096 -0.08596342 0.047714572 0.14862727
000350 75 2f 30 3e 66 4d 09 3f 5c 65 a0 3d 89 12 ec 3d
       0.17205603 0.53633726 0.07831833 0.11526973
000360 9f c2 8b be bc d3 f1 3d a2 b1 2d 3d 76 7b dc 3d
       -0.27296922 0.11807963 0.042405732 0.10765736
000370 cc 5a a7 be 38 0c 8d be 11 b2 67 be 85 38 38 bd
       -0.3268646 -0.27548385 -0.2262652 -0.044975776
000380 b0 50 93 bf ae d0 59 3f 3a 31 cf 3e 80 fb 21 bd
       -1.1508999 0.85084045 0.40467244 -0.03954649
000390 70 c7 88 be 73 77 1f be a3 16 bc be f1 ec 72 be
       -0.2671466 -0.1557291 -0.3673602 -0.23723198
0003a0 00 46 f9 3d fe c9 49 3e 29 4a e8 3d 93 35 4d 3f
       0.121715546 0.1970596 0.1134227 0.8015987
0003b0 5d 9b df be 87 ee 66 be 39 b3 8e 3e cc 81 04 3e
       -0.4367322 -0.22551928 0.2787111 0.12940139
0003c0 56 ed 68 be 70 75 25 bd 94 6f 6f be a0 e3 07 be
       -0.22746786 -0.0403952 -0.23382407 -0.13270426
0003d0 d8 8c 9a 3c 6f f2 ab 3d 17 61 47 bd 24 58 8a bd
       0.018865988 0.0839585 -0.048676576 -0.06755093
0003e0 44 e7 a4 be 4e 08 ab 3e e5 33 39 3e 86 17 2c 3e
       -0.32207692 0.33404773 0.18086202 0.16805848
0003f0 ee 6a 88 3d a1 40 25 be e5 8c c1 bd c5 01 87 3e
       0.0666102 -0.16137935 -0.094507016 0.26368538

cav_emb.1.bias f4 [64]
000000 f2 4a cd bd 6d bb b1 3d 46 8c 3d 3d 60 e7 8b 3e
       -0.1002406 0.08678327 0.046276353 0.27324963
000010 ec 82 1c 3d 85 eb cb bd 85 af a7 3c 7b 36 b1 bd
       0.038210794 -0.09957031 0.020469436 -0.086529694
000020 e0 d3 fd bd c2 bd 78 bc 07 5e 65 bd 44 d3 7c 3d
       -0.123939276 -0.015181961 -0.055997875 0.061724916
000030 ca 63 fd bc ce 97 19 be d0 5f d4 3d 51 74 1e bd
       -0.030931372 -0.14999315 0.10369837 -0.038685147
000040 89 29 36 bc 1e 70 55 3c 70 b9 31 be 68 5e cf bd
       -0.011118301 0.013027219 -0.17355895 -0.101254284
000050 9c a2 1d be cb c3 ea bd f0 39 34 be 4f 5d 8f bd
       -0.15394062 -0.11463126 -0.17600226 -0.07000219
000060 16 ca 99 3b a5 46 e8 bd 87 c2 7e 3d 32 0b bc bd
       0.00469328 -0.113415994 0.062197234 -0.09181823
000070 77 b3 62 bd 44 17 30 bd f3 f1 a8 be 2d 72 ea 3c
       -0.055346932 -0.042990938 -0.32997093 0.028618896
000080 8e bd 94 bd 62 2f 5c bd ab ea 37 3d 2e 61 0e bd
       -0.07262717 -0.053756125 0.04490153 -0.034760647
000090 66 0a dc bc 76 b1 29 be a9 55 09 3d 6a 2b 47 bd
       -0.026860427 -0.16571602 0.033528958 -0.048625387
0000a0 63 d9 35 be d2 9e bb bd d6 a8 48 bd 6a e9 bb 3d
       -0.17758708 -0.09161152 -0.04898914 0.091753796
0000b0 a3 19 c6 bc 66 62 ad 3c 3a ac e6 bd de 90 9e 3b
       -0.024182146 0.021165084 -0.11263318 0.004839047
0000c0 0b 30 f9 bc 28 40 64 be 59 5e 5f bc 01 7b 7f be
       -0.030418416 -0.22290099 -0.013633334 -0.24949266
0000d0 fe b5 92 bd f5 fd ad bd a9 13 f7 be 74 74 50 be
       -0.071636185 -0.08495704 -0.48257187 -0.20356923
0000e0 5e 57 25 be 40 5b 39 3c 1f d5 5c bc e3 91 79 be
       -0.16146609 0.01131326 -0.013478546 -0.24372058
0000f0 92 c0 23 bd 4f 1d 2c be 02 78 89 bd d3 a2 fe bc
       -0.03997857 -0.16808055 -0.06712343 -0.0310835
