route_TSC/model/0.5_hatt_router_joint_0315/ep50/target_q_netveh.pt (torch, 510456 bytes, 26 tensors)

attn f4 [1, 2, 37]
0	0x508802ce	1.8255081e+10
1	0x000005f9	2.143e-42
2	0x00000000	0.0
3	0x00000000	0.0
4	0x00000000	0.0
5	0x00000000	0.0
6	0x00000000	0.0
7	0x00000000	0.0
8	0x00000000	0.0
9	0x00000000	0.0
10	0x00000000	0.0
11	0x00000000	0.0
12	0x00000000	0.0
13	0x00000000	0.0
14	0x00000000	0.0
15	0x00000000	0.0
16	0x00000000	0.0
17	0x00000000	0.0
18	0x00000000	0.0
19	0x00000000	0.0
20	0x00000000	0.0
21	0x00000000	0.0
22	0x00000000	0.0
23	0x00000000	0.0
24	0x00000000	0.0
25	0x00000000	0.0
26	0x00000000	0.0
27	0x00000000	0.0
28	0x00000000	0.0
29	0x00000000	0.0
30	0x00000000	0.0
31	0x00000000	0.0
32	0x00000000	0.0
33	0x00000000	0.0
34	0x00000000	0.0
35	0x00000000	0.0
36	0x00000000	0.0
37	0x00000000	0.0
38	0x00000000	0.0
39	0x00000000	0.0
40	0x00000000	0.0
41	0x00000000	0.0
42	0x00000000	0.0
43	0x00000000	0.0
44	0x00000000	0.0
45	0x00000000	0.0
46	0x00000000	0.0
47	0x00000000	0.0
48	0x00000000	0.0
49	0x00000000	0.0
50	0x00000000	0.0
51	0x00000000	0.0
52	0x00000000	0.0
53	0x00000000	0.0
54	0x00000000	0.0
55	0x00000000	0.0
56	0x00000000	0.0
57	0x00000000	0.0
58	0x00000000	0.0
59	0x00000000	0.0
60	0x00000000	0.0
61	0x00000000	0.0
62	0x00000000	0.0
63	0x00000000	0.0
64	0x00000000	0.0
65	0x00000000	0.0
66	0x00000000	0.0
67	0x00000000	0.0
68	0x00000000	0.0
69	0x00000000	0.0
70	0x00000000	0.0
71	0x00000000	0.0
72	0x00000000	0.0
73	0x00000000	0.0

fc0.weight f4 [32, 2315]
0	0xbba59c88	-0.0050540604
1	0x3c0f1640	0.008733332
2	0x3c9cb37e	0.019128557
3	0x3bda6fb4	0.006666148
4	0x3c89ff93	0.0168455
5	0xbc09753f	-0.00838977
6	0x3c9766bd	0.018481607
7	0xbc25dadb	-0.01012298
8	0x3c756887	0.014978535
9	0x3c3730fc	0.011181112
10	0xbb1b45dd	-0.0023692765
11	0x3c820530	0.015871614
12	0x3b0388da	0.0020070584
13	0x3c8bc1c7	0.017060174
14	0x3ca59b2d	0.020215595
15	0x3c950786	0.018192064
16	0xbc976681	-0.018481495
17	0xbca08951	-0.019596728
18	0x3c152e74	0.009105314
19	0x3ba9ce69	0.0051820767
20	0xbc98a2ce	-0.018632319
21	0x3c69e7a2	0.014276417
22	0xbaf74522	-0.0018865208
23	0x3c862257	0.016373796
24	0xbc94decd	-0.018172646
25	0x3c4144ca	0.011796186
26	0xbba1a92c	-0.004933497
27	0x3b0de506	0.0021651401
28	0x3c3dd4b0	0.011586353
29	0xbc287092	-0.010280745
30	0xbbec9f30	-0.007221125
31	0xbc8f1403	-0.017465597
32	0x3b734b38	0.0037123691
33	0xbbf9f733	-0.0076283454
34	0xbc426241	-0.011864246
35	0xbc332966	-0.010935163
36	0x3c8e3324	0.01735837
37	0x3bad46c5	0.0052879774
38	0x3c838764	0.01605577
39	0xbbdb9de2	-0.0067021707
40	0xbc6311c1	-0.013859213
41	0x3bdfef7e	0.0068339696
42	0x3c49971d	0.012304095
43	0xbbd51675	-0.006502921
44	0xbab48e9a	-0.0013775409
45	0xbc4afcae	-0.012389345
46	0xbc904646	-0.017611634
47	0x3ae989d6	0.0017817568
48	0x3c048c67	0.008090115
49	0xbb8f9563	-0.004381822
50	0xbbaf86ba	-0.005356637
51	0x3bae4864	0.005318688
52	0x3c0b05a4	0.008485232
53	0x3c9d3c01	0.019193651
54	0x3aa4dff6	0.0012578953
55	0xbc40366b	-0.011731724
56	0xbbbbcf0e	-0.00573147
57	0xbb81fa9f	-0.003966644
58	0xbb81f609	-0.0039660973
59	0x3c230d7f	0.009951948
60	0x3bd86025	0.006603258
61	0x3c50e1ef	0.012749179
62	0xbc5c3c20	-0.013442069
63	0x3c4f182d	0.012640041
64	0xbbcbf01a	-0.0062236907
65	0xbc528642	-0.012849392
66	0x3bc54662	0.006020353
67	0xbc3cecd6	-0.011531075
68	0x3c4717bf	0.012151658
69	0x3c1e1571	0.009648667
70	0xbc58091b	-0.013185765
71	0xbc484af7	-0.012224904
72	0x3bf6f3e3	0.007536398
73	0xbc222370	-0.009896144
74	0x3c3cd325	0.01152495
75	0x3b824546	0.003975543
76	0xbc4cbb53	-0.012495833
77	0x3c85f0e6	0.01635022
78	0x3b954272	0.00455504
79	0x3c8a63d7	0.01689331
80	0x3a8472c8	0.0010105008
81	0xbb8c5760	-0.004282877
82	0x3bdccb7a	0.0067381235
83	0xbb22093f	-0.002472475
84	0xbca13560	-0.019678771
85	0xbc99fb94	-0.01879672
86	0xbc206686	-0.0097900685
87	0xbc9aed49	-0.018911975
88	0xbb9bb368	-0.0047516115
89	0xbc8e749a	-0.017389584
90	0x3ba95c35	0.0051684626
91	0xbc9d0793	-0.01916865
92	0xbb21a017	-0.0024662071
93	0xbc883cc6	-0.016630542
94	0xbc8bbe81	-0.017058613
95	0x3c72b1ce	0.0148129
96	0x3c112371	0.008858548
97	0x3be88693	0.0070961206
98	0x3c8db4b9	0.01729809
99	0x3c79bad5	0.015242298
100	0xbc03c87a	-0.008043403
101	0x3c3f3e04	0.0116725005
102	0xbb8cf4c1	-0.004301638
103	0x3c081e6b	0.008308033
104	0xbbd783d7	-0.006576996
105	0x3b185f86	0.0023250296
106	0xb952eb4b	-0.00020114814
107	0xbc874107	-0.0165105
108	0xbc4f088e	-0.012636317
109	0x3c1396c2	0.009008111
110	0xbbccf9b4	-0.006255353
111	0xbb2e544d	-0.002660054
112	0x3c5a640a	0.013329515
113	0xbbee6e89	-0.0072763604
114	0xbbd22ac5	-0.00641379
115	0xbc5cd4aa	-0.013478437
116	0x3c280c3a	0.010256821
117	0x3c241be0	0.010016412
118	0xbb16d549	-0.0023015311
119	0x3bd7ea58	0.0065892152
120	0xbc36b64d	-0.011151862
121	0xbc52a22e	-0.012856049
122	0x3c896e08	0.0167761
123	0xb9d268d7	-0.00040132433
124	0xbc3aabcb	-0.011393498
125	0x3c1ba4a8	0.009499706
126	0x3c30f9e4	0.010801766
127	0xbb7557a2	-0.0037436266
128	0x3be56948	0.007001076
129	0x3b8ba4ef	0.004261605
130	0x3c553e74	0.013015378
131	0xbb286b5a	-0.0025698752
132	0x3b08541f	0.0020802093
133	0xbbdb6bc8	-0.006696198
134	0x3c19534f	0.009358241
135	0x3afc9ea0	0.0019273348
136	0x3bb5badc	0.005545957
137	0xbc868da1	-0.016424956
138	0xbc8028e3	-0.015644496
139	0xbb193643	-0.002337829
140	0xbc6854ab	-0.014180343
141	0xbbbaa10b	-0.0056954673
142	0xbc6e04e6	-0.014527535
143	0x3c40cfe9	0.01176832
144	0x3b2f7113	0.0026770278
145	0xbc59663c	-0.0132690035
146	0x3c8aacad	0.016928041
147	0x3c8b6792	0.01701716
148	0x3be7fea8	0.007079918
149	0x3b52f763	0.003219091
150	0xbbb47413	-0.005507001
151	0xbbf1ae23	-0.007375495
152	0x3c6d2d08	0.014476068
153	0x3c247519	0.010037684
154	0xbc7786c2	-0.015107812
155	0x3c3469c5	0.011011546
156	0xbb928068	-0.0044708736
157	0x3c53da67	0.012930489
158	0xbc044a07	-0.00807429
159	0x3b333430	0.0027344339
160	0xbc15afe0	-0.00913617
161	0x3c9fde2d	0.019515121
162	0x3afbcaeb	0.0019210255
163	0x3b188963	0.0023275248
164	0xbbe7191f	-0.007052555
165	0xbb5d29c5	-0.003374682
166	0x3b254b82	0.0025222008
167	0x3be651ba	0.0070287855
168	0xbb807f8b	-0.0039214543
169	0x3b9cc791	0.0047845324
170	0x3c1473ef	0.009060844
171	0xbc5512aa	-0.013004938
172	0x3b4adb19	0.0030953346
173	0x3b5cade7	0.003367299
174	0x3b48d15a	0.0030642361
175	0x3bf8369c	0.0075748693
176	0xbb940a50	-0.004517831
177	0xbaa34b36	-0.0012458328
178	0xbca2b8d3	-0.019863522
179	0x3c78133b	0.015141304
180	0xbc805011	-0.015663179
181	0xbc29faca	-0.010374734
182	0xbc718e14	-0.014743347
183	0xbbe11b91	-0.0068697412
184	0xbc80c1f3	-0.015717482
185	0xbc0dcd16	-0.008654853
186	0xbc9a0107	-0.018799318
187	0x3c2b12f4	0.0104415305
188	0xbc7d3942	-0.015455546
189	0x39060c5e	0.00012783843
190	0xbc1e60ce	-0.009666635
191	0x3bd7551c	0.006571425
192	0x3c79c096	0.01524367
193	0xbc6e4678	-0.014543168
194	0xbb2b4822	-0.0026135524
195	0x3b151807	0.0022749917
196	0x3a676c34	0.0008828074
197	0x3c40200c	0.011726391
198	0xbc246075	-0.010032763
199	0x3a5609d9	0.00081649196
200	0x3beca727	0.0072220745
201	0xb97a6804	-0.00023880607
202	0x3c6a021a	0.014282728
203	0x3c681074	0.014164079
204	0xbc833471	-0.016016217
205	0x3b989913	0.0046569197
206	0x3c17f0cc	0.009273719
207	0xbc82f89a	-0.015987683
208	0x3ae476ba	0.0017430403
209	0x3c600fc9	0.0136756385
210	0x3c87d1ac	0.016579472
211	0x3c53f747	0.0129373735
212	0x3c8d447e	0.017244574
213	0xbc80e54e	-0.015734341
214	0xbc415626	-0.011800325
215	0xbc9488f0	-0.018131703
216	0x3c8f9094	0.017524995
217	0x3c3de8db	0.011591162
218	0xbc7180fd	-0.014740226
219	0x3c1d8b9f	0.009615808
220	0xbbfd90db	-0.0077382154
221	0xbadd45fe	-0.0016881821
222	0xba201c05	-0.0006107691
223	0x3c422e03	0.01185179
224	0x3c815fae	0.015792694
225	0x3bf4f561	0.0074755405
226	0xbc943dc7	-0.018095864
227	0xbbd23380	-0.0064148307
228	0xbc54b986	-0.012983685
229	0x3c8e237c	0.017350905
230	0x3ad7c71b	0.0016462536
231	0x39de5908	0.00042409473
232	0xbc98be5b	-0.018645456
233	0x3c68c77d	0.014207718
234	0xbc61f7e5	-0.013792013
235	0xbbf6a2ff	-0.007526755
236	0xbc3aa8ab	-0.011392753
237	0x3c62b3fa	0.013836855
238	0x396ffed0	0.00022887741
239	0xbbc320f4	-0.005954856
240	0x3b164eb0	0.0022935085
241	0x3b920bd6	0.0044569774
242	0xbc854061	-0.01626605
243	0x3bfc5a84	0.00770122
244	0x3ac23ddb	0.001481946
245	0xbc91055e	-0.017702755
246	0xbc020874	-0.007936586
247	0x3c62c2b9	0.013840371
248	0x3c7b50bc	0.015339073
249	0x3c454a54	0.012041647
250	0x3ca29aca	0.0198492
251	0x3ba9cc17	0.0051818
252	0xba86068d	-0.0010225341
253	0xbc71bf9c	-0.014755156
254	0xbc79217b	-0.015205736
255	0xbbcebd7f	-0.006309211

fc0.bias f4 [32]
0	0xbc00f7bf	-0.007871567
1	0x3c8668c2	0.016407374
2	0x3c6dd4cd	0.014516068
3	0xbc59d7cd	-0.01329608
4	0xbc9eb49c	-0.01937323
5	0xbc5492e7	-0.012974477
6	0xbbcea8c9	-0.006306742
7	0x3c19391a	0.009351993
8	0xbbb90eca	-0.005647515
9	0x3b31a57e	0.0027106698
10	0xba218b0e	-0.00061623834
11	0xbbda1ccd	-0.0066562654
12	0xbba75492	-0.005106517
13	0xbc60ad6a	-0.01371322
14	0xbc6421f3	-0.01392411
15	0x3c4a4925	0.012346541
16	0x3c95d993	0.018292224
17	0x3aa3633f	0.0012465491
18	0x3c4cd27a	0.012501353
19	0xbc1f0846	-0.009706562
20	0xbb564763	-0.0032696358
21	0x3c964bdc	0.01834672
22	0xba89ac3d	-0.0010503602
23	0xbc85429c	-0.016267113
24	0xbca4f329	-0.020135479
25	0xb9d2c05b	-0.00040197637
26	0xbc6259ce	-0.013815356
27	0xbc217adc	-0.009855952
28	0xbc126ad4	-0.008936603
29	0xbc0779dd	-0.008268801
30	0xbb1bb6e3	-0.0023760132
31	0xbc88bd23	-0.01669175

fc1.weight f4 [32, 32]
0	0xbd169552	-0.036763497
1	0xbe423d57	-0.18968712
2	0x3de66751	0.11250175
3	0x3df9bdf0	0.12194431
4	0xbb41f710	-0.0029596724
5	0x3dd1e717	0.10249155
6	0xbddd0486	-0.107918784
7	0xbd922eb2	-0.07137813
8	0xbe798d1e	-0.24370238
9	0x3e2da64e	0.16957971
10	0x3e4438ae	0.19162247
11	0xbd1e8329	-0.038699303
12	0xbe34faff	-0.17673872
13	0xbedea5ea	-0.43485957
14	0x3df02515	0.11725823
15	0xbd48cf44	-0.04902579
16	0x3e20967d	0.15682407
17	0xbebcadcd	-0.3685135
18	0xbd91e37f	-0.071234696
19	0x3bfc9d97	0.007709216
20	0x3d8a9334	0.06766358
21	0x3e153fa5	0.1457506
22	0xbe4c3115	-0.19940598
23	0xbd8f1d20	-0.06987977
24	0x3c8ca5cc	0.017168902
25	0x3d1af6e2	0.037833102
26	0x3e14cad9	0.14530505
27	0xbd9ea921	-0.077471025
28	0xbf07c382	-0.53032696
29	0x3e5d785c	0.21627945
30	0xbcb6ac12	-0.022298846
31	0x3df9d0af	0.12198006
32	0xbe0df7d7	-0.13864075
33	0xbe2521b4	-0.16126138
34	0xbf28727b	-0.65799683
35	0x3b275ce9	0.0025537557
36	0x3d212915	0.03934582
37	0xbe0f1cc3	-0.13975815
38	0x3e5f5feb	0.21813934
39	0xbe28bb38	-0.16477668
40	0x3dbadfca	0.091247156
41	0xbf4b4c29	-0.79413086
42	0xbe0fba97	-0.14036022
43	0xbdc45e50	-0.09588301
44	0x3d2e2176	0.04251238
45	0x3b699ad5	0.0035645266
46	0x3dcf6c69	0.101280995
47	0x3e061960	0.13095617
48	0x3d83efa2	0.06442191
49	0x3db26cb3	0.08712139
50	0x3df848f3	0.12123289
51	0x3e572e94	0.21013862
52	0xbd8107f5	-0.06300346
53	0xbe40cd2d	-0.18828268
54	0x3d94fcf3	0.07274809
55	0xbc584061	-0.013198943
56	0x3dcbab0b	0.09944733
57	0x3e8bf101	0.2733231
58	0x3d9505f9	0.0727653
59	0x3ddce057	0.10784977
60	0x3d626e66	0.055281065
61	0xbf400455	-0.7500661
62	0x3d87741e	0.066139445
63	0x3d45980b	0.048240703
64	0x3e1569fb	0.1459121
65	0x3ddf1d0e	0.108942136
66	0x3d306d0b	0.04307274
67	0x3dad7af1	0.08470715
68	0xbc732937	-0.014841369
69	0xbdb95f9f	-0.090514414
70	0xbe090c84	-0.1338368
71	0xbdc38673	-0.095471285
72	0xbeab0c92	-0.33408028
73	0xbdee27e6	-0.11628704
74	0x3d9aead1	0.07564319
75	0x3e0dde60	0.1385436
76	0x3e5dfdc5	0.21678837
77	0x3da8c41e	0.082405314
78	0xbd7e8f86	-0.062148593
79	0x3d527d63	0.05138911
80	0x3e812260	0.2522154
81	0x3e49d1ce	0.1970894
82	0x3d289bf1	0.041164342
83	0x3e047e9a	0.1293892
84	0xbd0f6dec	-0.03501694
85	0x3e3151ae	0.17316315
86	0x3d836f3d	0.064177014
87	0x3d98c724	0.07459858
88	0x3e357d95	0.17723687
89	0xbcbc11c5	-0.022957692
90	0x3e55f7ef	0.2089536
91	0x3db3df40	0.08782816
92	0x3e8718c9	0.26386097
93	0xbd977b5d	-0.073965766
94	0x3db707fd	0.089370705
95	0x3d2f075e	0.042731635
96	0x3b4ff4fa	0.003173171
97	0x3d18d5bd	0.03731321
98	0x3dc8fb21	0.09813524
99	0xbd55eb2b	-0.052226227
100	0x3e2f464e	0.17116663
101	0xbdc34b10	-0.095358014
102	0x3e2fd9f8	0.17172992
103	0xbdfd2239	-0.12360043
104	0x3c1e8769	0.009675839
105	0x3e1332c8	0.1437484
106	0x3e50b9d2	0.20383385
107	0x3dbcc2bd	0.09216831
108	0xbc67f41d	-0.014157322
109	0xbf0ebcbb	-0.5575673
110	0x3e3140ec	0.17309922
111	0xbd0f6116	-0.035004698
112	0x3daca0f8	0.0842914
113	0xbf2f2ae5	-0.68424827
114	0xbe3f3012	-0.18670681
115	0x3e6af423	0.22944693
116	0xbe65d3bb	-0.2244405
117	0xbccb44e3	-0.024813121
118	0x3ce4c563	0.027926153
119	0x3d858409	0.06519324
120	0x3db921ec	0.09039673
121	0xbda85d1f	-0.082208864
122	0xbcbf7067	-0.023369027
123	0xbdf0917d	-0.117465
124	0xbf4bd547	-0.7962231
125	0x3e788e7b	0.24273102
126	0xbd69e0ff	-0.05709934
127	0xbdacb8b4	-0.08433667
128	0x3d629d24	0.055325642
129	0xbe4e1c08	-0.2012788
130	0xbf007241	-0.5017434
131	0x3d8fc532	0.07020034
132	0x3d6bc479	0.057560418
133	0xbe26df13	-0.16296034
134	0x3daaa3fa	0.08332057
135	0x3dac4bcb	0.08412894
136	0x3db93c21	0.09044672
137	0xbeed1679	-0.46306208
138	0xbe292494	-0.1651786
139	0xbc3f1a1e	-0.011663942
140	0xbe3d3869	-0.1847855
141	0xbbec8da6	-0.0072190342
142	0xbd07166d	-0.03298037
143	0xbaa113d3	-0.0012289233
144	0x3e8024f8	0.25028205
145	0xbd8b1c40	-0.06792498
146	0x3e5ef325	0.2177244
147	0xbbf76236	-0.0075495495
148	0xbce70910	-0.028202564
149	0x3d8e60ac	0.069520324
150	0xbcda567f	-0.026652573
151	0xbd5ad722	-0.053427823
152	0xbd37b25b	-0.044847827
153	0x3e2b2481	0.16713144
154	0x3e8a3855	0.26996103
155	0xbc808598	-0.015688702
156	0x3df8e067	0.12152176
157	0xbf0b4c5f	-0.5441341
158	0xbde4753a	-0.11155172
159	0x3d8a8eee	0.06765543
160	0x3d493a34	0.049127772
161	0xbd4219f9	-0.04738805
162	0xbeb3f090	-0.35144472
163	0xbe18f7a9	-0.14938225
164	0x3e6dca3e	0.2322168
165	0x3ca0f9ab	0.019650301
166	0x3da30920	0.07960725
167	0x3d219eda	0.039458133
168	0x3e5eca0a	0.2175676
169	0xbf1d4983	-0.61440295
170	0xbe0d64a0	-0.13807917
171	0xbd770686	-0.060308956
172	0xbdc8307e	-0.09774874
173	0xbd72a6ed	-0.059241224
174	0xbd8d2587	-0.068919234
175	0x3c4a3f8a	0.01234425
176	0x3c902058	0.017593548
177	0x3d95cf64	0.07314947
178	0x3e0e55e2	0.13899949
179	0x3d49c193	0.049256872
180	0x3c5977f6	0.01327323
181	0x3d74e5b8	0.05978939
182	0x3e1459f2	0.14487436
183	0x3e26c232	0.16285017
184	0x3ddb080b	0.106948934
185	0xbdc37cc1	-0.09545279
186	0x3e82af5c	0.25524414
187	0x3e66834d	0.22511025
188	0x3d705f64	0.05868472
189	0xbecb236c	-0.39675462
190	0xbd33afcb	-0.04386882
191	0xbe8082fe	-0.2509994
192	0xbec1b466	-0.37832946
193	0xbf21901a	-0.63110507
194	0xbda7ee6d	-0.08199773
195	0xbdf003d5	-0.11719481
196	0xbd18fd3c	-0.037350878
197	0xbeac0da4	-0.33604157
198	0x3dbb4f78	0.09146017
199	0xbe60bbdb	-0.21946661
200	0xbdb4c855	-0.08827273
201	0xbc88c512	-0.016695533
202	0xbe1d35de	-0.1535258
203	0xbdd87db8	-0.10570854
204	0xbe3fc57f	-0.18727683
205	0x3ca6e3d9	0.020372318
206	0xbdb76ccf	-0.089563005
207	0xbea7b8e9	-0.32758263
208	0xbe9a3b0b	-0.3012317
209	0x3ce64761	0.028110208
210	0x3e5e0b77	0.21684061
211	0x3eb4381c	0.35199058
212	0xbe5feeba	-0.2186841
213	0xbf18244b	-0.5943038
214	0xbf1c8666	-0.61142576
215	0x3e207732	0.1567047
216	0x3deb8039	0.11499066
217	0xbd1bc3fa	-0.038028695
218	0xbdeca7e5	-0.11555461
219	0xbdba5f08	-0.09100157
220	0xbe07ec68	-0.13273776
221	0x3f188d13	0.5959026
222	0xbc95b2a2	-0.018273655
223	0x3cd64d51	0.026159914
224	0xbd58a86b	-0.05289499
225	0xbe0fd909	-0.14047636
226	0x3e26807a	0.16259947
227	0xbdd4ae0c	-0.10384759
228	0x3e122955	0.1427358
229	0x3e501476	0.20320305
230	0xbe4867bc	-0.19570822
231	0xbe4f0226	-0.20215663
232	0xbeed72d4	-0.4637667
233	0xbdcf9b23	-0.10137012
234	0x3e61f411	0.2206576
235	0x3c4a6618	0.012353443
236	0x3d196b49	0.03745583
237	0x3d344ea0	0.044020295
238	0x3d5ed410	0.054401457
239	0xbeba7030	-0.36413717
240	0x3e89ac87	0.2688944
241	0x3bf9e38e	0.0076260036
242	0xbdd13ed2	-0.1021706
243	0xbe175427	-0.14778195
244	0xbe78c563	-0.24294047
245	0x3bfe70a5	0.007764893
246	0xbe23faf0	-0.16013694
247	0xbded27fd	-0.11579893
248	0x3d0b2f34	0.033980563
249	0xbdae50da	-0.08511515
250	0x3da6a96c	0.081377834
251	0x3e95ef7a	0.2928427
252	0xbdcbbfc4	-0.09948686
253	0xbe4406fc	-0.1914329
254	0xbe6c1634	-0.23055345
255	0x3de01bf4	0.10942832

fc1.bias f4 [32]
0	0x3e16354e	0.14668772
1	0x3ebb17d4	0.36541617
2	0x3f0a382b	0.53991956
3	0x3ee51699	0.44743803
4	0x3e61986e	0.22030804
5	0x3f13bf26	0.57713544
6	0x3f3078fb	0.689346
7	0x3e666e0c	0.22502917
8	0x3eae09e7	0.3399193
9	0x3e46ef30	0.1942718
10	0x3ef2dd76	0.47434586
11	0x3dced529	0.10099251
12	0x3f1347e1	0.57531554
13	0xbe860be5	-0.2618095
14	0x3dd0c163	0.101931356
15	0x3f0fd552	0.56184876
16	0x3e43115b	0.1904959
17	0x3e7c1414	0.24617034
18	0x3cc58e72	0.024115775
19	0xbe045497	-0.12922893
20	0x3f182bbd	0.5944174
21	0x3f011ddd	0.5043619
22	0x3ed1310b	0.4085773
23	0xbe4573b3	-0.19282417
24	0x3d894a1e	0.0670359
25	0x3ec57bb5	0.38570943
26	0x3ed55fd2	0.41674668
27	0x3f026297	0.50931686
28	0x3f19f4d6	0.60139215
29	0x3f06bb8b	0.5262992
30	0x3ec9fc13	0.3945013
31	0x3eaeda01	0.341507

fc2.weight f4 [3, 32]
0	0x3dd543c3	0.10413315
1	0x3c817bd1	0.01580611
2	0xbd73cb6f	-0.05952018
3	0x3dba42b4	0.09094754
4	0x3dc438af	0.09581124
5	0xbda2e5e9	-0.07954008
6	0xbe1cf346	-0.15327176
7	0x3c99c004	0.018768318
8	0xbd4a0728	-0.04932323
9	0xbc892cb3	-0.016744947
10	0xbdcb504e	-0.09927426
11	0x3da33384	0.0796881
12	0xbd8f6522	-0.070017114
13	0x3cb18d7d	0.021673912
14	0x3e5deffc	0.21673578
15	0x3c62834d	0.01382525
16	0x3c6274ff	0.013821839
17	0x3d4af7a0	0.04955256
18	0xbda5d9c6	-0.080981776
19	0x3c139d3d	0.0090096565
20	0xbd9d86f1	-0.07691754
21	0x3ccecf27	0.025245262
22	0xbbfdb0f9	-0.007742044
23	0x3bc73c5d	0.006080194
24	0x3e36af79	0.17840375
25	0x3c41b81a	0.011823678
26	0xbe736b7d	-0.23771472
27	0xbda1aa7c	-0.078938454
28	0xbdf7795b	-0.120836936
29	0xbdcae0e5	-0.099061765
30	0xbda8c343	-0.08240368
31	0x3d4f922d	0.050676513
32	0x3e07cc5e	0.13261554
33	0x3d990bb8	0.07472938
34	0xbdfa6c14	-0.122276455
35	0x3e4bce05	0.19902809
36	0x3d49bff4	0.049255326
37	0xbd8bb4e5	-0.06821612
38	0xbd32ce4b	-0.043653768
39	0xbd6706d1	-0.056402985
40	0xbcc3b4de	-0.023889955
41	0x3a0bba63	0.0005330203
42	0xbdc180b1	-0.09448374
43	0xbc823b9d	-0.015897566
44	0xbe0f8a44	-0.14017588
45	0xbaf1a14e	-0.0018434913
46	0x3e59edf3	0.21282177
47	0xbce7ad3a	-0.028280843
48	0xba4add32	-0.0007738649
49	0xbdab22ff	-0.08356284
50	0x3e3e2e76	0.18572411
51	0x390c09b9	0.00013355062
52	0xbd4b5fca	-0.0496519
53	0xbd4f2c86	-0.05057957
54	0xbcb317f0	-0.021862
55	0xbaad5016	-0.001322272
56	0xbf0f6079	-0.5600658
57	0x3da6b833	0.08140602
58	0x3c7b95be	0.015355526
59	0xbe12a14a	-0.1431934
60	0xbdc04f5c	-0.093901366
61	0xbe1d1733	-0.15340881
62	0xbd91c6fb	-0.07118031
63	0x3e49fba7	0.19724904
64	0xbd983795	-0.074324764
65	0xbe03b9c1	-0.12863828
66	0xbd947f89	-0.07250888
67	0xbd6c1e0b	-0.05764584
68	0x3bbd470a	0.005776291
69	0xbdfb434b	-0.122686945
70	0x3f015cad	0.50532037
71	0xbde043fd	-0.10950468
72	0xbe0cc8ba	-0.13748446
73	0xbddccf26	-0.10781698
74	0xbe0262be	-0.1273298
75	0xbce73eea	-0.028228242
76	0xbdddc45e	-0.1082847
77	0x3d432173	0.04763932
78	0x3c074fcb	0.00825877
79	0xbdb50921	-0.08839632
80	0xbd1572d2	-0.036486454
81	0x3d8c872b	0.06861719
82	0x3c5ba098	0.013404988
83	0xbacc9d34	-0.0015610815
84	0xbe203b81	-0.15647699
85	0xbe08fc62	-0.13377526
86	0xbd016757	-0.031592693
87	0xbbe64115	-0.0070268014
88	0x3e3eb03a	0.18621913
89	0xbca4db07	-0.020123972
90	0x3e1b4195	0.15161736
91	0xbde6ba4c	-0.11266002
92	0xbe1b5f56	-0.15173087
93	0xbdd068fe	-0.10176276
94	0xbdfe987f	-0.1243143
95	0xbd80891f	-0.06276154

fc2.bias f4 [3]
0	0xbf2a1fcb	-0.6645476
1	0xbef0828b	-0.46974596
2	0x3f34f28f	0.70682615

road_emb.0.weight f4 [144]
0	0x3fb14c77	1.385146
1	0x3f865043	1.0493244
2	0x3f9f488f	1.2444018
3	0x3f7ba262	0.9829465
4	0x3f6ab1a1	0.9167729
5	0x3f85598f	1.0417956
6	0x3f992f27	1.1967515
7	0x3f99fe3a	1.2030709
8	0x3f9a8ab5	1.207358
9	0x3ef9f7b3	0.48821792
10	0x3f7baa70	0.9830694
11	0x3f815235	1.0103213
12	0x3f8fb35b	1.122661
13	0x3f718b99	0.94353634
14	0x3f9ca92b	1.2239126
15	0x3f711fab	0.94188946
16	0x3f869c95	1.0516535
17	0x3f80f6c9	1.0075313
18	0x3f926fcf	1.1440371
19	0x3f8654ad	1.0494591
20	0x3fa1f9e3	1.2654384
21	0x3ee98fe9	0.45617607
22	0x3f67221e	0.90286434
23	0x3f6df43d	0.92950803
24	0x3fb02e08	1.3764048
25	0x3f839037	1.0278386
26	0x3f961295	1.1724421
27	0x3f82a542	1.0206683
28	0x3f676622	0.9039022
29	0x3f8d5ddc	1.1044269
30	0x3f92ee8a	1.1479046
31	0x3f974444	1.1817708
32	0x3fa08e67	1.2543458
33	0x3f2d0f8f	0.67601866
34	0x3f819ad2	1.0125372
35	0x3f80047f	1.0001372
36	0x3fb03812	1.3767111
37	0x3f882d6a	1.0638859
38	0x3f9e44e8	1.2364779
39	0x3f5cd0f2	0.86256325
40	0x3f811984	1.0085912
41	0x3f893dc8	1.0721979
42	0x3fcbac42	1.5911944
43	0x3f900a64	1.1253171
44	0x3fa7ae7a	1.3100121
45	0x3f152465	0.5825866
46	0x3f806c8a	1.0033123
47	0x3f645880	0.8919754
48	0x3fa572f5	1.2925707
49	0x3f87c5e9	1.0607272
50	0x3f96a62a	1.1769459
51	0x3f7afe2a	0.98044074
52	0x3f7b591a	0.98182833
53	0x3f73b587	0.95198864
54	0x3fa56b92	1.2923453
55	0x3f8a6270	1.0811291
56	0x3fad6e30	1.3549252
57	0x3f084c18	0.5324111
58	0x3f81e447	1.014779
59	0x3f64a96b	0.8932101
60	0x3f977c0f	1.1834735
61	0x3f86774e	1.0505159
62	0x3f9d202f	1.2275447
63	0x3f59067e	0.8477553
64	0x3f66451e	0.89949214
65	0x3f5ffa1d	0.8749102
66	0x3facef30	1.3510494
67	0x3f92e681	1.1476594
68	0x3fa1a28c	1.262773
69	0x3f34730d	0.70488054
70	0x3f89b4c2	1.0758288
71	0x3f58175d	0.8441065
72	0x3fbb46fa	1.4631035
73	0x3f83956e	1.0279977
74	0x3fa5eda5	1.2963148
75	0x3f7e527e	0.99344623
76	0x3f848841	1.0354081
77	0x3f8824ff	1.063629
78	0x3f8acf35	1.0844485
79	0x3f8ae251	1.0850316
80	0x3fad1a42	1.3523638
81	0x3f444176	0.76662385
82	0x3f8534ae	1.0406702
83	0x3fa13de3	1.2597011
84	0x3fa9807b	1.3242334
85	0x3f9c22ce	1.2198122
86	0x3fa289be	1.2698286
87	0x3f60ecff	0.8786163
88	0x3f5d9e69	0.8656984
89	0x3f7c1f06	0.9848484
90	0x3fa63c63	1.2987179
91	0x3f8a0001	1.0781251
92	0x3f9fa162	1.2471125
93	0x3f07afb2	0.53002465
94	0x3f808cb7	1.0042943
95	0x3fa76324	1.307713
96	0x3f967ead	1.1757408
97	0x3f810f40	1.0082779
98	0x3fa5e3eb	1.296018
99	0x3f6da11d	0.92823964
100	0x3f6808a6	0.90638196
101	0x3f697004	0.9118655
102	0x3fb04e5c	1.3773913
103	0x3f8ef978	1.1169882
104	0x3fa75b1a	1.3074677
105	0x3f291dff	0.66061395
106	0x3f88b534	1.0680299
107	0x3fa68b08	1.3011179
108	0x3faed8ac	1.3659873
109	0x3f6c7277	0.9236216
110	0x3f9cd244	1.2251668
111	0x3f72305a	0.9460503
112	0x3f7b099c	0.9806154
113	0x3f95ada0	1.1693611
114	0x3fa06142	1.2529681
115	0x3f9186e0	1.1369286
116	0x3fab2fba	1.337394
117	0x3f446898	0.767221
118	0x3fa5e841	1.2961503
119	0x3f7ce0fd	0.98780805
120	0x3f8b9718	1.0905485
121	0x3f8e2a45	1.110665
122	0x3f9eeb24	1.2415509
123	0x3f85fc3e	1.0467603
124	0x3f90db78	1.1316977
125	0x3f868428	1.0509081
126	0x3f9f7fe8	1.2460909
127	0x3f950688	1.1642618
128	0x3fa9fc05	1.3280035
129	0x3f400a8c	0.75016093
130	0x3fa871d3	1.3159736
131	0x3f815b8d	1.0106064
132	0x3fab2f10	1.3373737
133	0x3f85c7ec	1.0451636
134	0x3f9d7e84	1.2304235
135	0x3f5cfee1	0.86326414
136	0x3f82576d	1.018293
137	0x3f829195	1.0200678
138	0x3f92d19c	1.1470218
139	0x3f96c111	1.1777669
140	0x3facba65	1.3494383
141	0x3f4526e0	0.77012444
142	0x3f9e0fde	1.2348592
143	0x3f809c5e	1.004772

road_emb.0.bias f4 [144]
0	0x3e1f476f	0.15554594
1	0x3e1b8b25	0.15189798
2	0x3d9eba51	0.07750381
3	0x3e076423	0.13221793
4	0x3e652e86	0.22381029
5	0x3dfcc309	0.123418875
6	0x3dba74d9	0.09104318
7	0x3e942bad	0.28939572
8	0x3cadb0ca	0.021202464
9	0xbf09b6f9	-0.5379482
10	0x3e7b0289	0.24512686
11	0x3e6c5929	0.23080887
12	0x3e50b4bc	0.20381445
13	0x3e3d8bb8	0.1851033
14	0x3de06d07	0.10958295
15	0x3e614036	0.21997151
16	0x3e19d01c	0.15020794
17	0x3e1c09bc	0.15238088
18	0x3ddee000	0.10882568
19	0x3e5fbcdb	0.21849386
20	0x3c3aa00a	0.011390695
21	0xbf15f5f3	-0.58578414
22	0x3e3c9597	0.18416439
23	0x3e4d3e0a	0.20043197
24	0x3e109835	0.14120562
25	0x3e174d87	0.14775668
26	0x3e698f2d	0.22808523
27	0x3de08e27	0.109646134
28	0x3e877b10	0.26461077
29	0x3e4b6534	0.19862825
30	0x3dbad814	0.09123245
31	0x3e7c5015	0.24639924
32	0x3c1ac369	0.0094460035
33	0xbeb63925	-0.35590473
34	0x3e85f2ad	0.2616171
35	0x3e5780bb	0.210452
36	0x3dcb5389	0.099280424
37	0x3e070622	0.13185933
38	0x3e5b55e6	0.21419486
39	0x3e699079	0.22809018
40	0x3e252980	0.16129112
41	0x3dce5651	0.10075057
42	0x3da119fc	0.07866284
43	0x3e99c35d	0.30031863
44	0x3b38cedd	0.0028199472
45	0xbeadc8af	-0.33942172
46	0x3e5d5b6a	0.21616903
47	0x3e69f64b	0.2284786
48	0x3e594aec	0.21219987
49	0x3e21393d	0.15744491
50	0x3e5880c0	0.21142864
51	0x3e0b7de5	0.13622244
52	0x3e6fc5e9	0.2341534
53	0x3e335725	0.17513712
54	0x3deebb87	0.11656862
55	0x3e8b2e28	0.27183652
56	0x3cbbff05	0.022948751
57	0xbeea2896	-0.4573409
58	0x3e619717	0.22030292
59	0x3e606f33	0.21917419
60	0x3e0b4267	0.13599549
61	0x3e23ad20	0.1598401
62	0x3e803409	0.250397
63	0x3e58b19f	0.21161507
64	0x3e72b45f	0.23701619
65	0x3e45e08e	0.19323942
66	0x3d625869	0.055260096
67	0x3e88bfa7	0.2670872
68	0xbc922c90	-0.017843515
69	0xbe7f34dd	-0.2492251
70	0x3e8dff30	0.27733755
71	0x3e4dd206	0.20099649
72	0x3e6856ed	0.2268941
73	0x3e30e959	0.17276515
74	0x3dd3c537	0.1034035
75	0x3e109bc8	0.14121926
76	0x3e55d043	0.20880227
77	0x3e07e1c4	0.13269717
78	0x3e410a65	0.18851621
79	0x3e61e0ab	0.2205836
80	0x3cc3fa3b	0.02392303
81	0xbe66e0bf	-0.22546671
82	0x3e57f538	0.21089637
83	0x3e239f12	0.1597865
84	0x3e2e3a21	0.17014362
85	0x3db1824c	0.0866743
86	0x3dc376fd	0.095441796
87	0x3e49367c	0.1964969
88	0x3e57bce2	0.21068147
89	0x3e362c1c	0.17790264
90	0x3da625db	0.08112689
91	0x3e83281b	0.25616536
92	0x3ccfa392	0.025346551
93	0xbf047345	-0.5173839
94	0x3e5e82f7	0.21729647
95	0x3dfaeb75	0.12251941
96	0x3e7fd74f	0.24984477
97	0x3e26a270	0.16272902
98	0x3e036ff0	0.1283567
99	0x3e33792c	0.17526692
100	0x3e7f90f7	0.24957643
101	0x3e6d1d35	0.23155673
102	0x3de62a7b	0.11238571
103	0x3e8cfd5d	0.2753705
104	0x3cc7a3b4	0.024370052
105	0xbe9d1038	-0.30676436
106	0x3e96c97c	0.29450595
107	0x3dff4605	0.12464527
108	0x3e2fe3ae	0.17176697
109	0x3e5d59b8	0.21616256
110	0x3e695e8f	0.22789977
111	0x3e2b7b97	0.16746365
112	0x3e4c3235	0.19941027
113	0x3d4fbba0	0.050716043
114	0x3e4e8dcb	0.20171277
115	0x3e2dc5ed	0.16970034
116	0x3ca5af03	0.020225054
117	0xbe4a805f	-0.19775532
118	0x3dc7d650	0.09757674
119	0x3e3231cc	0.17401809
120	0x3e844d7c	0.25840366
121	0x3e1c23cc	0.1524803
122	0x3e4bc116	0.19897875
123	0x3e1afca2	0.15135434
124	0x3dd54187	0.10412889
125	0x3de87bee	0.11351763
126	0x3e2214ef	0.15828298
127	0x3e84442f	0.2583327
128	0xbb983048	-0.0046444274
129	0xbe5daad8	-0.21647203
130	0x3e322a1d	0.17398877
131	0x3e5eafd4	0.2174676
132	0x3e5c7691	0.21529604
133	0x3e0c25f6	0.13686356
134	0x3e811707	0.2521288
135	0x3e4e2f44	0.20135218
136	0x3ddf423d	0.10901306
137	0x3e26d23d	0.16291137
138	0x3e5bbd39	0.21458901
139	0x3e38a54b	0.18031804
140	0x3d12b3c1	0.035815958
141	0xbe68a37f	-0.22718619
142	0x3e19aab7	0.15006529
143	0x3e2fce76	0.17168602

road_emb.1.weight f4 [64, 144]
0	0xbe43fae2	-0.19138673
1	0xbdeeff42	-0.1166978
2	0xbf11d041	-0.56958395
3	0xbcd9a8ea	-0.026569802
4	0xbd426ef6	-0.0474691
5	0x3d9cab15	0.07649819
6	0x3d4c971b	0.049948793
7	0x3e0fcd6b	0.14043204
8	0x3dc014ae	0.09378944
9	0xbd97fd8a	-0.074214056
10	0x3e06524d	0.13117333
11	0xbd15afad	-0.03654449
12	0x3dcbc281	0.09949208
13	0xbe07f08e	-0.13275358
14	0xbec891e8	-0.39173818
15	0xbe2d164e	-0.1690304
16	0x3d9c1e35	0.07622949
17	0xbdcfc750	-0.10145438
18	0x3e280707	0.1640893
19	0x3d8daa6a	0.069172695
20	0xbd35791f	-0.044304963
21	0x3dc17467	0.0944603
22	0x3e063dd1	0.13109519
23	0x3c9f6a8b	0.019459983
24	0xbdc80b98	-0.09767836
25	0x3d437b59	0.047725055
26	0xbf1ec48b	-0.6201865
27	0x3e35caa4	0.17753083
28	0xbdea0400	-0.11426544
29	0x3d949107	0.07254224
30	0x3d6a292d	0.057168175
31	0x3e181849	0.14853014
32	0x3c8f61f7	0.017502768
33	0xbd964c53	-0.073387764
34	0x3e25c46f	0.16188215
35	0x3d9883c7	0.074470095
36	0xbec75946	-0.38935298
37	0x3c0b78e9	0.008512714
38	0xbec37f6f	-0.38183162
39	0xbe8a08af	-0.2695975
40	0xbe25ba07	-0.16184245
41	0x3d940dbe	0.072291836
42	0x3ef0bd6f	0.47019526
43	0xbdccab33	-0.09993591
44	0xbe0fad51	-0.14030959
45	0x3e3b5e54	0.18297702
46	0xbdfc8e2f	-0.12331807
47	0x3d4a93c4	0.049457327
48	0xbc7f522f	-0.015583559
49	0xbd6d8f6a	-0.0579981
50	0xbe87a485	-0.26492706
51	0x3bcc5a51	0.0062363525
52	0xbe0f0af1	-0.13969018
53	0xbe03ed41	-0.12883474
54	0x3e7a6efe	0.24456403
55	0xbe532ab4	-0.20621759
56	0xbe82f3cb	-0.25576624
57	0x3cd57fc0	0.026061893
58	0x3d4fabbe	0.050700895
59	0xbd5daa73	-0.05411763
60	0xbc07d7a4	-0.008291159
61	0x3cffed16	0.031240981
62	0xbec80aff	-0.3907089
63	0xbdc29d42	-0.09502651
64	0x3d955bab	0.07292875
65	0x3e10dad6	0.1414598
66	0xbddf88a6	-0.109147355
67	0xbe5f1ff6	-0.21789536
68	0xbe0f6d58	-0.14006555
69	0xbdf780b5	-0.12085096
70	0x3dd0957f	0.10184764
71	0xbe253b20	-0.16135836
72	0xbe83f17f	-0.25770184
73	0x3e196258	0.14978921
74	0xbe2df9b6	-0.16989788
75	0xbc9cfb4f	-0.019162802
76	0xbcdd2cbd	-0.026998872
77	0x3dde356c	0.10850033
78	0x3e8e272e	0.27764267
79	0xbd29afc1	-0.041427378
80	0xbd24ba94	-0.040216997
81	0x3e21e023	0.15808158
82	0xbc3354b2	-0.010945486
83	0xbee8150a	-0.45328552
84	0x3e02ff7b	0.1279277
85	0xbd58e8a2	-0.05295623
86	0xbe76accd	-0.24089356
87	0xbe0dd0ee	-0.13849232
88	0x3c22a974	0.009928096
89	0x3e2ca7ce	0.16860887
90	0x3ccefcb7	0.025266988
91	0x3d759c91	0.059963766
92	0xbe932f2b	-0.28746924
93	0x3cbb7199	0.022881316
94	0x3e11b31a	0.14228478
95	0xbd94b439	-0.07260937
96	0xbca78a0c	-0.020451568
97	0x3d41af1d	0.04728614
98	0xbe99151b	-0.29898915
99	0xbe2ea468	-0.17054904
100	0xbe6a1737	-0.22860418
101	0xbd16b2fe	-0.036791794
102	0x3e610118	0.21973073
103	0x3c97c186	0.018524896
104	0x3d47b99c	0.048760995
105	0x3e811379	0.2521017
106	0x3e1ca62b	0.15297763
107	0xbdf8e65e	-0.12153314
108	0xbe331abe	-0.1749067
109	0x3d93dffe	0.072204575
110	0xbe3bcbdd	-0.18339486
111	0xbe062fa6	-0.13104114
112	0xbe48e6e3	-0.19619326
113	0x3c3fc5f7	0.011704913
114	0x3e3b2d25	0.1827894
115	0xbd88db15	-0.066824116
116	0xbdd07c88	-0.101800025
117	0x3dcd97f7	0.100387506
118	0xbd747d55	-0.05968984
119	0x3d8586d7	0.06519859
120	0x3d19f6c8	0.037588865
121	0xbe3a45ea	-0.18190733
122	0x3d40a624	0.047033444
123	0xbd873913	-0.06602683
124	0xbdb0ee7c	-0.08639237
125	0xba8260b7	-0.0009947036
126	0x3e9c2bc6	0.30502146
127	0x3d44b61e	0.048025243
128	0x3d71e334	0.05905457
129	0xbd035605	-0.032064456
130	0xbe1b10d4	-0.15143138
131	0x3e084a7e	0.13309667
132	0xbc4be874	-0.012445558
133	0x3d82e910	0.063921094
134	0xbccbad36	-0.024862867
135	0xbe21acbf	-0.15788554
136	0xbb861d98	-0.0040928833
137	0x3e11d7a3	0.14242415
138	0x3f06ded3	0.5268375
139	0xbdb8a146	-0.090151355
140	0xbd8a2c61	-0.06746746
141	0x3d9d7409	0.076881476
142	0xbea53a11	-0.32270864
143	0x3d6b2f90	0.057418406
144	0xbe31671f	-0.17324494
145	0xbdbc7ec7	-0.09203868
146	0xbf0ca799	-0.54943234
147	0x3e0c4fd2	0.13702324
148	0x3dba5033	0.09097328
149	0x3db29995	0.087207
150	0x3ea7ad7a	0.3274954
151	0xbd7a7bfb	-0.061153393
152	0x3dea6734	0.11445466
153	0x3df870ae	0.12130867
154	0x3d27add6	0.040937267
155	0xbd9b57a7	-0.07585078
156	0x3ad8d2e3	0.0016542341
157	0xbad19d67	-0.0015992344
158	0xbeecaf38	-0.4622743
159	0x3cae09ce	0.02124491
160	0x3c90923d	0.017647857
161	0x3e04ed6c	0.12981194
162	0x3e808af1	0.25106004
163	0xbe3caedb	-0.18426077
164	0x3cce585b	0.025188616
165	0xbe2efff3	-0.17089824
166	0x3d8fe6a3	0.07026412
167	0xbe9f2450	-0.31082392
168	0xbe01200e	-0.12609884
169	0xbe14d974	-0.14536077
170	0xbedd18ab	-0.43182883
171	0x3e4209ed	0.18949099
172	0x3e677b15	0.22605546
173	0x3de35406	0.111000106
174	0x3d88c3f2	0.066779986
175	0xbe1ba665	-0.15200193
176	0x3e9b75d5	0.30363336
177	0x3c823fef	0.015899627
178	0x3e18e888	0.14932454
179	0xbe1a41fe	-0.15064237
180	0xbe6ceed6	-0.23137984
181	0xbdf268c5	-0.118363895
182	0xbe5aae3a	-0.21355525
183	0x3ea042d8	0.31300998
184	0x3de75da6	0.11297159
185	0x3e1388f9	0.1440772
186	0x3d7c6f52	0.0616296
187	0xbeae62c7	-0.34059736
188	0x3ddeebef	0.108848445
189	0xbd86806c	-0.06567463
190	0xbe9689c9	-0.29401997
191	0xbd1a805e	-0.037720077
192	0xbe9508e0	-0.29108334
193	0x3d572a19	0.05253038
194	0xbdfc820b	-0.12329491
195	0x3e4edc10	0.20201135
196	0x3e7a2c69	0.24431004
197	0x3dd8a840	0.10578966
198	0x3e1f0a43	0.15531258
199	0xbec70fdc	-0.38879287
200	0x3e37d931	0.17953946
201	0x3e0886e5	0.13332708
202	0xbe146750	-0.14492536
203	0xbd317eda	-0.043333866
204	0x3e7307d3	0.23733453
205	0xbdd60179	-0.104495
206	0xbe8bcf74	-0.27306712
207	0x3e2e9809	0.17050184
208	0x3dbc5745	0.09196333
209	0x3d5c4179	0.053773377
210	0x3ea5eb84	0.32406247
211	0xbe3c71a7	-0.1840273
212	0x3ea26008	0.3171389
213	0xbdab6b24	-0.08370045
214	0xbe08de18	-0.13365972
215	0xbc764325	-0.015030657
216	0xbeb27836	-0.3485734
217	0xbde2492e	-0.11049114
218	0xbefe217c	-0.49634922
219	0x3e09ba66	0.13450012
220	0x3dc83b39	0.09776921
221	0x3d6e611a	0.058198072
222	0x3e83ef0d	0.2576832
223	0x3d2824d9	0.041050766
224	0x3e901f88	0.28149056
225	0x3dd491be	0.103793606
226	0xbd5dfb6c	-0.054194853
227	0xbe8251d8	-0.25453067
228	0xbe411512	-0.18855694
229	0x3cf58f10	0.029975444
230	0xbeaa4620	-0.33256626
231	0x3db4e86a	0.08833392
232	0x3dedd5ce	0.11613046
233	0xbd56bbab	-0.052425068
234	0x3c54703b	0.012966211
235	0xbe76f0a7	-0.24115239
236	0x3e8cb0c5	0.27478614
237	0x3e323d11	0.17406107
238	0xbe3b7775	-0.18307288
239	0xbe9f0fcf	-0.31066748
240	0xbcb70354	-0.022340454
241	0xbe207dab	-0.15672939
242	0xbec44293	-0.38332042
243	0xbdbd37d6	-0.092391655
244	0xbd392fb3	-0.045211505
245	0xbe5499f8	-0.2076186
246	0x3ebb1170	0.3653674
247	0xbcaa2aa5	-0.020772288
248	0x3e3bca8e	0.18338987
249	0x3d7a95ca	0.061178006
250	0xbe9d6611	-0.30741933
251	0xbeef6532	-0.46756893
252	0xbed40d7e	-0.41416544
253	0xbc0a55d8	-0.008443318
254	0xbf308565	-0.68953544
255	0x3db6bacc	0.089223474

road_emb.1.bias f4 [64]
0	0x3d02cd6a	0.03193418
1	0xbaf4a05f	-0.0018663517
2	0xbd4895ef	-0.048971113
3	0x3c673e75	0.014114012
4	0x3d811a0b	0.063037954
5	0xbcd7ebd5	-0.02635757
6	0xbd59ab68	-0.05314198
7	0xbc495f9b	-0.0122908605
8	0x3c9b01bb	0.018921724
9	0xbd29b2e2	-0.04143036
10	0xbd02730c	-0.031848
11	0xbb9f70e2	-0.0048657516
12	0xbe2b7143	-0.16742425
13	0xbb623486	-0.003451617
14	0x3cdbfea2	0.026854817
15	0xbbd8dc07	-0.006618026
16	0xbd52c858	-0.051460594
17	0xbe0232ee	-0.1271474
18	0xbe104e5b	-0.1409239
19	0xbc2ee126	-0.010673797
20	0xbdcf7813	-0.10130324
21	0xbe0df775	-0.13863929
22	0x3b0900d9	0.0020905046
23	0xbd695bfd	-0.056972492
24	0xbcdaa881	-0.026691677
25	0x3dc349f2	0.09535588
26	0xbd69d281	-0.057085518
27	0x3d4f85d0	0.050664723
28	0xbdb30ab5	-0.087422766
29	0xbdb3814d	-0.087648965
30	0xbcb7bb11	-0.022428067
31	0x3cdfdc55	0.027326742
32	0x3c90d4d1	0.017679604
33	0x3db494e3	0.088174604
34	0x3d37dbdc	0.04488741
35	0xbd03c145	-0.032166738
36	0xbd823c2f	-0.06359135
37	0xbd40c416	-0.047062002
38	0x3da6149a	0.08109398
39	0xbd3cefdd	-0.04612719
40	0xbd9f9edd	-0.07793973
41	0xbcecb9bb	-0.028897157
42	0xbd13d279	-0.036089394
43	0x3d13a55c	0.03604637
44	0xbcc3ee63	-0.023917383
45	0xbd15336d	-0.036425997
46	0xbd96ceb7	-0.073636465
47	0x3d1c1d24	0.03811373
48	0x3d09c001	0.033630375
49	0xbd2a792a	-0.041619457
50	0x3b8f17c5	0.004366847
51	0xbb5c0e11	-0.003357772
52	0xb8ca6a62	-9.651926e-05
53	0x3c41ca62	0.011828037
54	0xbd95906e	-0.073029384
55	0xbc02a072	-0.007972823
56	0xbd2e0117	-0.042481508
57	0xbe3e383d	-0.1857614
58	0xbd6b7af1	-0.057490293
59	0xbd14f32c	-0.03636472
60	0xbd2d1c7b	-0.04226349
61	0x3d958b7e	0.07301997
62	0x3c8b7017	0.017021222
63	0x3db4c744	0.088270694

cav_emb.0.weight f4 [11]
0	0x3f8e42cb	1.1114134
1	0x3f2e282a	0.68030035
2	0x3f329ac0	0.6976738
3	0x3f6ae1cb	0.9175078
4	0x3fd49d3c	1.6610484
5	0x3fd80a34	1.6878114
6	0x3fbe7a84	1.4881139
7	0x3f8c6297	1.0967587
8	0x3f4902e9	0.78520066
9	0x3f66cf50	0.90160084
10	0x3f94fb9a	1.1639283

cav_emb.0.bias f4 [11]
0	0x3d574995	0.052560408
1	0x3cc5667d	0.024096722
2	0x3d164070	0.036682546
3	0x3d69fd30	0.057126224
4	0xbb957092	-0.0045605386
5	0x3e0cca7a	0.13749114
6	0xbc549b8d	-0.012976539
7	0x3de250e5	0.11050586
8	0x3deb905d	0.115021445
9	0xbd51ef25	-0.051253457
10	0xbd91965a	-0.071087554

cav_emb.1.weight f4 [64, 11]
0	0xbe706f69	-0.2348
1	0x3deea7e7	0.116531186
2	0x3dbbe5c1	0.091746815
3	0xbd509250	-0.050920784
4	0x3f2e7563	0.6814787
5	0xbe8ccf3a	-0.2750185
6	0x3df0653c	0.11738059
7	0x3dd3aaef	0.10335337
8	0x3d858d25	0.06521062
9	0xbdc6cd98	-0.09707183
10	0x3d8183ef	0.063239925
11	0xbe360250	-0.1777432
12	0x3d264536	0.04059335
13	0xbe41ecc7	-0.1893798
14	0xbe49d16f	-0.19708799
15	0xbf0117fe	-0.50427234
16	0x3e8a6f2b	0.2703794
17	0xbbed24e3	-0.0072370633
18	0xbe83a569	-0.25712135
19	0xbddedb4b	-0.108816706
20	0x3e404541	0.18776418
21	0x3e8b1f89	0.27172497
22	0xbe409308	-0.18806088
23	0xbee2d2c4	-0.44301426
24	0xbdd4e05c	-0.10394356
25	0x3d3510a8	0.044205338
26	0x3f461db6	0.77389085
27	0x3e85d6fb	0.2614058
28	0xbe229fe5	-0.15881307
29	0xbc4261ec	-0.011864167
30	0x3dc9e5b2	0.09858264
31	0xbe55db0e	-0.20884344
32	0x3eec91fd	0.4620513
33	0x3deb79a8	0.114978135
34	0xbe862846	-0.262026
35	0xbdc02227	-0.09381514
36	0xbe744071	-0.23852707
37	0xbf3fe6d8	-0.74961615
38	0x3f8cbbcb	1.099481
39	0xbefd7875	-0.49505964
40	0xbdbecebc	-0.09316775
41	0xbda146d5	-0.07874838
42	0x3da370c8	0.07980496
43	0xbe2014da	-0.15632954
44	0xbe8c2178	-0.27369285
45	0x3ea180fd	0.31543723
46	0x3e0210e5	0.12701757
47	0xbe8a8472	-0.27054173
48	0xbe1bfdf7	-0.15233599
49	0x3d936a80	0.07198048
50	0x3e76b02e	0.24090645
51	0xbc9b879d	-0.018985564
52	0x3dcb1de7	0.09917813
53	0xbe19b263	-0.15009455
54	0x3e39f26e	0.18158886
55	0xbe924bf5	-0.28573576
56	0xbe5640af	-0.20923112
57	0x3eb3f324	0.3514644
58	0x3da2492a	0.07924111
59	0x3ef78e96	0.48350972
60	0x3ddf7803	0.10911562
61	0xbe2a7e5d	-0.16649766
62	0xbe6da525	-0.23207529
63	0x3dae5136	0.085115835
64	0xbdc2a4b9	-0.095040746
65	0xbcdd1fd0	-0.026992708
66	0xbe6541f0	-0.22388434
67	0xbd7969bf	-0.060891863
68	0x3d94fa97	0.07274359
69	0xbe6f7543	-0.23384576
70	0x3e03fa8d	0.12888546
71	0x3c0d3be3	0.008620235
72	0xbe813ecf	-0.25243232
73	0x3e232804	0.15933233
74	0xbd9c157f	-0.076212876
75	0xbdf3978d	-0.118941404
76	0xbd370a34	-0.044687465
77	0x3c95b6e8	0.018275693
78	0xbe05b54f	-0.13057445
79	0xbd95134f	-0.072790734
80	0x3efae60b	0.49003634
81	0x3d0e2a86	0.034708522
82	0xbe5b0070	-0.21386886
83	0x3f328530	0.6973448
84	0x3e120ba9	0.1426226
85	0x3e9efede	0.31053823
86	0xbf3ad6e5	-0.72984153
87	0xbd5a5f94	-0.053313807
88	0xbe817bde	-0.25289816
89	0xbd5432b9	-0.051806185
90	0x3dbf38e0	0.0933702
91	0x3d06ec6f	0.032940324
92	0x3ecdaeda	0.40172464
93	0xbdadd112	-0.084871426
94	0xbe71fb2e	-0.23630974
95	0x3e1d57ef	0.15365575
96	0x3dd246e7	0.1026743
97	0x3e026e66	0.12737426
98	0x3df77193	0.120822094
99	0xbefa73dd	-0.48916522
100	0x3e077ed1	0.1323197
101	0x3e1627c9	0.14663614
102	0x3e3343ec	0.17506379
103	0xbea4b8c2	-0.3217221
104	0xbe82050c	-0.25394475
105	0x3efbe7c6	0.49200267
106	0xbcda8616	-0.026675265
107	0x3cbac9c2	0.022801284
108	0xbd022ba2	-0.031779893
109	0x3e58979f	0.21151589
110	0xbe35ad11	-0.17741801
111	0xbe58bf66	-0.21166763
112	0x3e51dcd1	0.20494391
113	0xbcfc1169	-0.03077002
114	0x3f2fbdf1	0.686492
115	0xba79ca01	-0.0009528697
116	0x3c162a4c	0.009165358
117	0xbc86fedf	-0.016478954
118	0x3d2b9ec3	0.041899454
119	0xbdc65f77	-0.09686177
120	0x3d0b3155	0.033982594
121	0xbc2c85c8	-0.010529943
122	0xbdc16554	-0.09443155
123	0x3c23df6f	0.010002001
124	0xbccc7b7f	-0.024961231
125	0xbe57ed0a	-0.21086517
126	0xbc749ab8	-0.014929466
127	0x3e92712f	0.28601977
128	0xbdb3215b	-0.087465964
129	0x3d7620f6	0.060090028
130	0x3e9acf7f	0.30236432
131	0x3dc1f6ca	0.094708994
132	0xbe997553	-0.29972324
133	0x3dfdfae1	0.12401367
134	0x3e616b28	0.22013533
135	0xbdd64b27	-0.10463553
136	0x3f3d0145	0.7383006
137	0x3db3ee15	0.08785645
138	0xbe62c090	-0.2214377
139	0x3e9c3de0	0.30515957
140	0x3b371762	0.0027937521
141	0xbea99426	-0.3312084
142	0x3e6b47ad	0.22976561
143	0xbe8f9668	-0.28044438
144	0xbe2b6d58	-0.1674093
145	0x3e38218d	0.17981549
146	0xbda9240c	-0.082588285
147	0x3f00c88f	0.5030603
148	0x3d7a7027	0.061142113
149	0xbe6f7a20	-0.2338643
150	0xbe59f8b7	-0.21286283
151	0x3dfe5261	0.12418056
152	0xbe57ee0c	-0.21086901
153	0x3d805bf8	0.06267542
154	0xbe8da7e5	-0.27667156
155	0xbe66c676	-0.22536644
156	0x3e3a5710	0.18197274
157	0xbb1fb5eb	-0.0024369906
158	0x3ee9076c	0.45513475
159	0x3c8b05cc	0.016970538
160	0x3e523362	0.20527413
161	0xbd01aa85	-0.03165676
162	0x3c8db002	0.017295841
163	0x3f3bb50a	0.7332312
164	0xbdbf4c0a	-0.09340675
165	0xbe969b11	-0.2941518
166	0xbe13a730	-0.14419246
167	0x3ce4cb47	0.027928961
168	0xbcdaaa88	-0.026692644
169	0xbd2ae6ba	-0.041723944
170	0xbdb1afed	-0.08676133
171	0x3df70459	0.12061376
172	0xbdb47481	-0.08811284
173	0xbc42bfb0	-0.011886522
174	0xbed4e44d	-0.4158043
175	0x3f0657a0	0.52477455
176	0xbe05ce4a	-0.13066974
177	0xbe68eee9	-0.22747387
178	0xbce32fa1	-0.027732672
179	0x3dbb7b1f	0.09154343
180	0xbe0fd57a	-0.14046279
181	0x3f198c68	0.5997987
182	0xbee0f5f5	-0.4393765
183	0x3d6fb497	0.058521833
184	0x3d3c84ed	0.046025205
185	0x3d2cb006	0.042160057
186	0xbea41530	-0.32047415
187	0x3e735f2f	0.23766778
188	0xbe207377	-0.15669046
189	0xbdeeb1af	-0.11654984
190	0x3e1b3a2c	0.1515891
191	0xbdec7322	-0.11545397
192	0x3c3f20cd	0.011665535
193	0x3e94a42d	0.29031506
194	0xbd6d3c24	-0.057918683
195	0xbe231929	-0.15927567
196	0xbed85f13	-0.42260036
197	0xbdd0b7c9	-0.10191304
198	0x3db22788	0.08698946
199	0x3b994fac	0.004678687
200	0x3e3168ba	0.17325106
201	0x3becd944	0.0072280485
202	0x3e89ad9c	0.26890266
203	0x3da0b0d2	0.07846226
204	0xbdd257a2	-0.10270621
205	0x3e75d448	0.2400676
206	0x3e36ddaa	0.17857996
207	0x3c5c46a3	0.0134445755
208	0x3e0dea69	0.13858952
209	0xbdcefec8	-0.101071894
210	0x3d8c5d20	0.068537
211	0x3e2ff26c	0.1718232
212	0x3de02093	0.10943713
213	0x3eda939e	0.42690748
214	0x3d6c94f1	0.05775923
215	0x3dee1c19	0.11626453
216	0xbe541858	-0.20712411
217	0x3b8ee067	0.004360247
218	0xbb39b079	-0.0028333946
219	0x3e1a2e92	0.15056828
220	0xbea15f16	-0.31517857
221	0xbe5cf7ee	-0.21578953
222	0xbe618eaf	-0.22027086
223	0xbc6321ed	-0.013863069
224	0xbf7e5216	-0.99344003
225	0x3f46afdd	0.77612096
226	0x3ea21fef	0.31664988
227	0xbd075f39	-0.033049796
228	0xbe4d89ba	-0.2007207
229	0xbe0efda5	-0.13963945
230	0xbeb009ca	-0.34382468
231	0xbe4bec14	-0.19914275
232	0x3d92d619	0.07169742
233	0x3e6a40ef	0.22876333
234	0x3da8fc30	0.08251226
235	0x3f35a5b9	0.70956
236	0xbec4b366	-0.3841812
237	0xbe4de35f	-0.20106266
238	0x3e8bf237	0.27333233
239	0x3e020bde	0.1269984
240	0xbe4fc5d3	-0.20290308
241	0xbbebc4f6	-0.0071951104
242	0xbe4754e7	-0.19465981
243	0xbe025bc6	-0.12730321
244	0x3c1955da	0.0093588475
245	0x3ddef30d	0.10886202
246	0xbe151bff	-0.14561461
247	0xbd730e0f	-0.05933958
248	0xbeb326fd	-0.34990683
249	0x3e9982be	0.2998256
250	0x3e489a14	0.19590026
251	0x3dcce05f	0.10003733
252	0x3da69f85	0.08135895
253	0xbe06b3f3	-0.13154583
254	0xbd8c3b86	-0.06847291
255	0x3e67b40e	0.22627279

cav_emb.1.bias f4 [64]
0	0xbd3e868e	-0.04651504
1	0x3daa3af2	0.08312024
2	0x3d446559	0.047948215
3	0x3e5e793c	0.21725935
4	0x3cf17ea5	0.029479334
5	0xbdb131f0	-0.08652103
6	0x3c951167	0.018196775
7	0xbd86fd96	-0.065913364
8	0xbdd86f38	-0.10568088
9	0x3b3bbd3e	0.0028646733
10	0xbdad7850	-0.084702134
11	0x3d5b91da	0.05360589
12	0xbcf2969e	-0.029612835
13	0xbe1190ec	-0.1421544
14	0x3dad2949	0.0845514
15	0xbcf058eb	-0.029339274
16	0x3c1da6d6	0.009622296
17	0x3c8876b9	0.016658174
18	0xbde41e4c	-0.11138591
19	0xbdfc222a	-0.12311204
20	0xbe002b80	-0.12516594
21	0xbdb57336	-0.08859865
22	0xbdf0a6e9	-0.117505856
23	0xbcb55d28	-0.022139147
24	0xb8e9dbb6	-0.0001115123
25	0xbdcf9578	-0.10135931
26	0x3d0f230e	0.03494554
27	0xbd70d5ac	-0.058797523
28	0xbd527ccf	-0.051388558
29	0xbd4d1b6b	-0.050074976
30	0xbe565a79	-0.2093295
31	0x3d008189	0.031373534
32	0xbc139c36	-0.009009412
33	0xbd2bad01	-0.041913036
34	0x3d4ff11c	0.05076705
35	0xbcaa3b1c	-0.020780139
36	0xbcdb24bb	-0.026750913
37	0xbe11a1ab	-0.14221828
38	0x3d002367	0.031283762
39	0xbcff5da8	-0.031172588
40	0xbdc21579	-0.09476752
41	0xbd10fc82	-0.03539706
42	0xbd72a807	-0.059242275
43	0x3dc45744	0.09586957
44	0xbcd7079e	-0.02624875
45	0x3d22152e	0.03957098
46	0xbc4eee45	-0.01263005
47	0x3bb8ba3b	0.005637435
48	0xbcd5acac	-0.026083313
49	0xbe1c5362	-0.15266183
50	0x3bc545ab	0.006020268
51	0xbe23fbe1	-0.16014053
52	0xbd90ab21	-0.0706389
53	0xbde1ea80	-0.110310555
54	0xbe8f9d75	-0.28049818
55	0xbdf9ee4f	-0.12203657
56	0xbdff41e7	-0.12463742
57	0xbb47a568	-0.003046358
58	0xbca32e1b	-0.019919446
59	0xbe2a2e4f	-0.16619228
60	0x3c96c08c	0.01840236
61	0xbe269b60	-0.16270208
62	0xbd17961a	-0.037008382
63	0xbd004347	-0.03131416

att.mask f4 [1, 1, 145, 145]
0	0x3f800000	1.0
1	0x00000000	0.0
2	0x00000000	0.0
3	0x00000000	0.0
4	0x00000000	0.0
5	0x00000000	0.0
6	0x00000000	0.0
7	0x00000000	0.0
8	0x00000000	0.0
9	0x00000000	0.0
10	0x00000000	0.0
11	0x00000000	0.0
12	0x00000000	0.0
13	0x00000000	0.0
14	0x00000000	0.0
15	0x00000000	0.0
16	0x00000000	0.0
17	0x00000000	0.0
18	0x00000000	0.0
19	0x00000000	0.0
20	0x00000000	0.0
21	0x00000000	0.0
22	0x00000000	0.0
23	0x00000000	0.0
24	0x00000000	0.0
25	0x00000000	0.0
26	0x00000000	0.0
27	0x00000000	0.0
28	0x00000000	0.0
29	0x00000000	0.0
30	0x00000000	0.0
31	0x00000000	0.0
32	0x00000000	0.0
33	0x00000000	0.0
34	0x00000000	0.0
35	0x00000000	0.0
36	0x00000000	0.0
37	0x00000000	0.0
38	0x00000000	0.0
39	0x00000000	0.0
40	0x00000000	0.0
41	0x00000000	0.0
42	0x00000000	0.0
43	0x00000000	0.0
44	0x00000000	0.0
45	0x00000000	0.0
46	0x00000000	0.0
47	0x00000000	0.0
48	0x00000000	0.0
49	0x00000000	0.0
50	0x00000000	0.0
51	0x00000000	0.0
52	0x00000000	0.0
53	0x00000000	0.0
54	0x00000000	0.0
55	0x00000000	0.0
56	0x00000000	0.0
57	0x00000000	0.0
58	0x00000000	0.0
59	0x00000000	0.0
60	0x00000000	0.0
61	0x00000000	0.0
62	0x00000000	0.0
63	0x00000000	0.0
64	0x00000000	0.0
65	0x00000000	0.0
66	0x00000000	0.0
67	0x00000000	0.0
68	0x00000000	0.0
69	0x00000000	0.0
70	0x00000000	0.0
71	0x00000000	0.0
72	0x00000000	0.0
73	0x00000000	0.0
74	0x00000000	0.0
75	0x00000000	0.0
76	0x00000000	0.0
77	0x00000000	0.0
78	0x00000000	0.0
79	0x00000000	0.0
80	0x00000000	0.0
81	0x00000000	0.0
82	0x00000000	0.0
83	0x00000000	0.0
84	0x00000000	0.0
85	0x00000000	0.0
86	0x00000000	0.0
87	0x00000000	0.0
88	0x00000000	0.0
89	0x00000000	0.0
90	0x00000000	0.0
91	0x00000000	0.0
92	0x00000000	0.0
93	0x00000000	0.0
94	0x00000000	0.0
95	0x00000000	0.0
96	0x00000000	0.0
97	0x00000000	0.0
98	0x00000000	0.0
99	0x00000000	0.0
100	0x00000000	0.0
101	0x00000000	0.0
102	0x00000000	0.0
103	0x00000000	0.0
104	0x00000000	0.0
105	0x00000000	0.0
106	0x00000000	0.0
107	0x00000000	0.0
108	0x00000000	0.0
109	0x00000000	0.0
110	0x00000000	0.0
111	0x00000000	0.0
112	0x00000000	0.0
113	0x00000000	0.0
114	0x00000000	0.0
115	0x00000000	0.0
116	0x00000000	0.0
117	0x00000000	0.0
118	0x00000000	0.0
119	0x00000000	0.0
120	0x00000000	0.0
121	0x00000000	0.0
122	0x00000000	0.0
123	0x00000000	0.0
124	0x00000000	0.0
125	0x00000000	0.0
126	0x00000000	0.0
127	0x00000000	0.0
128	0x00000000	0.0
129	0x00000000	0.0
130	0x00000000	0.0
131	0x00000000	0.0
132	0x00000000	0.0
133	0x00000000	0.0
134	0x00000000	0.0
135	0x00000000	0.0
136	0x00000000	0.0
137	0x00000000	0.0
138	0x00000000	0.0
139	0x00000000	0.0
140	0x00000000	0.0
141	0x00000000	0.0
142	0x00000000	0.0
143	0x00000000	0.0
144	0x00000000	0.0
145	0x3f800000	1.0
146	0x3f800000	1.0
147	0x00000000	0.0
148	0x00000000	0.0
149	0x00000000	0.0
150	0x00000000	0.0
151	0x00000000	0.0
152	0x00000000	0.0
153	0x00000000	0.0
154	0x00000000	0.0
155	0x00000000	0.0
156	0x00000000	0.0
157	0x00000000	0.0
158	0x00000000	0.0
159	0x00000000	0.0
160	0x00000000	0.0
161	0x00000000	0.0
162	0x00000000	0.0
163	0x00000000	0.0
164	0x00000000	0.0
165	0x00000000	0.0
166	0x00000000	0.0
167	0x00000000	0.0
168	0x00000000	0.0
169	0x00000000	0.0
170	0x00000000	0.0
171	0x00000000	0.0
172	0x00000000	0.0
173	0x00000000	0.0
174	0x00000000	0.0
175	0x00000000	0.0
176	0x00000000	0.0
177	0x00000000	0.0
178	0x00000000	0.0
179	0x00000000	0.0
180	0x00000000	0.0
181	0x00000000	0.0
182	0x00000000	0.0
183	0x00000000	0.0
184	0x00000000	0.0
185	0x00000000	0.0
186	0x00000000	0.0
187	0x00000000	0.0
188	0x00000000	0.0
189	0x00000000	0.0
190	0x00000000	0.0
191	0x00000000	0.0
192	0x00000000	0.0
193	0x00000000	0.0
194	0x00000000	0.0
195	0x00000000	0.0
196	0x00000000	0.0
197	0x00000000	0.0
198	0x00000000	0.0
199	0x00000000	0.0
200	0x00000000	0.0
201	0x00000000	0.0
202	0x00000000	0.0
203	0x00000000	0.0
204	0x00000000	0.0
205	0x00000000	0.0
206	0x00000000	0.0
207	0x00000000	0.0
208	0x00000000	0.0
209	0x00000000	0.0
210	0x00000000	0.0
211	0x00000000	0.0
212	0x00000000	0.0
213	0x00000000	0.0
214	0x00000000	0.0
215	0x00000000	0.0
216	0x00000000	0.0
217	0x00000000	0.0
218	0x00000000	0.0
219	0x00000000	0.0
220	0x00000000	0.0
221	0x00000000	0.0
222	0x00000000	0.0
223	0x00000000	0.0
224	0x00000000	0.0
225	0x00000000	0.0
226	0x00000000	0.0
227	0x00000000	0.0
228	0x00000000	0.0
229	0x00000000	0.0
230	0x00000000	0.0
231	0x00000000	0.0
232	0x00000000	0.0
233	0x00000000	0.0
234	0x00000000	0.0
235	0x00000000	0.0
236	0x00000000	0.0
237	0x00000000	0.0
238	0x00000000	0.0
239	0x00000000	0.0
240	0x00000000	0.0
241	0x00000000	0.0
242	0x00000000	0.0
243	0x00000000	0.0
244	0x00000000	0.0
245	0x00000000	0.0
246	0x00000000	0.0
247	0x00000000	0.0
248	0x00000000	0.0
249	0x00000000	0.0
250	0x00000000	0.0
251	0x00000000	0.0
252	0x00000000	0.0
253	0x00000000	0.0
254	0x00000000	0.0
255	0x00000000	0.0
