route_TSC/model/0.5_astar_dqn_0315/q_netveh.pt (torch, 13650 bytes, 6 tensors)

fc1.weight f4 [64, 8]
-0.09586288 -0.10956464 -0.15802163 0.047926206 0.03591145 -0.7232733 1.095769 -0.3116328
-0.25599477 0.17598633 0.20237392 0.26095185 -0.08191803 0.39132953 -0.82521033 -0.30066508
0.16407841 0.06559799 0.0054488173 0.17167088 -0.23919931 0.17809895 0.054748967 0.08161811
0.060782738 -0.3916502 -0.52917206 -0.07675991 0.19338399 -0.5645167 0.67071867 0.014198085
-0.09334525 -0.21067816 0.16036002 0.05003552 0.04371477 -0.05655135 0.27115363 0.42441648
0.2856903 -0.080370136 0.30896294 -0.29270965 -0.14727643 -0.27482513 0.117526755 -0.043197792
-0.04803139 0.18619195 0.275726 -0.081006736 -0.3077246 0.16831556 -0.011650443 -0.3510585
0.055381864 0.09293017 -0.008702479 -0.08997333 -0.15898527 0.13985178 0.18931116 0.12026046
-0.004735917 -0.1982026 0.015920311 -0.2850909 -0.27453062 -0.2752095 -0.29843462 0.2895151
0.224576 -0.38016865 0.16242397 0.1633426 -0.08589362 0.17394233 -0.504505 0.24145621
-0.35069418 -0.33698243 -0.02711158 -0.2540003 0.1178116 -0.38352177 0.4010522 -0.07863613
0.21213083 0.028473437 -0.21856844 0.13916525 -0.34202558 0.21999557 0.28413448 0.1123444
0.38193315 -0.29069662 0.08828001 0.008832292 -0.26393825 -0.29737464 0.14883727 0.25124282
0.22795157 -0.1663855 -0.35281903 -0.3719274 0.03692581 -0.9452717 0.70524377 0.25144443
-0.11651467 -0.27520838 -0.21786991 -0.07571572 -0.21492545 0.14033666 0.13613689 0.3354605
-0.16719532 0.068570316 -0.006213039 0.22068074 -0.26841503 0.23962447 0.111418575 -0.23116565
-0.095979095 0.3741655 -0.06397782 0.1336354 -0.12863334 0.20080043 0.111332275 -0.2538232
-0.17042293 0.2730313 0.15375227 0.14974706 -0.019280843 0.23213857 0.14639053 -0.12794404
0.11524481 0.30442914 -0.14220676 -0.060990557 -0.2399914 0.28090516 0.19806434 -0.14934206
0.12437927 0.11811957 0.19779798 -0.27572048 -0.05339616 -0.3530408 0.15023994 0.13221699
0.19955024 -0.010690412 -0.18871948 0.36457437 -0.1539597 0.97003543 -0.5295353 0.044763185
-0.11369647 0.34038767 -0.09074142 -0.19885015 0.026873691 -0.67750984 0.9931664 -0.41024864
0.20510247 -0.26904103 0.2579135 -0.16501279 -0.3360015 0.28702602 0.12425181 -0.012320787
-0.201757 -0.13174923 -0.07943514 0.023864895 -0.19122028 -0.34993267 -0.26231557 0.21995261
-0.23376985 -0.14544089 0.31797728 -0.011749774 -0.23953411 -0.033406556 -0.01608181 0.05650994
0.15710683 -0.1875168 0.117842555 0.35287812 -0.0035372684 0.86477095 -1.0026568 0.47786188
-0.15813683 -0.22370493 0.19592854 -0.15921752 -0.3366026 -0.32829702 0.08769715 -0.015540093
-0.336322 -0.3447502 0.063372545 -0.16633226 0.27076265 -0.6915652 0.79319376 0.1416209
0.17185168 0.08727253 -0.010640854 0.26308087 -0.07016171 0.634511 -0.7457568 0.45080808
0.26921815 0.005357502 -0.09787674 -0.36151877 0.024802592 -0.9250384 0.84401226 -0.16000691
-0.74812657 0.16917506 0.14996861 -0.08860524 0.02221716 0.03419842 0.1819517 0.12168726
-0.10950567 0.36544397 0.083900146 0.4342823 -0.06076995 0.94259083 -1.169258 0.088004254
00000000: c253 c4bd 6d63 e0bd 6cd0 21be 454e 443d
00000010: e217 133d 7028 39bf 2942 8c3f 568e 9fbe
00000020: bf11 83be c335 343e 1c3b 4f3e 7b9b 853e
00000030: a4c4 a7bd 585c c83e fc40 53bf c6f0 99be
00000040: 2c04 283e 3d58 863d fe8b b23b 7eca 2f3e
00000050: aaf0 74be 925f 363e 7440 603d 6527 a73d
00000060: 52f7 783d 6086 c8be d277 07bf 4d34 9dbd
00000070: 7406 463e 2b84 10bf 38b4 2b3f 169f 683c
00000080: cb2b bfbd 04bc 57be 6b35 243e 0cf2 4c3d
00000090: 420e 333d 63a2 67bd a6d4 8a3e 1e4d d93e
000000a0: 0046 923e 1999 a4bd 6430 9e3e 0ade 95be
000000b0: a2cf 16be e1b5 8cbe deb1 f03d 2bf0 30bd
000000c0: 90bc 44bd 1aa9 3e3e f52b 8d3e dce6 a5bd
000000d0: 148e 9dbe ea5a 2c3e 80e1 3ebc f1bd b3be
000000e0: 18d8 623d 2c52 be3d d894 0ebc f043 b8bd
000000f0: 09cd 22be 4e35 0f3e c9da 413e 1e4b f63d
00000100: c02f 9bbb 9ff5 4abe 506b 823c 6ff7 91be
00000110: 478f 8cbe 42e8 8cbe 6ccc 98be 533b 943e
00000120: 40f7 653e 77a5 c2be 7852 263e 4843 273e
00000130: ffe8 afbd f01d 323e 3d27 01bf 4c40 773e
00000140: 308e b3be f688 acbe 1b19 debc 540c 82be
00000150: 3547 f13d f75c c4be b756 cd3e fb0b a1bd
00000160: d338 593e 2041 e93c 68d0 5fbe 5681 0e3e
00000170: fa1d afbe 8546 613e 137a 913e d214 e63d
00000180: be8c c33e 30d6 94be 26cc b43d 51b5 103c
00000190: ea22 87be 7d41 98be cc68 183e e6a2 803e
000001a0: 236c 693e f660 2abe b2a4 b4be 456d bebe
000001b0: 853f 173d 53fd 71bf db8a 343f 53bd 803e
000001c0: 3e9f eebd 1de8 8cbe 4a19 5fbe d810 9bbd
000001d0: 6b15 5cbe 6ab4 0f3e 7867 0b3e 7bc1 ab3e
000001e0: 4035 2bbe 986e 8c3d c096 cbbb 22fa 613e
000001f0: b26d 89be 1e60 753e 6c2f e43d b0b6 6cbe
00000200: b090 c4bd 9f92 bf3e ce06 83bd b8d7 083e
00000210: 75b8 03be a19e 4d3e 2d02 e43d 1df5 81be
00000220: 5983 2ebe c2ca 8b3e 3c71 1d3e 4b57 193e
00000230: dcf2 9dbc bcb5 6d3e 66e7 153e c303 03be
00000240: 7905 ec3d 23de 9b3e a69e 11be 3cd1 79bd
00000250: 4ec0 75be cdd2 8f3e 61d1 4a3e 20ed 18be
00000260: 8fba fe3d ace8 f13d 8e8b 4a3e 3c2b 8dbe
00000270: efb5 5abd c4c1 b4be 80d8 193e e463 073e
00000280: e656 4c3e d626 2fbc ae3f 41be 7ea9 ba3e
00000290: 9da7 1dbe 3e54 783f a08f 07bf 9a59 373d
000002a0: b2d9 e8bd 4b47 ae3e a3d6 b9bd 609f 4bbe
000002b0: 3726 dc3c 4971 2dbf 2740 7e3f 1c0c d2be
000002c0: 6206 523e bfbf 89be 3d0d 843e 1df9 28be
000002d0: 6308 acbe 13f5 923e bc77 fe3d 20dd 49bc
000002e0: 6399 4ebe 45e9 06be e4ae a2bd 5080 c33c
000002f0: 40cf 43be 602a b3be 3a4e 86be 423b 613e
00000300: 5d61 6fbe 75ee 14be ebcd a23e 2082 40bc
00000310: 6e48 75be 50d5 08bd 00be 83bc f876 673d
00000320: 9de0 203e 6704 40be 7057 f13d 71ac b43e
00000330: 84d1 67bb a161 5d3f 0f57 80bf 50aa f43e
00000340: 9fee 21be e812 65be 7ea1 483e eb09 23be
00000350: 2d57 acbe 8c16 a8be 909a b33d e09b 7ebc
00000360: 6632 acbe 1983 b0be 77c9 813d 0153 2abe
00000370: 67a1 8a3e 6b0a 31bf bf0e 4b3f 1205 113e
00000380: e3f9 2f3e f1bb b23d fa56 2ebc 89b2 863e
00000390: f1b0 8fbd 506f 223f ebe9 3ebf 51d0 e63e
000003a0: f6d6 893e fc8d af3b 9a73 c8bd fd18 b9be
000003b0: ce2e cb3c 51cf 6cbf 3011 583f dad8 23be
000003c0: 3985 3fbf 3a3c 2d3e 5f91 193e aa76 b5bd
000003d0: c300 b63c a413 0c3d 8c51 3a3e 2c37 f93d
000003e0: 8244 e0bd 791b bb3e d7d3 ab3d 405a de3e
000003f0: e9e9 78bd a24d 713f 3faa 95bf 933b b43d

fc1.bias f4 [64]
-0.3859497 -0.04231431 0.06109272 -0.32242513 0.36084706 -0.22696698 -0.12942293 -0.27060765
0.21062514 0.39176044 -0.179983 0.0070952894 -0.2278253 0.12314145 -0.2241876 -0.20241243
-0.009110094 -0.1673279 0.031584 -0.15028925 0.13617773 -0.1742536 -0.27660462 -0.107170835
-0.027878106 0.40024027 -0.34998015 0.28038308 0.38489792 0.059856057 0.06253869 -0.24860546
0.14310873 -0.09179381 0.16527386 -0.16380772 0.17955205 -0.3564975 0.32246977 -0.23475663
-0.46406674 -0.3507802 0.2133237 0.123659074 0.33009085 -0.15333289 -0.14350177 -0.11493972
-0.25134602 -0.16982351 -0.3934264 0.27621883 -0.14740752 -0.057246216 0.48005322 -0.3043129
-0.3174132 -0.39438707 -0.11751224 -0.108649075 -0.36331743 -0.38588977 0.14255399 -0.20007867
00000000: 339b c5be c551 2dbd 5c3c 7a3d e814 a5be
00000010: f2c0 b83e 086a 68be 7287 04be 168d 8abe
00000020: 1eae 573e d394 c83e 774d 38be 9a7f e83b
00000030: 094b 69be 9631 fc3d 6f91 65be 3445 4fbe
00000040: 8142 15bc 0158 2bbe 395e 013d 6de5 19be
00000050: 2d72 0b3e 896f 32be 1f9f 8dbe 627c dbbd
00000060: a060 e4bc 4bec cc3e 9930 b3be 5f8e 8f3e
00000070: 5711 c53e a02b 753d 4914 803d 6e92 7ebe
00000080: 188b 123e 65fe bbbd 8d3d 293e 36bd 27be
00000090: 7edc 373e d786 b6be c21a a53e 0b64 70be
000000a0: 289a edbe 7699 b3be 8771 5a3e f840 fd3d
000000b0: ab01 a93e 4c03 1dbe 21f2 12be 8465 ebbd
000000c0: 6db0 80be 37e6 2dbe 2f6f c9be 8e6c 8d3e
000000d0: fff1 16be 027b 6abd 89c9 f53e e7ce 9bbe
000000e0: fc83 a2be 1aed c9be 42aa f0bd 6883 debd
000000f0: be04 babe 5893 c5be acf9 113e 6ce1 4cbe

fc2.weight f4 [32, 64]
-0.09760573 0.043524362 -0.059421927 -0.09567129 -0.119146645 -0.024370447 0.0270672 -0.08625524
0.11427799 0.08578919 0.12353437 -0.054882556 -0.108324245 -0.101339564 0.097317085 0.027558133
0.10864631 0.04778695 0.031886205 -0.037169345 -0.06576477 -0.058335744 -0.111726984 -0.009300739
0.05491218 0.08166508 -0.07027769 -0.06352984 -0.052965026 -0.1250705 -0.054873697 0.10361359
0.0041165175 0.04686001 0.06180495 -0.08331974 0.013959095 -0.11749047 -0.14422831 0.10595952
0.027215863 -0.06917286 0.08818477 0.043659 -0.007852629 0.042412378 -0.089706704 -0.053758055
-0.11038983 -0.027382692 0.0740837 0.051697154 -0.10906291 -0.017052164 -0.083027236 -0.12033707
-0.05447933 0.08719341 -0.05133201 0.042763248 0.019933444 -0.015789112 0.027010009 0.0076739043
0.01575788 -0.089877 -0.025550948 0.03495749 -0.09876446 -0.025606845 0.013499096 0.025616698
0.09083663 -0.05655497 0.035692018 -0.02528013 0.015758691 0.16377537 -0.07460146 -0.037885368
-0.15488955 -0.12608604 -0.004292921 0.13065927 -0.1576567 0.09814349 -0.087773874 0.020843476
-0.09620914 -0.049086686 -0.051481307 0.07532337 0.017530432 0.0675827 0.025980743 -0.104965106
-0.019146584 0.042601205 -0.08237662 0.07157096 -0.10092977 0.059553664 -0.08116116 0.028754845
0.06413365 0.09971731 0.0052936217 0.07464345 0.06474291 -0.10383157 -0.029865544 -0.053246632
-0.1073985 -0.13017635 -0.16792949 -0.10630795 0.17451559 -0.07315954 -0.19519684 -0.06894696
0.10449198 0.020748418 -0.116864055 -0.20064612 0.013086325 0.025794042 -0.06989375 0.0601788
0.051497925 -0.0977369 0.20524451 0.06758474 0.0016859099 0.15641162 -0.014770567 -0.07764793
0.0644767 -0.057072207 0.011857593 -0.0036267694 0.18967153 0.15073997 0.07851885 -0.06767754
-0.021865224 -0.082386516 -0.08941833 0.10363132 -0.06369534 0.041495297 -0.015231103 -0.0810388
-0.08705093 -0.14442779 0.09029819 0.06455422 -0.042883962 -0.04514088 0.09965511 -0.31053784
0.17655404 -0.041066423 -0.11580077 0.093246356 -0.09588526 -0.048142254 -0.109834924 0.076185346
0.11147201 0.12711054 -0.1689501 -0.11942984 -0.098217025 0.04664644 -0.07623193 0.025547609
0.083074436 -0.03323544 -0.05583574 -0.056734327 0.08960227 -0.000119896606 0.026126323 -0.100932255
0.020805314 -0.019622255 0.008130774 -0.058888186 -0.006242342 -0.051097695 -0.11303724 -0.09645109
-0.013817821 0.06723454 0.07017877 -0.033785753 -0.23312306 0.030442 -0.022350743 0.0962996
-0.06184748 -0.12858619 -0.12206514 0.031105515 -0.046663895 0.061455745 0.033329606 -0.09649986
0.0064071035 -0.08616884 -0.16435295 0.124880336 0.033351563 0.15037784 -0.11942838 0.08074282
-0.07553591 -0.14939004 -0.11406711 0.06910905 -0.08898325 0.15654188 0.22803795 -0.18630853
0.069893904 0.057933476 -0.13662675 -0.01125163 0.06144707 -0.09290136 -0.07288244 -0.024831042
-0.087493874 -0.078428246 -0.20037943 0.10539774 -0.09034903 -0.011721394 0.068801634 0.10130943
0.04091454 -0.039549336 0.008242721 0.058972143 -0.05394998 0.05124396 0.17448683 0.124000475
-0.003941998 0.035250023 -0.12277721 -0.027290324 0.020449338 0.09859151 0.0882148 -0.011122763
00000000: 83e5 c7bd 9a46 323d 6864 73bd 4fef c3bd
00000010: 2803 f4bd 88a4 c7bc 08bc dd3c 96a6 b0bd
00000020: 940a ea3d 3eb2 af3d 96ff fc3d 88cc 60bd
00000030: 1ad9 ddbd 1e8b cfbd 2e4e c73d 98c1 e13c
00000040: f581 de3d 40bc 433d 1c9b 023d e23e 18bd
00000050: aeaf 86bd 76f1 6ebd 1ed1 e4bd 2062 18bc
00000060: 98eb 603d 0540 a73d c0ed 8fbd ef1b 82bd
00000070: dbf1 58bd 7b12 00be 3ec3 60bd 5d33 d43d
00000080: dae3 863b 48f0 3f3d 3027 7d3d 8aa3 aabd
00000090: b0b4 643c d89e f0bd 96b0 13be 4e01 d93d
000000a0: cdf3 de3c 80aa 8dbd 379a b43d c8d3 323d
000000b0: 50a8 00bc 9ab8 2d3d 26b8 b7bd 6831 5cbd
000000c0: 1014 e2bd ab51 e0bc 32b9 973d 65c0 533d
000000d0: 605c dfbd fbb0 8bbc 2f0a aabd 4873 f6bd
000000e0: b825 5fbd 7592 b23d 8441 52bd 8428 2f3d
000000f0: 764b a33c 2b58 81bc 1844 dd3c 6075 fb3b
00000100: ab16 813c 6f11 b8bd 3950 d1bc 962f 0f3d
00000110: 0545 cabd 72c5 d1bc 502b 5d3c 1cda d13c
00000120: 8e08 ba3d 2fa6 67bd cb31 123d 4618 cfbc
00000130: 5f18 813c bbb4 273e a6c8 98bd b02d 1bbd
00000140: 5e9b 1ebe b31c 01be a2ab 8cbb 8bcb 053e
00000150: c270 21be 74ff c83d cac2 b3bd f0bf aa3c
00000160: 4c09 c5bd 1f0f 49bd 10de 52bd 2443 9a3d
00000170: fb9b 8f3c cc68 8a3d 91d5 d43c f2f7 d6bd
00000180: 4cd9 9cbc 9a7e 2e3d 13b5 a8bd cc93 923d
00000190: 44b4 cebd 8bee 733d d237 a6bd 488f eb3c
000001a0: 8158 833d 9738 cc3d 1e76 ad3b aade 983d
000001b0: ee97 843d a5a5 d4bd 96a8 f4bc 2419 5abd
000001c0: bff3 dbbd f34c 05be b5f5 2bbe fcb7 d9bd
000001d0: 37b4 323e abd4 95bd aee1 47be 1034 8dbd
000001e0: e4ff d53d 96f8 a93c 6c56 efbd 2d76 4dbe
000001f0: 0668 563c 074e d33c 7424 8fbd 0c7e 763d
00000200: 7def 523d 492a c8bd 9e2b 523e de69 8a3d
00000210: c0f9 dc3a 5e2a 203e 4000 72bc e105 9fbd
00000220: 5c0c 843d 8cc4 69bd 5a46 423c 18af 6dbb
00000230: 4139 423e 945b 1a3e 7ece a03d 869a 8abd
00000240: b31e b3bc 43ba a8bd f520 b7bd a83c d43d
00000250: b472 82bd f9f6 293d e08b 79bc acf7 a5bd
00000260: c247 b2bd e1e4 13be 42ee b83d 0135 843d
00000270: 18a7 2fbd a5e5 38bd fa17 cc3d d1fe 9ebe
00000280: 95ca 343e 4435 28bd f428 edbd f2f7 be3d
00000290: 7e5f c4bd d030 45bd 22f1 e0bd 1007 9c3d
000002a0: 704b e43d 4429 023e 4101 2dbe a297 f4bd
000002b0: 0226 c9bd 5610 3f3d 7c1f 9cbd 3849 d13c
000002c0: ee22 aa3d e221 08bd 04b4 64bd 4162 68bd
000002d0: 6581 b73d 0071 fbb8 df06 d63c 92b5 cebd
000002e0: e86f aa3c dabe a0bc f036 053c bd34 71bd
000002f0: 8f8c ccbb d14b 51bd 1280 e7bd 2688 c5bd
00000300: 2464 62bc 43b2 893d e3b9 8f3d ee62 0abd
00000310: d0b7 6ebe 8061 f93c e818 b7bc ba38 c53d
00000320: c853 7dbd 19ac 03be 4afd f9bd fed0 fe3c
00000330: a422 3fbd 05b9 7b3d a084 083d b8a1 c5bd
00000340: aef2 d13b 4a79 b0bd 244c 28be 43c1 ff3d
00000350: a69b 083d a6fc 193e de96 f4bd 7e5c a53d
00000360: 92b2 9abd b4f9 18be 049c e9bd 0c89 8d3d
00000370: da3c b6bd 844c 203e c882 693e aac7 3ebe
00000380: 8924 8f3d a74b 6d3d e2e7 0bbe c258 38bc
00000390: ecaf 7b3d 1143 bebd 6443 95bd 786a cbbc
000003a0: fd2f b3bd fd9e a0bd 4430 4dbe c5da d73d
000003b0: ea08 b9bd 170b 40bc dfe7 8c3d 527b cf3d
000003c0: 0196 273d 7cfe 21bd 7a0c 073c c68c 713d
000003d0: a7fa 5cbd 30e5 513d adac 323e f6f3 fd3d
000003e0: e02b 81bb 5462 103d 9e72 fbbd f58f dfbc
000003f0: 5f85 a73c 58ea c93d f6a9 b43d 403c 36bc

fc2.bias f4 [32]
-0.016772563 -0.05894213 -0.076771475 0.21340972 -0.31379628 0.15518425 -0.09145923 -0.030476537
0.121068776 -0.013858411 -0.053496957 -0.11995116 0.06825139 -0.052506782 0.21193704 0.012013802
0.15143865 -0.11811618 0.29717228 -0.16492166 0.012136102 0.107555635 -0.073410906 -0.13078836
-0.03902997 -0.12269822 -0.057106085 -0.26929474 0.05375635 -0.029107302 -0.043724533 0.26990688
00000000: 9d66 89bc 4e6d 71bd 5d3a 9dbd 1488 5a3e
00000010: e8a9 a0be 9fe8 1e3e fa4e bbbd eea9 f9bc
00000020: e8f2 f73d 640e 63bc a01f 5bbd f4a8 f5bd
00000030: 62c7 8b3d 5a11 57bd 0606 593e 8ad5 443c
00000040: bc12 1b3e e5e6 f1bd f726 983e 39e1 28be
00000050: 80d6 463c 2146 dc3d 7558 96bd 62ed 05be
00000060: e4dd 1fbd 3449 fbbd 12e8 69bd 00e1 89be
00000070: 9e2f 5c3d 7072 eebc 7f18 33bd 3c31 8a3e

fc3.weight f4 [3, 32]
0.07570858 0.021457754 0.073841505 -0.040723115 -0.0051627997 -0.09953404 0.07291557 -0.09878743
-0.09934058 -0.11637082 -0.08329916 0.006563505 0.14455403 -0.1323496 -0.031891163 -0.11547204
-0.025737084 -0.14452831 -0.11236781 0.003960687 -0.0044315457 -0.11422801 0.12357919 -0.13768587
-0.09472985 0.004101015 0.044683438 0.045408595 -0.09343638 0.0077439616 -0.17373039 -0.098583944
-0.03689663 0.04321266 0.12975188 0.03457193 -0.05823664 0.01952571 0.07601111 0.12087468
-0.004981354 -0.13494001 0.062626824 -0.10892987 -0.031805217 0.043810196 0.0116248755 -0.004246486
0.11254344 0.101653114 0.005640369 0.051827066 -0.0059692496 0.089599535 0.09294589 0.124339946
0.007015452 -0.10555653 0.010053472 -0.049449593 -0.11445724 -0.0035603687 -0.0033198819 -0.04954387
-0.03304258 -0.14594308 -0.17334689 -0.01415266 -0.028539743 0.07241716 -0.15770333 0.13558576
0.04301162 -0.15426245 0.061829433 0.13861981 -0.07689216 0.060770445 -0.17010993 -0.01309317
0.089412756 -0.06402766 -0.0045582955 0.09391545 0.076879665 -0.16369244 0.10554774 0.047745567
-0.046205193 0.08009976 -0.0253788 0.037574407 -0.12532657 0.10818574 -0.14350547 -0.10452597
00000000: 1a0d 9b3d 2cc8 af3c 373a 973d 48cd 26bd
00000010: b42c a9bb 81d8 cbbd c254 953d 1051 cabd
00000020: 1373 cbbd d353 eebd c098 aabd ac12 d73b
00000030: f905 143e a786 07be 4fa0 02bd 9b7c ecbd
00000040: 94d6 d2bc 3bff 13be 1821 e6bd a7c8 813b
00000050: 8036 91bb 60f0 e9bd 1617 fd3d 86fd 0cbe
00000060: b901 c2bd cf61 863b fb05 373d 5dfe 393d
00000070: 935b bfbd 0fc1 fd3b 61e6 31be 61e6 c9bd
00000080: ec20 17bd c2ff 303d addd 043e 4c9b 0d3d
00000090: 8b89 6ebd 62f4 9f3c b6ab 9b3d 258d f73d
000000a0: a03a a3bb b72d 0abe 7e42 803d a016 dfbd
000000b0: 3046 02bd 5272 333d 4376 3e3c 1b26 8bbb
000000c0: 2d7d e63d 822f d03d d8d2 b83b 9e48 543d
000000d0: b299 c3bb f67f b73d 6a5a be3d f1a5 fe3d
000000e0: e0e1 e53b 062e d8bd 51b7 243c a88b 4abd
000000f0: 8f68 eabd 1355 69bb 6092 59bb 83ee 4abd
00000100: a857 07bd 1a72 15be d981 31be 8fe0 67bc
00000110: 2ecc e9bc 734f 943d fb7c 21be fed6 0a3e
00000120: f42c 303d faf6 1dbe dc40 7d3d 5af2 0d3e
00000130: a379 9dbd 6eea 783d 4c31 2ebe bc84 56bc
00000140: 091e b73d ef20 83bd c15d 95bb be56 c03d
00000150: 1673 9d3d fe9e 27be 6a29 d83d db90 433d
00000160: a841 3dbd 580b a43d 34e7 cfbc 9fe7 193d
00000170: 9c55 00be 7c90 dd3d 19f3 12be b611 d6bd

fc3.bias f4 [3]
-0.2546167 0.21712705 0.08936326
00000000: 1f5d 82be 8e56 5e3e 1604 b73d
