route_TSC/model/0.5_astar_dqn_0315/target_q_netveh.pt (torch, 13720 bytes, 6 tensors)

fc1.weight f4 [64, 8]
-0.048574984 -0.039927766 -0.12876819 0.05251612 -0.027766906 -0.6255863 0.8298775 -0.2957327
-0.15716082 0.20640936 0.14651874 0.2553146 -0.062099367 0.27253217 -0.71858495 -0.18730015
0.09070664 0.07024897 0.05390975 0.16082557 -0.21835455 0.19086596 0.0076904856 0.08371776
0.085500486 -0.2963194 -0.46175075 -0.022314368 0.17817308 -0.46420586 0.47114375 -0.02426964
-0.016866602 -0.22146899 0.13818882 0.03936882 0.059275202 -0.020867711 0.22068709 0.35734183
0.20376381 -0.014789612 0.260769 -0.25504985 -0.060045786 -0.18625247 0.101436056 -0.072153
-0.007412948 0.099731475 0.16304092 -0.04555708 -0.23785707 0.13395745 0.023894968 -0.27391535
0.10025571 0.013658428 -0.015746089 -0.06381776 -0.09195761 0.11893003 0.17155007 0.13029751
-0.0033242758 -0.1580896 -0.029841939 -0.17767048 -0.20197225 -0.19413619 -0.18749395 0.17973985
0.21674272 -0.31975204 0.07273142 0.1649493 -0.083395526 0.18598747 -0.42478272 0.25996298
-0.30125332 -0.27262893 -0.081858315 -0.23471262 0.12107888 -0.36561453 0.29997677 -0.016699607
0.14425725 0.012492755 -0.14750902 0.16058242 -0.33734673 0.24254628 0.21795884 0.041974254
0.37500873 -0.19295454 0.101882115 0.0030694674 -0.21599603 -0.20014353 0.118005544 0.2245744
0.15628067 -0.08511735 -0.29529634 -0.30115068 0.075325474 -0.727535 0.49865168 0.15941785
-0.10219915 -0.22427715 -0.1882539 -0.09913254 -0.20164321 0.13230743 0.06412116 0.26156628
-0.096772335 0.1102095 -0.022779835 0.12970339 -0.23621538 0.13274363 0.07760217 -0.22896391
-0.14073814 0.26735657 0.007105719 0.07477054 -0.14392026 0.12404309 0.07705372 -0.24946113
-0.18165272 0.19913058 0.092316575 0.13050815 -0.060335457 0.19629566 0.07684464 -0.10485094
0.05781905 0.19576679 -0.18089923 -0.04508503 -0.13641946 0.2550332 0.17798124 -0.16825265
0.09068123 0.06559453 0.16090791 -0.23005629 -0.08254055 -0.2169941 0.06120766 0.090029545
0.14235874 -0.060182717 -0.14211674 0.29776236 -0.1750527 0.75769746 -0.47208574 0.07184408
-0.12912709 0.22678822 -0.04877565 -0.1877466 0.03731205 -0.48039207 0.74966824 -0.3373766
0.1981752 -0.27436134 0.26453012 -0.07587294 -0.30775473 0.24055803 0.13868062 -0.029203413
-0.14173868 -0.06898278 -0.10962643 8.701729e-05 -0.19646527 -0.22780707 -0.1998603 0.18292098
-0.2053899 -0.13921124 0.27021706 0.01886213 -0.25751075 -0.010938603 0.024476837 -0.0012347407
0.08638657 -0.12171475 0.034381703 0.28428242 0.05693359 0.66838735 -0.7927705 0.36187938
-0.12899339 -0.21884768 0.11806053 -0.17801756 -0.29341462 -0.28591433 0.084232755 0.04686807
-0.31789705 -0.30599052 7.5549397e-06 -0.18875034 0.17302279 -0.5307194 0.63320357 0.09535674
0.1946932 0.043893535 -0.0135309575 0.22066581 -0.00599777 0.51558524 -0.58902967 0.32877004
0.17789091 -0.046292614 -0.047290064 -0.25190806 0.06897217 -0.77360237 0.7064814 -0.071430594
-0.5458778 0.14551973 0.090102196 -0.044832464 0.033522207 0.038453914 0.08738011 0.1413176
-0.11212023 0.31107056 0.08714307 0.30605012 -0.068200424 0.75913507 -0.86851805 0.01431139
00000000: 90f6 46bd 4c8b 23bd cfdb 03be 251b 573d
00000010: 6c77 e3bc 6c26 20bf da72 543f 476a 97be
00000020: c4ee 20be fa5c 533e 0209 163e 98b8 823e
00000030: e85b 7ebd 5689 8b3e 2ff5 37bf 9ccb 3fbe
00000040: 67c4 b93d b1de 8f3d 78d0 5c3d 75af 243e
00000050: 5698 5fbe 5e72 433e 7800 fc3b 3874 ab3d
00000060: e11a af3d 2db7 97be 986a ecbe 9fcc b6bc
00000070: 0173 363e 64ac edbe c139 f13e 20d1 c6bc
00000080: d42b 8abc c4c8 62be 5f81 0d3e 3341 213d
00000090: 8eca 723d c3f2 aabc ccfb 613e 82f5 b63e
000000a0: 76a7 503e 2150 72bc 8483 853e e595 82be
000000b0: 92f2 75bd f8b8 3ebe b5bd cf3d f4c4 93bd
000000c0: 51e8 f2bb 0440 cc3d 33f4 263e 109a 3abd
000000d0: ce90 73be 242c 093e 61bf c33c a23e 8cbe
000000e0: de52 cd3d 99c7 5f3c f1fd 80bc e3b2 82bd
000000f0: 4554 bcbd 9691 f33d d2aa 2f3e b66c 053e
00000100: 18dc 59bb 3de2 21be 1577 f4bc 40ef 35be
00000110: d0d1 4ebe a3cb 46be 6afe 3fbe b90d 383e
00000120: cef1 5d3e 8ab6 a3be 36f4 943d 78e8 283e
00000130: 46cb aabd 8073 3e3e 1f7d d9be de19 853e
00000140: e03d 9abe 0596 8bbe 55a5 a7bd 8158 70be
00000150: 34f8 f73d d431 bbbe 8e96 993e 9dcd 88bc
00000160: 2cb8 133e 6aae 4c3c 9b0c 17be b86f 243e
00000170: b6b8 acbe 0d5e 783e 9a30 5f3e 32ed 2b3d
00000180: 2501 c03e e095 45be 92a7 d03d 1e29 493b
00000190: 102e 5dbe 6df2 4cbe e4ac f13d d5f6 653e
000001a0: 0a08 203e 0152 aebd 1531 97be 6c30 9abe
000001b0: 3e44 9a3d bc3f 3abf 464f ff3e 6f3e 233e
000001c0: ca4d d1bd e9a8 65be a1c5 40be 0006 cbbd
000001d0: 8f7b 4ebe 997b 073e f451 833d 04ec 853e
000001e0: 9330 c6bd 85b5 e13d c79c babc f7d0 043e
000001f0: 72e2 71be f2ed 073e e3ed 9e3d 8475 6abe
00000200: a91d 10be f6e2 883e 17d7 e83b 4c21 993d
00000210: d55f 13be 4e0a fe3d 57ce 9d3d bd72 7fbe
00000220: 2c03 3abe e3e8 4b3e 7910 bd3d eea3 053e
00000230: 5022 77bd bb01 493e b960 9d3d 17bc d6bd
00000240: abd3 6c3d 1777 483e a63d 39be 15ab 38bd
00000250: 8bb1 0bbe b693 823e b740 363e 6c4a 2cbe
00000260: 15b7 b93d 6d56 863d 0bc5 243e e093 6bbe
00000270: 050b a9bd b433 5ebe e2b4 7a3d 6961 b83d
00000280: 7dc6 113e 2782 76bd 0d87 11be 4f74 983e
00000290: 0441 33be 76f8 413f 39b5 f1be fd22 933d
000002a0: e439 04be 2c3b 683e fac8 47bd a540 40be
000002b0: 85d4 183d f3f5 f5be 42ea 3f3f a0bc acbe
000002c0: 71ee 4a3e 1779 8cbe 7e70 873e 4663 9bbd
000002d0: 0792 9dbe d854 763e 4b02 0e3e ff3b efbc
000002e0: f223 11be d846 8dbd d283 e0bd 0d7d b638
000002f0: 312e 49be 4246 69be 2ea8 4cbe a34f 3b3e
00000300: bb51 52be 648d 0ebe e459 8a3e c184 9a3c
00000310: 73d8 83be d437 33bc a683 c83c 06d7 a1ba
00000320: 71eb b03d 9545 f9bd d4d3 0c3d 778d 913e
00000330: 3233 693d 6f1b 2b3f 02f3 4abf 4148 b93e
00000340: d816 04be 9b19 60be b8c9 f13d 3c4a 36be
00000350: 713a 96be 5d63 92be 3982 ac3d bcf8 3f3d
00000360: 67c3 a2be caaa 9cbe 7080 fd36 c547 41be
00000370: e32c 313e 3add 07bf a119 223f 654a c33d
00000380: a75d 473e b5c9 333d f3b0 5dbc 38f6 613e
00000390: f188 c4bb 65fd 033f a6ca 16bf 8c54 a83e
000003a0: 0929 363e 539d 3dbd 3ab3 41bd 18fa 80be
000003b0: 4841 8d3d ce0a 46bf f7db 343f 344a 92bd
000003c0: a6be 0bbf 2003 153e 8087 b83d 3fa2 37bd
000003d0: 954e 093d da81 1d3d 58f4 b23d 90b5 103e
000003e0: 4b9f e5bd a444 9f3e 1178 b23d 9ab2 9c3e
000003f0: aaac 8bbd ad56 423f 3357 5ebf 527a 6a3c

fc1.bias f4 [64]
-0.274228 -0.04573048 0.08097228 -0.26819688 0.34281117 -0.21195297 -0.06939313 -0.22924018
0.1656235 0.32889608 -0.2009782 0.04150471 -0.2430777 0.04731142 -0.14574197 -0.18344785
0.0453819 -0.18679626 -0.034904003 -0.13979724 0.14024164 -0.12508595 -0.21962343 -0.050263252
-0.051377002 0.27814752 -0.23982239 0.21991825 0.34702522 0.08082794 0.014749959 -0.25898254
0.09937103 -0.031495683 0.15224278 -0.1144472 0.09965794 -0.2985222 0.32334435 -0.15499504
-0.36166465 -0.3209124 0.22327708 0.12067228 0.31535023 -0.14159663 -0.1652865 -0.13315459
-0.17212544 -0.13401368 -0.26659942 0.17347421 -0.16980606 -0.04522042 0.40607762 -0.23355371
-0.2324269 -0.32314962 -0.103072174 -0.079136916 -0.35157 -0.3462489 0.10831726 -0.21456283
00000000: 9d67 8cbe e24f 3bbd cbd4 a53d 1a51 89be
00000010: f284 af3e 330a 59be fc1d 8ebd f0bd 6abe
00000020: 3599 293e 1165 a83e 3bcd 4dbe d800 2a3d
00000030: 5ce9 78be 9fc9 413d 623d 15be c1d9 3bbe
00000040: 5fe2 393d 8547 3fbe 80f7 0ebd 0227 0fbe
00000050: 819b 0f3e 8816 00be f7e4 60be d7e0 4dbd
00000060: b170 52bd 5a69 8e3e 0094 75be 4032 613e
00000070: 4aad b13e 1e89 a53d d0a9 713c 5c99 84be
00000080: 0a83 cb3d 9e01 01bd 88e5 1b3e 4b63 eabd
00000090: 7619 cc3d e7d7 98be 648d a53e 05b7 1ebe
000000a0: 1c2c b9be a14e a4be bfa2 643e 0723 f73d
000000b0: 9675 a13e b5fe 10be dd40 29be ad59 08be
000000c0: a741 30be e23a 09be b87f 88be 39a3 313e
000000d0: a4e1 2dbe 0c39 39bd 68e9 cf3e b428 6fbe
000000e0: 5101 6ebe de73 a5be 8117 d3bd 8912 a2bd
000000f0: fc00 b4be 8947 b1be 71d5 dd3d 5cb6 5bbe

fc2.weight f4 [32, 64]
-0.096297435 0.036515936 -0.05455188 -0.08587689 -0.118262045 -0.03040908 0.026241602 -0.08422449
0.11445689 0.0793327 0.097579755 -0.040752165 -0.080825806 -0.09231957 0.08674561 0.015118789
0.090190016 0.016090713 0.040854614 -0.02336984 -0.059127003 -0.04755742 -0.07677815 2.2297365e-05
0.034611765 0.052290298 -0.043331318 -0.030645447 -0.044838525 -0.086583324 -0.067475535 0.091030255
0.019898893 0.016831119 0.07265239 -0.05749458 0.016981784 -0.10085418 -0.12871625 0.0831858
0.031730138 -0.06903685 0.05092984 0.044016335 -0.014109563 0.029888606 -0.091444865 -0.06455271
-0.072784685 -0.01880467 0.06370664 0.020977452 -0.07326319 -0.03050633 -0.055051304 -0.090196885
-0.026931299 0.061910395 -0.046453252 0.028291676 0.018543549 -0.011669087 0.040870987 -0.00468289
0.027920866 -0.0631131 -0.009772753 0.032033335 -0.071959056 -0.00524328 0.0062672812 0.017360562
0.06684062 -0.06481078 0.0327585 -0.010467964 0.016282322 0.15550208 -0.045191113 -0.023814285
-0.13001792 -0.08672205 0.0095734075 0.12407417 -0.1455931 0.08340442 -0.08033481 0.03695304
-0.094593845 -0.022207363 -0.037559636 0.077166714 0.035532415 0.05500978 0.016467297 -0.0679788
-0.03326893 0.032989908 -0.06070163 0.05296226 -0.09639286 0.06449768 -0.07555391 0.022168549
0.051807214 0.08288162 0.012825021 0.04299193 0.037807643 -0.086937204 -0.01365177 -0.024461063
-0.07994068 -0.113522865 -0.1444911 -0.0636286 0.12200899 -0.08117104 -0.1596476 -0.058832005
0.10240541 0.023550559 -0.11657247 -0.17245369 0.018055666 0.0077535817 -0.053805195 0.040590577
0.057394784 -0.093515165 0.15380926 0.0777192 0.014839707 0.14406288 -0.00819906 -0.06398313
0.05048378 -0.028131746 -0.013579363 0.00486929 0.17067678 0.10901679 0.08687453 -0.07707447
-0.03942308 -0.050212543 -0.06870432 0.09657358 -0.051127706 0.032367133 -0.034762662 -0.08245427
-0.08271554 -0.1273647 0.058767688 0.052709248 -0.036121335 -0.03233407 0.08209918 -0.24209982
0.14203656 -0.0131878005 -0.07432082 0.08798058 -0.091141075 -0.017123625 -0.089535154 0.058689836
0.08256031 0.09838291 -0.12063715 -0.07811141 -0.07961673 0.047372185 -0.059201393 0.04225952
0.07915697 -0.03199903 -0.027964143 -0.025873784 0.08818284 0.017254539 0.036808923 -0.07062347
0.0014815882 -0.008975293 0.009390276 -0.050765444 0.0066798846 -0.04902642 -0.106739126 -0.07108907
-0.0074797412 0.077727795 0.051152326 -0.028749188 -0.1702268 0.032942105 -0.030626042 0.072350085
-0.06866335 -0.12053662 -0.10329191 0.025871893 -0.033973522 0.028748168 0.016436642 -0.087797925
-0.00025726363 -0.072885826 -0.11134578 0.117102645 0.031464506 0.12840542 -0.11919023 0.07983096
-0.05554529 -0.1376407 -0.09817195 0.07666187 -0.053672083 0.14404441 0.20270048 -0.14497712
0.058230415 0.052224435 -0.12110814 -0.02316619 0.05612856 -0.097918056 -0.04463909 -0.026648564
-0.088482045 -0.05853247 -0.14605741 0.07521422 -0.09075643 0.003266469 0.070133135 0.09024845
0.019937051 -0.03295274 0.013099281 0.036712058 -0.054351587 0.042738814 0.12731591 0.120680004
-0.008522054 0.035786964 -0.09276539 -0.0042590844 0.02205689 0.10238915 0.086201124 -0.018174933
00000000: 9737 c5bd bc91 153d cb71 5fbd 39e0 afbd
00000010: 5f33 f2bd 771c f9bc a1f8 d63c e47d acbd
00000020: 6068 ea3d 2f79 a23d e5d7 c73d beeb 26bd
00000030: 0088 a5bd 0b12 bdbd afa7 b13d ccb4 773c
00000040: 8bb5 b83d acd0 833c 2b57 273d 1b72 bfbc
00000050: 282f 72bd 92cb 42bd dd3d 9dbd 3a0b bb37
00000060: 11c5 0d3d 5a2e 563d 2e7c 31bd 290c fbbc
00000070: 9aa8 37bd 9952 b1bd 9d30 8abd 126e ba3d
00000080: 0103 a33c 6ae1 893c c7ca 943d 707f 6bbd
00000090: 621d 8b3c a38c cebd 31ce 03be 515d aa3d
000000a0: 76f7 013d 3163 8dbd cf9b 503d 794a 343d
000000b0: cc2b 67bc f3d8 f43c 7247 bbbd 3634 84bd
000000c0: 2310 95bd 400c 9abc a078 823d e8d8 ab3c
000000d0: 030b 96bd 69e8 f9bc 7a7d 61bd 25b9 b8bd
000000e0: 079f dcbc c195 7d3d c445 3ebd f2c3 e73c
000000f0: a4e8 973c b32f 3fbc 5668 273d ee72 99bb
00000100: 4dba e43c 7141 81bd e61d 20bc 6335 033d
00000110: 455f 93bd d2cf abbb c45d cd3b bd37 8e3c
00000120: bce3 883d 84bb 84bd c72d 063d d381 2bbc
00000130: 8162 853c f03b 1f3e 511a 39bd 2d16 c3bc
00000140: 6b23 05be 559b b1bd c8d9 1c3c 991a fe3d
00000150: 5c16 15be f0cf aa3d 9486 a4bd 125c 173d
00000160: 6bba c1bd 37ec b5bc 22d8 19bd 9509 9e3d
00000170: 708a 113d ef51 613d 6de6 863c 7838 8bbd
00000180: 0045 08bd 6d20 073d 46a2 78bd f4ee 583d
00000190: 9f69 c5bd 5c17 843d 02bc 9abd d19a b53c
000001a0: cd33 543d d7bd a93d 0920 523c 4e18 303d
000001b0: 30dc 1a3d 220c b2bd acab 5fbc 9162 c8bc
000001c0: f0b7 a3bd ad7e e8bd 7af5 13be b64f 82bd
000001d0: d9df f93d 013d a6bd a97a 23be d4f9 70bd
000001e0: edb9 d13d 1aed c03c 8cbd eebd b397 30be
000001f0: 7ae9 933c c211 fe3b d662 5cbd 4e42 263d
00000200: cb16 6b3d e184 bfbd 2d80 1d3e 3e2b 9f3d
00000210: 3e22 733c 3885 133e 5a55 06bc 9609 83bd
00000220: 15c8 4e3d 8c74 e6bc fa7b 5ebc 918e 9f3b
00000230: e5c5 2e3e 3244 df3d 46eb b13d 38d9 9dbd
00000240: 187a 21bd abab 4dbd dab4 8cbd 5ec8 c53d
00000250: 496b 51bd 6693 043d 4b63 0ebd c9dd a8bd
00000260: c466 a9bd e46b 02be 63b6 703d a7e5 573d
00000270: f7f3 13bd bb70 04bd 9d23 a83d 04e9 77be
00000280: 0872 113e a511 58bc 8435 98bd 2a2f b43d
00000290: 2ca8 babd d846 8cbc 355e b7bd c164 703d
000002a0: 6115 a93d fb7c c93d 9c10 f7bd e0f8 9fbd
000002b0: 190e a3bd 5609 423d 297d 72bd 5218 2d3d
000002c0: 0d1d a23d 6a11 03bd 0f15 e5bc 42f5 d3bc
000002d0: 3499 b43d 6459 8d3c f4c4 163d 0aa3 90bd
000002e0: da31 c23a 1b0d 13bc acd9 193c 6def 4fbd
000002f0: efe2 da3b edcf 48bd 0b9a dabd 2597 91bd
00000300: 9e18 f5bb c02f 9f3d 1a85 513d 6b83 ebbc
00000310: ef4f 2ebe 4dee 063d 77e3 fabc 482c 943d
00000320: 5f9f 8cbd e7db f6bd b58a d3bd 4bf1 d33c
00000330: d227 0bbd 4781 eb3c 23a6 863c 66cf b3bd
00000340: 57e1 86b9 2a45 95bd 4209 e4bd 83d3 ef3d
00000350: ede0 003d b67c 033e 021a f4bd 6a7e a33d
00000360: 7583 63bd aff1 0cbe 600e c9bd e600 9d3d
00000370: 42d7 5bbd 6180 133e b790 4f3e e274 14be
00000380: 0483 6e3d 4ae9 553d 8b07 f8bd 06c7 bdbc
00000390: 10e7 653d 4389 c8bd 7ad7 36bd 174e dabc
000003a0: 1336 b5bd bebf 6fbd 1390 15be ea09 9a3d
000003b0: 82de b9bd 4212 563b f6a1 8f3d 2ed4 b83d
000003c0: 0753 a33c 74f9 06bd 5e9e 563c 625f 163d
000003d0: c59f 5ebd e50e 2f3d 1a5f 023e 1427 f73d
000003e0: 16a0 0bbc 5a95 123d c8fb bdbd ca8f 8bbb
000003f0: a7b0 b43c 67b1 d13d 378a b03d 99e3 94bc

fc2.bias f4 [32]
-0.033533636 -0.059694383 -0.07306205 0.18940708 -0.26738957 0.12977795 -0.06335168 -0.025878986
0.10408426 -0.025393406 -0.022660552 -0.092712246 0.046358738 -0.022826925 0.15856059 0.010193167
0.104567215 -0.09752784 0.23864926 -0.13847274 0.015619204 0.096401826 -0.04764712 -0.10579405
-0.039875414 -0.10719849 -0.048110183 -0.212404 0.027888874 0.0003221566 -0.016207282 0.20558816
00000000: 915a 09bd 1982 74bd 8ea1 95bd eef3 413e
00000010: 49e7 88be 83e4 043e 87be 81bd 2b00 d4bc
00000020: 212a d53d d505 d0bc 9fa2 b9bc ebdf bdbd
00000030: a9e2 3d3d 88ff babc b55d 223e 3e01 273c
00000040: 5627 d63d adbc c7bd 7960 743e cccb 0dbe
00000050: b1e7 7f3c 526e c53d a029 43bd 8daa d8bd
00000060: 6754 23bd e28a dbbd 2f0f 45bd 6f80 59be
00000070: 3577 e43c 20e7 a839 22c5 84bc b485 523e

fc3.weight f4 [3, 32]
0.081571676 -0.011500663 0.03654209 -0.0037132641 -0.022991888 -0.10368925 0.083391726 -0.08782625
-0.07087112 -0.08894011 -0.06623124 0.036791086 0.107466586 -0.110677205 -0.043885168 -0.084632106
-0.038081896 -0.11342215 -0.098829694 -0.0014266004 -0.03073014 -0.065870546 0.08072017 -0.10290422
-0.08192888 -0.009068823 0.061295174 0.0093347095 -0.05139622 0.027563874 -0.1558242 -0.11097815
0.0010609322 0.018758493 0.11951663 0.049319986 -0.06069314 0.035584945 0.061174035 0.10428204
-0.004097863 -0.13207634 0.07514174 -0.075794876 -0.004027871 0.033147678 -0.011668499 0.024642805
0.11480559 0.076463304 0.003860961 0.044919897 0.016473625 0.09351678 0.1004155 0.07697645
-0.025042772 -0.073916435 0.036905635 -0.054974306 -0.10561224 0.02737798 -0.0037433729 -0.030033302
-0.016454589 -0.117890455 -0.14333147 -0.036795244 -0.0036312875 0.084019 -0.10741215 0.10429645
0.06052641 -0.13413313 0.0768065 0.08926796 -0.052009046 0.048710696 -0.120287836 0.009897015
0.06947015 -0.038743414 2.9971663e-05 0.07536493 0.032083552 -0.12598129 0.0854207 0.025593229
-0.01925865 0.08568313 -0.04088396 0.040452655 -0.06965436 0.05972157 -0.12157633 -0.0744076
00000000: 0d0f a73d 476d 3cbc 29ad 153d 3c5a 73bb
00000010: 7c59 bcbc 085b d4bd 48c9 aa3d 40de b3bd
00000020: e124 91bd 3b26 b6bd 3fa4 87bd 40b2 163d
00000030: 7117 dc3d bbaa e2bd efc0 33bd 9953 adbd
00000040: c3fb 1bbd df49 e8bd 3967 cabd c4fc baba
00000050: c6bd fbbc 23e7 86bd 9e50 a53d 73bf d2bd
00000060: 54ca a7bd 6795 14bc a610 7b3d 9cf0 183c
00000070: d884 52bd a2cd e13c 6190 1fbe 8348 e3bd
00000080: fa0e 8b3a 69ab 993c 23c5 f43d c103 4a3d
00000090: 5f99 78bd 85c1 113d a091 7a3d d291 d53d
000000a0: 5e47 86bb 053f 07be eae3 993d 583a 9bbd
000000b0: 3bfc 83bb dcc5 073d 3b2d 3fbc b5df c93c
000000c0: 311f eb3d cb98 9c3d 2d08 7d3b edfd 373d
000000d0: b2f3 863c ba85 bf3d a4a6 cd3d d4a5 9d3d
000000e0: 8026 cdbc 8061 97bd 5d2a 173d bd2c 61bd
000000f0: 3b4b d8bd c947 e03c 6053 75bb 6608 f6bc
00000100: c6cb 86bc 8d70 f1bd 7cc5 12be 9cb6 16bd
00000110: e5fa 6dbb 2712 ac3d e7fa dbbd 6199 d53d
00000120: 8aea 773d 325a 09be ba4c 9d3d 1fd2 b63d
00000130: 7007 55bd de84 473d 7859 f6bd 1727 223c
00000140: 5e46 8e3d 6ab1 1ebd a86b fb37 ee58 9a3d
00000150: 0b6a 033d 3d01 01be 0cf1 ae3d e4a8 d13c
00000160: 51c4 9dbc a37a af3d f075 27bd afb1 253d
00000170: f2a6 8ebd 9b9e 743d 03fd f8bd 0363 98bd

fc3.bias f4 [3]
-0.16861992 0.18147336 0.07006924
00000000: b3aa 2cbe 27d4 393e 7680 8f3d
