route_TSC/model/0.5_hatt_router_joint_0315/ep30/q_netveh.pt (torch, 510246 bytes, 26 tensors)

attn f4 [1, 2, 37]
00000000: 8001 8850 f905 0000 0000 0000 0000 0000
00000010: 0000 0000 0000 0000 0000 0000 0000 0000
00000020: 0000 0000 0000 0000 0000 0000 0000 0000
00000030: 0000 0000 0000 0000 0000 0000 0000 0000
00000040: 0000 0000 0000 0000 0000 0000 0000 0000
00000050: 0000 0000 0000 0000 0000 0000 0000 0000
00000060: 0000 0000 0000 0000 0000 0000 0000 0000
00000070: 0000 0000 0000 0000 0000 0000 0000 0000
00000080: 0000 0000 0000 0000 0000 0000 0000 0000
00000090: 0000 0000 0000 0000 0000 0000 0000 0000
000000a0: 0000 0000 0000 0000 0000 0000 0000 0000
000000b0: 0000 0000 0000 0000 0000 0000 0000 0000
000000c0: 0000 0000 0000 0000 0000 0000 0000 0000
000000d0: 0000 0000 0000 0000 0000 0000 0000 0000
000000e0: 0000 0000 0000 0000 0000 0000 0000 0000
000000f0: 0000 0000 0000 0000 0000 0000 0000 0000
00000100: 0000 0000 0000 0000 0000 0000 0000 0000
00000110: 0000 0000 0000 0000 0000 0000 0000 0000
00000120: 0000 0000 0000 0000
1.8254397e+10 2.143e-42 0.0 0.0 0.0 0.0 0.0 0.0
0.0 0.0 0.0 0.0 0.0 0.0 0.0 0.0
0.0 0.0 0.0 0.0 0.0 0.0 0.0 0.0
0.0 0.0 0.0 0.0 0.0 0.0 0.0 0.0
0.0 0.0 0.0 0.0 0.0 0.0 0.0 0.0
0.0 0.0 0.0 0.0 0.0 0.0 0.0 0.0
0.0 0.0 0.0 0.0 0.0 0.0 0.0 0.0
0.0 0.0 0.0 0.0 0.0 0.0 0.0 0.0
0.0 0.0 0.0 0.0 0.0 0.0 0.0 0.0
0.0 0.0

fc0.weight f4 [32, 2315]
00000000: 0ccb 8ebb 7e6c 103c 6071 9d3c 8858 d83b
00000010: a0cf 973c f9c0 0abc d484 9f3c ffbc 30bc
00000020: fc32 8f3c f6ef 2a3c d0ec d4ba 20dd 8c3c
00000030: 4072 623a 948c a43c 785e a83c f672 a33c
00000040: 9fbc a9bc e2e4 a2bc 727b 273c c4c1 b43b
00000050: 5393 a6bc b4ef 693c 007b 4bba a654 8e3c
00000060: 6d4b 9abc 0c75 623c 10c9 7ebb 6052 d33a
00000070: 4c9a 553c 2a4e 25bc 849c d1bb da4f 9ebc
00000080: 9884 6d3b 6857 dfbb fa4e 44bc 301c 43bc
00000090: c676 a33c 544b b13b 001d 8c3c 62ed 06bc
000000a0: 9082 7dbc 102c c13b d0b0 443c 9278 bebb
000000b0: 2007 a2ba 4005 6cbc ec40 a2bc 6066 493a
000000c0: 68f0 043c 940a 80bb a41f e2bb 90c7 c93b
000000d0: f4e7 0c3c 88c6 a23c 2052 923a b4f8 63bc
000000e0: 3e4b adbb a032 37bb 1cb7 b8bb 68cd 373c
000000f0: 8cc7 e83b ac52 5a3c 9d86 75bc ac9b 683c
00000100: 280c f2bb 820b 6dbc a0d2 d33b fead 64bc
00000110: d409 6c3c c412 313c a3e9 81bc 1b6e 4cbc
00000120: 4438 e63b 5026 14bc 0cb5 343c bc62 8c3b
00000130: cc7d 63bc 801c 933c 7c4b c93b a6fd 963c
00000140: 608f 01ba 209a 66bb 9c41 fa3b 70cb fdba
00000150: c6b2 a8bc 29f4 9fbc e00c 41bc a2af 9abc
00000160: f003 a0bb c658 8ebc 00d9 c53b da83 9fbc
00000170: a036 6fbb d154 94bc b35e 94bc 5052 7e3c
00000180: c0ed 223c 78c2 dd3b 0047 993c a61d 863c
00000190: 1634 edbb 88c0 633c 2818 7ebb d2c0 133c
000001a0: 5cac c2bb 6840 2a3b 8090 65ba faac 8dbc
000001b0: bee4 74bc 6886 173c 7628 b2bb d8bb 0fbb
000001c0: 1099 523c add6 01bc d137 09bc 534b 7ebc
000001d0: 1cf5 493c 981f 273c 680d 0bbb e4de 003c
000001e0: 5f7d 4abc 60b9 51bc 1a70 8e3c 703a a1ba
000001f0: e211 37bc 8ca2 353c 34fd 323c b005 6dbb
00000200: 5c47 fe3b f8a1 873b a87a 4f3c 901e eeba
00000210: 5068 d83a d8f3 cbbb a665 173c 60ae 693a
00000220: cc5e d93b 0cc6 87bc e4e4 88bc 8003 81ba
00000230: aab9 89bc a024 99bb d161 89bc 74c2 603c
00000240: d82c 8b3b 345a 56bc c480 893c 1a1b 993c
00000250: dcdd e63b 403b 373b fae8 dbbb d40c cfbb
00000260: 0a81 8c3c bcd7 213c 69a4 80bc 605e 413c
00000270: 4038 5abb 6c1c 5d3c f7e2 23bc 1897 5e3b
00000280: 397e 27bc d0e2 a33c a065 513a 102c 5f3b
00000290: ec24 f3bb 109b 49bb 58a8 413b e8f1 df3b
000002a0: 60b1 95bb a018 7f3b 200d 183c f4d3 7bbc
000002b0: 70fb 603b f075 673b b041 853b e88a e93b
000002c0: e831 79bb 4008 aeba 2aa4 a3bc 5424 8c3c
000002d0: a094 8bbc b5aa 41bc 6e18 8ebc 0ef1 c5bb
000002e0: 22e9 81bc 141b 14bc 2dcc 9ebc 14be 283c
000002f0: 2140 8abc 30d7 9bba d2a5 28bc 123e 0f3c
00000300: 90d6 7c3c 5bbf 69bc 78ca 6cbb 7047 3b3b
00000310: 48e8 043b 9461 483c 93c1 1dbc 707d d63a
00000320: 8039 cd3b a0fa 3c3a d0cc 683c 7c58 623c
00000330: b83f 91bc 10ee c93b 302c 103c 5c99 87bc
00000340: b870 053b 5cec 853c 84d3 973c 1450 7e3c
00000350: c0bf 8f3c 8e54 8fbc 8c92 38bc b879 99bc
00000360: ce84 9a3c 2046 663c 4d5a 86bc 107c 223c
00000370: ec01 06bc 30ef b8ba 002c 7a38 34e6 493c
00000380: 569b 863c c413 d93b af08 9abc 1c08 dcbb
00000390: 86f0 63bc 1cbb 8f3c 60c4 313b c05c b3b9
000003a0: 81e7 a3bc 0c76 623c fc07 85bc d469 fcbb
000003b0: c6f5 5cbc e49b 753c 209d 90ba c819 edbb
000003c0: 380c 723b 2080 953b 271b 9bbc f6b9 1f3c
000003d0: 80e6 d239 8c1e 9cbc 52cc fcbb e8ea 5b3c
000003e0: 4001 7b3c 7801 423c f6c5 a93c 4879 df3b
000003f0: 2082 1fba 2240 85bc 4ddf 78bc a003 adbb
-0.004357701 0.008814929 0.0192191 0.0066023506 0.01853162 -0.00846886 0.019472517 -0.010787248
0.017480366 0.010433188 -0.0016244892 0.017195284 0.00086382404 0.020086564 0.020552859 0.019952279
-0.020719824 -0.01988453 0.010222303 0.0055162627 -0.020333922 0.014278341 -0.0007762164 0.017374348
-0.018834794 0.013821851 -0.0038877167 0.0016122572 0.0130372755 -0.010089437 -0.006396832 -0.019325186
0.0036242362 -0.0068158396 -0.01198172 -0.011908576 0.019954097 0.005410591 0.017103672 -0.008235307
-0.015473023 0.0058951452 0.012005046 -0.005812713 -0.0012361743 -0.014405549 -0.019806348 0.00076827966
0.008113958 -0.003907511 -0.0069007445 0.006157823 0.008600224 0.019870058 0.0011163391 -0.013914276
-0.0052885106 -0.0027953759 -0.0056370627 0.011218406 0.007103866 0.013325375 -0.014985708 0.014197271
-0.007386703 -0.014468076 0.0064643174 -0.013957499 0.01440664 0.010807697 -0.015858477 -0.012477423
0.0070257504 -0.009042338 0.011029493 0.004284231 -0.013884973 0.017957926 0.0061430316 0.018431496
-0.0004942324 -0.003518708 0.007637216 -0.0019362997 -0.020593058 -0.019525604 -0.011782855 -0.018882576
-0.004883282 -0.017376315 0.0060378313 -0.019472051 -0.0036501065 -0.01810685 -0.018111562 0.0155225545
0.009944379 0.0067675672 0.018710613 0.01637156 -0.007238875 0.0139008835 -0.0038771722 0.00901814
-0.005940957 0.002597833 -0.0008757189 -0.017294396 -0.0149471145 0.009248354 -0.005436952 -0.0021932032
0.012853876 -0.007924718 -0.008375124 -0.015520888 0.012326505 0.010200404 -0.0021217708 0.007865641
-0.012358992 -0.0128005445 0.017387439 -0.0012300741 -0.011173697 0.0110861175 0.010924626 -0.003616672
0.0077599715 0.004139181 0.012663521 -0.0018167067 0.001651058 -0.006224137 0.0092405435 0.00089142285
0.006633615 -0.016573928 -0.016710706 -0.0009842962 -0.016812164 -0.0046735555 -0.016770275 0.013718236
0.004247289 -0.01308303 0.016785033 0.01868968 0.0070454907 0.00279589 -0.0067111226 -0.006318668
0.017151374 0.009878095 -0.015703397 0.011802286 -0.0033297688 0.013495546 -0.010002843 0.003396457
-0.010222965 0.020005614 0.00079878606 0.0034053363 -0.007420173 -0.003076259 0.0029549804 0.0068342574
-0.004568264 0.003892459 0.009280473 -0.015370358 0.0034329556 0.00353181 0.0040666685 0.0071271546
-0.0038024131 -0.0013277605 -0.01997574 0.017107166 -0.017038643 -0.011820485 -0.017345633 -0.006040699
-0.015858237 -0.009039659 -0.019384468 0.010299224 -0.016876282 -0.0011889692 -0.010293441 0.008742826
0.015432015 -0.014266814 -0.0036131423 0.0028576516 0.0020280052 0.012230296 -0.009628671 0.0016364288
0.006262958 0.0007208977 0.014208987 0.013815042 -0.017730579 0.0061624125 0.008799598 -0.01655262
0.0020361375 0.016348056 0.018533476 0.015522022 0.017547488 -0.017496374 -0.011265408 -0.018734798
0.018862154 0.014054805 -0.01640048 0.009917274 -0.008179169 -0.0014109369 5.9645623e-05 0.012322951
0.016431492 0.0066246707 -0.018802969 -0.006714834 -0.013912326 0.017545275 0.0027125105 -0.00034210645
-0.02000785 0.01382209 -0.016239159 -0.0077030454 -0.013486331 0.0149907805 -0.0011033155 -0.0072357394
0.0036933552 0.004562393 -0.018933846 0.009748926 0.00040226057 -0.019057535 -0.0077147866 0.013422705
0.015320122 0.0118411705 0.020724278 0.006819878 -0.0006084759 -0.016265932 -0.015189958 -0.005279973

fc0.bias f4 [32]
00000000: 8bba 01bc 2c1c 8f3c 18f9 7f3c 8c94 6abc
00000010: eaf6 a3bc a7b9 6cbc 8e23 04bc 8085 353c
00000020: c417 e6bb 80c6 5c3b 00f7 b638 64f7 c6bb
00000030: f633 b5bb 2840 85bc 0bb9 68bc 289a 663c
00000040: 8af1 993c e05c 323b 10a8 6e3c 5532 2abc
00000050: 804f 86bb 8c0a 9f3c c064 85ba 6b6e 90bc
00000060: e5be a9bc e097 2e3a 10ab 60bc 9d69 44bc
00000070: b04a 24bc bc14 1dbc 8061 74ba 07d8 90bc
-0.0079180105 0.017469488 0.015623353 -0.014317643 -0.020015199 -0.01444856 -0.0080651175 0.011079192
-0.007021876 0.003368765 8.7244436e-05 -0.0060719717 -0.005529876 -0.016265944 -0.014204274 0.01407484
0.018791933 0.0027216002 0.014566436 -0.010387977 -0.0040988326 0.019414209 -0.001017712 -0.017630776
-0.020720908 0.00066602044 -0.0137126595 -0.011988071 -0.0100275725 -0.009587463 -0.000932239 -0.017681135

fc1.weight f4 [32, 32]
00000000: c091 f1bc a934 4ebe 56f5 043e 3579 053e
00000010: b8cd 03bc 006b e63d 4ce6 27be 04cd 03be
00000020: c634 9dbe 47f3 373e c5d1 5a3e 9ea2 4cbd
00000030: 29df 53be 4405 01bf 1f7a 013e 31b6 f2bd
00000040: 62cb 223e 7661 c0be 1a6a d0bd 3de8 2b3c
00000050: 545b 9239 7da9 363e 42a5 4dbe 1dd2 0abe
00000060: 663c 953c 78b1 fe3b 2346 193e f213 b6bd
00000070: 8e90 03bf 5008 613e f105 5dbd e188 003e
00000080: 129f c4bd c5de 3ebe 8c70 21bf dd4c 553d
00000090: eddb 913d 30f9 01be 1003 763e 4dff 24be
000000a0: 3433 e43d b5d7 49bf 99ee 0cbe a254 bdbd
000000b0: c8b6 8c3d 9c5d a0bc f17a 003e 717a 1f3e
000000c0: 05cf b13d a1ba c53d ed04 133e 2a71 6c3e
000000d0: 1720 a9bd 0057 52be 4789 a63d 57eb d0bc
000000e0: d036 ff3d 8caa 993e 5206 ae3d 0449 0e3e
000000f0: 4804 663d da8e 42bf 644c a33d acd6 963d
00000100: 65df 493e 296c d53d 32f5 263d fde3 c33d
00000110: d4f2 1abd cf78 cdbd 214a e4bd b729 12be
00000120: 82d1 d1be dc10 1abe 2e37 8f3d 67b9 263e
00000130: 993f 793e 8dde 073e 7317 8dbd 5c84 ef3c
00000140: 29be 8d3e 75ea 5b3e 3f7c 883d 05b5 293e
00000150: 1620 3b3c 1184 373e 2207 9d3d 2649 aa3d
00000160: 9b9f 373e 78a6 df3c bd15 6c3e 68e9 d33d
00000170: 9fe1 8c3e fcab b9bd dc05 113e b0e8 063e
00000180: e3b9 ea3c a7b9 f73c 4a97 e43d b03a 88bd
00000190: 0ffc 523e 814e bdbd ae7a 163e 7984 04be
000001a0: 113e 8dba ee5a 233e ec44 653e 370c ab3d
000001b0: b85a f5bc e001 1ebf 2844 4f3e 17ba 38bd
000001c0: 3f01 873d 195e 30bf eb9a 82be b754 833e
000001d0: 5c50 a9be c042 84bc fa7a 173d d462 c8bc
000001e0: 7634 b33d 7df9 01be 5ed6 18bd ba82 10be
000001f0: aca7 48bf 49e3 823e 1d19 98bd 7249 e5bd
00000200: 8348 cb3d 0078 34be 3448 f0be 24f0 e83d
00000210: 564f c43d c5b3 febd 6369 ba3d cf59 a33d
00000220: f1d3 c63d 8cfa efbe f8a0 0abe dc5c 143d
00000230: 28fa 20be cd89 193e a838 053b 74e7 a63c
00000240: 1c8c 993e b167 5cbd b65c 6f3e 64e4 24bd
00000250: bd1f c0bb 915e e83d 6b14 17bc afd4 3abd
00000260: 6f21 4e3c ebf0 543e e151 a63e 7f9f 1a3d
00000270: 503a 143e 1a90 0fbf 8aec b1bd 475e c73c
00000280: 5524 713d 1941 53bd 93e2 d0be a08c 18be
00000290: c2e7 653e bb76 793c 8359 eb3d 5189 b63c
000002a0: 36f8 563e baf1 36bf 31bd 39be aefb c8bd
000002b0: c90e 16be b587 36bd a1e6 d3bd b21b 11bd
000002c0: c765 99bc 8187 793d 31f8 173e ad92 723d
000002d0: ac73 dfbc cb30 5d3d 346d 103e c154 2b3e
000002e0: 8a66 ee3d f7a1 b5bd a370 6d3e e6c9 553e
000002f0: 29c9 843d a8f5 fcbe 38e4 ccbd 8227 f2bd
00000300: 7fb1 ecbe 54a4 27bf 684e d2bd e8c3 e7bd
00000310: 8c7a 8abd 70bb c9be 7c19 f33d 8aa3 80be
00000320: d7aa b7bd 4577 cebb 5a24 1dbe 0190 23be
00000330: 72b6 6bbe 285d 07bb e730 f4bd 5d1c adbe
00000340: 53a8 9abe f26d 0a3d ceb3 5d3e dd80 c93e
00000350: e6ee 76be 4865 21bf 4475 2dbf aa89 383e
00000360: 02bf c93d d405 0cbd a466 13be 1f61 c8bd
00000370: 01e3 04be d207 263f 9906 e9bb 9ea0 003d
00000380: 4c97 fbbb 6695 1cbe eaa6 2c3e 9956 0bbd
00000390: 001c 223e 81a2 793e 0c97 6abe bb07 8bbe
000003a0: 361d 0fbf d8d9 ddbd 9e88 793e 8530 d93c
000003b0: 2baa 3a3d 2fc0 bb3d 0b34 873d b38d e1be
000003c0: 92d6 9e3e dadc 953c a6a8 9cbd 9d95 d9bd
000003d0: 3ab4 63be b7e7 123b d0cc 2ebe 239c ccbc
000003e0: dd54 5d3d 73ce 89bc f3f8 de3d 51f7 ad3e
000003f0: e72c e2bd 7206 51be 4390 47be 3e15 063e
-0.029488444 -0.20137276 0.12984213 0.13034518 -0.008044653 0.112508774 -0.16396445 -0.12871176
-0.30704325 0.17963897 0.21369083 -0.04995977 -0.20690598 -0.5039866 0.12644242 -0.118511565
0.15897897 -0.37574357 -0.10176487 0.010492382 0.00027915335 0.17838092 -0.20082572 -0.13556714
0.018217277 0.007772621 0.14968161 -0.08890523 -0.5139245 0.21975827 -0.053960744 0.12552215
-0.09600653 -0.18639667 -0.6306236 0.052075256 0.07122026 -0.12692714 0.24024606 -0.16113015
0.11142579 -0.7884477 -0.13762893 -0.09244658 0.068708 -0.019575886 0.12546898 0.15574051
0.08682064 0.09654737 0.14357348 0.23090044 -0.08258074 -0.20541 0.08131652 -0.025502844
0.124616265 0.3001293 0.08497299 0.13895041 0.056156427 -0.75999224 0.07973555 0.07365164
0.19714125 0.104210205 0.04076118 0.0956497 -0.037829235 -0.10032808 -0.111469515 -0.14273725
-0.40980154 -0.15045494 0.069929466 0.16281663 0.24340667 0.1326849 -0.06889238 0.029237919
0.27684143 0.21476157 0.06664323 0.1657296 0.011421224 0.17921473 0.07667376 0.08314733
0.17931978 0.027301058 0.23055167 0.10347253 0.27515885 -0.090660065 0.14162391 0.131747
0.02865309 0.030239893 0.111616686 -0.06651819 0.20603965 -0.09243489 0.14695236 -0.1294116
-0.0010775944 0.15952656 0.22389573 0.08351939 -0.029950485 -0.6172161 0.20240843 -0.045099344
0.065920345 -0.6889358 -0.25508818 0.2565057 -0.33069122 -0.01614511 0.036982514 -0.024461187
0.087502405 -0.12692828 -0.03731381 -0.14112368 -0.78380847 0.2556403 -0.07426665 -0.11195649
0.0992594 -0.17623901 -0.46930087 0.11373928 0.09585445 -0.12436632 0.09102132 0.07976114
0.09708393 -0.4687084 -0.13537967 0.03622137 -0.15720427 0.14993973 0.002032796 0.020374037
0.29989707 -0.053809825 0.2337521 -0.040256873 -0.0058631585 0.11346162 -0.009221177 -0.045612987
0.012581213 0.20795028 0.32484344 0.037749764 0.1447537 -0.56079257 -0.08687694 0.024336947
0.05887254 -0.051575754 -0.40797862 -0.14897394 0.2245169 0.015226061 0.114916824 0.022282274
0.20993122 -0.71462595 -0.18138577 -0.09813629 -0.14654078 -0.044563014 -0.10346723 -0.035426803
-0.018725289 0.060920242 0.14840771 0.059221912 -0.027276836 0.05400161 0.14104158 0.1673155
0.116406515 -0.08868783 0.23187499 0.208778 0.06483681 -0.4940617 -0.10004467 -0.11823942
-0.4622917 -0.6548512 -0.10268861 -0.11316663 -0.06761655 -0.39400816 0.11870095 -0.2512477
-0.08968132 -0.006300839 -0.15345898 -0.15972902 -0.23018816 -0.002065489 -0.1192339 -0.33810702
-0.30206546 0.03379626 0.21650621 0.39356127 -0.2411457 -0.6304517 -0.6775706 0.18021265
0.09850885 -0.034185246 -0.14394623 -0.097841494 -0.1297722 0.6485568 -0.007111382 0.031403176
-0.007677948 -0.15291366 0.16860548 -0.034018133 0.15830994 0.24378397 -0.22909182 -0.27154335
-0.5590395 -0.10832566 0.24368522 0.026512394 0.04557244 0.091675155 0.06601723 -0.4405342
0.3102308 0.018293787 -0.07649355 -0.106242396 -0.2223672 0.0022415945 -0.17070317 -0.024976796
0.05403601 -0.016822075 0.10887327 0.3397775 -0.11043721 -0.20412615 -0.19488625 0.13094041

fc1.bias f4 [32]
00000000: 9053 ad3d b2da c93e 8c7f 0a3f 3f17 d23e
00000010: 8931 6d3e 38e2 073f 2f92 433f 9392 893e
00000020: 4482 963e 570d 373e 6704 df3e 0ef3 fcbb
00000030: 44d9 0a3f 32c7 1bbe 0419 003e bab8 123f
00000040: 14a1 4c3e d45c 983e fa29 d9bc ceb4 02be
00000050: 0923 123f 0c9c f83e d195 ea3e 24b6 66be
00000060: be38 313d 9cfb b23e 2869 c83e 4de6 f13e
00000070: 7f35 0e3f 9c1f f83e 366d b13e 83bc 913e
0.08463204 0.39424664 0.5410087 0.4103336 0.23163427 0.5307956 0.76394933 0.2686964
0.2939626 0.17876182 0.43558046 -0.007719404 0.5423777 -0.15212706 0.12509543 0.5731312
0.19983321 0.29758322 -0.026509274 -0.12764284 0.5708471 0.48556554 0.45817426 -0.22530419
0.043267004 0.34957588 0.39142728 0.47246018 0.5555038 0.48461616 0.34653634 0.28464136

fc2.weight f4 [3, 32]
00000000: 88ed ca3d a426 9abd 965f 1ebd dfc5 8c3d
00000010: d2a6 d2bb a964 eabd 2182 fbbd 0636 613d
00000020: 567a acbd 3957 95bd 97ab ebbd c01a f73b
00000030: 0028 41bd a35d 673d 8cfe a13d 4323 1cbd
00000040: e377 9f3d 6bbb 9b3d 21b0 2dbd c2c3 9a39
00000050: 894d cebd 7c0b 983c 7bfb 3ebc 9be2 0f3c
00000060: d537 c13e 4011 833d 37ad 45be c4ae 5ebd
00000070: cc4b 03be 000c 91bd 2775 cebd af1f 1f3d
00000080: 53b4 1b3e 9db4 a13c 00dc 06be 2907 6b3e
00000090: ec27 a1bc 532e 94bd 09b6 80bd b51b 97bd
000000a0: b406 edbc 1545 88bc d695 b6bd 5ce4 8cbc
000000b0: c676 17be 9788 913c a53b 883d 00de 10bd
000000c0: f67b f5bb 5bd7 1fbe 2919 fe3d a142 c9bb
000000d0: f2d9 42bd 9e22 6fbd 5790 5cbd c40e 46b9
000000e0: 2c33 0ebf 49b5 003e 9dfc 0c3d 90a0 16be
000000f0: 26b5 abbd 46b9 1fbe 43f3 82bd 039f 6e3e
00000100: 4f8f 9bbd 95ca 58be 2444 9dbd 926c 63bd
00000110: 0b52 d1bd ee77 02be e7f8 123f 698c f8bd
00000120: abb4 2abe 7cd5 19be 9562 febd bed8 0ebc
00000130: 9413 dfbd c523 b3bb 9421 18be 8709 02be
00000140: 30ff 71bd 214c b83d cac3 00bd ecb8 33bb
00000150: 0254 2bbe 40a8 1abe 28ff 5fbd 93bf 01bb
00000160: 58ec 6f3e b1fe 72bd c605 2c3e b151 e3bd
00000170: 8c68 18be 4be0 cfbd c143 ffbd 487b 8abd
0.09908587 -0.07526901 -0.038665377 0.068736784 -0.006428578 -0.11444981 -0.122806795 0.05498316
-0.08421771 -0.07292027 -0.115073375 0.0075410306 -0.047157288 0.056485783 0.07909879 -0.038119566
0.077865385 0.076041065 -0.042404298 0.0002951902 -0.100733824 0.018560164 -0.011656637 0.008782054
0.3773791 0.063997746 -0.19304357 -0.05436589 -0.12821883 -0.07082367 -0.10080939 0.038848575
0.15205507 0.019739443 -0.13169861 0.2295195 -0.019672357 -0.07235398 -0.062847205 -0.073783316
-0.02893386 -0.016634503 -0.08915298 -0.017198734 -0.14791402 0.017765326 0.06652001 -0.035367966
-0.007491584 -0.15609495 0.12407143 -0.006141976 -0.04757113 -0.058382623 -0.05384859 -0.00018888252
-0.5554683 0.12569155 0.0344206 -0.14709687 -0.08384161 -0.1559802 -0.06394055 0.23302846
-0.07595693 -0.21171029 -0.076790124 -0.055523463 -0.102207266 -0.12741062 0.57411045 -0.12136156
-0.16670482 -0.15022844 -0.12421147 -0.008718668 -0.10892406 -0.0054669105 -0.14856559 -0.12698947
-0.059081256 0.089988954 -0.03143672 -0.0027423454 -0.16731265 -0.15103245 -0.054686695 -0.0019798025
0.23430002 -0.059324924 0.16799077 -0.11099566 -0.14883631 -0.10150202 -0.12464095 -0.06761795

fc2.bias f4 [3]
00000000: 6967 21bf 1736 f3be 63de 5d3f
-0.63048416 -0.47502205 0.8666746

road_emb.0.weight f4 [144]
00000000: c9a4 b23f baa1 833f 1bb8 a23f e154 7f3f
00000010: 7517 703f c3a9 843f 46c4 993f 5229 993f
00000020: 0357 a23f 760e 0a3f 3df9 7d3f 19a8 823f
00000030: 2239 913f e08d 803f ff50 9f3f a123 743f
00000040: 2bce 893f e1bc 853f c079 943f 5f2d 863f
00000050: 872c aa3f c505 013f ed8f 6e3f 35ed 6f3f
00000060: e1ba ba3f e820 833f 7e09 983f f6a7 853f
00000070: 2d8a 663f 5ad6 923f 5e6c 923f 8afd 973f
00000080: 2cff a73f 0545 373f 7ef0 843f bded 813f
00000090: 8d1e b33f e730 893f 174e 9f3f e86e 573f
000000a0: a3ea 863f 9aab 8b3f f1d3 cb3f c984 8f3f
000000b0: 6a17 ad3f c4bb 263f a4cc 803f 3dac 603f
000000c0: 151e a43f 1a9a 8a3f 3461 973f d104 7f3f
000000d0: a3cb 7c3f 23d4 773f 70dc 9b3f c1fb 893f
000000e0: fcbe b33f 043f 143f c7aa 813f 7e2d 623f
000000f0: 30e1 a33f 77db 883f 7b3c 9e3f 3013 5b3f
00000100: 2db0 683f 05e8 703f 98b6 a73f aa26 933f
00000110: 3c69 aa3f ffb7 3c3f 8f84 883f be82 5b3f
00000120: 1806 be3f c915 853f 6b69 a63f ba61 813f
00000130: 6a61 883f 9199 893f fb5f 893f dc9f 8a3f
00000140: 3191 b53f a77c 4a3f 5429 853f e8d0 a43f
00000150: ff88 b03f 95fd 9e3f f3dd a33f 8199 663f
00000160: 1977 643f db71 7b3f 02b5 a03f 437d 893f
00000170: 321e a63f 981d 183f df8d 7f3f a4d4 ac3f
00000180: c612 9b3f 37eb 7e3f 21e3 a53f 30fa 713f
00000190: 02f4 6b3f b8f6 763f 42c7 ac3f 45c1 8e3f
000001a0: 06bf af3f 4d4e 313f 4fa9 873f 8102 ab3f
000001b0: 1512 b23f 2593 673f e9ff 983f e0bc 793f
000001c0: 450a 803f 926d 973f 6b0e a23f f919 923f
000001d0: 93a9 af3f 7e6f 4b3f 51ee a63f d220 843f
000001e0: 2a23 8d3f afdc 8c3f a4ff 9c3f e738 883f
000001f0: 37ce 963f 7dfa 883f e6f2 9e3f 469f 953f
00000200: 51c5 ae3f 6035 443f 654b a83f 6235 833f
00000210: 3c63 a73f 411f 893f 184d 9a3f 9815 5e3f
00000220: e5d1 843f 4ceb 843f 940c 923f fe72 963f
00000230: 4ee5 b53f d4c9 4e3f db8b 9e3f 7399 863f
1.3956538 1.028373 1.2712435 0.9973889 0.9378579 1.0364307 1.2013023 1.1965735
1.2682804 0.53928316 0.9920843 1.0207549 1.134556 1.0043297 1.2446593 0.95366865
1.0766042 1.0448266 1.1599655 1.0482596 1.3294839 0.5039943 0.93188363 0.93721324
1.4588281 1.0244417 1.1877897 1.0441883 0.9005459 1.1471665 1.1439321 1.1874249
1.3124747 0.7158969 1.0385892 1.0150677 1.3993698 1.0718049 1.2445706 0.84153605
1.0540355 1.0911744 1.5924054 1.1212398 1.352277 0.6513026 1.0062451 0.87762815
1.282168 1.0828278 1.1826539 0.99616724 0.98748225 0.9680807 1.2176647 1.0779954
1.4042659 0.57908654 1.0130242 0.88350666 1.2803097 1.0691975 1.2362207 0.8557615
0.9089382 0.94104034 1.3102598 1.1496174 1.3313365 0.73718256 1.0665454 0.8574637
1.484561 1.0397273 1.3000921 1.0107949 1.0654728 1.074999 1.0732416 1.0830035
1.4184934 0.79096454 1.0403237 1.2876253 1.3791808 1.2421137 1.2802109 0.9007798
0.8924423 0.98220605 1.2555239 1.0741352 1.2977965 0.59420156 0.99825853 1.3502393
1.2115104 0.9957766 1.2959939 0.9452238 0.921692 0.9647021 1.3498309 1.1152731
1.3730171 0.692601 1.0598544 1.3360139 1.3911768 0.904589 1.1953098 0.97553825
1.0003134 1.1830313 1.266065 1.1414176 1.3723625 0.79467 1.3041478 1.0322516
1.1026356 1.1004847 1.2265515 1.0642365 1.1781682 1.0701443 1.2417877 1.1689231
1.3653966 0.76643944 1.3148009 1.0250666 1.3077159 1.0712663 1.2054777 0.867517
1.0376555 1.0384307 1.1410089 1.1753843 1.4210603 0.80776715 1.238643 1.0515579

road_emb.0.bias f4 [144]
00000000: 5476 063e ea6f 303e 1baa 843d c9b1 053e
00000010: 4a8e 633e 61ba 043e f8e1 c43d 9cec 943e
00000020: 6a4f 203d e556 febe 2e7a 723e 0a34 623e
00000030: eff4 483e 1929 153e 5bdc cc3d 099c 5f3e
00000040: 6ab1 173e c669 133e a05d e43d f397 4e3e
00000050: b092 ff3c 8f8e 0cbf 55b5 2a3e bfcb 473e
00000060: dadd e43d a791 1a3e 943f 6a3e d3dd c93d
00000070: aa33 8f3e 0f53 533e dfb5 cf3d b24d 733e
00000080: 33a6 e13c 2321 a8be abdb 823e 5bd8 493e
00000090: 7b0e a33d 8dfb 0e3e 0513 5a3e 695c 763e
000000a0: 71c3 1b3e 2ff5 c93d 3203 af3d 8281 9e3e
000000b0: f902 563c 563a 91be 532f 573e c777 723e
000000c0: f4ed 503e 357d 233e 891b 593e fb19 053e
000000d0: c281 713e 3f2e 2b3e fdc9 ef3d dd4e 8d3e
000000e0: e2cc 1e3d 72ff d5be b45c 543e 61d4 673e
000000f0: b9fa 013e 6201 0e3e 44b0 813e e1c7 593e
00000100: 6f60 6b3e 4a7f 183e 3c64 093d eb2a 873e
00000110: ec6e b0bb 5160 61be bc8a 923e 184a 473e
00000120: 8b8a 603e 432b 303e 0e4a c73d d30a 023e
00000130: a625 4e3e b6b9 0b3e e1c8 2e3e 33cd 5f3e
00000140: 3591 273d 8b3e 55be 30db 4b3e 1b73 193e
00000150: 6dbb 2d3e f482 b23d ae07 af3d 319a 463e
00000160: 79d0 473e bbd1 3b3e d196 883d d557 843e
00000170: 0e26 1a3d ada0 ecbe 70b6 503e 21db e73d
00000180: 9e7c 7f3e 6b57 273e 92f5 ff3d e8a5 313e
00000190: 445f 883e 06c4 623e 73ff cc3d 7e19 8e3e
000001a0: 7656 1d3d eb69 91be 912a 9b3e afc0 df3d
000001b0: 9d8b 1f3e 7894 613e 3231 753e 361d 123e
000001c0: d61a 5a3e 4dbf 513d ec8f 623e 699c 193e
000001d0: 1cc5 063d 0d63 35be 5121 a63d d900 213e
000001e0: 75a3 913e 3fa0 203e 46c2 4c3e eb6a 143e
000001f0: 3eca d33d 65bd de3d 1d90 323e 4974 833e
00000200: 1384 4d3c bd11 53be 854e 263e 8fc4 573e
00000210: 6f94 533e 7a77 073e a2e8 873e d8da 423e
00000220: e496 d93d fe5f 143e 5309 753e 0352 2f3e
00000230: 6fe9 493d e336 40be f2ee 0b3e 6418 1b3e
0.13131076 0.17230192 0.064777575 0.13056101 0.22222248 0.12961723 0.096134126 0.2908677
0.039138235 -0.4967567 0.2367942 0.22090164 0.19624685 0.14566459 0.10002967 0.21836866
0.14813772 0.14395818 0.1115067 0.20175152 0.031197876 -0.5490503 0.16670735 0.19511317
0.11175127 0.15094624 0.22875816 0.09856763 0.27969104 0.20637153 0.10142111 0.23760107
0.02754507 -0.3283778 0.25558218 0.1971144 0.07961746 0.13963147 0.21296318 0.24058689
0.15211274 0.09861218 0.08545531 0.30958182 0.013062232 -0.2836482 0.21014147 0.23678504
0.20403272 0.15965731 0.2120191 0.12998192 0.23584655 0.1671686 0.11708448 0.2759923
0.03876961 -0.41796452 0.20738488 0.2263961 0.126933 0.13867715 0.25329792 0.21267654
0.22986005 0.14892307 0.033542857 0.2639993 -0.0053843167 -0.22009398 0.2862147 0.19461858
0.2192785 0.17204003 0.09730922 0.12699442 0.20131549 0.13645062 0.17068817 0.21855621
0.040909965 -0.2082464 0.19907832 0.14985316 0.16966029 0.087163836 0.08546387 0.19394757
0.1951312 0.18341725 0.06669391 0.2584826 0.037633948 -0.46216336 0.20382094 0.113210924
0.24949881 0.16341941 0.12498011 0.17348444 0.26635182 0.2214509 0.100096606 0.27753824
0.038412534 -0.28401121 0.30305913 0.10925423 0.15580602 0.22029293 0.23944548 0.14268956
0.212993 0.05120783 0.22125214 0.15001072 0.032902822 -0.17713566 0.08111823 0.1572298
0.2844502 0.15686129 0.19995984 0.14493911 0.10341309 0.10875968 0.17437787 0.25674656
0.012543696 -0.20612235 0.1624089 0.21071075 0.20662092 0.1322917 0.26544672 0.19028795
0.10624483 0.14489743 0.23929338 0.17121129 0.049294885 -0.18770938 0.13665369 0.15146023

road_emb.1.weight f4 [64, 144]
00000000: d47c 4abe d025 99bd a246 20bf 0243 9ebc
00000010: 9df3 81bd 85ca ad3d d317 513d 994e 063e
00000020: b4dc ba3d 981c 8ebd a67e ce3d 1da2 94bd
00000030: 5a8a 013e c905 8abd a0d5 d9be 4974 2dbe
00000040: 721a 813d 5391 efbd 8a00 3a3e 9880 383d
00000050: eb19 3cbd 46e7 f13d 0d55 c63d ed48 9ebc
00000060: d7ce 33be 6800 a43d 380a 28bf 7baf 603e
00000070: dd2f 04be 17f6 d93d a3f9 363d d311 113e
00000080: b420 fa3b bdd2 57bd dbb8 0d3e 48af 253d
00000090: 497e d0be 278b ba3c 9185 c1be 7b81 89be
000000a0: 0cb4 46be 9639 953d ab2a ee3e b8dd 05bd
000000b0: c3ab 25be f1b0 693e ab95 2abe ba36 323c
000000c0: 3bee 663c 1bdd 75bc 87f7 82be 0801 a03c
000000d0: 81ed 0ebe e134 ecbd cc47 513e 303d 22be
000000e0: ad15 93be fd06 cb3c 5baa ab3b 524a 9fbd
000000f0: da81 fc3c ddad 453d af91 bebe e042 98bd
00000100: 1e3e 8f3d 4036 163e b849 33be 2f48 4abe
00000110: 4ae6 1fbe 7696 febd 2135 a63d 83fd 59be
00000120: e91a 78be 6668 203e 212c 3cbe 4c57 8dbb
00000130: f443 06bd 9b70 dc3d 38de 5e3e 061a 65bd
00000140: af21 95bd b0aa 333e c39c 12bc b8a2 fabe
00000150: cf00 603e 5407 b5bd 5716 75be 63aa 08be
00000160: be5f 153c 5077 523e c443 8cbd afcc 743d
00000170: e345 a1be ea88 6e3c d5d5 e93d 8a8b b6bd
00000180: b130 a4bd c782 cc3d f9c4 9ebe 4071 25be
00000190: db56 7fbe b4f5 30bc 58d4 1d3e 647b b23c
000001a0: 115d 1f3d 3026 913e 7a70 083e 172c 12be
000001b0: 2f2e 15be 29a2 f03d 1807 12be 6d74 0cbe
000001c0: 296b 51be 8e10 bf3c d378 3e3e 7b56 a5bd
000001d0: 8a53 dfbd 3502 003e 9a23 a6bd 9e63 303d
000001e0: 05ab e33d c7ed 1bbe 15c1 fd3d 49e6 8fbd
000001f0: 3430 e3bd 0180 843c 930a a03e 396e 573d
00000200: 6e0e 073d b00a d7bc 0240 2fbe 6287 ec3d
00000210: 1f3a 023c c7e1 c23d 8e2b 803d 0c78 1abe
00000220: 30d5 57bb a429 263e 523d 113f b8fd fbbd
00000230: 8cfe bcbd 4d76 a83d 4a90 b7be a60e 263d
00000240: ac94 49be fdbb 62bd e23d 15bf 2a72 1a3e
00000250: b6d6 c53d 6cb3 e73d 89c9 bb3e 120c 04bd
00000260: caa6 0c3e 1d5f cc3d 125c 813d 51e8 9abd
00000270: 0bbe 3fbd 0836 2a3d 7369 fabe 1e0f 9a3c
00000280: fcf3 4abb 703b 543e c079 993e 8e71 3ebe
00000290: f73a 823d fc51 58be b31c ce3d d46c 9fbe
000002a0: 9fb8 29be 8fb0 ecbd 531d dfbe e653 503e
000002b0: 0532 603e 21f9 193e 39f5 ee3d fd0a 0fbe
000002c0: d46d b73e f80a 5dbc f90a 2f3e 121a 1fbe
000002d0: 403e 96be eeb3 ddbd ed56 4cbe 61ae a33e
000002e0: 7352 ed3d 1d49 1d3e ec7f c13b 1cf9 81be
000002f0: 94c0 0c3e 72e7 c2bd ac98 89be f72d 87bd
00000300: d449 99be 2720 bb3d f5e5 c8bd 43ac 4c3e
00000310: 651d 7d3e 69f5 a53d 79a7 e53d bd06 a5be
00000320: 6b9d 4d3e ca74 d83d 2d46 dabd 073a 82bd
00000330: d5cb ac3e 995e babd eecb 81be dcc0 313e
00000340: fbb5 9f3d b143 e33d 8d3b 9b3e 8aac edbd
00000350: 724c be3e 3a46 d1bd d497 c2bd 9b69 e7bc
00000360: bd12 acbe 4ea7 11be 2eea 01bf 90db fe3d
00000370: e0b2 bf3d 967b 9b3d c541 863e 91d9 a93d
00000380: 7642 9e3e 5160 c73d 6695 1cbd 18b5 88be
00000390: b6ae 63be efa8 053d 22b9 a9be 7cec bf3d
000003a0: 0e99 e63d f286 373b 7583 b4bb 337a 3abe
000003b0: 0119 983e e60a 2c3e dee0 23be 433d a3be
000003c0: 0eaf 26bd 2458 e2bd 2691 c3be 503e dabd
000003d0: 9509 6bbd 7e98 27be 8056 b93e f8f8 513d
000003e0: 753b 523e 5f21 2a3d de69 87be 5f49 f5be
000003f0: 47c1 dbbe 4208 863d 599d 23bf a12a b43d
-0.1977418 -0.07477915 -0.6260778 -0.019319061 -0.06345294 0.08485893 0.05104811 0.1311592
0.09124127 -0.069390476 0.1008275 -0.07257483 0.12650433 -0.06739385 -0.42545795 -0.1693889
0.06303872 -0.1169764 0.18164268 0.04504451 -0.045923155 0.1181169 0.09684191 -0.019321883
-0.17559372 0.0800789 -0.6564059 0.2194194 -0.12908883 0.10642641 0.044671666 0.14166956
0.007633293 -0.05269121 0.13840048 0.040450364 -0.40721348 0.022771431 -0.37797216 -0.26856598
-0.1940462 0.07286374 0.46516928 -0.03268215 -0.16178803 0.22821404 -0.16658656 0.010877306
0.0140948845 -0.015006329 -0.25579473 0.019531742 -0.13957788 -0.11533523 0.20437545 -0.15843654
-0.28727475 0.024783606 0.005238814 -0.07777847 0.030823637 0.048261512 -0.37220523 -0.074346304
0.0699427 0.14669132 -0.1750859 -0.19754098 -0.15615192 -0.12431042 0.08115602 -0.21288113
-0.24229015 0.15664825 -0.18376209 -0.004313385 -0.03277965 0.10763665 0.21764457 -0.05593302
-0.07281815 0.17545581 -0.008948508 -0.4895227 0.21875308 -0.08839288 -0.23934303 -0.13346247
0.009117065 0.20553327 -0.06848863 0.059765514 -0.31498632 0.01455901 0.11417738 -0.08913334
-0.080171 0.09985881 -0.31009653 -0.16156483 -0.24935476 -0.010800768 0.15413034 0.021787353
0.038907114 0.28349447 0.13324156 -0.14274631 -0.14568399 0.117496796 -0.14260519 -0.13716288
-0.20451035 0.023323324 0.18600778 -0.080731355 -0.10904606 0.12500842 -0.08112259 0.043063752
0.11116604 -0.15227424 0.12390343 -0.07026345 -0.110931784 0.016174318 0.31258067 0.05259535
0.032972746 -0.026250213 -0.17114261 0.1154926 0.007948427 0.0951572 0.062583074 -0.15084857
-0.0032933466 0.16226822 0.5673419 -0.123042524 -0.092282385 0.08225689 -0.3585227 0.040541314
-0.1968562 -0.05535506 -0.5829755 0.15082613 0.096600935 0.11313519 0.36677197 -0.032238074
0.137355 0.09979079 0.06316389 -0.07563842 -0.0468121 0.041555434 -0.48908576 0.018806037
-0.003096818 0.20725799 0.299757 -0.18598005 0.06358903 -0.21125025 0.10064068 -0.31137717
-0.16574334 -0.115571134 -0.4357706 0.20344505 0.21894081 0.15036441 0.11667866 -0.13969035
0.3582598 -0.013491385 0.1709403 -0.15537289 -0.29344368 -0.108253345 -0.19955035 0.31968978
0.115879916 0.15359922 0.005905142 -0.25385368 0.13745338 -0.09516801 -0.26874292 -0.06600564
-0.2993914 0.09136992 -0.09809486 0.19987588 0.24718244 0.08103449 0.112135835 -0.32231703
0.20079581 0.10569151 -0.10657916 -0.06358724 0.33749261 -0.09100074 -0.25350899 0.17358726
0.07798382 0.110968955 0.3031887 -0.11605175 0.37167698 -0.10218473 -0.09501615 -0.028248599
-0.33608046 -0.14223978 -0.50747955 0.12444222 0.093602896 0.075919315 0.26222053 0.082934506
0.3091008 0.09735168 -0.038228415 -0.26700664 -0.22234616 0.03263181 -0.33149058 0.09371278
0.112596616 0.0028004018 -0.005508835 -0.18210678 0.29706576 0.16801032 -0.16003749 -0.31882676
-0.04069429 -0.11051968 -0.38196677 -0.106564164 -0.057382185 -0.16366765 0.36198807 0.051262826
0.20530494 0.04153573 -0.26447958 -0.4790754 -0.42920896 0.06544544 -0.6391197 0.08797193

road_emb.1.bias f4 [64]
00000000: 6746 323d afa9 7cbc b356 42bd 7d1a 9c3c
00000010: 24ed 683d e902 c9bc 0c3b 10bd cee3 b0bc
00000020: 7bb4 5d3c 33a0 39bd 59bb 83bc febb 76bb
00000030: 5fcc dcbd a5dd 1f3c 6bdd 393d 8f5f 00bd
00000040: 436a 66bd f86d 18be 9352 0abe 6e92 c03a
00000050: dbe6 b9bd bbe2 fabd 6085 a6bb 0923 5bbd
00000060: 0fe4 b5bc 5aa8 a93d b072 60bd b0fc 503d
00000070: 0deb a5bd 3f6f a3bd 26ec efbc 7821 af3c
00000080: 831f 013c fcdc ba3d 9e6a 213d c657 21bd
00000090: 68c7 54bd 47bb 65bd bb9a 933d 2635 24bc
000000a0: 7f52 9dbd 2123 37bd 7913 08bd bfd5 7e3c
000000b0: c052 21bd 166a 5ebd 6ed8 dfbd 2067 623d
000000c0: a717 073d cf40 32bd 8ab1 74bb f380 a4bb
000000d0: 7f24 01b9 5841 b73b b48c 63bd e288 febb
000000e0: d887 15bd 0ab2 24be 1642 e0bc e001 26bd
000000f0: 28ce 19bd eac9 8b3d b1df 423c 710d e13d
0.043524172 -0.015421315 -0.047445964 0.0190556 0.05686678 -0.02453752 -0.03521256 -0.021593
0.013531799 -0.045318794 -0.016080545 -0.0037648673 -0.10781168 0.009757434 0.045377176 -0.03134113
-0.056253683 -0.148857 -0.13508062 0.0014692077 -0.09077235 -0.12250277 -0.0050818175 -0.05350021
-0.022203473 0.08284064 -0.054796875 0.05102223 -0.08101473 -0.07980203 -0.029287409 0.021378264
0.007881048 0.09124181 0.03940832 -0.039390348 -0.05194798 -0.056086805 0.07207247 -0.010022437
-0.076817505 -0.044711236 -0.033221696 0.015553891 -0.039385557 -0.05430039 -0.109299526 0.05527413
0.03298154 -0.043518838 -0.0037337267 -0.0050202548 -0.00012315995 0.0055925064 -0.055554107 -0.0077677825
-0.036506504 -0.16083542 -0.027375262 -0.040529132 -0.03755012 0.068256214 0.0118941525 0.10988892

cav_emb.0.weight f4 [11]
00000000: 372f 8d3f 6784 2a3f ff40 1f3f e3ae 673f
00000010: af94 d73f e572 e03f 7817 c03f e5ba 8d3f
00000020: 5b59 453f 8131 553f 4f99 8f3f
1.1030034 0.6660828 0.6220855 0.9050123 1.684225 1.7535063 1.5007162 1.1072661
0.7708947 0.8327866 1.1218661

cav_emb.0.bias f4 [11]
00000000: 75aa 403d 414a 053d 864a f53c 45dd 643d
00000010: ba02 eb3a 35b8 103e dd7a 3bbc d9cb 003e
00000020: 6e47 023e c099 7ebd af43 a3bd
0.04703756 0.032541517 0.029942762 0.05587508 0.001792989 0.1413277 -0.011442867 0.12577762
0.12722561 -0.062158346 -0.07971894

cav_emb.1.weight f4 [64, 11]
00000000: aa33 6ebe 2fef 093e a1ca b83d 7038 adbd
00000010: 1639 3e3f 6a1f 9bbe c6b2 c73d b531 8d3d
00000020: c944 ba3d 7ff7 d7bd f10a 9b3d f032 5cbe
00000030: 87bc 023c 26fe 78be a4fa 20be 05b0 09bf
00000040: 3532 ad3e f06f 88bc 21e0 52be 2178 c4bd
00000050: f29e 003e 2c92 843e e021 65be 9b57 f9be
00000060: 1093 04be 8cf0 173d 6e32 4b3f 5c97 8b3e
00000070: 9fc9 cdbd ff15 a23d d1e1 2f3e f9f5 93be
00000080: f11b 003f c61d fc3d 6c3c 79be a2d4 b8bd
00000090: 5bb1 68be 4809 4fbf 1d9c 953f 8755 00bf
000000a0: 2f83 19be 2501 cabd 9d07 443d 7ba3 25be
000000b0: 703c 94be 5d98 de3e dfb4 c83c 1278 58be
000000c0: c65f 1dbe e0e9 7b3c 16db 8e3e 78df 21bc
000000d0: b3bd 0a3d e252 0dbe 6cf6 393e 3970 6fbe
000000e0: 1e46 40be f1af 8c3e b443 30bd 38b4 1b3f
000000f0: 1ebf 193e 192c 31be d026 8fbe 2558 ef3d
00000100: f2d3 08be dc85 da3b 837b 57be 4631 1dbd
00000110: 8283 bbbd caba 98be b8c1 4a3e f089 6f3c
00000120: 72e5 96be d8b3 103e d5de b6bd 4f05 aebd
00000130: 6aaf 10ba ad87 8d3d 1c17 65bd 3f1b b43d
00000140: 265d cb3e b3e6 ea3d 2616 7bbe 3189 493f
00000150: 4455 8e3b 1069 9e3e 801f 1abf b418 13be
00000160: 22aa 95be 6297 48bd dfbc 4c3d f1a5 de3d
00000170: fed7 e13e d7f7 b7bd dbc4 76be ab2f 463e
00000180: 9c43 e73d 78d0 363e dced f93d 0232 fdbe
00000190: 6d32 3a3e b7ff 2b3e ca6c 4f3e f495 a3be
000001a0: c212 92be 12c8 123f 97ac f1bc 237c a8bc
000001b0: cebc 89bc d200 553e 11ec 23be f7a6 3ebe
000001c0: 3d1a d53d dcec b0bd 0788 3d3f ad3d 9a3d
000001d0: 0773 4ab8 01e1 cdbd 1412 8b3d 9c5d 71be
000001e0: 7f94 a63d c560 22bd e374 39be 32e7 ecbc
000001f0: 0e9e aebc 3af4 85be 4cd5 69bd 47fe ad3e
00000200: 6516 55bd b75d 063c c590 a13e 8459 1a3e
00000210: a9a1 a2be f0e9 8d3d d2f4 123e cebd e1bd
00000220: ce9b 513f ab1a 1a3e 0816 49be 4734 863e
00000230: c8b6 b23c f626 bdbe cbf8 7f3e d2be 84be
00000240: 0de9 27be 322a ed3d ac7c 59be 1c80 233f
00000250: b266 b93d 459c 87be 9eb5 88be 8cfa 283e
00000260: eec6 9dbe d227 ff3d 8bcb 92be 7481 8fbe
00000270: 4940 413e ffe8 30bd 1047 083f ab40 433d
00000280: 3657 6f3e e157 a9bb 4ecc 883c 3381 3c3f
00000290: 79a6 27bd 49b4 96be b26f d6bd 422d 2ebd
000002a0: 718e 7f3d 3340 50bd 8314 f3bd bdb0 133e
000002b0: d9d7 bebd a4bf 283d de22 d6be 8d3a 023f
000002c0: e81f 62bd 7a54 3fbe 771a 13bd 3fda 313d
000002d0: 6850 21be 33a8 303f 8c9e f3be 465b 963c
000002e0: eed2 53bc 43f3 c83c 8654 b1be 563b 6a3e
000002f0: 3a69 6dbd 8064 65be 948c 863e e69f 53be
00000300: 8249 283d 6a81 953e ce96 abbd d3a9 2abe
00000310: 4cc3 adbe 6438 69be fc68 fa3d b8f4 ecbc
00000320: b63b 103e 7d43 0abd 6d16 883e a52b ad3d
00000330: befe 02bd 8635 a73e 23d0 433e 106b 33bc
00000340: cd7e c73d a371 8abd 04ab bd3d ad02 543e
00000350: e4c5 3e3d 6381 093f d5a9 f23d f90c 0c3e
00000360: c6e1 53be b6b1 24bd c309 babd 4f12 4e3e
00000370: dd66 a1be 60a2 78be f474 87be e749 0bbb
00000380: 4c4a 8cbf 7bb5 543f 0d7e b73e 1097 19bc
00000390: 0d3d 55be c5c1 46be 9ebe c7be e20c 5dbe
000003a0: b4cb 2a3d 4f95 773e 8896 973d 8738 3d3f
000003b0: 9b24 d1be 58ca 59be d64b 903e fd54 1a3e
000003c0: 66d4 5abe 64f8 4abd c346 08be 9136 25be
000003d0: b4ab 96bc a18c 253e 5825 2fbe 3109 e8bd
000003e0: ee63 cfbe 7568 9e3e 0728 413e f406 003e
000003f0: 1fff a13d e022 ddbd 03cd f9bc 763b 8a3e
-0.23261896 0.13470148 0.090230234 -0.0845803 0.74305856 -0.30297405 0.09750895 0.068942465
0.09095151 -0.10545253 0.07570446 -0.21503806 0.007979519 -0.243157 -0.15720612 -0.5378421
0.33827367 -0.016654938 -0.20593311 -0.09593225 0.12560633 0.2589277 -0.22376204 -0.4869965
-0.12946725 0.037094638 0.79373825 0.27263916 -0.10048222 0.07914352 0.17175986 -0.288986
0.50042635 0.12310366 -0.24339455 -0.090249315 -0.22723906 -0.8087354 1.1688267 -0.50130504
-0.14991449 -0.098634996 0.047858823 -0.16175644 -0.2895236 0.4347562 0.024500309 -0.21139553
-0.15368566 0.015375584 0.27901524 -0.009879939 0.033872318 -0.13801149 0.18160409 -0.23382653
-0.18776748 0.27477983 -0.043033317 0.60821867 0.15014312 -0.17301978 -0.279593 0.11686734
-0.133621 0.0066687893 -0.2104321 -0.03837707 -0.091559425 -0.2983001 0.1980046 0.014620289
-0.29471928 0.14131105 -0.089292206 -0.08497106 -0.0005519303 0.06910644 -0.055930242 0.08794259
0.39719504 0.11469784 -0.24520168 0.7872496 0.0043436605 0.3093953 -0.60204315 -0.14364892
-0.29231364 -0.048972495 0.04998481 0.108714946 0.441101 -0.089828186 -0.24098532 0.19354121
0.11292192 0.17852962 0.12203571 -0.49452215 0.18183298 0.16796766 0.20256343 -0.31950343
-0.28529936 0.57336533 -0.029501243 -0.020567006 -0.016813662 0.20801094 -0.16008021 -0.1861838
0.10405395 -0.08638927 0.74035686 0.07531295 -4.826768e-05 -0.10052682 0.067905575 -0.23570865
0.08133792 -0.039643068 -0.18110995 -0.028918836 -0.0213156 -0.26162893 -0.05708818 0.3398306
-0.05202331 0.008201054 0.31555763 0.1507321 -0.31763962 0.06929386 0.14351204 -0.110225305
0.81878364 0.15049236 -0.1963731 0.2621176 0.021815673 -0.36943787 0.2499725 -0.25926834
-0.16397496 0.11580314 -0.21238965 0.63867354 0.09052791 -0.26486412 -0.26701063 0.16501826
-0.30815834 0.12458767 -0.28670916 -0.28028452 0.18872179 -0.043190952 0.5323343 0.047669094
0.23373112 -0.0051679467 0.016698983 0.7363464 -0.040930245 -0.29434422 -0.10470523 -0.04252363
0.062391702 -0.050842475 -0.11869147 0.14422889 -0.093185134 0.041198388 -0.41823477 0.5087059
-0.05520621 -0.18684569 -0.03591391 0.043421026 -0.15753329 0.6900665 -0.475819 0.01835407
-0.0129287075 0.024530059 -0.346348 0.22874197 -0.05796168 -0.22401619 0.26279128 -0.20666465
0.041085728 0.29200298 -0.08378373 -0.16666345 -0.33938062 -0.22775418 0.122270554 -0.028925285
0.14085278 -0.033755768 0.2657961 0.0845559 -0.031981222 0.32658023 0.19122367 -0.010950819
0.09740982 -0.06759956 0.09261134 0.20704146 0.046575442 0.53713053 0.11848799 0.13676824
-0.20691594 -0.04020854 -0.09083893 0.20124172 -0.3152379 -0.24280691 -0.26456416 -0.0021253766
-1.0960174 0.8308942 0.35838357 -0.009374395 -0.2082407 -0.19409855 -0.39012617 -0.21586946
0.041698173 0.2417805 0.074017584 0.7391438 -0.4084824 -0.21268594 0.28182858 0.15071483
-0.21370086 -0.04955329 -0.13308243 -0.16134097 -0.018392421 0.16166927 -0.1710409 -0.11329878
-0.40505928 0.3093907 0.18862925 0.12502652 0.079099886 -0.107976675 -0.030493265 0.2699849

cav_emb.1.bias f4 [64]
00000000: fc4e e9bc 470b b73d f1a8 093d 7293 633e
00000010: b91a fa3c 9797 bebd c98f 0a3d 2524 a6bd
00000020: 4892 e9bd 84ca 343c cb9e e8bd b4d6 333d
00000030: b314 37bd 9b01 1dbe 6de1 b63d a4ac 19bd
00000040: 5503 083d ae45 cf3c fdc6 f9bd d032 1ebe
00000050: b54a 0dbe 2a99 b4bd 3a62 bfbd c07e fdbb
00000060: dce4 183b 0d27 efbd 90f9 2d3d f130 21bd
00000070: fe8a 5cbd 17b6 92bd 32ff 1dbe 5140 293d
00000080: f807 82bb c992 09bd e052 a63d e58a 56bc
00000090: f174 56bc 45c0 27be c9fe 403d 69d5 4cbd
000000a0: 8c03 a5bd eaf6 22bd 2aeb 9cbd ced9 db3d
000000b0: fbb5 7abc a458 793d a574 4a3c 0a8a 4a3c
000000c0: 78d5 0fbd 89a1 14be 8b08 0dbb 28be 00be
000000d0: aae9 ddbd cbdd 17be d5f2 15be faf4 b5bd
000000e0: 46d5 00be 3731 23bc 919f 18bd 3c7d 24be
000000f0: a7bc a83c c777 48be ac03 e4bc ac1a 08bd
-0.028480045 0.08937698 0.03360838 0.22224215 0.03053032 -0.09306257 0.03382853 -0.08112363
-0.11404854 0.011034612 -0.11358412 0.04390593 -0.044697475 -0.15332644 0.08929715 -0.03751816
0.033206303 0.02530178 -0.12196157 -0.15449071 -0.1379803 -0.08818276 -0.09344907 -0.007736057
0.002332977 -0.1167737 0.04247433 -0.039353315 -0.05384349 -0.07163637 -0.1542938 0.041321103
-0.003968235 -0.03358725 0.08121276 -0.0130946385 -0.013089404 -0.16381939 0.047117982 -0.05000821
-0.08057317 -0.039786257 -0.076620415 0.10734902 -0.015302177 0.06087555 0.012356912 0.012362013
-0.03511569 -0.14514746 -0.0021519985 -0.12572539 -0.108355835 -0.14830701 -0.14643414 -0.08884616
-0.12581357 -0.009960464 -0.03726155 -0.16063398 0.020597769 -0.19576941 -0.027833782 -0.03322856

att.mask f4 [1, 1, 145, 145]
00000000: 0000 803f 0000 0000 0000 0000 0000 0000
00000010: 0000 0000 0000 0000 0000 0000 0000 0000
00000020: 0000 0000 0000 0000 0000 0000 0000 0000
00000030: 0000 0000 0000 0000 0000 0000 0000 0000
00000040: 0000 0000 0000 0000 0000 0000 0000 0000
00000050: 0000 0000 0000 0000 0000 0000 0000 0000
00000060: 0000 0000 0000 0000 0000 0000 0000 0000
00000070: 0000 0000 0000 0000 0000 0000 0000 0000
00000080: 0000 0000 0000 0000 0000 0000 0000 0000
00000090: 0000 0000 0000 0000 0000 0000 0000 0000
000000a0: 0000 0000 0000 0000 0000 0000 0000 0000
000000b0: 0000 0000 0000 0000 0000 0000 0000 0000
000000c0: 0000 0000 0000 0000 0000 0000 0000 0000
000000d0: 0000 0000 0000 0000 0000 0000 0000 0000
000000e0: 0000 0000 0000 0000 0000 0000 0000 0000
000000f0: 0000 0000 0000 0000 0000 0000 0000 0000
00000100: 0000 0000 0000 0000 0000 0000 0000 0000
00000110: 0000 0000 0000 0000 0000 0000 0000 0000
00000120: 0000 0000 0000 0000 0000 0000 0000 0000
00000130: 0000 0000 0000 0000 0000 0000 0000 0000
00000140: 0000 0000 0000 0000 0000 0000 0000 0000
00000150: 0000 0000 0000 0000 0000 0000 0000 0000
00000160: 0000 0000 0000 0000 0000 0000 0000 0000
00000170: 0000 0000 0000 0000 0000 0000 0000 0000
00000180: 0000 0000 0000 0000 0000 0000 0000 0000
00000190: 0000 0000 0000 0000 0000 0000 0000 0000
000001a0: 0000 0000 0000 0000 0000 0000 0000 0000
000001b0: 0000 0000 0000 0000 0000 0000 0000 0000
000001c0: 0000 0000 0000 0000 0000 0000 0000 0000
000001d0: 0000 0000 0000 0000 0000 0000 0000 0000
000001e0: 0000 0000 0000 0000 0000 0000 0000 0000
000001f0: 0000 0000 0000 0000 0000 0000 0000 0000
00000200: 0000 0000 0000 0000 0000 0000 0000 0000
00000210: 0000 0000 0000 0000 0000 0000 0000 0000
00000220: 0000 0000 0000 0000 0000 0000 0000 0000
00000230: 0000 0000 0000 0000 0000 0000 0000 0000
00000240: 0000 0000 0000 803f 0000 803f 0000 0000
00000250: 0000 0000 0000 0000 0000 0000 0000 0000
00000260: 0000 0000 0000 0000 0000 0000 0000 0000
00000270: 0000 0000 0000 0000 0000 0000 0000 0000
00000280: 0000 0000 0000 0000 0000 0000 0000 0000
00000290: 0000 0000 0000 0000 0000 0000 0000 0000
000002a0: 0000 0000 0000 0000 0000 0000 0000 0000
000002b0: 0000 0000 0000 0000 0000 0000 0000 0000
000002c0: 0000 0000 0000 0000 0000 0000 0000 0000
000002d0: 0000 0000 0000 0000 0000 0000 0000 0000
000002e0: 0000 0000 0000 0000 0000 0000 0000 0000
000002f0: 0000 0000 0000 0000 0000 0000 0000 0000
00000300: 0000 0000 0000 0000 0000 0000 0000 0000
00000310: 0000 0000 0000 0000 0000 0000 0000 0000
00000320: 0000 0000 0000 0000 0000 0000 0000 0000
00000330: 0000 0000 0000 0000 0000 0000 0000 0000
00000340: 0000 0000 0000 0000 0000 0000 0000 0000
00000350: 0000 0000 0000 0000 0000 0000 0000 0000
00000360: 0000 0000 0000 0000 0000 0000 0000 0000
00000370: 0000 0000 0000 0000 0000 0000 0000 0000
00000380: 0000 0000 0000 0000 0000 0000 0000 0000
00000390: 0000 0000 0000 0000 0000 0000 0000 0000
000003a0: 0000 0000 0000 0000 0000 0000 0000 0000
000003b0: 0000 0000 0000 0000 0000 0000 0000 0000
000003c0: 0000 0000 0000 0000 0000 0000 0000 0000
000003d0: 0000 0000 0000 0000 0000 0000 0000 0000
000003e0: 0000 0000 0000 0000 0000 0000 0000 0000
000003f0: 0000 0000 0000 0000 0000 0000 0000 0000
1.0 0.0 0.0 0.0 0.0 0.0 0.0 0.0
0.0 0.0 0.0 0.0 0.0 0.0 0.0 0.0
0.0 0.0 0.0 0.0 0.0 0.0 0.0 0.0
0.0 0.0 0.0 0.0 0.0 0.0 0.0 0.0
0.0 0.0 0.0 0.0 0.0 0.0 0.0 0.0
0.0 0.0 0.0 0.0 0.0 0.0 0.0 0.0
0.0 0.0 0.0 0.0 0.0 0.0 0.0 0.0
0.0 0.0 0.0 0.0 0.0 0.0 0.0 0.0
0.0 0.0 0.0 0.0 0.0 0.0 0.0 0.0
0.0 0.0 0.0 0.0 0.0 0.0 0.0 0.0
0.0 0.0 0.0 0.0 0.0 0.0 0.0 0.0
0.0 0.0 0.0 0.0 0.0 0.0 0.0 0.0
0.0 0.0 0.0 0.0 0.0 0.0 0.0 0.0
0.0 0.0 0.0 0.0 0.0 0.0 0.0 0.0
0.0 0.0 0.0 0.0 0.0 0.0 0.0 0.0
0.0 0.0 0.0 0.0 0.0 0.0 0.0 0.0
0.0 0.0 0.0 0.0 0.0 0.0 0.0 0.0
0.0 0.0 0.0 0.0 0.0 0.0 0.0 0.0
0.0 1.0 1.0 0.0 0.0 0.0 0.0 0.0
0.0 0.0 0.0 0.0 0.0 0.0 0.0 0.0
0.0 0.0 0.0 0.0 0.0 0.0 0.0 0.0
0.0 0.0 0.0 0.0 0.0 0.0 0.0 0.0
0.0 0.0 0.0 0.0 0.0 0.0 0.0 0.0
0.0 0.0 0.0 0.0 0.0 0.0 0.0 0.0
0.0 0.0 0.0 0.0 0.0 0.0 0.0 0.0
0.0 0.0 0.0 0.0 0.0 0.0 0.0 0.0
0.0 0.0 0.0 0.0 0.0 0.0 0.0 0.0
0.0 0.0 0.0 0.0 0.0 0.0 0.0 0.0
0.0 0.0 0.0 0.0 0.0 0.0 0.0 0.0
0.0 0.0 0.0 0.0 0.0 0.0 0.0 0.0
0.0 0.0 0.0 0.0 0.0 0.0 0.0 0.0
0.0 0.0 0.0 0.0 0.0 0.0 0.0 0.0
