route_TSC/model/0.5_hatt_router_joint_0315/ep30/target_q_netveh.pt (torch, 510456 bytes, 26 tensors)

attn f4 [1, 2, 37]
000000 ce 02 88 50 f9 05 00 00 00 00 00 00 00 00 00 00
       1.8255081e+10 2.143e-42 0.0 0.0
000010 00 00 00 00 00 00 00 00 00 00 00 00 00 00 00 00
       0.0 0.0 0.0 0.0
000020 00 00 00 00 00 00 00 00 00 00 00 00 00 00 00 00
       0.0 0.0 0.0 0.0
000030 00 00 00 00 00 00 00 00 00 00 00 00 00 00 00 00
       0.0 0.0 0.0 0.0
000040 00 00 00 00 00 00 00 00 00 00 00 00 00 00 00 00
       0.0 0.0 0.0 0.0
000050 00 00 00 00 00 00 00 00 00 00 00 00 00 00 00 00
       0.0 0.0 0.0 0.0
000060 00 00 00 00 00 00 00 00 00 00 00 00 00 00 00 00
       0.0 0.0 0.0 0.0
000070 00 00 00 00 00 00 00 00 00 00 00 00 00 00 00 00
       0.0 0.0 0.0 0.0
000080 00 00 00 00 00 00 00 00 00 00 00 00 00 00 00 00
       0.0 0.0 0.0 0.0
000090 00 00 00 00 00 00 00 00 00 00 00 00 00 00 00 00
       0.0 0.0 0.0 0.0
0000a0 00 00 00 00 00 00 00 00 00 00 00 00 00 00 00 00
       0.0 0.0 0.0 0.0
0000b0 00 00 00 00 00 00 00 00 00 00 00 00 00 00 00 00
       0.0 0.0 0.0 0.0
0000c0 00 00 00 00 00 00 00 00 00 00 00 00 00 00 00 00
       0.0 0.0 0.0 0.0
0000d0 00 00 00 00 00 00 00 00 00 00 00 00 00 00 00 00
       0.0 0.0 0.0 0.0
0000e0 00 00 00 00 00 00 00 00 00 00 00 00 00 00 00 00
       0.0 0.0 0.0 0.0
0000f0 00 00 00 00 00 00 00 00 00 00 00 00 00 00 00 00
       0.0 0.0 0.0 0.0
000100 00 00 00 00 00 00 00 00 00 00 00 00 00 00 00 00
       0.0 0.0 0.0 0.0
000110 00 00 00 00 00 00 00 00 00 00 00 00 00 00 00 00
       0.0 0.0 0.0 0.0
000120 00 00 00 00 00 00 00 00
       0.0 0.0

fc0.weight f4 [32, 2315]
000000 fd e9 d7 bb 67 22 0c 3c 41 11 9b 3c b1 0d df 3b
       -0.006589173 0.008553124 0.018929126 0.006807052
000010 53 17 57 3c 29 9c 06 bc 51 82 85 3c 02 d9 0d bc
       0.0131281195 -0.008215942 0.016297491 -0.008657696
000020 9f 0c 1b 3c 80 2f 52 3c 57 70 83 bb a7 39 54 3c
       0.009463458 0.012828708 -0.0040111947 0.0129531985
000030 75 5a 94 3b ed 2f 2a 3c a6 84 9f 3c 6a 75 6a 3c
       0.004527385 0.010387403 0.019472431 0.01431022
000040 ac ef 5d bc 32 59 9b bc e3 ab d9 3b a4 a9 91 3b
       -0.013545912 -0.01896343 0.006642805 0.0044452716
000050 a0 c8 73 bc cd d6 69 3c 2f 05 8e bb 48 1b 68 3c
       -0.014879376 0.014272404 -0.004334114 0.014166661
000060 1e e7 88 bc 60 33 f0 3b 22 32 ed bb a2 c1 5d 3b
       -0.016711768 0.007330343 -0.0072386423 0.0033837338
000070 65 68 09 3c 3b 5c 2f bc 62 13 14 bc 6d fd 5a bc
       0.008386706 -0.010703142 -0.009037824 -0.0133660855
000080 82 02 80 3b 48 56 1a bc 00 25 3e bc fc fc 0f bc
       0.003906549 -0.009419985 -0.011605501 -0.0087883435
000090 97 9e 3e 3c 53 6b a4 3b 51 36 61 3c 5d ba 59 bb
       0.01163449 0.005017677 0.01374586 -0.0033222653
0000a0 e1 c5 28 bc ae de 11 3c 96 65 54 3c 7d 77 03 bc
       -0.010301084 0.008903189 0.012963673 -0.008024094
0000b0 ab 63 dd ba d0 26 02 bc c0 49 51 bc d6 97 83 3b
       -0.0016890665 -0.007943824 -0.012773931 0.004015903
0000c0 80 b1 03 3c a7 da b1 bb b8 ef ff ba b0 4e 63 3b
       0.008037925 -0.0054276767 -0.0019526398 0.0034684353
0000d0 f5 e0 06 3c b2 00 91 3c 85 c8 cd 3a f2 c4 e2 bb
       0.008232345 0.017700527 0.0015700018 -0.0069204504
0000e0 4e cd db bb 60 96 d6 bb e9 f4 93 b9 86 96 ea 3b
       -0.006707824 -0.006548688 -0.00028220497 0.007159057
0000f0 65 38 b4 3b c0 10 3c 3c 31 77 24 bc 57 d9 16 3c
       0.005499887 0.011478603 -0.010038183 0.009207091
000100 6f d2 6f bb 26 0d 18 bc c3 32 a5 3b 20 8a ca bb
       -0.0036593934 -0.009280479 0.0050414517 -0.0061810166
000110 d3 46 eb 3b d0 69 e8 3b 9a fa ee bb 96 26 3f bc
       0.0071800738 0.007092692 -0.0072930576 -0.011666914
000120 73 e9 0d 3c 24 fa 40 bc aa b5 4e 3c 85 ee 57 3b
       0.008661616 -0.011778388 0.012616554 0.0032948565
000130 0d 8c 1a bc a7 cf 51 3c 4c 2b 8a 3a 5b 39 5d 3c
       -0.009432805 0.012805856 0.0010541468 0.013502444
000140 b2 cf 8d 3b 9c 8d c3 bb 04 d5 9b 3b 33 82 6f bb
       0.0043277377 -0.005967809 0.004755618 -0.003654611
000150 89 af 90 bc 43 ce 8c bc ae d3 b0 bb c5 6f 9b bc
       -0.017661827 -0.017188197 -0.005396328 -0.018974194
000160 52 2d 92 bb 68 af 8e bc 7d 1d 55 3b 85 8b 97 bc
       -0.004460969 -0.017417625 0.0032518797 -0.018499145
000170 d9 cb 16 39 5d 25 5b bc b1 6c 71 bc 14 10 59 3c
       0.00014381054 -0.013375607 -0.014735387 0.013248462
000180 84 d1 d3 3b 85 21 00 3c 74 65 68 3c 9a ed 50 3c
       0.006464185 0.007820492 0.014184345 0.012751961
000190 d4 d3 20 bc ae 7e dd 3b e4 9e ab bb 5f f1 dc 3b
       -0.009816129 0.006759486 -0.005237447 0.006742641
0001a0 db ba 02 bc 82 e3 e1 3a 9b 8e a8 3a 5f 2d 72 bc
       -0.00797912 0.001723394 0.0012859883 -0.014781325
0001b0 a1 25 f7 bb 47 eb 0a 3c 80 0a 04 bc e4 c3 71 bb
       -0.0075423275 0.008478946 -0.008059144 -0.0036890442
0001c0 66 8e 6b 3c 6a 98 bf bb 7c f9 08 bb f7 10 13 bc
       0.014377212 -0.0058470266 -0.0020900657 -0.008976213
0001d0 42 99 ba 3b fc 71 1d 3c 40 cc 30 bb bf 6c 77 3b
       0.0056945393 0.0096096955 -0.0026977211 0.0037754027
0001e0 3e 1e 0b bc 04 a6 54 bc f1 c1 7c 3c 51 df ba 3a
       -0.008491097 -0.012979034 0.015427099 0.0014257227
0001f0 e8 97 42 bc ac a8 c4 3b 82 8a 2c 3c 03 d8 83 bb
       -0.011877038 0.0060015526 0.01053107 -0.0040235533
000200 b8 98 ae 3b 77 7a 94 3b 7a f5 61 3c 9a 9c 8a bb
       0.005328264 0.0045312005 0.013791436 -0.004230094
000210 0b 56 46 3b 2f 86 fd bb 1d 92 1d 3c 37 fb 89 3b
       0.0030263688 -0.007736943 0.009617356 0.0042108553
000220 6b 48 4e 3b 6d dc 83 bc 27 cd 59 bc b6 5f ae bb
       0.003147627 -0.016096318 -0.013293541 -0.005321468
000230 0d 43 09 bc b6 3a 02 bc fd 00 1d bc 20 be f4 3b
       -0.008377803 -0.007948568 -0.009582755 0.0074689537
000240 85 bb 4d ba 80 1a 60 bc 3b 44 8d 3c db 62 5a 3c
       -0.0007848072 -0.013678193 0.017244449 0.013329233
000250 47 7a ea 3b 6b 0e 88 3b d3 ed 3a bb e5 00 1f bc
       0.00715569 0.0041521094 -0.0028523102 -0.009704803
000260 3f 8b 0c 3c 69 33 2a 3c 3f 05 62 bc 74 d5 17 3c
       0.008578121 0.010388234 -0.013795196 0.0092672
000270 e8 ea e4 bb c7 6d 3f 3c d2 83 7a bb 0f 16 a7 3a
       -0.006986011 0.011683888 -0.0038225544 0.0012747663
000280 17 d8 dc bb 0f 05 97 3c 56 03 90 3b 15 58 4c b8
       -0.006739627 0.01843503 0.004394929 -4.8719423e-05
000290 7e 86 cc bb c1 24 84 bb 5c 80 cd 3a 70 61 f4 3b
       -0.0062416187 -0.0040327017 0.0015678513 0.0074579045
0002a0 65 86 23 bb aa 37 dd 3b 94 82 0c 3c 53 3e ff bb
       -0.0024951932 0.0067510204 0.008576054 -0.007789412
0002b0 d7 15 1a 3b b4 e7 44 3b e2 f4 5f 3a 1d 46 0c 3c
       0.0023511553 0.0030045332 0.0008543265 0.008561638
0002c0 4a b4 c7 bb ac a0 8b ba 2f b4 a0 bc fe 0c 31 3c
       -0.00609449 -0.0010652742 -0.019617168 0.01080632
0002d0 9f f0 4e bc da 84 eb bb c7 8b 13 bc 26 80 0e bc
       -0.012630611 -0.007187468 -0.0090054935 -0.008697545
0002e0 d6 69 7c bc 33 d0 ff bb 37 6e 8f bc 1b 33 30 3c
       -0.015406093 -0.0078068017 -0.01750861 0.010754372
0002f0 98 e4 49 bc 0a a1 46 3b 08 c0 07 bc 3a e0 e9 3a
       -0.012322567 0.003030839 -0.00828553 0.0017843314
000300 2c f1 72 3c 0f 3f 78 bc 98 e6 d6 b9 bb cc 81 3a
       0.014828008 -0.015151753 -0.00040989066 0.0009902933
000310 51 34 d7 ba cb ec 2d 3c 3f f5 32 bc b5 e9 81 ba
       -0.001641879 0.010615538 -0.010922729 -0.0009911569
000320 a2 f5 18 3c d7 4d 1a bb 5f a8 6c 3c 50 a8 74 3c
       0.009335907 -0.0023544931 0.01444444 0.014932707
000330 9c 7b 48 bc 7b 57 af 3a f2 13 29 3c d7 84 71 bc
       -0.012236502 0.0013377512 0.010319697 -0.014741144
000340 5b c6 8f 3a e6 07 ff 3b fe 0e 49 3c 5b 2f ed 3b
       0.0010969149 0.007782924 0.012271641 0.007238311
000350 c2 c8 87 3c f9 20 42 bc 1e a8 54 bc 0f a5 89 bc
       0.016575221 -0.011848682 -0.012979535 -0.016802339
000360 f7 cb 6e 3c f6 d9 c9 3b 64 86 35 bc 71 a3 12 3c
       0.014574996 0.006160016 -0.0110794045 0.0089501
000370 4a b1 dd bb db af 16 bb 97 e2 08 bb 2c 25 31 3c
       -0.0067655193 -0.0022993002 -0.0020887011 0.010812085
000380 a8 a9 6b 3c 08 37 19 3c 93 75 87 bc f1 85 bc bb
       0.014383711 0.009351499 -0.016535556 -0.0057532717
000390 58 2f 33 bc df 9b 8a 3c 16 a7 38 ba 12 7e 0a 3b
       -0.010936581 0.016920028 -0.0007043941 0.0021132273
0003a0 5d 1f 80 bc 95 b6 76 3c 77 8f 09 bc 72 e6 e9 bb
       -0.015639955 0.015058179 -0.008396021 -0.007138067
0003b0 de 0e de bb 70 06 39 3c 16 79 4f 3b 5e 2a 4d bb
       -0.0067766747 0.011293039 0.0031657866 -0.003130577
0003c0 97 ca 4f ba 70 6a 8a 3b 5d 23 2a bc b6 d2 50 3b
       -0.00079266116 0.004224114 -0.010384408 0.0031863875
0003d0 50 1b 7d 3b f6 1f 71 bc ad 07 0a bc dd d2 71 3c
       0.0038621016 -0.014717093 -0.008424682 0.014759746
0003e0 dc fc 7b 3c aa 89 4c 3c 0d ce 92 3c 69 cd cd 3a
       0.015380111 0.012483994 0.017920518 0.0015701476
0003f0 ab a8 fd ba f8 2f 3b bc 55 b2 79 bc 0e 8a 0c bc
       -0.0019352635 -0.011425011 -0.015240272 -0.008577837

fc0.bias f4 [32]
000000 5b 91 fe bb 34 70 66 3c 65 d8 45 3c 1a f4 34 bc
       -0.0077687926 0.014064837 0.012075518 -0.0110445265
000010 d9 17 93 bc 27 53 1f bc c7 3e 1f bb c3 ad b5 3b
       -0.017955707 -0.009724415 -0.0024298893 0.0055443957
000020 e0 8e 2b bb aa 1c a5 3a 3d 05 0e bb 34 2a 02 bc
       -0.002617769 0.0012597044 -0.0021670603 -0.007944632
000030 a8 c0 88 bb 58 7b 04 bc 5f ff 59 bc 9d d8 0b 3c
       -0.004173357 -0.008086048 -0.013305514 0.008535531
000040 de d0 8c 3c 7c 6b 03 bb 73 36 02 3c 6f 6a 06 bc
       0.01718944 -0.002005308 0.007947552 -0.008204087
000050 b4 f6 bc ba cb 02 83 3c f8 1a 93 ba 29 45 59 bc
       -0.0014416785 0.015992543 -0.0011223247 -0.013261118
000060 4a 63 9a bc 87 a5 34 bb 79 0c 66 bc 3f ef a8 bb
       -0.018846173 -0.0027564482 -0.01404106 -0.0051554735
000070 56 04 d6 bb e5 b1 af bb a7 26 b6 bb 2b c2 6d bc
       -0.0065312786 -0.005361783 -0.005558807 -0.014511625

fc1.weight f4 [32, 32]
000000 23 b5 78 bd ac af 2f be 08 67 9e 3d b1 fc b5 3d
       -0.06071962 -0.17156857 0.077344954 0.08886088
000010 3d 9f 4f 3d c9 19 a5 3d 51 28 d3 bd 67 94 bf 3c
       0.05068897 0.08061559 -0.10310424 0.023386193
000020 eb b3 db bd a8 d5 07 3e 7c 11 1c 3e df b1 79 bd
       -0.10727676 0.13265097 0.15241045 -0.060960647
000030 dc 87 fe bd 12 5d 93 be 35 39 c8 3d 67 d3 3a 3d
       -0.12428257 -0.28781945 0.097765364 0.045611765
000040 a4 5d fe 3d 7e 22 b9 bd 82 f5 04 be 53 ea 9d 3c
       0.12420204 -0.09039782 -0.12984279 0.019276774
000050 17 e3 03 bd a0 40 b1 3d c9 9e 17 be d4 52 03 be
       -0.03219899 0.08654904 -0.14806665 -0.12824565
000060 81 17 e6 3c 0d 39 d9 3c 2c 23 0a 3e 66 5a 6d bd
       0.02808738 0.026516462 0.1348998 -0.05794754
000070 5f dd 7f be d9 70 20 3e d4 11 2a 3c 2b f1 ae 3d
       -0.2498679 0.15668048 0.010380227 0.08542093
000080 e5 4e 64 bd f3 3e cd bd 10 3a a8 be f8 fe 9e 3d
       -0.055739302 -0.10021772 -0.32856798 0.07763475
000090 06 67 6d 3d eb d0 e5 bd 57 e5 5a 3e 68 3e 0d be
       0.05795958 -0.112214886 0.21376549 -0.13793337
0000a0 a7 49 a7 3d 63 25 cf be 9c d4 d2 bd 91 14 98 bd
       0.08168345 -0.4045821 -0.10294458 -0.07425798
0000b0 8e 67 66 3c 5c 73 8f ba d9 11 a9 3d c5 52 d8 3d
       0.014062775 -0.0010944414 0.08255357 0.10562662
0000c0 56 1a 4c 3d cd 55 76 3d a0 9b 84 3d ef d9 05 3e
       0.049829803 0.06014042 0.064749956 0.13071416
0000d0 12 bd 24 3c 86 50 04 be 93 a2 94 3d 68 72 6a 3b
       0.0100548435 -0.12921342 0.07257571 0.0035773758
0000e0 a6 74 fa 3d 5c 88 59 3e 60 16 a5 3d 79 72 97 3d
       0.1222928 0.21243423 0.08060908 0.07394881
0000f0 0a 6f 54 3d a2 8c d2 be 90 c0 df 3d 64 ba b1 3d
       0.051863708 -0.4112292 0.109254 0.08678129
000100 c0 70 22 3e 69 98 97 3d 92 d7 62 3c 7c ed c5 3d
       0.15863323 0.07402117 0.013845341 0.09664437
000110 2e 76 eb bb 4f 0b 85 bd 14 a3 77 bd c1 7a 43 3c
       -0.007185719 -0.064962976 -0.060458258 0.011931122
000120 0c 5b 36 be 2b 7a c3 bd ec 91 41 3d 08 f6 0e 3e
       -0.17808169 -0.09544786 0.047258303 0.13961041
000130 fe f5 37 3e a5 c3 cd 3d be ac 52 bd 43 79 bc 3d
       0.17964932 0.10047082 -0.05143427 0.09202816
000140 cd 16 6d 3e 11 70 19 3e 0c 88 30 3d c8 d9 21 3e
       0.23153229 0.14984156 0.043098494 0.15805733
000150 de 5e 81 3d 84 c9 0a 3e 75 e6 8a 3c 22 b9 c0 3d
       0.063169226 0.13553435 0.016955594 0.09410311
000160 5e 6a 35 3e a2 2f 56 3d 9f cc 3e 3e ed c0 99 3d
       0.17716357 0.05229152 0.18632744 0.07507501
000170 76 15 4e 3e 99 14 85 bd 8d 9b 18 3e 54 d2 2c 3e
       0.20125374 -0.06498069 0.14903088 0.16877109
000180 88 2c 18 bd 33 41 34 3d 29 3c a7 3d 4e e5 12 bd
       -0.037151843 0.04400749 0.081657715 -0.035863213
000190 9e f1 1a 3e 87 8d c0 bd ac c7 c5 3d 72 bb ae bd
       0.15131232 -0.09401994 0.09657225 -0.08531846
0001a0 4a 24 a2 3d d8 00 e7 3d 93 4d 3b 3e e6 4e a3 3d
       0.07917078 0.11279458 0.18291311 0.07974033
0001b0 ed 14 dc 3c ed cb 8c be 4f c5 07 3e 88 02 eb bc
       0.026865447 -0.27499333 0.13258861 -0.02868773
0001c0 7e 74 e5 3d dd c2 84 be 27 bb 45 be b6 ff 14 3e
       0.1120386 -0.2592992 -0.19309674 0.14550671
0001d0 89 4e 61 be 73 cd f4 bc ae 20 63 3d 6c a7 97 3c
       -0.22002615 -0.029883122 0.055451088 0.01851245
0001e0 0e 1c 03 3e 54 9f 97 bd 5b 6e 95 3c de 41 68 bd
       0.12803671 -0.07403436 0.018241098 -0.05670344
0001f0 7f 15 b5 be 05 6c 33 3e 12 b6 38 bd 90 d2 89 bd
       -0.35367963 0.17521675 -0.04509551 -0.06729615
000200 d1 53 c0 3d 40 83 e5 bd 9e bc 94 be 62 be 88 3d
       0.09390987 -0.112066746 -0.29050153 0.06676938
000210 e7 e9 d5 3d 83 ce 04 be 33 32 39 3d d0 45 3a 3d
       0.10445004 -0.12969403 0.04521389 0.045476735
000220 75 6f bc 3d 1b 12 3d be 1d 6d f4 bd 09 49 0b bc
       0.09200946 -0.18463938 -0.11934874 -0.0085013
000230 0b 9d 10 be d4 4f fd 3d 5b e4 4a bc 4c b6 f9 bc
       -0.14122407 0.12368742 -0.012383546 -0.030482434
000240 67 62 7f 3e 71 04 5c bd b3 66 23 3e ba 15 1c bd
       0.24939881 -0.053715173 0.15957145 -0.038106658
000250 f4 4c e0 3b 6e 6c da 3d ca 96 7c 3d f6 be 9a bd
       0.006845111 0.106652126 0.06166724 -0.07555954
000260 10 61 00 bd bb c7 3e 3e a0 d4 83 3e 02 10 d9 bc
       -0.031342566 0.18630879 0.25748158 -0.026496891
000270 31 dc ef 3d 76 df c0 be c2 f7 c8 bd f0 1b 9a 3c
       0.1171192 -0.37670487 -0.09812881 0.01881215
000280 5b 70 8d 3d d3 4b 8c bd 3a 2f 1a be ff 1c b7 bd
       0.06906196 -0.068504 -0.15057078 -0.089410774
000290 eb 16 35 3e 73 e4 db bc 01 67 86 3d 18 69 4e bd
       0.17684524 -0.026842332 0.06562615 -0.050393194
0002a0 9d 95 1a 3e e1 6e b8 be ba 8b c8 bd 05 a6 55 bd
       0.15096135 -0.36022094 -0.09792276 -0.05216028
0002b0 64 24 a7 bd 33 40 09 bd 16 72 aa bd a8 bd 31 bd
       -0.08161238 -0.03350849 -0.083225414 -0.04339376
0002c0 bf e7 27 bc 52 1e af 3d cf ac f5 3d 19 d5 56 3d
       -0.010248124 0.08550705 0.11995851 0.05244932
0002d0 c1 6a f8 3c 2e 8c 94 3d 98 f9 1e 3e 8b f3 13 3e
       0.030324342 0.072533 0.155249 0.14448373
0002e0 e4 7b 38 3d 5d 57 79 bd 2d 6a 55 3e a9 b5 22 3e
       0.045040026 -0.06087433 0.20841284 0.1588961
0002f0 24 85 db 3b 86 86 85 be b1 8f 80 bc 80 a2 ca bd
       0.006699221 -0.26079196 -0.015693517 -0.09894276
000300 73 00 5c be 24 a9 94 be 27 2a 44 bd 0e a8 ee bd
       -0.21484546 -0.29035294 -0.047891762 -0.11653148
000310 10 33 9c bb 7c 39 81 be fc 10 36 3d 04 d3 06 be
       -0.0047668293 -0.2523917 0.04444979 -0.13166434
000320 e7 39 b8 bc 2e d5 2f bd 44 f3 11 be c4 2c 91 bd
       -0.022488547 -0.042927913 -0.14252955 -0.070886165
000330 a6 4f 00 be 97 2b f9 bc e6 e9 f4 bd 49 4f 49 be
       -0.12530383 -0.030416293 -0.11958675 -0.19659151
000340 99 ff 41 be 46 bf 93 3c 66 76 44 3e 71 29 7b 3e
       -0.18945159 0.018035542 0.1918579 0.24527527
000350 51 c1 ef bd d2 81 99 be 38 12 a4 be ec 43 bc 3d
       -0.11706794 -0.29981858 -0.3204515 0.091926426
000360 ac cd 65 3d 5b b8 4f bb 8b 80 c5 bc c4 2f 36 bd
       0.056104347 -0.0031695578 -0.024109146 -0.044479147
000370 df 4c 0f be aa c1 f4 3e 63 ba c3 3c 76 85 22 bc
       -0.13994168 0.47804004 0.023892587 -0.009919515
000380 d6 6f 45 3d ed b5 dd bd 8b 23 03 3e d3 57 21 3a
       0.04820236 -0.10825715 0.12806527 0.00061547494
000390 38 1d dc 3d ff 39 03 3e 43 54 29 be b2 22 1d bd
       0.107477605 0.12815093 -0.1653605 -0.038363166
0003a0 e6 5d 56 be 8a 19 05 be e2 05 20 3e 48 a2 2e 3d
       -0.20934257 -0.12998024 0.15627244 0.042635232
0003b0 55 76 8b 3d 63 91 b8 3d 61 27 96 3c d0 ba 27 be
       0.068096794 0.09012105 0.018329324 -0.16379857
0003c0 65 fb 73 3e bb 63 72 bc 9d 91 fa 3d f8 c2 c6 bd
       0.23826368 -0.014794285 0.12234805 -0.09705156
0003d0 0d 62 a7 bd 3c 17 ed 3b fa da 0a be 86 35 13 3e
       -0.081729986 0.007235436 -0.13560095 0.14375886
0003e0 3e 3d 47 3b df c4 ee bc 05 1c bc 3d 6a ba 80 3e
       0.0030401493 -0.02914661 0.09185032 0.25142223
0003f0 ae cf c6 bd ba df 4a be fa e4 af bd 92 b6 b8 3d
       -0.097075805 -0.19811907 -0.08588596 0.090191975

fc1.bias f4 [32]
000000 bd 85 2a bc f7 7b 71 3e b1 b0 9a 3e b8 e2 4c 3e
       -0.010407862 0.23582445 0.3021293 0.20008361
000010 b0 1d ca 3d 03 33 a8 3e a4 ba fa 3e 9e d3 36 3e
       0.09868944 0.3285142 0.4897052 0.17854163
000020 58 42 1d 3e 98 cf ab 3c f2 74 48 3e b1 95 3d 3c
       0.1535734 0.020973012 0.19575861 0.011571334
000030 86 13 a1 3e d1 b1 1d bd 9c b3 2b bc 2a 44 9c 3e
       0.31460208 -0.038499657 -0.010479834 0.30520755
000040 9f c4 42 3d 9b 8d e5 3d 44 5d ca bd 7b da e7 bd
       0.047550794 0.1120865 -0.0988107 -0.11320969
000050 7a 8e 9d 3e 48 43 83 3e 80 e2 96 3e e3 04 04 be
       0.30772763 0.2563727 0.2946968 -0.12892489
000060 c9 01 e4 bc 96 7d 30 3e e9 0e 6e 3e 9c 75 80 3e
       -0.027832882 0.17235407 0.23247875 0.2508973
000070 4f 03 a7 3e 1f d3 88 3e 44 9f 17 3e 5c 3b ec 3d
       0.32619712 0.26723573 0.14806849 0.115347594

fc2.weight f4 [3, 32]
000000 65 b2 94 3d c8 6d 67 bd 92 af 21 bd 9a f7 88 3d
       0.072605886 -0.05650118 -0.039474078 0.06687851
000010 28 60 82 bc 0c a3 7f bd aa 93 51 bd b5 79 e6 3b
       -0.015914991 -0.062411353 -0.051166214 0.0070335516
000020 d9 b1 3e bd 5d 6b 24 bd c5 02 82 bd ec 4a bd 3b
       -0.046556327 -0.040141452 -0.063481845 0.0057767536
000030 db d4 35 bd 91 23 3e 3c 1e b1 e3 3b c8 5c e7 bc
       -0.044392448 0.011605159 0.0069486042 -0.028242484
000040 55 af 92 3c b7 9e 72 3c 40 cc b3 3c f7 06 6f 39
       0.01790587 0.014808348 0.02194798 0.00022795411
000050 8b 6b 64 bd a1 be 68 bc 05 67 d2 bc ee a8 de 3b
       -0.055766623 -0.014205606 -0.02568389 0.0067950403
000060 cb e0 15 3e 4a 6b 71 3d a6 7f 5d bd 0f 4f 3b bd
       0.14636533 0.05894021 -0.054076813 -0.045729693
000070 da 3e 8e bd 46 bc 65 bd ff 7e 62 bd 4f c8 4c 3d
       -0.06945582 -0.056087755 -0.055296894 0.049995717
000080 0a 41 d4 3d d3 b7 ef bc 02 ad b8 bd 48 16 12 3e
       0.10363968 -0.029262459 -0.090173736 0.14266312
000090 a2 61 e4 bc 34 0c 6c bd 3a f6 9b bd ed 23 81 bd
       -0.027878586 -0.057628825 -0.07615323 -0.063056804
0000a0 87 46 04 bd 22 8e d6 bc 6d 2e 83 bd 97 9f 5c bc
       -0.032293823 -0.026190821 -0.064053394 -0.013465784
0000b0 34 e5 be bd 91 46 92 bc 1e 92 fd 3a 4b b2 14 bd
       -0.09321061 -0.017855914 0.0019345914 -0.036302846
0000c0 2e 48 0c bd 8a 4a b7 bd f0 80 b9 3d a6 f0 a0 bb
       -0.034248523 -0.08949764 0.09057796 -0.0049115
0000d0 a2 94 2f bd 0f 0c 83 bd 10 16 80 bd 36 f3 10 bb
       -0.042866357 -0.06398784 -0.06254208 -0.0022117621
0000e0 f1 24 5d be 6e 3b c1 3d 20 23 f5 39 77 12 be bd
       -0.21596123 0.094351634 0.00046756212 -0.09280866
0000f0 70 ad 7d bd b3 d4 c7 bd 78 93 48 bd ba e6 1f 3e
       -0.06193298 -0.09757366 -0.048968762 0.15615359
000100 c1 96 13 bd 63 4b ff bd f4 4e 84 bd 56 3c a5 bc
       -0.036032442 -0.12465551 -0.064603716 -0.020170372
000110 68 d6 96 bd b5 66 a8 bd cc e4 a7 3e c5 f0 9f bd
       -0.073651135 -0.08222715 0.32791746 -0.07809595
000120 7c 6d cc bd da 5d bc bd 7f c8 a8 bd 38 fd 54 bc
       -0.0998182 -0.09197588 -0.082413666 -0.012999825
000130 72 c0 97 bd ed f6 99 3c 94 c9 b8 bd 18 e7 b0 bd
       -0.07409753 0.018794501 -0.09022823 -0.08637828
000140 91 fc 4f bd 7e 2b 91 3d 43 67 06 bd 13 83 37 bb
       -0.050777975 0.070883736 -0.03281332 -0.002800171
000150 ae c4 d3 bd 62 48 d3 bd f8 ad 7e bd 48 3b ac bb
       -0.10340248 -0.1031654 -0.06217763 -0.0052560903
000160 e2 bf fc 3d aa f1 cf bc a0 4d f3 3d 6f 88 a0 bd
       0.12341286 -0.02538379 0.1188004 -0.07838523
000170 9c 88 c0 bd b8 37 9b bd 6c 54 a3 bd 95 9f 08 bd
       -0.09401056 -0.07578987 -0.079750866 -0.033355314

fc2.bias f4 [3]
000000 3f 02 ab be e1 53 81 be 99 08 28 3f
       -0.3340015 -0.25259307 0.6563812

road_emb.0.weight f4 [144]
000000 e7 c7 9d 3f 6f 32 82 3f 11 b5 93 3f 5f 9f 7f 3f
       1.232663 1.0171641 1.1539632 0.99852556
000010 25 7a 7a 3f 88 7f 80 3f 68 84 8c 3f 41 10 92 3f
       0.9784263 1.003892 1.0977907 1.141121
000020 f6 0f 98 3f 11 5c 44 3f 6f 97 7a 3f 02 2d 84 3f
       1.1879871 0.7670298 0.9788732 1.0326235
000030 d9 93 8b 3f d8 1b 81 3f 20 af 91 3f 08 88 75 3f
       1.0904495 1.0086622 1.1381569 0.9591069
000040 2e 85 85 3f 07 9e 81 3f f7 1e 87 3f 2c ab 85 3f
       1.0431268 1.0126351 1.0556325 1.0442863
000050 79 4f 9f 3f 97 a5 40 3f a1 f1 74 3f ea a6 7a 3f
       1.2446128 0.7525267 0.95681196 0.9791094
000060 e1 39 a4 3f bc 91 81 3f dc 69 8b 3f b1 2c 82 3f
       1.2830163 1.01226 1.0891681 1.0169889
000070 57 65 6c 3f 72 db 87 3f 02 c9 87 3f eb c6 90 3f
       0.9234213 1.0613844 1.0608218 1.1310705
000080 b3 2e 9d 3f fb e3 5b 3f a9 15 82 3f fb 56 84 3f
       1.2279876 0.85894746 1.016286 1.0339044
000090 b6 a4 9e 3f 81 aa 82 3f 74 3b 91 3f 9c 6f 61 3f
       1.2394016 1.0208284 1.1346269 0.8806093
0000a0 4a ef 86 3f 4f 96 84 3f 55 aa ab 3f 48 18 89 3f
       1.0541775 1.035837 1.3411356 1.0710535
0000b0 ff 60 a1 3f f4 d9 59 3f 0c 70 80 3f a6 de 76 3f
       1.2607726 0.85098195 1.0034194 0.96433485
0000c0 ba d6 9a 3f 97 61 84 3f de cc 8a 3f d5 92 7e 3f
       1.2096779 1.0342282 1.084377 0.994428
0000d0 09 f8 7a 3f cd 8f 76 3f a0 e6 8e 3f 3f 32 87 3f
       0.9803472 0.9631317 1.1164131 1.0562209
0000e0 14 ad a3 3f 29 26 46 3f b0 83 7d 3f b6 1b 72 3f
       1.2787194 0.7740198 0.99029064 0.94573534
0000f0 34 54 98 3f ea 16 85 3f fe 79 8f 3f f9 1b 68 3f
       1.1900697 1.0397618 1.1209104 0.9066768
000100 01 7f 72 3f db c0 7e 3f 94 cf 97 3f 9d 57 8b 3f
       0.9472504 0.99513024 1.1860223 1.0886112
000110 87 29 a0 3f c6 8d 63 3f 5a 6f 83 3f a6 c5 6e 3f
       1.2512673 0.88888204 1.0268357 0.9327034
000120 3c 27 a4 3f fa af 81 3f 09 3f 96 3f 2a 02 82 3f
       1.2824473 1.0131829 1.1737987 1.015691
000130 9f 77 83 3f d3 3e 84 3f 77 fd 85 3f 7b 8b 84 3f
       1.027088 1.0331672 1.0467976 1.0355066
000140 9f cd a5 3f b8 dd 66 3f 55 8d 82 3f c9 f3 94 3f
       1.2953376 0.90182066 1.0199381 1.1636897
000150 5e 67 a0 3f cc dd 91 3f 39 ec 94 3f 05 6e 6e 3f
       1.2531545 1.1395812 1.163459 0.93136626
000160 22 1e 73 3f 41 0b 7a 3f b8 54 94 3f f8 6d 82 3f
       0.94967854 0.9767342 1.1588354 1.018981
000170 f9 a5 9a 3f c2 5b 4c 3f 9b 69 80 3f 27 ac 9a 3f
       1.2081901 0.7982751 1.0032228 1.2083787
000180 32 0e 8d 3f 2a 94 7f 3f 68 41 95 3f 39 bb 74 3f
       1.1019957 0.99835455 1.1660585 0.9559818
000190 c4 57 6d 3f 90 8a 7b 3f db f0 9a 3f 21 d9 85 3f
       0.92712045 0.98258305 1.2104753 1.0456887
0001a0 dc 02 a1 3f 99 01 5e 3f 96 42 80 3f 70 17 99 3f
       1.2578998 0.8672119 1.002032 1.1960278
0001b0 af a3 9d 3f 90 ec 6c 3f 3f 26 8b 3f e3 df 7e 3f
       1.2315577 0.92548466 1.0871047 0.99560374
0001c0 7f 84 7c 3f 3f e8 8b 3f 5e 87 8d 3f 77 d7 8a 3f
       0.98639673 1.0930251 1.1056936 1.0847005
0001d0 cb bf a0 3f ca e9 68 3f d8 64 95 3f 7d 1d 84 3f
       1.255853 0.90981734 1.16714 1.0321499
0001e0 35 22 8b 3f da 08 85 3f ab 16 8f 3f 8d 4d 83 3f
       1.0869814 1.0393326 1.1178793 1.0258042
0001f0 c1 ef 8e 3f 6d e0 84 3f 18 b8 8c 3f 0b 1b 8c 3f
       1.1166917 1.0380989 1.0993681 1.0945753
000200 34 5d a3 3f 1c 53 65 3f fa c9 96 3f f1 17 84 3f
       1.2762818 0.8957994 1.1780388 1.0319806
000210 12 9e 9c 3f e1 3d 85 3f e5 e9 8b 3f 1b 44 6d 3f
       1.2235739 1.0409509 1.0930754 0.92682046
000220 da 85 83 3f ea a3 82 3f 40 9a 83 3f 8c 31 8e 3f
       1.0275223 1.0206273 1.0281448 1.110887
000230 6f fd a4 3f b4 90 6a 3f bf 6f 90 3f 2f 1a 86 3f
       1.2889842 0.9162705 1.1284102 1.0476741

road_emb.0.bias f4 [144]
000000 b5 97 84 3d 7e 9f cb 3d c9 f7 06 3d e1 5e 9e 3d
       0.06474248 0.0994253 0.03295115 0.077329405
000010 92 40 ee 3d 28 4c 9a 3d b1 a9 86 3d 06 50 2c 3e
       0.116334096 0.07534057 0.06575335 0.16827402
000020 84 fd a9 3c ce 8f 86 be ac 7c 19 3e 3c c7 db 3d
       0.020750768 -0.2628159 0.14988965 0.1073136
000030 ca 2a e7 3d 9c fe 9f 3d a5 85 51 3d a9 a2 0f 3e
       0.11287458 0.07812235 0.051152844 0.14026894
000040 04 81 b8 3d b5 6e a7 3d 5a c1 8b 3d d1 b9 d6 3d
       0.09008983 0.081754126 0.06823988 0.104846604
000050 5b be 96 3c f7 fe 8f be 52 08 c6 3d 17 93 c8 3d
       0.018401315 -0.2812421 0.09669556 0.0979368
000060 08 09 68 3d a6 d2 b1 3d 9f f0 1d 3e 95 57 69 3d
       0.056649238 0.08682756 0.15423821 0.05696829
000070 b0 9f 3a 3e 2e 19 0e 3e 5f 56 70 3d 03 fb 0d 3e
       0.18224978 0.13876793 0.05867612 0.13865285
000080 c5 31 83 3c 4c 6c 34 be c9 2f 1f 3e e4 7d c5 3d
       0.016014943 -0.17619437 0.15545572 0.09643152
000090 76 8b 19 3d 29 43 aa 3d d5 02 03 3e a0 8d 23 3e
       0.037486516 0.08313591 0.12794049 0.15971994
0000a0 6b 79 9e 3d aa 1c 6f 3d ef fa 3c 3d 76 22 41 3e
       0.077380024 0.058376946 0.046137746 0.18860802
0000b0 06 64 72 bb fe 72 fa bd 5f 28 e5 3d 1c 3a 00 3e
       -0.0036985888 -0.12228964 0.11189341 0.12522167
0000c0 56 ec dc 3d 40 46 c8 3d a3 d8 fb 3d 50 69 9f 3d
       0.10787265 0.09779024 0.122971795 0.07783759
0000d0 83 00 17 3e ad 70 b2 3d e7 bf aa 3d 9b 18 26 3e
       0.14746289 0.087128974 0.08337384 0.16220324
0000e0 a1 96 9a 3c f7 cb 6e be 6a 70 eb 3d 54 d7 08 3e
       0.018870654 -0.23319994 0.11496051 0.13363391
0000f0 63 ce 8b 3d 3e 62 a1 3d e3 de 1f 3e b8 1c 05 3e
       0.068264745 0.07880066 0.15612368 0.12999237
000100 cd 8a 05 3e 72 76 8c 3d 9c b6 cf 3c d1 ed 1f 3e
       0.1304123 0.06858529 0.02535563 0.15618064
000110 2b 37 1b bc da e3 b9 bd 7a 0e 2a 3e 8d 5e d3 3d
       -0.009473602 -0.09076662 0.16607085 0.103207685
000120 34 0b 0d 3e ea a7 c6 3d b7 7f 52 3d 80 c1 97 3d
       0.13773805 0.09699996 0.05139133 0.07409954
000130 e0 4b fc 3d 21 d9 9d 3d 73 10 d5 3d 63 cf f0 3d
       0.123191595 0.0770743 0.10403528 0.11758306
000140 7e 81 b1 3c 89 f1 d2 bd 81 7d cb 3d bd 18 a1 3d
       0.021668192 -0.102999754 0.09936047 0.078660466
000150 71 b7 bd 3d 05 38 66 3d 46 e8 3a 3d 67 8a f7 3d
       0.09263504 0.05620577 0.04563167 0.12086945
000160 6d 1f d0 3d 80 a4 e1 3d 08 86 01 3d ab d2 23 3e
       0.10162244 0.11017704 0.031621963 0.15998332
000170 b3 b1 ae 3c 05 3a 73 be 1d bd d5 3d fc ef 66 3d
       0.021324968 -0.23752601 0.10436461 0.05638121
000180 07 a4 10 3e 4a 81 b4 3d 3b 2b 92 3d 52 da ca 3d
       0.14125071 0.088137224 0.07137152 0.099049225
000190 11 6f 3d 3e da ef 05 3e 09 5a 51 3d 24 b9 2c 3e
       0.184994 0.13079777 0.051111255 0.168675
0001a0 87 e9 ae 3c 04 a2 ff bd f7 34 47 3e ce c9 46 3d
       0.021351589 -0.12482074 0.19453798 0.0485323
0001b0 ce f3 a5 3d cc 29 10 3e 4f d8 13 3e 91 bc 8a 3d
       0.08103143 0.14078444 0.14437984 0.067742474
0001c0 c5 2b 09 3e 54 85 f0 3c 69 86 11 3e 80 b8 88 3d
       0.13395603 0.02936045 0.1421143 0.066758156
0001d0 a1 99 87 3c 45 7d 9d bd 51 0e 1f 3d d6 08 96 3d
       0.016552748 -0.07689909 0.038832013 0.07325904
0001e0 04 6a 30 3e 29 eb bd 3d a5 64 db 3d bd dd a3 3d
       0.17227942 0.09273369 0.10712556 0.080012776
0001f0 22 57 4c 3d d4 20 75 3d 87 ac d9 3d 20 11 1a 3e
       0.049887784 0.05984576 0.1062861 0.15045595
000200 dd 20 e4 3b fa 9d c0 bd e3 eb c4 3d 0b e3 dc 3d
       0.0069619254 -0.09405132 0.09615304 0.107854925
000210 e3 e2 f7 3d e6 08 9c 3d 61 53 24 3e 3f cf c4 3d
       0.12103822 0.07618885 0.16047432 0.096098416
000220 ff 64 62 3d ae c6 a4 3d 11 52 14 3e 2f 67 ae 3d
       0.0552721 0.08045708 0.14484431 0.085157745
000230 44 f0 c5 3c 3c 12 ac bd 18 1d 97 3d 1e a2 8a 3d
       0.02416242 -0.084019154 0.07378596 0.06769203

road_emb.1.weight f4 [64, 144]
000000 80 ce d5 bd ae 4e 89 bd 60 b7 c0 be 1c fa 86 3b
       -0.104397774 -0.0670446 -0.37639904 0.004119171
000010 09 31 81 bc 2e 63 2f 3d 15 58 11 3d 52 b0 e1 3d
       -0.015770452 0.042819194 0.035484392 0.110199586
000020 c7 fa 95 3d 70 80 87 bd 37 a9 7a 3d c1 85 dc bb
       0.073232226 -0.066162944 0.061196532 -0.006729812
000030 ca 3b 03 3d 94 9b 06 bd f4 86 70 be cf a5 b9 bd
       0.03203944 -0.032863215 -0.2348898 -0.090648286
000040 04 44 d7 3d 2a df 67 bd 5d e9 e0 3d 52 6c 15 3d
       0.1051102 -0.05660931 0.109820105 0.036480255
000050 ad ae 8e bd 87 7e af 3d 6e 70 c4 3d 9a 11 4d 3d
       -0.069669105 0.08569055 0.09591757 0.050065614
000060 04 a8 48 bd d8 b4 cf 3d 82 07 c6 be 30 90 f4 3d
       -0.048988357 0.10141915 -0.38677603 0.11941564
000070 28 89 80 bd ad d3 81 3d 04 ef 95 3d f9 10 b5 3d
       -0.062761605 0.06339202 0.07320979 0.08841128
000080 cd aa 3b 3c da 54 d4 bd 06 b1 8e 3d 6e 5c c6 3d
       0.011454296 -0.10367747 0.06967358 0.09685598
000090 e4 7e 8b be 08 ca 4b 3d 95 a0 38 be c7 f1 31 be
       -0.27245247 0.04975322 -0.18030007 -0.17377387
0000a0 f0 84 e1 bd a3 78 81 3d 63 97 88 3e 1f c5 72 bd
       -0.11011684 0.06321838 0.26678 -0.05927002
0000b0 73 79 fa bd 6e 17 dc 3d 5c b1 d5 bd 98 ad 7b 3d
       -0.12230196 0.10746656 -0.10434219 0.06144485
0000c0 27 42 fb 3c 8d 4f 3f bd 8a c5 87 bd 3a 90 d3 3a
       0.030671192 -0.046706725 -0.066294745 0.0016141005
0000d0 13 66 02 be d4 c8 d3 bd 34 a7 bc 3d 2f 0d 22 be
       -0.1273425 -0.10341039 0.09211579 -0.15825342
0000e0 bd ab 5b be fe 3e 05 3d ff 4b 7d 3d c6 35 3d bd
       -0.21452232 0.032530777 0.061840054 -0.04619386
0000f0 c7 9e ac 3c cb aa 4c 3d a4 32 31 be 0e da f4 bc
       0.021071805 0.04996757 -0.17304474 -0.029889133
000100 3a 0a d9 3d 19 4c b9 3d 42 36 57 be 3a f9 2c be
       0.10597654 0.090477176 -0.21016791 -0.16891947
000110 2d 4d 09 be ed 7f b4 bd fd 2b 6c 3d 10 20 13 be
       -0.13408346 -0.088134624 0.057659138 -0.143677
000120 99 5e 13 be 4d af d1 3d 79 87 5f bd 3a 9a 96 bb
       -0.14391555 0.10238514 -0.054572556 -0.004596022
000130 91 9b a9 bb be 65 dd 3d 31 8a 9c 3d e2 3f aa bd
       -0.0051760157 0.108104214 0.076435454 -0.08312966
000140 b9 fe 76 3b 37 a7 10 3e 39 23 ca bd e4 00 b1 be
       0.0037688448 0.14126287 -0.098699994 -0.34570992
000150 93 2b 28 3e 35 8f c7 bb 2d 86 28 be 07 9a 86 bd
       0.16422872 -0.0060900697 -0.16457434 -0.06572347
000160 9f 12 04 3d 3b 7c 21 3e 4a 8c e3 bc 73 1f 8d bc
       0.03224432 0.15770046 -0.027776856 -0.01722691
000170 c1 7c 80 be c9 f9 33 3d 17 3a e3 3d f4 61 61 bc
       -0.2509518 0.043939386 0.11095064 -0.013756264
000180 85 d3 e9 bc 36 21 8a 3d 53 97 3a be be cf 13 be
       -0.028543243 0.06744616 -0.18221788 -0.14434716
000190 cc 9f 2f be 98 eb e5 bc 96 ec 64 3d 90 aa 84 bd
       -0.17150801 -0.028066441 0.05588969 -0.06477845
0001a0 cf e8 3d 3d c3 c1 54 3e 2e fc f3 3d b0 8b 4f bd
       0.0463646 0.20777039 0.11913334 -0.050670326
0001b0 13 9e dd bd 7e 5a 12 3e f2 e5 38 bd 0d 8e 7b bd
       -0.10821166 0.14292333 -0.045141168 -0.061414767
0001c0 f7 02 32 be f6 65 0b bd 2c 2a 82 3c 47 c0 98 bd
       -0.17383943 -0.034032784 0.01588925 -0.07458549
0001d0 cb 10 e7 bd ce 84 85 3d 48 4f d4 bc a8 b9 90 3d
       -0.112825 0.06519471 -0.02591671 0.07066661
0001e0 40 3a b8 bb 60 9a 4d bd b6 8c 9d 3d 86 a5 ae bc
       -0.0056221783 -0.05019605 0.07692854 -0.021319162
0001f0 d5 29 6f bd 60 c5 8d bc cc 22 14 3e 58 c6 81 3c
       -0.058389504 -0.01730603 0.14466399 0.015841648
000200 b5 e4 b1 3d 11 13 c2 bc 65 e5 dc bd 16 82 08 3e
       0.086862005 -0.023690732 -0.10785941 0.13330874
000210 f9 e0 2c bc a3 66 14 3e 9e 30 56 3d ce a5 dd bd
       -0.010551685 0.14492278 0.05229246 -0.1082264
000220 44 70 3c bc 7f 1a 15 3e ba 5c 87 3e fe ec 88 bd
       -0.011501376 0.14560889 0.26437932 -0.06685828
000230 a2 e6 1b bd a1 a9 ba 3d 85 03 7f be e2 2e 6c 3d
       -0.038061745 0.091143854 -0.24903686 0.0576619
000240 bb 91 92 bd a7 ca 4e bd ab 49 bf be 99 3f b9 3d
       -0.07156702 -0.050486233 -0.37360892 0.090453334
000250 31 3b 02 3d 18 ac b4 3d f7 7a 77 3e e6 6f 71 bd
       0.03179473 0.08821887 0.24168001 -0.058944605
000260 7f 76 f5 3d 56 b0 b0 3d a7 20 f0 3c d7 b9 5d 3c
       0.11985492 0.086273834 0.029312445 0.013533077
000270 0b 25 b7 bd 29 c1 55 3d 1e 99 97 be 95 ff 60 bc
       -0.08942612 0.052186165 -0.29609007 -0.0137328105
000280 e8 6c 4e 3d 99 f6 16 3e 8d 5f 13 3e 34 d5 12 be
       0.05039683 0.14742507 0.14391918 -0.14339143
000290 c3 6f 36 bb bc 1e 25 be 8a e2 3c 3d f8 4e 7b be
       -0.0027837611 -0.16125005 0.046114482 -0.24541843
0002a0 5f 16 9f bd 8d 6f e2 bd 8e 02 87 be 80 56 11 3e
       -0.07767939 -0.11056433 -0.26369137 0.14193153
0002b0 75 c3 39 3e 2d 00 bf 3d 10 27 2b bd 5b bd 05 be
       0.18140967 0.093262054 -0.0417853 -0.13060515
0002c0 7d a0 77 3e cf 72 3c 3c 67 dd 09 3e b0 3f ab bd
       0.24182315 0.011501982 0.13463365 -0.08361757
0002d0 5d 67 30 be 07 3e c0 bc 09 f0 79 bd 5f 35 77 3e
       -0.1722693 -0.023467077 -0.06101993 0.24141453
0002e0 ea ef 9c 3d ec 43 2f 3e 5a 84 b1 3c e0 10 3a be
       0.076629475 0.17115754 0.021669555 -0.181705
0002f0 34 b5 d6 3d 4b 2f 86 bd 89 72 5e be 0b 0b f7 ba
       0.104837805 -0.06551989 -0.21723379 -0.0018847896
000300 12 8f 21 be 14 2f d1 3d 4f 24 a7 3b bb 34 37 3e
       -0.15777233 0.102140576 0.005100764 0.17891209
000310 34 3d 52 3e bb 36 c3 3d 65 f2 5f 3d 46 b2 5c be
       0.2053116 0.095319234 0.054674525 -0.21552381
000320 40 fa 41 3e 06 d3 e9 3d 74 ec c4 bd d3 8a 9f bb
       0.18943119 0.11417203 -0.09615412 -0.004868844
000330 75 21 37 3e 0b 69 78 bc 81 7f d8 bd 88 a6 ea 3d
       0.17883857 -0.015161763 -0.105711944 0.114575446
000340 81 2b 9a 3d c9 e0 77 3d 2e b5 48 3e a1 ed 5d bd
       0.07527829 0.060517106 0.19600365 -0.0541817
000350 ac 1b 84 3e c4 2a c9 bd 70 4a 1f bd 30 17 09 bd
       0.25802362 -0.0982261 -0.03888935 -0.03346938
000360 b9 6a 1c be 62 c8 42 bd d2 fd a5 be c2 6c 11 3e
       -0.15275086 -0.04755438 -0.32420212 0.14201644
000370 d7 97 af 3d 36 bf 8b 3d c0 3c 2f 3e b9 e9 dd 3d
       0.08573883 0.0682358 0.17113018 0.10835595
000380 1f 70 8d 3e 78 2c 6d 3d b3 1b ff 3c aa f1 93 bd
       0.27624604 0.057903737 0.031141138 -0.07223828
000390 a1 13 22 be c7 16 a0 3d c5 2e 42 be 2b 75 26 3d
       -0.158278 0.078168444 -0.18963154 0.040639084
0003a0 d1 39 b5 3d 3c e4 8b bc 9b 3a 14 bd a8 c7 20 be
       0.08848918 -0.017076604 -0.036188703 -0.15701163
0003b0 64 35 91 3e e9 81 d3 3d c1 8b dc bd 12 f6 25 be
       0.28361046 0.10327513 -0.107688434 -0.1620715
0003c0 a1 86 a4 bd 15 91 a8 bd 23 dd 69 be 60 ef d3 bd
       -0.08033491 -0.08230797 -0.22838263 -0.103483915
0003d0 d4 52 b3 bd 73 f5 16 be b7 1e 49 3e 95 40 7d 3d
       -0.087560326 -0.14742069 0.19640623 0.06182917
0003e0 1e d1 46 3e ca 07 3f 3d 0e 64 55 be 67 42 9e be
       0.1941571 0.046638288 -0.20838949 -0.30910036
0003f0 d1 08 a3 be 9b 6c b2 3c 45 f7 c3 be 2d 6a 65 3d
       -0.31842664 0.021780303 -0.3827459 0.05600946

road_emb.1.bias f4 [64]
000000 24 8c dd 3c 0e 9a da bb f6 0c f9 bc 4b 0f 7b 3c
       0.027044363 -0.006671197 -0.030401688 0.01532347
000010 d9 32 ff 3c dd c3 09 bc b6 65 7f bc 5c 03 4a bb
       0.031152176 -0.008408514 -0.015588215 -0.0030824756
000020 84 3a cf 3b ee 1b 6f bc a5 fe 3c bc 45 2c b0 bb
       0.0063241143 -0.014594061 -0.011535321 -0.005376371
000030 cd d6 3e bd b0 01 9b bb 7f a2 f4 3c 68 d1 79 bc
       -0.04659157 -0.004730426 0.02986264 -0.01524768
000040 94 d9 08 bd f0 34 a6 bd 13 d9 95 bd 49 8f 1a 3b
       -0.033410624 -0.08115566 -0.07316794 0.002358394
000050 12 bb 40 bd a1 2e 88 bd c4 3c c9 3b d0 6c df bc
       -0.047053404 -0.06649519 0.006141277 -0.027273566
000060 ae e9 25 bc e5 d0 01 3d 2d 51 44 bc d7 30 ad 3c
       -0.010126514 0.031693358 -0.011982244 0.021141453
000070 9b 4e 2e bd 5d ae 0a bd fc 52 14 bc 42 ae 86 3c
       -0.042555433 -0.033857692 -0.009052988 0.016440514
000080 07 47 42 3c 0f f7 56 3d 5e 5f ee 3c 4a ef 64 bc
       0.011857755 0.052481707 0.029098209 -0.013973067
000090 d6 f9 c8 bc 61 25 9d bc 31 0f 09 3d a1 33 60 ba
       -0.024533194 -0.019182863 0.033461753 -0.0008552615
0000a0 a1 5a 30 bd 5d 33 a3 bc 9a e6 87 bc ac cd 5e 3c
       -0.04305518 -0.019921953 -0.016589452 0.013598841
0000b0 49 81 7b bc ac 37 b5 bc 2e 29 3e bd a4 95 e4 3c
       -0.015350648 -0.022121273 -0.04642599 0.027903385
0000c0 71 65 aa 3c 9b f7 a6 bc f3 63 01 bb 08 f0 95 bb
       0.020800324 -0.02038174 -0.0019743412 -0.004575733
0000d0 cb 74 4a 3b 74 3d 86 3b ae 96 ea bc 62 df c0 b8
       0.0030892368 0.0040966813 -0.028636303 -9.196882e-05
0000e0 7a 0f 13 bc eb 8d b1 bd 6d c3 11 bc 63 02 78 bc
       -0.008975858 -0.08669647 -0.008896691 -0.015137288
0000f0 aa 17 5b bc ac 98 5b 3d e8 94 41 3c c0 95 96 3d
       -0.013372341 0.053612396 0.011815287 0.07352781

cav_emb.0.weight f4 [11]
000000 23 ae 86 3f de ef 4a 3f 86 9d 4e 3f eb f6 78 3f
       1.0521892 0.7927226 0.8070911 0.97251767
000010 2c 40 b6 3f c8 ed b7 3f 87 08 a0 3f c3 42 85 3f
       1.4238334 1.436944 1.2502602 1.0410999
000020 32 52 6b 3f 43 27 5a 3f 0a 9e 80 3f
       0.91922295 0.8521616 1.004823

cav_emb.0.bias f4 [11]
000000 5f 86 8f 3c dc f1 8d 3b 7f 38 92 3c f7 51 35 3d
       0.017520128 0.0043318104 0.017849205 0.04426762
000010 b8 28 87 ba fd e2 c4 3d cc 29 40 3b 7a b3 b3 3d
       -0.0010311818 0.09613607 0.0029321788 0.08774467
000020 e6 68 8e 3d b5 00 7a bd 37 76 7e bd
       0.069536015 -0.06103583 -0.062124457

cav_emb.1.weight f4 [64, 11]
000000 3a 7e 0f be 61 30 98 3d cc 6a 48 3d 9d 7a 98 bd
       -0.14012995 0.074311025 0.048929974 -0.074452616
000010 3a 9e 0b 3f 81 29 33 be 68 4c 54 3d 64 f2 fc 3d
       0.5453831 -0.17496301 0.05183068 0.1235092
000020 99 aa 89 3b 2b fe 4e bd 25 46 4a 3a c9 a2 0f be
       0.004201245 -0.050535362 0.0007716141 -0.14026941
000030 d9 a0 ac bd 45 d1 4a be 65 f4 26 be df 7b fe be
       -0.08429117 -0.19806392 -0.16304167 -0.4970388
000040 fe a7 71 3e 89 ad 00 bd 99 19 10 be 23 e0 cd 3d
       0.2359924 -0.031415496 -0.14072265 0.10052516
000050 d0 61 71 3d c3 37 88 3e d6 62 fe bd 37 b2 9b be
       0.058931172 0.26605043 -0.12421195 -0.30409405
000060 6d 21 39 bd cb 44 91 bd 29 45 ff 3e f1 fe 5f 3e
       -0.045197893 -0.07093199 0.49857453 0.21874596
000070 28 78 93 bd ad 7d 4b bd 29 df d7 3d f8 2a 83 be
       -0.07200652 -0.0496804 0.10540611 -0.2561872
000080 55 11 af 3e f6 78 11 3e 1f a8 2f be 71 8d df ba
       0.3419291 0.14206299 -0.17153977 -0.0017055703
000090 bc d2 49 be 47 f8 09 bf a7 a5 59 3f 5a 7d 98 be
       -0.19709295 -0.53894466 0.8501839 -0.29783136
0000a0 74 93 bd bd 71 30 e7 bc 0f 27 d3 3a 09 cb 1f be
       -0.0925664 -0.02822134 0.0016109663 -0.15604796
0000b0 cd 4d 1c be 8a f4 52 3e 1e 56 bb bc ff cf 03 be
       -0.15264054 0.20601097 -0.022868212 -0.12872313
0000c0 7a de a7 bd 94 df c0 3c 44 12 5a 3e 65 b3 e2 3d
       -0.08196731 0.02354411 0.2129603 0.11069373
0000d0 fb b1 2a 3d 1d 9b 94 3c 86 3e de 3d 71 bf 28 be
       0.04167364 0.01814037 0.10851769 -0.16479279
0000e0 9c e2 cc bd 9f d7 97 3e a6 66 dc 3c 70 57 ad 3e
       -0.1000416 0.29656693 0.026904415 0.33855772
0000f0 21 f4 c1 bb 30 3d f0 bd 7b 44 0d be b5 1a 04 3c
       -0.005918995 -0.117304206 -0.13795654 0.008063008
000100 8c c9 f6 bb d1 89 a6 bc e2 95 51 be b1 1b 53 bd
       -0.0075313505 -0.020329388 -0.20467332 -0.05154008
000110 80 47 c9 bb d2 95 7f be 4e d5 25 3e 2f 6f cf 3c
       -0.0061425567 -0.24959496 0.1619465 0.025321571
000120 6f e5 ef bd c0 1d 34 3e 0b ad 88 bd 46 48 b0 bd
       -0.11713683 0.17589474 -0.0667363 -0.08607535
000130 a6 da 89 bd fe c7 34 3d 1d a0 9e bc 8e 63 07 bc
       -0.06731157 0.04413604 -0.019363457 -0.008263482
000140 a8 30 33 3e bd 21 15 bd f8 01 47 be 91 94 22 3f
       0.1749903 -0.03640913 -0.19434345 0.63507944
000150 a0 e9 8e bd ad d7 8d 3e 02 31 a7 be c6 b3 08 be
       -0.06978154 0.2770361 -0.32654577 -0.13349828
000160 df 15 16 be d6 97 2a be cf 1b fa bb 31 5a c2 3d
       -0.1465678 -0.16659483 -0.0076327096 0.09489859
000170 c6 5a 83 3e 2c 95 09 be 32 e8 4c be 9a e7 bd 3d
       0.25655192 -0.13435811 -0.2001045 0.0927269
000180 28 df 13 3e a8 d1 f6 3d 6c 48 0f 3e 47 9c c5 be
       0.14440596 0.120517075 0.1399247 -0.38595793
000190 90 e6 5b 3d f8 43 43 3b 7f f0 10 3e 31 26 92 be
       0.05368668 0.0029795151 0.14154242 -0.28544763
0001a0 0e cb 2e be 64 38 9a 3e fe 2f e8 bc 2d e0 a9 bd
       -0.17069647 0.30121148 -0.028343197 -0.08294711
0001b0 11 4f b8 3d 5b 6f 78 3e 18 56 a7 bd c5 56 f2 3c
       0.08999456 0.24261229 -0.08170718 0.02958239
0001c0 62 ce 9d 3d e9 1d 3c bd 7f dd 16 3f 29 a1 53 bd
       0.0770538 -0.045926962 0.58931726 -0.051667366
0001d0 f2 10 82 3c 9b 54 d1 3b d4 4d eb bc 37 4d ed bd
       0.01587722 0.0063882596 -0.028723635 -0.11586993
0001e0 f5 05 68 3d 85 2c 88 bc 9a 06 32 be 82 b8 62 bd
       0.056646306 -0.016622791 -0.17385331 -0.05535174
0001f0 40 c5 3a 3d 50 eb c7 be 38 7e 36 bd df da 95 3e
       0.04559827 -0.39046717 -0.044553965 0.29268548
000200 bb 15 70 38 dd 64 3e 3e 1a 47 9d 3e 11 0a 34 3e
       5.7240697e-05 0.18593164 0.3071831 0.17581965
000210 26 f3 41 be ca 62 0f 3c 53 02 47 3d dd 8c 2f bd
       -0.1894041 0.0087515805 0.0485862 -0.042858947
000220 84 ff 1b 3f 27 5b 1a 3d 9c 83 d9 bd 51 e9 1d 3e
       0.6093676 0.037684586 -0.106208056 0.15421034
000230 60 ee 62 bd 50 6d 8e be 9f b6 4d 3e 8f b9 14 be
       -0.055403113 -0.27817774 0.20089196 -0.1452391
000240 a8 9e 67 bd 76 e1 c2 3d 45 d6 2c be c8 b3 b2 3e
       -0.05654779 0.095156595 -0.16878612 0.34902787
000250 c5 17 38 bd 49 a4 e0 bd f5 96 f2 bd e3 ff ca 3d
       -0.044944543 -0.10968835 -0.11845199 0.09912088
000260 ab 47 02 be cb a6 95 3d 55 6b 90 be 60 49 3b be
       -0.12722652 0.07307204 -0.28206888 -0.18289709
000270 1c fa 3f 3e 98 7f 11 3c 4c c0 8e 3e 5b d7 54 bd
       0.18747753 0.008880518 0.27881086 -0.05196319
000280 44 73 29 3e 55 83 da 3c 2e 59 8b bc ca 21 15 3f
       0.16547877 0.026673952 -0.017010298 0.58254683
000290 cd e5 c8 bd a2 f7 86 be 16 0b 9a bd 20 29 95 bd
       -0.09809456 -0.26360804 -0.07521646 -0.072832346
0002a0 65 b3 c7 3d 73 c4 50 3b 03 6c 31 be 42 97 aa 3d
       0.09751014 0.0031855374 -0.1732636 0.083296314
0002b0 da a4 9a bd 1a 42 d4 bd 21 55 8e be 8c 7d f2 3e
       -0.07550974 -0.1036417 -0.27799323 0.4736141
0002c0 c3 13 f0 bd 16 5c 25 be bd 8b ec bd 88 6f bd 3c
       -0.11722519 -0.16148409 -0.115500905 0.023124471
0002d0 48 e3 30 be 54 27 f6 3e 99 61 9c be d6 77 82 bb
       -0.17274201 0.4807688 -0.3054321 -0.0039815707
0002e0 01 b9 a4 3d 55 28 a3 3d 62 15 9f be 9f 48 2c 3e
       0.08043099 0.07966677 -0.31071 0.16824578
0002f0 7f e6 8f bd cb e9 9c bd d5 7a 5f 3e 14 c8 ec bd
       -0.070263855 -0.0766178 0.218242 -0.115615994
000300 eb da 33 3b e6 16 1c 3e ba 21 0e be b6 03 07 be
       0.0027443718 0.1524311 -0.13880053 -0.1318501
000310 05 51 82 be 52 66 ef bd fe 71 94 3d 94 e2 06 bd
       -0.25452438 -0.11689438 0.07248305 -0.032930925
000320 2f ac 45 3d 97 c9 8f bd a8 4b 65 3e 46 63 71 bc
       0.04825991 -0.07020872 0.22392142 -0.014733141
000330 03 3f c5 bd 00 27 8e 3e 38 44 44 3e 92 91 94 bc
       -0.09631159 0.2776413 0.19166648 -0.01813582
000340 67 43 0a 3e 53 41 dd bd 92 07 ef 3d 12 e4 13 3e
       0.13502274 -0.10803475 0.11671366 0.1444247
000350 49 de f1 bc 93 a1 6b 3e 1c 78 3a bd a3 b9 11 3e
       -0.02952494 0.23010854 -0.0455247 0.14230971
000360 82 e1 e8 bd 84 a4 02 be d6 10 e4 bc c4 a6 10 3e
       -0.11371137 -0.1275807 -0.02784006 0.14126116
000370 84 8c 9a be 3a 60 21 be ae 13 47 be 1a 34 8f 3c
       -0.3018533 -0.15759364 -0.19441101 0.017480899
000380 cb ca 29 bf 1f db 21 3f 4d 47 2e 3e 17 87 ea bb
       -0.6632506 0.6322498 0.17019387 -0.0071572172
000390 61 a5 d7 bd 68 3f c6 bd 34 d6 86 be 0b 95 f9 bd
       -0.105295904 -0.096800625 -0.263353 -0.12186631
0003a0 83 a1 19 3d d1 23 6b 3e f2 0e 8c 3d 2c 94 12 3f
       0.037507545 0.22962882 0.06838788 0.5725734
0003b0 51 14 95 be d2 4c 33 be 2c e1 70 3e 94 30 ba 3d
       -0.29117063 -0.17509773 0.23523396 0.09091297
0003c0 31 bb 20 be ee 17 39 3d e5 4b 21 be 6e 29 f0 bd
       -0.15696408 0.045188837 -0.15751608 -0.11726652
0003d0 8e 65 84 3d dc 19 45 3d 7f cf 53 be b8 3d 93 bc
       0.064646825 0.048120365 -0.20684622 -0.017973766
0003e0 3e c0 b4 be e2 9a 5b 3e 11 4b 47 3e a6 53 21 3d
       -0.3530292 0.21445802 0.1946223 0.039386414
0003f0 45 93 0c 3e a9 34 0f be 4b f0 a4 bd 01 27 0c 3e
       0.13728054 -0.13984932 -0.08053645 0.13686754

cav_emb.1.bias f4 [64]
000000 15 83 93 bb 40 0c 94 3d 17 1b 3f 3c a9 be 10 3e
       -0.00450171 0.07228899 0.011664174 0.14135231
000010 7f 0c 32 3c c3 53 2b bd 51 c8 2a 3c 6d 3c 16 bd
       0.010867237 -0.04182793 0.010423736 -0.03667872
000020 59 fd 60 bd e2 56 44 3d d5 ab 8e bd a1 6b 14 3d
       -0.05492911 0.04793442 -0.06966368 0.036235455
000030 4c af 33 bc 5f cf c4 bd e1 98 5c 3d b3 b8 13 bc
       -0.010967087 -0.096098654 0.053856734 -0.009016204
000040 64 3b e1 3c 25 32 e1 3c 75 ac 94 bd 48 13 d0 bd
       0.02749414 0.027489731 -0.07259456 -0.101599276
000050 b4 c9 a4 bd 49 9c 25 bd db 43 3a bd 82 88 f6 3b
       -0.08046284 -0.04043225 -0.04547487 0.007523597
000060 a8 46 b8 3b 30 39 81 bd 2e 3c 7a 3c 3f 06 be bc
       0.0056236573 -0.06309736 0.015273137 -0.023196338
000070 fd 30 14 bd a0 5d 03 bd 4c 0a a7 bd 57 5a 04 3d
       -0.03617953 -0.03207171 -0.08156261 0.032312717
000080 dc 51 91 3c 5e ae ed bb 39 45 43 3d 36 c9 c8 bc
       0.017739229 -0.007253452 0.047673438 -0.024510007
000090 a2 ce e2 bc b5 84 be bd b2 7d 05 3d 4d 23 87 bc
       -0.02768642 -0.093026556 0.032590576 -0.016496325
0000a0 1b d4 4a bd d3 8b 03 3c 3b 48 33 bd 4c c5 a4 3d
       -0.049518686 0.008028942 -0.043770056 0.08045444
0000b0 a8 18 6d b9 04 86 38 3d 63 6c 95 bb e9 f0 0e ba
       -0.00022611266 0.045049682 -0.00456004 -0.00054527685
0000c0 d9 04 a9 bb 05 2f 8b bd 54 5c 58 3c 2e e5 71 bd
       -0.0051580486 -0.06796078 0.0132056065 -0.059056453
0000d0 f4 dc 28 bd d7 f6 b1 bd 2a 33 88 bd 98 da 1a bd
       -0.041226342 -0.08689659 -0.06650384 -0.037806123
0000e0 b7 b4 81 bd eb 92 56 3b 4a 21 ea 3b d8 8c af bd
       -0.06333297 0.0032741379 0.0071450816 -0.08571786
0000f0 60 da 14 3d ff 9d e6 bd 9f c2 99 3c 57 88 27 bd
       0.03634107 -0.11260604 0.01876956 -0.04090151
