route_TSC/model/0.5_hatt_router_joint_0315/ep95/q_netveh.pt (torch, 510246 bytes, 26 tensors)

attn f4 [1, 2, 37]
00000000: 8001 8850 f905 0000 0000 0000 0000 0000
00000010: 0000 0000 0000 0000 0000 0000 0000 0000
00000020: 0000 0000 0000 0000 0000 0000 0000 0000
00000030: 0000 0000 0000 0000 0000 0000 0000 0000
00000040: 0000 0000 0000 0000 0000 0000 0000 0000
00000050: 0000 0000 0000 0000 0000 0000 0000 0000
00000060: 0000 0000 0000 0000 0000 0000 0000 0000
00000070: 0000 0000 0000 0000 0000 0000 0000 0000
00000080: 0000 0000 0000 0000 0000 0000 0000 0000
00000090: 0000 0000 0000 0000 0000 0000 0000 0000
000000a0: 0000 0000 0000 0000 0000 0000 0000 0000
000000b0: 0000 0000 0000 0000 0000 0000 0000 0000
000000c0: 0000 0000 0000 0000 0000 0000 0000 0000
000000d0: 0000 0000 0000 0000 0000 0000 0000 0000
000000e0: 0000 0000 0000 0000 0000 0000 0000 0000
000000f0: 0000 0000 0000 0000 0000 0000 0000 0000
00000100: 0000 0000 0000 0000 0000 0000 0000 0000
00000110: 0000 0000 0000 0000 0000 0000 0000 0000
00000120: 0000 0000 0000 0000
1.8254397e+10 2.143e-42 0.0 0.0 0.0 0.0 0.0 0.0
0.0 0.0 0.0 0.0 0.0 0.0 0.0 0.0
0.0 0.0 0.0 0.0 0.0 0.0 0.0 0.0
0.0 0.0 0.0 0.0 0.0 0.0 0.0 0.0
0.0 0.0 0.0 0.0 0.0 0.0 0.0 0.0
0.0 0.0 0.0 0.0 0.0 0.0 0.0 0.0
0.0 0.0 0.0 0.0 0.0 0.0 0.0 0.0
0.0 0.0 0.0 0.0 0.0 0.0 0.0 0.0
0.0 0.0 0.0 0.0 0.0 0.0 0.0 0.0
0.0 0.0

fc0.weight f4 [32, 2315]
00000000: 0ccb 8ebb 7e6c 103c 6071 9d3c 8858 d83b
00000010: a0cf 973c f9c0 0abc d484 9f3c ffbc 30bc
00000020: fc32 8f3c f6ef 2a3c d0ec d4ba 20dd 8c3c
00000030: 4072 623a 948c a43c 785e a83c f672 a33c
00000040: 9fbc a9bc e2e4 a2bc 727b 273c c4c1 b43b
00000050: 5393 a6bc b4ef 693c 007b 4bba a654 8e3c
00000060: 6d4b 9abc 0c75 623c 10c9 7ebb 6052 d33a
00000070: 4c9a 553c 2a4e 25bc 849c d1bb da4f 9ebc
00000080: 9884 6d3b 6857 dfbb fa4e 44bc 301c 43bc
00000090: c676 a33c 544b b13b 001d 8c3c 62ed 06bc
000000a0: 9082 7dbc 102c c13b d0b0 443c 9278 bebb
000000b0: 2007 a2ba 4005 6cbc ec40 a2bc 6066 493a
000000c0: 68f0 043c 940a 80bb a41f e2bb 90c7 c93b
000000d0: f4e7 0c3c 88c6 a23c 2052 923a b4f8 63bc
000000e0: 3e4b adbb a032 37bb 1cb7 b8bb 68cd 373c
000000f0: 8cc7 e83b ac52 5a3c 9d86 75bc ac9b 683c
00000100: 280c f2bb 820b 6dbc a0d2 d33b fead 64bc
00000110: d409 6c3c c412 313c a3e9 81bc 1b6e 4cbc
00000120: 4438 e63b 5026 14bc 0cb5 343c bc62 8c3b
00000130: cc7d 63bc 801c 933c 7c4b c93b a6fd 963c
00000140: 608f 01ba 209a 66bb 9c41 fa3b 70cb fdba
00000150: c6b2 a8bc 29f4 9fbc e00c 41bc a2af 9abc
00000160: f003 a0bb c658 8ebc 00d9 c53b da83 9fbc
00000170: a036 6fbb d154 94bc b35e 94bc 5052 7e3c
00000180: c0ed 223c 78c2 dd3b 0047 993c a61d 863c
00000190: 1634 edbb 88c0 633c 2818 7ebb d2c0 133c
000001a0: 5cac c2bb 6840 2a3b 8090 65ba faac 8dbc
000001b0: bee4 74bc 6886 173c 7628 b2bb d8bb 0fbb
000001c0: 1099 523c add6 01bc d137 09bc 534b 7ebc
000001d0: 1cf5 493c 981f 273c 680d 0bbb e4de 003c
000001e0: 5f7d 4abc 60b9 51bc 1a70 8e3c 703a a1ba
000001f0: e211 37bc 8ca2 353c 34fd 323c b005 6dbb
00000200: 5c47 fe3b f8a1 873b a87a 4f3c 901e eeba
00000210: 5068 d83a d8f3 cbbb a665 173c 60ae 693a
00000220: cc5e d93b 0cc6 87bc e4e4 88bc 8003 81ba
00000230: aab9 89bc a024 99bb d161 89bc 74c2 603c
00000240: d82c 8b3b 345a 56bc c480 893c 1a1b 993c
00000250: dcdd e63b 403b 373b fae8 dbbb d40c cfbb
00000260: 0a81 8c3c bcd7 213c 69a4 80bc 605e 413c
00000270: 4038 5abb 6c1c 5d3c f7e2 23bc 1897 5e3b
00000280: 397e 27bc d0e2 a33c a065 513a 102c 5f3b
00000290: ec24 f3bb 109b 49bb 58a8 413b e8f1 df3b
000002a0: 60b1 95bb a018 7f3b 200d 183c f4d3 7bbc
000002b0: 70fb 603b f075 673b b041 853b e88a e93b
000002c0: e831 79bb 4008 aeba 2aa4 a3bc 5424 8c3c
000002d0: a094 8bbc b5aa 41bc 6e18 8ebc 0ef1 c5bb
000002e0: 22e9 81bc 141b 14bc 2dcc 9ebc 14be 283c
000002f0: 2140 8abc 30d7 9bba d2a5 28bc 123e 0f3c
00000300: 90d6 7c3c 5bbf 69bc 78ca 6cbb 7047 3b3b
00000310: 48e8 043b 9461 483c 93c1 1dbc 707d d63a
00000320: 8039 cd3b a0fa 3c3a d0cc 683c 7c58 623c
00000330: b83f 91bc 10ee c93b 302c 103c 5c99 87bc
00000340: b870 053b 5cec 853c 84d3 973c 1450 7e3c
00000350: c0bf 8f3c 8e54 8fbc 8c92 38bc b879 99bc
00000360: ce84 9a3c 2046 663c 4d5a 86bc 107c 223c
00000370: ec01 06bc 30ef b8ba 002c 7a38 34e6 493c
00000380: 569b 863c c413 d93b af08 9abc 1c08 dcbb
00000390: 86f0 63bc 1cbb 8f3c 60c4 313b c05c b3b9
000003a0: 81e7 a3bc 0c76 623c fc07 85bc d469 fcbb
000003b0: c6f5 5cbc e49b 753c 209d 90ba c819 edbb
000003c0: 380c 723b 2080 953b 271b 9bbc f6b9 1f3c
000003d0: 80e6 d239 8c1e 9cbc 52cc fcbb e8ea 5b3c
000003e0: 4001 7b3c 7801 423c f6c5 a93c 4879 df3b
000003f0: 2082 1fba 2240 85bc 4ddf 78bc a003 adbb
-0.004357701 0.008814929 0.0192191 0.0066023506 0.01853162 -0.00846886 0.019472517 -0.010787248
0.017480366 0.010433188 -0.0016244892 0.017195284 0.00086382404 0.020086564 0.020552859 0.019952279
-0.020719824 -0.01988453 0.010222303 0.0055162627 -0.020333922 0.014278341 -0.0007762164 0.017374348
-0.018834794 0.013821851 -0.0038877167 0.0016122572 0.0130372755 -0.010089437 -0.006396832 -0.019325186
0.0036242362 -0.0068158396 -0.01198172 -0.011908576 0.019954097 0.005410591 0.017103672 -0.008235307
-0.015473023 0.0058951452 0.012005046 -0.005812713 -0.0012361743 -0.014405549 -0.019806348 0.00076827966
0.008113958 -0.003907511 -0.0069007445 0.006157823 0.008600224 0.019870058 0.0011163391 -0.013914276
-0.0052885106 -0.0027953759 -0.0056370627 0.011218406 0.007103866 0.013325375 -0.014985708 0.014197271
-0.007386703 -0.014468076 0.0064643174 -0.013957499 0.01440664 0.010807697 -0.015858477 -0.012477423
0.0070257504 -0.009042338 0.011029493 0.004284231 -0.013884973 0.017957926 0.0061430316 0.018431496
-0.0004942324 -0.003518708 0.007637216 -0.0019362997 -0.020593058 -0.019525604 -0.011782855 -0.018882576
-0.004883282 -0.017376315 0.0060378313 -0.019472051 -0.0036501065 -0.01810685 -0.018111562 0.0155225545
0.009944379 0.0067675672 0.018710613 0.01637156 -0.007238875 0.0139008835 -0.0038771722 0.00901814
-0.005940957 0.002597833 -0.0008757189 -0.017294396 -0.0149471145 0.009248354 -0.005436952 -0.0021932032
0.012853876 -0.007924718 -0.008375124 -0.015520888 0.012326505 0.010200404 -0.0021217708 0.007865641
-0.012358992 -0.0128005445 0.017387439 -0.0012300741 -0.011173697 0.0110861175 0.010924626 -0.003616672
0.0077599715 0.004139181 0.012663521 -0.0018167067 0.001651058 -0.006224137 0.0092405435 0.00089142285
0.006633615 -0.016573928 -0.016710706 -0.0009842962 -0.016812164 -0.0046735555 -0.016770275 0.013718236
0.004247289 -0.01308303 0.016785033 0.01868968 0.0070454907 0.00279589 -0.0067111226 -0.006318668
0.017151374 0.009878095 -0.015703397 0.011802286 -0.0033297688 0.013495546 -0.010002843 0.003396457
-0.010222965 0.020005614 0.00079878606 0.0034053363 -0.007420173 -0.003076259 0.0029549804 0.0068342574
-0.004568264 0.003892459 0.009280473 -0.015370358 0.0034329556 0.00353181 0.0040666685 0.0071271546
-0.0038024131 -0.0013277605 -0.01997574 0.017107166 -0.017038643 -0.011820485 -0.017345633 -0.006040699
-0.015858237 -0.009039659 -0.019384468 0.010299224 -0.016876282 -0.0011889692 -0.010293441 0.008742826
0.015432015 -0.014266814 -0.0036131423 0.0028576516 0.0020280052 0.012230296 -0.009628671 0.0016364288
0.006262958 0.0007208977 0.014208987 0.013815042 -0.017730579 0.0061624125 0.008799598 -0.01655262
0.0020361375 0.016348056 0.018533476 0.015522022 0.017547488 -0.017496374 -0.011265408 -0.018734798
0.018862154 0.014054805 -0.01640048 0.009917274 -0.008179169 -0.0014109369 5.9645623e-05 0.012322951
0.016431492 0.0066246707 -0.018802969 -0.006714834 -0.013912326 0.017545275 0.0027125105 -0.00034210645
-0.02000785 0.01382209 -0.016239159 -0.0077030454 -0.013486331 0.0149907805 -0.0011033155 -0.0072357394
0.0036933552 0.004562393 -0.018933846 0.009748926 0.00040226057 -0.019057535 -0.0077147866 0.013422705
0.015320122 0.0118411705 0.020724278 0.006819878 -0.0006084759 -0.016265932 -0.015189958 -0.005279973

fc0.bias f4 [32]
00000000: 8bba 01bc 2c1c 8f3c 18f9 7f3c 8c94 6abc
00000010: eaf6 a3bc a7b9 6cbc 8e23 04bc 8085 353c
00000020: c417 e6bb 80c6 5c3b 00f7 b638 64f7 c6bb
00000030: f633 b5bb 2840 85bc 0bb9 68bc 289a 663c
00000040: 8af1 993c e05c 323b 10a8 6e3c 5532 2abc
00000050: 804f 86bb 8c0a 9f3c c064 85ba 6b6e 90bc
00000060: e5be a9bc e097 2e3a 10ab 60bc 9d69 44bc
00000070: b04a 24bc bc14 1dbc 8061 74ba 07d8 90bc
-0.0079180105 0.017469488 0.015623353 -0.014317643 -0.020015199 -0.01444856 -0.0080651175 0.011079192
-0.007021876 0.003368765 8.7244436e-05 -0.0060719717 -0.005529876 -0.016265944 -0.014204274 0.01407484
0.018791933 0.0027216002 0.014566436 -0.010387977 -0.0040988326 0.019414209 -0.001017712 -0.017630776
-0.020720908 0.00066602044 -0.0137126595 -0.011988071 -0.0100275725 -0.009587463 -0.000932239 -0.017681135

fc1.weight f4 [32, 32]
00000000: d34b e13d db85 21bf 6176 503d aad8 bc3d
00000010: e264 ebbd 0f20 ec3c cd5f 71bd cb7a 97bd
00000020: 2c53 89be 9731 333e 0535 2a3e 4968 6bbe
00000030: a0c9 a3be 9d2d 2bbf 1d5a d73d 8096 0fbe
00000040: f43d de3d 1c40 03bf 78fc 9dbe a44f d03c
00000050: c022 973c 67c5 613e 608a b7ba 9d9e f5bd
00000060: 8d4d a2bc f2c3 18be 6e8d 003e 4afe 18be
00000070: ea71 23bf 8e92 a73e 820c 04be f4d3 8f3e
00000080: 6c0a 13bf f3e7 29be d751 50bf 3a72 33bd
00000090: d969 23be eb5a 90bd 0951 603e c9da 7ebe
000000a0: 3692 393d c92b 54bf 3528 0cbe 7fd9 65be
000000b0: 6641 833b 7f6c 1fbe e9fe 203d 4555 0e3e
000000c0: 6a6e 4d3d 8888 3d3e 076b a43e bc09 bd3e
000000d0: 8843 09be 20b9 eebd 11ff 59be ed29 253e
000000e0: f32c b83d cf2d b93e 58d6 9d3c 4001 bc3d
000000f0: 5af9 243e f73a 73bf cd73 d43c 3de5 343e
00000100: 5670 453e 600e 343e 0c4c 1c3e 52a4 393e
00000110: b187 0abd fc93 1fbe 8d2d 20be 3486 acbe
00000120: 1fcd f9be 5727 d5bd bbdb 9b3d 79b0 cf3e
00000130: f87a 993e 6a2e df3d b842 19bd d050 d93d
00000140: ea77 a13e 3abe 573e 3a4c 62bd 5ece f9bb
00000150: 3567 9a3c e7d4 123e 3d02 9a3d f502 f03c
00000160: 7255 633e 3198 6a3e 5779 7f3e 2370 f53d
00000170: d9cf a53e 0a57 8cbd 9369 eb3d ed32 76be
00000180: 5b43 a33d ee8c 70be d33e 663d 019e 97bd
00000190: 15d0 e63d a0a7 1bbe fd4a 823e f6a3 93bd
000001a0: d19b a13d 5b9a 1c3e 4da1 463e e0b3 daba
000001b0: d984 9cbd 9791 7abf 20ea 4c3e 9cea 35bd
000001c0: 18fb 763d 2373 66bf ac0f f5be 64b9 983e
000001d0: c959 99be 4cd4 bbbd d0a4 0b3e f866 013e
000001e0: 76d5 9c3d 71f0 a1be 8974 abbc 5a5a 0fbe
000001f0: a16b 7ebf 4f00 ca3e dae0 e8bd e190 013e
00000200: 382b 2fbe 4a7c 7fbe 5780 12bf 9c27 5b3d
00000210: 4df2 c93e 68ea 96bc 5cf3 353e 1e9f b33d
00000220: b051 8f3d 74fe 903c ddc8 5abd 2dcf bb3d
00000230: 8d87 56be 9f0a 9abf 632c 9fbd 0350 a2bc
00000240: 9349 663e 277d cabc 52d8 a63e 3581 163e
00000250: 6dfe 4ebd cbfd 2e3e a583 e8be 25d7 243d
00000260: f2f5 09be ab20 873d 61b6 693e 10eb 1dbd
00000270: f6a1 353e b33a 5ebf e8c4 06be 14e6 db3d
00000280: 9d9d 6dbd 04e5 24be 9906 febe 8053 6bbe
00000290: c065 813e 8fc0 93ba 1204 cb3d 804e a2bc
000002a0: ea30 2e3e 8234 65bf 5772 47be 3c67 42be
000002b0: 1966 40be 49ba 0fbe 3af4 3ebe 3a42 cd3d
000002c0: 15f2 923d f0dc e1bd c664 583d fd85 9fbc
000002d0: cc47 133d bff3 46bd b966 bd3c d5c1 d23d
000002e0: b3da 8c3d 8919 48bd 3aac 573e 08d1 3f3e
000002f0: 084a 27bb 93d1 11bf 6e8a 033d b945 08bf
00000300: d28e eebe 3fd8 babf 77e9 18be 2005 83bb
00000310: a395 a3bd 6fa9 5bbe af46 193d 8dc3 86be
00000320: a92d 42be 6103 7a3d d909 d2bd e277 4fbe
00000330: b5a8 abbe 300a 4e3d 4ee4 81bd 7b54 3dbf
00000340: b4cb 1fbf c5de 66be 29ca 743e 6128 ce3e
00000350: b646 b0be 02ab 90bf 7db1 49bf 00e5 403e
00000360: 3fb5 f03d 0d0c fabc 5bda 58be a93c 2fbe
00000370: 53dd 90be 03c1 263f 8293 a3be e531 9f3d
00000380: 2c1f 1ebf 8873 20be b010 813e 2bd5 00bf
00000390: 3bec 2b3e 9582 933e edb4 26be fe83 f8be
000003a0: 1044 3abf c922 9abc 8bf3 973e 8964 95bc
000003b0: 1ad7 0d3e 1d9f b6bc 3f4a d23d ae15 acbe
000003c0: 89f1 aa3e 4ad6 4bbd 880d 83bf f5ba 9abe
000003d0: a72a 07bf 5187 b9be 600d 2fbe 7317 c7bf
000003e0: 8d52 8b3d 6e4c a4be dcdb d33d 66e6 a63e
000003f0: 83ee b2bd 8e33 22be cf4d 44be fa80 273d
0.110007904 -0.6309487 0.050894145 0.09221013 -0.11493851 0.02882388 -0.058929253 -0.07396468
-0.26821268 0.17499386 0.16621788 -0.22989 -0.31989765 -0.66866475 0.105152346 -0.14022255
0.1085166 -0.512697 -0.3085668 0.0254286 0.018449187 0.2204796 -0.0014003031 -0.11993144
-0.01981237 -0.14918497 0.12553951 -0.14940754 -0.63845694 0.32729 -0.12895396 0.28091395
-0.5743778 -0.16592388 -0.8137488 -0.043810107 -0.15958346 -0.07048591 0.21905912 -0.24888147
0.045305453 -0.8287931 -0.13687213 -0.2244625 0.004005599 -0.15568732 0.0393056 0.13899715
0.050154127 0.18509114 0.32112905 0.3692149 -0.13404667 -0.116564035 -0.21288706 0.16129275
0.089929484 0.36167762 0.019267246 0.09179926 0.16110745 -0.9501185 0.025934124 0.17665572
0.19281134 0.17583609 0.15263385 0.1812909 -0.03382081 -0.15583795 -0.15642376 -0.3369614
-0.48789307 -0.10407894 0.0761027 0.40564325 0.2997663 0.10897525 -0.037417144 0.10611117
0.315368 0.2106866 -0.055248477 -0.007623478 0.018848041 0.14339028 0.07519958 0.029298285
0.22200564 0.22909619 0.24948631 0.11984279 0.32385138 -0.06852539 0.11494746 -0.24042864
0.079718314 -0.2349126 0.056212258 -0.07403184 0.11270157 -0.15200663 0.25447837 -0.072090074
0.07891048 0.15293257 0.19397469 -0.0016685687 -0.07642526 -0.978784 0.20011187 -0.044413194
0.060298055 -0.90019435 -0.4786352 0.29828942 -0.29951313 -0.09171352 0.1363709 0.12636936
0.07657902 -0.31628755 -0.020929592 -0.1399931 -0.9938298 0.3945336 -0.11371012 0.12652923
-0.1710633 -0.24949756 -0.5722708 0.05350457 0.39442673 -0.01842232 0.17768615 0.087705836
0.069980025 0.017699458 -0.053414214 0.09170375 -0.20950146 -1.2034491 -0.07772138 -0.019813543
0.22489004 -0.02471788 0.32586914 0.14697726 -0.050535608 0.17089002 -0.45412937 0.04024424
-0.13472727 0.06598028 0.22823478 -0.03855425 0.17737564 -0.8680832 -0.13161051 0.10737243
-0.05801164 -0.16102988 -0.4961441 -0.22981071 0.25272942 -0.0011272597 0.09912886 -0.019812822
0.17010847 -0.89533246 -0.19477211 -0.18984693 -0.18788947 -0.14035906 -0.18647853 0.10022397
0.0717508 -0.110284686 0.05283048 -0.01947307 0.035957143 -0.0485723 0.023120271 0.10290877
0.06877651 -0.048852477 0.21061793 0.18732083 -0.0025526304 -0.5696041 0.03211444 -0.5323139
-0.46593338 -1.4597243 -0.1493281 -0.0039984137 -0.07987525 -0.21451353 0.037420925 -0.26321068
-0.1896273 0.06103838 -0.102557845 -0.20260575 -0.3352715 0.050302684 -0.06342374 -0.7395703
-0.624202 -0.22545917 0.23905243 0.40265182 -0.34428948 -1.1302187 -0.7878645 0.18837357
0.1175332 -0.030523324 -0.21177046 -0.17112984 -0.28293857 0.6513826 -0.31948477 0.077731885
-0.61766315 -0.15669072 0.25208044 -0.5032527 0.16789334 0.28810564 -0.16279955 -0.48538202
-0.72760105 -0.018815415 0.29677996 -0.018236415 0.13851586 -0.022292668 0.102680676 -0.3361029
0.33387402 -0.04976491 -1.0238504 -0.30220762 -0.5279946 -0.3623605 -0.17094946 -1.5554031
0.06802855 -0.3208956 0.10344669 0.32597655 -0.08736899 -0.15839979 -0.19170307 0.040894486

fc1.bias f4 [32]
00000000: 97d6 0e3f 66ed ce3e 3538 7a3f ce14 833f
00000010: f8a1 593e 502a 4e3f 6bdd 833f 439c e33d
00000020: 0fa5 083f 70e3 913e f1e0 873f fc9c 8a3e
00000030: f219 963f 7b1a ecbe eaf5 f4bc b6b6 3a3f
00000040: b8f0 753e 0ce1 8e3e 81f8 9d3e b5ed 2cbe
00000050: df33 8d3f 4f6c 4e3f 72e8 103f 17f6 0ebd
00000060: 2f7f c53e fb25 033f d6c5 623f 4f39 8f3f
00000070: 69fe 9e3f 4598 923f b67f 713f 63c1 683f
0.5579619 0.40415496 0.97742015 1.0240724 0.21253192 0.80533314 1.0301946 0.11113789
0.5337686 0.28493834 1.0615522 0.27072895 1.1726668 -0.46113953 -0.029902417 0.72935045
0.24017608 0.27906072 0.30853656 -0.16887553 1.1031455 0.80634016 0.56604683 -0.03490266
0.38573596 0.5122983 0.88583124 1.1189364 1.242139 1.1452719 0.94335496 0.90920085

fc2.weight f4 [3, 32]
00000000: 6171 6d3e 630e 693e c9f9 27be df01 313e
00000010: df22 d63d 58fd a43c a38d 95bd 30e0 7cbd
00000020: 76d1 2e3e cc6b 60be 19fe 12be 50b6 7b3c
00000030: b319 f7bd f8fc 6fbc d4ad c43d 6bcd 833e
00000040: 4e7c 5bbc e9f3 023f 6495 83bf b34c 80be
00000050: eb99 99bc 0d58 d13d 43d3 233e bf6b 5ebe
00000060: ea3d 043e 67cf 75bd e83d c5be 2278 2cbe
00000070: 4e44 54be b533 bcbd a117 cebd 061b 243e
00000080: 1b01 1e3e dd84 923e a778 39be 458f 7c3e
00000090: 3129 6f3e dbfe e43b cccc 963c ab9e 82bc
000000a0: a894 2a3e 7ced 7abd 29fe b3bd 5bb9 e7bd
000000b0: eda6 5abe 9987 89bc 66e6 d83e aa6c 37be
000000c0: b608 0a3c dd0e fe3d 4191 043e fdfd 17bb
000000d0: e251 03be 8ed1 923c 0aaf 1dbe 2b92 92be
000000e0: 2124 69bf 9c47 2f3c 96cc 4dbc e889 69be
000000f0: d88c 4dbe 0f19 7cbe c12e 5dbd edae 733e
00000100: a15a 9fbd f499 89bd a476 a8bd 7451 eabd
00000110: 4309 c73e 83fe 8ebd fb45 453f ff4f 77be
00000120: d4f5 38be 05d1 86be 25b9 75be 4865 c83d
00000130: 994d 19be f9f9 7e3d a399 8c3e 06e2 f7bc
00000140: 35f0 9b3c c9e4 6b3e a6d6 8f3d 8474 6fbc
00000150: 8680 613e 8c5b 02be 0784 833e 7ee6 863e
00000160: 17d5 30bd 7257 8e3b 917a b83e 692f 36be
00000170: 162a 63be 75b3 14be 9c72 5abe 6355 75bd
0.23187782 0.22759394 -0.16403879 0.1728587 0.1045587 0.020140335 -0.07302406 -0.06173724
0.1707209 -0.21916121 -0.14354743 0.015363291 -0.120654486 -0.014647715 0.096034676 0.2574266
-0.013396336 0.5115343 -1.0279965 -0.25058517 -0.018750152 0.102218725 0.15998559 -0.2172079
0.12914243 -0.060012247 -0.38523793 -0.16842702 -0.20729181 -0.0918955 -0.100631006 0.16025934
0.15430109 0.28616992 -0.18112431 0.24664028 0.23355557 0.006988389 0.018408202 -0.0159448
0.1665827 -0.06126164 -0.087887116 -0.113146506 -0.2135274 -0.01678829 0.4236328 -0.17912546
0.008424928 0.12405179 0.12946035 -0.002319216 -0.12824205 0.01792219 -0.15398803 -0.28627142
-0.91070753 0.010698225 -0.012560984 -0.22806513 -0.20073259 -0.24618934 -0.053999666 0.23797198
-0.07780958 -0.06718817 -0.08225754 -0.11441317 0.38874254 -0.06982138 0.77059907 -0.2415161
-0.18062526 -0.26331344 -0.23996408 0.09784943 -0.14971007 0.06225011 0.27460966 -0.030259144
0.019035438 0.23036493 0.07023363 -0.014615182 0.22021684 -0.12730235 0.25686666 0.26347727
-0.04317197 0.0043439204 0.3603101 -0.17791523 -0.22184023 -0.14521582 -0.21332783 -0.059895884

fc2.bias f4 [3]
00000000: 9710 88bf 6d23 80bf f353 0a3f
-1.0630063 -1.0010811 0.54034346

road_emb.0.weight f4 [144]
00000000: 0994 ce3f 3b2b 8a3f f2c1 b53f 8237 803f
00000010: 7ea2 5a3f a39a 9d3f 67c1 983f cadb ac3f
00000020: 4cb3 503f 7b1b 6b3e 0106 873f b0d9 7f3f
00000030: fe11 963f 2267 733f 6921 b43f 686d 703f
00000040: 4c5c 753f 5cbd 783f 5b11 913f ec9d 973f
00000050: 2be6 603f a633 813e 9986 753f fc5d 613f
00000060: ee57 9f3f b1de 793f 47f7 b23f 26d1 803f
00000070: d408 603f a477 933f 7ac8 8d3f 5bdb a83f
00000080: eda0 673f a343 693e 93ac 883f 0b07 733f
00000090: d404 ba3f ba3e 843f 6541 ba3f 1072 633f
000000a0: 15d7 573f cef4 9d3f f175 c43f 9874 a03f
000000b0: 7098 873f 1009 393e e70e 843f 8313 6a3f
000000c0: 60e6 a83f 86de 793f 240c b33f 2984 7c3f
000000d0: 8f3b 6a3f 00d5 7e3f 08bd 8f3f f5dc 983f
000000e0: 843c 8e3f 8d95 4e3e 5ff1 8b3f c321 6b3f
000000f0: 23d2 8d3f e91a 6d3f 1eba b93f 85e5 563f
00000100: 4aaf 473f 0201 6c3f 10fa a53f 0ee4 a43f
00000110: 8928 653f c28c 963e 46b6 963f 0442 5a3f
00000120: a110 c93f b017 843f 2792 d63f c831 853f
00000130: ef0e 6c3f 5a9e 9b3f 122b a03f 44ed 963f
00000140: f532 703f a972 d53e 7e15 8e3f 0d9b ac3f
00000150: 8c61 9e3f ed0a 8f3f 194d ce3f ff91 653f
00000160: dd50 423f c680 693f ac5c 993f dfa8 953f
00000170: ed45 7a3f a556 723e 8d5d 8a3f c4fb ad3f
00000180: fe4d a43f b3c5 733f 46d6 d73f 95b8 733f
00000190: 5f07 543f eb1b 643f d3a1 ae3f 78f1 993f
000001a0: 5f14 5a3f 2af0 473e 93c8 933f 791a af3f
000001b0: 151c c23f f425 693f 6c98 ca3f 7cad 663f
000001c0: 53aa 6e3f 04ca a83f cfa8 a63f 2e28 a63f
000001d0: c813 9b3f b38d d93e 824d bc3f 274c 733f
000001e0: 8a13 8e3f 243d 883f 53bb cc3f ce34 833f
000001f0: 260a 813f ef4c 833f cd78 a13f 3ba4 a73f
00000200: cadb 893f 92e8 c03e 2365 c03f ec7c 743f
00000210: 680d 953f 8c63 673f 8779 ce3f fe02 563f
00000220: 5dec 613f 322b 713f 6989 983f a2b7 a63f
00000230: 1f74 7a3f 070f 8d3e b4c9 b03f 18ff 653f
1.6138927 1.0794443 1.4199812 1.001694 0.85404193 1.2312816 1.1934022 1.3504574
0.81523585 0.22959702 1.0548707 0.9994154 1.1724241 0.95079243 1.4072696 0.9391694
0.9584396 0.9716394 1.1333421 1.1845069 0.8785121 0.25234717 0.95908505 0.88034034
1.2448709 0.97605425 1.3981713 1.0063827 0.8751347 1.1520886 1.1076806 1.3191942
0.9047993 0.22779708 1.0677665 0.9493262 1.4532723 1.0331643 1.4551207 0.8884592
0.84312564 1.2340333 1.5348493 1.2535582 1.0593395 0.18069863 1.0317048 0.9143602
1.3195305 0.9760517 1.398808 0.9863916 0.9149713 0.9954376 1.1229563 1.1942431
1.1112218 0.20174237 1.0933036 0.9184839 1.1079754 0.92619187 1.4509923 0.8394397
0.78001845 0.9218904 1.2966938 1.2882097 0.89514977 0.29404265 1.1774375 0.8525698
1.57082 1.0319729 1.6763352 1.0405817 0.92210287 1.21577 1.2513144 1.1791158
0.93827754 0.4168904 1.1100309 1.3484818 1.2373519 1.1175209 1.6117278 0.896759
0.7590464 0.9121212 1.1981406 1.169216 0.9776295 0.23665865 1.08098 1.3592458
1.2836301 0.9522354 1.6862266 0.95203525 0.8282375 0.891051 1.3643135 1.2026815
0.85187334 0.19525209 1.1545585 1.3679954 1.516482 0.91073537 1.5827765 0.90108466
0.93228644 1.318665 1.3020266 1.2981012 1.2115412 0.4249092 1.4711154 0.95038074
1.1099713 1.0643659 1.5994667 1.025049 1.0081222 1.0257853 1.261499 1.3096994
1.0770199 0.37677437 1.5030864 0.95503116 1.1644716 0.9038627 1.6130837 0.83598316
0.88251287 0.94206536 1.1916934 1.302479 0.97833437 0.27550527 1.3811555 0.8984237

road_emb.0.bias f4 [144]
00000000: b53e cb3e 2a94 793e fdb2 843e 6489 493e
00000010: c8cd ab3e be90 263e 3d7b 1e3e 2e5e da3e
00000020: e263 473d 5e5b 36bf d66b af3e 66cf 953e
00000030: 8cdf 7e3e dbd6 c23e d538 983e 5f4b 9c3e
00000040: 0de0 933e db58 ac3e b1f7 4d3e a7fb b13e
00000050: a1f2 e3bc c0b3 41bf 5a2b 913e 2342 803e
00000060: 0714 a43e cce6 8f3e 5a22 d23e 90a6 493e
00000070: 7208 b13e 493c b43e 1e57 283e 9f35 c23e
00000080: fd9e 43bb 7e8b 36bf 809a bc3e 2cae 983e
00000090: 8a9d a53e 1406 913e 41d2 cc3e e4a9 8e3e
000000a0: feb1 9c3e e231 023e e4f8 223e c901 ce3e
000000b0: 8ede 853c 20d2 0dbf 2565 b13e 8c23 903e
000000c0: 42fa d23e b43d 8c3e 9255 d03e e04b 683e
000000d0: 6033 ae3e 2a89 a83e cd22 1e3e 6fda c03e
000000e0: c5c8 b83d 7816 24bf 9688 ba3e 88ea 873e
000000f0: 74e0 7b3e 1123 b23e 9850 e53e effa 8b3e
00000100: eaa2 a83e 4dde aa3e 9265 313e b6e6 c33e
00000110: 6e79 bcbc 54fb 1dbf dd82 d23e 2356 873e
00000120: 5411 d23e 28c8 a63e 0457 903e ed0a 533e
00000130: 9f6b ba3e 0acb 513e 0548 a93e 613a af3e
00000140: 0c32 a33c 83d7 01bf 4418 bc3e 62e7 9d3e
00000150: 7779 a53e c06c 503e c283 903e 6941 913e
00000160: 9710 9b3e d0be 993e 9944 453e 946b b83e
00000170: 4520 0e3d de9e 41bf 354b bf3e 5eea 8b3e
00000180: 8e26 a73e b506 a93e 40cb 9d3e ffe0 863e
00000190: aee3 a73e 079a bd3e b62d 583e e578 c83e
000001a0: 7a97 973c d040 20bf e2df d93e 33e8 953e
000001b0: d1c4 b93e 5c88 b23e ae23 c83e 30a0 9a3e
000001c0: 1f9a 9a3e dc43 de3d 461b 863e ccdc a93e
000001d0: fa62 853d f44a f1be ddf8 873e 26d6 8d3e
000001e0: 3b2f a03e 4b92 9c3e 9b43 c63e ce48 8d3e
000001f0: 1fb9 8a3e db0d 603e ae73 743e 383c c93e
00000200: 93c4 8abc ca35 02bf e8d1 a83e bf44 9c3e
00000210: 3adc b83e 6c7c a03e 19be da3e 4566 a13e
00000220: 70c3 863e 156d be3e b5c1 9b3e a3f7 a53e
00000230: 1e55 453d be5e 2fbf 2b3c a43e 4dd3 8b3e
0.3969628 0.24372926 0.25917807 0.19681317 0.33555436 0.16266152 0.15476699 0.42649978
0.04867924 -0.71233165 0.3426196 0.29259795 0.24889964 0.38054547 0.2973086 0.30526254
0.28881875 0.3366154 0.20114018 0.34762308 -0.027825655 -0.756649 0.28353387 0.25050458
0.3204653 0.28105772 0.41041833 0.19692445 0.34576756 0.35202244 0.16439483 0.37931535
-0.0029849403 -0.713066 0.36836624 0.29820383 0.32346755 0.2832495 0.4000416 0.2786399
0.30604547 0.12714341 0.15915257 0.40235737 0.016341474 -0.5539875 0.3464748 0.2815212
0.41206557 0.27390826 0.40690285 0.22685194 0.3402357 0.32917148 0.15442963 0.37666652
0.09022669 -0.64096785 0.36432332 0.2654612 0.24597341 0.3479238 0.4478805 0.27339885
0.32936794 0.33372727 0.17323902 0.38261956 -0.023007121 -0.6171162 0.41115466 0.26432905
0.41028845 0.32574582 0.28191388 0.20609637 0.36410233 0.2048761 0.3306276 0.34224227
0.019921325 -0.5071947 0.36737263 0.30840594 0.32319233 0.20353985 0.28225523 0.28370216
0.30286095 0.3002839 0.19264449 0.36019576 0.034698743 -0.7563304 0.37362066 0.27327245
0.32646602 0.3301293 0.3081913 0.26343533 0.32790893 0.37031576 0.21111187 0.39154735
0.018504847 -0.62598896 0.42553622 0.29278716 0.36282972 0.3486966 0.3908972 0.30200338
0.3019571 0.10852787 0.26192683 0.33176267 0.06513019 -0.47127497 0.26557055 0.27702445
0.31286034 0.30580363 0.38723454 0.27594608 0.2709436 0.21880285 0.23872253 0.39303756
-0.016939437 -0.50863326 0.32972646 0.305212 0.3610552 0.31344926 0.42723158 0.31523338
0.26320982 0.37192598 0.30421224 0.32415494 0.048176877 -0.6850394 0.32077155 0.27309647

road_emb.1.weight f4 [64, 144]
00000000: 97f1 34be 50a9 cebc f278 48bf 52b3 31be
00000010: 2281 753e b682 c03d a7f6 cbbd 37c6 0f3f
00000020: 1cd2 4b3d 7908 c7bd 48fe 223f 39af bfbe
00000030: 1d3a 32ba 9fb0 de3d f710 1bbf 1baf dabe
00000040: 047c 6d3e 0bd0 843b cd2e 943c 112b da3e
00000050: 088a c4bd 5639 afbb dc1c 033f eb8e 8ebe
00000060: 0ff5 40be 65da 8f3d 33ce 70bf 2164 b33d
00000070: 327c 0c3e 2884 423e 77e1 e1bd 24fb f73e
00000080: 2d6e 3bbd e133 88bc ece6 2f3f 92f7 7cbe
00000090: bbb6 e1be 39be 153e 0599 27bf 000d 07bf
000000a0: 087a 9a3d 6485 9c3d 6096 553f d4be c13d
000000b0: 2ec0 56be e504 7c3e 173f 673e d9ee 25be
000000c0: b80b 2b3d 66ee 13bd 7c46 0cbf 7127 dfbd
000000d0: 9948 123e d613 0fbe 7512 a13e 60d1 2cbd
000000e0: 286f a8be db5d 7e3d b9ac d23e 1376 80be
000000f0: 0915 58be e939 f53d 642e 36bf 90f8 c3be
00000100: 9268 aa3e 3d69 253f fe3c eabc 5611 71bd
00000110: 4c06 51be 9fd2 06be ddde fa3e 775c c0be
00000120: 7505 afbe 6995 dd3c d697 d3be e3ff 2abe
00000130: a851 743e 83a7 0f3e 9d0a 86bd 47f4 81be
00000140: d9ad f2bd 5807 433e 4736 b83e 6274 53bf
00000150: ff23 ee3e acf2 4dbe 0dbf edbe e98d cfbe
00000160: 5ac6 8c3e dee5 f63d da2c b6bd 32d3 2fbe
00000170: fea3 babe d429 373c d7bb 043f 8a99 b6be
00000180: fa6e 76be 2ef5 ef3d 4df2 0dbf 13ba a9be
00000190: 01c9 613d 6265 003f a8a0 103e 08e0 35be
000001a0: 55dd 4dbc ac39 823e c3d6 0a3f 8c1d e0be
000001b0: 2c16 f2bd daf7 6d3e 62cd 0fbf 77e1 c5be
000001c0: e63e 74bb a20e 673d b9f1 d33e 89c3 adbe
000001d0: cb7a 25be a41c 033e 38cb cebc 82e4 69be
000001e0: 1acf a93d e797 bfbe a05e 88be 3828 5dbe
000001f0: 4295 573d dd37 83bc cfe0 043f 1df4 acbe
00000200: cd6c 80bc e2f9 0fbc e164 f3bd 3e33 28be
00000210: bf8c b2bc 60f2 58be c07c d5be 4d94 fdbe
00000220: 1650 263e 0f15 233f f7b4 563f cc1f aabe
00000230: 8c88 09be 7e80 a63d a98d 97be 3662 7ebe
00000240: 2639 05be 1a21 30be f6ab 5fbf 49b4 da3d
00000250: a215 073e c9ef de3c e52a b93e 44f8 d23e
00000260: 8929 9e3d 092c 233e 059a 483d 53e2 003e
00000270: 292a 653d cb1f 46be 9b67 4ebf fd65 81bb
00000280: 23a4 85bb c3ac c03c 86da 943e d1fd 7f3e
00000290: 26b5 8cbb 3a22 1bbe 32ec 9e3d 0167 92bd
000002a0: d854 6a3b 4614 72be f52e 5fbf 08fa 263e
000002b0: 1593 793e dd47 2a3d 644f de3d 4f88 8e3e
000002c0: 74c3 913e 58f2 8e3d 4ab5 163e 216d af3d
000002d0: ad41 02be 8cd2 ee3c 2b0d 0abf a48f aa3e
000002e0: a8f7 093e 0e45 7f3d b2cf cfbb ada9 3c3e
000002f0: f856 833d 8b67 89bc 9872 c1be 0652 703e
00000300: 5e21 b9be 09fe d53d 7f34 e4be 6ac2 343e
00000310: 7b2e 843e f346 fd3d 610f 263c a1da f03d
00000320: 8566 073e 3268 4b3e bfc7 5ebe 5da1 463e
00000330: 731b 5fbd f4c5 1cbe 77cc 22bf a663 183e
00000340: 52eb c23d 78ee b43b 1596 813e 86b9 a73e
00000350: 3627 9a3e 1fc5 82bd caa7 6ebe 3de2 913e
00000360: fd76 5abe 5947 4fbd 9a70 53bf 22cd 933d
00000370: fd68 c53d eb08 333c 36b8 ebbd 2375 933e
00000380: f30e 7b3e 3e3f 283e 88e7 1dbe 292a 85be
00000390: 8041 9cbd e7e0 bc3d 7177 26bf 470f 673d
000003a0: 0943 083e e6fa e6bd 7242 d0bd a74f 6f3c
000003b0: ff10 673e a8a4 6c3e 1868 89be 8c49 9dbe
000003c0: 0266 01be 0b5e d8bd 38aa 37bf 7631 febd
000003d0: 0913 41bb 363f e4bd 4d10 a33e 6181 703e
000003e0: 2f62 083e 102d 943d 617e ccbe dad7 efbe
000003f0: dbd2 7dbe 3834 07be 1e2b 8bbf b800 2f3d
-0.17670284 -0.025227219 -0.7830955 -0.17353562 0.23975042 0.09399931 -0.099591546 0.56161827
0.049760923 -0.09718413 0.6366925 -0.37438372 -0.00067988207 0.108735316 -0.6057276 -0.4271172
0.2319184 0.004053121 0.018088723 0.42610982 -0.0959664 -0.005347411 0.5121591 -0.27843413
-0.18843482 0.07024077 -0.94064635 0.087593324 0.13719252 0.18995726 -0.11029332 0.48433793
-0.04575937 -0.0166263 0.68711734 -0.24703816 -0.44084725 0.14623345 -0.65467864 -0.5275421
0.07542807 0.0764263 0.8343258 0.09460226 -0.20971748 0.24611242 0.2258266 -0.16204394
0.041759223 -0.036116026 -0.5479505 -0.10896195 0.14285506 -0.1397241 0.31459394 -0.042191863
-0.32897305 0.062101226 0.41147402 -0.25090083 -0.21101774 0.11973936 -0.71164536 -0.38275576
0.33282906 0.64613706 -0.028593536 -0.058854423 -0.20412558 -0.13166283 0.48998156 -0.37570545
-0.3418385 0.027048783 -0.4132678 -0.16699176 0.23859274 0.14028744 -0.06544993 -0.2538168
-0.11849565 0.1904577 0.3597891 -0.8259946 0.46511838 -0.20112103 -0.46434823 -0.40537956
0.2749508 0.120555624 -0.088952735 -0.17170408 -0.3645324 0.011179406 0.5184912 -0.35664016
-0.24065772 0.11716686 -0.55447847 -0.33149776 0.055123333 0.501547 0.14123785 -0.17761242
-0.012564977 0.25434625 0.5423395 -0.43772542 -0.11820635 0.23239079 -0.56172764 -0.3864858
-0.0037268936 0.05641044 0.41395357 -0.33938244 -0.16160123 0.12803894 -0.025243387 -0.22841075
0.082914546 -0.3742058 -0.26634693 -0.21597373 0.052632578 -0.016017849 0.5190553 -0.33779994
-0.01567688 -0.008787604 -0.118844755 -0.16425797 -0.021795629 -0.21186209 -0.4169674 -0.49527207
0.16241488 0.6370401 0.8386988 -0.33227384 -0.13430995 0.08129977 -0.29600266 -0.24842152
-0.13010082 -0.17200127 -0.87371767 0.10678918 0.13191846 0.027213948 0.36165538 0.41205037
0.07722766 0.15934767 0.04897501 0.12586336 0.05594841 -0.19348066 -0.8062684 -0.0039489255
-0.0040784045 0.02351988 0.2907297 0.24999167 -0.0042940555 -0.15149775 0.077598944 -0.07148553
0.0035756137 -0.23640546 -0.87181026 0.16306317 0.24372514 0.04157244 0.10854986 0.2783837
0.2846943 0.06979817 0.14717594 0.085657366 -0.12720366 0.029153131 -0.5392634 0.33312714
0.1347338 0.062321715 -0.006341898 0.18424101 0.06413072 -0.016773006 -0.3778274 0.2346879
-0.3615827 0.10448844 -0.445713 0.17652288 0.25816712 0.12367048 0.010135503 0.1176045
0.13222702 0.19863966 -0.21755885 0.19397493 -0.054469537 -0.15309888 -0.6359324 0.14881763
0.0951754 0.0055215918 0.25309816 0.3275873 0.3010804 -0.06385254 -0.23306194 0.2849292
-0.21334453 -0.05060515 -0.8259369 0.0721686 0.096391656 0.010927419 -0.11509745 0.28800306
0.24517421 0.16430375 -0.15420353 -0.26008728 -0.07629681 0.09222584 -0.65026003 0.056411054
0.13306822 -0.11278324 -0.101689234 0.014606393 0.22565077 0.23109686 -0.2683723 -0.30720174
-0.12636569 -0.10564812 -0.7174411 -0.12411778 -0.0029460809 -0.11144869 0.31848374 0.23486854
0.13318704 0.072351575 -0.3994017 -0.4684437 -0.24787466 -0.13203514 -1.0872533 0.042725295

road_emb.1.bias f4 [64]
00000000: 50a7 593d b503 e83c 6f00 e2bb 11c7 913c
00000010: df48 2d3e 4732 0dbe 0382 08be 36d0 81bd
00000020: ba93 133d 92fe 41be 1297 91be 1bec 82bd
00000030: 8a13 f8be ed26 05be d3f4 3cbd 41a3 023d
00000040: e82c 84bd 0135 59be ddaf 07bf ccc1 b4b8
00000050: 450d 7bbe f878 eebe 7db5 043d b3ef 19be
00000060: 8636 0fbd 8dd9 973e ef51 2abe 0627 9d3d
00000070: 81cf 97be 5d3a 87be 4409 58bd 96eb 68bd
00000080: aefd 003e ed03 ff3d ce3e 50bc 178a 4abe
00000090: 07af d1bd fb19 25be 23cd 753e 7f0c 14be
000000a0: 87d3 c5bd 1373 25bc 2408 19be 1d8e 11bd
000000b0: 63cc 313d 49c4 58bd 68b1 0fbd 4f40 98bd
000000c0: 6d02 643d b03d e6bd 73a8 cf3c 83d9 83bb
000000d0: 7588 dabc 1f58 bf3d e6f5 18be 38e6 eabd
000000e0: 41dd 34be 88fc c5be 63f2 34be 4279 8bbd
000000f0: f008 29be ac6b 213e 38c7 113e 445f 3bbe
0.053138077 0.02832208 -0.0068970243 0.017795118 0.1692233 -0.1378871 -0.13330846 -0.06338541
0.036029555 -0.18944767 -0.2843557 -0.0639269 -0.48452407 -0.1300313 -0.04613192 0.031893972
-0.06453878 -0.21211626 -0.5300272 -8.619166e-05 -0.2451678 -0.46576667 0.032399643 -0.15032844
-0.034964107 0.29658166 -0.16632818 0.07673459 -0.296505 -0.26411715 -0.05274321 -0.056865297
0.12596771 0.12451921 -0.012710286 -0.1977924 -0.10238462 -0.16123192 0.24004035 -0.14457892
-0.09659486 -0.010098237 -0.14944512 -0.03553592 0.04340781 -0.052921567 -0.035081297 -0.07434141
0.055666376 -0.11242235 0.025348878 -0.004023732 -0.026676396 0.0934298 -0.14937553 -0.11469692
-0.17662527 -0.3866923 -0.17670588 -0.068102375 -0.16507316 0.1576373 0.14236152 -0.1829806

cav_emb.0.weight f4 [11]
00000000: 871a 973f 0416 f23e f2ec 063f a0d3 2d3f
00000010: 87c2 0540 1681 f33f 85da f93f 84ce 293f
00000020: cc93 053f b2c5 b03f fa4b d83f
1.180497 0.47282422 0.527053 0.6790104 2.089998 1.9023769 1.9519812 0.6633074
0.52178645 1.3810332 1.6898186

cav_emb.0.bias f4 [11]
00000000: 6e76 9a3d fdda babc a6e9 b63d f1d5 253e
00000010: 7841 293c 757a 8a3d 93af 58bd 8d76 2c3e
00000020: 7e3a 8d3e c9f2 0d3d 56b1 00bd
0.0754212 -0.0228095 0.08931284 0.16194893 0.01033055 0.06761638 -0.052901816 0.16842099
0.27583688 0.034655366 -0.03141912

cav_emb.1.weight f4 [64, 11]
00000000: 0852 d5be 2ac7 dd3e d514 793e 3012 a33d
00000010: 18d9 023f 81dd e5be d1e8 fb3e 6f4e 183e
00000020: acc0 8f3e 537b adbe 1fa8 aa3d 3d14 88be
00000030: 6120 87be cab9 5fbd f4c1 68be 0975 e2be
00000040: d33f c63e 2cf6 40be 5aa4 c9be dfb2 ebbd
00000050: 4115 113f d5a0 e53e a390 d6be d421 6dbf
00000060: 9201 833e 968e 273f 09df 443f 4576 0f3e
00000070: 3019 acbb 82bc 333e 3594 003d 2a0e aabc
00000080: 3b1f a63e 97f9 863d a374 a4be 167f 46bd
00000090: 7661 88be 74ee 73bf 081f aa3f 9f3f 4cbf
000000a0: df4a 0b3e 93bc 1ebe 52a6 f93d 18b6 c3bd
000000b0: f895 8bbe 84bd ef3e 3ddf e43e 85f6 03bf
000000c0: ba4b c5bd 6b7a d63d 5f1e 983d 2692 90be
000000d0: 8f8f 313e 13f2 cdbe c8dc c43e ffc0 31bf
000000e0: 2424 37bd a63f 9b3e 3958 81bd 8296 5f3e
000000f0: 690c 3b3f 0e97 9dbe 7780 97be e0b9 10be
00000100: 173b f13c e928 afbd 7345 9bbe c111 b43e
00000110: a2b5 3b3e c667 c1be 5ed9 803e b29c 9ebd
00000120: 09d8 b0be cbbb e53d 06b5 e03d 7bfd 86be
00000130: cc03 d4be 3fff 8ebe 8452 b73e 15e6 adbd
00000140: 851e 60bd 3a1c 153d 4ae7 9abe 54db 683f
00000150: ccb6 ac3a b1c0 933e 6c25 6bbf 7faf 1c3f
00000160: 7df5 54bf ab4b a73a 11e3 873e e827 983e
00000170: 2849 8a3e b2ca 2b3d ab23 813c 1299 1d3f
00000180: f273 113e 9c60 fcbd ae6a e4bd 8b62 0cbf
00000190: 050e f23d 3fa5 013f 3db0 bc3e a203 81be
000001a0: 872d b4be 4602 233f 449a 2abd 7abc f73e
000001b0: ae3c c4be 9f07 9b3e fac0 b7bd c223 68be
000001c0: dd3c 5a3e 7b1e 64be 6b49 583f 1b39 593d
000001d0: 9b20 633c 990f 813d e6cb ff3d 0e9b 7abe
000001e0: bfbe a6be edf3 94bd 18ff db3d f7c0 ca3e
000001f0: 3408 ae3d 192e 35bd b041 7dbc 6a80 833e
00000200: e45e f2be b859 ff3d 1ef1 243e 7564 cc3d
00000210: 814d 89be 526f 503e 1cb9 f83d e3b5 ce3d
00000220: 5c23 093f fa6b 763d 4fb5 f3be 19cf 0f3f
00000230: b476 393e eb28 33bf 8c23 983d 5f84 cebe
00000240: a9f8 85be 5b3d b73e b34c 073d c791 d13e
00000250: cec9 263e 5ac8 c2be 4695 96bc 6702 6bbe
00000260: 3c1b ebbe 635e b73d df41 cdbe 3b61 9dbe
00000270: fe8a 43be 1acf 513d e4bb 563f 7336 5a3d
00000280: 0257 ab3e 5b4f d0bc 863c 963e b061 3e3f
00000290: d5fe b6bd aaeb 1bbf d877 43be aad3 ae3d
000002a0: 3d01 26be 056c 81be aab4 b33e 6f99 9e3e
000002b0: dc20 06bd 6434 c93d 039d 81bf 78e9 053f
000002c0: 7104 02bf fb1e 003e 5ed5 03be b79e 9abd
000002d0: fd55 b23e e747 343f 4465 0abf 63c5 8f3d
000002e0: f5eb 733c 8994 da3e 3dcd d7be 3f71 e33e
000002f0: 038e 9d3a b840 b43d 4cfd 94be 74e3 16bf
00000300: 8760 d73b 07ce 9a3e c6ad 48bd 0cb5 5cbe
00000310: abdc c0be 37ab 8dbd 60f6 223d fc0c 933e
00000320: 00f8 bd3e fcd1 153e 55de af3d 3b93 653d
00000330: bd0b d4bd 19c9 7b3e 3efc 2f3e bd6b 393d
00000340: cfaf a03d 854f 5dbd 843d a0be ed37 9c3e
00000350: 6d2d b53e 93c9 f53e ce0d e93d 94f2 ac3e
00000360: 8943 bebe 6c4f 9ebe 0f91 51bd 8b4d 063d
00000370: 2daa a3be b1ec 75be b2fa 72be d0d9 cabd
00000380: 5162 acbf 42aa 553f d464 103f 3ccc f5bc
00000390: e759 4cbe 10ed 37be ebae adbe 7be8 9abe
000003a0: 884b 073e 212d 8c3e ae3d 123d f20b 6d3f
000003b0: abb9 dfbe 7ed9 31be 820d 453e 20be 3b3c
000003c0: affc b3be f683 00be 8d13 f2be f1fa 063e
000003d0: d446 723e 38e1 e53e 08a2 4fbe 61de acbd
000003e0: a313 c1be eca3 ea3e fa82 c63d cd54 433e
000003f0: 365b 5e3c 3026 2fbe 51d6 29be 6539 d4bc
-0.41664147 0.43316013 0.24324353 0.07962453 0.5111251 -0.44895557 0.49201062 0.1487367
0.28076684 -0.3388315 0.08332848 -0.2657794 -0.2639189 -0.05462054 -0.22730237 -0.44229916
0.3872057 -0.18843907 -0.39383203 -0.11508726 0.56673056 0.44849268 -0.41907224 -0.9262974
0.25587136 0.65451944 0.76902825 0.1400996 -0.005252026 0.17552379 0.03139134 -0.020758707
0.32445702 0.06590574 -0.32120237 -0.048461042 -0.26636857 -0.95285726 1.329072 -0.7978458
0.1360278 -0.15501623 0.12189926 -0.09556216 -0.27262855 0.46824276 0.44701567 -0.51548034
-0.09633584 0.10472568 0.07427668 -0.28236502 0.1733992 -0.4022375 0.38449693 -0.69435114
-0.0447122 0.30321997 -0.06315655 0.21834758 0.7306581 -0.30779308 -0.29590198 -0.14133406
0.029447122 -0.08552725 -0.30326423 0.35169795 0.18331006 -0.37774485 0.25165838 -0.07744731
-0.34539822 0.11217459 0.109720275 -0.26365265 -0.41409147 -0.27929112 0.35805142 -0.0849115
-0.054716606 0.036403872 -0.30254585 0.9095967 0.0013177036 0.2885795 -0.91853976 0.61205286
-0.83187085 0.001276364 0.26540425 0.29717946 0.2700894 0.041941352 0.015764078 0.6156169
0.14204386 -0.12323114 -0.1115316 -0.54837865 0.1181908 0.5064277 0.3685321 -0.25198084
-0.35190985 0.63675344 -0.041651025 0.48385984 -0.38327545 0.30279252 -0.08972354 -0.2266989
0.2131228 -0.22277252 0.84487027 0.053032976 0.013862754 0.06301803 0.124900624 -0.24473211
-0.32567403 -0.07273088 0.10742015 0.39600345 0.08497658 -0.044233415 -0.015457556 0.2568391
-0.4733802 0.12468284 0.16107604 0.09980098 -0.26816943 0.20354965 0.12144682 0.10093286
0.5356958 0.06016157 -0.47599265 0.5617538 0.18111688 -0.6998431 0.07428655 -0.40335366
-0.26166275 0.35788998 0.03303213 0.40931532 0.1628792 -0.3804348 -0.018381726 -0.22950135
-0.45919216 0.0895355 -0.40089318 -0.30738243 -0.1909599 0.051222898 0.8388045 0.053274583
0.3346482 -0.025428465 0.2934305 0.7436781 -0.08935324 -0.6090647 -0.19088686 0.085364655
-0.1621141 -0.25277725 0.35098773 0.30976436 -0.03274618 0.09824446 -1.0126041 0.5230937
-0.5078803 0.12511818 -0.12874362 -0.07549804 0.3483123 0.70422214 -0.5406077 0.070200704
0.0148877995 0.42691448 -0.42148772 0.44422337 0.0012020472 0.088014066 -0.290995 -0.58940816
0.0065727863 0.3023531 -0.04899385 -0.21553439 -0.37668356 -0.06917422 0.039785743 0.28720844
0.3710327 0.14630884 0.08587328 0.056048613 -0.103538014 0.24588431 0.17186067 0.045268763
0.07846033 -0.054030914 -0.31296933 0.30511418 0.3538622 0.4800535 0.11379586 0.33778822
-0.371609 -0.3091997 -0.05116373 0.032788794 -0.3196577 -0.24016072 -0.23728445 -0.09904826
-1.3467504 0.8346292 0.5640385 -0.030004613 -0.1995617 -0.17961526 -0.33922514 -0.30255494
0.13212407 0.2737818 0.035703354 0.9259635 -0.4369634 -0.17368123 0.19243434 0.011458904
-0.3515372 -0.12550339 -0.4728054 0.13181664 0.23659831 0.4489839 -0.20276654 -0.08440853
-0.37710294 0.45828187 0.096929505 0.19075318 0.013571551 -0.17104411 -0.16585661 -0.025906274

cav_emb.1.bias f4 [64]
00000000: 126f 00be 65d5 5e3d a3b5 26be b2c5 913e
00000010: a189 053e dfa3 a2bd 3d4e 01be a2ab 74be
00000020: 4184 0bbf 2d92 27be 99e2 493d b8bf 9b3d
00000030: 3bb8 1abe da58 64be b63b 39bd a56b 47be
00000040: 823a aebd f770 323d 348d 99be 7a9f 08be
00000050: eeca 59be 95fa 3dbe 130f 54be 720c 6bbe
00000060: aa29 523d fb6f cabe e62c ce3d 448e 02be
00000070: 919c 2abd a97b 02be 6f3a ccbe e51a a5bd
00000080: cd79 dcbd bb88 b2bd 6ef0 2d3d c40b dabc
00000090: d02a 1fbd 7c60 4fbe 6129 0bbe 0d73 33be
000000a0: 3502 99be 329e d8bd 5026 60bd 6c69 03be
000000b0: 6085 513c f993 b7bd fbe5 73be 85b0 3a3d
000000c0: ceca a43d e8d0 91be 21db 46bd 5ece ddbe
000000d0: eb49 4fbd 2afa 0cbe 6022 d7be 1a76 1bbf
000000e0: 139f 97be eed5 e9bc d9f2 913d 1114 b1be
000000f0: 9aa7 3abd ae92 41be 6568 2abe 7ec8 51bd
-0.1254237 0.054402728 -0.16280226 0.28471142 0.13040783 -0.07941412 -0.12627502 -0.23893598
-0.5449868 -0.16364355 0.049288366 0.07604927 -0.15109341 -0.22299519 -0.04522296 -0.19474657
-0.08507253 0.043564763 -0.29990542 -0.13342085 -0.21268818 -0.1855262 -0.20708875 -0.22953966
0.051309265 -0.3953856 0.100671574 -0.12749583 -0.04165322 -0.12742485 -0.3988833 -0.0806177
-0.10765419 -0.087174855 0.04246562 -0.026616938 -0.03885919 -0.2025165 -0.13590004 -0.17524357
-0.29884496 -0.10577048 -0.054724038 -0.12833184 0.012788147 -0.089637704 -0.238182 0.0455785
0.080464944 -0.28479695 -0.04854882 -0.43321508 -0.050607603 -0.13767305 -0.42018414 -0.60727084
-0.29613551 -0.028544392 0.07126398 -0.34585622 -0.045569994 -0.1890361 -0.16641386 -0.051216595

att.mask f4 [1, 1, 145, 145]
00000000: 0000 803f 0000 0000 0000 0000 0000 0000
00000010: 0000 0000 0000 0000 0000 0000 0000 0000
00000020: 0000 0000 0000 0000 0000 0000 0000 0000
00000030: 0000 0000 0000 0000 0000 0000 0000 0000
00000040: 0000 0000 0000 0000 0000 0000 0000 0000
00000050: 0000 0000 0000 0000 0000 0000 0000 0000
00000060: 0000 0000 0000 0000 0000 0000 0000 0000
00000070: 0000 0000 0000 0000 0000 0000 0000 0000
00000080: 0000 0000 0000 0000 0000 0000 0000 0000
00000090: 0000 0000 0000 0000 0000 0000 0000 0000
000000a0: 0000 0000 0000 0000 0000 0000 0000 0000
000000b0: 0000 0000 0000 0000 0000 0000 0000 0000
000000c0: 0000 0000 0000 0000 0000 0000 0000 0000
000000d0: 0000 0000 0000 0000 0000 0000 0000 0000
000000e0: 0000 0000 0000 0000 0000 0000 0000 0000
000000f0: 0000 0000 0000 0000 0000 0000 0000 0000
00000100: 0000 0000 0000 0000 0000 0000 0000 0000
00000110: 0000 0000 0000 0000 0000 0000 0000 0000
00000120: 0000 0000 0000 0000 0000 0000 0000 0000
00000130: 0000 0000 0000 0000 0000 0000 0000 0000
00000140: 0000 0000 0000 0000 0000 0000 0000 0000
00000150: 0000 0000 0000 0000 0000 0000 0000 0000
00000160: 0000 0000 0000 0000 0000 0000 0000 0000
00000170: 0000 0000 0000 0000 0000 0000 0000 0000
00000180: 0000 0000 0000 0000 0000 0000 0000 0000
00000190: 0000 0000 0000 0000 0000 0000 0000 0000
000001a0: 0000 0000 0000 0000 0000 0000 0000 0000
000001b0: 0000 0000 0000 0000 0000 0000 0000 0000
000001c0: 0000 0000 0000 0000 0000 0000 0000 0000
000001d0: 0000 0000 0000 0000 0000 0000 0000 0000
000001e0: 0000 0000 0000 0000 0000 0000 0000 0000
000001f0: 0000 0000 0000 0000 0000 0000 0000 0000
00000200: 0000 0000 0000 0000 0000 0000 0000 0000
00000210: 0000 0000 0000 0000 0000 0000 0000 0000
00000220: 0000 0000 0000 0000 0000 0000 0000 0000
00000230: 0000 0000 0000 0000 0000 0000 0000 0000
00000240: 0000 0000 0000 803f 0000 803f 0000 0000
00000250: 0000 0000 0000 0000 0000 0000 0000 0000
00000260: 0000 0000 0000 0000 0000 0000 0000 0000
00000270: 0000 0000 0000 0000 0000 0000 0000 0000
00000280: 0000 0000 0000 0000 0000 0000 0000 0000
00000290: 0000 0000 0000 0000 0000 0000 0000 0000
000002a0: 0000 0000 0000 0000 0000 0000 0000 0000
000002b0: 0000 0000 0000 0000 0000 0000 0000 0000
000002c0: 0000 0000 0000 0000 0000 0000 0000 0000
000002d0: 0000 0000 0000 0000 0000 0000 0000 0000
000002e0: 0000 0000 0000 0000 0000 0000 0000 0000
000002f0: 0000 0000 0000 0000 0000 0000 0000 0000
00000300: 0000 0000 0000 0000 0000 0000 0000 0000
00000310: 0000 0000 0000 0000 0000 0000 0000 0000
00000320: 0000 0000 0000 0000 0000 0000 0000 0000
00000330: 0000 0000 0000 0000 0000 0000 0000 0000
00000340: 0000 0000 0000 0000 0000 0000 0000 0000
00000350: 0000 0000 0000 0000 0000 0000 0000 0000
00000360: 0000 0000 0000 0000 0000 0000 0000 0000
00000370: 0000 0000 0000 0000 0000 0000 0000 0000
00000380: 0000 0000 0000 0000 0000 0000 0000 0000
00000390: 0000 0000 0000 0000 0000 0000 0000 0000
000003a0: 0000 0000 0000 0000 0000 0000 0000 0000
000003b0: 0000 0000 0000 0000 0000 0000 0000 0000
000003c0: 0000 0000 0000 0000 0000 0000 0000 0000
000003d0: 0000 0000 0000 0000 0000 0000 0000 0000
000003e0: 0000 0000 0000 0000 0000 0000 0000 0000
000003f0: 0000 0000 0000 0000 0000 0000 0000 0000
1.0 0.0 0.0 0.0 0.0 0.0 0.0 0.0
0.0 0.0 0.0 0.0 0.0 0.0 0.0 0.0
0.0 0.0 0.0 0.0 0.0 0.0 0.0 0.0
0.0 0.0 0.0 0.0 0.0 0.0 0.0 0.0
0.0 0.0 0.0 0.0 0.0 0.0 0.0 0.0
0.0 0.0 0.0 0.0 0.0 0.0 0.0 0.0
0.0 0.0 0.0 0.0 0.0 0.0 0.0 0.0
0.0 0.0 0.0 0.0 0.0 0.0 0.0 0.0
0.0 0.0 0.0 0.0 0.0 0.0 0.0 0.0
0.0 0.0 0.0 0.0 0.0 0.0 0.0 0.0
0.0 0.0 0.0 0.0 0.0 0.0 0.0 0.0
0.0 0.0 0.0 0.0 0.0 0.0 0.0 0.0
0.0 0.0 0.0 0.0 0.0 0.0 0.0 0.0
0.0 0.0 0.0 0.0 0.0 0.0 0.0 0.0
0.0 0.0 0.0 0.0 0.0 0.0 0.0 0.0
0.0 0.0 0.0 0.0 0.0 0.0 0.0 0.0
0.0 0.0 0.0 0.0 0.0 0.0 0.0 0.0
0.0 0.0 0.0 0.0 0.0 0.0 0.0 0.0
0.0 1.0 1.0 0.0 0.0 0.0 0.0 0.0
0.0 0.0 0.0 0.0 0.0 0.0 0.0 0.0
0.0 0.0 0.0 0.0 0.0 0.0 0.0 0.0
0.0 0.0 0.0 0.0 0.0 0.0 0.0 0.0
0.0 0.0 0.0 0.0 0.0 0.0 0.0 0.0
0.0 0.0 0.0 0.0 0.0 0.0 0.0 0.0
0.0 0.0 0.0 0.0 0.0 0.0 0.0 0.0
0.0 0.0 0.0 0.0 0.0 0.0 0.0 0.0
0.0 0.0 0.0 0.0 0.0 0.0 0.0 0.0
0.0 0.0 0.0 0.0 0.0 0.0 0.0 0.0
0.0 0.0 0.0 0.0 0.0 0.0 0.0 0.0
0.0 0.0 0.0 0.0 0.0 0.0 0.0 0.0
0.0 0.0 0.0 0.0 0.0 0.0 0.0 0.0
0.0 0.0 0.0 0.0 0.0 0.0 0.0 0.0
