route_TSC/model/0.5_hatt_router_joint_0315/ep15/q_netveh.pt (torch, 510246 bytes, 26 tensors)

attn f4 [1, 2, 37]
000000 80 01 88 50 f9 05 00 00 00 00 00 00 00 00 00 00
       1.8254397e+10 2.143e-42 0.0 0.0
000010 00 00 00 00 00 00 00 00 00 00 00 00 00 00 00 00
       0.0 0.0 0.0 0.0
000020 00 00 00 00 00 00 00 00 00 00 00 00 00 00 00 00
       0.0 0.0 0.0 0.0
000030 00 00 00 00 00 00 00 00 00 00 00 00 00 00 00 00
       0.0 0.0 0.0 0.0
000040 00 00 00 00 00 00 00 00 00 00 00 00 00 00 00 00
       0.0 0.0 0.0 0.0
000050 00 00 00 00 00 00 00 00 00 00 00 00 00 00 00 00
       0.0 0.0 0.0 0.0
000060 00 00 00 00 00 00 00 00 00 00 00 00 00 00 00 00
       0.0 0.0 0.0 0.0
000070 00 00 00 00 00 00 00 00 00 00 00 00 00 00 00 00
       0.0 0.0 0.0 0.0
000080 00 00 00 00 00 00 00 00 00 00 00 00 00 00 00 00
       0.0 0.0 0.0 0.0
000090 00 00 00 00 00 00 00 00 00 00 00 00 00 00 00 00
       0.0 0.0 0.0 0.0
0000a0 00 00 00 00 00 00 00 00 00 00 00 00 00 00 00 00
       0.0 0.0 0.0 0.0
0000b0 00 00 00 00 00 00 00 00 00 00 00 00 00 00 00 00
       0.0 0.0 0.0 0.0
0000c0 00 00 00 00 00 00 00 00 00 00 00 00 00 00 00 00
       0.0 0.0 0.0 0.0
0000d0 00 00 00 00 00 00 00 00 00 00 00 00 00 00 00 00
       0.0 0.0 0.0 0.0
0000e0 00 00 00 00 00 00 00 00 00 00 00 00 00 00 00 00
       0.0 0.0 0.0 0.0
0000f0 00 00 00 00 00 00 00 00 00 00 00 00 00 00 00 00
       0.0 0.0 0.0 0.0
000100 00 00 00 00 00 00 00 00 00 00 00 00 00 00 00 00
       0.0 0.0 0.0 0.0
000110 00 00 00 00 00 00 00 00 00 00 00 00 00 00 00 00
       0.0 0.0 0.0 0.0
000120 00 00 00 00 00 00 00 00
       0.0 0.0

fc0.weight f4 [32, 2315]
000000 0c cb 8e bb 7e 6c 10 3c 60 71 9d 3c 88 58 d8 3b
       -0.004357701 0.008814929 0.0192191 0.0066023506
000010 a0 cf 97 3c f9 c0 0a bc d4 84 9f 3c ff bc 30 bc
       0.01853162 -0.00846886 0.019472517 -0.010787248
000020 fc 32 8f 3c f6 ef 2a 3c d0 ec d4 ba 20 dd 8c 3c
       0.017480366 0.010433188 -0.0016244892 0.017195284
000030 40 72 62 3a 94 8c a4 3c 78 5e a8 3c f6 72 a3 3c
       0.00086382404 0.020086564 0.020552859 0.019952279
000040 9f bc a9 bc e2 e4 a2 bc 72 7b 27 3c c4 c1 b4 3b
       -0.020719824 -0.01988453 0.010222303 0.0055162627
000050 53 93 a6 bc b4 ef 69 3c 00 7b 4b ba a6 54 8e 3c
       -0.020333922 0.014278341 -0.0007762164 0.017374348
000060 6d 4b 9a bc 0c 75 62 3c 10 c9 7e bb 60 52 d3 3a
       -0.018834794 0.013821851 -0.0038877167 0.0016122572
000070 4c 9a 55 3c 2a 4e 25 bc 84 9c d1 bb da 4f 9e bc
       0.0130372755 -0.010089437 -0.006396832 -0.019325186
000080 98 84 6d 3b 68 57 df bb fa 4e 44 bc 30 1c 43 bc
       0.0036242362 -0.0068158396 -0.01198172 -0.011908576
000090 c6 76 a3 3c 54 4b b1 3b 00 1d 8c 3c 62 ed 06 bc
       0.019954097 0.005410591 0.017103672 -0.008235307
0000a0 90 82 7d bc 10 2c c1 3b d0 b0 44 3c 92 78 be bb
       -0.015473023 0.0058951452 0.012005046 -0.005812713
0000b0 20 07 a2 ba 40 05 6c bc ec 40 a2 bc 60 66 49 3a
       -0.0012361743 -0.014405549 -0.019806348 0.00076827966
0000c0 68 f0 04 3c 94 0a 80 bb a4 1f e2 bb 90 c7 c9 3b
       0.008113958 -0.003907511 -0.0069007445 0.006157823
0000d0 f4 e7 0c 3c 88 c6 a2 3c 20 52 92 3a b4 f8 63 bc
       0.008600224 0.019870058 0.0011163391 -0.013914276
0000e0 3e 4b ad bb a0 32 37 bb 1c b7 b8 bb 68 cd 37 3c
       -0.0052885106 -0.0027953759 -0.0056370627 0.011218406
0000f0 8c c7 e8 3b ac 52 5a 3c 9d 86 75 bc ac 9b 68 3c
       0.007103866 0.013325375 -0.014985708 0.014197271
000100 28 0c f2 bb 82 0b 6d bc a0 d2 d3 3b fe ad 64 bc
       -0.007386703 -0.014468076 0.0064643174 -0.013957499
000110 d4 09 6c 3c c4 12 31 3c a3 e9 81 bc 1b 6e 4c bc
       0.01440664 0.010807697 -0.015858477 -0.012477423
000120 44 38 e6 3b 50 26 14 bc 0c b5 34 3c bc 62 8c 3b
       0.0070257504 -0.009042338 0.011029493 0.004284231
000130 cc 7d 63 bc 80 1c 93 3c 7c 4b c9 3b a6 fd 96 3c
       -0.013884973 0.017957926 0.0061430316 0.018431496
000140 60 8f 01 ba 20 9a 66 bb 9c 41 fa 3b 70 cb fd ba
       -0.0004942324 -0.003518708 0.007637216 -0.0019362997
000150 c6 b2 a8 bc 29 f4 9f bc e0 0c 41 bc a2 af 9a bc
       -0.020593058 -0.019525604 -0.011782855 -0.018882576
000160 f0 03 a0 bb c6 58 8e bc 00 d9 c5 3b da 83 9f bc
       -0.004883282 -0.017376315 0.0060378313 -0.019472051
000170 a0 36 6f bb d1 54 94 bc b3 5e 94 bc 50 52 7e 3c
       -0.0036501065 -0.01810685 -0.018111562 0.0155225545
000180 c0 ed 22 3c 78 c2 dd 3b 00 47 99 3c a6 1d 86 3c
       0.009944379 0.0067675672 0.018710613 0.01637156
000190 16 34 ed bb 88 c0 63 3c 28 18 7e bb d2 c0 13 3c
       -0.007238875 0.0139008835 -0.0038771722 0.00901814
0001a0 5c ac c2 bb 68 40 2a 3b 80 90 65 ba fa ac 8d bc
       -0.005940957 0.002597833 -0.0008757189 -0.017294396
0001b0 be e4 74 bc 68 86 17 3c 76 28 b2 bb d8 bb 0f bb
       -0.0149471145 0.009248354 -0.005436952 -0.0021932032
0001c0 10 99 52 3c ad d6 01 bc d1 37 09 bc 53 4b 7e bc
       0.012853876 -0.007924718 -0.008375124 -0.015520888
0001d0 1c f5 49 3c 98 1f 27 3c 68 0d 0b bb e4 de 00 3c
       0.012326505 0.010200404 -0.0021217708 0.007865641
0001e0 5f 7d 4a bc 60 b9 51 bc 1a 70 8e 3c 70 3a a1 ba
       -0.012358992 -0.0128005445 0.017387439 -0.0012300741
0001f0 e2 11 37 bc 8c a2 35 3c 34 fd 32 3c b0 05 6d bb
       -0.011173697 0.0110861175 0.010924626 -0.003616672
000200 5c 47 fe 3b f8 a1 87 3b a8 7a 4f 3c 90 1e ee ba
       0.0077599715 0.004139181 0.012663521 -0.0018167067
000210 50 68 d8 3a d8 f3 cb bb a6 65 17 3c 60 ae 69 3a
       0.001651058 -0.006224137 0.0092405435 0.00089142285
000220 cc 5e d9 3b 0c c6 87 bc e4 e4 88 bc 80 03 81 ba
       0.006633615 -0.016573928 -0.016710706 -0.0009842962
000230 aa b9 89 bc a0 24 99 bb d1 61 89 bc 74 c2 60 3c
       -0.016812164 -0.0046735555 -0.016770275 0.013718236
000240 d8 2c 8b 3b 34 5a 56 bc c4 80 89 3c 1a 1b 99 3c
       0.004247289 -0.01308303 0.016785033 0.01868968
000250 dc dd e6 3b 40 3b 37 3b fa e8 db bb d4 0c cf bb
       0.0070454907 0.00279589 -0.0067111226 -0.006318668
000260 0a 81 8c 3c bc d7 21 3c 69 a4 80 bc 60 5e 41 3c
       0.017151374 0.009878095 -0.015703397 0.011802286
000270 40 38 5a bb 6c 1c 5d 3c f7 e2 23 bc 18 97 5e 3b
       -0.0033297688 0.013495546 -0.010002843 0.003396457
000280 39 7e 27 bc d0 e2 a3 3c a0 65 51 3a 10 2c 5f 3b
       -0.010222965 0.020005614 0.00079878606 0.0034053363
000290 ec 24 f3 bb 10 9b 49 bb 58 a8 41 3b e8 f1 df 3b
       -0.007420173 -0.003076259 0.0029549804 0.0068342574
0002a0 60 b1 95 bb a0 18 7f 3b 20 0d 18 3c f4 d3 7b bc
       -0.004568264 0.003892459 0.009280473 -0.015370358
0002b0 70 fb 60 3b f0 75 67 3b b0 41 85 3b e8 8a e9 3b
       0.0034329556 0.00353181 0.0040666685 0.0071271546
0002c0 e8 31 79 bb 40 08 ae ba 2a a4 a3 bc 54 24 8c 3c
       -0.0038024131 -0.0013277605 -0.01997574 0.017107166
0002d0 a0 94 8b bc b5 aa 41 bc 6e 18 8e bc 0e f1 c5 bb
       -0.017038643 -0.011820485 -0.017345633 -0.006040699
0002e0 22 e9 81 bc 14 1b 14 bc 2d cc 9e bc 14 be 28 3c
       -0.015858237 -0.009039659 -0.019384468 0.010299224
0002f0 21 40 8a bc 30 d7 9b ba d2 a5 28 bc 12 3e 0f 3c
       -0.016876282 -0.0011889692 -0.010293441 0.008742826
000300 90 d6 7c 3c 5b bf 69 bc 78 ca 6c bb 70 47 3b 3b
       0.015432015 -0.014266814 -0.0036131423 0.0028576516
000310 48 e8 04 3b 94 61 48 3c 93 c1 1d bc 70 7d d6 3a
       0.0020280052 0.012230296 -0.009628671 0.0016364288
000320 80 39 cd 3b a0 fa 3c 3a d0 cc 68 3c 7c 58 62 3c
       0.006262958 0.0007208977 0.014208987 0.013815042
000330 b8 3f 91 bc 10 ee c9 3b 30 2c 10 3c 5c 99 87 bc
       -0.017730579 0.0061624125 0.008799598 -0.01655262
000340 b8 70 05 3b 5c ec 85 3c 84 d3 97 3c 14 50 7e 3c
       0.0020361375 0.016348056 0.018533476 0.015522022
000350 c0 bf 8f 3c 8e 54 8f bc 8c 92 38 bc b8 79 99 bc
       0.017547488 -0.017496374 -0.011265408 -0.018734798
000360 ce 84 9a 3c 20 46 66 3c 4d 5a 86 bc 10 7c 22 3c
       0.018862154 0.014054805 -0.01640048 0.009917274
000370 ec 01 06 bc 30 ef b8 ba 00 2c 7a 38 34 e6 49 3c
       -0.008179169 -0.0014109369 5.9645623e-05 0.012322951
000380 56 9b 86 3c c4 13 d9 3b af 08 9a bc 1c 08 dc bb
       0.016431492 0.0066246707 -0.018802969 -0.006714834
000390 86 f0 63 bc 1c bb 8f 3c 60 c4 31 3b c0 5c b3 b9
       -0.013912326 0.017545275 0.0027125105 -0.00034210645
0003a0 81 e7 a3 bc 0c 76 62 3c fc 07 85 bc d4 69 fc bb
       -0.02000785 0.01382209 -0.016239159 -0.0077030454
0003b0 c6 f5 5c bc e4 9b 75 3c 20 9d 90 ba c8 19 ed bb
       -0.013486331 0.0149907805 -0.0011033155 -0.0072357394
0003c0 38 0c 72 3b 20 80 95 3b 27 1b 9b bc f6 b9 1f 3c
       0.0036933552 0.004562393 -0.018933846 0.009748926
0003d0 80 e6 d2 39 8c 1e 9c bc 52 cc fc bb e8 ea 5b 3c
       0.00040226057 -0.019057535 -0.0077147866 0.013422705
0003e0 40 01 7b 3c 78 01 42 3c f6 c5 a9 3c 48 79 df 3b
       0.015320122 0.0118411705 0.020724278 0.006819878
0003f0 20 82 1f ba 22 40 85 bc 4d df 78 bc a0 03 ad bb
       -0.0006084759 -0.016265932 -0.015189958 -0.005279973

fc0.bias f4 [32]
000000 8b ba 01 bc 2c 1c 8f 3c 18 f9 7f 3c 8c 94 6a bc
       -0.0079180105 0.017469488 0.015623353 -0.014317643
000010 ea f6 a3 bc a7 b9 6c bc 8e 23 04 bc 80 85 35 3c
       -0.020015199 -0.01444856 -0.0080651175 0.011079192
000020 c4 17 e6 bb 80 c6 5c 3b 00 f7 b6 38 64 f7 c6 bb
       -0.007021876 0.003368765 8.7244436e-05 -0.0060719717
000030 f6 33 b5 bb 28 40 85 bc 0b b9 68 bc 28 9a 66 3c
       -0.005529876 -0.016265944 -0.014204274 0.01407484
000040 8a f1 99 3c e0 5c 32 3b 10 a8 6e 3c 55 32 2a bc
       0.018791933 0.0027216002 0.014566436 -0.010387977
000050 80 4f 86 bb 8c 0a 9f 3c c0 64 85 ba 6b 6e 90 bc
       -0.0040988326 0.019414209 -0.001017712 -0.017630776
000060 e5 be a9 bc e0 97 2e 3a 10 ab 60 bc 9d 69 44 bc
       -0.020720908 0.00066602044 -0.0137126595 -0.011988071
000070 b0 4a 24 bc bc 14 1d bc 80 61 74 ba 07 d8 90 bc
       -0.0100275725 -0.009587463 -0.000932239 -0.017681135

fc1.weight f4 [32, 32]
000000 bd a0 0d be fb ee 85 be 15 47 e1 3d 1e 97 a2 3d
       -0.13830848 -0.2615889 0.10999886 0.079389796
000010 b7 23 e6 3c 21 9e 08 3e 97 8c b9 be 7f 10 09 3d
       0.028093202 0.13341571 -0.36240074 0.033462998
000020 0d a9 c3 bc 65 28 13 3e 2a 06 61 3e bc 8e 7f 3c
       -0.02388432 0.14370878 0.21975008 0.015597995
000030 58 ef 0a be 44 5c ab be de 0b 0c 3e 62 50 4e 3d
       -0.13567865 -0.3346883 0.13676402 0.050369628
000040 11 a6 7b 3e be f1 b0 ba a1 21 66 be f1 2c 60 be
       0.24575068 -0.0013499779 -0.22473766 -0.21892144
000050 db df d0 3d 73 4c 05 3e 5b d8 4e be b4 cb 92 be
       0.10198947 0.13017444 -0.2019972 -0.28671038
000060 3d 87 b1 3d 28 51 82 3d f4 52 5f 3e 48 63 87 ba
       0.08668373 0.063631356 0.21808988 -0.0010329271
000070 df d2 f8 bd 11 d8 f8 3d c9 75 01 bd 8b 76 72 3d
       -0.121495955 0.121505864 -0.03160647 0.059195083
000080 ee 06 a5 ba d8 51 db bd e5 cf c9 bd de 99 89 3d
       -0.0012590566 -0.1070897 -0.09854106 0.06718801
000090 0c 10 81 3d 34 f9 01 be 97 c0 4b 3e 37 54 08 be
       0.06301889 -0.1269272 0.19897686 -0.13313375
0000a0 b0 2c d6 3d 99 da 34 be 9c 06 3c be cc 16 b5 bd
       0.10457742 -0.17661513 -0.18361896 -0.08842239
0000b0 1e a5 8c 3d c4 5b 03 3c a2 77 00 3e 61 9d 30 3e
       0.06867431 0.008017484 0.12545636 0.17247535
0000c0 05 cf b1 3d 88 ab e5 3d bd c3 07 3e 32 f8 17 3e
       0.08682064 0.112143576 0.13258262 0.14840773
0000d0 27 61 97 3c 13 66 fa bd 8e 13 2a 3e 6f 9a 19 bd
       0.018478943 -0.122265 0.16609022 -0.037500795
0000e0 f9 ce fe 3d 91 4a 99 3e 37 d8 ad 3d 4d 48 0e 3e
       0.12441821 0.29939702 0.08488505 0.13894768
0000f0 69 95 75 3d e3 3d a4 be 19 d5 52 3e 3e 6a 85 3d
       0.05995694 -0.32078466 0.20589103 0.06514405
000100 34 bf 59 3e 4b c5 03 3e 7f ed 03 bd 3c d5 41 3e
       0.21264344 0.1286823 -0.032208916 0.18928999
000110 7d 90 c8 bd e9 bb 0a be 0c 46 a8 bd 7b 96 93 3d
       -0.09793184 -0.13548245 -0.082164854 0.07206436
000120 10 2b 99 bd 95 2f 6d be dd ab dd 3c f0 d8 07 3e
       -0.07478917 -0.23162682 0.02705949 0.13266349
000130 ee 17 3a 3e bd 63 1e 3e 8d ec be bd f8 9b 92 3d
       0.18173191 0.15467735 -0.09322462 0.07158655
000140 66 ca 55 3e d9 7b 58 3e 94 8b 78 3d 3f 7c 28 3e
       0.2087799 0.21140994 0.060679987 0.16453646
000150 0d 6c ed 3d 47 2c 4c 3e 27 64 bc 3d cd 9c a9 3d
       0.11592875 0.19938765 0.0919879 0.082818605
000160 52 23 17 3e b4 59 9a ba a1 34 3b 3e 5e 3e 2a 3d
       0.14759567 -0.0011776001 0.18281795 0.041563384
000170 e6 53 82 3e 2f 49 e6 bd f9 d7 25 3e 86 1e 36 3e
       0.25454634 -0.112444274 0.16195668 0.17785081
000180 55 32 cc bd 4c 84 ec bc 31 37 ee 3d 62 21 0b bd
       -0.099705376 -0.028871678 0.11631621 -0.033967383
000190 55 55 85 3e 3b 95 58 bd 9a 09 4d bb 3b 45 aa bd
       0.26041666 -0.052876692 -0.003128624 -0.08313986
0001a0 43 ae ab 3d 9f 2d 1f 3e b3 09 81 3e f2 58 35 3e
       0.08382847 0.15544747 0.25202712 0.17709711
0001b0 22 fb 9e 3d 75 90 6a be 8e 43 6d 3e b3 92 9c 3c
       0.077627435 -0.22906668 0.23170301 0.01911292
0001c0 b4 da 41 3e ec 6c 14 be ac 2b 8b be ac 8b 91 3d
       0.18931085 -0.14494675 -0.27181756 0.071067184
0001d0 f1 c8 45 be c5 53 d3 bd c7 5f 62 3c d2 37 ea 39
       -0.19314934 -0.10318712 0.01381678 0.00044673547
0001e0 93 fe 34 3e b7 e6 3d bd cd 3c 6d 3d 55 e3 9e bc
       0.17675237 -0.046362605 0.057919312 -0.01939551
0001f0 25 ea 57 be 79 33 3d 3e 3e 08 d3 bd ff d3 92 bd
       -0.21085413 0.18476667 -0.103043064 -0.07169341
000200 b8 fc 4e 3e 9e 7e b6 bd d7 77 52 be 17 7b ea 3d
       0.20213592 -0.08910869 -0.20553528 0.11449259
000210 11 a9 d8 3d f9 38 ea bd 48 d4 4f 3d 43 9b 3f 3d
       0.10579122 -0.11436648 0.050739557 0.04677893
000220 4a ba 9d 3d 64 17 dc bd 93 63 00 be 1d 55 50 3d
       0.077015474 -0.10746649 -0.12537985 0.05086242
000230 db bf 16 be 59 0a 39 3e f3 15 45 3c 27 84 1b bd
       -0.14721625 0.18070354 0.012029159 -0.037967827
000240 d1 aa 9e 3e c7 2f 0a bd 77 93 64 3e bf 44 fe bd
       0.30989698 -0.03373697 0.22321878 -0.12415456
000250 83 cc af 3d f4 88 50 3e d9 af a5 3d ef c7 60 bd
       0.085839294 0.20364743 0.08090181 -0.05487817
000260 3a 22 b8 3c a6 e3 5e 3e 47 6c ab 3e 52 93 43 3d
       0.022477258 0.21766528 0.33481047 0.047747917
000270 fe 77 1c 3e a6 6e 9c be 80 50 05 be 5b 7c ac 3c
       0.15280148 -0.30553168 -0.1301899 0.021055391
000280 a2 b8 d8 3d 35 4d 01 bc 2f ef 7a 3c d5 68 e3 bd
       0.10582091 -0.007891943 0.015315815 -0.111039795
000290 97 48 5f 3e 78 c3 ce 3c 99 a2 e5 3d 7e e4 0d bd
       0.21805035 0.025239691 0.11212654 -0.034641735
0002a0 16 a3 2c 3e 00 29 69 be 66 ad f1 bd df f0 ae bd
       0.16859087 -0.22769547 -0.11800651 -0.08542036
0002b0 ea d2 0b be a8 30 35 bc bf e8 bc bd 1f 47 8c bd
       -0.13654676 -0.011058964 -0.0922408 -0.06849503
0002c0 eb f4 0e bc 8f d4 95 3d 2d 2d 10 3e b0 28 5c 3c
       -0.008725385 0.07315933 0.14079733 0.013437435
0002d0 1e 0e 71 3d 72 2d ca 3d ab 7d 39 3e bf 05 25 3e
       0.058851354 0.09871949 0.18114345 0.16115473
0002e0 f9 6a 01 3e 56 79 a1 bd ab 2a 78 3e 32 07 60 3e
       0.12638463 -0.07884471 0.24235027 0.21877745
0002f0 ff 3c 7c 3d b8 42 03 be 7a 1c e3 bd 60 d7 a0 bd
       0.061581608 -0.1281842 -0.11089416 -0.078535795
000300 f4 f8 85 bd 42 0c 31 be 5b 99 b3 bd b1 9f 19 be
       -0.06541625 -0.17289832 -0.087694846 -0.15002324
000310 5e 32 40 bd ab 97 cd be 36 5d 97 3d 52 21 6b be
       -0.046923034 -0.40154776 0.073908255 -0.2296193
000320 f8 a5 13 bd 8f 82 9b 3c 07 39 d7 bd f9 54 1b be
       -0.036046952 0.018983154 -0.10508924 -0.15169133
000330 44 19 5c be e9 22 0e bd 3b 67 08 be ec aa b3 be
       -0.21494013 -0.03470126 -0.1332063 -0.3509134
000340 e9 6e 76 be 58 20 0b 3d 2b 0d 44 3e 2c 1e a3 3e
       -0.24065746 0.033966392 0.19145648 0.31858957
000350 67 94 52 bd 94 62 40 be c5 c2 2d be 89 ed 20 3e
       -0.05141106 -0.18787605 -0.1696883 0.15715612
000360 43 90 17 3d d7 5b 12 bd f3 85 f2 bd 4c 27 8a bd
       0.037002813 -0.035732117 -0.11841955 -0.067457765
000370 32 41 0a be 63 a6 22 3f fd 11 e7 bb 36 e1 07 3c
       -0.13501433 0.63535136 -0.007051705 0.008293441
000380 c6 b4 67 3d 7f c7 b3 bd c8 88 01 3e 05 78 ea 3d
       0.056568883 -0.08778285 0.12649834 0.11448673
000390 45 e2 c4 3d ed 51 36 3e fa fb 04 be 8d b5 c6 3d
       0.0961347 0.1780469 -0.12986746 0.09702597
0003a0 03 f0 50 bc d9 ed 28 be 93 a4 2f 3e df d3 a1 3c
       -0.012752536 -0.16496982 0.17152624 0.019754348
0003b0 19 79 c3 bb b0 36 d2 3d 6d ea 00 3a f9 b8 0b be
       -0.0059653637 0.10264337 0.00049177447 -0.1364478
0003c0 b8 d2 84 3e 48 8b 48 3d ae b5 25 3e 83 9a 7e bd
       0.25942016 0.048960954 0.16182587 -0.062159073
0003d0 65 9b 80 bd cf 7f 83 3d 30 0f e6 bd 2b 70 53 3e
       -0.06279639 0.06420862 -0.112333655 0.20648257
0003e0 2f 2c 40 bb 6d 86 05 bd 76 d8 a7 3d c1 04 99 3e
       -0.002932321 -0.0325989 0.081955835 0.2988644
0003f0 6e f0 a8 bd 42 c1 5e be 1c 6a 33 bd c4 ec 22 3e
       -0.08248983 -0.2175341 -0.043802366 0.15910631

fc1.bias f4 [32]
000000 43 4a 39 be 48 be 4f 3e bf db c6 3e ce b9 2b 3e
       -0.18094735 0.2028743 0.38839528 0.16770098
000010 66 b2 6d 3c c8 f3 9a 3e 89 2c 1e 3f 41 fe 7b 3e
       0.0145078655 0.30264115 0.61786705 0.24608709
000020 74 34 7a 3d 2a 37 06 bd 58 50 56 3e 8c a1 0b 3b
       0.06108518 -0.032767452 0.20929086 0.0021306006
000030 c0 4e 92 3e 36 a3 93 bc 10 9e d5 bc 14 cf a9 3e
       0.28575706 -0.018022161 -0.026076347 0.331658
000040 ad 31 a8 3d 7d 56 b7 3d 8c 06 68 be ce b4 02 be
       0.082126 0.08952043 -0.22658747 -0.12764284
000050 60 ce ab 3e ef df a3 3e 8e 1f a8 3e 21 68 49 be
       0.3355589 0.32006785 0.32836574 -0.19668628
000060 47 5b 0d be 43 d5 82 3d 11 fa c8 3e d7 9d 5e 3e
       -0.13804351 0.06388333 0.39253286 0.21739899
000070 5b 01 a6 3e e5 b5 62 3e f5 bf fc 3d b1 ce 81 ba
       0.3242291 0.221397 0.123413004 -0.0009903518

fc2.weight f4 [3, 32]
000000 ed 62 cf 3d 6a 4b fe bc 35 37 88 bd 88 0f e0 3d
       0.101262905 -0.03104182 -0.06651155 0.10940462
000010 81 c6 e8 bc 6f 38 49 bd 7e 3e 88 bd 22 60 da bc
       -0.028414967 -0.049126085 -0.066525444 -0.026657168
000020 37 1b 1d bd 02 3d d0 bc 2a 9b 69 bd c0 1a f7 3b
       -0.038356032 -0.025419716 -0.05703274 0.0075410306
000030 34 8a 77 bd 7b 7d da 3c fe 25 72 bc 82 83 2c bd
       -0.060434535 0.026671162 -0.014779566 -0.042117603
000040 73 d5 be bc 0c bf df ba 80 cf ad 3d c2 c3 9a 39
       -0.02329514 -0.0017070486 0.08486843 0.0002951902
000050 7b 14 3e bd 64 bf 5e bd cf 90 5e bd 9b e2 0f 3c
       -0.04640625 -0.054381743 -0.05433732 0.008782054
000060 ba 92 90 3d 9e ad be 3d 93 98 a4 3c 57 c8 79 bd
       0.07059236 0.093104586 0.020092284 -0.060982075
000070 75 bd 80 bd a5 cc 91 bd 54 79 43 bd d0 89 c4 3d
       -0.06286136 -0.07119111 -0.04772313 0.09596598
000080 35 c8 02 3e a8 85 70 bd 5c 4d ce bd e8 48 09 3e
       0.12771685 -0.058721215 -0.10073349 0.13406718
000090 40 ff 6b bd 32 5d aa bd 50 54 49 be ab a7 70 bd
       -0.057616472 -0.08318557 -0.19661069 -0.05875365
0000a0 d6 e3 69 bd 47 e2 50 bd 52 53 b5 bd 5c e4 8c bc
       -0.057102047 -0.050997045 -0.08853783 -0.017198734
0000b0 7b 72 be bd 8a df 22 3b 96 5e 03 bd 89 d3 86 bd
       -0.09299179 0.0024852478 -0.032072626 -0.06583316
0000c0 9c 46 60 bd f1 0d b0 bd 17 5a f6 3d a1 42 c9 bb
       -0.05475484 -0.08596409 0.12028902 -0.006141976
0000d0 27 db 8f bd 9e 99 95 bd 84 f4 a6 bd c4 0e 46 b9
       -0.07024222 -0.07304691 -0.081521064 -0.00018888252
0000e0 fe ed 0d bd 9f 60 e1 3d 4a 88 8d bd 45 be c3 bd
       -0.034650795 0.11004757 -0.06910761 -0.095577754
0000f0 a5 a1 ba bd 3e 6a d9 bd 5d 79 99 bd c3 9d 2b 3e
       -0.091128625 -0.10615967 -0.07493851 0.167594
000100 fc 36 24 3c d1 52 b2 bd d4 b6 d7 bd 22 9a 19 3d
       0.010022875 -0.08707202 -0.105329186 0.037500508
000110 a3 d6 a0 bd 76 e4 b8 bd 25 d4 ac 3e ef 58 83 bd
       -0.07853439 -0.090279505 0.33755603 -0.06413447
000120 57 16 ae bd 3a 0c 9f bd 29 62 cd bd 3f 56 99 bc
       -0.08500355 -0.07766004 -0.10028488 -0.018717883
000130 a6 3e c7 bd 70 cf 93 bc 4b 35 82 bd 19 ce bf bd
       -0.09728746 -0.01804325 -0.06357821 -0.09365482
000140 3a 01 94 bd 88 e6 0e 3e 06 17 33 bc ec b8 33 bb
       -0.072267964 0.13955128 -0.010930782 -0.0027423454
000150 3a 06 bf bd fa 6f d4 bd d0 33 c7 bd 94 26 44 bc
       -0.093273595 -0.1037292 -0.09726679 -0.011972088
000160 66 9c 82 3d f0 27 d9 3c 09 81 41 3e fc 1d da bd
       0.06377487 0.026508301 0.1889688 -0.1065025
000170 ac fa d5 bd 62 f5 e0 bd c4 75 af bd f1 6a 73 3c
       -0.104482025 -0.10984303 -0.08567384 0.01485704

fc2.bias f4 [3]
000000 96 70 f6 be b7 cf 96 be 31 91 77 3f
       -0.4813277 -0.2945535 0.9670592

road_emb.0.weight f4 [144]
000000 e6 fb a0 3f 19 b2 84 3f a1 0d 95 3f a7 49 7a 3f
       1.2576873 1.0366851 1.1644784 0.97768635
000010 d7 29 7c 3f 22 fc 75 3f 86 84 8e 3f 87 6c 99 3f
       0.9850134 0.9608785 1.1134193 1.1986245
000020 fe 33 9e 3f 85 29 49 3f 36 ee 68 3f 0d ed 85 3f
       1.2359617 0.7857898 0.9098848 1.0462967
000030 43 d6 8e 3f 67 4a 80 3f e0 e6 92 3f 97 3e 71 3f
       1.1159137 1.0022706 1.1476707 0.9423613
000040 1e bb 86 3f 52 7b 77 3f 97 76 81 3f aa 6b 88 3f
       1.0525854 0.96672547 1.0114316 1.0657856
000050 29 80 a8 3f 1d 2e 44 3f cb a2 69 3f 23 39 80 3f
       1.3164111 0.76632863 0.9126403 1.0017437
000060 09 f1 a8 3f bf 4f 80 3f ed 2e 8a 3f 59 19 7e 3f
       1.3198558 1.0024337 1.0795571 0.9925743
000070 d4 32 61 3f 09 d1 81 3f 3a 94 8a 3f 88 22 98 3f
       0.8796818 1.0141917 1.0826485 1.1885538
000080 e9 f4 a5 3f b7 6c 5d 3f 13 87 79 3f 6d 95 88 3f
       1.2965366 0.8649401 0.9747173 1.0670601
000090 3b e8 a2 3f 71 3b 7f 3f 01 a8 93 3f e3 ab 54 3f
       1.2727121 0.99700075 1.1535646 0.8307478
0000a0 b7 68 8b 3f de 94 80 3f 35 e3 ae 3f 16 c6 8b 3f
       1.0891331 1.0045431 1.3663088 1.0919826
0000b0 2e 31 ab 3f 4f 5e 64 3f 7d 46 82 3f 3b ef 7e 3f
       1.3374383 0.89206403 1.0177761 0.99583787
0000c0 af e3 a5 3f c2 ed 82 3f f4 a5 8a 3f 1d 23 79 3f
       1.2960109 1.0228808 1.0831895 0.97319204
0000d0 d5 5e 74 3f 71 16 63 3f 48 7b 94 3f 2a 20 8c 3f
       0.954572 0.8870612 1.1600122 1.0947316
0000e0 1b 98 ac 3f 49 d6 44 3f dc 4e 78 3f e1 81 78 3f
       1.3483919 0.76889473 0.9699533 0.9707318
0000f0 cd fe 9f 3f 55 8a 81 3f 9c 01 91 3f 75 ee 5c 3f
       1.2499634 1.012034 1.1328616 0.86301357
000100 f3 38 70 3f f4 f8 7e 3f 1d b9 9d 3f e4 51 8e 3f
       0.938369 0.9959862 1.2322117 1.1118741
000110 17 70 ab 3f 4a ce 72 3f ff 2f 83 3f c2 14 73 3f
       1.3393582 0.9484602 1.0249022 0.9495355
000120 26 c3 a9 3f 57 31 81 3f cb 84 98 3f 10 1b 80 3f
       1.326268 1.0093182 1.1915525 1.0008259
000130 97 a7 81 3f 64 31 80 3f fb d8 91 3f d9 3a 84 3f
       1.0129269 1.0015073 1.1394342 1.0330459
000140 9d b6 b0 3f 38 47 6b 3f c8 14 82 3f 15 fb 93 3f
       1.3805729 0.91905546 1.0162592 1.1560999
000150 ec 6d a7 3f a6 6f 92 3f 61 fa 97 3f 8a 21 64 3f
       1.308042 1.1440322 1.1873285 0.89113677
000160 41 26 76 3f 7c 31 74 3f 66 b4 9d 3f cd f5 80 3f
       0.9615212 0.9538801 1.2320678 1.0075012
000170 38 78 a1 3f d0 7e 50 3f 61 d9 7e 3f be 36 9b 3f
       1.2614813 0.814435 0.99550444 1.2126081
000180 8a aa 91 3f f3 71 7d 3f a5 29 97 3f 3b 0d 6c 3f
       1.1380169 0.99002 1.1809584 0.9220769
000190 cd e6 5f 3f b2 b6 73 3f b1 4c a4 3f 7c b8 83 3f
       0.8746155 0.95200646 1.2835904 1.0290675
0001a0 f9 51 a9 3f b1 51 6a 3f 3d ca 78 3f 1a f5 98 3f
       1.3228141 0.915309 0.9718359 1.1949799
0001b0 cb 7d a0 3f 50 7b 6b 3f 16 a1 88 3f 5f e2 7a 3f
       1.2538389 0.91985035 1.067416 0.98001665
0001c0 fc 7d 77 3f 53 68 88 3f 77 1d 84 3f a1 2b 8d 3f
       0.9667661 1.0656837 1.0321492 1.102894
0001d0 b0 19 aa 3f a5 1e 6f 3f 41 8f 96 3f b6 58 85 3f
       1.3289089 0.93406135 1.1762468 1.0417697
0001e0 60 b1 95 3f 47 4c 84 3f 49 e1 8d 3f 35 42 81 3f
       1.1694756 1.0335778 1.1084377 1.009833
0001f0 d3 a8 92 3f 74 16 85 3f b4 85 87 3f 9c c3 8d 3f
       1.1457771 1.0397477 1.0587678 1.107532
000200 95 8b af 3f 86 b3 6b 3f 5b da 99 3f 5b d6 87 3f
       1.3714472 0.92070806 1.2019762 1.0612291
000210 36 13 a5 3f a2 a3 82 3f f6 84 89 3f 8f e2 68 3f
       1.2896488 1.0206187 1.0743701 0.909707
000220 62 29 84 3f ef e6 7f 3f 49 77 76 3f f6 61 91 3f
       1.0325129 0.9996175 0.96275765 1.135802
000230 ec 46 ad 3f 3a c2 71 3f c0 7e 91 3f 24 07 88 3f
       1.3537269 0.9443699 1.1366806 1.0627179

road_emb.0.bias f4 [144]
000000 7b fb 59 3d e0 1b d5 3d 63 82 da 3c c9 a9 ca 3d
       0.053218346 0.10405707 0.026673501 0.09895665
000010 21 dd f8 3d 75 65 bc 3d 61 67 b5 3d 17 4a 33 3e
       0.12151552 0.09199039 0.088576086 0.17508732
000020 b6 e1 8a 3c 62 f5 81 be 0b b5 47 3e a0 30 c9 3d
       0.01695333 -0.25382525 0.19502656 0.098237276
000030 8a 24 fc 3d a9 86 a5 3d 75 23 31 3d 96 9d 43 3e
       0.12311657 0.08082325 0.043246705 0.19103083
000040 89 76 dd 3d 06 a4 b9 3d 35 79 a9 3d dd 69 c1 3d
       0.108136244 0.09064488 0.082750715 0.0944402
000050 02 32 97 3c 74 a3 8c be b5 4e 04 3e 70 67 c0 3d
       0.018456463 -0.27468455 0.1292065 0.09394729
000060 4a 87 4e 3d 54 ef be 3d 3c a3 42 3e 95 72 99 3d
       0.05042199 0.09322992 0.19007581 0.07492558
000070 b4 9c 75 3e 0f 6f 34 3e e0 d9 83 3d b0 7d 14 3e
       0.23985559 0.1762049 0.06438041 0.14501071
000080 12 d6 7a 3c b4 12 3c be f0 e0 37 3e e0 b5 9e 3d
       0.015309827 -0.1836651 0.179569 0.07749534
000090 7d 2a f7 3c 72 b3 ba 3d 1a 52 11 3e 39 b2 59 3e
       0.030171627 0.09116258 0.14191476 0.21259393
0000a0 dd 1e b0 3d 70 b3 8b 3d 13 b3 5d 3d 0a 05 55 3e
       0.08599637 0.06821334 0.054125857 0.20802703
0000b0 a2 1f 93 bc 97 9a bf bd 8d e7 d8 3d 7d bd 0d 3e
       -0.01795942 -0.093556575 0.1059104 0.13841815
0000c0 e4 f5 cd 3d 55 3b e3 3d 76 f5 04 3e 9c c8 d3 3d
       0.100566655 0.11095301 0.12984261 0.103409976
0000d0 cb 33 41 3e f9 75 b4 3d ce ab ee 3d 10 cd 2e 3e
       0.18867414 0.08811564 0.11653863 0.17070413
0000e0 83 e1 69 3c cf 75 79 be 17 5a ef 3d 17 49 29 3e
       0.014274958 -0.24361347 0.11687105 0.16531788
0000f0 9a 3e 8a 3d 2b a0 a9 3d 1c 6c 2f 3e 57 47 32 3e
       0.067502216 0.08282503 0.17131084 0.17410026
000100 88 7a 13 3e 61 5c 90 3d ad f8 1d 3d 2a 21 33 3e
       0.1440221 0.0704887 0.038567234 0.1749312
000110 35 e7 9d bc 7a ce 2c bd c7 f3 37 3e 9a 2a f2 3d
       -0.019275287 -0.0421891 0.17964087 0.11824532
000120 12 3d 1e 3e 6f 72 d1 3d 48 d6 3a 3d b8 b4 b9 3d
       0.15452984 0.102269046 0.04561451 0.090676725
000130 48 f8 19 3e 3c ff b0 3d 1d be ee 3d 2c 27 da 3d
       0.15036118 0.08642432 0.11657355 0.10652003
000140 88 c3 af 3c d4 25 b9 bd 8a ec ac 3d 16 4b 97 3d
       0.021455541 -0.09040418 0.08443554 0.073873684
000150 80 3f c7 3d 17 18 8b 3d 10 f4 23 3d cd c8 21 3e
       0.097289085 0.06791704 0.040027678 0.15799256
000160 77 b3 d4 3d 18 16 05 3e d9 a3 03 3d 62 79 34 3e
       0.10385793 0.1299671 0.03213868 0.17624429
000170 37 ea 9f 3c 63 70 64 be c6 1c cb 3d 26 07 46 3d
       0.019520862 -0.22308497 0.099175975 0.04834666
000180 78 e3 ea 3d f3 61 be 3d 29 e5 91 3d b0 ce f0 3d
       0.114691675 0.09296026 0.07123787 0.117581725
000190 2e d5 80 3e 9a 12 26 3e 13 99 42 3d 2b f7 42 3e
       0.25162643 0.16218033 0.047509264 0.190396
0001a0 69 52 a3 3c bc 3d b3 bd 44 ee 75 3e 08 72 09 3d
       0.019936757 -0.08752009 0.24016672 0.033556014
0001b0 45 6b 97 3d ac 07 25 3e 6e 3e 1b 3e 68 e0 8f 3d
       0.07393507 0.16116208 0.15160534 0.07025224
0001c0 62 f3 25 3e ba 47 15 3d 53 d9 2e 3e ec 66 4f 3d
       0.16206124 0.036445357 0.1707509 0.050635263
0001d0 be ce 47 3c 30 ac 62 bd ca cd f7 3c 18 e9 75 3d
       0.012195287 -0.055339992 0.030249495 0.06003675
0001e0 4e 47 3f 3e 41 19 d7 3d 4d 47 bc 3d 07 41 c0 3d
       0.18679544 0.10502864 0.09193287 0.09387403
0001f0 d7 9c 54 3d 8d 1a 84 3d f1 fe f4 3d a8 66 27 3e
       0.051907387 0.06450377 0.11962689 0.16347754
000200 fe 41 a9 3b 9e 08 99 bd 9d 9e da 3d f9 26 c1 3d
       0.0051653376 -0.07472347 0.10674784 0.094312616
000210 6d d9 05 3e 57 28 bc 3d 09 39 35 3e ad 91 ce 3d
       0.13071223 0.09187382 0.17697538 0.10086379
000220 25 a8 68 3d 0f 9f b9 3d 4b 36 24 3e 62 7a 91 3d
       0.05680098 0.09063541 0.16036336 0.07103421
000230 33 a4 99 3c 83 5e 6e bd a3 26 91 3d ac 5c 55 3d
       0.018755054 -0.058195602 0.070874475 0.052090332

road_emb.1.weight f4 [64, 144]
000000 fd 20 2f be 4d fa ff bc 6f b4 ef be f5 59 15 3d
       -0.17102428 -0.031247282 -0.46817347 0.036462743
000010 79 a1 a1 bc fb b4 66 3d 8b fd f9 3d dc 88 bc 3d
       -0.019730316 0.05632494 0.122065626 0.09205791
000020 93 a0 ce 3d 0b 43 99 bd fd 7c d3 3d c3 a3 0a bd
       0.10089221 -0.074834906 0.10326574 -0.03384758
000030 38 d2 2d bd 2c 6d 89 ba fb 7a 82 be fe 6f cd bd
       -0.04243681 -0.0010484806 -0.25484452 -0.100311264
000040 8a cb ce 3d b3 a5 c2 bd 9e 84 7c 3e c7 25 08 3c
       0.10097416 -0.09504261 0.24659964 0.008309788
000050 56 2a 1a bd f3 8a e9 3d 65 7b c1 3d 8b b5 a8 3c
       -0.03763803 0.114034556 0.09447364 0.020594379
000060 67 76 e1 bd b6 78 ec 3d d3 7f be be 49 ad 89 3e
       -0.110089116 0.11546461 -0.37206897 0.2689002
000070 5e b9 83 bd ca 35 8d bb 17 c0 eb 3d 4b 1d db 3d
       -0.0643184 -0.0043093907 0.115112476 0.106989466
000080 4f 7e 86 3c f0 c7 86 bd 56 f4 0e 3e 43 c1 9b 3d
       0.01641765 -0.06581104 0.13960394 0.07605221
000090 80 c3 b8 be cd 74 8b 3d c2 fc 27 be f1 8e 33 be
       -0.36086655 0.06809387 -0.16405013 -0.17534997
0000a0 a5 50 27 be ab df 39 3d 74 0f 64 3e 8a fd de bc
       -0.16339357 0.045379322 0.2227152 -0.027220506
0000b0 d6 8f 1c be 6a 66 61 3e a5 ce 1a be e5 81 70 3d
       -0.15289244 0.22011724 -0.15117891 0.058717627
0000c0 d3 36 b9 3b 1c 13 e0 3b e8 65 19 bd de 0b 82 3d
       0.0056522875 0.0068382155 -0.0374507 0.0634992
0000d0 3e b5 bb bd f8 af 08 be fd f1 70 3d 9c 66 1c be
       -0.091654286 -0.13348377 0.058824528 -0.15273517
0000e0 7b e7 8e be c7 e5 c6 3b ab a9 27 3c 8c c8 dc bc
       -0.2791098 0.006069872 0.010233323 -0.026951097
0000f0 bb e6 85 bc 35 0a a2 3d b0 66 ec bd c4 8e 21 bb
       -0.016345372 0.07912103 -0.115430236 -0.0024651745
000100 52 d3 f9 3d 6f 03 06 3e ae 2c 97 be 4b 71 44 be
       0.12198509 0.13087247 -0.29526275 -0.19183843
000110 e6 23 16 be 7c 89 07 be 77 47 bf 3d 21 a8 31 be
       -0.14662132 -0.1323604 0.09339803 -0.17349292
000120 c1 38 82 be 3b 5f 2a 3e 72 d4 ec bd 0a d2 3d 3d
       -0.25433925 0.1663789 -0.11563958 0.046342887
000130 29 9a 4b 3c 6e b1 bf 3d c8 7a 4c 3d d4 5d 01 be
       0.012426891 0.09360014 0.04992178 -0.12633449
000140 d8 d5 83 bd 96 93 29 3e c4 01 e4 3a 35 dd dd be
       -0.06437272 0.16560206 0.0017395546 -0.4333283
000150 83 b4 22 3e 9c 9f 0b bd e3 be 32 be 3a ba 8c bd
       0.15889172 -0.034087762 -0.1745563 -0.068714574
000160 dd 8d 58 3d 18 89 9b 3e 39 0b 32 be d4 41 63 bd
       0.052869666 0.30378032 -0.17387094 -0.0554827
000170 10 dc 9b be e2 3c b3 ba 32 4f f4 3d 87 79 12 bd
       -0.30441332 -0.0013674761 0.11929168 -0.03576043
000180 e4 f1 0a be 66 82 0d 3e 90 e1 74 be 80 66 e4 bd
       -0.13568836 0.13819274 -0.2391417 -0.11152363
000190 cb f4 35 be 35 0d 3c bc 4b 47 ff 3b 35 89 e2 bd
       -0.17769162 -0.011477758 0.007790481 -0.110613264
0001a0 9e 03 46 3d fe 59 8c 3e 10 d9 22 3e 75 86 bb bd
       0.048343293 0.2741241 0.15903115 -0.09156505
0001b0 29 86 00 be 5c 71 87 3e 43 90 2f be 9b 8d b6 bd
       -0.12551178 0.26453674 -0.17144875 -0.08913728
0001c0 e3 ef 1c be 2b de 4f 3b 1c 27 2d be cc 0d 08 be
       -0.15325885 0.0031718116 -0.1690945 -0.13286513
0001d0 eb 94 ce bd 51 74 e9 3d b1 25 4c bd 0e de 9a 3d
       -0.100869976 0.11399139 -0.049840633 0.07561885
0001e0 6b 0e 6c bd 97 20 e6 bc 60 e8 dc 3d 7d 02 ae bc
       -0.057630938 -0.028091712 0.107865095 -0.02124142
0001f0 ca b4 aa bd 93 7a 3c bd c8 89 0d 3c 29 a5 3f bd
       -0.08335264 -0.046015333 0.008638807 -0.04678837
000200 42 c3 2c 3d 01 ef 16 bd 83 40 08 be c0 e1 20 3e
       0.0421784 -0.036849026 -0.1330586 0.15711117
000210 7a 6e e2 bc 71 1b 01 3e b1 02 0e 3d 74 45 cb bd
       -0.02764057 0.12608124 0.034670535 -0.099253565
000220 0b 90 02 3d 47 16 68 3e 2f 8b 31 3e ae 33 3b be
       0.03187565 0.22664748 0.1733825 -0.18281433
000230 96 02 ab bd b1 7e 99 3d f6 50 a6 be 1c ec 9f 3d
       -0.083501026 0.074948676 -0.32483643 0.07808706
000240 04 21 3b be 19 ba d9 3c 2e 9a 02 bf 00 d4 b7 3d
       -0.18274313 0.026577996 -0.5101651 0.08975983
000250 2d dc 27 3d 67 37 a2 3d 73 b3 52 3e 91 0b b5 bc
       0.04098146 0.079207234 0.20576267 -0.022100242
000260 cc 5d 13 3e ef e7 ef 3d 0c ea 9c 3b fa ad af 3c
       0.1439125 0.1171416 0.0047886427 0.021445263
000270 44 89 ee bd 93 ee 07 3d 85 b0 d2 be c2 95 75 bd
       -0.11647275 0.033186506 -0.411503 -0.059957273
000280 6c 39 62 bd 93 dc 14 3e 96 ba 0a 3e e4 78 4f be
       -0.055230543 0.14537267 0.1354774 -0.2026096
000290 5d dc 8d 3d fd e2 45 be c2 80 51 3d 01 20 61 be
       0.069267966 -0.1932487 0.051148184 -0.21984865
0002a0 89 ab ab bd 11 32 f3 bd b3 00 8c be cb 3d 14 3e
       -0.08382327 -0.11874784 -0.27344283 0.14476697
0002b0 ae 90 1d 3e 15 8d 0a 3d 67 4a 35 bd e3 5c 14 be
       0.15387222 0.033825953 -0.04426041 -0.14488558
0002c0 fa cd ba 3e e6 3f 18 3a 32 07 d3 3d 03 5d 8a bd
       0.36485273 0.00058078615 0.10304107 -0.06756022
0002d0 3a 98 60 be 78 4b 25 bc 4f 53 7c bd 86 eb 69 3e
       -0.2193307 -0.010088794 -0.061602887 0.22843751
0002e0 3a ec 78 3d 7c fe cd 3d 4a de 82 bd cb d1 48 be
       0.06077216 0.10058305 -0.063900545 -0.1961128
0002f0 17 11 12 3e bb 42 9e bd 1d 37 91 be 2b da bb bc
       0.14264332 -0.077275716 -0.2836236 -0.022931179
000300 a3 1a 92 be c3 e3 1a 3e a2 d5 20 3d c0 4b 0c 3e
       -0.28535947 0.15125947 0.039266236 0.13700771
000310 51 46 43 3e c3 57 5c 3d 66 30 1f 3c 6f 05 96 be
       0.19069792 0.053794634 0.009716129 -0.2930102
000320 55 89 53 3e e0 33 f4 3d 2a b8 f8 bd a6 d5 98 ba
       0.20657857 0.11923957 -0.121445015 -0.0011660352
000330 c1 1e d3 3d 96 72 5c bc 33 21 9d bd 1d a5 bf 3d
       0.103086 -0.013455054 -0.07672348 0.09357665
000340 8b fa 8b 3c d7 90 db 3d c0 e2 70 3e e1 4c c4 bd
       0.017087242 0.107209854 0.23523998 -0.09584976
000350 64 36 c1 3e 7c 67 a7 bd a8 82 de bd e0 aa 01 3c
       0.3773681 -0.08174035 -0.108647645 0.007914275
000360 46 db 92 be db f4 f3 bc 16 f0 b8 be 59 de 85 3d
       -0.28682917 -0.029779842 -0.3612067 0.0653655
000370 00 01 1e 3d 0c e7 14 3d 02 cc 01 3e 6b ae bb 3d
       0.038575172 0.036353156 0.12675479 0.09164127
000380 49 bb a0 3e 83 8c ea 3d 34 8f 62 bd 8b 56 e4 bd
       0.31392887 0.11452582 -0.05531235 -0.11149319
000390 7d 79 51 be 14 ff de 3d eb ae 3f be ac 51 b9 3c
       -0.204565 0.10888496 -0.1871907 0.022621952
0003a0 a8 d5 70 3d b4 8f f7 bc bc c8 25 be c4 bb 15 be
       0.05879751 -0.03021989 -0.16189855 -0.14622408
0003b0 bd 5c 9b 3e ee f1 38 3e d4 5f 30 be 0e 43 3c be
       0.3034419 0.18061039 -0.17224056 -0.18384954
0003c0 46 a4 28 be 5a 96 89 bd f8 35 62 be 9d 32 34 be
       -0.16468915 -0.067181304 -0.220909 -0.17597432
0003d0 7e 00 0d be 38 51 35 be 92 37 31 3e b7 7e d0 3d
       -0.13769719 -0.17706764 0.17306355 0.10180419
0003e0 01 13 59 3e 6a 59 71 3d e5 8f 92 be a2 ce b2 be
       0.21198656 0.058923163 -0.28625408 -0.34923273
0003f0 b1 d0 e7 be 74 62 11 3e eb 26 cb be 5d d7 c7 3c
       -0.45276406 0.14197713 -0.3967813 0.024394685

road_emb.1.bias f4 [64]
000000 e7 32 f0 3c 2d 66 d6 3b 79 0c 01 bd 2e b3 c8 3b
       0.029321147 0.006542942 -0.031506035 0.0061248755
000010 d7 96 35 3c 07 ff 19 bc 40 c4 46 bc 8d 56 85 3c
       0.011083326 -0.009399182 -0.012131751 0.016276622
000020 76 a8 84 3c 21 a8 07 3b f0 07 a5 bc ba 0a af bc
       0.01619361 0.0020699578 -0.020145386 -0.02136742
000030 b4 b8 b1 3c 8a 7b 18 bd 53 2c 12 3d 25 82 37 bc
       0.021694519 -0.03722719 0.035686802 -0.0112004625
000040 46 34 17 bd 45 08 c3 bd ba 83 8d bd d9 9b cc 3a
       -0.036915086 -0.09523062 -0.069098905 0.0015610411
000050 b5 9e 6f bd 78 9b 33 bd 93 a5 51 3c b5 8a a4 bc
       -0.058500964 -0.04384944 0.012795824 -0.020085672
000060 d1 5c bf bc 9d ac af bb 77 56 5d 3c f0 a2 34 3c
       -0.023359688 -0.0053611533 0.013509384 0.011025175
000070 d3 25 8d bc f0 62 f7 bc 10 74 57 3c 70 7c 92 3c
       -0.01722995 -0.030198544 0.01315023 0.017881602
000080 78 02 8e 3c f1 2e 1c 3d 51 7b 38 3d 1f 3e bf bb
       0.017335162 0.038130704 0.04503948 -0.005836263
000090 9b b0 9c bc 4b 1e 23 3b ce 0e fb 3c 4b 02 8f 3c
       -0.01912718 0.0024889882 0.030646708 0.017457148
0000a0 b7 0a 2b bd 21 d1 9d bb 71 46 32 bc eb 11 b7 3c
       -0.041758265 -0.00481619 -0.010881052 0.022347411
0000b0 1d f9 ab bc ea cd ee bb 2d 00 14 bd 62 05 a7 3c
       -0.02099281 -0.0072877305 -0.03613298 0.020388309
0000c0 62 b2 b7 3c 96 7d 37 bc f0 76 1d bc a9 b6 9a bb
       0.022423927 -0.011199376 -0.009610876 -0.004721482
0000d0 89 39 76 3c fc f2 94 3c 11 5b ce bc d0 47 2b 3a
       0.015028366 0.01818227 -0.025189908 0.0006533833
0000e0 d9 8b 8d bb c5 93 c6 bd 7b d9 e2 3c 12 cd 23 bb
       -0.0043196497 -0.096961536 0.027691593 -0.0024994058
0000f0 b4 21 5c bc 05 73 93 3d 73 4f ab 3c be 3a c5 3d
       -0.01343577 0.071996726 0.020911908 0.09630345

cav_emb.0.weight f4 [11]
000000 9f c7 85 3f 3f d0 4c 3f 84 9f 5d 3f e5 35 8e 3f
       1.0451545 0.8000526 0.86571527 1.1110197
000010 49 77 bd 3f 5f cd c3 3f a5 44 97 3f b5 e7 84 3f
       1.4802028 1.5297049 1.1817824 1.0383211
000020 b8 90 80 3f dc 75 41 3f 3b d9 7e 3f
       1.0044165 0.75570464 0.9955022

cav_emb.0.bias f4 [11]
000000 14 96 cd bb fe 44 a5 bc ec 48 ab 3b c3 68 35 3d
       -0.006273994 -0.0201745 0.005227199 0.04428936
000010 1e 11 d2 bc bb 1a 23 3e 3b 84 04 3d ca ae d8 3d
       -0.025642928 0.15928166 0.032352667 0.10580213
000020 5c e7 3b 3d 98 57 f0 bd 74 37 eb bd
       0.04587494 -0.11735457 -0.11485186

cav_emb.1.weight f4 [64, 11]
000000 17 17 16 be 3a 8c e5 3d ea 56 4c 3d 30 1a fb bd
       -0.14657246 0.11208387 0.049887575 -0.12260854
000010 a1 95 2c 3f dc ed a8 be 4c 36 a6 3d 59 7c 60 3d
       0.67415816 -0.32993972 0.08115825 0.054806087
000020 bc e7 13 3d a2 45 a7 bd 21 03 a4 3d 6d 63 26 be
       0.03610967 -0.08167578 0.08008409 -0.16248865
000030 c2 f9 20 be 66 81 ba be e2 4f 98 be 1a ef 48 bf
       -0.15720275 -0.36426848 -0.29748446 -0.7848984
000040 fe 31 74 3e 57 e2 16 bd f1 0a 40 3c a4 ae 4b 3e
       0.23847196 -0.03683695 0.011721359 0.19890839
000050 7a c1 0c 3c dc 19 8a 3e f0 42 3e be 18 0e 9d be
       0.00859105 0.26972854 -0.18580222 -0.30674815
000060 2a e6 2a bd 08 60 f6 3c 54 95 3d 3f 20 2d 1d 3e
       -0.041723408 0.030075088 0.7405598 0.15349245
000070 b2 29 be 3c 68 47 f4 bb 55 31 97 3e e4 59 c1 be
       0.023213241 -0.0074548014 0.29529825 -0.37763894
000080 3c ed d0 3e 99 00 1b 3e a2 90 00 be 06 41 ef bd
       0.40805995 0.15136947 -0.12555173 -0.11682324
000090 e5 11 a7 be 4b 28 36 bf 75 eb 8a 3f 43 30 95 be
       -0.3263084 -0.7115523 1.0853106 -0.29138383
0000a0 6b 7b 39 be f3 96 ad bd c3 3e 34 bb 06 9e 67 be
       -0.18113486 -0.08476057 -0.002750323 -0.22618875
0000b0 34 17 9a be b3 0b 48 3e ae 86 c3 bd 51 10 11 bb
       -0.30095828 0.19535713 -0.095471725 -0.002213497
0000c0 19 96 d8 bd f4 5d 9b bc f2 56 52 3e 2a c1 e5 3d
       -0.10575504 -0.018965699 0.2054098 0.11218484
0000d0 5a 83 f5 bc 10 af 82 3a ed 67 78 3e ac 15 60 be
       -0.02996986 0.0009970386 0.24258395 -0.21883267
0000e0 35 a9 39 bd 7b f7 9b 3e 67 7e 95 bd 55 5a 86 3e
       -0.045327384 0.3046225 -0.072995 0.26240793
0000f0 fc 0b bf 3b c4 d4 d4 bd c1 68 52 be 36 b5 fd b9
       0.005830286 -0.10392144 -0.20547773 -0.00048390933
000100 19 a2 67 3d b9 6e 85 bd a0 9d 67 be 4b ab 66 bd
       0.056551073 -0.06515259 -0.22618723 -0.0563157
000110 e8 34 80 3c 66 d3 9b be e0 6f 8b 3e 44 9b ad bd
       0.015650228 -0.30434722 0.2723379 -0.0847688
000120 f4 bd 60 be a6 4b 84 3e f8 58 a9 bd 17 4b 0c be
       -0.21947461 0.25838965 -0.082689226 -0.1370052
000130 7c f0 08 be 40 6e 82 3e c8 5d ad bc 2b ba 96 bd
       -0.13372988 0.2547474 -0.021162882 -0.073597275
000140 8a 88 7e 3e 3f d6 5a be 74 42 1d be e0 d6 19 3f
       0.24856773 -0.21370791 -0.15357381 0.600935
000150 f8 ea 26 be 7c f2 75 3e 76 33 98 be c6 97 80 be
       -0.16300571 0.24018282 -0.29726762 -0.25115794
000160 55 36 3b be a4 07 01 be 78 81 70 3d 2d 0a 29 3e
       -0.18282445 -0.12600571 0.05871722 0.16507788
000170 e7 32 bb 3e 28 4e 32 be 87 d7 a9 be 6c 0b a3 3d
       0.36562273 -0.17412627 -0.33172247 0.07961163
000180 1a 90 31 3e f4 a2 32 3e 39 e5 54 3e 8d a3 fc be
       0.17340127 0.17444974 0.20790567 -0.4934353
000190 fa 0f 63 3d 13 47 b3 bd c1 c6 a4 3e b2 94 09 bf
       0.05543516 -0.08753791 0.32182887 -0.53742516
0001a0 30 18 7c be 60 44 cb 3e e6 87 c1 3d 75 6b 18 be
       -0.24618602 0.39700603 0.09449749 -0.14884742
0001b0 ac cd 8a 3d aa 1a c7 3e 4d 01 d5 bd ff 5c 61 3d
       0.0677751 0.3888753 -0.10400639 0.05502033
0001c0 12 fb 84 3d 99 81 c9 bd 2e dc 25 3f f4 d3 2a be
       0.064932 -0.09839172 0.6478909 -0.16682416
0001d0 75 b5 be 3d c1 e1 92 bd 6f 4a e9 3c df 44 15 be
       0.09311954 -0.071719654 0.028477876 -0.14577053
0001e0 05 86 88 3d 05 7f 96 bc 5c d1 23 be b5 66 ad bd
       0.06666187 -0.018371115 -0.15997833 -0.084668554
0001f0 92 4a 42 bd 6f a4 11 bf ce 7e 0f bd 88 03 a8 3e
       -0.047434397 -0.5689153 -0.03503304 0.32815194
000200 93 cc 67 bd 48 c9 49 3e 51 d9 4b 3e 0c f2 2b 3e
       -0.05659158 0.19705689 0.19907118 0.16791552
000210 7a 03 25 be bc 9b c3 3d 57 f6 ea 3d e9 43 dc bd
       -0.16114607 0.09551188 0.11472767 -0.1075514
000220 54 51 21 3f 0d 26 af 3d e2 98 f7 bd af 8a 26 3e
       0.6301472 0.085521795 -0.12089707 0.16263841
000230 d3 07 6a bd 88 a5 c4 be 6b 86 3e 3e 8f 46 5d be
       -0.057136368 -0.3840754 0.18605964 -0.21608947
000240 cd df 07 bd 29 63 51 3d 21 ab 5d be f6 6c a3 3e
       -0.033172417 0.051119957 -0.21647312 0.31919068
000250 f7 7c f3 bd 13 f1 18 be ea 3d f8 bd f7 8c a9 3d
       -0.118890695 -0.14935713 -0.12121184 0.0827884
000260 17 98 17 be 88 22 fe 3c 2f e1 87 be c3 31 8a be
       -0.14804111 0.031022325 -0.2653899 -0.2699109
000270 fc 9c 4e 3e 2a 8d 49 3b c0 c9 b1 3e 7c 08 cc 3d
       0.20177072 0.0030754306 0.34724236 0.09962556
000280 db 71 87 3e 2d 04 6f bc 7e 8a 6c bc 4c 23 20 3f
       0.26454052 -0.014588398 -0.014437316 0.6255386
000290 03 91 78 bd d3 09 aa be cb 39 4a be ee f9 a6 bc
       -0.06068517 -0.3321062 -0.19748609 -0.020382848
0002a0 8d ea ec 3d 92 33 5a bd 06 e0 f5 bd ce 20 ca 3d
       0.115681745 -0.053271838 -0.1200562 0.09869538
0002b0 fc f6 81 bd f2 4f a0 bd cf f6 8d be d6 f0 07 3f
       -0.06345937 -0.07827748 -0.27727363 0.5310186
0002c0 38 7d b6 3c ac 4a 67 be 1f 03 f1 bd d4 da c3 bd
       0.022276506 -0.22587079 -0.117681734 -0.095632225
0002d0 5a 49 9a be 7f 39 3e 3f f5 2e b7 be ed fc 89 bd
       -0.30134088 0.7430648 -0.35778013 -0.06737695
0002e0 d3 d4 9d bc f3 b3 fb 3d 56 36 f0 be 76 1b 67 3e
       -0.019266522 0.12290182 -0.46916455 0.2256907
0002f0 a9 53 00 be 3e 46 62 be 71 ad a6 3e 8e 67 69 be
       -0.12531914 -0.22097108 0.325542 -0.22793409
000300 62 49 27 3d 1e 65 61 3e 83 b8 10 be 90 2d 87 be
       0.040841468 0.2201123 -0.14132886 -0.2640195
000310 0c f1 09 be a4 0b 00 be 53 c2 e1 3d 21 5c 2a be
       -0.13470858 -0.1250444 0.110233925 -0.16636707
000320 b3 69 7e 3d 8a e4 c1 bd de 6a 50 3e 37 17 fc 3c
       0.06211252 -0.094674185 0.20353267 0.030772788
000330 df 3d c5 bd 5f 45 d4 3e 9e a9 8d 3e 2d 32 a8 3c
       -0.096309416 0.41459176 0.2766847 0.020531738
000340 f1 9d 5d 3e c8 02 c8 bd 0a 95 56 3e d1 8f 11 3e
       0.21642281 -0.097661555 0.20955291 0.14215018
000350 01 d0 52 bd 8c f9 30 3e 59 ab 18 3d d5 a8 4d 3e
       -0.0514679 0.17282695 0.037272785 0.20083936
000360 62 6b 0a be 03 10 1a be dd 61 0e 3e 0e f1 6a 3e
       -0.13517526 -0.1504517 0.1390452 0.22943518
000370 6f 27 a0 be 73 63 83 be fd f1 9c be 06 58 ad 3c
       -0.31280085 -0.2566181 -0.30653372 0.021160137
000380 2e 23 81 bf f2 dc 52 3f f9 9c 58 3e 99 3c 35 3d
       -1.0088861 0.82368386 0.2115363 0.044247244
000390 7a c5 26 be b8 9c 49 be 51 28 9f be eb 2f 08 be
       -0.16286269 -0.1968869 -0.31085446 -0.13299529
0003a0 b0 10 8d bd 4f 44 7f 3e ab 3c 70 3d 27 86 23 3f
       -0.068879485 0.24928401 0.058651607 0.63876575
0003b0 47 0f d1 be 24 f1 90 be 7a 96 88 3e e8 b8 e2 3d
       -0.40831968 -0.28308976 0.26677305 0.11070424
0003c0 ef 62 0a be 2b 59 21 bd dc 37 76 bd b9 32 20 be
       -0.13514303 -0.039391678 -0.060111865 -0.15644349
0003d0 40 5e 3f 3c c0 46 1a 3e 69 f0 83 be b4 66 0c be
       0.011680186 0.15066051 -0.25769356 -0.13711053
0003e0 28 d4 f8 be 0a 90 45 3e f8 da 4a 3e bf a5 0c 3e
       -0.48599362 0.19293228 0.19810092 0.13735102
0003f0 4e 14 24 3e c5 ba 7b bd b7 a2 51 be 1a 45 76 3e
       0.1602337 -0.061457414 -0.20472227 0.24049798

cav_emb.1.bias f4 [64]
000000 11 59 b2 3c 01 af b4 3d 41 2d 2d bd 01 9a 37 3e
       0.021770986 0.08822442 -0.042279486 0.17929842
000010 aa 81 37 3d b4 7e ec bc b5 ef 5d bb 2b 9e bc 3c
       0.04480139 -0.02886901 -0.00338648 0.02302464
000020 f8 61 3b bd 2d 30 df 3d d8 0b 9f bd 97 bf 34 3d
       -0.045747727 0.10897861 -0.07765931 0.044128027
000030 ce 6c a1 bb a7 49 c5 bd df 06 4b 3d 0b 05 9b 3c
       -0.0049263006 -0.09633189 0.0495671 0.018923303
000040 98 c3 5d 3d 9e cc 15 3d 3b 88 bf bd 7b 7d c8 bd
       0.05414161 0.03657209 -0.09352156 -0.097895585
000050 35 75 98 bd 2e 10 cc bc f9 e8 59 bd c8 39 c0 3c
       -0.074442305 -0.024910059 -0.053200696 0.023465052
000060 63 a1 82 bb 8b a7 8a bd 51 17 e2 3c 3f 3a 6c bd
       -0.003986524 -0.067702375 0.027599009 -0.057672735
000070 73 c9 60 bd 47 18 4e bc 66 18 b8 bd 6b 3d 05 3d
       -0.054879617 -0.01257903 -0.08989029 0.032529276
000080 7a b5 22 3d 9f 6e b3 bc 5b 30 ba 3c a8 c5 9f bd
       0.03972385 -0.021903334 0.022728136 -0.07801372
000090 4a 13 62 bd 63 01 bb bd f9 ce 13 3d 49 41 36 bc
       -0.055194177 -0.09131124 0.036086056 -0.011123964
0000a0 19 cd 92 bd 08 03 97 3d b7 fa b9 bc 68 27 84 3d
       -0.071680255 0.07373625 -0.022702558 0.06452829
0000b0 19 67 97 38 8e 50 3b 3d 4f 9c 4d bd 43 eb b5 bc
       7.2194445e-05 0.04573112 -0.050197896 -0.022206908
0000c0 53 ff 2f 3b 4c 13 09 bd 70 9b 4f 3d e0 ae a2 bd
       0.0026855066 -0.03346567 0.050685346 -0.07943511
0000d0 7b ac 1d 3c 18 48 c0 bd f4 26 87 bd 11 32 93 bc
       0.009623642 -0.09388751 -0.065992266 -0.01796821
0000e0 27 43 5a bd 8c b2 75 3c 02 99 0a 3c 55 ad bf bd
       -0.053286698 0.014996182 0.0084593315 -0.09359232
0000f0 d6 a8 07 3d 1b 8b f9 bd 18 91 b2 3c da 0d 8f bd
       0.03312 -0.121847354 0.021797702 -0.06985064
