route_TSC/model/0.5_hatt_router_joint_0315/ep15/target_q_netveh.pt (torch, 510456 bytes, 26 tensors)

attn f4 [1, 2, 37]
000000 ce 02 88 50 f9 05 00 00 00 00 00 00 00 00 00 00
       1.8255081e+10 2.143e-42 0.0 0.0
000010 00 00 00 00 00 00 00 00 00 00 00 00 00 00 00 00
       0.0 0.0 0.0 0.0
000020 00 00 00 00 00 00 00 00 00 00 00 00 00 00 00 00
       0.0 0.0 0.0 0.0
000030 00 00 00 00 00 00 00 00 00 00 00 00 00 00 00 00
       0.0 0.0 0.0 0.0
000040 00 00 00 00 00 00 00 00 00 00 00 00 00 00 00 00
       0.0 0.0 0.0 0.0
000050 00 00 00 00 00 00 00 00 00 00 00 00 00 00 00 00
       0.0 0.0 0.0 0.0
000060 00 00 00 00 00 00 00 00 00 00 00 00 00 00 00 00
       0.0 0.0 0.0 0.0
000070 00 00 00 00 00 00 00 00 00 00 00 00 00 00 00 00
       0.0 0.0 0.0 0.0
000080 00 00 00 00 00 00 00 00 00 00 00 00 00 00 00 00
       0.0 0.0 0.0 0.0
000090 00 00 00 00 00 00 00 00 00 00 00 00 00 00 00 00
       0.0 0.0 0.0 0.0
0000a0 00 00 00 00 00 00 00 00 00 00 00 00 00 00 00 00
       0.0 0.0 0.0 0.0
0000b0 00 00 00 00 00 00 00 00 00 00 00 00 00 00 00 00
       0.0 0.0 0.0 0.0
0000c0 00 00 00 00 00 00 00 00 00 00 00 00 00 00 00 00
       0.0 0.0 0.0 0.0
0000d0 00 00 00 00 00 00 00 00 00 00 00 00 00 00 00 00
       0.0 0.0 0.0 0.0
0000e0 00 00 00 00 00 00 00 00 00 00 00 00 00 00 00 00
       0.0 0.0 0.0 0.0
0000f0 00 00 00 00 00 00 00 00 00 00 00 00 00 00 00 00
       0.0 0.0 0.0 0.0
000100 00 00 00 00 00 00 00 00 00 00 00 00 00 00 00 00
       0.0 0.0 0.0 0.0
000110 00 00 00 00 00 00 00 00 00 00 00 00 00 00 00 00
       0.0 0.0 0.0 0.0
000120 00 00 00 00 00 00 00 00
       0.0 0.0

fc0.weight f4 [32, 2315]
000000 45 e9 20 bc 04 eb 05 3c b2 a0 97 3c 40 c6 e8 3b
       -0.009821241 0.008173708 0.018509243 0.0071037114
000010 ac b8 ad 3b 21 9d 00 bc 49 ad 3f 3c f1 9d b6 bb
       0.0053015556 -0.007849962 0.011699029 -0.0055730273
000020 d2 cd 0c bb c7 82 85 3c 55 b4 f4 bb d8 1d df 3b
       -0.0021484983 0.016297711 -0.0074677863 0.0068089776
000030 f7 1c 21 3c 36 f5 6f bb 4e b3 92 3c 00 1c c9 3b
       0.009833566 -0.0036614663 0.017907765 0.006137371
000040 7b bd 4e bb e8 6c 90 bc 09 21 bf 3a 4e a9 3d 3b
       -0.0031546045 -0.017630056 0.0014581989 0.0028940025
000050 1b b1 e4 bb 18 b3 69 3c 1f 71 1b bc 9b f8 1b 3c
       -0.0069791204 0.014263891 -0.009487419 0.009519721
000060 a6 69 5f bc d4 cc 07 bb 64 1f 46 bc be f4 c2 3b
       -0.013636028 -0.0020721452 -0.012092445 0.0059495857
000070 0a 59 d8 3a 5b ee 3d bc 93 bc 52 bc 36 26 9b bb
       0.0016506028 -0.011592473 -0.012862342 -0.0047347797
000080 19 68 8d 3b 8b 24 58 bc 1f 38 35 bc 78 e1 8b bb
       0.004315388 -0.013192306 -0.011060744 -0.0042688213
000090 68 48 da b9 7e c5 91 3b bf 85 11 3c 34 a3 78 3b
       -0.00041634147 0.0044485917 0.008881985 0.0037939074
0000a0 9d 24 38 bb 87 3f 59 3c 27 26 6b 3c 49 f3 37 bc
       -0.0028097995 0.013259775 0.014352358 -0.011227437
0000b0 e7 ae 19 bb 56 90 b9 3a 80 95 29 bb f7 dc 0e 3c
       -0.0023450197 0.0014157395 -0.0025876462 0.008719674
0000c0 99 e4 01 3c 04 02 fa bb d2 dc aa 3b 58 e7 df b9
       0.007928037 -0.007629635 0.005214312 -0.0004270624
0000d0 0d 4f fc 3b 06 81 6e 3c 2e f4 11 3b 18 5b 52 3b
       0.0076998533 0.014557129 0.0022270787 0.0032097753
0000e0 61 95 0f bc fc 5a 44 bc 56 e8 f4 3b 2b b2 a7 3a
       -0.008763642 -0.011984583 0.0074739857 0.0012794187
0000f0 db 31 50 3b 92 3c 10 3c a5 31 3c bb 7b b6 01 3b
       0.0031767997 0.008803504 -0.0028716114 0.0019792605
000100 34 fe e3 3a f9 87 e7 ba c7 53 43 3b 3f 8e a6 3b
       0.0017394484 -0.0017664424 0.0029804574 0.005082875
000110 78 6d 57 bb a1 5f e0 3a 37 8f a7 3b 1c e7 2b bc
       -0.0032871645 0.0017118343 0.005113508 -0.0104921125
000120 e6 b9 34 3c da f3 80 bc 74 5d 74 3c 5d 02 f4 3a
       0.01103065 -0.015741277 0.014914859 0.0018616427
000130 8d 8c 43 bb 89 18 af 3b 44 fc ce bb 57 7c d0 3b
       -0.0029838413 0.005343501 -0.0063166935 0.0063624787
000140 60 55 39 3c ea e5 1b bc e4 79 18 3a 73 4f c9 bb
       0.011311859 -0.009515265 0.0005816503 -0.0061435043
000150 28 cc 5b bc ce 21 62 bc 6e 94 7c 3b 87 82 9c bc
       -0.013415374 -0.013802005 0.003854062 -0.019105209
000160 21 40 7c bb 43 2b 8f bc af 5b 4d ba 73 ff 8b bc
       -0.0038490372 -0.017476683 -0.00078337913 -0.017089581
000170 9b c7 b8 3b cd bb d5 bb a8 4d 21 bc cc 18 23 3c
       0.005639029 -0.0065226317 -0.009845175 0.0099546425
000180 a4 92 ba 3a 6a 1b 19 3c a0 f9 f9 3b 79 0c f6 3b
       0.0014234376 0.009344915 0.0076286346 0.007508811
000190 5b fa 5d bc 0e e9 6a bb b0 2e ec bb 46 e4 61 3b
       -0.013548459 -0.0035844478 -0.007207714 0.0034468337
0001a0 a2 18 33 bc da 83 ef 39 6a bc 90 3b 67 87 36 bc
       -0.010931166 0.0004568387 0.004416992 -0.011140681
0001b0 ab 9c 50 3b 62 53 f1 3b 68 43 42 bc 77 df bf bb
       0.0031831663 0.0073646763 -0.011856891 -0.0058554965
0001c0 29 d9 87 3c 4c f8 39 bb 68 d0 e5 3b 5f f0 03 3a
       0.016583042 -0.0028376756 0.0070133694 0.00050330715
0001d0 d0 2b 80 bb 5c 6a 0f 3c e5 76 67 bb f4 d7 0c bb
       -0.003911473 0.008753385 -0.003531867 -0.0021491023
0001e0 eb 4e 3d bb 01 e4 58 bc 4f 39 4e 3c 56 c4 ac 3b
       -0.002888615 -0.013237954 0.012586906 0.0052724285
0001f0 08 46 53 bc b8 aa b2 ba 1b 34 23 3c b2 25 97 bb
       -0.012895115 -0.00136312 0.009961153 -0.004612648
000200 09 bd ec 3a ff 13 a7 3b a3 ba 7c 3c 29 29 fd bb
       0.0018061708 0.0050988193 0.015425357 -0.007725854
000210 a6 70 a4 3b 94 a9 22 bc 53 82 26 3c 19 c4 13 3c
       0.0050183116 -0.009928126 0.010162908 0.009018921
000220 6c 3e f9 ba b4 62 7c bc 48 b4 08 bc 8d 1b 3e bc
       -0.0019015796 -0.015404392 -0.008343764 -0.011603248
000230 de 96 7b 3b 3b f3 4f bc b9 11 59 3a 26 79 cf ba
       0.0038389484 -0.012692268 0.0008280534 -0.0015828952
000240 4c 46 04 bc f8 37 6e bc 41 b9 92 3c c5 57 b6 3b
       -0.008073401 -0.014539711 0.017910602 0.005564662
000250 7d b4 ef 3b dc 6c c8 3b d1 5d 33 3b 25 59 6f bc
       0.007315217 0.0061164927 0.0027369151 -0.014608656
000260 5c a2 7b bb 04 4b 36 3c d2 bd 34 bc 4e 55 b7 3b
       -0.0038396334 0.011126284 -0.011031585 0.005594886
000270 f1 39 49 bc 43 6d 14 3c 09 13 a8 3b 8e b6 eb ba
       -0.012281881 0.009059253 0.0051292223 -0.0017983483
000280 21 09 de ba 17 64 84 3c e0 58 1d 3c a3 88 a5 bb
       -0.0016939976 0.016161008 0.009603709 -0.0050516888
000290 0e 94 94 bb 55 8a b1 bb e7 5f e7 b9 25 fe 08 3c
       -0.004534251 -0.005418102 -0.00044131206 0.008361374
0002a0 d9 0e 05 3a ea 72 32 3c 32 93 f7 3b ee 24 51 3b
       0.000507576 0.010891655 0.007555389 0.003191288
0002b0 09 97 4d 3a bf d9 12 3b 33 f0 78 bb 88 4e 2e 3c
       0.00078426354 0.0022407619 -0.0037984967 0.0106388405
0002c0 32 3d 1a bc d2 96 33 ba 77 74 9c bc c5 28 dc 3a
       -0.009414004 -0.0006850782 -0.019098504 0.0016796818
0002d0 ca a9 cc bb 07 07 fa b9 64 80 49 3b ff 8c 4d bc
       -0.0062458264 -0.00047688952 0.0030746693 -0.012545823
0002e0 e8 ab 71 bc d5 48 c5 bb 87 56 72 bc c0 fd 3a 3c
       -0.014750458 -0.006020645 -0.014791138 0.011413038
0002f0 05 a4 bb bb cd cb 15 3c fc 33 b0 bb c5 e5 07 bc
       -0.0057263398 0.009142828 -0.005377291 -0.008294527
000300 75 9a 64 3c da 9f 86 bc cd 99 8a 3b 2e b7 e0 ba
       0.013952841 -0.016433645 0.0042297603 -0.0017144436
000310 39 fa e3 bb 14 9b 07 3c 42 a8 51 bc 9a 2f 9d bb
       -0.006957319 0.00827672 -0.012796463 -0.0047969343
000320 34 e0 61 3c 9f 1c df bb 62 3c 72 3c f1 95 87 3c
       0.013786364 -0.006808832 0.014784904 0.01655099
000330 84 33 8c bb 37 27 b9 bb b0 28 4d 3c 20 88 46 bc
       -0.004278602 -0.0056504267 0.012521908 -0.012117416
000340 b3 26 8a b9 00 7d 97 bb 4e d6 51 3b 49 fa 9b bb
       -0.00026350244 -0.0046230555 0.0032018605 -0.004760061
000350 90 7b 78 3c fa 5f 70 bb 69 55 7d bc b7 6e 65 bc
       0.015166178 -0.00366783 -0.015462258 -0.014003447
000360 4e 0e 09 3c a7 d9 ac bb 96 fa 5c bb ef 59 f7 3b
       0.008365227 -0.0052749696 -0.0033718697 0.0075485627
000370 03 96 9a bb 6e 02 6b bb 7d 67 aa bb cb 47 0d 3c
       -0.00471759 -0.0035859603 -0.005200325 0.008623074
000380 0d 11 3b 3c 31 ed 59 3c 8a 18 59 bc da e1 8e bb
       0.011417639 0.01330118 -0.0132504795 -0.0043604197
000390 ad 23 d9 bb 67 2d 83 3c b5 40 b9 bb 77 c7 b9 3b
       -0.0066265673 0.01601286 -0.0056534656 0.00566953
0003a0 7f 97 18 bc 1a 05 8a 3c 55 44 42 3b 95 15 cf bb
       -0.009313463 0.016848136 0.002964278 -0.0063197115
0003b0 d3 cd 40 3b 27 8d c2 3b 0b 2d 19 3c c8 83 38 3b
       0.0029419556 0.005937237 0.009349118 0.002815472
0003c0 ea e2 ee bb 7f b4 74 3b 4e 00 03 3b 9a 0f cf bb
       -0.007290234 0.003733903 0.0019989195 -0.0063189985
0003d0 13 61 11 3c 5d 1d 0a bc e3 dd 1a bc c5 c5 88 3c
       0.008873242 -0.008429852 -0.009452316 0.016695866
0003e0 44 67 7d 3c fb cb 5b 3c f1 12 63 3c 94 b6 c5 bb
       0.015466515 0.013415332 0.013859496 -0.006033728
0003f0 48 c7 7c bb 17 9f 90 bb 55 e3 7a bc 1b ce 5a bc
       -0.003857093 -0.0044134962 -0.015312989 -0.013354803

fc0.bias f4 [32]
000000 02 7a f7 bb c5 a1 15 3c 3a 50 e3 3b 7b 91 ce bb
       -0.0075523863 0.009132807 0.006937054 -0.0063039637
000010 83 4a 75 bc 06 db 3c bb 5d d6 bb 3b 78 07 22 bb
       -0.014971378 -0.0028817072 0.005732341 -0.002472369
000020 0c 80 76 3b d2 49 eb ba ba 00 b2 bb b5 98 2e bc
       0.0037612943 -0.0017951077 -0.0054322155 -0.010656525
000030 5e bb 10 bb 48 8d 76 3b ca a8 44 bc 9b 47 06 3a
       -0.0022084336 0.0037620831 -0.012003133 0.00051223644
000040 47 97 73 3c 89 07 11 bc 58 e3 d6 ba ed 2c a5 bb
       0.01486761 -0.008851894 -0.0016394658 -0.005040756
000050 5e bf 1d 3b 87 d0 34 3c fc f6 a6 ba 91 22 e3 bb
       0.0024070363 0.011036045 -0.0012738402 -0.006931611
000060 89 26 84 bc e4 c1 fc bb a6 d5 6d bc ae 5a 9b 3b
       -0.016131656 -0.0077135433 -0.01451627 0.0047410345
000070 08 4b c0 ba 51 f3 46 3a b7 dd 48 bc b2 89 22 bc
       -0.0014670799 0.00075893576 -0.012259892 -0.009920524

fc1.weight f4 [32, 32]
000000 69 8e a7 bd dd 12 e8 bd 6e 82 e6 bb 45 a2 1c bc
       -0.081814595 -0.11331723 -0.0070345914 -0.009560172
000010 38 fe ec 3d f0 85 ff 3c 4e c6 dd bc 11 11 ce 3d
       0.11571926 0.031191796 -0.027072098 0.10061849
000020 c1 b0 09 bd 64 2f 86 3d b7 87 60 3d aa 1e 8a bd
       -0.03361583 0.06552008 0.054816928 -0.0674413
000030 81 c6 84 bc 34 43 14 be 22 58 5c 3d c7 7e 02 3e
       -0.016207935 -0.14478761 0.053794987 0.12743674
000040 b6 2b 70 3d ba db 95 3d 02 c8 f3 bd 8a b2 fd 3c
       0.058635436 0.073173 -0.11903383 0.030968923
000050 34 0c 8e bd a3 bf 1e bd 15 ea 92 bd 74 73 92 bd
       -0.06935921 -0.038756978 -0.07173554 -0.07150927
000060 e4 1e c5 3c b2 ad 4b 3d b7 d3 c4 3d 1d 1f 0c bd
       0.024062581 0.049726196 0.09610694 -0.03420936
000070 7d 5c 0a be c2 be b0 3d 94 e0 7c 3d ad d4 8a 3c
       -0.13511844 0.08630134 0.061737612 0.016947115
000080 1b 6b f1 bc 06 5b 66 bb 90 17 d9 bd 8b 10 f2 3d
       -0.029470017 -0.003514947 -0.10600197 0.118195616
000090 0e eb 26 3d cb 2a ba bd 15 3c 42 3e ab c6 e1 bd
       0.04075151 -0.09090193 0.18968232 -0.11024221
0000a0 72 64 20 3d ef f1 eb bd 7c 00 22 bd c6 c1 44 bd
       0.039158292 -0.115207545 -0.039551243 -0.04803636
0000b0 9d 4b 85 bd 3d 47 5f 3c ea 12 a7 3c a6 2b fa bb
       -0.06508563 0.013627824 0.020394761 -0.007634598
0000c0 15 c2 75 bb b5 3e 82 3b 45 77 2e bd 85 74 cc 3c
       -0.0037499715 0.0039747604 -0.042594213 0.024957905
0000d0 a6 d5 ba 3d 80 38 60 bd 13 bf d1 3c 12 c8 60 3d
       0.091227815 -0.054741383 0.025603807 0.054878302
0000e0 ae 91 f3 3d 34 ff ae 3d f6 24 98 3d 4d 80 a5 bc
       0.118930206 0.0854477 0.07428925 -0.02020278
0000f0 bd ee 46 3d 29 91 59 bd 18 5e c8 3c 91 1b dd 3d
       0.048567522 -0.05311695 0.02445893 0.107962735
000100 f3 c8 e7 3d 66 93 0d 3d 5f cc 83 bb 5b 4e 15 3d
       0.11317625 0.0345644 -0.0040221657 0.03645168
000110 be 1b 3c 3d 75 4b cb bc af 27 9d bc fd 5f a2 3d
       0.045924895 -0.024816254 -0.019183962 0.079284646
000120 bc c9 45 bd 51 7d 35 3c ad 6f e9 3c 4f bf a8 3d
       -0.048288092 0.011077241 0.028495634 0.08239614
000130 e0 8a a8 3d 66 73 12 3d 34 2b 2a bd 4f 0b a8 3d
       0.08229613 0.035754584 -0.041545108 0.08205282
000140 fc a4 22 3e c7 92 75 3d 88 2e 39 b9 32 1e 0f 3e
       0.15883249 0.05995443 -0.00017660309 0.13976362
000150 5d bd 63 3d 72 5d 9d 3d 43 60 73 bd 62 3e cc 3d
       0.055600513 0.07683839 -0.059417974 0.09972836
000160 dd e1 19 3e 75 20 76 3d 6e a7 e4 3d e3 c9 eb 3c
       0.15027566 0.060089547 0.11164747 0.02878279
000170 3c 17 df 3d 6e b5 8e bc 04 e9 a9 3d 67 2a 2c 3e
       0.108931035 -0.017420497 0.08296397 0.1681305
000180 e8 eb cd bd d5 ba 99 3d e5 c3 b9 3c a1 58 8a bc
       -0.10054761 0.075063385 0.022676418 -0.016887965
000190 fe 6a 50 3d ff c4 c9 bd 73 66 3c 3c be 51 8d bd
       0.050883286 -0.09852027 0.011499035 -0.06900357
0001a0 c1 bc e5 3d b7 5f 0f 3d 74 b1 e3 3d 82 bb 9f 3d
       0.112176426 0.03500339 0.11117831 0.07799436
0001b0 60 8c b8 3d a2 14 88 bd 0b e5 ea 3c ce 17 87 bd
       0.090111494 -0.066445604 0.02867367 -0.06596337
0001c0 e1 45 22 3e f6 fc dc 3b 18 01 99 bd 06 3e d1 bc
       0.15846969 0.0067440225 -0.07470912 -0.02554227
0001d0 ac ae 2c bd 68 b0 fd bc 63 28 b2 3d 3c 78 d1 3d
       -0.042158768 -0.030967906 0.086991094 0.10228011
0001e0 e3 9e 2e 3e e3 2c 15 bb 65 00 a1 3d a7 8a 21 3d
       0.17052798 -0.002276235 0.078614034 0.03943887
0001f0 7e bc d7 bd 4a 20 8e 3d d0 27 a8 38 ea ab d5 bc
       -0.10533999 0.069397524 8.01828e-05 -0.026082952
000200 1f 53 3e 3d 37 d6 59 bd 21 7f 11 be fd e1 1b 3c
       0.04646599 -0.053182807 -0.14208652 0.009514329
000210 fc e9 ec 3d d2 ce 0d be 44 3e 98 bc 95 02 25 3d
       0.115680665 -0.13848427 -0.018584378 0.040285666
000220 dd 0c c3 3d 57 c3 85 3d 78 13 c7 bd 3b 97 98 bd
       0.09523938 0.06531399 -0.0972051 -0.0745072
000230 8f 02 f4 bd 88 3c 83 3d 1b a6 0c bd d6 a9 eb bd
       -0.119145505 0.0640803 -0.034338098 -0.11507003
000240 2c 60 33 3e 65 f1 84 bd 93 c3 52 3d b6 9f b1 bb
       0.17517155 -0.06491355 0.051456045 -0.0054206504
000250 38 45 8c bc 12 23 64 3d 74 8a 02 3e 32 ce f1 bd
       -0.01712285 0.05569751 0.12748128 -0.11806907
000260 e0 ac c4 bd 73 98 1d 3e f9 a4 22 3e 7c 0b f7 bd
       -0.09603286 0.15390186 0.15883245 -0.12062737
000270 f9 b5 94 3d 19 10 20 be 53 50 e1 bd 40 8b c7 3a
       0.07261271 -0.15631141 -0.11001649 0.0015223995
000280 1f c7 a0 3d 2e e0 c6 bd c9 df c1 3b 5a 9f f0 ba
       0.07850479 -0.09710728 0.00591657 -0.0018358037
000290 b2 14 df 3d dc f6 b5 bd 0a 7a ae bc d1 6a ac bd
       0.10892619 -0.08884975 -0.021298427 -0.08418811
0002a0 29 bd d5 3d 51 9b d1 bd c1 b5 5c 3c 10 04 5a 3c
       0.1043647 -0.102347024 0.013471068 0.013306633
0002b0 7b 14 3a 3c 4f dd 0d bd 7c 75 61 bd 60 03 ce bd
       0.011357422 -0.034634884 -0.055043682 -0.100592375
0002c0 e5 a1 7a 3a ca d8 f6 3d fc 72 a8 3d 8d 5d 58 3d
       0.00095608673 0.12053068 0.082250565 0.052823592
0002d0 25 af 8b 3d 3a 92 b9 3d df fe 30 3e d7 a1 ed 3d
       0.068205155 0.09061094 0.17284726 0.11603134
0002e0 ca 51 73 bd 37 64 b1 bc 84 7b 31 3e 43 3d af 3d
       -0.059404172 -0.021654231 0.17332274 0.085566066
0002f0 03 9a 8c bd 23 6c a9 bd ac 1b 68 3d f5 14 eb bd
       -0.06865313 -0.082725786 0.056667015 -0.114786066
000300 c8 a8 ac 3c ab f9 21 3d 71 14 ae 3c 10 d9 dc bd
       0.021076575 0.039544743 0.021249982 -0.10783589
000310 9c 08 b0 3d a4 80 05 bd 4d 18 61 bd e0 49 e9 3c
       0.08595392 -0.032593384 -0.054954816 0.02847761
000320 aa 3a 5f 3d 34 77 e7 bd fb 9d 13 be 32 d4 13 3d
       0.054499306 -0.11302033 -0.14415734 0.036091037
000330 6f ce 79 3a a9 59 4d bd ae b6 af bd bf 5e 34 3c
       0.0009529357 -0.050134335 -0.08579765 0.011008917
000340 4b 26 be bd cf 40 b9 3c e6 ff 2c 3e 39 55 46 3d
       -0.092846476 0.022613911 0.16894493 0.04842112
000350 26 29 4d bb 86 14 b1 3b 61 74 bc 3a 37 7d 96 bc
       -0.0031305044 0.005404058 0.0014377945 -0.018370254
000360 a9 ad 49 3d a9 43 e6 3c fa 0f e3 3d 7c 46 c9 bb
       0.04923788 0.028108435 0.11087032 -0.0061424356
000370 e6 76 02 be 0c 05 5f 3e 85 12 8d 3d 30 19 45 bd
       -0.12740669 0.21779269 0.06888298 -0.048119724
000380 fb 6e d0 3d f2 55 99 bd 72 dc c6 3d e9 0d 43 bd
       0.10177418 -0.07487096 0.09710015 -0.047620688
000390 e2 1f 56 3d a6 c9 cf bc 37 bf 0c be be f5 4a bc
       0.0522765 -0.025364708 -0.13744818 -0.012387691
0003a0 9b 5c d2 bd 66 22 fd bd 18 2a 6a 3d a3 e1 42 3d
       -0.10271569 -0.123600766 0.05716905 0.047578465
0003b0 7b 2f ba 3d 07 fd e9 3d 24 9f 06 bd f6 8d bb bd
       0.090910874 0.11425214 -0.032866612 -0.09157936
0003c0 2e 94 f3 3d 0f c6 9d bd a6 b8 2d 3e bd 74 b7 bd
       0.118934974 -0.07703792 0.16964969 -0.08957813
0003d0 e2 d7 85 bc a1 82 89 bc 39 e3 e4 bd 17 e9 1d 3e
       -0.016338293 -0.016785922 -0.11176152 0.15420948
0003e0 9f a4 8b bd e3 db a0 bd 71 7f 38 3d 19 2b db 3d
       -0.06818508 -0.0785444 0.045043413 0.107015796
0003f0 2c ef c6 bd 89 b9 21 be 96 6b 03 be 90 68 ae 3c
       -0.09713587 -0.15793432 -0.1283401 0.021290094

fc1.bias f4 [32]
000000 fd 18 33 bd c9 8a f4 3d 22 24 7d 3d 3a b4 6b bc
       -0.043725003 0.11940534 0.061802037 -0.014386231
000010 3a bf 14 3d cd 93 36 3e 3e 6e cf 3d 47 70 8c 3d
       0.03631518 0.17829819 0.10128449 0.06857353
000020 82 6f bb 3d 15 e2 92 bd 74 4f 18 bc 6b 88 ef 3c
       0.09152128 -0.07172028 -0.009296287 0.029239854
000030 1c 52 0d 3e 51 46 08 3d 64 8d 05 be 95 88 6c 3d
       0.13800853 0.033270184 -0.13042217 0.057747442
000040 00 4b b4 bd 51 7d 74 bd 27 3e cf bd 83 08 bd bd
       -0.088033676 -0.059689824 -0.101192765 -0.09230139
000050 fd 70 94 3d b0 0d 0c 3d ff 2c 1e 3e 06 fa 39 ba
       0.07248113 0.03419274 0.15446852 -0.00070944463
000060 41 3e 6a bd 6b 76 d6 3c 15 8c 33 bd 20 1a ab 3d
       -0.057188276 0.026179513 -0.043834765 0.08354592
000070 5c 81 0f 3e 4f b4 e2 3d 68 c4 a3 3b 84 03 a9 bc
       0.1401419 0.110695474 0.0049977787 -0.02063156

fc2.weight f4 [3, 32]
000000 a8 4b 27 3d 72 f1 99 bc 5a df cf bc a9 1b 3a 3d
       0.040843636 -0.018791888 -0.025375057 0.045436535
000010 09 a1 44 bc 1d e7 ae bc 56 8e ee bb 76 af 85 bc
       -0.012001284 -0.021350438 -0.0072801514 -0.016319018
000020 a6 d5 8c bc 7b f5 58 bc 37 ec bb bc e6 1d 53 3b
       -0.01719172 -0.013242121 -0.022939784 0.0032213866
000030 12 72 c3 bc ae d0 2c 3b ab c7 03 bc b6 48 92 bc
       -0.023858104 0.00263695 -0.00804321 -0.017856937
000040 f0 e4 44 bc 5e 33 32 3a e4 32 fb 3c cc e9 08 39
       -0.012017474 0.00067978154 0.030663915 0.00013057067
000050 b4 0d b6 bc 68 bd ae bc e9 55 be bc e8 5a 80 3b
       -0.022223331 -0.02133055 -0.023234325 0.003917087
000060 15 c7 bc 3a cc 66 25 3d 97 95 0b 3c cf 5a bc bc
       0.0014402593 0.040381238 0.008519552 -0.02299252
000070 6f c6 c1 bc 63 16 da bc 45 4a 97 bc f9 53 1d 3d
       -0.02365419 -0.026622003 -0.018468032 0.03841016
000080 e4 1f 41 3d 42 57 00 bd e0 8d 18 bd 22 cd 49 3d
       0.047149554 -0.031333216 -0.037244678 0.049267896
000090 2c e9 d1 bc 87 0c 08 bd 48 79 70 bc 53 44 ce bc
       -0.02562388 -0.033215072 -0.014677353 -0.025179064
0000a0 9f 19 df bc 22 0d b9 bc dd 0b 13 bd 88 08 04 bc
       -0.027233897 -0.02258927 -0.035899986 -0.008058675
0000b0 ad b3 16 bd e8 3e 1c bc de 58 a1 bc 83 88 02 bd
       -0.036792446 -0.009536482 -0.019695695 -0.03186847
0000c0 06 74 ba bc 68 dd aa 3a c1 2a 32 3d 59 10 4d bb
       -0.022760402 0.0013035955 0.043497805 -0.0031290262
0000d0 3f 8f fc bc 4d 86 fe bc 15 1c 08 bd bf 7b a8 bb
       -0.030830024 -0.031069899 -0.033229906 -0.005141705
0000e0 14 c1 1c ba 04 10 1f 3d 75 a8 40 bc c8 03 1d bd
       -0.00059796986 0.038833633 -0.011758913 -0.038333684
0000f0 5f 98 11 bd a9 74 1d bd 6f 01 f5 bc 08 1d 79 3d
       -0.035545703 -0.038441334 -0.02990791 0.060818702
000100 0c f5 ee 37 c9 a5 17 bd 60 61 26 bd 24 1f ee 3b
       2.848592e-05 -0.03702334 -0.040620208 0.007266896
000110 89 23 ea bc 6a 64 14 bd a7 27 84 3c fd 29 f1 bc
       -0.028581398 -0.036228575 0.016132189 -0.029438967
000120 82 3b 00 bd 7b 40 f4 bc fb fe 20 bd 3b bb 0f bc
       -0.03130675 -0.029815903 -0.03930567 -0.008772667
000130 8d 7f 1b bd 8c 60 5f bc ef c3 d4 bc 9b 92 0e bd
       -0.03796344 -0.013633858 -0.025972335 -0.034807783
000140 64 71 e0 bc 89 f6 5c bb f6 3a b1 bb 09 01 3d bb
       -0.027397819 -0.0033716282 -0.00540864 -0.0028839728
000150 1f a1 1c bd 21 bf 21 bd b8 20 1f bd 4b 6c 0e bc
       -0.038239595 -0.039488915 -0.038849562 -0.008692811
000160 26 1b 43 ba b3 1a c3 3b 09 9d 49 3c dc 5d 2d bd
       -0.0007442705 0.0059541105 0.0123055065 -0.04232584
000170 ae de 21 bd 3d 26 2c bd 14 7d 0e bd f0 57 22 3b
       -0.039519005 -0.042028654 -0.034787253 0.0024771653

fc2.bias f4 [3]
000000 63 65 6c 3c d6 33 0e bd c9 d8 66 3e
       0.014428469 -0.034717403 0.22543634

road_emb.0.weight f4 [144]
000000 cb 10 89 3f d0 92 7f 3f a4 83 85 3f aa 3b 7f 3f
       1.070825 0.99833393 1.0430799 0.99700415
000010 be a3 7f 3f 4d 10 7c 3f 0d a4 84 3f b1 72 87 3f
       0.99859226 0.98462373 1.0362564 1.0581876
000020 bd 92 8b 3f 26 28 72 3f ac c2 79 3f f0 64 82 3f
       1.0904156 0.9459251 0.9756267 1.0187054
000030 e6 b6 83 3f d6 e5 7f 3f 25 04 85 3f b7 43 79 3f
       1.0290191 0.99960077 1.039189 0.9736895
000040 7c da 7f 3f 24 41 7b 3f b8 56 7f 3f 68 7f 82 3f
       0.99942756 0.9814627 0.997417 1.0195131
000050 6b 38 8f 3f 68 92 70 3f cf c6 7b 3f dc b0 80 3f
       1.1189092 0.939734 0.9835023 1.0053973
000060 01 69 8a 3f ef 6c 80 3f 6b 71 81 3f 32 5f 7e 3f
       1.0813295 1.0033244 1.0112737 0.99364007
000070 90 76 74 3f 49 77 7b 3f 5b 39 83 3f 08 58 86 3f
       0.9549341 0.9822889 1.0251878 1.0495615
000080 3f 95 8e 3f 8a fc 78 3f 27 59 7f 3f ac e0 82 3f
       1.1139296 0.97260344 0.9974541 1.0224814
000090 61 0f 8a 3f 30 bd 7f 3f cb db 84 3f 2b 1f 6f 3f
       1.0785943 0.9989805 1.0379575 0.93406934
0000a0 95 00 83 3f 50 11 7f 3f b4 49 8c 3f ab 57 82 3f
       1.0234553 0.9963579 1.0959992 1.0183004
0000b0 d3 02 90 3f 8e f1 79 3f 68 2e 81 3f 48 ff 7e 3f
       1.1250862 0.9763421 1.0092287 0.9960828
0000c0 ee 1c 8b 3f bc fc 7f 3f 29 b5 81 3f ff 8e 7d 3f
       1.0868204 0.9999502 1.0133411 0.9904632
0000d0 49 80 78 3f d1 d9 7b 3f 7c 80 84 3f 75 23 83 3f
       0.9707075 0.98379236 1.035171 1.0245196
0000e0 e4 e2 90 3f 6a 38 70 3f 95 43 7e 3f 20 35 7b 3f
       1.1319242 0.9383608 0.9932187 0.9812794
0000f0 69 5b 89 3f 3b 13 81 3f 23 a7 82 3f 99 c0 74 3f
       1.0731021 1.0083994 1.0207256 0.9560638
000100 d1 ed 7a 3f 3a b5 82 3f 79 38 88 3f 27 06 83 3f
       0.9801913 1.0211556 1.0642234 1.0236253
000110 fd 93 90 3f c9 9a 7d 3f 24 14 82 3f 67 6e 7e 3f
       1.1295162 0.9906431 1.0162396 0.9938721
000120 6e d6 89 3f c9 cf 80 3f f0 1b 87 3f b2 fe 80 3f
       1.0768564 1.0063411 1.0555401 1.0077727
000130 f3 d6 7c 3f fb 79 80 3f 15 cb 80 3f 11 10 81 3f
       0.98765486 1.0037225 1.0061976 1.0083028
000140 33 2a 92 3f 7d 02 7b 3f 80 e8 81 3f 6f 41 86 3f
       1.1419128 0.9805067 1.0149078 1.0488719
000150 55 65 8c 3f bc 7a 84 3f d3 20 87 3f 01 cb 76 3f
       1.0968424 1.0349956 1.0556892 0.9640351
000160 e8 74 7d 3f 43 89 78 3f 68 74 86 3f 04 8d 7d 3f
       0.9900651 0.97084445 1.0504274 0.990433
000170 ed a3 8c 3f 48 52 75 3f 71 2f 81 3f 3a da 88 3f
       1.0987526 0.95828676 1.0092603 1.0691597
000180 dd a0 83 3f f2 8c 7f 3f bb 5f 86 3f 4c aa 79 3f
       1.0283467 0.9982444 1.0497965 0.9752548
000190 7c 5a 73 3f b6 b2 78 3f c8 2a 87 3f ac 93 80 3f
       0.95059943 0.9714769 1.0559931 1.0045066
0001a0 88 54 8f 3f 49 78 7b 3f 3e b4 7b 3f 27 2e 88 3f
       1.1197672 0.98230416 0.983219 1.0639085
0001b0 27 ba 89 3f 30 38 76 3f 62 90 80 3f d5 dd 80 3f
       1.0759934 0.96179485 1.0044062 1.0067698
0001c0 e8 67 79 3f 06 eb 81 3f b8 d9 7d 3f 50 17 84 3f
       0.97424173 1.0149848 0.9916034 1.0319614
0001d0 1a e2 8f 3f 4b b8 7c 3f 47 85 86 3f 80 af 82 3f
       1.1240876 0.9871871 1.0509423 1.0209808
0001e0 eb 84 84 3f 44 3c 80 3f bd 16 83 3f 06 00 7f 3f
       1.0353063 1.0018392 1.0241314 0.9960941
0001f0 d5 4e 84 3f b3 07 81 3f d4 d0 7f 3f 5b 1d 83 3f
       1.0336558 1.0080475 0.9992802 1.0243334
000200 f7 7d 92 3f e7 c5 7b 3f 9e 06 88 3f b0 da 82 3f
       1.1444691 0.9834885 1.062702 1.0222988
000210 f7 6d 8a 3f b1 e6 80 3f cf 67 80 3f c2 2d 7a 3f
       1.0814809 1.0070401 1.003168 0.9772607
000220 d1 ef 80 3f 40 a4 80 3f ed b9 7a 3f 73 cf 84 3f
       1.0073186 1.0050125 0.9793995 1.0375808
000230 9e aa 90 3f f9 37 7d 3f 42 dd 84 3f 90 32 83 3f
       1.1302068 0.9891353 1.0380023 1.0249805

road_emb.0.bias f4 [144]
000000 5c 92 5c 3c 7e 8c f6 3c db 5b c8 3b 5f b1 e9 3c
       0.013462629 0.030096289 0.0061144657 0.02852696
000010 15 b6 d3 3c ac 33 ba 3c e2 4b f3 3c 8d 8d 4b 3d
       0.02584366 0.022729717 0.02969927 0.04969554
000020 57 47 e6 3b dd c4 82 bd dd 4a 56 3d ef e9 b5 3c
       0.0070275473 -0.06385205 0.05231749 0.022206275
000030 5c a0 17 3d 2b 21 b4 3c bd 69 36 3c b1 1e 45 3d
       0.037018165 0.021988472 0.011133608 0.048124973
000040 c6 19 09 3d 1c 8f b8 3c 7e 49 be 3c d7 9a cc 3c
       0.033471845 0.022529177 0.023228403 0.024976177
000050 21 d7 f6 3b c5 30 8f bd ff ca db 3c 76 8d ab 3c
       0.0075329696 -0.06991724 0.026830195 0.020941477
000060 f8 bf 4b 3c d4 2e d6 3c 26 4a 8b 3d c2 70 9a 3c
       0.012435906 0.026145376 0.06801252 0.018852595
000070 22 05 89 3d 76 e3 6a 3d e4 d7 90 3c d8 3f 3a 3d
       0.06690432 0.05734583 0.01768107 0.045471042
000080 25 9d ca 3b 97 ed 28 bd cc 4e 32 3d a8 09 99 3c
       0.006183284 -0.04124221 0.043532178 0.018681362
000090 97 25 fe 3b d7 57 d7 3c 50 d8 18 3d f3 3f 8e 3d
       0.007755946 0.026287002 0.037315667 0.06945791
0000a0 01 96 87 3c e3 2f a5 3c ae 68 18 3c 0e d1 81 3d
       0.01655102 0.020164436 0.009302301 0.06338702
0000b0 7c 72 1d bc 3c c5 9c bc b8 77 e6 3c f6 3c 06 3d
       -0.009609815 -0.019137017 0.028133258 0.03277298
0000c0 95 23 ca 3c da bc 0d 3d 9c c9 0a 3d 7e a0 cb 3c
       0.02467517 0.03460393 0.033883676 0.024856802
0000d0 c6 e8 4c 3d 4c e9 88 3c ec fa 19 3d 6a 0a 58 3d
       0.050026678 0.016712807 0.037592813 0.052744307
0000e0 37 5b 94 3b 10 c0 8e bd 76 36 f2 3c 9e 6a 24 3d
       0.004527475 -0.06970227 0.029566985 0.04014074
0000f0 cd 4e 84 3c 30 43 d7 3c 66 d2 4b 3d b3 66 3c 3d
       0.016150856 0.026277155 0.0497612 0.04599638
000100 6b e5 0b 3d 73 f7 46 3c b7 e9 78 3c 70 04 4c 3d
       0.034154337 0.012143957 0.015192441 0.04980892
000110 6c 26 0b bc ee da be bb 5c 0a 36 3d df 50 ba 3c
       -0.008493047 -0.0058244383 0.044443473 0.02274364
000120 76 c9 62 3d 9c 88 d0 3c eb 86 68 3c 6b ba d8 3c
       0.05536791 0.025455765 0.014192323 0.026456079
000130 c6 41 2c 3d 1b 9b b4 3c b4 40 1b 3d e9 b0 07 3d
       0.042054914 0.022046616 0.037903503 0.0331277
000140 5e d5 01 3c 43 03 a9 bc 4b ae 93 3c 6d 14 b5 3c
       0.007924406 -0.020631438 0.018027445 0.022104466
000150 6a a1 b8 3c af 27 b5 3c 91 51 45 3c 64 37 31 3d
       0.022537906 0.02211365 0.012043373 0.043265715
000160 a0 72 bf 3c 1f 8d 0e 3d bb 2a ee 3b e3 3a 78 3d
       0.023370087 0.034802552 0.0072682775 0.060603034
000170 81 67 09 3c fd 06 55 bd 81 76 9a 3c 71 86 6b 3c
       0.008386494 -0.052008618 0.018855335 0.014375315
000180 54 75 04 3d 4a 60 b1 3c 29 42 c8 3c 63 ce c6 3c
       0.032338455 0.02165236 0.02444561 0.024268335
000190 36 a8 aa 3d 6e 5c 43 3d e0 3a 58 3c a8 d9 69 3d
       0.08332865 0.04769557 0.013197631 0.05709234
0001a0 34 e2 ee 3b f9 14 93 bc 0f db 8d 3d 53 80 ee 3b
       0.007290149 -0.017954336 0.06926548 0.007278481
0001b0 d4 6a bc 3c 80 9e 60 3d 13 92 51 3d 9e 20 3b 3c
       0.023000158 0.054838657 0.051164698 0.011421351
0001c0 2f ed 49 3d b3 9c ff 3b 74 f6 59 3d 13 51 40 3c
       0.04929846 0.0078006624 0.05321355 0.01173808
0001d0 41 ab 73 3b d1 63 1e bc 3e d3 c1 3b f4 fc 48 3c
       0.0037180933 -0.009667353 0.0059150746 0.01226734
0001e0 57 73 7a 3d 44 fa ff 3c 03 d5 dd 3c d3 82 b0 3c
       0.061145153 0.031247266 0.027079111 0.021546757
0001f0 ac 7a 08 3c 57 96 74 3c 4e e9 15 3d fd 4b 4b 3d
       0.0083300285 0.014928422 0.03659945 0.049633015
000200 65 86 6f 3b 64 b5 70 bc d1 1c 0e 3d 07 da cb 3c
       0.0036548611 -0.014691684 0.03469545 0.024884237
000210 90 60 22 3d 12 60 b5 3c 19 e1 59 3d 79 60 92 3c
       0.03964287 0.022140536 0.053193185 0.017868267
000220 65 e6 42 3c 74 ac e0 3c 40 f8 34 3d 34 98 97 3c
       0.011895751 0.027425982 0.044182062 0.018505193
000230 30 94 d8 3b 13 2d 2a bc 19 2e a4 3c d7 df 2a 3c
       0.006609462 -0.010386723 0.020041512 0.010429344

road_emb.1.weight f4 [64, 144]
000000 6b 3b a2 3b 85 38 a7 bd 5e bd ca bd f1 4a 0c 3c
       0.004950931 -0.08165077 -0.098994 0.008562789
000010 d2 7c e4 3c 9a 2a 42 3a 73 aa 31 bc bc 30 dc 3d
       0.02789155 0.0007406861 -0.010843861 0.10751483
000020 21 68 70 3d 8b 1a 82 bd 84 fd 18 3c 2e 7d 62 3d
       0.058693055 -0.06352719 0.009337787 0.055295162
000030 77 37 a3 3c 2d e7 e9 bc de 3e 52 bd 3a d5 7d bc
       0.019923909 -0.028552616 -0.051329486 -0.015492732
000040 14 10 16 3e e3 1e 46 3c 31 e9 60 bc 21 2f 55 3d
       0.14654571 0.012092325 -0.013727472 0.0520469
000050 24 22 bb bd 49 4a 12 3d ca 20 d1 3d 26 2d ef 3d
       -0.09137371 0.035715375 0.10211332 0.11678533
000060 dc 09 a1 3d 40 b5 df 3d f5 83 1b be 7c ea 50 bd
       0.07863209 0.109232426 -0.15187056 -0.05100487
000070 1b eb b4 bb 47 d3 74 3d 69 56 bb 3d bf bd 17 3d
       -0.005521191 0.059771802 0.09147341 0.03704619
000080 ee 3c f0 3c 17 5b 32 be ee 93 bd bc a0 bc 17 3e
       0.029325929 -0.1741756 -0.023141827 0.14818048
000090 a0 62 de bd 42 ea 4b 3d 78 2b 7b bc e8 78 bb bd
       -0.10858655 0.049783953 -0.015330188 -0.091539204
0000a0 90 e7 6f bb 15 75 88 3d e5 e9 e5 3d a3 27 c5 bd
       -0.0036606528 0.066629566 0.112262525 -0.09626701
0000b0 72 b9 55 bd e9 a8 8a bd 7c 98 99 bc 0c 9b bd 3d
       -0.052178808 -0.06770498 -0.018749468 0.092580885
0000c0 01 6e 4b 3d b1 a4 d4 bd df b9 aa 3d 41 42 3f bd
       0.049665455 -0.10382975 0.08336233 -0.046694044
0000d0 46 df 0b be 76 9f af bd 75 16 0c bb 76 37 21 be
       -0.13659391 -0.08575337 -0.002137569 -0.15743813
0000e0 79 6e c5 bd d2 52 4f 3d c6 fe 14 3e b4 f8 35 bd
       -0.096402116 0.050616093 0.14550313 -0.044426635
0000f0 f4 a7 0f 3d 04 3b 04 3d f0 77 05 bd 89 ed d9 bb
       0.035072282 0.032282844 -0.032585084 -0.006650631
000100 8a ee 01 3e 69 fc ed 3c b8 85 4c be fc 12 02 be
       0.12688652 0.029051023 -0.19972885 -0.12702554
000110 6f 0f b7 bd ba 57 12 bd fb 22 a8 3c e8 cb 9b bd
       -0.089384906 -0.035728194 0.020524492 -0.076072514
000120 a8 a2 c8 ba c3 1c c5 3c fe c1 a1 3d 1e 7a 00 bd
       -0.0015307264 0.024061566 0.07898329 -0.03136646
000130 92 ed 2f 3c 21 54 f1 3d a4 a5 1c bc c5 33 9e bd
       0.0107377935 0.117836244 -0.009560976 -0.07724718
000140 30 20 02 3e 75 98 be 3d ec ad 6b be af 08 37 be
       0.12707591 0.093064226 -0.23015565 -0.17874406
000150 48 d2 a5 3d 6c b3 b3 3d 37 fe db bd 06 67 65 bb
       0.080967486 0.087744564 -0.10741847 -0.0035004034
000160 1e 9e 23 3d 50 21 4c 3d 31 d9 bd 3d 24 6c 66 bd
       0.039945714 0.049836457 0.092699416 -0.056255475
000170 ca d2 16 be 4f f0 bb 3d 67 d2 dd 3d 07 6e 6b 3d
       -0.14728847 0.091766946 0.10831147 0.057477977
000180 de 58 2a 3d e2 31 18 3b e7 de 5b bd 8e 39 16 be
       0.041588657 0.0023223092 -0.053679373 -0.14670393
000190 b6 36 ca bd 4d 7a 3d bd 10 c1 6a bb 48 6d dc bd
       -0.098737165 -0.046259213 -0.003582064 -0.10763031
0001a0 3b 10 8d 3d bc ae ca 3d 4a 23 b4 3d 76 50 3c 3d
       0.06887861 0.09896609 0.08795793 0.04597517
0001b0 6a 89 a0 bd 5c 29 b7 3d 93 b3 b3 3d d2 c5 b6 3c
       -0.0783871 0.089434355 0.087744854 0.022311125
0001c0 f7 43 20 be a8 47 d4 bd 01 85 3c bd af ba f1 bc
       -0.15650927 -0.1036523 -0.04602528 -0.029507963
0001d0 cd fd d7 bd e9 29 9d bc c2 c0 20 3d 4d ad ac 3d
       -0.105464555 -0.019185023 0.03924633 0.08431492
0001e0 f6 94 7a bd 06 94 5b 3c d6 36 8d ba 30 5a be 3c
       -0.061177216 0.013401991 -0.0010773789 0.023236364
0001f0 d2 bf aa 3b 2a 28 e6 bc 8f a4 73 3d 52 09 f9 3c
       0.005210855 -0.028095324 0.059483107 0.030399952
000200 fb 83 35 3e 36 56 96 bc 7b 4e 10 bd bf 41 fc 3d
       0.17726128 -0.018351655 -0.035231095 0.123172276
000210 dc 5b cb bc 75 2b 45 3e 55 1d c8 3c e6 ec 9a bd
       -0.024824075 0.19254859 0.02442805 -0.07564716
000220 6d c5 27 bd f4 82 b0 3d db 17 06 3d 31 16 67 3d
       -0.040959764 0.08618727 0.032737594 0.056417648
000230 99 f1 56 3d e6 eb d3 3d de 6b db bd 8b a6 5a 3d
       0.0524765 0.103477284 -0.107139334 0.053381484
000240 00 e5 d1 3d ab 7f e5 bd fa d0 f2 bd ac d4 b2 3c
       0.102487564 -0.11205991 -0.11856265 0.021829925
000250 33 2b 7c bd 0a 66 5d 3d b9 e4 1b 3e 3b 7c b9 bd
       -0.061564635 0.05405239 0.1522397 -0.09056898
000260 4d 79 dd 3d de f3 89 3d 0e 6e be ba c4 51 96 3d
       0.10814152 0.06735967 -0.0014528648 0.07339814
000270 92 99 ae bd 6a 61 22 3d e3 4c 8a bd 62 e8 10 bd
       -0.08525385 0.039643683 -0.06752946 -0.035377868
000280 8e e8 05 3e 12 89 89 3d 4e cb 53 3c 94 4e 7c bd
       0.13076994 0.06715597 0.01292689 -0.061598375
000290 8a 84 ad bd de 07 b6 bd c8 0a 9a bc cb 63 5c be
       -0.084725454 -0.08888219 -0.018803969 -0.21522443
0002a0 78 62 0f bc 9d e5 ed bd d7 82 e4 bd 7a b1 90 3d
       -0.008751504 -0.11616061 -0.11157768 0.07065101
0002b0 05 62 f3 3d dc f4 8e 3d 0c b6 36 be ae d2 d0 bd
       0.1188393 0.06980297 -0.17842883 -0.10196434
0002c0 2f b3 b1 3d 88 95 4c 3d 3e d1 d7 3d b6 3b 2c bd
       0.08676755 0.04994729 0.10537957 -0.042049132
0002d0 90 68 25 bd 4d 8e 15 3c 7c 4d ff 3c ca 6f 22 3e
       -0.04038292 0.009128165 0.031164877 0.15862957
0002e0 56 d3 cc 3c 2e 89 55 3e 15 75 a8 3d d0 4a 15 be
       0.025003117 0.20853111 0.082254566 -0.1457932
0002f0 d9 94 93 3d 76 ee b7 bc 56 4a 1a be 03 57 4f 3d
       0.07206125 -0.022452574 -0.1506742 0.05062009
000300 2a 32 91 3c e5 04 77 3d 12 c1 38 3d d2 28 2c 3e
       0.017724115 0.060307402 0.045106 0.16812447
000310 98 60 11 3e a7 67 ec 3d fd d0 5a 3b 35 67 dc bd
       0.14197004 0.115432076 0.0033388727 -0.10761873
000320 bb 93 3f 3e 58 81 04 3e 51 9a b7 bd 09 4c ee 3c
       0.18708698 0.12939966 -0.089649804 0.02908899
000330 e3 70 8e 3d 44 15 25 3d d8 85 e4 bc 80 f3 64 3d
       0.06955125 0.040303484 -0.027895853 0.055896282
000340 d5 55 94 3d 7d d3 d5 bc 53 ab 80 3d 76 27 de 3a
       0.07242934 -0.026101822 0.062826775 0.0016949016
000350 46 46 dc 3d a8 9c c1 bd 19 7d e0 3c cb 2e 96 bd
       0.10755591 -0.09453708 0.027403401 -0.07333144
000360 3e 9a b7 3d 3c a3 82 3b 7b 12 13 be ef 73 3d 3e
       0.08964966 0.003986744 -0.14362518 0.18501256
000370 e3 e8 9a 3d 25 57 7d 3d d8 d4 a0 3d a8 e3 20 3e
       0.07563951 0.061850686 0.07853097 0.15711844
000380 5b 23 79 3e f1 9a 8d 3a 2c 31 00 3e ff 09 e6 3d
       0.24329893 0.0010803622 0.12518758 0.11232375
000390 54 a3 87 bd 2c b7 8d 3d 45 2c 8b bd 6c 93 63 bc
       -0.06622949 0.06919703 -0.06795553 -0.013890129
0003a0 2e 06 5c 3d 2b f8 4f bd 09 c6 c1 bc 08 a0 e9 bd
       0.05371683 -0.05077378 -0.023654 -0.11407477
0003b0 1e 45 8e 3e 5c 1f 59 3c a0 35 2b bd eb 27 a2 bc
       0.27787107 0.013252106 -0.041799188 -0.019794425
0003c0 b0 d3 de bd 04 20 aa bd e4 8b ca bd 38 83 9c bd
       -0.1088022 -0.08306888 -0.09889963 -0.076422155
0003d0 87 36 06 be d1 f0 fc bd 10 5d 11 3d 86 31 9f 3d
       -0.13106738 -0.123506196 0.035489142 0.07773118
0003e0 a4 0a 44 3e f9 89 5d 3d 6e 7d 0e be 70 b5 14 be
       0.19144684 0.05408666 -0.13915035 -0.14522338
0003f0 c3 d3 13 be 15 ea d8 bd 0b 8e 37 be 01 2e f9 3c
       -0.1443625 -0.105915226 -0.17925279 0.030417444

road_emb.1.bias f4 [64]
000000 90 81 03 3c 06 5f fd 3a af 55 10 bc 06 fa f4 3b
       0.008026496 0.0019330687 -0.008809491 0.007476094
000010 62 c4 56 3b 22 5a 56 3b 49 96 1e ba cc fe d4 3b
       0.0032770862 0.0032707532 -0.0006049616 0.0065001007
000020 4a ee ab 3b 42 b6 18 3c 4c 46 89 bb b3 4c 62 bb
       0.005246912 0.009320797 -0.0041892882 -0.003453058
000030 fc 33 80 bb 55 bb 38 bb 78 a3 30 3c 72 f1 27 39
       -0.003912447 -0.002818783 0.0107811615 0.00016016306
000040 c7 ea 4e bc be cc c6 bc 6d bb 75 bc 32 88 32 3b
       -0.0126292175 -0.02426755 -0.014998299 0.0027241823
000050 4d 8a 62 bb ea 34 64 bc c7 7e 2d 3c 7c cb 8c bb
       -0.0034567297 -0.013928631 0.010589308 -0.004296718
000060 a0 ac 48 bb a7 a5 1f bb c5 5f 02 3c b0 b1 7c 3b
       -0.003062047 -0.002436021 0.007957404 0.0038558058
000070 c3 2a f1 ba 02 d1 00 bb 83 41 b0 3b 3b 1f e6 3b
       -0.0018399585 -0.0019655828 0.0053789034 0.007022766
000080 4b 40 1c 3c 7e 5e 43 3c d2 b5 60 3c a1 45 73 3b
       0.009536813 0.011924384 0.013715224 0.003712036
000090 c0 a8 5c bb 63 c7 ac 3b e7 15 0a 3c ba c7 d9 3b
       -0.0033669919 0.005272792 0.0084280735 0.0066461237
0000a0 40 99 d4 bb da e5 88 3a 49 ad aa b9 67 c5 d8 3b
       -0.0064879954 0.0010444478 -0.00032554034 0.006615329
0000b0 31 d8 a9 3b 35 b7 2b 3b ff 4a 7e bb 3e c9 e4 3b
       0.0051832427 0.002620173 -0.0038802025 0.0069819978
0000c0 4a f0 e8 3b c9 26 c8 ba b3 1c 16 bb 53 f6 c6 3a
       0.007108723 -0.0015270348 -0.002290529 0.0015179612
0000d0 90 24 cd 3b 76 18 a6 3b 45 56 93 bb 74 da d4 3b
       0.006260462 0.005068834 -0.004496368 0.006495768
0000e0 f3 97 87 3b 27 a0 b6 bc 4f bf e1 3b c8 e1 42 3b
       0.004137987 -0.022293163 0.006889261 0.0029736627
0000f0 37 bd 4c 3a af 3b de 3c 06 f6 c2 3b 6e 5b 0a 3d
       0.00078101776 0.027128069 0.0059497384 0.0337786

cav_emb.0.weight f4 [11]
000000 e8 64 81 3f 1f f7 72 3f 1e ad 77 3f 0a 00 83 3f
       1.0108919 0.94908327 0.9674853 1.0234387
000010 78 59 91 3f e0 34 8d 3f 76 54 86 3f d9 67 7f 3f
       1.1355429 1.1031761 1.0494525 0.99767834
000020 5c 3a 80 3f 72 7c 6d 3f 0c 29 7d 3f
       1.001781 0.92768013 0.9889076

cav_emb.0.bias f4 [11]
000000 09 79 60 bb f9 10 b8 bc 60 1f 3d 3b de 37 bf 3c
       -0.003425183 -0.02246903 0.0028857812 0.02334207
000010 e3 91 0a bc a3 6b 21 3d cf 5d 57 3c 98 8c 09 3d
       -0.008457634 0.03940929 0.013144924 0.033581346
000020 85 b1 b1 3c 7a d1 37 bd c3 ec dd bc
       0.021691093 -0.044877507 -0.027090436

cav_emb.1.weight f4 [64, 11]
000000 87 06 50 bd 70 53 d7 3b 9a 92 81 bb c0 fa 04 bd
       -0.050787475 0.006571226 -0.003954244 -0.032465696
000010 6a 0b 83 3e a7 1d 5d 3c 32 df aa bc fb 40 5c 3e
       0.25594646 0.013495839 -0.020858381 0.21509163
000020 27 e1 a8 bd 97 1f 4e 3d 4d 74 dc bd 8a 80 53 bd
       -0.082460694 0.050323095 -0.1076437 -0.051636256
000030 86 3d b3 bd 20 0a 17 bd 1e 28 5b bd 5a 65 93 be
       -0.08751969 -0.03687489 -0.053505056 -0.28788263
000040 e8 d6 d1 3d 92 a1 f8 bc d7 ea 0c be 09 b4 4b 3e
       0.10246068 -0.03035048 -0.1376146 0.19892897
000050 3c a1 4d 3d a3 3f 60 3e 32 4e b7 ba 61 d9 2a be
       0.050202593 0.21899275 -0.0013985096 -0.16684486
000060 ea 43 82 3d 37 1e 4c be f9 8d 05 3e ed 8f 44 3e
       0.0636061 -0.19933401 0.1304244 0.19195528
000070 06 70 c4 bd 2a 7c 4b be 6b ee 8d bd 7e 06 0c be
       -0.09591679 -0.19871584 -0.0693024 -0.13674352
000080 4c 5c 19 3e 4a 25 2c 3e 81 4c 01 be 0f b3 d8 3d
       0.14976615 0.168111 -0.1262684 0.10581028
000090 4d cc 05 be 9a 53 26 be 6f 98 e6 3e 24 0f e7 bd
       -0.13066216 -0.16242829 0.45038173 -0.11282185
0000a0 15 29 45 bc 24 d9 31 3d 9b 3f b7 bc bf 2c e6 bd
       -0.0120337205 0.043419972 -0.022369197 -0.112390034
0000b0 b9 81 99 3d 8f 08 12 3d 9a 17 8e bc 50 fe ef bd
       0.07495446 0.035652693 -0.017345238 -0.11718428
0000c0 7f 09 76 bd 47 18 6e 3d fc f0 90 3d 31 f3 25 3e
       -0.06006765 0.05812862 0.07077214 0.16206051
0000d0 5b a6 0a 3d a5 32 39 3e e0 e5 5c 3d 76 6c bc bd
       0.033850055 0.18085726 0.053930163 -0.09200375
0000e0 23 65 7b bd 9f b5 a7 3e 1d 29 29 3e d6 c7 ea 3d
       -0.06137575 0.32755753 0.1651959 0.11463897
0000f0 8f b6 08 be e1 b9 9f bd 0a d9 ac 3c 06 50 94 bd
       -0.1335089 -0.077991255 0.021099586 -0.07241826
000100 b4 21 d6 3c 7f 0c 50 bc 0a 43 2a be 7b 56 57 bd
       0.026139118 -0.012698292 -0.16627136 -0.05257271
000110 82 02 4c 3d 42 49 1c be f1 b3 ed 3c 40 15 cb 3d
       0.04980708 -0.1526232 0.029016467 0.099161625
000120 c7 49 a0 3d d1 05 09 3e 21 92 9f bc 5c b3 9e bd
       0.07826572 0.13381125 -0.01947886 -0.07749054
000130 63 e4 9a bd 36 1e da bc e1 1c 88 bd fb da 8d bd
       -0.075630926 -0.026625734 -0.06646133 -0.06926533
000140 4d f8 a9 bc 6d 3c 68 bd e2 71 4d be e9 31 e1 3e
       -0.020748282 -0.05669825 -0.20062974 0.4398339
000150 36 b9 04 be 32 1d 6e 3e ad d3 08 be 3a ec 0e bd
       -0.12961277 0.23253325 -0.13361998 -0.034893252
000160 ab 74 b1 3c 27 03 7b be 4e b9 cb bd 13 41 f5 3c
       0.021662077 -0.24512921 -0.099474534 0.029938256
000170 d1 73 67 3d c7 11 17 be 9b 22 d2 bd e2 a3 f8 bc
       0.056506936 -0.14752875 -0.10260507 -0.030351583
000180 82 64 14 3e b3 e8 80 3d 13 60 e5 3d 6a 63 80 be
       0.14491466 0.06294384 0.11199965 -0.25075847
000190 fd 15 67 bd 60 b8 ff bd 56 41 b5 3c fe 0b 15 be
       -0.056417454 -0.124863386 0.022125881 -0.14555356
0001a0 93 54 20 bc 3c ef 02 bd 46 14 a2 bd 11 a6 0d be
       -0.009785789 -0.031966433 -0.07914023 -0.1383288
0001b0 1b d0 37 3e 03 47 5c 3e bf 2e 5a 3c 28 c5 02 3e
       0.1795048 0.21511464 0.013316809 0.12770522
0001c0 15 a6 7e 3d d8 d7 04 3d 3e 72 d5 3e 51 3d 3e bd
       0.062170107 0.032432407 0.41688722 -0.046445195
0001d0 0d 9f 06 bd 8a 18 f9 3d d7 3d 1a be 13 ec 90 3b
       -0.032866526 0.121628836 -0.15062653 0.0044226735
0001e0 4c 4a 2b 3c c2 90 47 3b 9a de 0f be e1 c0 11 bd
       0.0104547255 0.0030451273 -0.1404976 -0.035584334
0001f0 d2 a8 28 3e b8 11 af be 94 d0 a9 bb b7 27 5f 3e
       0.1647065 -0.34193206 -0.005182335 0.21792494
000200 4f ce 99 3d d8 d1 a4 3e 20 09 ba 3e f0 eb 15 3e
       0.07510053 0.32191348 0.36335087 0.14640784
000210 fb 50 c1 bd c9 5e fa bd d0 fd 74 bd b3 ff 38 3d
       -0.09439274 -0.1222511 -0.059812367 0.04516573
000220 2c 69 cf 3e ef 4d ac bd d5 4a c5 bc cd 98 90 3d
       0.40509927 -0.08413302 -0.024083534 0.070603944
000230 51 ef f0 bd 11 38 0c be 65 14 1c 3e c6 3f 81 ba
       -0.11764396 -0.13693263 0.15242155 -0.0009860925
000240 6a 86 f3 bb 30 16 ee 3d 38 bb 99 bd 55 b3 40 3d
       -0.007431795 0.11625326 -0.07506412 0.047046024
000250 08 ef e3 bd 49 2a d5 3c 7d cc 22 3c e3 49 57 3d
       -0.11129576 0.02602114 0.009936449 0.0525607
000260 92 df 85 3d 9e 64 4b 3d de 2f 8b be c1 75 1f bb
       0.06536783 0.049656503 -0.27184957 -0.0024331661
000270 6d 6c 2f 3e 5c aa 69 3d 7a 09 09 3c b3 fd 66 be
       0.17131205 0.057047233 0.008364076 -0.22557716
000280 d9 de 66 3d d6 6b 7b 3d 1d 4a 87 bd 6d cd ce 3e
       0.056364868 0.061382137 -0.06605933 0.40391102
000290 39 8b 2c be 02 76 4f be b2 bb 60 3d 45 c9 0a be
       -0.16849984 -0.2025986 0.0548665 -0.1355334
0002a0 ed db e1 3d f0 ec e5 3c 84 78 65 be f7 0a 18 3c
       0.11028276 0.028067082 -0.22409254 0.009279958
0002b0 69 95 71 bd 1b fa 87 be 96 2d 2c be 89 26 d6 3e
       -0.05898038 -0.26558003 -0.16814265 0.41826275
0002c0 31 09 68 be 98 a1 14 bd 2f bb 43 be 1e fa 21 3d
       -0.22659756 -0.03628692 -0.19114374 0.03954517
0002d0 86 f5 cb bd bf 08 29 3e d7 b9 02 be ba e0 87 bc
       -0.09958939 0.16507243 -0.12766205 -0.01658665
0002e0 ef a0 37 3e 48 b8 b2 3d 57 e3 32 be 65 54 9e 3d
       0.17932485 0.08726555 -0.17469536 0.07730941
0002f0 4b 28 c1 bd bb 75 ef 3d 5e 8e 03 3e b8 83 bc 3c
       -0.094315134 0.11692377 0.12847278 0.023012027
000300 b5 2f b7 bd 13 d5 ec 3b 80 73 18 be 17 b2 f0 bb
       -0.08944646 0.007227549 -0.1488781 -0.0073454487
000310 80 88 52 be 34 73 e3 bc 7f f4 a3 3a 79 30 ac 3d
       -0.20559883 -0.027764894 0.0012508779 0.08407683
000320 db cc 6f 3d 15 73 8a bd a9 b9 3a 3e dc e3 09 be
       0.058544975 -0.067602314 0.18234886 -0.13465828
000330 6d bb 1e be 65 b6 10 3e 6c ac 03 3e e0 d9 f2 bc
       -0.15501185 0.14132078 0.12858742 -0.029644907
000340 0a 1e c6 3d 42 91 0b be e6 85 81 3d 7b ca b5 3d
       0.09673698 -0.1362963 0.06324367 0.08876511
000350 73 c7 bf bd 67 f5 b3 bd dc d6 46 be ee 10 a3 3d
       -0.09364214 -0.08787041 -0.194179 0.079622135
000360 39 12 4d bd 06 28 5f be d6 1a f9 bc eb fb 53 3d
       -0.050066207 -0.21792611 -0.030408304 0.05175392
000370 fe 88 8e be e9 19 8a bc e5 ef 91 bd 5f a0 0c 3d
       -0.27838892 -0.016858058 -0.071258344 0.03433263
000380 54 20 9a bd 28 eb b4 3e 26 ba 31 bd 2b a2 17 bd
       -0.07525697 0.3533566 -0.043390416 -0.03701989
000390 6a da 91 3c 3b e9 29 3d e6 a3 d4 bd b1 c5 fa bc
       0.017804343 0.04148219 -0.10382824 -0.030611845
0003a0 e5 28 eb 3d 51 82 49 3e be ad 90 3d 6b 14 b8 3e
       0.114824094 0.19678618 0.07064389 0.35953078
0003b0 f1 07 0a be ac 33 d1 bd 08 61 39 3e 57 d7 13 3d
       -0.13479592 -0.10214934 0.1810342 0.036094036
0003c0 b7 d0 b6 bd 16 70 3a 3e 55 98 79 be 5b 75 69 bd
       -0.08926528 0.1820682 -0.24374516 -0.056996685
0003d0 43 74 26 3e 07 20 d7 bd d5 df 27 be 16 4a 1c 3e
       0.16255288 -0.105041556 -0.16393979 0.15262637
0003e0 3f 27 68 be 72 68 12 3e ca 16 47 3e 93 95 cb bd
       -0.22671221 0.14297655 0.19442287 -0.099406384
0003f0 a7 42 26 3e fc 75 52 be 27 f7 9f bd 57 8d f1 ba
       0.16236363 -0.2055282 -0.078108124 -0.0018428963

cav_emb.1.bias f4 [64]
000000 37 43 08 3c d0 6f 06 3d 15 1e 12 bb 53 af 38 3d
       0.0083168065 0.032821476 -0.0022295762 0.045089077
000010 3b 00 06 3d 99 36 61 bb 64 b5 84 3b 23 c6 a6 3c
       0.032715064 -0.0034364818 0.0040499438 0.02035815
000020 ca ad 1c bc b2 cc 54 3d d6 51 a7 bc 90 14 a0 3c
       -0.009562919 0.051953025 -0.020424765 0.019541055
000030 48 ee 37 3b 8e 8c ba bc d4 96 8a 3c 09 e4 59 3c
       0.002806561 -0.0227721 0.016917624 0.013298997
000040 b8 fd 54 3c 09 c0 1a 3c bd 03 b3 bc eb 65 c2 bc
       0.012999944 0.009445199 -0.021852368 -0.023730239
000050 69 b8 76 bc af c0 17 ba dd 2d 9f bc 0c a3 81 3c
       -0.015058615 -0.0005788905 -0.019431049 0.015824817
000060 01 ee b4 3b ba 16 2a bc 45 10 8a bc 1f 56 45 3b
       0.0055215363 -0.010381395 -0.016853461 0.0030111147
000070 9e 9d a2 bc ab 08 3e 3c fc 1b f3 bc ef 72 19 3c
       -0.019850548 0.011598746 -0.02967643 0.009365781
000080 2c 2a 29 3c c5 9b a9 3b 5c bf 0a 3c 80 01 44 bc
       0.010324996 0.00517604 0.008468475 -0.011963248
000090 1a 7e b4 bc 29 b6 77 bc dc 5e 83 3c 05 97 de 3a
       -0.022032786 -0.015119114 0.016036443 0.0016982263
0000a0 e2 b5 a9 bc 60 cb 06 3d 5f 76 4b 3b 4e 70 08 3d
       -0.020716611 0.032908797 0.0031045896 0.033310227
0000b0 be 6c ec 3b 7a 34 71 3c dd fc b6 bb 8c 9f 13 3c
       0.0072151115 0.014721984 -0.005584343 0.009010207
0000c0 bb 5b 61 3c 8d 84 1c bc cd d3 e8 3c af 45 e4 3a
       0.01375478 -0.009553087 0.028421307 0.0017415787
0000d0 d8 3b 4d 3c d9 db e1 bc a7 e2 96 bc 7b b3 e8 3a
       0.012526475 -0.027570652 -0.018418623 0.0017753685
0000e0 36 e0 84 bc 7b 7b d0 3b 39 c4 1c 3c 55 6d cc bc
       -0.016220193 0.0063623763 0.0095682675 -0.024954477
0000f0 89 55 5c 3c 14 78 fc bc 7f b9 c1 3c b8 ff b3 bc
       0.013448128 -0.030818976 0.023648022 -0.021972522
