route_TSC/model/0.5_hatt_router_joint_0315/ep10/q_netveh.pt (torch, 510246 bytes, 26 tensors)

attn f4 [1, 2, 37]
1.8254397e+10 2.143e-42 0.0 0.0 0.0 0.0 0.0 0.0
0.0 0.0 0.0 0.0 0.0 0.0 0.0 0.0
0.0 0.0 0.0 0.0 0.0 0.0 0.0 0.0
0.0 0.0 0.0 0.0 0.0 0.0 0.0 0.0
0.0 0.0 0.0 0.0 0.0 0.0 0.0 0.0
0.0 0.0 0.0 0.0 0.0 0.0 0.0 0.0
0.0 0.0 0.0 0.0 0.0 0.0 0.0 0.0
0.0 0.0 0.0 0.0 0.0 0.0 0.0 0.0
0.0 0.0 0.0 0.0 0.0 0.0 0.0 0.0
0.0 0.0
00000000: 8001 8850 f905 0000 0000 0000 0000 0000
00000010: 0000 0000 0000 0000 0000 0000 0000 0000
00000020: 0000 0000 0000 0000 0000 0000 0000 0000
00000030: 0000 0000 0000 0000 0000 0000 0000 0000
00000040: 0000 0000 0000 0000 0000 0000 0000 0000
00000050: 0000 0000 0000 0000 0000 0000 0000 0000
00000060: 0000 0000 0000 0000 0000 0000 0000 0000
00000070: 0000 0000 0000 0000 0000 0000 0000 0000
00000080: 0000 0000 0000 0000 0000 0000 0000 0000
00000090: 0000 0000 0000 0000 0000 0000 0000 0000
000000a0: 0000 0000 0000 0000 0000 0000 0000 0000
000000b0: 0000 0000 0000 0000 0000 0000 0000 0000
000000c0: 0000 0000 0000 0000 0000 0000 0000 0000
000000d0: 0000 0000 0000 0000 0000 0000 0000 0000
000000e0: 0000 0000 0000 0000 0000 0000 0000 0000
000000f0: 0000 0000 0000 0000 0000 0000 0000 0000
00000100: 0000 0000 0000 0000 0000 0000 0000 0000
00000110: 0000 0000 0000 0000 0000 0000 0000 0000
00000120: 0000 0000 0000 0000

fc0.weight f4 [32, 2315]
-0.004357701 0.008814929 0.0192191 0.0066023506 0.01853162 -0.00846886 0.019472517 -0.010787248
0.017480366 0.010433188 -0.0016244892 0.017195284 0.00086382404 0.020086564 0.020552859 0.019952279
-0.020719824 -0.01988453 0.010222303 0.0055162627 -0.020333922 0.014278341 -0.0007762164 0.017374348
-0.018834794 0.013821851 -0.0038877167 0.0016122572 0.0130372755 -0.010089437 -0.006396832 -0.019325186
0.0036242362 -0.0068158396 -0.01198172 -0.011908576 0.019954097 0.005410591 0.017103672 -0.008235307
-0.015473023 0.0058951452 0.012005046 -0.005812713 -0.0012361743 -0.014405549 -0.019806348 0.00076827966
0.008113958 -0.003907511 -0.0069007445 0.006157823 0.008600224 0.019870058 0.0011163391 -0.013914276
-0.0052885106 -0.0027953759 -0.0056370627 0.011218406 0.007103866 0.013325375 -0.014985708 0.014197271
-0.007386703 -0.014468076 0.0064643174 -0.013957499 0.01440664 0.010807697 -0.015858477 -0.012477423
0.0070257504 -0.009042338 0.011029493 0.004284231 -0.013884973 0.017957926 0.0061430316 0.018431496
-0.0004942324 -0.003518708 0.007637216 -0.0019362997 -0.020593058 -0.019525604 -0.011782855 -0.018882576
-0.004883282 -0.017376315 0.0060378313 -0.019472051 -0.0036501065 -0.01810685 -0.018111562 0.0155225545
0.009944379 0.0067675672 0.018710613 0.01637156 -0.007238875 0.0139008835 -0.0038771722 0.00901814
-0.005940957 0.002597833 -0.0008757189 -0.017294396 -0.0149471145 0.009248354 -0.005436952 -0.0021932032
0.012853876 -0.007924718 -0.008375124 -0.015520888 0.012326505 0.010200404 -0.0021217708 0.007865641
-0.012358992 -0.0128005445 0.017387439 -0.0012300741 -0.011173697 0.0110861175 0.010924626 -0.003616672
0.0077599715 0.004139181 0.012663521 -0.0018167067 0.001651058 -0.006224137 0.0092405435 0.00089142285
0.006633615 -0.016573928 -0.016710706 -0.0009842962 -0.016812164 -0.0046735555 -0.016770275 0.013718236
0.004247289 -0.01308303 0.016785033 0.01868968 0.0070454907 0.00279589 -0.0067111226 -0.006318668
0.017151374 0.009878095 -0.015703397 0.011802286 -0.0033297688 0.013495546 -0.010002843 0.003396457
-0.010222965 0.020005614 0.00079878606 0.0034053363 -0.007420173 -0.003076259 0.0029549804 0.0068342574
-0.004568264 0.003892459 0.009280473 -0.015370358 0.0034329556 0.00353181 0.0040666685 0.0071271546
-0.0038024131 -0.0013277605 -0.01997574 0.017107166 -0.017038643 -0.011820485 -0.017345633 -0.006040699
-0.015858237 -0.009039659 -0.019384468 0.010299224 -0.016876282 -0.0011889692 -0.010293441 0.008742826
0.015432015 -0.014266814 -0.0036131423 0.0028576516 0.0020280052 0.012230296 -0.009628671 0.0016364288
0.006262958 0.0007208977 0.014208987 0.013815042 -0.017730579 0.0061624125 0.008799598 -0.01655262
0.0020361375 0.016348056 0.018533476 0.015522022 0.017547488 -0.017496374 -0.011265408 -0.018734798
0.018862154 0.014054805 -0.01640048 0.009917274 -0.008179169 -0.0014109369 5.9645623e-05 0.012322951
0.016431492 0.0066246707 -0.018802969 -0.006714834 -0.013912326 0.017545275 0.0027125105 -0.00034210645
-0.02000785 0.01382209 -0.016239159 -0.0077030454 -0.013486331 0.0149907805 -0.0011033155 -0.0072357394
0.0036933552 0.004562393 -0.018933846 0.009748926 0.00040226057 -0.019057535 -0.0077147866 0.013422705
0.015320122 0.0118411705 0.020724278 0.006819878 -0.0006084759 -0.016265932 -0.015189958 -0.005279973
00000000: 0ccb 8ebb 7e6c 103c 6071 9d3c 8858 d83b
00000010: a0cf 973c f9c0 0abc d484 9f3c ffbc 30bc
00000020: fc32 8f3c f6ef 2a3c d0ec d4ba 20dd 8c3c
00000030: 4072 623a 948c a43c 785e a83c f672 a33c
00000040: 9fbc a9bc e2e4 a2bc 727b 273c c4c1 b43b
00000050: 5393 a6bc b4ef 693c 007b 4bba a654 8e3c
00000060: 6d4b 9abc 0c75 623c 10c9 7ebb 6052 d33a
00000070: 4c9a 553c 2a4e 25bc 849c d1bb da4f 9ebc
00000080: 9884 6d3b 6857 dfbb fa4e 44bc 301c 43bc
00000090: c676 a33c 544b b13b 001d 8c3c 62ed 06bc
000000a0: 9082 7dbc 102c c13b d0b0 443c 9278 bebb
000000b0: 2007 a2ba 4005 6cbc ec40 a2bc 6066 493a
000000c0: 68f0 043c 940a 80bb a41f e2bb 90c7 c93b
000000d0: f4e7 0c3c 88c6 a23c 2052 923a b4f8 63bc
000000e0: 3e4b adbb a032 37bb 1cb7 b8bb 68cd 373c
000000f0: 8cc7 e83b ac52 5a3c 9d86 75bc ac9b 683c
00000100: 280c f2bb 820b 6dbc a0d2 d33b fead 64bc
00000110: d409 6c3c c412 313c a3e9 81bc 1b6e 4cbc
00000120: 4438 e63b 5026 14bc 0cb5 343c bc62 8c3b
00000130: cc7d 63bc 801c 933c 7c4b c93b a6fd 963c
00000140: 608f 01ba 209a 66bb 9c41 fa3b 70cb fdba
00000150: c6b2 a8bc 29f4 9fbc e00c 41bc a2af 9abc
00000160: f003 a0bb c658 8ebc 00d9 c53b da83 9fbc
00000170: a036 6fbb d154 94bc b35e 94bc 5052 7e3c
00000180: c0ed 223c 78c2 dd3b 0047 993c a61d 863c
00000190: 1634 edbb 88c0 633c 2818 7ebb d2c0 133c
000001a0: 5cac c2bb 6840 2a3b 8090 65ba faac 8dbc
000001b0: bee4 74bc 6886 173c 7628 b2bb d8bb 0fbb
000001c0: 1099 523c add6 01bc d137 09bc 534b 7ebc
000001d0: 1cf5 493c 981f 273c 680d 0bbb e4de 003c
000001e0: 5f7d 4abc 60b9 51bc 1a70 8e3c 703a a1ba
000001f0: e211 37bc 8ca2 353c 34fd 323c b005 6dbb
00000200: 5c47 fe3b f8a1 873b a87a 4f3c 901e eeba
00000210: 5068 d83a d8f3 cbbb a665 173c 60ae 693a
00000220: cc5e d93b 0cc6 87bc e4e4 88bc 8003 81ba
00000230: aab9 89bc a024 99bb d161 89bc 74c2 603c
00000240: d82c 8b3b 345a 56bc c480 893c 1a1b 993c
00000250: dcdd e63b 403b 373b fae8 dbbb d40c cfbb
00000260: 0a81 8c3c bcd7 213c 69a4 80bc 605e 413c
00000270: 4038 5abb 6c1c 5d3c f7e2 23bc 1897 5e3b
00000280: 397e 27bc d0e2 a33c a065 513a 102c 5f3b
00000290: ec24 f3bb 109b 49bb 58a8 413b e8f1 df3b
000002a0: 60b1 95bb a018 7f3b 200d 183c f4d3 7bbc
000002b0: 70fb 603b f075 673b b041 853b e88a e93b
000002c0: e831 79bb 4008 aeba 2aa4 a3bc 5424 8c3c
000002d0: a094 8bbc b5aa 41bc 6e18 8ebc 0ef1 c5bb
000002e0: 22e9 81bc 141b 14bc 2dcc 9ebc 14be 283c
000002f0: 2140 8abc 30d7 9bba d2a5 28bc 123e 0f3c
00000300: 90d6 7c3c 5bbf 69bc 78ca 6cbb 7047 3b3b
00000310: 48e8 043b 9461 483c 93c1 1dbc 707d d63a
00000320: 8039 cd3b a0fa 3c3a d0cc 683c 7c58 623c
00000330: b83f 91bc 10ee c93b 302c 103c 5c99 87bc
00000340: b870 053b 5cec 853c 84d3 973c 1450 7e3c
00000350: c0bf 8f3c 8e54 8fbc 8c92 38bc b879 99bc
00000360: ce84 9a3c 2046 663c 4d5a 86bc 107c 223c
00000370: ec01 06bc 30ef b8ba 002c 7a38 34e6 493c
00000380: 569b 863c c413 d93b af08 9abc 1c08 dcbb
00000390: 86f0 63bc 1cbb 8f3c 60c4 313b c05c b3b9
000003a0: 81e7 a3bc 0c76 623c fc07 85bc d469 fcbb
000003b0: c6f5 5cbc e49b 753c 209d 90ba c819 edbb
000003c0: 380c 723b 2080 953b 271b 9bbc f6b9 1f3c
000003d0: 80e6 d239 8c1e 9cbc 52cc fcbb e8ea 5b3c
000003e0: 4001 7b3c 7801 423c f6c5 a93c 4879 df3b
000003f0: 2082 1fba 2240 85bc 4ddf 78bc a003 adbb

fc0.bias f4 [32]
-0.0079180105 0.017469488 0.015623353 -0.014317643 -0.020015199 -0.01444856 -0.0080651175 0.011079192
-0.007021876 0.003368765 8.7244436e-05 -0.0060719717 -0.005529876 -0.016265944 -0.014204274 0.01407484
0.018791933 0.0027216002 0.014566436 -0.010387977 -0.0040988326 0.019414209 -0.001017712 -0.017630776
-0.020720908 0.00066602044 -0.0137126595 -0.011988071 -0.0100275725 -0.009587463 -0.000932239 -0.017681135
00000000: 8bba 01bc 2c1c 8f3c 18f9 7f3c 8c94 6abc
00000010: eaf6 a3bc a7b9 6cbc 8e23 04bc 8085 353c
00000020: c417 e6bb 80c6 5c3b 00f7 b638 64f7 c6bb
00000030: f633 b5bb 2840 85bc 0bb9 68bc 289a 663c
00000040: 8af1 993c e05c 323b 10a8 6e3c 5532 2abc
00000050: 804f 86bb 8c0a 9f3c c064 85ba 6b6e 90bc
00000060: e5be a9bc e097 2e3a 10ab 60bc 9d69 44bc
00000070: b04a 24bc bc14 1dbc 8061 74ba 07d8 90bc

fc1.weight f4 [32, 32]
-0.12978652 -0.31581718 0.12408177 0.029950166 0.043328945 0.10820107 -0.19122596 0.024897879
-0.05885074 0.15360978 0.23569748 0.0089043705 -0.18122397 -0.24648753 0.15595701 0.09583911
0.27254125 -0.09891716 -0.07609007 -0.16010047 0.012320465 0.06710772 -0.25982255 -0.21506733
0.11341864 0.1019316 0.26376367 0.03431782 -0.1410469 0.17794552 -0.014841138 -0.03412483
0.015874181 -0.09315931 -0.14751269 0.08419657 0.011028178 -0.13312848 0.22048895 -0.12422428
0.1642986 -0.17977442 -0.21258472 -0.07792491 0.06401848 0.019758591 0.053464726 0.16626728
-0.0131966425 0.11504854 0.1363006 0.1723879 0.027340615 -0.11224565 0.17984551 -0.03594694
0.06773933 0.1619663 -0.11283907 -0.01694331 0.06094321 -0.08716027 0.20729075 0.072885714
0.22389367 0.13676684 -0.008874488 0.20072287 -0.13540614 -0.13456964 -0.06572057 0.097711705
-0.0077886297 -0.09672414 0.074917905 0.1553606 0.18297109 0.16069299 -0.101393625 0.08204329
0.12605193 0.20838842 0.058508314 0.1844814 0.119032845 0.20386387 0.10063621 0.07833714
0.11290786 -0.11096649 0.006927187 -0.09294512 0.24946536 0.05248111 0.17986836 0.17999709
0.015200099 0.0072925617 0.1237215 0.042786732 0.27179644 -0.08343112 0.1378781 -0.08033791
0.103018254 0.15852477 0.26059029 0.21002103 0.040987525 -0.09815707 0.24394925 0.059284933
0.21110594 -0.0708109 -0.1301019 0.13849252 -0.1460966 -0.14105451 -0.024503376 0.11771273
0.20055062 -0.015691046 0.09706789 0.0081848 -0.11353286 0.21133292 -0.098055385 -0.041311566
0.22167411 -0.07236709 -0.24591215 0.13398989 0.05847582 -0.12441811 0.0720053 0.058637846
0.13864145 -0.096317545 -0.17257442 0.064693496 -0.15795822 0.1943449 -0.07202781 -0.04174062
0.20329882 -0.028216366 0.22874925 -0.101453744 0.097308904 0.216793 0.09794013 -0.051173426
-0.031241015 0.06820846 0.12201147 -0.1213755 0.15625246 -0.1207597 -0.13166215 0.031367682
0.119733855 0.0028426514 0.0061832867 -0.09700368 0.16376688 0.02178292 0.1308884 -0.01638863
0.24226776 -0.17290084 -0.12794787 -0.05150154 -0.13593934 -0.0024193947 -0.13652554 -0.051080294
-0.085477784 0.07286298 0.14131081 0.03556199 0.06461406 0.10581989 0.19232965 0.1594124
0.07000615 -0.14296 0.14962566 0.1405558 0.05926018 0.038285293 -0.09161192 -0.07375588
-0.04751296 -0.14131834 -0.11692454 -0.12584889 -0.04164258 -0.092628375 -0.04318445 0.041483488
0.20587315 -0.0686937 -0.15551257 0.060283437 0.029133093 -0.03555063 -0.14475822 -0.12736154
-0.04211329 0.06094274 0.18353042 0.16353567 -0.021386549 -0.14338528 -0.115406215 0.16393283
0.16279182 0.06681341 0.09878569 0.12161412 -0.11563878 0.14189056 0.20269048 0.040475503
0.075736165 -0.07133968 0.07304694 0.1336997 0.03347317 0.1560849 -0.10750471 0.045453593
0.031879004 -0.20384096 0.10435526 0.025491994 -0.014427069 0.115909845 -0.08137837 -0.1178558
0.1539036 0.054191533 0.16696087 -0.038144723 -0.051611573 0.077120766 -0.0954617 0.20982136
-0.07185408 -0.15306649 -0.10834045 0.15463892 -0.079366215 -0.09719807 -0.06605548 0.16917385
00000000: c2e6 04be cab2 a1be 951e fe3d 0d5a f53c
00000010: b179 313d 8698 dd3d bdd0 43be a3f6 cb3c
00000020: 790d 71bd e24b 1d3e ae5a 713e a3e3 113c
00000030: c792 39be 3a67 7cbe 32b3 1f3e 4c47 c43d
00000040: 878a 8b3e 1495 cabd 1cd5 9bbd 61f1 23be
00000050: c7db 493c c66f 893d 7607 85be 9c3a 5cbe
00000060: 0848 e83d 84c1 d03d 080c 873e d890 0c3d
00000070: 996e 10be 5a37 363e 3f28 73bc 7ac6 0bbd
00000080: 920a 823c 4fca bebd 910d 17be 406f ac3d
00000090: 88af 343c d552 08be dbc7 613e 4d69 febd
000000a0: e43d 283e c916 38be cfaf 59be 1897 9fbd
000000b0: 1f1c 833d c5dc a13c d4fd 5a3d f841 2a3e
000000c0: bb36 58bc 929e eb3d 6292 0b3e 7486 303e
000000d0: 6df9 df3c 0ce1 e5bd 6c29 383e 193d 13bd
000000e0: ebba 8a3d 7eda 253e 2c18 e7bd b2cc 8abc
000000f0: 969f 793d 1581 b2bd 0744 543e 1b45 953d
00000100: 6244 653e 9b0c 0c3e 4d66 11bc 4c8a 4d3e
00000110: e8a7 0abe a0cc 09be 8298 86bd 131d c83d
00000120: c337 ffbb 4e17 c6bd 8f6e 993d d916 1f3e
00000130: c65c 3b3e b48c 243e 76a7 cfbd 5006 a83d
00000140: c213 013e c663 553e 6aa6 6f3d b1e8 3c3e
00000150: 7ec7 f33d b1c1 503e 5b1a ce3d 396f a03d
00000160: 3c3c e73d 6642 e3bd 75fd e23b 035a bebd
00000170: d973 7f3e 6ff6 563d 692f 383e 2851 383e
00000180: d609 793c 71f6 ee3b b361 fd3d 2441 2f3d
00000190: e728 8b3e efdd aabd eb2f 0d3e 3488 a4bd
000001a0: 3cfb d23d 5154 223e 176c 853e c10f 573e
000001b0: 89e2 273d 9306 c9bd d5cd 793e c2d4 723d
000001c0: 282c 583e 4e05 91bd 6f39 05be fcd0 0d3e
000001d0: 599a 15be 9870 10be 4ebb c8bc 5f13 f13d
000001e0: 245d 4d3e 828a 80bc 88cb c63d 8a19 063c
000001f0: eb83 e8bd a867 583e 43d1 c8bd 5136 29bd
00000200: 8afe 623e 3235 94bd 65d0 7bbe a534 093e
00000210: 5784 6f3d ecce febd 8477 933d 3d2e 703d
00000220: 06f8 0d3e 2242 c5bd 59b7 30be 067e 843d
00000230: cdbf 21be 5902 473e 5183 93bd 36f8 2abd
00000240: 912d 503e 0226 e7bc 3e3d 6a3e fbc6 cfbd
00000250: e449 c73d fcfe 5d3e d694 c83d 3a9b 51bd
00000260: 28ed ffbc e1b0 8b3d 26e1 f93d b893 f8bd
00000270: a500 203e dd50 f7bd 71d2 06be 667b 003d
00000280: 0637 f53d c74b 3a3b 2b9d ca3b dea9 c6bd
00000290: 81b2 273e 1872 b23c 9c07 063e 7341 86bc
000002a0: 0a15 783e eb0c 31be c404 03be 47f3 52bd
000002b0: af33 0bbe b58e 1ebb 5acd 0bbe 9239 51bd
000002c0: fa0e afbd 3039 953d c8b3 103e 73a9 113d
000002d0: 6054 843d 19b8 d83d 10f2 443e 013d 233e
000002e0: 625f 8f3d 1b64 12be 7837 193e dced 0f3e
000002f0: cdba 723d 0ad1 1c3d 089f bbbd 530d 97bd
00000300: f39c 42bd c1b5 10be 2276 efbd 88de 00be
00000310: 6991 2abd f2b3 bdbd 2ee2 30bd 97ea 293d
00000320: 69d0 523e 48af 8cbd b03e 1fbe c4eb 763d
00000330: 86a8 ee3c 8a9d 11bd 803b 14be 106b 02be
00000340: fc7e 2cbd 189f 793d 66ef 3b3e e575 273e
00000350: d832 afbc 97d3 12be 185a ecbd 02de 273e
00000360: e6b2 263e 78d5 883d 2750 ca3d d310 f93d
00000370: 06d4 ecbd c24b 113e 188e 4f3e a4c9 253d
00000380: 901b 9b3d 8a1a 92bd a299 953d 93e8 083e
00000390: 2a1b 093d b8d4 1f3e 6e2b dcbd 8c2d 3a3d
000003a0: 8f93 023d afbb 50be 36b8 d53d 96d4 d03c
000003b0: 835f 6cbc 2462 ed3d b4a9 a6bd 625e f1bd
000003c0: e898 1d3e f1f7 5d3d caf7 2a3e a43d 1cbd
000003d0: a866 53bd 7ef1 9d3d 6c81 c3bd 69db 563e
000003e0: 3b28 93bd 76bd 1cbe 99e1 ddbd aa59 1e3e
000003f0: c18a a2bd c80f c7bd 1848 87bd e93b 2d3e

fc1.bias f4 [32]
-0.068589024 0.13680597 0.29752418 0.13591348 -0.05594405 0.21928024 -0.07506529 0.22995435
-0.012250055 -0.09370099 0.1320196 0.0021440366 0.20243211 0.05217289 -0.081758 0.2534286
0.01950718 -0.028948832 -0.074544005 -0.12764284 0.25600275 0.2380258 0.24996397 -0.13479133
-0.17691202 0.05092671 -0.08031399 0.13429295 0.23657756 0.1330123 0.03759746 0.032098405
00000000: 6778 8cbd dd16 0c3e 1755 983e e72c 0b3e
00000010: 9725 65bd 008b 603e d5bb 99bd 2779 6b3e
00000020: 74b4 48bc 4ee6 bfbd 2530 073e f782 0c3b
00000030: 5d4a 4f3e 3eb3 553d bd70 a7bd 65c1 813e
00000040: 86cd 9f3c 1a26 edbc 87aa 98bd ceb4 02be
00000050: cb12 833e 09bd 733e 8ef6 7f3e bd06 0abe
00000060: 6d28 35be 8798 503d a97b a4bd 1784 093e
00000070: 6341 723e 6034 083e cbff 193d 9e79 033d

fc2.weight f4 [3, 32]
0.10545979 -0.048805043 -0.06345524 0.116203114 -0.03253184 -0.054860793 0.0094170375 -0.041887097
-0.043619078 -0.03141869 -0.052152365 0.0075410306 -0.0602749 -0.00587575 -0.026207756 -0.04841444
-0.026781432 0.0026486402 0.08045055 0.0002951902 -0.05509927 -0.056368493 -0.059897434 0.022550106
-0.0010068765 0.100966126 0.016840145 -0.05873046 -0.060004633 -0.06524171 -0.047440518 0.09648365
0.10733852 -0.07585486 -0.093886845 0.11047919 -0.064495884 -0.085585885 0.00061007164 -0.06526007
-0.067132756 -0.059486896 -0.083162814 -0.01730928 -0.08825817 -0.030745093 -0.053252183 -0.077089824
-0.059592873 0.016077204 0.10350123 -0.006141976 -0.080087595 -0.08059296 -0.083640255 0.0003928397
0.0005317953 0.08746997 -0.037734613 -0.08997436 -0.08832787 -0.09623199 -0.07593163 0.14128707
0.00025828896 -0.08968174 -0.100187875 0.020508412 -0.07401865 -0.09252911 -0.008546925 -0.07808159
-0.07806149 -0.069951884 -0.09462102 -0.018717883 -0.0953139 -0.04530558 -0.06075866 -0.0890562
-0.069683656 -0.029079827 -0.0093867695 -0.0027423454 -0.09254207 -0.094706655 -0.09725286 -0.013957014
0.0016962851 0.013636614 -0.00035678613 -0.101452805 -0.09994939 -0.10459324 -0.07993855 0.0058803214
00000000: 4dfb d73d cce7 47bd d2f4 81bd e6fb ed3d
00000010: 1b40 05bd b6b5 60bd eb49 1a3c ce91 2bbd
00000020: eba9 32bd e2b0 00bd b89d 55bd c01a f73b
00000030: d0e2 76bd 5d89 c0bb a6b1 d6bc 384e 46bd
00000040: bc64 dbbc cf94 2d3b 42c3 a43d c2c3 9a39
00000050: c6af 61bd a6e2 66bd 0357 75bd 00bb b83c
00000060: 2bf9 83ba 54c7 ce3d 58f4 893c 5a8f 70bd
00000070: 6bc7 75bd 729d 85bd fd50 42bd 3899 c53d
00000080: 4cd4 db3d cb59 9bbd bf47 c0bd ea42 e23d
00000090: 6b16 84bd a747 afbd 37ed 1f3a 12a7 85bd
000000a0: e67c 89bd 88a8 73bd 4451 aabd 31cc 8dbc
000000b0: b3c0 b4bd 22dd fbbc f61e 5abd 45e1 9dbd
000000c0: a817 74bd 57b4 833c 74f8 d33d a142 c9bb
000000d0: f704 a4bd ec0d a5bd 954b abbd 0df6 cd39
000000e0: 2e68 0b3a 7523 b33d 9c8f 1abd 7a44 b8bd
000000f0: 3ee5 b4bd 4715 c5bd 0b82 9bbd 8fad 103e
00000100: f56a 8739 0fab b7bd 4d2f cdbd 4201 a83c
00000110: 1797 97bd e77f bdbd 6708 0cbc 3ee9 9fbd
00000120: b4de 9fbd ef42 8fbd aac8 c1bd 3f56 99bc
00000130: ef33 c3bd 5892 39bd 13de 78bd 1963 b6bd
00000140: 4eb6 8ebd d138 eebc f7ca 19bc ecb8 33bb
00000150: b286 bdbd 90f5 c1bd 822c c7bd f6ab 64bc
00000160: e255 de3a 1b6c 5f3c 060f bbb9 7dc6 cfbd
00000170: 44b2 ccbd fb34 d6bd d3b6 a3bd b6af c03b

fc2.bias f4 [3]
-0.060649406 -0.047687974 0.26187778
00000000: 836b 78bd 7754 43bd d814 863e

road_emb.0.weight f4 [144]
1.1531271 0.9846594 1.0964609 0.99392796 1.000759 0.94993293 1.1080669 1.1177037
1.2344611 0.87717247 0.93525344 1.0391433 1.0536063 1.0015168 1.0876634 0.9055535
0.97724086 0.92924905 0.9943892 1.0363872 1.3097605 0.8563577 0.9617739 1.0016112
1.1768473 1.0117873 1.0145687 0.98958987 0.8554115 0.92239726 1.0739641 1.1075884
1.2995305 0.9445849 0.99055535 1.0467328 1.1831157 0.9969476 1.100979 0.82571703
1.0473573 0.9806711 1.2805547 1.025744 1.3256106 0.94397795 1.0221262 0.97114664
1.2165042 1.0070807 1.0190885 0.968714 0.8838855 0.9788298 1.0578339 1.0687256
1.3395859 0.8681606 0.9823834 0.9268226 1.1981192 1.0408415 1.0303563 0.8838071
0.9442217 1.0954129 1.1343021 1.0334276 1.3435692 0.98041403 1.0450956 0.9982352
1.1629704 1.0039552 1.135429 1.0269574 0.936972 1.0063472 0.98457485 1.0191648
1.3660932 0.9513697 1.0385343 1.1093723 1.2714978 1.089097 1.1373054 0.906552
0.9616456 0.9081318 1.1215295 0.96608317 1.2514005 0.9084396 1.0259233 1.163607
1.0565624 0.992699 1.1224055 0.9353875 0.86259407 0.9254547 1.1186548 0.99298763
1.3103888 0.9601049 0.9662114 1.1497768 1.1764672 0.91043085 0.99979436 1.0360755
0.92197895 1.0242715 0.9645459 1.0725194 1.3216676 0.9729631 1.1084684 1.0480964
1.0653756 0.9915479 1.0560417 0.99009866 1.0684946 1.0085421 0.97319794 1.0468206
1.3951696 0.9628169 1.1417451 1.0534601 1.2110311 1.0112262 0.99720615 0.9515828
1.0147862 1.0217174 0.94844407 1.0859675 1.331174 0.9770052 1.081199 1.0579752
00000000: ab99 933f a312 7c3f d558 8c3f 1072 7e3f
00000010: df18 803f ce2e 733f 23d5 8d3f ea10 8f3f
00000020: d202 9e3f 608e 603f c56c 6f3f a602 853f
00000030: 92dc 863f b431 803f 8e38 8b3f 5bd2 673f
00000040: 752c 7a3f 44e3 6d3f 4a90 7e3f 56a8 843f
00000050: 3ba6 a73f 423a 5b3f d036 763f cc34 803f
00000060: efa2 963f 3f82 813f 63dd 813f c355 7d3f
00000070: 40fc 5a3f 3a22 6c3f a877 893f 75c5 8d3f
00000080: 0457 a63f 51d0 713f 0995 7d3f 57fb 853f
00000090: 5670 973f f537 7f3f e1ec 8c3f 3162 533f
000000a0: ce0f 863f 430d 7b3f 37e9 a33f 944b 833f
000000b0: 9cad a93f 8aa8 713f 08d5 823f 119d 783f
000000c0: 69b6 9b3f 05e8 803f 7e71 823f a4fd 773f
000000d0: 5246 623f 9794 7a3f 1a67 873f 00cc 883f
000000e0: 8d77 ab3f c63f 5e3f 7a7d 7b3f 3f44 6d3f
000000f0: f85b 993f 4b3a 853f b7e2 833f 2f41 623f
00000100: 83b8 713f 7d36 8c3f d030 913f 5b47 843f
00000110: 13fa ab3f 6afc 7a3f b1c5 853f 588c 7f3f
00000120: 37dc 943f 9b81 803f bd55 913f 5773 833f
00000130: 66dd 6f3f fccf 803f 190d 7c3f fe73 823f
00000140: 24dc ae3f f78c 733f b1ee 843f e9ff 8d3f
00000150: 71c0 a23f 8867 8b3f 3993 913f cb13 683f
00000160: 682e 763f 537b 683f 478e 8f3f 3a51 773f
00000170: e42d a03f 7f8f 683f 7451 833f 13f1 943f
00000180: 703d 873f 8621 7e3f fcaa 8f3f 8e75 6f3f
00000190: f7d2 5c3f 99ea 6c3f 1530 8f3f 7034 7e3f
000001a0: d2ba a73f 6fc9 753f a159 773f e32b 933f
000001b0: 7a96 963f ff11 693f 86f2 7f3f 1f9e 843f
000001c0: d006 6c3f 541b 833f 7bec 763f 5148 893f
000001d0: 672c a93f 1c14 793f 4be2 8d3f 0628 863f
000001e0: 3a5e 883f 15d6 7d3f 602c 873f 1b77 7d3f
000001f0: 6ec4 883f e817 813f 8023 793f 38fe 853f
00000200: eb94 b23f 2b7b 763f b424 923f c8d7 863f
00000210: 1103 9b3f dc6f 813f e748 7f3f ee9a 733f
00000220: 84e4 813f a3c7 823f 3bcd 723f fc00 8b3f
00000230: e963 aa3f 031d 7a3f bb64 8a3f bb6b 873f

road_emb.0.bias f4 [144]
0.03464506 0.068775594 0.016187206 0.06989286 0.051611044 0.056117054 0.07284203 0.11098401
0.01819726 -0.14282858 0.13190198 0.04780498 0.086129874 0.051651496 0.02710147 0.12562081
0.082627855 0.05425121 0.05895919 0.061430607 0.019809682 -0.16327716 0.055840723 0.041286472
0.03121826 0.059426315 0.17948106 0.037610013 0.16858083 0.14181007 0.040681724 0.11795788
0.015013653 -0.08557117 0.09994023 0.04511382 0.020436563 0.06398592 0.08819889 0.175709
0.032952216 0.048027135 0.023630498 0.1423633 -0.021915114 -0.045353957 0.060408156 0.07219544
0.053060144 0.08054117 0.081685945 0.056905795 0.12714794 0.03616543 0.09803134 0.13438642
0.010353772 -0.15726459 0.06398576 0.093165 0.036830533 0.059852205 0.10659623 0.11107324
0.07580351 0.022096097 0.042570464 0.120010436 -0.018898632 -0.009034541 0.09372626 0.037979856
0.13543725 0.061704293 0.03684212 0.061991278 0.1102291 0.05086333 0.09343376 0.08010727
0.020152198 -0.047743622 0.03772409 0.05378021 0.047990628 0.054327533 0.031310137 0.10475759
0.05025974 0.08880265 0.018068662 0.1498799 0.020874526 -0.11259107 0.030345729 0.03565998
0.07753186 0.04811677 0.06264945 0.048324205 0.21575868 0.11561537 0.033330485 0.14489356
0.01827747 -0.039016068 0.15198912 0.01784371 0.05602183 0.13115105 0.1292291 0.016125418
0.12357085 0.014844939 0.12607856 0.030431574 0.008910628 -0.01909565 0.012875753 0.025034396
0.14030384 0.06881766 0.067209 0.04214549 0.014222633 0.030303396 0.08836055 0.12510076
0.00902452 -0.031422116 0.08620343 0.057075083 0.096928984 0.052533682 0.12819621 0.029136825
0.023116961 0.061254457 0.0979368 0.044827614 0.016392719 -0.018913774 0.047165338 0.0227415
00000000: fae7 0d3d 38da 8c3d 089b 843c fd23 8f3d
00000010: 1a66 533d ffda 653d 342e 953d 964b e33d
00000020: 6c12 953c a841 12be 5011 073e 28cf 433d
00000030: dc64 b03d 8590 533d e703 de3c bea2 003e
00000040: cb38 a93d 8436 5e3d 317f 713d a99e 7b3d
00000050: ea47 a23c 2132 27be 3eb9 643d 011c 293d
00000060: 70bd ff3c 0269 733d e2c9 373e f50c 1a3d
00000070: 74a0 2c3e a936 113e e1a1 263d e793 f13d
00000080: d3fb 753c f03f afbd 77ad cc3d 45c9 383d
00000090: 946a a73c 0d0b 833d 9fa1 b43d 0fed 333e
000000a0: e7f8 063d 1ab8 443d bf94 c13c afc7 113e
000000b0: 5387 b3bc 12c5 39bd 8b6e 773d 34db 933d
000000c0: 9855 593d c5f2 a43d f64a a73d 0d16 693d
000000d0: 1233 023e 3422 143d a8c4 c83d 989c 093e
000000e0: dea2 293c f809 21be f70a 833d 4bcd be3d
000000f0: 9ddb 163d 9627 753d 204f da3d 5e7a e33d
00000100: df3e 9b3d e002 b53c 5e5e 2e3d 08c8 f53d
00000110: 4ed1 9abc 9d05 14bc 8ef3 bf3d c490 1b3d
00000120: 10b0 0a3e a4bd 7c3d c3e7 163d 91ea 7d3d
00000130: cbbf e13d 1156 503d 335a bf3d 480f a43d
00000140: 3916 a53c d18e 43bd 9384 1a3d a348 5c3d
00000150: d291 443d 8c86 5e3d 0f3f 003d 268b d63d
00000160: 28dd 4d3d 2ade b53d bb04 943c 1e7a 193e
00000170: 0e01 ab3c 2696 e6bd 9b97 f83c 3310 123d
00000180: 06c9 9e3d 1716 453d 5b4e 803d 9aef 453d
00000190: d8ef 5c3e c0c7 ec3d 8c85 083d fa5e 143e
000001a0: a2ba 953c 50cf 1fbd 09a3 1b3e f92c 923c
000001b0: 2577 653d 764c 063e a254 043e 7419 843c
000001c0: b712 fd3d 3038 733c bd1a 013e a34b f93c
000001d0: e2fd 113c 7b6e 9cbc d3f4 523c ef14 cd3c
000001e0: cfab 0f3e 46f0 8c3d dfa4 893d c0a0 2c3d
000001f0: 0c06 693c d43e f83c 60f6 b43d 6a1a 003e
00000200: 95db 133c 7ab4 00bd 6d8b b03d 90c7 693d
00000210: b482 c63d 8f2d 573d de45 033e 5ab0 ee3c
00000220: c85f bd3c f4e5 7a3d 1793 c83d 299d 373d
00000230: 064a 863c 0ff1 9abc 7130 413d 624c ba3c

road_emb.1.weight f4 [64, 144]
-0.1099641 -0.01888975 -0.39842913 0.050431933 0.008449817 0.035359524 0.104769565 0.0847629
0.14756392 -0.09567839 0.091472514 -0.06184232 -0.054236136 0.01009822 -0.18275264 -0.08980625
0.13059577 -0.0978758 0.22932364 0.0033930207 0.008558028 0.09333143 0.085570835 -0.0068581365
-0.12222997 0.11977047 -0.2566612 0.28295553 -0.02570968 -0.022178708 0.099146076 0.09963965
0.06297742 -0.08863523 0.13079678 0.049735513 -0.30143267 0.07794004 -0.09403294 -0.16287754
-0.13723843 0.01976835 0.17683634 -0.022677673 -0.10445902 0.19915575 -0.13966027 0.008901318
0.027989263 0.032860074 0.0311488 0.07658645 -0.060279142 -0.1597774 0.039524496 -0.14860651
-0.23251198 -0.018279785 0.019884186 -0.08773136 -0.009733775 0.07308979 -0.03599932 0.01151815
0.14888746 0.1318345 -0.28685778 -0.18553795 -0.09786807 -0.15326455 0.10431727 -0.22001486
-0.17874958 0.15081322 -0.09873166 0.06002659 0.044782214 0.07586031 0.13126096 -0.15340234
-0.01873328 0.14460996 0.012806345 -0.43405855 0.11468229 -0.002473193 -0.15790328 -0.054330736
0.07939134 0.3074175 -0.11677278 -0.10211691 -0.25785533 -0.024472708 0.13010713 -0.034459516
-0.08573901 0.120689735 -0.22252478 -0.10131451 -0.13411035 -0.018289736 0.05759334 -0.15741014
0.094749175 0.25308922 0.17467739 -0.08998419 -0.066061385 0.25783485 -0.15572807 -0.07650051
-0.11939142 -0.013237987 -0.17683868 -0.12350192 -0.053835187 0.09282934 -0.010650777 0.051985063
-0.07194518 -0.0039095217 0.124661565 -0.008860177 -0.056686975 -0.081104994 0.006518648 -0.04110089
0.08863429 -0.05811045 -0.087078385 0.12873502 -0.060760297 0.12119845 0.051020198 -0.088471934
0.058124132 0.2564467 0.16807109 -0.17359628 -0.037517212 0.054127835 -0.2829626 0.055522904
-0.10610423 0.082713634 -0.45438898 0.08489477 0.028034149 0.06414109 0.19607654 -0.012914414
0.13791832 0.11160443 0.028540023 0.026870891 -0.06071859 0.016191447 -0.35402456 -0.07022577
-0.06668764 0.1050258 0.1261951 -0.19715884 0.06285247 -0.1988032 0.06628473 -0.21536784
-0.026610564 -0.120953135 -0.17230366 0.14010471 0.13293311 0.032070994 -0.053887118 -0.13666327
0.35871288 -0.006777308 0.12276373 -0.06172185 -0.0942628 0.03696109 -0.031007966 0.21777824
0.048248146 0.07172987 -0.09550417 -0.17890115 0.13618125 -0.08240214 -0.2416378 -0.044347387
-0.2539973 0.17462437 0.06788511 0.13250378 0.17465085 0.035350244 -0.06139253 -0.27974707
0.20028116 0.11141656 -0.07862222 -0.025180932 0.103527874 0.015735105 -0.03833606 0.085539445
-3.74041e-05 0.09957024 0.20489219 -0.08013632 0.37116632 -0.08680398 -0.05303378 -0.013757904
-0.13874397 -0.013896899 -0.30619144 0.06078493 0.026555005 0.020244353 0.1255661 0.07861497
0.30679497 0.109154925 -0.0173455 -0.067554004 -0.15823074 0.13462552 -0.1329145 0.016424172
0.04472639 -0.082618505 -0.22742653 -0.16519473 0.29744008 0.17323829 -0.13267447 -0.14255063
-0.09429336 -0.081170335 -0.16217278 -0.1845339 -0.16181499 -0.1702658 0.10012072 0.08356454
0.20567732 0.05326402 -0.19859175 -0.310125 -0.39086154 0.20810236 -0.34535077 0.018161243
00000000: dc34 e1bd adbe 9abc e7fe cbbe b791 4e3d
00000010: 1a71 0a3c 26d5 103d 6d91 d63d 2c98 ad3d
00000020: ff1a 173e 08f3 c3bd f155 bb3d 5f4e 7dbd
00000030: b626 5ebd 0173 253c 8223 3bbe 57ec b7bd
00000040: e6ba 053e 1c73 c8bd d1d3 6a3e 715d 5e3b
00000050: f936 0c3c 8c24 bf3d c33f af3d 38ba e0bb
00000060: b553 fabd 384a f53d 1969 83be 8cdf 903e
00000070: 1b9d d2bc 1fb0 b5bc 190d cb3d df0f cc3d
00000080: 4efa 803d 6386 b5bd 97ef 053e 77b7 4b3d
00000090: 6255 9abe 079f 9f3d 5894 c0bd 5fc9 26be
000000a0: 3b88 0cbe 3cf1 a13c 9614 353e 87c6 b9bc
000000b0: 9cee d5bd 7cef 4b3e 1a03 0fbe d5d6 113c
000000c0: bd49 e53c 4998 063d c52b ff3c 5bd9 9c3d
000000d0: 43e7 76bd b09c 23be 70e4 213d 4e2c 18be
000000e0: 9f17 6ebe 7dbf 95bc 29e4 a23c 80ac b3bd
000000f0: 697a 1fbc 1ab0 953d 0674 13bd 9fb6 3c3c
00000100: f475 183e a0ff 063e 06df 92be a9fd 3dbe
00000110: 0e6f c8bd 62f1 1cbe 4ba4 d53d 934b 61be
00000120: 210a 37be c86e 1a3e d333 cabd 71de 753d
00000130: 8e6d 373d a65c 9b3d 4669 063e 8115 1dbe
00000140: 8976 99bc a214 143e b4d1 513c ec3c debe
00000150: 8cde ea3d 4b15 22bb 66b1 21be e889 5ebd
00000160: ed97 a23d d465 9d3e 9126 efbd ac22 d1bd
00000170: 9d05 84be fd7a c8bc ce3a 053e 6c25 0dbd
00000180: ef97 afbd 2e2c f73d 89dd 63be fb7d cfbd
00000190: 3954 09be 5bd4 95bc fee6 6b3d 2030 21be
000001a0: db0b c23d e994 813e a1de 323e a249 b8bd
000001b0: 314b 87bd ee02 843e 2e77 1fbe 4dac 9cbd
000001c0: 7d83 f4bd 24e4 58bc 3315 35be 93ee fcbd
000001d0: 4982 5cbd 4f1d be3d 9980 2ebc 4aee 543d
000001e0: ff57 93bd 721b 80bb 904e ff3d 472a 11bc
000001f0: 9a30 68bd 601a a6bd 629a d53b 6859 28bd
00000200: e585 b53d 3905 6ebd 2756 b2bd 1dd3 033e
00000210: cadf 78bd e536 f83d 8efa 503d c630 b5bd
00000220: 9213 6e3d fb4c 833e d41a 2c3e 39c3 31be
00000230: a6ab 19bd 26b5 5d3d 79e0 90be fc6b 633d
00000240: 2d4d d9bd c465 a93d aca5 e8be 4fdd ad3d
00000250: dfa7 e53c 675c 833d 4ac8 483e fa96 53bc
00000260: 763a 0d3e dd90 e43d c4cc e93c 5820 dc3c
00000270: 0eb4 78bd eda3 843c b542 b5be 87d2 8fbd
00000280: 8893 88bd c417 d73d 4a39 013e 02e4 49be
00000290: ccb8 803d 1193 4bbe 4ac0 873d 6389 5cbe
000002a0: 66fe d9bc 47b6 f7bd 5f70 30be 9c77 0f3e
000002b0: 9e1f 083e e05c 033d bdb8 5cbd 75f1 0bbe
000002c0: 37a9 b73e 2e14 debb 8d6b fb3d 0dd0 7cbd
000002d0: db0c c1bd 8364 173d 6b04 febc 4201 5f3e
000002e0: d99f 453d 1ce7 923d b197 c3bd dd31 37be
000002f0: 1973 0b3e 74c2 a8bd e66f 77be 9ba5 35bd
00000300: ef0b 82be bbd0 323e 5907 8b3d 12af 073e
00000310: acd7 323e 6bcb 103d bc76 7bbd 023b 8fbe
00000320: 8116 4d3e 5e2e e43d b004 a1bd 3e48 cebc
00000330: 6c06 d43d e8e6 803c 4606 1dbd 4e2f af3d
00000340: 59e2 1cb8 7beb cb3d 42cf 513e 831e a4bd
00000350: 8309 be3e 49c6 b1bd f339 59bd d568 61bc
00000360: e612 0ebe d2af 63bc 20c5 9cbe 9ef9 783d
00000370: e289 d93c 7cd7 a53c 6694 003e e300 a13d
00000380: 3b14 9d3e 9e8c df3d 2618 8ebc c159 8abd
00000390: 3d07 22be 46db 093e bd1a 08be fc8b 863c
000003a0: 0533 373d e433 a9bd 80e2 68be cf28 29be
000003b0: 114a 983e 6165 313e d1db 07be cbf8 11be
000003c0: e11c c1bd a23c a6bd 9f10 26be 74f6 3cbe
000003d0: d4b2 25be 285a 2ebe 180c cd3d e323 ab3d
000003e0: 139d 523e 5f2b 5a3d a35b 4bbe b4c8 9ebe
000003f0: 011f c8be c918 553e d1d1 b0be e3c6 943c

road_emb.1.bias f4 [64]
0.012555875 0.0042213863 -0.023046762 0.026490206 0.009945031 0.00028521204 0.0026733028 0.01592795
0.012803221 0.031406354 -0.013752372 -0.015198156 -0.0013124377 0.0029284337 0.018065304 0.0054412247
-0.03170791 -0.04324706 -0.021543931 0.01934344 0.012060123 -0.04582415 0.032157183 -0.016571157
-0.014458859 0.005152644 0.028174456 0.0074452143 0.0012637913 0.0059734965 0.013805959 0.018366909
0.025235942 0.022488365 0.034249622 0.01679076 -0.005250242 0.020021953 0.02855543 0.0155738965
-0.0042004664 0.004339345 -0.0031954919 0.011892754 0.025477666 0.015412066 0.00014168788 0.0155501515
0.014456598 -0.0021986899 -0.0064454554 0.0029630382 0.012860787 0.008585099 -0.005413613 0.011097789
0.0068557994 -0.050397914 0.012165553 0.009368741 0.0013478784 0.067680135 0.006209657 0.08610912
00000000: 28b7 4d3c 8e53 8a3b 90cc bcbc fd01 d93c
00000010: 7cf0 223c 8388 9539 9432 2f3b 557b 823c
00000020: 9ac4 513c f3a3 003d a151 61bc b001 79bc
00000030: 1a06 acba f7ea 3f3b b0fd 933c 4d4c b23b
00000040: 27e0 01bd d423 31bd e67c b0bc 2276 9e3c
00000050: d297 453c 1bb2 3bbd 40b7 033d 3cc0 87bc
00000060: dae4 6cbc 83d7 a83b 1ece e63c fcf6 f33b
00000070: cda5 a53a 52bd c33b 6432 623c 3376 963c
00000080: 9bbb ce3c 8539 b83c 5549 0c3d c78c 893c
00000090: 390a acbb 1405 a43c 14ed e93c a829 7f3c
000000a0: 11a4 89bb 1031 8e3b 756b 51bb d3d9 423c
000000b0: 8ab6 d03c e482 7c3c 0d92 1439 10c6 7e3c
000000c0: 5edb 6c3c e517 10bb 6634 d3bb 882f 423b
000000d0: 0db6 523c 84a8 0c3c ad64 b1bb 80d3 353c
000000e0: 9da6 e03b 0b6e 4ebd 0752 473c 597f 193c
000000f0: 4bab b03a e29b 8a3d 617a cb3b fa59 b03d

cav_emb.0.weight f4 [11]
1.0262089 0.89692575 0.89787024 1.022723 1.3045458 1.2171109 1.112066 0.94475836
1.0059069 0.8418226 0.9913464
00000000: d05a 833f ed9c 653f d3da 653f 96e8 823f
00000010: 5bfb a63f 4aca 9b3f 2e58 8e3f afdb 713f
00000020: 8fc1 803f b081 573f e1c8 7d3f

cav_emb.0.bias f4 [11]
-0.0059199017 -0.062427357 -0.0027531954 0.073212154 -0.025794726 0.08221186 0.036679592 0.0817291
0.06522437 -0.10938782 -0.06428375
00000000: bcfb c1bb d4b3 7fbd f46e 34bb 41f0 953d
00000010: 764f d3bc b15e a83d 573d 163d 9661 a73d
00000020: 5b94 853d b906 e0bd 33a7 83bd

cav_emb.1.weight f4 [64, 11]
-0.15319018 0.03386057 0.011041104 -0.09019397 0.67310405 -0.30820984 0.14957987 0.10865271
0.010658202 -0.09342064 0.038008023 -0.11002642 -0.13009207 -0.28826725 -0.18057935 -0.48010615
0.07493561 -0.016072536 0.009292264 0.20049067 -0.08869521 0.190877 -0.040686738 -0.12025035
-0.05796463 -0.14564715 0.54483336 0.16684271 -0.14531648 -0.1732565 0.2523978 -0.25856754
0.43613335 0.12290359 -0.067378655 -0.07413579 -0.35265326 -0.52438086 0.84980375 -0.15450935
-0.09135742 -0.0707654 -0.06843709 -0.13540864 -0.2552933 0.1375975 -0.10680639 -0.059111346
-0.16791818 -0.01992296 0.11362473 0.07630221 -0.06699707 0.11015228 0.27550367 -0.20102683
-0.06960417 0.38235137 -0.059502203 0.15014972 0.028128287 -0.14789076 -0.24357615 -0.029244
0.027093582 -0.082763754 -0.18543538 -0.116067536 -0.026970416 -0.37262848 0.22204046 -0.09359157
-0.20581545 0.28791687 -0.0862834 -0.09305072 -0.115524784 0.33990237 -0.040793754 -0.14081733
0.19572072 -0.2559609 -0.16191266 0.48135865 -0.21170822 0.19713171 -0.23346657 -0.22830297
-0.15076713 -0.15128587 0.045898948 0.1484139 0.42348063 -0.18644617 -0.33484125 0.026801594
0.16178855 0.18491228 0.2349767 -0.42024812 -0.008935814 -0.1562496 0.20164989 -0.66093946
-0.1910187 0.1754524 0.040955685 -0.20451733 0.17136472 0.4030093 -0.0750057 -0.004625616
0.023497755 -0.06640875 0.68621427 -0.19850667 0.14966175 -0.0716737 -0.00937412 -0.092327066
0.07766932 0.029782567 -0.2287509 -0.13444895 0.0005270004 -0.49980286 -0.07556423 0.26681948
-0.06130957 0.21523759 0.2629791 0.15748322 -0.09707791 0.0053382125 0.015695782 -0.15663315
0.47734216 0.08273696 -0.13544986 0.17328449 -0.09705584 -0.20418166 0.2208735 -0.1757603
-0.07441902 0.030271187 -0.24644713 0.3309415 -0.1672559 -0.14037652 -0.12812467 0.09705914
-0.08135238 0.06224525 -0.20788191 -0.15590617 0.27356702 -0.01655082 0.41168797 0.039751206
0.26003605 -0.04309653 -0.031740613 0.5108659 -0.001144158 -0.3033233 -0.18570425 0.022357402
0.047610715 -0.03315768 -0.11104136 0.0243587 -0.08457264 -0.080829635 -0.29972723 0.5349705
-0.0072472473 -0.08973594 -0.02501763 -0.19999386 -0.31454843 0.54545975 -0.27686888 -0.019528368
0.005312633 0.1822834 -0.4193032 0.218727 -0.044010438 -0.18099071 0.21808709 -0.15770361
0.030304916 0.15512334 -0.14891692 -0.21055129 -0.14187798 -0.08855307 0.17778383 -0.14162914
0.05439571 -0.2198475 0.27758443 0.012223407 -0.16069159 0.34720075 0.29125682 0.069609575
0.23517597 -0.095212154 0.13982157 0.03541892 -0.028245823 0.11622803 0.043218248 0.27836755
-0.08110381 -0.12102675 0.17392041 0.17740576 -0.32996014 -0.2802403 -0.19079128 0.02391478
-0.69450307 0.74163276 0.14361179 0.05671112 -0.11404031 -0.2138099 -0.2563331 -0.12242145
-0.15834703 0.23994012 0.056066208 0.597282 -0.390258 -0.2802152 0.27296168 0.12054079
-0.11085096 -0.05690323 -0.050531372 -0.13753691 0.03144992 0.11235454 -0.1390224 -0.10611628
-0.49857572 0.1281006 0.18985014 0.086941466 0.16062918 -0.00094291836 -0.18859315 0.2412182
00000000: e3dd 1cbe 62b1 0a3d bfe5 343c 9eb7 b8bd
00000010: 8c50 2c3f aecd 9dbe 772b 193e 5085 de3d
00000020: bd9f 2e3c 5253 bfbd 4dae 1b3d 8855 e1bd
00000030: db36 05be c497 93be cbe9 38be 79d0 f5be
00000040: d777 993d 8daa 83bc 943e 183c 6d4d 4d3e
00000050: d6a5 b5bd 4375 433e 23a7 26bd d145 f6bd
00000060: 526c 6dbd 8724 15be 337a 0b3f d1d8 2a3e
00000070: d8cd 14be 276a 31be 493a 813e f762 84be
00000080: df4c df3e e1b4 fb3d d2fd 89bd 81d4 97bd
00000090: f88e b4be d33d 06bf bd8c 593f b337 1ebe
000000a0: 9919 bbbd 73ed 90bd bf28 8cbd 90a8 0abe
000000b0: ceb5 82be 5ce6 0c3e 4fbd dabd bd1e 72bd
000000c0: bef2 2bbe 7a35 a3bc 15b4 e83d 5544 9c3d
000000d0: c335 89bd 8597 e13d d10e 8d3e fad9 4dbe
000000e0: a28c 8ebd 8fc3 c33e 95b8 73bd d9c0 193e
000000f0: 4b6d e63c ad70 17be 076c 79be 1d91 efbc
00000100: 5cf3 dd3c 0b80 a9bd c6e2 3dbe d1b4 edbd
00000110: 10f1 dcbc 29c9 bebe 935e 633e f0ac bfbd
00000120: 49c1 52be d769 933e 5ab5 b0bd 6091 bebd
00000130: 4298 ecbd af07 ae3e 5a17 27bd 6b32 10be
00000140: 036b 483e 4f0d 83be 6fcc 25be a474 f63e
00000150: 0aca 58be e5dc 493e dc11 6fbe 41c8 69be
00000160: b362 1abe afea 1abe 8900 3c3d d0f9 173e
00000170: 74d2 d83e bfeb 3ebe 5070 abbe 048f db3c
00000180: e6ab 253e a559 3d3e bb9d 703e c32a d7be
00000190: 8567 12bc e5ff 1fbe 4f7d 4e3e 5433 29bf
000001a0: 689a 43be cba9 333e 26c1 273d fe6c 51be
000001b0: 3c7a 2f3e 3c57 ce3e 979c 99bd 7b92 97bb
000001c0: 5d7e c03c 5001 88bd bdab 2f3f 5545 4bbe
000001d0: ee40 193e a9c9 92bd e995 19bc f915 bdbd
000001e0: 1811 9f3d 92fa f33c ad3d 6abe fcac 09be
000001f0: 6626 0a3a 29e6 ffbe 6bc1 9abd 909c 883e
00000200: be1f 7bbd 3e67 5c3e 32a5 863e 4843 213e
00000210: c9d0 c6bd 2cec ae3b 7194 803c 7164 20be
00000220: 3166 f43e ff71 a93d 5eb3 0abe 7d71 313e
00000230: 36c5 c6bd ff14 51be aa2c 623e 82fa 33be
00000240: 0069 98bd 48fb f73c a35c 7cbe 2a71 a93e
00000250: 2145 2bbe ddbe 0fbe 1d33 03be f1c6 c63d
00000260: 149c a6bd e0f4 7e3d ffde 54be dea5 1fbe
00000270: fa10 8c3e 9695 87bc c4c8 d23e 29d2 223d
00000280: 7223 853e fd85 30bd 7202 02bd 1cc8 023f
00000290: 92f7 95ba 314d 9bbe 4129 3ebe df26 b73c
000002a0: 7403 433d 59d0 07bd a769 e3bd e58b c73c
000002b0: 6c34 adbd 028a a5bd d975 99be d4f3 083f
000002c0: 517a edbb 7ac7 b7bd c6f1 ccbc 31cb 4cbe
000002d0: 7e0c a1be 40a3 0b3f c2c1 8dbe f5f9 9fbc
000002e0: 9815 ae3b 80a8 3a3e e9ae d6be f8f9 5f3e
000002f0: 4a44 34bd a155 39be 3952 5f3e 0e7d 21be
00000300: 0442 f83c a7d8 1e3e ad7d 18be c29a 57be
00000310: 7648 11be 505b b5bd f70c 363e 3b07 11be
00000320: 09ce 5e3d b41f 61be 8c1f 8e3e af44 483c
00000330: 568c 24be 4cc4 b13e 9d1f 953e 778f 8e3d
00000340: f8d1 703e 97fe c2bd 632d 0f3e 6e13 113d
00000350: c963 e7bc f608 ee3d 9e05 313d 3186 8e3e
00000360: c119 a6bd dfdc f7bd 3118 323e dba9 353e
00000370: 89f0 a8be a87b 8fbe ca5e 43be eee8 c33c
00000380: f4ca 31bf a5db 3d3f f80e 133e eb49 683d
00000390: f78d e9bd fcf0 5abe 183e 83be 19b8 fabd
000003a0: b925 22be ddb2 753e aea5 653d 79e7 183f
000003b0: e6cf c7be 5e78 8fbe a2c1 8b3e 17de f63d
000003c0: d405 e3bd 5c13 69bd fcf9 4ebd 7ad6 0cbe
000003d0: a2d1 003d 231a e63d e35b 0ebe 7e53 d9bd
000003e0: 5145 ffbe ce2c 033e 1368 423e 5e0e b23d
000003f0: fa7b 243e 2e2e 77ba 901e 41be e701 773e

cav_emb.1.bias f4 [64]
0.014526139 0.0722761 0.003715076 0.121210545 0.09271414 -0.013929599 0.0074897935 0.06323
-0.021811841 0.14433011 -0.05515238 0.053959128 0.005900354 -0.053477254 0.046268307 0.03889726
0.04904798 0.025251772 -0.04387161 -0.04567491 -0.037120037 -0.00532646 -0.04629224 0.040272616
0.010438482 -0.01040688 -0.0640973 0.029050155 -0.04458104 0.026203962 -0.069848664 0.016621957
0.022782806 0.019765843 0.012255237 -0.01162197 -0.061232354 -0.04065668 0.0371135 0.008940794
-0.050080433 0.10650738 0.012766127 0.0765887 0.018384345 0.038803674 -0.0023882836 0.03688054
0.0425704 -0.0150562385 0.07206014 0.026855625 0.04020257 -0.05547459 -0.03867364 0.0038040606
-0.02474349 -0.00081331294 0.024807002 -0.049779966 0.023419153 -0.069147065 0.06439713 -0.046895165
00000000: 0bff 6d3c 7e05 943d a278 733b 3c3d f83d
00000010: e9e0 bd3d f938 64bc f16c f53b bb7e 813d
00000020: bfae b2bc 46cb 133e 76e7 61bd 3f04 5d3d
00000030: c257 c13b f70a 5bbd d683 3d3d bc52 1f3d
00000040: 89e6 483d cedc ce3c b8b2 33bd 9d15 3bbd
00000050: 2e0b 18bd 9689 aebb ef9c 3dbd e6f4 243d
00000060: 2b06 2b3c 9e81 2abc 7245 83bd 97fa ed3c
00000070: 9c9a 36bd b1a9 d63c d10c 8fbd c52a 883c
00000080: 02a3 ba3c faeb a13c 31ca 483c 136a 3ebc
00000090: c7ce 7abd 9e87 26bd 5304 183d 687c 123c
000000a0: 2421 4dbd 8b20 da3d 0429 513c 89da 9c3d
000000b0: c49a 963c 9af0 1e3d c084 1cbb 0d10 173d
000000c0: 4d5e 2e3d 71ae 76bc 4494 933d 5400 dc3c
000000d0: 73ab 243d 5339 63bd 4068 1ebd 8c4d 793b
000000e0: dcb2 cabc 8234 55ba 0e38 cb3c 14e6 4bbd
000000f0: 86d9 bf3c fa9c 8dbd a4e2 833d 2515 40bd

att.mask f4 [1, 1, 145, 145]
1.0 0.0 0.0 0.0 0.0 0.0 0.0 0.0
0.0 0.0 0.0 0.0 0.0 0.0 0.0 0.0
0.0 0.0 0.0 0.0 0.0 0.0 0.0 0.0
0.0 0.0 0.0 0.0 0.0 0.0 0.0 0.0
0.0 0.0 0.0 0.0 0.0 0.0 0.0 0.0
0.0 0.0 0.0 0.0 0.0 0.0 0.0 0.0
0.0 0.0 0.0 0.0 0.0 0.0 0.0 0.0
0.0 0.0 0.0 0.0 0.0 0.0 0.0 0.0
0.0 0.0 0.0 0.0 0.0 0.0 0.0 0.0
0.0 0.0 0.0 0.0 0.0 0.0 0.0 0.0
0.0 0.0 0.0 0.0 0.0 0.0 0.0 0.0
0.0 0.0 0.0 0.0 0.0 0.0 0.0 0.0
0.0 0.0 0.0 0.0 0.0 0.0 0.0 0.0
0.0 0.0 0.0 0.0 0.0 0.0 0.0 0.0
0.0 0.0 0.0 0.0 0.0 0.0 0.0 0.0
0.0 0.0 0.0 0.0 0.0 0.0 0.0 0.0
0.0 0.0 0.0 0.0 0.0 0.0 0.0 0.0
0.0 0.0 0.0 0.0 0.0 0.0 0.0 0.0
0.0 1.0 1.0 0.0 0.0 0.0 0.0 0.0
0.0 0.0 0.0 0.0 0.0 0.0 0.0 0.0
0.0 0.0 0.0 0.0 0.0 0.0 0.0 0.0
0.0 0.0 0.0 0.0 0.0 0.0 0.0 0.0
0.0 0.0 0.0 0.0 0.0 0.0 0.0 0.0
0.0 0.0 0.0 0.0 0.0 0.0 0.0 0.0
0.0 0.0 0.0 0.0 0.0 0.0 0.0 0.0
0.0 0.0 0.0 0.0 0.0 0.0 0.0 0.0
0.0 0.0 0.0 0.0 0.0 0.0 0.0 0.0
0.0 0.0 0.0 0.0 0.0 0.0 0.0 0.0
0.0 0.0 0.0 0.0 0.0 0.0 0.0 0.0
0.0 0.0 0.0 0.0 0.0 0.0 0.0 0.0
0.0 0.0 0.0 0.0 0.0 0.0 0.0 0.0
0.0 0.0 0.0 0.0 0.0 0.0 0.0 0.0
00000000: 0000 803f 0000 0000 0000 0000 0000 0000
00000010: 0000 0000 0000 0000 0000 0000 0000 0000
00000020: 0000 0000 0000 0000 0000 0000 0000 0000
00000030: 0000 0000 0000 0000 0000 0000 0000 0000
00000040: 0000 0000 0000 0000 0000 0000 0000 0000
00000050: 0000 0000 0000 0000 0000 0000 0000 0000
00000060: 0000 0000 0000 0000 0000 0000 0000 0000
00000070: 0000 0000 0000 0000 0000 0000 0000 0000
00000080: 0000 0000 0000 0000 0000 0000 0000 0000
00000090: 0000 0000 0000 0000 0000 0000 0000 0000
000000a0: 0000 0000 0000 0000 0000 0000 0000 0000
000000b0: 0000 0000 0000 0000 0000 0000 0000 0000
000000c0: 0000 0000 0000 0000 0000 0000 0000 0000
000000d0: 0000 0000 0000 0000 0000 0000 0000 0000
000000e0: 0000 0000 0000 0000 0000 0000 0000 0000
000000f0: 0000 0000 0000 0000 0000 0000 0000 0000
00000100: 0000 0000 0000 0000 0000 0000 0000 0000
00000110: 0000 0000 0000 0000 0000 0000 0000 0000
00000120: 0000 0000 0000 0000 0000 0000 0000 0000
00000130: 0000 0000 0000 0000 0000 0000 0000 0000
00000140: 0000 0000 0000 0000 0000 0000 0000 0000
00000150: 0000 0000 0000 0000 0000 0000 0000 0000
00000160: 0000 0000 0000 0000 0000 0000 0000 0000
00000170: 0000 0000 0000 0000 0000 0000 0000 0000
00000180: 0000 0000 0000 0000 0000 0000 0000 0000
00000190: 0000 0000 0000 0000 0000 0000 0000 0000
000001a0: 0000 0000 0000 0000 0000 0000 0000 0000
000001b0: 0000 0000 0000 0000 0000 0000 0000 0000
000001c0: 0000 0000 0000 0000 0000 0000 0000 0000
000001d0: 0000 0000 0000 0000 0000 0000 0000 0000
000001e0: 0000 0000 0000 0000 0000 0000 0000 0000
000001f0: 0000 0000 0000 0000 0000 0000 0000 0000
00000200: 0000 0000 0000 0000 0000 0000 0000 0000
00000210: 0000 0000 0000 0000 0000 0000 0000 0000
00000220: 0000 0000 0000 0000 0000 0000 0000 0000
00000230: 0000 0000 0000 0000 0000 0000 0000 0000
00000240: 0000 0000 0000 803f 0000 803f 0000 0000
00000250: 0000 0000 0000 0000 0000 0000 0000 0000
00000260: 0000 0000 0000 0000 0000 0000 0000 0000
00000270: 0000 0000 0000 0000 0000 0000 0000 0000
00000280: 0000 0000 0000 0000 0000 0000 0000 0000
00000290: 0000 0000 0000 0000 0000 0000 0000 0000
000002a0: 0000 0000 0000 0000 0000 0000 0000 0000
000002b0: 0000 0000 0000 0000 0000 0000 0000 0000
000002c0: 0000 0000 0000 0000 0000 0000 0000 0000
000002d0: 0000 0000 0000 0000 0000 0000 0000 0000
000002e0: 0000 0000 0000 0000 0000 0000 0000 0000
000002f0: 0000 0000 0000 0000 0000 0000 0000 0000
00000300: 0000 0000 0000 0000 0000 0000 0000 0000
00000310: 0000 0000 0000 0000 0000 0000 0000 0000
00000320: 0000 0000 0000 0000 0000 0000 0000 0000
00000330: 0000 0000 0000 0000 0000 0000 0000 0000
00000340: 0000 0000 0000 0000 0000 0000 0000 0000
00000350: 0000 0000 0000 0000 0000 0000 0000 0000
00000360: 0000 0000 0000 0000 0000 0000 0000 0000
00000370: 0000 0000 0000 0000 0000 0000 0000 0000
00000380: 0000 0000 0000 0000 0000 0000 0000 0000
00000390: 0000 0000 0000 0000 0000 0000 0000 0000
000003a0: 0000 0000 0000 0000 0000 0000 0000 0000
000003b0: 0000 0000 0000 0000 0000 0000 0000 0000
000003c0: 0000 0000 0000 0000 0000 0000 0000 0000
000003d0: 0000 0000 0000 0000 0000 0000 0000 0000
000003e0: 0000 0000 0000 0000 0000 0000 0000 0000
000003f0: 0000 0000 0000 0000 0000 0000 0000 0000
