route_TSC/model/0.5_hatt_router_joint_0315/ep55/q_netveh.pt (torch, 510246 bytes, 26 tensors)

attn f4 [1, 2, 37]
000000 80 01 88 50 f9 05 00 00 00 00 00 00 00 00 00 00
       1.8254397e+10 2.143e-42 0.0 0.0
000010 00 00 00 00 00 00 00 00 00 00 00 00 00 00 00 00
       0.0 0.0 0.0 0.0
000020 00 00 00 00 00 00 00 00 00 00 00 00 00 00 00 00
       0.0 0.0 0.0 0.0
000030 00 00 00 00 00 00 00 00 00 00 00 00 00 00 00 00
       0.0 0.0 0.0 0.0
000040 00 00 00 00 00 00 00 00 00 00 00 00 00 00 00 00
       0.0 0.0 0.0 0.0
000050 00 00 00 00 00 00 00 00 00 00 00 00 00 00 00 00
       0.0 0.0 0.0 0.0
000060 00 00 00 00 00 00 00 00 00 00 00 00 00 00 00 00
       0.0 0.0 0.0 0.0
000070 00 00 00 00 00 00 00 00 00 00 00 00 00 00 00 00
       0.0 0.0 0.0 0.0
000080 00 00 00 00 00 00 00 00 00 00 00 00 00 00 00 00
       0.0 0.0 0.0 0.0
000090 00 00 00 00 00 00 00 00 00 00 00 00 00 00 00 00
       0.0 0.0 0.0 0.0
0000a0 00 00 00 00 00 00 00 00 00 00 00 00 00 00 00 00
       0.0 0.0 0.0 0.0
0000b0 00 00 00 00 00 00 00 00 00 00 00 00 00 00 00 00
       0.0 0.0 0.0 0.0
0000c0 00 00 00 00 00 00 00 00 00 00 00 00 00 00 00 00
       0.0 0.0 0.0 0.0
0000d0 00 00 00 00 00 00 00 00 00 00 00 00 00 00 00 00
       0.0 0.0 0.0 0.0
0000e0 00 00 00 00 00 00 00 00 00 00 00 00 00 00 00 00
       0.0 0.0 0.0 0.0
0000f0 00 00 00 00 00 00 00 00 00 00 00 00 00 00 00 00
       0.0 0.0 0.0 0.0
000100 00 00 00 00 00 00 00 00 00 00 00 00 00 00 00 00
       0.0 0.0 0.0 0.0
000110 00 00 00 00 00 00 00 00 00 00 00 00 00 00 00 00
       0.0 0.0 0.0 0.0
000120 00 00 00 00 00 00 00 00
       0.0 0.0

fc0.weight f4 [32, 2315]
000000 0c cb 8e bb 7e 6c 10 3c 60 71 9d 3c 88 58 d8 3b
       -0.004357701 0.008814929 0.0192191 0.0066023506
000010 a0 cf 97 3c f9 c0 0a bc d4 84 9f 3c ff bc 30 bc
       0.01853162 -0.00846886 0.019472517 -0.010787248
000020 fc 32 8f 3c f6 ef 2a 3c d0 ec d4 ba 20 dd 8c 3c
       0.017480366 0.010433188 -0.0016244892 0.017195284
000030 40 72 62 3a 94 8c a4 3c 78 5e a8 3c f6 72 a3 3c
       0.00086382404 0.020086564 0.020552859 0.019952279
000040 9f bc a9 bc e2 e4 a2 bc 72 7b 27 3c c4 c1 b4 3b
       -0.020719824 -0.01988453 0.010222303 0.0055162627
000050 53 93 a6 bc b4 ef 69 3c 00 7b 4b ba a6 54 8e 3c
       -0.020333922 0.014278341 -0.0007762164 0.017374348
000060 6d 4b 9a bc 0c 75 62 3c 10 c9 7e bb 60 52 d3 3a
       -0.018834794 0.013821851 -0.0038877167 0.0016122572
000070 4c 9a 55 3c 2a 4e 25 bc 84 9c d1 bb da 4f 9e bc
       0.0130372755 -0.010089437 -0.006396832 -0.019325186
000080 98 84 6d 3b 68 57 df bb fa 4e 44 bc 30 1c 43 bc
       0.0036242362 -0.0068158396 -0.01198172 -0.011908576
000090 c6 76 a3 3c 54 4b b1 3b 00 1d 8c 3c 62 ed 06 bc
       0.019954097 0.005410591 0.017103672 -0.008235307
0000a0 90 82 7d bc 10 2c c1 3b d0 b0 44 3c 92 78 be bb
       -0.015473023 0.0058951452 0.012005046 -0.005812713
0000b0 20 07 a2 ba 40 05 6c bc ec 40 a2 bc 60 66 49 3a
       -0.0012361743 -0.014405549 -0.019806348 0.00076827966
0000c0 68 f0 04 3c 94 0a 80 bb a4 1f e2 bb 90 c7 c9 3b
       0.008113958 -0.003907511 -0.0069007445 0.006157823
0000d0 f4 e7 0c 3c 88 c6 a2 3c 20 52 92 3a b4 f8 63 bc
       0.008600224 0.019870058 0.0011163391 -0.013914276
0000e0 3e 4b ad bb a0 32 37 bb 1c b7 b8 bb 68 cd 37 3c
       -0.0052885106 -0.0027953759 -0.0056370627 0.011218406
0000f0 8c c7 e8 3b ac 52 5a 3c 9d 86 75 bc ac 9b 68 3c
       0.007103866 0.013325375 -0.014985708 0.014197271
000100 28 0c f2 bb 82 0b 6d bc a0 d2 d3 3b fe ad 64 bc
       -0.007386703 -0.014468076 0.0064643174 -0.013957499
000110 d4 09 6c 3c c4 12 31 3c a3 e9 81 bc 1b 6e 4c bc
       0.01440664 0.010807697 -0.015858477 -0.012477423
000120 44 38 e6 3b 50 26 14 bc 0c b5 34 3c bc 62 8c 3b
       0.0070257504 -0.009042338 0.011029493 0.004284231
000130 cc 7d 63 bc 80 1c 93 3c 7c 4b c9 3b a6 fd 96 3c
       -0.013884973 0.017957926 0.0061430316 0.018431496
000140 60 8f 01 ba 20 9a 66 bb 9c 41 fa 3b 70 cb fd ba
       -0.0004942324 -0.003518708 0.007637216 -0.0019362997
000150 c6 b2 a8 bc 29 f4 9f bc e0 0c 41 bc a2 af 9a bc
       -0.020593058 -0.019525604 -0.011782855 -0.018882576
000160 f0 03 a0 bb c6 58 8e bc 00 d9 c5 3b da 83 9f bc
       -0.004883282 -0.017376315 0.0060378313 -0.019472051
000170 a0 36 6f bb d1 54 94 bc b3 5e 94 bc 50 52 7e 3c
       -0.0036501065 -0.01810685 -0.018111562 0.0155225545
000180 c0 ed 22 3c 78 c2 dd 3b 00 47 99 3c a6 1d 86 3c
       0.009944379 0.0067675672 0.018710613 0.01637156
000190 16 34 ed bb 88 c0 63 3c 28 18 7e bb d2 c0 13 3c
       -0.007238875 0.0139008835 -0.0038771722 0.00901814
0001a0 5c ac c2 bb 68 40 2a 3b 80 90 65 ba fa ac 8d bc
       -0.005940957 0.002597833 -0.0008757189 -0.017294396
0001b0 be e4 74 bc 68 86 17 3c 76 28 b2 bb d8 bb 0f bb
       -0.0149471145 0.009248354 -0.005436952 -0.0021932032
0001c0 10 99 52 3c ad d6 01 bc d1 37 09 bc 53 4b 7e bc
       0.012853876 -0.007924718 -0.008375124 -0.015520888
0001d0 1c f5 49 3c 98 1f 27 3c 68 0d 0b bb e4 de 00 3c
       0.012326505 0.010200404 -0.0021217708 0.007865641
0001e0 5f 7d 4a bc 60 b9 51 bc 1a 70 8e 3c 70 3a a1 ba
       -0.012358992 -0.0128005445 0.017387439 -0.0012300741
0001f0 e2 11 37 bc 8c a2 35 3c 34 fd 32 3c b0 05 6d bb
       -0.011173697 0.0110861175 0.010924626 -0.003616672
000200 5c 47 fe 3b f8 a1 87 3b a8 7a 4f 3c 90 1e ee ba
       0.0077599715 0.004139181 0.012663521 -0.0018167067
000210 50 68 d8 3a d8 f3 cb bb a6 65 17 3c 60 ae 69 3a
       0.001651058 -0.006224137 0.0092405435 0.00089142285
000220 cc 5e d9 3b 0c c6 87 bc e4 e4 88 bc 80 03 81 ba
       0.006633615 -0.016573928 -0.016710706 -0.0009842962
000230 aa b9 89 bc a0 24 99 bb d1 61 89 bc 74 c2 60 3c
       -0.016812164 -0.0046735555 -0.016770275 0.013718236
000240 d8 2c 8b 3b 34 5a 56 bc c4 80 89 3c 1a 1b 99 3c
       0.004247289 -0.01308303 0.016785033 0.01868968
000250 dc dd e6 3b 40 3b 37 3b fa e8 db bb d4 0c cf bb
       0.0070454907 0.00279589 -0.0067111226 -0.006318668
000260 0a 81 8c 3c bc d7 21 3c 69 a4 80 bc 60 5e 41 3c
       0.017151374 0.009878095 -0.015703397 0.011802286
000270 40 38 5a bb 6c 1c 5d 3c f7 e2 23 bc 18 97 5e 3b
       -0.0033297688 0.013495546 -0.010002843 0.003396457
000280 39 7e 27 bc d0 e2 a3 3c a0 65 51 3a 10 2c 5f 3b
       -0.010222965 0.020005614 0.00079878606 0.0034053363
000290 ec 24 f3 bb 10 9b 49 bb 58 a8 41 3b e8 f1 df 3b
       -0.007420173 -0.003076259 0.0029549804 0.0068342574
0002a0 60 b1 95 bb a0 18 7f 3b 20 0d 18 3c f4 d3 7b bc
       -0.004568264 0.003892459 0.009280473 -0.015370358
0002b0 70 fb 60 3b f0 75 67 3b b0 41 85 3b e8 8a e9 3b
       0.0034329556 0.00353181 0.0040666685 0.0071271546
0002c0 e8 31 79 bb 40 08 ae ba 2a a4 a3 bc 54 24 8c 3c
       -0.0038024131 -0.0013277605 -0.01997574 0.017107166
0002d0 a0 94 8b bc b5 aa 41 bc 6e 18 8e bc 0e f1 c5 bb
       -0.017038643 -0.011820485 -0.017345633 -0.006040699
0002e0 22 e9 81 bc 14 1b 14 bc 2d cc 9e bc 14 be 28 3c
       -0.015858237 -0.009039659 -0.019384468 0.010299224
0002f0 21 40 8a bc 30 d7 9b ba d2 a5 28 bc 12 3e 0f 3c
       -0.016876282 -0.0011889692 -0.010293441 0.008742826
000300 90 d6 7c 3c 5b bf 69 bc 78 ca 6c bb 70 47 3b 3b
       0.015432015 -0.014266814 -0.0036131423 0.0028576516
000310 48 e8 04 3b 94 61 48 3c 93 c1 1d bc 70 7d d6 3a
       0.0020280052 0.012230296 -0.009628671 0.0016364288
000320 80 39 cd 3b a0 fa 3c 3a d0 cc 68 3c 7c 58 62 3c
       0.006262958 0.0007208977 0.014208987 0.013815042
000330 b8 3f 91 bc 10 ee c9 3b 30 2c 10 3c 5c 99 87 bc
       -0.017730579 0.0061624125 0.008799598 -0.01655262
000340 b8 70 05 3b 5c ec 85 3c 84 d3 97 3c 14 50 7e 3c
       0.0020361375 0.016348056 0.018533476 0.015522022
000350 c0 bf 8f 3c 8e 54 8f bc 8c 92 38 bc b8 79 99 bc
       0.017547488 -0.017496374 -0.011265408 -0.018734798
000360 ce 84 9a 3c 20 46 66 3c 4d 5a 86 bc 10 7c 22 3c
       0.018862154 0.014054805 -0.01640048 0.009917274
000370 ec 01 06 bc 30 ef b8 ba 00 2c 7a 38 34 e6 49 3c
       -0.008179169 -0.0014109369 5.9645623e-05 0.012322951
000380 56 9b 86 3c c4 13 d9 3b af 08 9a bc 1c 08 dc bb
       0.016431492 0.0066246707 -0.018802969 -0.006714834
000390 86 f0 63 bc 1c bb 8f 3c 60 c4 31 3b c0 5c b3 b9
       -0.013912326 0.017545275 0.0027125105 -0.00034210645
0003a0 81 e7 a3 bc 0c 76 62 3c fc 07 85 bc d4 69 fc bb
       -0.02000785 0.01382209 -0.016239159 -0.0077030454
0003b0 c6 f5 5c bc e4 9b 75 3c 20 9d 90 ba c8 19 ed bb
       -0.013486331 0.0149907805 -0.0011033155 -0.0072357394
0003c0 38 0c 72 3b 20 80 95 3b 27 1b 9b bc f6 b9 1f 3c
       0.0036933552 0.004562393 -0.018933846 0.009748926
0003d0 80 e6 d2 39 8c 1e 9c bc 52 cc fc bb e8 ea 5b 3c
       0.00040226057 -0.019057535 -0.0077147866 0.013422705
0003e0 40 01 7b 3c 78 01 42 3c f6 c5 a9 3c 48 79 df 3b
       0.015320122 0.0118411705 0.020724278 0.006819878
0003f0 20 82 1f ba 22 40 85 bc 4d df 78 bc a0 03 ad bb
       -0.0006084759 -0.016265932 -0.015189958 -0.005279973

fc0.bias f4 [32]
000000 8b ba 01 bc 2c 1c 8f 3c 18 f9 7f 3c 8c 94 6a bc
       -0.0079180105 0.017469488 0.015623353 -0.014317643
000010 ea f6 a3 bc a7 b9 6c bc 8e 23 04 bc 80 85 35 3c
       -0.020015199 -0.01444856 -0.0080651175 0.011079192
000020 c4 17 e6 bb 80 c6 5c 3b 00 f7 b6 38 64 f7 c6 bb
       -0.007021876 0.003368765 8.7244436e-05 -0.0060719717
000030 f6 33 b5 bb 28 40 85 bc 0b b9 68 bc 28 9a 66 3c
       -0.005529876 -0.016265944 -0.014204274 0.01407484
000040 8a f1 99 3c e0 5c 32 3b 10 a8 6e 3c 55 32 2a bc
       0.018791933 0.0027216002 0.014566436 -0.010387977
000050 80 4f 86 bb 8c 0a 9f 3c c0 64 85 ba 6b 6e 90 bc
       -0.0040988326 0.019414209 -0.001017712 -0.017630776
000060 e5 be a9 bc e0 97 2e 3a 10 ab 60 bc 9d 69 44 bc
       -0.020720908 0.00066602044 -0.0137126595 -0.011988071
000070 b0 4a 24 bc bc 14 1d bc 80 61 74 ba 07 d8 90 bc
       -0.0100275725 -0.009587463 -0.000932239 -0.017681135

fc1.weight f4 [32, 32]
000000 5d 35 fd 3c cb 09 48 be b8 a2 f4 3d 20 38 07 3e
       0.030909235 -0.19534986 0.11945099 0.13205004
000010 7a 85 30 bd 1f 98 ea 3d 5b aa 48 bd d2 f4 e0 bd
       -0.043096043 0.11454796 -0.04899059 -0.10984196
000020 e8 b7 9a be f0 ef 40 3e 15 bf 53 3e ba 79 ca bc
       -0.30218434 0.18841529 0.20678361 -0.024716247
000030 7a e5 45 be 88 d1 e7 be 77 0c 02 3e 40 97 ae bd
       -0.1932582 -0.45277047 0.12700067 -0.085249424
000040 07 67 26 3e 72 8e 00 bf f4 08 1d bd f5 68 2b 3c
       0.1625024 -0.50217354 -0.038338616 0.010462035
000050 64 28 10 3e dc a1 49 3e 67 44 3e be 8d f5 0a bd
       0.14077908 0.1969065 -0.18580781 -0.03392558
000060 3c ef 35 3c 6b bd 22 3d c4 ce 11 3e 89 f3 b8 bd
       0.011104401 0.039731424 0.14239031 -0.09030826
000070 d7 bc 29 bf 3e 09 89 3e a3 ef bb bc 49 64 36 3e
       -0.6630377 0.26764864 -0.022941416 0.17811693
000080 68 61 5c be d8 15 54 be 9e 23 59 bf bd 34 02 bd
       -0.21521533 -0.20711458 -0.8481997 -0.031788576
000090 99 a0 f8 bd 12 05 31 be 5d 36 48 3e 88 9a 4a be
       -0.121400066 -0.1728709 0.19551988 -0.19785511
0000a0 21 e7 98 3d dd 68 7f bf f4 26 44 be 81 5e f2 bd
       0.07465959 -0.99769384 -0.19155484 -0.118344314
0000b0 3d c9 54 3d 31 48 ba bc 69 2c b6 3d 45 55 0e 3e
       0.05194973 -0.022739502 0.08895189 0.13899715
0000c0 6a 6e 4d 3d c3 44 bf 3d dc 9e 1f 3e 82 f9 8a 3e
       0.050154127 0.09339287 0.15587944 0.27143484
0000d0 84 2e ef bd 73 e9 62 be 13 8c 81 3d 38 ca a9 bc
       -0.11678794 -0.22159366 0.06325545 -0.020726308
0000e0 64 ac 8b 3d 1d b7 b5 3e 38 f6 45 3d 07 ac d1 3d
       0.0681999 0.35491267 0.048330516 0.1023789
0000f0 40 d4 52 3d b0 e5 95 bf cd 73 d4 3c b4 37 94 3c
       0.05147195 -1.171072 0.025934124 0.018092968
000100 a7 7c 01 3e a9 39 0e 3e da c4 ad 3d 6c cf a6 3d
       0.12645207 0.13889183 0.08484812 0.08145031
000110 94 04 69 ba 32 13 be bd c2 2e 59 be d2 b7 33 be
       -0.0008888927 -0.09281005 -0.21209243 -0.1755059
000120 1e 9b dd be 45 2e cc bd f0 e1 de 3d 5b 19 0f 3e
       -0.43282408 -0.09969763 0.10882938 0.13974516
000130 30 2c 6f 3e eb 80 81 3d 53 44 37 bd 79 54 45 3d
       0.233567 0.06323417 -0.044742893 0.048176263
000140 67 af 8a 3e 12 38 5f 3e ba ce 5b 3c a7 31 31 3d
       0.27086946 0.21798733 0.013415987 0.043260243
000150 4a 49 d8 bd 2b 45 42 3e 96 41 a7 3d 97 20 64 3d
       -0.10560854 0.18971698 0.081668064 0.055695143
000160 c0 1a 48 3e c9 38 8e bd 86 06 6b 3e eb 1c c3 3d
       0.19541454 -0.06944425 0.22951707 0.09527
000170 db 25 9c 3e 8c 13 8d bd 99 ea 4a 3d c1 3d 06 be
       0.3049763 -0.06888494 0.049540136 -0.13109495
000180 56 ef 8e 3d 27 8a 18 3d 6a 26 bf 3d 55 c8 21 bd
       0.069792435 0.037241127 0.09333499 -0.039497692
000190 75 2c 29 3e 92 f2 bc bd 09 9f 86 3e b1 7d 04 be
       0.16520865 -0.09225954 0.2629321 -0.12938572
0001a0 a7 a8 53 bc 68 22 1e 3e b2 87 56 3e ff 09 d1 3d
       -0.012918628 0.15442812 0.20950201 0.10206985
0001b0 e7 eb d5 bc 4a e0 32 bf 5a 5e 40 3e 3c 7d 19 bd
       -0.026113464 -0.6987349 0.18785992 -0.03747295
0001c0 c4 2b 84 3d e2 98 67 bf b6 38 24 be 2f 6a 97 3e
       0.0645366 -0.90467656 -0.16037259 0.295732
0001d0 75 08 43 be 01 7b 9b bc c4 37 dd 3c b9 9c ec 3d
       -0.19046195 -0.018979551 0.02700413 0.1155333
0001e0 95 0a 8d 3d 65 5b b4 bd 21 60 48 bd 8e f0 15 be
       0.06886784 -0.088064946 -0.0489198 -0.14642546
0001f0 28 2d 82 bf 9b 76 96 3e fe c8 45 bd 67 2f 33 bd
       -1.017003 0.29387364 -0.048287384 -0.04374638
000200 9c b6 e2 bd c5 60 84 be d4 ca 24 bf fb c0 40 3d
       -0.11069986 -0.2585508 -0.6437199 0.04705904
000210 aa 7f e3 3d 7b 00 44 be 44 5f bc 3d 60 1a a2 3d
       0.11108334 -0.19140808 0.09197858 0.07915187
000220 ce 2a 87 3d 5c dd 13 bf 76 ae e1 bd 88 bc ad bc
       0.06599961 -0.5775964 -0.11019604 -0.021208063
000230 b0 da 6b be 8d f5 0b bf b6 4f 8b bd 93 ef 3a bc
       -0.23032641 -0.54671556 -0.06802313 -0.011409658
000240 a4 49 66 3e 74 83 87 bd ab 85 8f 3e 3f 7d 82 3d
       0.22489029 -0.066168696 0.28031668 0.06371545
000250 76 5c 8f bd 1b e4 7c 3d ef 4f 18 be db 14 af bc
       -0.070000574 0.061740976 -0.14874242 -0.02137225
000260 46 22 9d bd f3 48 bf 3d 72 d1 7f 3e f7 b8 15 bd
       -0.07672553 0.09340086 0.24982241 -0.03655335
000270 2e 62 0a 3e 65 8e 4d bf a0 35 11 be 4b 81 de 3d
       0.13514015 -0.802954 -0.14180613 0.108645044
000280 d4 f5 10 3d cd 38 0b bd a7 2c f5 be 3c 6a 3d be
       0.03539069 -0.033989716 -0.4788563 -0.18497556
000290 43 0c 80 3e f7 c0 a5 3c 5b 8b b5 3d 75 51 fe 3d
       0.25009355 0.020233614 0.088644706 0.124178804
0002a0 9d 11 9a 3e a8 c8 47 bf b3 70 33 be fd b0 89 bd
       0.30091563 -0.7804055 -0.1752346 -0.06723211
0002b0 20 e1 b7 bd df 68 82 bd 2d fb 85 bd 52 25 a1 3d
       -0.08978486 -0.06367659 -0.065420486 0.078684464
0002c0 20 ff 80 3d 75 42 8e 3d 0b f9 20 3e 6b 90 45 3d
       0.06298661 0.069462694 0.15720002 0.04823343
0002d0 61 fb 12 3d db cb 26 3d ee 7b 09 3e 46 59 38 3e
       0.035884265 0.040721755 0.13426182 0.18002805
0002e0 5f 87 01 3e 6e ce b0 bd 91 af 98 3e 50 5f 8e 3e
       0.12649296 -0.08633123 0.29821447 0.27807093
0002f0 58 d1 c1 3d 11 cc d9 be 0c 22 86 3b 3f 56 c8 be
       0.09463757 -0.42538503 0.004093414 -0.391283
000300 53 91 f0 be d0 db 76 bf 97 46 bb bd f9 29 f8 bd
       -0.46985874 -0.9642916 -0.09144323 -0.12117381
000310 23 85 c3 bc f7 8c b4 be 99 02 c6 3d 9a 6b 83 be
       -0.023867195 -0.35263798 0.09668464 -0.2566803
000320 40 31 41 be fc 4e e3 3b a9 13 15 be 83 25 f9 bd
       -0.18866444 0.006936906 -0.14558281 -0.12165358
000330 87 3a 8e be 30 0a 4e 3d 58 67 97 bd 95 1f 03 bf
       -0.27779028 0.050302684 -0.07392758 -0.51220065
000340 62 4d dc be 31 70 28 bd 8f 6e 61 3e d8 6d c9 3e
       -0.43027788 -0.04112262 0.22014831 0.39341617
000350 c8 05 bc be 87 86 52 bf 1e 9e 44 bf ec e4 25 3e
       -0.3672316 -0.8223652 -0.7680377 0.16200608
000360 cf 05 08 3e ab 79 25 bd c6 b0 47 be 79 bb 25 be
       0.13283466 -0.040399235 -0.19501027 -0.16184796
000370 88 4d 4e be 08 23 28 3f d7 50 31 be 95 4d 4d 3d
       -0.20146763 0.65678453 -0.17315994 0.050122816
000380 69 55 1b be 88 73 20 be ee f0 3a 3e 08 33 8f be
       -0.151693 -0.15669072 0.1825597 -0.2796862
000390 64 9e 1d 3e 05 45 6d 3e 4e 67 3a be aa d4 b9 be
       0.15392452 0.2317086 -0.1820347 -0.36295062
0003a0 a3 63 25 bf 25 71 96 bd a6 02 81 3e 70 73 85 bc
       -0.6460516 -0.07345799 0.25197333 -0.016290396
0003b0 c6 09 7a 3c 1d 9f b6 bc ff 91 9c 3d c5 7b e7 be
       0.015261119 -0.022292668 0.07645034 -0.45211616
0003c0 e7 57 8a 3e 8d 81 91 3c 56 fd ec be 65 e4 97 be
       0.2702019 0.01776197 -0.4628703 -0.2966644
0003d0 91 65 b9 be 3a 7f 48 3c 56 0d 2f be 1f 51 0a bf
       -0.36210302 0.012237364 -0.17094931 -0.5403003
0003e0 b6 bc 3b 3d 27 62 0a be 97 81 82 3d 48 78 97 3e
       0.045834266 -0.13514005 0.063723736 0.29583955
0003f0 42 68 c7 bd 33 b4 35 be df 53 a2 be b7 54 d7 3d
       -0.097366825 -0.17744522 -0.31704614 0.10514205

fc1.bias f4 [32]
000000 70 01 b4 3e f7 42 cd 3e 02 45 3f 3f 44 0f 3c 3f
       0.35157347 0.40090153 0.7471467 0.73460793
000010 6e d7 88 3e df 36 57 3f e6 0e 49 3f 98 da 4b 3e
       0.2672686 0.840681 0.7853836 0.19907606
000020 f0 24 0a 3f 5d c7 8a 3e 65 8a 44 3f c1 93 22 3e
       0.5396261 0.27105227 0.76773673 0.15876676
000030 6c a3 56 3f 7b 1a ec be 76 d8 2a 3e bb ae 2e 3f
       0.8384311 -0.46113953 0.16684136 0.6823537
000040 b0 8d 87 3e ed a0 87 3e 39 fd 24 3e e1 32 1c be
       0.26475286 0.26489964 0.16112222 -0.15253784
000050 db ae 5f 3f 7e 27 37 3f c3 a2 e8 3e 38 28 39 be
       0.87376183 0.71544635 0.45436677 -0.18081748
000060 4c f7 20 3e d7 4d 0a 3f 60 ab 14 3f 4a 7f 46 3f
       0.15719336 0.54025024 0.58074 0.7753798
000070 9a a5 66 3f 36 0a 4c 3f 5c 39 2b 3f 71 8a 1d 3f
       0.9009644 0.7970308 0.668844 0.6153937

fc2.weight f4 [3, 32]
000000 1e 8d 0c 3e d1 96 fd 3d 59 a0 c0 bd cb 2a 0e 3e
       0.13725707 0.123822816 -0.09405584 0.13883512
000010 fb 3c 67 3e 65 c2 42 bd de 4e 31 be af 50 eb bc
       0.22581856 -0.04754867 -0.17315242 -0.028724996
000020 6a 52 41 bd 99 6a d2 3c 0d bc f2 bd 68 b1 44 3e
       -0.047197737 0.025685595 -0.11852274 0.192083
000030 be 10 c6 bd f8 fc 6f bc 88 c2 b2 3e bf bf 2c 3e
       -0.09671162 -0.014647715 0.3491404 0.1687002
000040 80 71 b1 bc 8d a9 30 3e 1d bf 8e be 35 b0 11 3b
       -0.021660566 0.17252178 -0.27880183 0.0022230272
000050 1e 30 a8 bd 2f 78 8b 3c d9 e9 10 bc bb 8e ad bc
       -0.082123026 0.017025081 -0.008844816 -0.021186223
000060 19 5f 79 bc 64 03 71 bd 8a 0f ae be 26 16 e9 bd
       -0.015220427 -0.058841124 -0.3399623 -0.113811776
000070 64 bb 2e be 30 f8 12 be 78 fa c7 bd df 81 a0 3d
       -0.17063671 -0.14352489 -0.0976457 0.07837271
000080 cb 82 01 3e b0 c9 34 3e 63 14 16 be 88 24 4f 3e
       0.1264755 0.17655063 -0.14656214 0.2022878
000090 92 14 1a 3e 79 e2 8c bd a0 3a 1f 3c ad ef c9 bc
       0.1504691 -0.06879134 0.009718567 -0.02465042
0000a0 2e de 1c bc af a2 77 3c 8c f2 02 be da 98 a6 bd
       -0.009574456 0.01511447 -0.12787837 -0.08134623
0000b0 e4 e5 2e be 99 87 89 bc 9f 84 d4 3e 76 db 41 bd
       -0.17079884 -0.01678829 0.41507432 -0.047328435
0000c0 fd e1 e5 3b 7d f5 bf 3b 4d 5e a3 3e 98 b2 cd bb
       0.0070154653 0.005858122 0.31907883 -0.0062773935
0000d0 ce f8 72 bd 72 db 30 bd d8 ce ad ba d7 23 d7 3b
       -0.05931931 -0.04317803 -0.0013260497 0.0065655517
0000e0 92 5c 5e bf 4c 65 18 3d 47 dd 15 3d 0f 58 39 be
       -0.8686 0.03720598 0.03658798 -0.18099998
0000f0 71 60 0b be 69 87 47 be 8f 86 cc bd 4e 87 3f 3e
       -0.13611008 -0.19485249 -0.099866025 0.18703958
000100 5b a9 e6 bd 8a 7d 8f bd 6d ba a6 bd 19 8a c4 bd
       -0.11262771 -0.070063666 -0.08141027 -0.095966525
000110 be c0 ba 3d a5 62 1e be b3 87 1f 3f 47 07 03 be
       0.09118794 -0.15467317 0.62316436 -0.12795745
000120 43 6c 0c be 14 2d 0d be 02 4b 2e be ef 5c 73 3b
       -0.13713174 -0.13786727 -0.170208 0.003713425
000130 1b fd 10 be f9 f9 7e 3d 70 e9 1d 3e f2 0b 2c bd
       -0.14159052 0.06225011 0.1542108 -0.04200358
000140 6b f8 1e 3c 74 2f 90 3d 8c cb 70 3d c5 df 8f bc
       0.009702782 0.07040301 0.058787867 -0.017562756
000150 28 6f 3c be c5 70 10 be 96 6e 87 bd 23 e7 89 bd
       -0.18401778 -0.14105518 -0.066128895 -0.06733539
000160 9e 65 07 3d 76 0f 1d bb 5b 19 3a 3e c7 9a 18 be
       0.033055894 -0.0023965514 0.18173735 -0.14902793
000170 7c dc 4e be 1e 03 07 be 95 ff 26 be 13 75 b6 bd
       -0.20201296 -0.13184783 -0.16308434 -0.08909049

fc2.bias f4 [3]
000000 3f b3 79 bf 79 11 28 bf 19 51 1d 3f
       -0.9753913 -0.6565166 0.6145187

road_emb.0.weight f4 [144]
000000 ab 0c c3 3f 87 77 89 3f 49 52 ac 3f 25 4d 78 3f
       1.5238241 1.0739602 1.3462611 0.96992713
000010 79 3b 52 3f 8a ea 8c 3f 5d 17 9b 3f c6 62 a1 3f
       0.82122 1.1009076 1.2116505 1.2608268
000020 ab 05 95 3f f1 7e 83 3e 6b 49 7f 3f d0 ff 80 3f
       1.1642355 0.25682786 0.997214 1.0078068
000030 88 9a 99 3f a8 5b 60 3f 7b 9a a9 3f 15 ed 67 3f
       1.2000284 0.87639856 1.3250269 0.90596133
000040 df a0 7f 3f ea fc 77 3f 92 21 95 3f 26 5f 8a 3f
       0.99854845 0.9687029 1.165087 1.0810287
000050 a9 26 9d 3f 6d e1 7c 3e 77 a9 61 3f 1b 87 6d 3f
       1.2277423 0.24695368 0.8814921 0.9278428
000060 09 99 b1 3f bb 65 84 3f 87 52 a4 3f 77 4d 7b 3f
       1.3874828 1.0343546 1.2837685 0.98165077
000070 46 21 5a 3f b5 ca 88 3f 95 60 95 3f c2 e4 9d 3f
       0.8520702 1.0686861 1.16701 1.2335436
000080 33 45 9e 3f 74 61 f2 3e 8b a6 80 3f b9 f8 79 3f
       1.2364868 0.47339976 1.0050825 0.97645146
000090 34 27 bd 3f 97 27 89 3f c8 dd a9 3f 27 21 55 3f
       1.4777589 1.0715207 1.3270807 0.8325371
0000a0 da 24 6b 3f fb 82 8c 3f 72 84 dd 3f 65 57 97 3f
       0.91853106 1.0977472 1.7306044 1.1823546
0000b0 27 2e a7 3f dc ed 97 3e 4b d5 7d 3f fd 4c 5f 3f
       1.306096 0.2967366 0.99153584 0.8722685
0000c0 da 68 b3 3f fb f7 8a 3f cd 0c a1 3f 57 9e 74 3f
       1.4016373 1.0856928 1.2582031 0.9555411
0000d0 c7 a8 6d 3f 9b 2a 6c 3f e3 f6 b8 3f 94 e9 8f 3f
       0.9283566 0.9225251 1.4450344 1.1243157
0000e0 f8 02 ae 3f 9d 79 97 3e 61 85 84 3f 93 11 5d 3f
       1.3594656 0.2958497 1.0353204 0.8635494
0000f0 50 dc 8e 3f 02 7b 82 3f 89 1a a9 3f e4 43 4b 3f
       1.1160984 1.0193789 1.3211223 0.7940047
000100 e7 f8 50 3f 0d c1 46 3f 25 f6 bc 3f 55 f5 9a 3f
       0.81629795 0.7763832 1.4762617 1.2106119
000110 73 de 9b 3f 7c 3b 08 3f 8e 8c 8e 3f 2c a2 4e 3f
       1.2177261 0.53215766 1.1136644 0.80716205
000120 da cb cb 3f 18 9b 81 3f fd a8 b7 3f 45 3a 79 3f
       1.5921586 1.0125456 1.4348446 0.9735454
000130 8b 99 78 3f 43 27 8c 3f ce 82 92 3f 6b 4a 8c 3f
       0.9710929 1.0949482 1.1446168 1.096021
000140 8f 23 a8 3f 3a 9e 20 3f 84 98 87 3f 8e 12 ad 3f
       1.3135852 0.62741435 1.0593419 1.3521287
000150 8d 4d b5 3f 45 2d 9e 3f a2 5f b2 3f 9c a2 57 3f
       1.4164292 1.2357565 1.3935435 0.842325
000160 85 64 3d 3f 6c 75 79 3f d1 e6 be 3f b8 12 8d 3f
       0.73981506 0.97444797 1.491419 1.1021338
000170 2a e0 9d 3f 68 69 88 3e cc 57 82 3f 18 ee b2 3f
       1.2334034 0.2664292 1.0183043 1.397891
000180 de 76 9d 3f 2d 9a 7d 3f 79 1f b8 3f ea b8 68 3f
       1.23019 0.9906338 1.4384605 0.90907156
000190 6e 94 56 3f e0 b0 54 3f 52 4f c7 3f b1 f8 92 3f
       0.83820236 0.8308239 1.5571082 1.1482145
0001a0 8c 8a a0 3f c7 4d e2 3e 52 77 8e 3f 6f 6e b2 3f
       1.2542281 0.44199964 1.1130164 1.3939952
0001b0 f5 fe be 3f 2b 93 67 3f f8 34 ad 3f 1c 26 61 3f
       1.4921557 0.90458935 1.353179 0.87948775
0001c0 02 9c 76 3f 66 05 9e 3f 80 9d aa 3f 75 4a 91 3f
       0.963318 1.2345397 1.3329315 1.1350847
0001d0 ee a4 af 3f ae 33 21 3f 70 41 b2 3f 35 1d 72 3f
       1.3722208 0.6296948 1.392622 0.94575816
0001e0 fa 13 91 3f 3e 01 8f 3f 9f 3f ae 3f 4e 3e 83 3f
       1.1334221 1.1172254 1.3613166 1.0253389
0001f0 8f bc 8b 3f ab 02 87 3f 42 b5 a8 3f 85 e6 97 3f
       1.0916919 1.0547689 1.3180315 1.1867224
000200 8f b3 ab 3f aa bb 1b 3f 16 43 b5 3f bf bf 80 3f
       1.3414172 0.6083323 1.4161098 1.0058516
000210 53 3b b7 3f 85 bf 83 3f 24 73 af 3f 5e 3e 49 3f
       1.4314979 1.0292822 1.3707013 0.7861079
000220 68 94 75 3f 54 d0 76 3f 53 06 9c 3f ad 19 99 3f
       0.95929575 0.96411633 1.218943 1.1960961
000230 38 82 a9 3f dc dc 1c 3f 03 e9 a7 3f 16 35 76 3f
       1.3242865 0.61274505 1.3117985 0.9617475

road_emb.0.bias f4 [144]
000000 43 a6 83 3e ee 0a 3c 3e 85 9f 05 3e 00 b6 3b 3e
       0.25712785 0.18363544 0.13049133 0.18331146
000010 60 2d a2 3e 7f 13 23 3e 37 31 ef 3d ba 2d c4 3e
       0.31675243 0.15925406 0.11679309 0.38316137
000020 0f a9 ac 3c 2d fb 3e bf 0f 6a a3 3e 01 e7 a0 3e
       0.021076707 -0.74602014 0.31916854 0.31426242
000030 90 24 92 3e f4 0d 9a 3e d1 34 2f 3e 79 32 98 3e
       0.2854352 0.3008877 0.17109992 0.29726008
000040 e0 b9 59 3e e8 4e 64 3e 05 80 12 3e d2 e4 9e 3e
       0.21262312 0.22295725 0.14306648 0.3103395
000050 7f 2b 69 bc a9 df 4b bf c1 a1 7f 3e ed 3a 8a 3e
       -0.014231562 -0.79638153 0.24964048 0.26998082
000060 7e 3b 73 3e 4c c4 3b 3e 01 65 96 3e ef c2 2a 3e
       0.23753163 0.183366 0.29373935 0.16675924
000070 dd 90 a8 3e 09 15 87 3e d2 69 ee 3d 41 86 ab 3e
       0.32923022 0.26383236 0.116412774 0.33500865
000080 76 2b e9 bb 38 2d 0b bf e2 5a b1 3e cc 6a 9b 3e
       -0.0071157767 -0.54365873 0.3463965 0.30354917
000090 9e cc 34 3e 0a a6 2c 3e 27 14 92 3e 35 be 90 3e
       0.1765618 0.16860214 0.28531 0.28270116
0000a0 48 30 74 3e 2c 5e 0c 3e fc 2d d4 3d e4 65 be 3e
       0.23846543 0.13707799 0.10360333 0.3718711
0000b0 2c 9d 5e 3b 26 86 14 bf ed f1 95 3e 9b b4 95 3e
       0.0033968193 -0.58017194 0.29286137 0.29239354
0000c0 16 cb 99 3e 53 62 4a 3e 3d aa 94 3e 3e 9a 4b 3e
       0.30037755 0.1976407 0.29036132 0.19883057
0000d0 fd 67 9f 3e d6 9a 93 3e 1a 20 07 3e da c9 af 3e
       0.31134024 0.28829068 0.1319584 0.34333688
0000e0 b1 01 de 3c d1 09 2b bf f2 4f 99 3e be 17 8c 3e
       0.027100416 -0.66811854 0.29943806 0.27361864
0000f0 65 5d 41 3e ce d8 6f 3e 23 ef a8 3e d5 f6 88 3e
       0.18883283 0.23422548 0.32994947 0.26750818
000100 17 0d a7 3e de bb 9d 3e 6e b6 be 3d 99 93 b1 3e
       0.32627174 0.30807394 0.093121395 0.3468292
000110 11 9f cd bc 19 c8 cd be e8 d7 b5 3e 08 a8 89 3e
       -0.025100263 -0.40191725 0.35516286 0.2688601
000120 e0 4f 9e 3e 15 a1 80 3e 71 73 25 3e cc 5f 48 3e
       0.30920315 0.25122896 0.16157319 0.19567794
000130 a8 2a 9f 3e 4c fb 31 3e 64 e9 91 3e ed 0e 9f 3e
       0.31087232 0.17381018 0.28498375 0.31066075
000140 93 15 82 3c 12 6b b0 be f0 1c 98 3e 1c 48 6d 3e
       0.015879428 -0.34456688 0.29709578 0.23172039
000150 9c 2e 75 3e ce a4 eb 3d 91 20 1c 3e 5e b1 84 3e
       0.23943561 0.115060434 0.15246798 0.2591657
000160 28 ac 97 3e f4 32 6a 3e b8 3f 04 3e 91 9e aa 3e
       0.29623532 0.22871 0.12914932 0.33324102
000170 c3 17 da 3c 9f 72 45 bf b1 b2 9b 3e fc 27 3c 3e
       0.026622659 -0.7712802 0.30409768 0.18374628
000180 11 18 a5 3e f0 3a 69 3e 9c 83 41 3e 9a 22 6a 3e
       0.32244924 0.22776389 0.18897861 0.22864762
000190 0b 8f 97 3e ee 47 9d 3e 6e 3c 33 3e cc 59 b7 3e
       0.2960132 0.3071894 0.17503521 0.35810697
0001a0 d8 e8 61 3c a1 d8 ff be 39 86 ba 3e 0e e8 4a 3e
       0.013788424 -0.49969962 0.3643053 0.19815084
0001b0 e7 7c 83 3e 75 80 8f 3e 0d 2e 95 3e a1 1d 8c 3e
       0.2568123 0.28027692 0.29136696 0.27366355
0001c0 69 ba 76 3e df 4b 92 3d b0 55 75 3e f5 80 8e 3e
       0.24094547 0.071433775 0.23958468 0.2783276
0001d0 aa 01 ce 3c c3 4f a0 be cb a0 24 3e 09 cc 87 3e
       0.025147278 -0.31310853 0.16076963 0.26522854
0001e0 10 49 a1 3e 6f 81 4a 3e 30 b6 8c 3e a2 0b 66 3e
       0.31501055 0.19775937 0.27482748 0.22465375
0001f0 5e d4 1f 3e 5d ea 29 3e ed 3a 49 3e d5 dc b1 3e
       0.15608355 0.16593309 0.19651385 0.34738794
000200 df fb 89 bc 9e 58 aa be 04 4e 7a 3e 47 bc 99 3e
       -0.016843734 -0.33270735 0.24443823 0.30026457
000210 d6 12 9d 3e 5b 2c 2e 3e ce e1 a3 3e d9 c8 97 3e
       0.30678433 0.17009108 0.32008213 0.29645422
000220 30 08 35 3e 39 b6 85 3e bc 56 85 3e 50 b4 87 3e
       0.17678905 0.26115587 0.26042736 0.26504755
000230 97 b9 1f 3d fd 80 c3 be 06 15 62 3e 5e 3f 8a 3e
       0.03899535 -0.38184348 0.22078332 0.2700147

road_emb.1.weight f4 [64, 144]
000000 bb c0 65 be 7e 43 44 be 1d 75 34 bf 22 f9 c6 bd
       -0.22436802 -0.19166371 -0.704912 -0.09715487
000010 ee 4b 4c bd 95 5c ea 3d a6 35 a8 3c 9c 24 a0 3e
       -0.0498771 0.1144344 0.020533394 0.3127793
000020 00 46 de 3d 33 07 bf bd 67 cb 93 3e ea 6c e2 bb
       0.10853195 -0.09327545 0.2886612 -0.006909956
000030 dd 63 d1 bb 3f 3a 87 be 81 af 04 bf a8 e9 9e be
       -0.0063900785 -0.26411626 -0.518303 -0.3103764
000040 e2 66 75 3d e4 b9 77 bd 2d 83 19 3e af cd 63 3e
       0.05991257 -0.060480013 0.14991446 0.22246431
000050 46 60 e2 bc 8d 05 fb 3c 2a 74 6d 3e 1a fd 68 3d
       -0.027633797 0.030642295 0.23188844 0.056882
000060 40 3c cd bd e1 35 e9 bb 55 a1 51 bf e3 94 1d 3e
       -0.100212574 -0.0071170186 -0.818868 0.15388827
000070 e0 e9 12 be f7 16 c0 3d 49 46 5a 3c 2c 5e 96 3e
       -0.14347029 0.0937938 0.013322421 0.29368722
000080 bc 2c cc 3c fd 32 82 bd 44 3d af 3e 62 7b d4 3d
       0.024923675 -0.063573815 0.3422643 0.10375096
000090 7a e3 d2 be 3b 7f 23 bd 02 69 08 bf 10 ba d7 be
       -0.41189176 -0.03991626 -0.5328523 -0.42134142
0000a0 db 0b 36 be c7 bf b1 3d f2 7e 24 3f 3f 3e 72 bd
       -0.1777796 0.08679157 0.64256203 -0.059141394
0000b0 9d c7 12 be c3 47 5a 3e 78 66 12 bd d3 9a 07 3e
       -0.14333959 0.21316437 -0.035742253 0.13242655
0000c0 c8 be 71 bd 76 94 20 be 08 04 d6 be e5 7b 2a bd
       -0.059019834 -0.15681633 -0.4179995 -0.04162206
0000d0 31 3f 1c be bd 34 c9 bd 34 dc c2 3e 2b cb 35 be
       -0.1525848 -0.09824512 0.38058627 -0.17753284
0000e0 bf 94 89 be 24 4f a5 3c b2 b7 14 3e 24 df 27 3c
       -0.26871297 0.020179339 0.14523199 0.010246072
0000f0 5c 12 06 be fb 69 a8 3c 5a 77 10 bf 0c 3d 81 be
       -0.13092941 0.020558348 -0.56432116 -0.25241888
000100 cb 84 77 3d df 8f a1 3e ce 81 17 3d 71 9e 44 be
       0.060429376 0.31555077 0.036989026 -0.19201066
000110 1a fe 0b be 5f a3 12 be 30 6a 70 3e 80 72 99 bd
       -0.13671151 -0.14320134 0.23478007 -0.07492542
000120 3d ee cb be 88 a7 5a 3e f2 e9 83 be 22 9b b3 bd
       -0.398302 0.2135297 -0.25764424 -0.087698236
000130 fe 58 34 bd e1 6c 0f 3e 1e 39 c7 3e 02 f9 4a 3d
       -0.044030182 0.14006378 0.38910764 0.04955388
000140 ec f1 5e bd 34 e6 24 3e cc f9 f2 3d 4a be 02 bf
       -0.054429933 0.1610344 0.11864051 -0.5107161
000150 79 7b d7 3d 34 e9 32 bd 41 59 9e be f4 c8 8d be
       0.105215974 -0.04367943 -0.3092747 -0.27692378
000160 92 3b ec bb d3 9d 07 3e 35 31 d9 3d 38 70 3b 3e
       -0.00720925 0.13243799 0.106050886 0.18304527
000170 56 89 99 be 58 a7 86 3c 8e 1e 87 3e f6 87 d2 bd
       -0.29987592 0.016437218 0.263905 -0.10279839
000180 42 b7 47 3e 40 14 48 bd fd a8 c7 be 57 c1 81 be
       0.19503501 -0.048847437 -0.38996115 -0.2534282
000190 89 bd 7e be 4b bb d1 3c 1f 7e b0 3e 33 cb 1d 3e
       -0.2487699 0.025602004 0.34471223 0.15409546
0001a0 1c 23 5a 3d 18 d5 86 3e e4 04 93 3e 36 8f 23 be
       0.05325614 0.26334453 0.2871467 -0.159726
0001b0 e9 7b 75 be 40 e3 96 3c ea 32 ac be 5d cb 80 be
       -0.23973049 0.018418908 -0.33632594 -0.25155154
0001c0 45 a5 50 be 42 ad 50 3d 33 a6 a2 3e bb 23 05 bd
       -0.20375545 0.05094648 0.31767425 -0.03250478
0001d0 d3 ab bd bd 3c bd e1 3d 3a 7d 71 bd 80 9c d7 3d
       -0.092612885 0.11022422 -0.058957316 0.10527897
0001e0 c7 c3 17 bd 3a 72 8c be 60 f5 47 bd eb 01 0f be
       -0.037051942 -0.27430898 -0.048817992 -0.13965575
0001f0 12 6b b9 bd 5f 27 3a 3b 1b 74 dc 3e bf c2 b4 3d
       -0.09053625 0.0028404815 0.4305733 0.08826207
000200 e9 c2 56 3d 2d 23 27 bd 98 10 1e be e0 d8 2e 3e
       0.052431975 -0.04080503 -0.15436018 0.17074919
000210 bf 9c 5c bd 69 4f 19 bd 35 3d 29 be 9f 15 9c be
       -0.053860422 -0.037429247 -0.16527255 -0.30485246
000220 a8 1a 0c bb 98 4e 47 3e d1 77 36 3f f2 3f 9a bd
       -0.0021378193 0.19463575 0.71276575 -0.07531728
000230 19 39 9b bd d8 82 80 3d a7 b3 ac be e8 66 ce 3d
       -0.0757925 0.062749565 -0.33730814 0.100782216
000240 44 78 7a be 2e bc 3a be e3 df 38 bf 2c 18 11 3e
       -0.2445994 -0.18235847 -0.72216624 0.14169377
000250 c2 dd d6 3d a3 00 68 3d ca 59 b1 3e 5a f5 59 3c
       0.10491516 0.056641232 0.34638816 0.013303125
000260 bd fc ca 3d 51 ac 3d 3e 88 56 bb 3d 7e 5d 11 be
       0.09911487 0.18522765 0.09147364 -0.1419582
000270 1c ff 9d 3c 3a 60 8a bd 89 d7 22 bf 95 eb 36 3d
       0.019286685 -0.06756635 -0.6361013 0.044658262
000280 1a c3 08 bd 71 ca 62 3d 6f 60 8f 3e 29 0e 09 be
       -0.03338919 0.055368844 0.2800326 -0.13384308
000290 72 a9 bb 3c 3f 45 09 be 6b d8 d4 3d eb 23 b5 be
       0.022907946 -0.13405322 0.10392841 -0.35378966
0002a0 32 c5 f1 bd 13 6c 57 be d7 a4 21 bf 00 ad 46 3e
       -0.1180519 -0.21037321 -0.6314215 0.19401932
0002b0 08 74 64 3e 7b 52 81 3d 00 e8 c1 3d f9 77 d9 bd
       0.22309887 0.0631456 0.094680786 -0.10618586
0002c0 75 ce a1 3e ec d8 8b 3d 0c cc 56 3e 95 f6 48 be
       0.31602827 0.06828484 0.20976275 -0.19625314
0002d0 be 98 7d be 59 6b 38 be db f5 be be b8 9d bb 3e
       -0.24765298 -0.180097 -0.37296948 0.36643767
0002e0 75 65 d6 3d 83 a0 cc 3d 93 10 83 3d f8 05 ac be
       0.1046857 0.09991553 0.06399646 -0.33598304
0002f0 8c b4 c2 3d a8 f7 4e bc 44 23 a3 be 8c 8c f9 bc
       0.09507093 -0.012632288 -0.31862843 -0.030462526
000300 73 2c d6 be 30 10 a0 bd b9 cf 8a be c8 14 50 3e
       -0.41830787 -0.078155875 -0.27111605 0.20320427
000310 58 98 6d 3e d2 56 4b 3e b6 20 56 3e 3f 38 cb be
       0.23202646 0.19857338 0.20910916 -0.3969135
000320 55 4a 25 3e 89 ce 47 3e d3 f9 20 be 18 e9 42 bd
       0.16141637 0.1951238 -0.157203 -0.047585577
000330 39 17 de 3d 41 84 0f be bc f7 e1 be b3 ae 52 3e
       0.10844273 -0.14015295 -0.4413432 0.20574455
000340 28 5c ad 3d 2d b8 11 3c 85 f4 c1 3e 7c 96 40 be
       0.08464843 0.008894009 0.37881866 -0.18807405
000350 72 ff a7 3e ed 9f 07 bd 7b 24 26 be 4d df d7 3c
       0.32812077 -0.0331115 -0.16224854 0.026351595
000360 ac dc 11 bf ab ab f7 bd 35 45 1d bf fb 77 e7 3d
       -0.56977344 -0.1209329 -0.61433727 0.11302181
000370 80 38 95 3d 7a 05 f4 3c 37 19 4d 3e cd 9e 18 bb
       0.07286167 0.029787768 0.2002915 -0.0023288012
000380 b4 7f 8a 3e e7 b1 2f 3e d5 90 b0 bd 69 7e d2 be
       0.27050555 0.17157708 -0.086213745 -0.41112068
000390 56 8c 85 be be 68 10 3d ba b8 df be 7d e3 e5 3d
       -0.2608363 0.03525614 -0.43695623 0.112250306
0003a0 ba f2 dc 3d ae 79 ee bd b4 06 27 3d bb 86 93 be
       0.10788484 -0.11644302 0.040777877 -0.2881373
0003b0 f9 35 83 3e c9 91 84 3e c3 0f 50 be 73 c8 e3 be
       0.25627115 0.25892475 -0.20318513 -0.44488868
0003c0 3d f2 ef 3c 8d ee 83 be 61 5c fc be f1 f0 b5 bd
       0.029290313 -0.25767937 -0.4928923 -0.088838466
0003d0 d2 0c 21 bd f1 5a 75 be 72 bd f3 3e 4d 6e 89 bd
       -0.039318867 -0.23960473 0.47605473 -0.06710491
0003e0 d3 eb 26 3e 21 05 e4 3d a5 39 ab be f8 a5 1b bf
       0.16300897 0.11133791 -0.33442417 -0.60800123
0003f0 14 2d 04 bf e8 e8 32 bd 3c 53 69 bf d8 d4 d6 3d
       -0.51631284 -0.043679148 -0.9114263 0.104898155

road_emb.1.bias f4 [64]
000000 3f 08 fc 3c ff 38 25 3d 70 b8 4b bd 95 bf de 3b
       0.03076565 0.04033756 -0.04973644 0.0067977407
000010 a8 48 f5 3d 88 1a 52 bd 52 dd aa bd 3c 25 0f bd
       0.11976749 -0.051294833 -0.08342995 -0.03494762
000020 50 ca fc 3c 2f ec a5 bd b8 e2 b8 bd e8 c0 56 bc
       0.030858189 -0.08101689 -0.09027618 -0.013107516
000030 94 c9 9d be 91 8d cf bc c8 a2 d6 3b 55 b5 8f 3c
       -0.30817854 -0.025336059 0.0065501668 0.01754252
000040 5f a0 97 bd 10 c1 f1 bd 44 fc 68 be b9 12 5b bd
       -0.07403635 -0.11804402 -0.22752482 -0.053484652
000050 69 cc 30 be 5f 0c 7c be 43 82 bc ba 4a f5 c4 bd
       -0.17265476 -0.24614094 -0.0014382083 -0.09617098
000060 96 06 03 bd 6a 7b 35 3e 73 7a 97 bd 0f 80 ac 3d
       -0.031988703 0.1772286 -0.07396402 0.08422863
000070 aa ad 0c be de bb 19 be 62 28 37 bd 4a 59 49 3d
       -0.13738123 -0.15013072 -0.044716246 0.04915742
000080 ea 00 1a 3d eb e5 d1 3d c3 2f 3f 3d 78 1e bf bd
       0.037598528 0.102489315 0.04667641 -0.09331983
000090 ef 35 d7 bd 1c bf 98 bd 19 85 25 3e d3 c9 de bd
       -0.10508334 -0.07458326 0.16164054 -0.10878339
0000a0 77 94 ee bd 6b b9 a1 bc a7 fc 8f bd f5 b1 96 3d
       -0.11649411 -0.019741734 -0.070306115 0.07358161
0000b0 ab 6a 11 3d f1 97 20 bc f1 e5 ae bd be 53 a2 bc
       0.035502117 -0.009801851 -0.085399516 -0.019815322
0000c0 06 ef 58 3d bb 3d 3c bd 46 63 16 3d a5 85 42 3c
       0.052962326 -0.04595731 0.03671577 0.011872684
0000d0 2b fd 0c bb c5 bc 42 3d 1c c2 e4 bd a4 04 ec bc
       -0.0021513205 0.047543306 -0.11169836 -0.028810807
0000e0 fb 6c bb bd b6 33 89 be 9c e3 ff bd 44 4f 92 bd
       -0.09151646 -0.26797265 -0.12494585 -0.07144025
0000f0 09 79 b2 bd ca 63 bc 3d 53 f5 21 3d 6f ca 99 3d
       -0.08714492 0.09198721 0.0395406 0.07509314

cav_emb.0.weight f4 [11]
000000 2c a3 92 3f 2e 92 18 3f 5e 42 32 3f 57 0b 65 3f
       1.1456046 0.5959805 0.6963252 0.8947043
000010 d0 97 ed 3f a5 37 eb 3f a3 46 d7 3f 89 94 8e 3f
       1.8561954 1.8376356 1.6818432 1.1139079
000020 b5 c0 2a 3f e7 41 89 3f e2 9c b6 3f
       0.667003 1.0723237 1.4266627

cav_emb.0.bias f4 [11]
000000 03 a2 9f 3d 44 de 45 3d 45 9c 56 3d 0e 67 b3 3d
       0.07794573 0.048307672 0.052395124 0.087598905
000010 7c b1 ba bb 85 20 0d 3e 48 89 08 bd a8 a6 f0 3d
       -0.0056974273 0.13781936 -0.033334047 0.11750537
000020 a1 7d 2b 3e c6 2f f6 bc 73 63 37 bd
       0.16747142 -0.030052077 -0.044772577

cav_emb.1.weight f4 [64, 11]
000000 5e a7 bc be b3 02 f0 3d 74 50 82 3d 06 01 a0 3d
       -0.3684644 0.11719265 0.063630015 0.07812695
000010 99 1c 2a 3f c0 f7 af be d4 87 9d 3e e3 44 40 3e
       0.66449887 -0.34368706 0.3076769 0.18776278
000020 e9 10 03 3e 7f bb 3d be 01 a7 02 3e 5d 2d 6f be
       0.1279942 -0.18528555 0.1275902 -0.23357148
000030 ad c4 1a bd 82 f8 11 be d7 cc 65 be 95 1e ee be
       -0.03778522 -0.14254954 -0.22441421 -0.46507707
000040 d3 0f 8e 3e df 80 f7 bc 40 20 aa be 53 24 8b be
       0.27746448 -0.030212818 -0.3322773 -0.2717615
000050 c3 9e f6 3e 35 8b ab 3e 8f 39 ad be bb 6d cd be
       0.48168 0.33504644 -0.33832976 -0.4012278
000060 47 5b 6c 3c 06 07 46 3e 78 e9 6f 3f d9 a8 7b 3e
       0.014426059 0.19338617 0.9371562 0.24576129
000070 05 3e 62 be 58 86 5e 3d b6 89 cc 3d c4 92 b8 bd
       -0.22093971 0.05432734 0.09987204 -0.09012368
000080 4b 8d ed 3e 49 4a e0 3d b5 87 98 be b6 7c 52 be
       0.4639686 0.10951669 -0.29791036 -0.20555386
000090 cd dd 93 be 8a 52 5a bf 1d 8a 9e 3f 0e 3e 25 bf
       -0.28880158 -0.85282195 1.2385899 -0.6454781
0000a0 ae 9d 9c b9 cc 6b 13 be 9f 2f 0e 3e c1 4f f4 bd
       -0.0002987212 -0.1439659 0.13885354 -0.11929274
0000b0 11 97 a8 be 2e 9e a6 3e c8 3e af 3e 2b b8 f0 be
       -0.32927755 0.32542557 0.34227586 -0.4701551
0000c0 d7 e8 30 be 40 43 e9 3d 2a 68 5b 3e 92 08 19 be
       -0.17276321 0.1138978 0.21426454 -0.14944676
0000d0 fd bd 0d 3e 6c a4 87 be de 2a 87 3e 58 92 b8 be
       0.13842006 -0.2649263 0.26399893 -0.3604915
0000e0 f8 14 d5 be fb e3 09 3f df 82 6f bd f6 31 fd 3e
       -0.4161756 0.53863496 -0.058474418 0.4945218
0000f0 d5 24 a5 3e fc f6 74 be a2 1c 79 be 93 43 2c 3d
       0.32254663 -0.23922342 -0.24327329 0.04205663
000100 46 ec 92 bd f9 82 30 be 02 b6 57 be 86 80 cc bd
       -0.07173972 -0.17237462 -0.21065524 -0.099854514
000110 a6 e5 62 3e 1d 3e 7b be 1d c3 14 3e d9 b7 3f 3d
       0.22157916 -0.24535413 0.14527555 0.04680619
000120 a9 d8 ac be 9e a1 19 3e 00 e0 03 be 5d 36 41 be
       -0.3375905 0.15003058 -0.12878418 -0.18868394
000130 f6 26 dd bd 0e f9 c8 bd 45 1a 4e bd 9a 14 4a bd
       -0.10798447 -0.098131284 -0.05031802 -0.049336053
000140 9e ea 40 3f 9b 6f 35 be 45 ee 87 be 2d b8 3e 3f
       0.75358 -0.17718355 -0.26548973 0.7449978
000150 b1 11 c3 3e c5 9b 14 3e d5 df 7b bf 65 96 85 3e
       0.38099435 0.14512546 -0.98388416 0.26091304
000160 2d dd a2 be 58 6a 8b bd 14 a5 1c 3e 97 24 56 3d
       -0.3180937 -0.06807393 0.15297347 0.05228099
000170 af 75 02 3f 14 fe fc bc 11 2f 82 be 13 1f 4a 3e
       0.5096082 -0.030882873 -0.25426534 0.19738416
000180 88 79 3f 3d 74 39 cb 3d cf 8a b2 3d 83 3e 0a bf
       0.04674676 0.09923068 0.08717882 -0.54001635
000190 6d 18 0b 3e 58 f5 9a 3e b3 ae 82 3e 2c ca e8 be
       0.13583536 0.30265307 0.2552391 -0.45466745
0001a0 3f 52 95 be fb 03 16 3f 16 84 b0 bc 2f b6 21 3e
       -0.2916431 0.58599824 -0.021547358 0.15792154
0001b0 22 8b 5e be 5e b7 31 3e d3 b5 28 be 23 e7 ee be
       -0.21732762 0.17355105 -0.1647561 -0.46660718
0001c0 8a fa a7 3e 2c 98 62 be 13 07 4f 3f 11 d4 be bc
       0.32808334 -0.22128361 0.8087017 -0.02329448
0001d0 d2 d0 80 3d a4 33 aa 3d f8 53 0f bc 65 79 26 bb
       0.06289829 0.08310631 -0.008748047 -0.0025401947
0001e0 a7 37 6a bd cb 3d e2 3b e8 ad 1d 3c 8d 9a 03 3e
       -0.05718198 0.006904339 0.009623982 0.12851925
0001f0 6d f4 5b bc 65 5e 73 bd e6 8f 8f 3c 0d ba 68 3e
       -0.013424975 -0.059416194 0.01752467 0.22727223
000200 12 87 1c be 1d e2 28 3d e9 16 81 3e 96 b1 6a bc
       -0.152859 0.041231263 0.25212792 -0.014324566
000210 0c 6c b5 be 15 49 86 3e 49 bd b3 3e 9e 09 cc bd
       -0.35433996 0.26227632 0.3510535 -0.09962772
000220 89 d6 3b 3f 72 30 a1 3d 9a 44 a7 be 76 7b d1 3e
       0.7337423 0.07870568 -0.32669526 0.40914506
000230 cd fc c2 3d 31 77 b8 be 51 6f 24 3e 8b 89 9a be
       0.09520874 -0.36028436 0.16058089 -0.30183062
000240 1d fa 78 be c7 c2 a1 3e 52 b2 34 be a3 d2 f2 3e
       -0.2431416 0.31593916 -0.17646149 0.47426328
000250 3e 56 58 3e b8 02 a7 be 57 bd 4d be 27 3d 92 3d
       0.21126649 -0.32619262 -0.20091759 0.0714057
000260 6a 7e 84 be 77 dd b0 bd ec 75 8e be 22 e8 86 be
       -0.25877696 -0.08635991 -0.27824342 -0.26348978
000270 cd 82 36 3e 54 12 6e 3c f4 d7 06 3f a2 0a 42 3d
       0.17823334 0.014530737 0.5267327 0.04737342
000280 64 43 4b 3e 05 06 df bd 2f 0b b2 3c b0 10 58 3f
       0.19849926 -0.1088982 0.021733848 0.84400463
000290 18 f1 8f bd e6 14 d5 be de 68 f5 bd 41 c4 48 3e
       -0.07028407 -0.41617507 -0.119828925 0.19606115
0002a0 d8 03 00 be 92 e7 58 be c7 39 07 3e c2 d1 f8 3d
       -0.12501466 -0.21182087 0.13205634 0.12149383
0002b0 69 b5 e1 bd ec 3a 4d 3d e9 6d 23 bf 23 fc 0e 3f
       -0.11020929 0.05010502 -0.63839585 0.5585348
0002c0 9f 93 6c be ef 5e 8e be 2d 0a 63 3d 87 55 6b 3e
       -0.23103188 -0.27806804 0.055429626 0.22981845
0002d0 8d 14 9d 3d be 16 17 3f 7e 31 ff be b2 49 0b 3e
       0.076699354 0.59019077 -0.49842447 0.13602331
0002e0 0a ac 8d 3d 2b 04 b1 3c be b8 a6 be 7c 6f b7 3e
       0.069175795 0.021608433 -0.32562822 0.35827243
0002f0 57 af b1 be 1b 13 c2 bd b7 9c 88 3d d9 1d 2c be
       -0.34704086 -0.094763 0.06670516 -0.16808261
000300 4a 34 a0 bc 30 ad af 3e a6 1c b6 3c 05 13 70 be
       -0.019556183 0.3431182 0.022230458 -0.23444755
000310 37 f7 20 bf 2a e1 e6 ba bd 1d 29 3d a1 f4 07 3e
       -0.6287722 -0.0017614712 0.041288126 0.13276912
000320 a5 2c a2 3e fa cd 33 3e 7b c7 a8 3e 46 c9 a5 3d
       0.31674686 0.17559043 0.32964692 0.080950305
000330 60 6e ef bd ed e1 6f 3e 8a 76 1d 3e 48 78 57 3d
       -0.11690974 0.23426028 0.1537725 0.052604944
000340 95 9b b5 3d 7a 37 89 bd 1c c8 91 3d 28 48 2b 3e
       0.088675655 -0.067000344 0.07118246 0.16726744
000350 d6 56 a3 3d f6 4c 10 3f 91 34 ad 3d f8 e8 0b 3e
       0.07975547 0.56367433 0.08457292 0.1366309
000360 da 36 84 be 67 e6 ac 3d a9 41 78 3c 45 c7 b1 3d
       -0.25823098 0.08442383 0.015152373 0.08680586
000370 d1 24 a8 be cb 2d 82 be ce dc 8d be c3 a5 2d bd
       -0.3284059 -0.25425562 -0.27707523 -0.04239441
000380 11 86 95 bf 5d df 58 3f 65 c0 d9 3e c6 f8 6e bd
       -1.1681539 0.84715825 0.42529598 -0.058342718
000390 f4 d6 7f be 6c 26 1a be 0f 50 b5 be 5a cd 7b be
       -0.24984342 -0.1505372 -0.35412642 -0.24590054
0003a0 a4 dd ed 3d 18 21 73 3e cc 59 98 3d 39 bc 53 3f
       0.1161454 0.23743093 0.074390024 0.8270908
0003b0 40 46 e6 be 31 b6 54 be 9f 9b 85 3e 59 e2 0d 3e
       -0.44975471 -0.20772626 0.26095292 0.13855876
0003c0 18 ec 74 be 8e 0d 85 bd ab 5b 79 be 7a c3 27 be
       -0.23918188 -0.06496726 -0.24351375 -0.16383162
0003d0 36 fb b1 bc 09 5a 24 3e 87 16 23 bc 01 ba 87 bd
       -0.021726232 0.1604997 -0.009954101 -0.06627274
0003e0 af 59 b3 be f5 55 a9 3e c5 cd 66 3e bb 36 35 3e
       -0.3502936 0.33073393 0.22539432 0.1769666
0003f0 f6 1d 64 3d e3 d4 5a be fd 15 69 bd 76 31 57 3e
       0.055692635 -0.21370272 -0.056905735 0.21014962

cav_emb.1.bias f4 [64]
000000 c3 5c e3 bd 34 d0 a1 3d 7f 7c 92 bc b4 2c 93 3e
       -0.11101677 0.0790104 -0.01788163 0.28745043
000010 1d bc 63 3d 2f 52 a3 bd 54 5c f7 3b 5f 49 bd bd
       0.05559932 -0.0797466 0.007548848 -0.0924251
000020 a2 12 37 be 5c f3 3c bd ae 88 07 bc 76 3d 45 3d
       -0.17878202 -0.046130523 -0.008272333 0.048154317
000030 c8 a3 1b bd 00 b7 10 be 8a 1b b5 3d b1 97 8d bd
       -0.03799799 -0.14132309 0.08843143 -0.069136985
000040 2c 4d 12 bd f3 a7 c0 3c 5f e9 4f be 74 0f e6 bd
       -0.035718128 0.023517584 -0.20303868 -0.11233416
000050 25 c3 2d be 05 a9 09 be 08 8c 32 be 08 c1 00 be
       -0.16968973 -0.13443382 -0.1743623 -0.12573636
000060 9d 0c 9b 3b 18 c6 0d be 69 9e c7 3d 94 dd 00 be
       0.004731728 -0.13845098 0.09747011 -0.12584525
000070 e3 4a 3e bd 67 7e 5f bd 0a 3c b3 be b3 a7 d9 3c
       -0.046458136 -0.054563906 -0.35006744 0.026569223
000080 aa 8b c3 bd 7c 0d 90 bd 01 52 07 3d 77 f7 13 bd
       -0.09548123 -0.07033822 0.03303719 -0.036124673
000090 8e fb 49 bd 50 0a 35 be 98 87 2a 3c 44 d8 6d bd
       -0.049312167 -0.17679715 0.010408305 -0.058067575
0000a0 6e 35 39 be 12 c2 51 bd 6e d5 30 bd 53 6e a5 3d
       -0.18086788 -0.05121047 -0.043172292 0.08077683
0000b0 f8 b5 b1 bc 55 c8 a4 3c af 95 18 be 24 41 09 3c
       -0.021693215 0.020115057 -0.1490085 0.008377347
0000c0 f1 4d 5e bc cd a2 84 be c2 9a 44 bc b0 bf 80 be
       -0.013568387 -0.25905457 -0.011999788 -0.25146246
0000d0 4b 70 42 bd eb 50 84 bd 39 38 f4 be e9 d9 81 be
       -0.047470372 -0.064607464 -0.47699144 -0.25361565
0000e0 06 07 36 be 5e f4 a7 3a 5e 92 b4 3b 70 f3 86 be
       -0.17776117 0.0012813916 0.0055106124 -0.26357603
0000f0 65 00 a6 bd 0c 25 42 be 89 29 d8 bd 24 06 12 bd
       -0.08105544 -0.18959445 -0.10554797 -0.035650387
