route_TSC/model/0.5_hatt_router_joint_0315/ep70/q_netveh.pt (torch, 510246 bytes, 26 tensors)

attn f4 [1, 2, 37]
000000 80 01 88 50 f9 05 00 00 00 00 00 00 00 00 00 00
       1.8254397e+10 2.143e-42 0.0 0.0
000010 00 00 00 00 00 00 00 00 00 00 00 00 00 00 00 00
       0.0 0.0 0.0 0.0
000020 00 00 00 00 00 00 00 00 00 00 00 00 00 00 00 00
       0.0 0.0 0.0 0.0
000030 00 00 00 00 00 00 00 00 00 00 00 00 00 00 00 00
       0.0 0.0 0.0 0.0
000040 00 00 00 00 00 00 00 00 00 00 00 00 00 00 00 00
       0.0 0.0 0.0 0.0
000050 00 00 00 00 00 00 00 00 00 00 00 00 00 00 00 00
       0.0 0.0 0.0 0.0
000060 00 00 00 00 00 00 00 00 00 00 00 00 00 00 00 00
       0.0 0.0 0.0 0.0
000070 00 00 00 00 00 00 00 00 00 00 00 00 00 00 00 00
       0.0 0.0 0.0 0.0
000080 00 00 00 00 00 00 00 00 00 00 00 00 00 00 00 00
       0.0 0.0 0.0 0.0
000090 00 00 00 00 00 00 00 00 00 00 00 00 00 00 00 00
       0.0 0.0 0.0 0.0
0000a0 00 00 00 00 00 00 00 00 00 00 00 00 00 00 00 00
       0.0 0.0 0.0 0.0
0000b0 00 00 00 00 00 00 00 00 00 00 00 00 00 00 00 00
       0.0 0.0 0.0 0.0
0000c0 00 00 00 00 00 00 00 00 00 00 00 00 00 00 00 00
       0.0 0.0 0.0 0.0
0000d0 00 00 00 00 00 00 00 00 00 00 00 00 00 00 00 00
       0.0 0.0 0.0 0.0
0000e0 00 00 00 00 00 00 00 00 00 00 00 00 00 00 00 00
       0.0 0.0 0.0 0.0
0000f0 00 00 00 00 00 00 00 00 00 00 00 00 00 00 00 00
       0.0 0.0 0.0 0.0
000100 00 00 00 00 00 00 00 00 00 00 00 00 00 00 00 00
       0.0 0.0 0.0 0.0
000110 00 00 00 00 00 00 00 00 00 00 00 00 00 00 00 00
       0.0 0.0 0.0 0.0
000120 00 00 00 00 00 00 00 00
       0.0 0.0

fc0.weight f4 [32, 2315]
000000 0c cb 8e bb 7e 6c 10 3c 60 71 9d 3c 88 58 d8 3b
       -0.004357701 0.008814929 0.0192191 0.0066023506
000010 a0 cf 97 3c f9 c0 0a bc d4 84 9f 3c ff bc 30 bc
       0.01853162 -0.00846886 0.019472517 -0.010787248
000020 fc 32 8f 3c f6 ef 2a 3c d0 ec d4 ba 20 dd 8c 3c
       0.017480366 0.010433188 -0.0016244892 0.017195284
000030 40 72 62 3a 94 8c a4 3c 78 5e a8 3c f6 72 a3 3c
       0.00086382404 0.020086564 0.020552859 0.019952279
000040 9f bc a9 bc e2 e4 a2 bc 72 7b 27 3c c4 c1 b4 3b
       -0.020719824 -0.01988453 0.010222303 0.0055162627
000050 53 93 a6 bc b4 ef 69 3c 00 7b 4b ba a6 54 8e 3c
       -0.020333922 0.014278341 -0.0007762164 0.017374348
000060 6d 4b 9a bc 0c 75 62 3c 10 c9 7e bb 60 52 d3 3a
       -0.018834794 0.013821851 -0.0038877167 0.0016122572
000070 4c 9a 55 3c 2a 4e 25 bc 84 9c d1 bb da 4f 9e bc
       0.0130372755 -0.010089437 -0.006396832 -0.019325186
000080 98 84 6d 3b 68 57 df bb fa 4e 44 bc 30 1c 43 bc
       0.0036242362 -0.0068158396 -0.01198172 -0.011908576
000090 c6 76 a3 3c 54 4b b1 3b 00 1d 8c 3c 62 ed 06 bc
       0.019954097 0.005410591 0.017103672 -0.008235307
0000a0 90 82 7d bc 10 2c c1 3b d0 b0 44 3c 92 78 be bb
       -0.015473023 0.0058951452 0.012005046 -0.005812713
0000b0 20 07 a2 ba 40 05 6c bc ec 40 a2 bc 60 66 49 3a
       -0.0012361743 -0.014405549 -0.019806348 0.00076827966
0000c0 68 f0 04 3c 94 0a 80 bb a4 1f e2 bb 90 c7 c9 3b
       0.008113958 -0.003907511 -0.0069007445 0.006157823
0000d0 f4 e7 0c 3c 88 c6 a2 3c 20 52 92 3a b4 f8 63 bc
       0.008600224 0.019870058 0.0011163391 -0.013914276
0000e0 3e 4b ad bb a0 32 37 bb 1c b7 b8 bb 68 cd 37 3c
       -0.0052885106 -0.0027953759 -0.0056370627 0.011218406
0000f0 8c c7 e8 3b ac 52 5a 3c 9d 86 75 bc ac 9b 68 3c
       0.007103866 0.013325375 -0.014985708 0.014197271
000100 28 0c f2 bb 82 0b 6d bc a0 d2 d3 3b fe ad 64 bc
       -0.007386703 -0.014468076 0.0064643174 -0.013957499
000110 d4 09 6c 3c c4 12 31 3c a3 e9 81 bc 1b 6e 4c bc
       0.01440664 0.010807697 -0.015858477 -0.012477423
000120 44 38 e6 3b 50 26 14 bc 0c b5 34 3c bc 62 8c 3b
       0.0070257504 -0.009042338 0.011029493 0.004284231
000130 cc 7d 63 bc 80 1c 93 3c 7c 4b c9 3b a6 fd 96 3c
       -0.013884973 0.017957926 0.0061430316 0.018431496
000140 60 8f 01 ba 20 9a 66 bb 9c 41 fa 3b 70 cb fd ba
       -0.0004942324 -0.003518708 0.007637216 -0.0019362997
000150 c6 b2 a8 bc 29 f4 9f bc e0 0c 41 bc a2 af 9a bc
       -0.020593058 -0.019525604 -0.011782855 -0.018882576
000160 f0 03 a0 bb c6 58 8e bc 00 d9 c5 3b da 83 9f bc
       -0.004883282 -0.017376315 0.0060378313 -0.019472051
000170 a0 36 6f bb d1 54 94 bc b3 5e 94 bc 50 52 7e 3c
       -0.0036501065 -0.01810685 -0.018111562 0.0155225545
000180 c0 ed 22 3c 78 c2 dd 3b 00 47 99 3c a6 1d 86 3c
       0.009944379 0.0067675672 0.018710613 0.01637156
000190 16 34 ed bb 88 c0 63 3c 28 18 7e bb d2 c0 13 3c
       -0.007238875 0.0139008835 -0.0038771722 0.00901814
0001a0 5c ac c2 bb 68 40 2a 3b 80 90 65 ba fa ac 8d bc
       -0.005940957 0.002597833 -0.0008757189 -0.017294396
0001b0 be e4 74 bc 68 86 17 3c 76 28 b2 bb d8 bb 0f bb
       -0.0149471145 0.009248354 -0.005436952 -0.0021932032
0001c0 10 99 52 3c ad d6 01 bc d1 37 09 bc 53 4b 7e bc
       0.012853876 -0.007924718 -0.008375124 -0.015520888
0001d0 1c f5 49 3c 98 1f 27 3c 68 0d 0b bb e4 de 00 3c
       0.012326505 0.010200404 -0.0021217708 0.007865641
0001e0 5f 7d 4a bc 60 b9 51 bc 1a 70 8e 3c 70 3a a1 ba
       -0.012358992 -0.0128005445 0.017387439 -0.0012300741
0001f0 e2 11 37 bc 8c a2 35 3c 34 fd 32 3c b0 05 6d bb
       -0.011173697 0.0110861175 0.010924626 -0.003616672
000200 5c 47 fe 3b f8 a1 87 3b a8 7a 4f 3c 90 1e ee ba
       0.0077599715 0.004139181 0.012663521 -0.0018167067
000210 50 68 d8 3a d8 f3 cb bb a6 65 17 3c 60 ae 69 3a
       0.001651058 -0.006224137 0.0092405435 0.00089142285
000220 cc 5e d9 3b 0c c6 87 bc e4 e4 88 bc 80 03 81 ba
       0.006633615 -0.016573928 -0.016710706 -0.0009842962
000230 aa b9 89 bc a0 24 99 bb d1 61 89 bc 74 c2 60 3c
       -0.016812164 -0.0046735555 -0.016770275 0.013718236
000240 d8 2c 8b 3b 34 5a 56 bc c4 80 89 3c 1a 1b 99 3c
       0.004247289 -0.01308303 0.016785033 0.01868968
000250 dc dd e6 3b 40 3b 37 3b fa e8 db bb d4 0c cf bb
       0.0070454907 0.00279589 -0.0067111226 -0.006318668
000260 0a 81 8c 3c bc d7 21 3c 69 a4 80 bc 60 5e 41 3c
       0.017151374 0.009878095 -0.015703397 0.011802286
000270 40 38 5a bb 6c 1c 5d 3c f7 e2 23 bc 18 97 5e 3b
       -0.0033297688 0.013495546 -0.010002843 0.003396457
000280 39 7e 27 bc d0 e2 a3 3c a0 65 51 3a 10 2c 5f 3b
       -0.010222965 0.020005614 0.00079878606 0.0034053363
000290 ec 24 f3 bb 10 9b 49 bb 58 a8 41 3b e8 f1 df 3b
       -0.007420173 -0.003076259 0.0029549804 0.0068342574
0002a0 60 b1 95 bb a0 18 7f 3b 20 0d 18 3c f4 d3 7b bc
       -0.004568264 0.003892459 0.009280473 -0.015370358
0002b0 70 fb 60 3b f0 75 67 3b b0 41 85 3b e8 8a e9 3b
       0.0034329556 0.00353181 0.0040666685 0.0071271546
0002c0 e8 31 79 bb 40 08 ae ba 2a a4 a3 bc 54 24 8c 3c
       -0.0038024131 -0.0013277605 -0.01997574 0.017107166
0002d0 a0 94 8b bc b5 aa 41 bc 6e 18 8e bc 0e f1 c5 bb
       -0.017038643 -0.011820485 -0.017345633 -0.006040699
0002e0 22 e9 81 bc 14 1b 14 bc 2d cc 9e bc 14 be 28 3c
       -0.015858237 -0.009039659 -0.019384468 0.010299224
0002f0 21 40 8a bc 30 d7 9b ba d2 a5 28 bc 12 3e 0f 3c
       -0.016876282 -0.0011889692 -0.010293441 0.008742826
000300 90 d6 7c 3c 5b bf 69 bc 78 ca 6c bb 70 47 3b 3b
       0.015432015 -0.014266814 -0.0036131423 0.0028576516
000310 48 e8 04 3b 94 61 48 3c 93 c1 1d bc 70 7d d6 3a
       0.0020280052 0.012230296 -0.009628671 0.0016364288
000320 80 39 cd 3b a0 fa 3c 3a d0 cc 68 3c 7c 58 62 3c
       0.006262958 0.0007208977 0.014208987 0.013815042
000330 b8 3f 91 bc 10 ee c9 3b 30 2c 10 3c 5c 99 87 bc
       -0.017730579 0.0061624125 0.008799598 -0.01655262
000340 b8 70 05 3b 5c ec 85 3c 84 d3 97 3c 14 50 7e 3c
       0.0020361375 0.016348056 0.018533476 0.015522022
000350 c0 bf 8f 3c 8e 54 8f bc 8c 92 38 bc b8 79 99 bc
       0.017547488 -0.017496374 -0.011265408 -0.018734798
000360 ce 84 9a 3c 20 46 66 3c 4d 5a 86 bc 10 7c 22 3c
       0.018862154 0.014054805 -0.01640048 0.009917274
000370 ec 01 06 bc 30 ef b8 ba 00 2c 7a 38 34 e6 49 3c
       -0.008179169 -0.0014109369 5.9645623e-05 0.012322951
000380 56 9b 86 3c c4 13 d9 3b af 08 9a bc 1c 08 dc bb
       0.016431492 0.0066246707 -0.018802969 -0.006714834
000390 86 f0 63 bc 1c bb 8f 3c 60 c4 31 3b c0 5c b3 b9
       -0.013912326 0.017545275 0.0027125105 -0.00034210645
0003a0 81 e7 a3 bc 0c 76 62 3c fc 07 85 bc d4 69 fc bb
       -0.02000785 0.01382209 -0.016239159 -0.0077030454
0003b0 c6 f5 5c bc e4 9b 75 3c 20 9d 90 ba c8 19 ed bb
       -0.013486331 0.0149907805 -0.0011033155 -0.0072357394
0003c0 38 0c 72 3b 20 80 95 3b 27 1b 9b bc f6 b9 1f 3c
       0.0036933552 0.004562393 -0.018933846 0.009748926
0003d0 80 e6 d2 39 8c 1e 9c bc 52 cc fc bb e8 ea 5b 3c
       0.00040226057 -0.019057535 -0.0077147866 0.013422705
0003e0 40 01 7b 3c 78 01 42 3c f6 c5 a9 3c 48 79 df 3b
       0.015320122 0.0118411705 0.020724278 0.006819878
0003f0 20 82 1f ba 22 40 85 bc 4d df 78 bc a0 03 ad bb
       -0.0006084759 -0.016265932 -0.015189958 -0.005279973

fc0.bias f4 [32]
000000 8b ba 01 bc 2c 1c 8f 3c 18 f9 7f 3c 8c 94 6a bc
       -0.0079180105 0.017469488 0.015623353 -0.014317643
000010 ea f6 a3 bc a7 b9 6c bc 8e 23 04 bc 80 85 35 3c
       -0.020015199 -0.01444856 -0.0080651175 0.011079192
000020 c4 17 e6 bb 80 c6 5c 3b 00 f7 b6 38 64 f7 c6 bb
       -0.007021876 0.003368765 8.7244436e-05 -0.0060719717
000030 f6 33 b5 bb 28 40 85 bc 0b b9 68 bc 28 9a 66 3c
       -0.005529876 -0.016265944 -0.014204274 0.01407484
000040 8a f1 99 3c e0 5c 32 3b 10 a8 6e 3c 55 32 2a bc
       0.018791933 0.0027216002 0.014566436 -0.010387977
000050 80 4f 86 bb 8c 0a 9f 3c c0 64 85 ba 6b 6e 90 bc
       -0.0040988326 0.019414209 -0.001017712 -0.017630776
000060 e5 be a9 bc e0 97 2e 3a 10 ab 60 bc 9d 69 44 bc
       -0.020720908 0.00066602044 -0.0137126595 -0.011988071
000070 b0 4a 24 bc bc 14 1d bc 80 61 74 ba 07 d8 90 bc
       -0.0100275725 -0.009587463 -0.000932239 -0.017681135

fc1.weight f4 [32, 32]
000000 30 62 a5 3d 63 64 4a be 65 00 c7 3d e9 12 16 3e
       0.080753684 -0.19764857 0.09716872 0.14655651
000010 c9 52 81 bd 2a ec df 3d 2a 1e 1e bc a4 af b7 bd
       -0.06314618 0.109337166 -0.009650746 -0.08969048
000020 6e 98 a7 be cf 9f 3c 3e c6 cb 4d 3e eb b9 23 bd
       -0.32733482 0.18420337 0.20097265 -0.039972227
000030 26 6d 4d be ae a0 11 bf 49 5f fb 3d e4 26 d6 bd
       -0.20061168 -0.568858 0.122740336 -0.104566365
000040 00 f5 0f 3e 89 55 de be 14 fa 94 bd 33 fe b6 3c
       0.14058304 -0.43424633 -0.07274261 0.022338009
000050 12 e3 f0 3d ce b3 37 3e 1b 0b 4f bd 16 ae e1 bd
       0.1176206 0.17939684 -0.0505477 -0.110195324
000060 a2 42 7c 3b 4c c6 e7 3c e3 55 14 3e 0e fd c0 bd
       0.0038491865 0.028292798 0.14485888 -0.09423266
000070 f6 34 1c bf d5 f5 93 3e 27 f5 28 bd 4a 63 4d 3e
       -0.6101831 0.28898492 -0.04124942 0.20057407
000080 ea 01 ad be 89 9a 2e be d7 51 50 bf b4 d9 70 bd
       -0.33790523 -0.17051138 -0.8137488 -0.058801368
000090 5d d5 84 be 8d 0a 4f be c0 09 57 3e 3c 42 4b be
       -0.25944033 -0.20218869 0.20999813 -0.19849485
0000a0 21 e7 98 3d f2 c7 87 bf 11 7e 36 be a6 d0 0f be
       0.07465959 -1.0607893 -0.17821528 -0.14044437
0000b0 71 ba 03 3d a1 c6 b4 bc 69 2c b6 3d 45 55 0e 3e
       0.032160226 -0.02206737 0.08895189 0.13899715
0000c0 6a 6e 4d 3d bb 21 0a 3e 47 46 44 3e 44 50 99 3e
       0.050154127 0.1348943 0.19167434 0.2994405
0000d0 84 2e ef bd 20 8e 56 be c6 d7 fd bb 8c ca 8c 3c
       -0.11678794 -0.20952654 -0.0077466695 0.017186426
0000e0 64 ac 8b 3d 81 79 8e 3e c7 9d 46 3d 62 35 bd 3d
       0.0681999 0.27827075 0.048490312 0.092386976
0000f0 ad 88 b9 3d a3 3c ba bf cd 73 d4 3c 48 95 14 3c
       0.09059272 -1.4549755 0.025934124 0.009068795
000100 26 0c 59 3e 5a d7 19 3e fb 5f bc 3d e8 a7 d5 3d
       0.2119604 0.15023556 0.09197994 0.10432416
000110 c8 84 b0 bc ea 66 ff bd 5e 5b 5e be 9b 9c 81 be
       -0.02154769 -0.12470801 -0.21714541 -0.25314793
000120 1e ae dc be 45 81 d7 bd 41 72 ba 3d 0b 38 1a 3e
       -0.4310159 -0.10522703 0.091038235 0.15060441
000130 1a 2e 6a 3e 7b d8 a0 3d 8d a4 52 bd 75 7d 51 3d
       0.22869149 0.078537904 -0.05142646 0.051145036
000140 7e 28 85 3e 61 fc 58 3e cd 90 67 bb d4 67 3e bb
       0.26007456 0.21190025 -0.003533411 -0.0029053586
000150 cf e1 8f bd 7f 13 46 3e 13 0a a5 3d ae 0a 36 3d
       -0.070254914 0.19343375 0.08058562 0.04444378
000160 40 46 3d 3e 3a b2 1a bd cd 19 61 3e 5e 84 a9 3d
       0.1848383 -0.037767626 0.21982498 0.082772
000170 d5 d5 a0 3e d9 1a bb bd c8 a6 3a 3d 04 a9 4f be
       0.3141314 -0.0913598 0.04556921 -0.20279318
000180 3b dc 84 3d 43 9b e9 3c f6 30 a1 3d 09 b4 1d bd
       0.06487318 0.028516417 0.07870667 -0.038501773
000190 96 2c 23 3e c0 24 a3 bd bb eb 9f 3e 02 fc f9 bd
       0.15934977 -0.07965994 0.31234536 -0.1220627
0001a0 9d ff 16 bd 2a ef 1f 3e 04 98 5c 3e 82 43 c4 3d
       -0.036864866 0.15618578 0.21542364 0.095831886
0001b0 29 81 cb bc b8 b1 62 bf ff c6 46 3e 1c 55 4f bd
       -0.024841862 -0.8855243 0.19411848 -0.050618276
0001c0 9c c0 5a 3d e9 d6 58 bf f1 85 2f be a0 f6 a9 3e
       0.053406343 -0.84702927 -0.17140938 0.33195972
0001d0 7b 5a 5c be ed de e8 bd 22 45 c3 3d df 1f 47 3d
       -0.2151889 -0.11370645 0.095346704 0.04861438
0001e0 3d b8 93 3d 0a c6 9a bd 2a cf 15 bd e4 c2 0e be
       0.07212875 -0.07557304 -0.03657452 -0.13941532
0001f0 19 16 75 bf 5a 6b a6 3e 39 d9 6a bd c6 67 f3 bb
       -0.95736843 0.32503778 -0.057336066 -0.0074281422
000200 7f 7e ae be 4d 45 70 be 85 5c 16 bf fb c0 40 3d
       -0.34080884 -0.23463936 -0.58734924 0.04705904
000210 e0 b1 07 3e eb 79 4f be a5 be 3f 3e 60 1a a2 3d
       0.13251448 -0.20261352 0.18725069 0.07915187
000220 ce 2a 87 3d 46 ab 8c be d1 3a 93 bd 3a 50 ff bc
       0.06599961 -0.2747442 -0.07188953 -0.031166185
000230 b0 da 6b be b3 f8 53 bf b6 4f 8b bd 93 ef 3a bc
       -0.23032641 -0.8280136 -0.06802313 -0.011409658
000240 a4 49 66 3e 87 da 15 bd 79 38 aa 3e 26 6e 0a 3e
       0.22489029 -0.036585357 0.3324621 0.13518581
000250 76 5c 8f bd 87 96 f9 3d 83 c4 f8 be 8d c8 3f 3b
       -0.070000574 0.12186914 -0.48587427 0.0029263825
000260 e4 04 a5 bd 59 11 64 bc 72 d1 7f 3e f7 b8 15 bd
       -0.080575734 -0.013920152 0.24982241 -0.03655335
000270 2b 8f 30 3e bd 07 5f bf a0 35 11 be c5 b9 b1 3d
       0.17242114 -0.8712118 -0.14180613 0.08678011
000280 75 79 a8 bc 46 de ac bd 56 9e f4 be 63 07 52 be
       -0.020565728 -0.08440833 -0.4777705 -0.2051063
000290 54 22 8b 3e 75 52 8f 3c df b7 eb 3d f7 b6 98 3c
       0.27174628 0.017495373 0.1150968 0.018641932
0002a0 8b b7 58 3e 33 7d 54 bf e3 90 2b be e8 a8 08 be
       0.21163766 -0.8300354 -0.16754489 -0.13345683
0002b0 e5 2d ee bd ca d5 d3 bd d4 a5 9b bd 75 0b f5 3d
       -0.116298474 -0.103435114 -0.075999886 0.11965076
0002c0 d7 ff c2 3d 81 f8 6a 3b db 77 7c 3d c9 d1 42 bc
       0.09521454 0.0035853686 0.06163774 -0.011890837
0002d0 93 5f 8a 3d 05 57 e0 bc c5 c5 89 3d 0e d8 d8 3d
       0.067565106 -0.027385244 0.06727175 0.10588084
0002e0 76 4e fc 3d 93 0c 3e bd 0b 01 9c 3e 03 6c 90 3e
       0.12319653 -0.04639871 0.30469546 0.28207406
0002f0 73 6c 1d 3d db 4d ee be 56 84 2c 3d 00 3b 04 bf
       0.038433503 -0.46543774 0.042118393 -0.51652527
000300 44 2f ec be f9 e8 91 bf 23 6a aa bd 72 28 e1 bd
       -0.4612981 -1.1399223 -0.08321025 -0.109940425
000310 24 a2 16 bd 3d e5 a2 be 37 fb 26 3d 5a 0f 83 be
       -0.036775723 -0.3181552 0.04076692 -0.2559765
000320 00 62 42 be 2a 96 68 3c be 2a 17 be d3 f6 0b be
       -0.18982697 0.014195958 -0.14762399 -0.13668375
000330 2c 2d b9 be 30 0a 4e 3d 12 17 9b bd c1 8a 11 bf
       -0.36167276 0.050302684 -0.0757276 -0.56852347
000340 f9 dc 01 bf 02 2d eb bd 2a 22 4f 3e dc 0b bb 3e
       -0.507278 -0.11483194 0.20227876 0.36532485
000350 f0 c3 cc be 9f d7 63 bf c6 22 47 bf e4 45 31 3e
       -0.39993238 -0.89000887 -0.77787435 0.17311817
000360 01 36 ec 3d e3 76 f8 bc 4f 48 59 be 0c 8a 48 be
       0.11533738 -0.030330127 -0.2121899 -0.1958391
000370 80 e3 8a be 13 04 27 3f 25 d0 53 be f1 b2 73 3d
       -0.27126694 0.6524059 -0.2068487 0.059496824
000380 1a 44 b5 be 88 73 20 be 2b 87 4b 3e 11 08 0e bf
       -0.3540352 -0.15669072 0.19875781 -0.5548106
000390 e0 c4 16 3e d5 58 75 3e c4 a7 82 be 88 3b 11 bf
       0.1472354 0.23959668 -0.2551862 -0.5673146
0003a0 3a c2 52 bf e3 be 28 bd 46 f6 86 3e 5e b0 c7 bb
       -0.82327616 -0.04119767 0.26359767 -0.0060940227
0003b0 e3 1c 4f 3c 1d 9f b6 bc 9f ff c6 3d ab 01 f4 be
       0.0126411645 -0.022292668 0.097167246 -0.47657523
0003c0 96 63 78 3e cd 58 e2 3c 97 1e 31 bf df 04 a7 be
       0.24256739 0.027630234 -0.691873 -0.32620904
0003d0 38 2c 03 bf b3 e2 77 3c 60 0d 2f be e1 d6 3d bf
       -0.5123935 0.015129733 -0.17094946 -0.74156004
0003e0 35 ce 5a 3d 08 c2 a9 bd de 66 96 3d 46 09 95 3e
       0.05341931 -0.08288962 0.07343839 0.29108638
0003f0 42 68 c7 bd 12 3c 11 be 5d ff b3 be 47 3f 2e 3e
       -0.097366825 -0.14183071 -0.35155764 0.17016326

fc1.bias f4 [32]
000000 63 16 d1 3e 3a ba c6 3e 7c dc 59 3f fc e8 55 3f
       0.40837392 0.38813955 0.8510206 0.8355863
000010 8b 6d 7f 3e 73 5c 63 3f ca f9 53 3f 63 93 4a 3e
       0.24944131 0.8881294 0.8280302 0.19782786
000020 9b dc 08 3f ff 63 97 3e 98 de 6c 3f ac d0 41 3e
       0.5346162 0.29568478 0.9252715 0.18927258
000030 8a e3 79 3f 7b 1a ec be 09 0a 19 3e 14 6e 36 3f
       0.9761282 -0.46113953 0.14945234 0.71261716
000040 f4 fe 7d 3e 61 d4 8d 3e 17 46 75 3e 65 c7 3b be
       0.24804288 0.27701095 0.23952518 -0.18337782
000050 7a 0d 7e 3f f3 27 47 3f c3 40 d8 3e 27 48 3a be
       0.99239314 0.7779533 0.4223691 -0.18191586
000060 15 9b 84 3e 0b ab 05 3f 4d 6e 34 3f 32 04 6c 3f
       0.25899568 0.52214116 0.70480806 0.921939
000070 46 2f 87 3f 25 11 72 3f 3e c8 50 3f ad 46 35 3f
       1.0561302 0.9455741 0.81555545 0.7081097

fc2.weight f4 [3, 32]
000000 37 61 22 3e 45 91 03 3e 72 90 e4 bd e8 e6 21 3e
       0.15857397 0.12848385 -0.11160363 0.1581074
000010 28 3a b6 3e ae 3c a0 3c ce fc ec bd 57 10 ca bc
       0.35591245 0.019560184 -0.11571656 -0.024665995
000020 89 4e 8b bc 04 76 52 be 82 28 09 be bd 0f 47 3e
       -0.017005222 -0.20552832 -0.13394359 0.19439597
000030 a7 24 ea bd f8 fc 6f bc 12 44 95 3e 0d ff 75 3e
       -0.11432772 -0.014647715 0.29153496 0.24023075
000040 4e 7c 5b bc 21 18 c2 3e ec fa 17 bf 02 6b 1f be
       -0.013396336 0.37909034 -0.5936725 -0.15568164
000050 e8 59 48 bd af 54 1d 3d 92 27 f9 bb bb 8e ad bc
       -0.048913866 0.03841084 -0.007603594 -0.021186223
000060 db 86 25 bd 67 cf 75 bd 5f a5 a1 be 08 45 05 be
       -0.04041181 -0.060012247 -0.3157148 -0.13014615
000070 5b f7 3a be 70 20 1a be de 64 db bd 62 f4 c4 3d
       -0.18258421 -0.15051436 -0.10712598 0.09616925
000080 b1 85 08 3e 94 57 56 3e 57 f0 1e be 34 e9 53 3e
       0.13332249 0.20931846 -0.1552137 0.20694429
000090 32 0c 3e 3e 89 10 8e bc 6e 41 10 3d 5a b7 9f 3c
       0.1855934 -0.017341869 0.03521865 0.019496609
0000a0 26 bd b7 3d 4d f5 e2 bc 9d d5 0b be 76 c7 74 be
       0.08971624 -0.02770486 -0.13655706 -0.23904213
0000b0 4a 1f 3b be 99 87 89 bc bd c0 fa 3e 0c ba 0f be
       -0.18273655 -0.01678829 0.48975173 -0.14035815
0000c0 1f 8a cc ba d5 3a 35 3d 0c 79 94 3e 15 d1 01 bd
       -0.0015605128 0.04424556 0.289986 -0.031693537
0000d0 4d f2 87 bd 57 49 b2 bc 53 fb ab ba 97 a1 51 3c
       -0.06638012 -0.021763487 -0.0013121165 0.012794874
0000e0 65 89 59 bf da 7c a9 3c 35 7b 41 3d de 63 4a be
       -0.8497527 0.020689417 0.04723664 -0.19764659
0000f0 6b 21 26 be 45 19 50 be a3 ff cb bd 7c 8c 3e 3e
       -0.16223685 -0.2032214 -0.09960868 0.18608278
000100 03 c9 c7 bd 5d c0 58 bb 3a d6 b7 bd 56 26 a6 bd
       -0.09755137 -0.0033073642 -0.08976407 -0.08112781
000110 ee b3 44 3e a4 bc 77 bc b5 8c 28 3f 1d 77 2c be
       0.19209263 -0.015120659 0.658397 -0.16842313
000120 6a f1 af bd 31 a7 99 be 94 86 2d be ed 29 11 bc
       -0.08590968 -0.3001037 -0.16945869 -0.008860094
000130 06 e5 1c be f9 f9 7e 3d a3 bb 46 3e ba 20 dc bd
       -0.1532174 0.06225011 0.19407515 -0.107484296
000140 35 f0 9b 3c 5b fc 2d 3e d4 d4 28 3d 71 a3 a5 bc
       0.019035438 0.16990797 0.041218594 -0.020219536
000150 9c df 1e be f6 e8 b3 bd a7 62 1d bd 23 e7 89 bd
       -0.15514988 -0.08784668 -0.03842416 -0.06733539
000160 93 09 a7 bd 72 57 8e 3b e1 43 4e 3e 22 33 2a be
       -0.08156123 0.0043439204 0.20143081 -0.16621068
000170 9f 28 62 be b3 b3 18 be 4f 26 25 be 8e c2 8e bd
       -0.22085808 -0.149123 -0.16127895 -0.06970702

fc2.bias f4 [3]
000000 66 0d 8a bf 07 a5 46 bf ac 45 0b 3f
       -1.0785339 -0.7759556 0.54403186

road_emb.0.weight f4 [144]
000000 11 54 cd 3f af c2 87 3f c1 d7 b2 3f 93 91 75 3f
       1.604128 1.0606288 1.3972093 0.95925254
000010 68 32 54 3f 5c d8 96 3f 2b e7 9b 3f 00 e8 a4 3f
       0.82889414 1.1784778 1.2179922 1.2883301
000020 73 6f 89 3f 0a 79 71 3e 26 22 80 3f 4f 80 7e 3f
       1.0737137 0.23581329 1.0010421 0.99414533
000030 67 54 9d 3f 4a 46 69 3f e4 2d b1 3f f5 14 6b 3f
       1.2291383 0.9112288 1.384213 0.9182885
000040 ce 16 7f 3f e6 8e 78 3f 3d b4 96 3f 9b ee 8d 3f
       0.9964417 0.97093046 1.1773754 1.1088442
000050 2b a3 8f 3f d3 ee 80 3e 4c 7d 62 3f 3a 8f 66 3f
       1.122167 0.25182208 0.8847244 0.90062296
000060 cd 34 b1 3f 3c 43 80 3f 81 47 ad 3f 39 72 7d 3f
       1.3844239 1.0020518 1.3537446 0.99002415
000070 30 4c 5d 3f f9 e3 8f 3f 7e 3b 93 3f 03 80 a0 3f
       0.8644438 1.1241447 1.150253 1.2539066
000080 9e 32 92 3f 29 ce b7 3e 8e 92 82 3f 87 48 74 3f
       1.1421697 0.35899475 1.0200975 0.9542317
000090 1c c9 c0 3f 3e a4 84 3f 9f 32 b0 3f 25 c3 56 3f
       1.5061374 1.0362623 1.3765448 0.83891517
0000a0 43 7c 67 3f cf 06 93 3f 5d d0 d3 3f 0c 26 99 3f
       0.90423983 1.1486453 1.6547962 1.1964736
0000b0 90 66 a0 3f d0 39 4c 3e 72 cd 82 3f e6 e1 5f 3f
       1.25313 0.19943929 1.0218947 0.8745407
0000c0 ae 78 b8 3f dc f4 86 3f f4 f0 a7 3f 66 db 72 3f
       1.4411829 1.0543475 1.3120408 0.94866025
0000d0 fb 68 6b 3f a5 12 7c 3f 09 40 aa 3f b8 6c 91 3f
       0.9195706 0.9846595 1.3300792 1.1361303
0000e0 c6 34 a7 3f aa 38 5c 3e 9b a8 86 3f 1b 72 5e 3f
       1.306298 0.2150599 1.0520204 0.8689286
0000f0 6b 4e 90 3f 1c 96 6d 3f 36 4a af 3f 53 36 50 3f
       1.1273931 0.92807174 1.3694522 0.8133289
000100 71 fc 4c 3f 3b 8d 53 3f 84 27 ad 3f 5a 70 9c 3f
       0.80072695 0.82637376 1.3527684 1.2221787
000110 43 bb 90 3f 9b a6 e2 3e b0 98 93 3f e5 db 50 3f
       1.1307148 0.44267735 1.1530972 0.8158553
000120 41 2b ce 3f 0c fe 7d 3f 76 7a c5 3f fc ff 7c 3f
       1.610695 0.9921577 1.5427997 0.988281
000130 67 68 73 3f 76 a3 92 3f d4 3a 98 3f d5 7b 8e 3f
       0.9508118 1.1456134 1.1892953 1.113154
000140 07 dc 9a 3f d0 14 0c 3f 51 bc 8b 3f 6b bf ad 3f
       1.2098397 0.5471926 1.0916845 1.3574041
000150 ad 16 b4 3f c6 9e 98 3f 30 1c bf 3f 3a ea 5a 3f
       1.406942 1.1923454 1.4930477 0.8551365
000160 b1 4a 3c 3f ca 02 74 3f 53 2b b2 3f 48 08 8e 3f
       0.7355147 0.95316756 1.3919472 1.1096277
000170 c1 6a 94 3f 16 93 75 3e f3 51 86 3f 1f d5 b2 3f
       1.1595079 0.2398189 1.0493759 1.3971289
000180 d3 c6 9f 3f 0b 75 72 3f 19 ee c5 3f e8 e5 6b 3f
       1.2482551 0.94709843 1.5463287 0.92147684
000190 a7 4f 59 3f 30 29 60 3f 7f ba c1 3f 4f bb 93 3f
       0.84887165 0.8756285 1.5135039 1.1541537
0001a0 ad c6 8f 3f f7 4b 97 3e d8 c4 91 3f bc 10 b2 3f
       1.1232506 0.29550144 1.1388197 1.3911357
0001b0 64 e7 c5 3f b4 af 65 3f b7 d4 b6 3f 9f 59 5f 3f
       1.546124 0.89721227 1.4283665 0.87246126
0001c0 c0 fb 77 3f 27 cc a4 3f c9 3a a6 3f 94 46 93 3f
       0.96868515 1.2874802 1.298669 1.1505914
0001d0 36 9a ac 3f bf 36 10 3f f4 33 b9 3f 0f d9 6a 3f
       1.3484561 0.56333536 1.446898 0.91737455
0001e0 ff 64 93 3f 32 40 8a 3f 23 33 b9 3f 90 d6 81 3f
       1.1515197 1.0800841 1.4468731 1.0143604
0001f0 6f 06 8a 3f 1b 9b 89 3f d4 63 a3 3f 46 6f 99 3f
       1.0783213 1.075046 1.276484 1.1987083
000200 b0 55 a6 3f 70 d7 06 3f e3 41 bd 3f 57 b2 7a 3f
       1.29949 0.5267248 1.4785732 0.97928375
000210 f8 f7 b2 3f ab 3b 7d 3f 8d fc ba 3f ab 44 4e 3f
       1.3981924 0.9891917 1.4608322 0.8057353
000220 8c 95 6b 3f c8 0b 78 3f c5 db 96 3f 0f 8b 96 3f
       0.92025065 0.96892977 1.1785818 1.1761187
000230 e3 1c 9a 3f 51 ed 02 3f cc fc ad 3f f1 c0 67 3f
       1.2040066 0.51143366 1.3592772 0.9052878

road_emb.0.bias f4 [144]
000000 73 76 a6 3e 96 ce 57 3e ce f7 3b 3e 22 8b 4c 3e
       0.32512245 0.210749 0.18356249 0.1997495
000010 4c 93 a6 3e 38 11 2d 3e 6e 03 05 3e f0 bd d4 3e
       0.32534254 0.169011 0.1298959 0.4155116
000020 f5 95 40 3c 88 0b 41 bf 5b 48 af 3e 0b 04 a6 3e
       0.011754503 -0.7540822 0.3423489 0.3242496
000030 b6 8c 90 3e 4c ab b2 3e 47 dd 65 3e e8 8e 99 3e
       0.28232354 0.34896314 0.22447692 0.2999184
000040 78 2d 77 3e c1 a2 98 3e 00 5d 1e 3e 9e a4 af 3e
       0.24138439 0.2981167 0.15465164 0.3430528
000050 b4 6e 13 bd 08 be 4c bf 18 e1 8f 3e d5 4c 92 3e
       -0.035994247 -0.79977465 0.2810142 0.28574243
000060 6e 17 94 3e f4 af 60 3e ad a1 b0 3e 1c 1d 2b 3e
       0.28924125 0.21942121 0.3449835 0.16710323
000070 44 25 ae 3e 9a d1 94 3e d6 5e 08 3e 3a ad bf 3e
       0.34012806 0.29066163 0.13317427 0.3743685
000080 cb 06 ca bc 89 97 24 bf 30 32 bc 3e 1d 46 9e 3e
       -0.024661442 -0.64293724 0.3675704 0.30912867
000090 fa 93 78 3e e3 97 58 3e c4 c8 ab 3e b4 73 94 3e
       0.24275199 0.2115169 0.3355161 0.28994524
0000a0 9b bb 8d 3e d7 cd 0b 3e 55 26 f6 3d f5 2e ce 3e
       0.27682194 0.1365274 0.1201903 0.402702
0000b0 9b 72 92 bb 84 81 24 bf 67 9f a6 3e d0 5c 92 3e
       -0.0044692284 -0.64260125 0.3254349 0.28586435
0000c0 26 01 b2 3e 32 82 6d 3e 9a 44 af 3e 6d e8 60 3e
       0.347665 0.23194197 0.34232026 0.21963663
0000d0 54 65 ab 3e 91 ac 9c 3e b5 4c 00 3e 8f c4 bf 3e
       0.33475745 0.30600408 0.12529261 0.3745465
0000e0 ea 76 df 3c 6b f9 33 bf bd 94 b1 3e 94 68 88 3e
       0.027278382 -0.70302457 0.3468379 0.26642287
0000f0 f2 8f 5b 3e 34 3d 9d 3e 24 da c4 3e 2c c2 87 3e
       0.2144163 0.30710757 0.38447678 0.2651533
000100 cb cc a1 3e 8f 74 96 3e d1 94 e4 3d 66 0e c4 3e
       0.31601557 0.29385802 0.11161197 0.38292235
000110 55 da 1b bd d9 ce f6 be 0c d5 c9 3e 1f e3 84 3e
       -0.038050015 -0.48204687 0.39420354 0.2595453
000120 ba 59 b8 3e 09 9f 9a 3e 23 e0 59 3e d7 1b 51 3e
       0.36005956 0.3019946 0.21276908 0.20420776
000130 1f 0d ab 3e be bb 49 3e db d3 99 3e 7f b7 ae 3e
       0.33408448 0.19700524 0.30044445 0.3412437
000140 64 75 07 bb 67 6b d3 be a8 d5 ad 3e 7a 7e 8a 3e
       -0.0020669335 -0.4129288 0.3395207 0.2704962
000150 e2 15 94 3e 82 51 1c 3e bd 11 53 3e b1 b4 8b 3e
       0.28922945 0.15265468 0.20612235 0.27286294
000160 10 31 97 3e d0 4d 83 3e f0 b2 11 3e 37 96 b9 3e
       0.2952962 0.25645304 0.14228415 0.36247417
000170 ee b1 b6 3c 85 8a 48 bf 02 97 b1 3e ce 1b 62 3e
       0.02230164 -0.78336364 0.34685522 0.22080919
000180 7d 23 a7 3e c5 5d 8e 3e a9 c3 75 3e 7a e2 75 3e
       0.32644263 0.27805915 0.2400042 0.24012175
000190 88 30 98 3e a7 a7 a7 3e 71 8b 47 3e 28 6f c5 3e
       0.29724526 0.32745096 0.19486786 0.38561368
0001a0 e1 42 77 39 ee 9b 1e bf e5 1f ce 3e b0 f9 75 3e
       0.0002358067 -0.6195668 0.4025871 0.2402103
0001b0 dc 2f 9c 3e 62 63 9f 3e db 5e ab 3e 16 28 98 3e
       0.30505264 0.3113051 0.33470806 0.29718083
0001c0 96 9d 85 3e 1a e7 c1 3d 2a 53 77 3e 6f b9 ae 3e
       0.2609679 0.09467907 0.24152818 0.3412585
0001d0 39 f1 8d 3c b7 9d ba be 4d 0c 54 3e 49 ff 92 3e
       0.017326938 -0.36448452 0.20707817 0.28710392
0001e0 ac 0e ad 3e 25 5d 6b 3e 84 35 a4 3e 08 a2 76 3e
       0.33800256 0.2298475 0.3207208 0.24085248
0001f0 1b b7 40 3e a5 28 42 3e 98 55 4c 3e 89 2e ca 3e
       0.18819849 0.18960817 0.19954526 0.39488629
000200 69 35 09 bd 52 ad cc be ff 55 91 3e 9b 35 9f 3e
       -0.0334982 -0.39975983 0.28385922 0.31095585
000210 ad 6e b0 3e 19 7b 62 3e 3f 6e ba 3e e0 c1 99 3e
       0.3445944 0.2211727 0.36412236 0.30030727
000220 a6 c0 62 3e f1 e0 a3 3e 61 1a 8a 3e 7f d4 a5 3e
       0.22143802 0.32007554 0.2697325 0.32388684
000230 c9 b9 ee 3c 0c e7 f5 be d0 31 88 3e be 06 94 3e
       0.029141324 -0.48027837 0.26600504 0.28911394

road_emb.1.weight f4 [64, 144]
000000 24 fe a2 be ec cd 08 be 5a 7f 3f bf 8d 06 15 be
       -0.3183452 -0.13359803 -0.748037 -0.1455328
000010 bb 94 14 3e 3f f5 0c 3e 84 ce 9e b9 38 ac 1e 3f
       0.14509861 0.13765429 -0.00030289975 0.61981535
000020 93 20 ea 3d dc d8 6a be 4b 37 fd 3e ec 5a 22 be
       0.11431994 -0.22934288 0.49456248 -0.15854996
000030 50 50 2c be 57 bf 77 be cf 19 12 bf f1 56 dd be
       -0.16827512 -0.24194084 -0.5707063 -0.43230394
000040 e9 57 47 3e 8f 66 96 3c f1 6f 00 3e 3a 1e 02 3f
       0.19467129 0.01835945 0.12542702 0.5082737
000050 8e c1 b3 bc 54 a0 0a be 71 e3 ca 3e 28 95 90 bd
       -0.02194288 -0.13537723 0.3962665 -0.07059699
000060 47 7c a8 be 1e ba 5a 3d 4b e4 6a bf 0f d1 e6 3d
       -0.32907316 0.05340015 -0.917546 0.112703435
000070 fb 3a 19 3d 73 fa 88 3e b2 9b fe bb 4d f8 0e 3f
       0.037409764 0.26753578 -0.007770025 0.55847627
000080 b0 48 f3 3c 24 5c c4 bd a3 d5 0d 3f 23 8e 47 bd
       0.029697746 -0.09587887 0.5540411 -0.048719537
000090 23 89 b6 be 7c 15 02 3d ea d3 10 bf 5d 6e 0e bf
       -0.35651502 0.03175877 -0.56573355 -0.5563715
0000a0 f1 72 95 bb fa 9f c9 3d a1 02 44 3f 3e b4 f7 3d
       -0.004560821 0.09844966 0.7656651 0.12094925
0000b0 02 76 0d be fe 29 04 3e 1e 86 06 3e 8a 6f 48 b9
       -0.13814548 0.12906644 0.13137099 -0.00019115038
0000c0 be 72 fe 3d a0 1c c7 bd 09 a3 e9 be 76 a9 be bd
       0.12424229 -0.09722257 -0.45632198 -0.09309666
0000d0 1a fa 27 3d f1 24 f1 bd 29 3f cb 3e 6f 84 ae bb
       0.04101 -0.11774624 0.39696625 -0.005325846
0000e0 95 d8 86 be d7 95 ac bd 79 73 9f 3e 1c 30 cb bd
       -0.26337114 -0.08427017 0.31142786 -0.099212855
0000f0 a3 50 97 be 19 5f 0b 3c 9f b2 1c bf 6e 3c c9 be
       -0.29553708 0.00850656 -0.61210054 -0.39303917
000100 47 16 7a 3e dc ba 02 3f 37 a8 3c 3d 7a 31 cb bc
       0.2442256 0.51066375 0.04605886 -0.024803866
000110 86 ea 03 be 31 af 35 be 4d b8 c8 3e 61 9c 59 be
       -0.12882432 -0.17742611 0.3920311 -0.2125106
000120 7d 41 bf be 2c 10 ca 3d f6 18 95 be 0c df 10 be
       -0.3735465 0.09866366 -0.29120606 -0.14147586
000130 15 bb 13 3e a3 81 31 3e f3 10 f0 3d 09 06 15 3e
       0.14426835 0.17334609 0.11721983 0.14553083
000140 58 cb 45 bd da c7 09 3e fa 79 8a 3e 8e dc 1f bf
       -0.048289627 0.13455144 0.27046186 -0.62445915
000150 18 b4 63 3e 29 c2 43 bd ba ec ae be 7a 77 cc be
       0.22236669 -0.047792587 -0.34164983 -0.39934903
000160 55 c6 29 3e 10 0d d4 3d b0 bf ce 3c 1e 7f 91 3e
       0.16579564 0.10354054 0.025237888 0.28417295
000170 68 dc 97 be 38 2f d6 bd 06 39 db 3e 7f 37 40 be
       -0.29660344 -0.10458225 0.42816943 -0.1877117
000180 5a 6e 97 3d d9 2b f0 bd 76 ad da be 92 4a a5 be
       0.07394095 -0.11727113 -0.42710465 -0.32283455
000190 0a b9 59 bd 14 6e 4c 3e f4 96 57 3e fc fd 84 3e
       -0.053154983 0.19963866 0.21053678 0.25975025
0001a0 ad d9 69 3d a4 20 61 3e 01 c4 e1 3e b5 43 82 be
       0.057092357 0.21985108 0.44094852 -0.2544228
0001b0 47 55 a0 be a5 c6 24 3e a9 0a bf be 00 fe c3 be
       -0.3131506 0.16091402 -0.3731282 -0.38279724
0001c0 0f f0 49 bd 70 14 a2 3d 06 11 cb 3e 66 b9 3d bd
       -0.049301203 0.079140544 0.39661425 -0.046319388
0001d0 61 78 b7 bd d8 7e a0 3d a0 70 2c bb 98 24 9b bc
       -0.08958507 0.078366935 -0.0026312247 -0.018938348
0001e0 13 0a a6 bd 53 56 8b be 34 e6 a8 bd 9f a1 47 be
       -0.0810739 -0.27214298 -0.08247033 -0.19495247
0001f0 a7 4b cd 3c c3 3c 07 3d 42 6a 01 3f d4 2c 31 3d
       0.025060488 0.03301693 0.5055276 0.043255642
000200 ec 6a 72 3d c6 5b 8c bd 58 54 c1 bd 35 b0 fe 3c
       0.059184 -0.06853442 -0.094399154 0.031089881
000210 cc fd 58 be ba da 07 bd 8b 4b 56 be aa 92 02 bf
       -0.21190566 -0.03316758 -0.20927255 -0.5100504
000220 e5 b7 00 3e b9 2a de 3e 89 34 4e 3f 55 8b 95 bd
       0.1257015 0.4339197 0.8054891 -0.07301966
000230 dd 3e 90 bd 49 ba f4 3c b1 6f 8c be e1 a6 02 bd
       -0.0704324 0.029873984 -0.27428964 -0.03189743
000240 28 36 b9 be f3 83 36 be 19 a4 50 bf ad 97 e2 3d
       -0.3617413 -0.17823772 -0.81500393 0.11064086
000250 08 b2 22 3e c7 68 9c 3c f6 f8 c3 3e ad 85 6e 3e
       0.15888226 0.01909293 0.3827588 0.23293181
000260 3f 36 ca 3d 63 46 1c 3e 86 e3 d2 3d c2 87 a7 3c
       0.09873628 0.15261225 0.10297303 0.020450477
000270 eb b8 68 3d 1f f3 86 be b0 86 3c bf 40 fb 9d 3c
       0.056816977 -0.26357362 -0.73643017 0.019284844
000280 dc 56 2d bc 83 b1 89 3d fb 9f a2 3e e3 3b 9d 3d
       -0.010579791 0.06723311 0.3176268 0.07677438
000290 25 a4 9e 3c 73 b0 1c be 66 7e dc 3d e9 ef 3b be
       0.01936538 -0.15301685 0.10766296 -0.18353237
0002a0 6d 8e 0f be 65 7d 57 be 88 28 42 bf 64 a8 26 3e
       -0.14019175 -0.21043928 -0.75843096 0.16275173
0002b0 13 74 89 3e 9f dd cd 3d 5c 34 05 3e 92 f7 c6 3d
       0.2684637 0.100520365 0.13008255 0.09715189
0002c0 89 96 9f 3e df 10 a9 3d f8 2d 63 3e e9 ee 02 bd
       0.31169537 0.08255171 0.22185504 -0.031966124
0002d0 4f 15 1a be 13 0a ce bd 4d 05 de be 03 42 b1 3e
       -0.15047191 -0.10060515 -0.4336342 0.34620675
0002e0 4d ab 11 3e ee b3 6d 3d 55 33 cd bc 1a b2 dc bd
       0.14225502 0.058032922 -0.025048891 -0.10776158
0002f0 76 47 ba 3d 25 b6 c5 bc a6 d2 a7 be 4f 96 0d 3e
       0.09095661 -0.024134705 -0.327779 0.1382687
000300 80 5a b0 be 89 51 82 bd 08 a8 aa be da 5a 35 3e
       -0.34444046 -0.06363208 -0.33331323 0.17710438
000310 d8 b1 8c 3e 8e b1 78 3e 24 d4 f7 3d 58 a8 32 be
       0.27479434 0.24286482 0.121010095 -0.1744703
000320 2f 0c 23 3e 23 75 33 3e 96 43 29 be d7 b3 ce 3d
       0.15922616 0.17525153 -0.16529688 0.100928955
000330 54 35 c5 bb 94 86 30 be 4f eb 01 bf c5 df 32 3e
       -0.00601832 -0.17238837 -0.5074968 0.17468174
000340 c7 dd 09 3e 26 3a 67 3c 2d 6d 9c 3e a4 ab cd 3c
       0.13463508 0.014112985 0.30552045 0.025106259
000350 3e 6b a6 3e 35 79 ca bc b5 7b 2f be 6f 6c 45 3e
       0.32503694 -0.024716 -0.17137034 0.19279645
000360 66 dc d5 be 70 fe 55 be 3a a2 31 bf 2d ed a0 3d
       -0.41769713 -0.20897841 -0.69388163 0.07857738
000370 64 94 eb 3d c4 2f 2e bb 85 19 11 bd f5 9e 0a 3e
       0.11502913 -0.0026578763 -0.035424728 0.135372
000380 8b be 89 3e 90 97 42 3e 72 05 cf bd e4 57 b4 be
       0.26903185 0.19003129 -0.101084605 -0.35223305
000390 e3 f4 14 be 2a 0b a7 bc ed fd 03 bf 72 cd a9 3d
       -0.14546542 -0.020391066 -0.51559335 0.08291139
0003a0 86 1e 1d 3e e0 38 13 be 8f af 92 ba 54 62 10 be
       0.15343675 -0.14377165 -0.0011191237 -0.14100009
0003b0 8f 37 81 3e e2 85 64 3e 5c 8c 58 be ad f3 cc be
       0.252377 0.22316697 -0.21147293 -0.4002966
0003c0 ba b1 3a bd c1 ef 7c be 72 2c 13 bf c4 c3 ee bd
       -0.04557965 -0.24700834 -0.57489693 -0.11658433
0003d0 20 bf 1c 3c 2e 23 7b be 90 d1 dc 3e eb e7 a8 3d
       0.009567052 -0.24525139 0.43128633 0.0824736
0003e0 f1 ac 22 3e e6 e3 e2 3d 8a c6 ac be 7d 64 0f bf
       0.15886284 0.110786244 -0.33745223 -0.5601271
0003f0 75 5d 1c bf f4 d3 36 bd ab 6e 72 bf 3e f0 9f 3d
       -0.61080104 -0.044635728 -0.94700116 0.078094944

road_emb.1.bias f4 [64]
000000 42 5f 18 3c 27 42 82 3d 6b 47 1a bd 98 84 f2 bc
       0.009300055 0.06360274 -0.037665766 -0.029604241
000010 0c fa 05 3e 30 7b 6f bd 15 c9 f0 bd 88 61 ca bc
       0.13083667 -0.05846709 -0.11757103 -0.02470471
000020 1c 7e 0d 3d 88 d8 f8 bd 00 1d 04 be 6a fb b5 bc
       0.034544095 -0.12150675 -0.12901688 -0.02221461
000030 b3 63 c3 be 49 12 8c bd 38 3d 3d bd 30 ae 69 3c
       -0.38162002 -0.06839425 -0.04620096 0.014262721
000040 d6 a1 a4 bd 5b c0 1e be 61 be 96 be 96 bd 0d bd
       -0.0803868 -0.15503065 -0.29442123 -0.03460463
000050 55 f8 40 be 7d dc bc be 3a 65 e4 bb 78 09 00 be
       -0.18844731 -0.3688697 -0.006970075 -0.12503612
000060 59 c7 c7 bc ce bf 65 3e 10 c8 07 be c0 8d ce 3d
       -0.024387049 0.22436449 -0.13259912 0.100856304
000070 e2 04 41 be 14 e4 0d be 18 9c 69 bd 38 a0 49 bc
       -0.18849519 -0.13856536 -0.05703363 -0.0123062655
000080 c2 2b 8c 3d 00 a6 c0 3d 23 d2 f3 3c a7 68 fe bd
       0.06844284 0.09406662 0.029763287 -0.124223046
000090 95 78 ce bd 3c ce aa bd 8e 99 65 3e 62 9f ef bd
       -0.10081593 -0.08340117 0.22421858 -0.11700322
0000a0 bc 24 00 be 91 75 14 bd 3c 80 09 be 06 3a c9 3d
       -0.12514013 -0.036244933 -0.13427824 0.0982552
0000b0 14 30 9d 3d 5e e2 07 bd 23 dc a9 bd 3a dc 74 bc
       0.07675186 -0.033174865 -0.08293941 -0.014945084
0000c0 ae 4c 4c 3d 46 f8 80 bd 32 1b 57 3d 3a e0 23 3d
       0.049877815 -0.062973544 0.05251617 0.04000876
0000d0 90 56 b1 3b b2 28 c8 3d 62 c5 0b be cd f1 bf bc
       0.0054119304 0.09773387 -0.13649514 -0.02343073
0000e0 f8 28 df bd bf 09 92 be a5 88 1c be 85 5a 9b bd
       -0.10896486 -0.2852306 -0.15286501 -0.075856246
0000f0 0e 27 d6 bd 20 74 da 3d e7 8f 79 3d 26 a3 17 3d
       -0.10456668 0.1066668 0.06092825 0.037020825

cav_emb.0.weight f4 [11]
000000 85 4c 92 3f 5e e7 13 3f 1d 54 27 3f 7a 2c 5e 3f
       1.1429602 0.57774913 0.6536272 0.86786616
000010 7f e2 fa 3f 66 1a f3 3f 46 1f e3 3f 73 1c 74 3f
       1.9600371 1.8992431 1.7743919 0.9535591
000020 a0 c4 21 3f 25 4a a3 3f 09 3f d7 3f
       0.6319065 1.2757002 1.6816112

cav_emb.0.bias f4 [11]
000000 f3 bb ae 3d b5 06 1a 3d 5b 96 2a 3d 04 5d 0c 3e
       0.08531942 0.037604053 0.041647296 0.13707358
000010 70 dd f6 ba af 1d a9 3d b8 6d 17 bd 8e e6 42 3e
       -0.0018834304 0.08257615 -0.03696987 0.19033262
000020 ef e8 4f 3e 7b 73 0e 3c 87 35 ff bc
       0.20303701 0.008694525 -0.031153454

cav_emb.1.weight f4 [64, 11]
000000 dc 50 d4 be 21 86 93 3e 71 e7 09 3e 2f ca 00 3e
       -0.4146794 0.2881327 0.13467194 0.12577127
000010 a5 1b 15 3f 03 a9 c2 be cc 7d da 3e 03 8f 5d 3e
       0.5824531 -0.3801957 0.426741 0.21636586
000020 82 f7 6d 3e cf 19 95 be ca aa 99 3d 39 96 8d be
       0.23238948 -0.29121253 0.075032786 -0.27653673
000030 b3 f6 d1 bd 01 a3 06 be c4 d7 a7 be 41 d0 d9 be
       -0.10252132 -0.13148119 -0.32781804 -0.42541698
000040 cc af cf 3e 48 ad cf bd ff 4c b2 be 91 1a 86 be
       0.4056381 -0.10140473 -0.34824368 -0.26192144
000050 5a 32 13 3f 26 3f c5 3e d3 f4 dd be 88 f5 d8 be
       0.57498705 0.3852474 -0.4335085 -0.42374825
000060 72 9f 52 3d 09 d3 cb 3e 81 79 5f 3f 4f 0c 33 3e
       0.05142159 0.39809445 0.87294775 0.17485164
000070 5a c7 d6 bd 10 8a 69 3d 17 99 81 3e f9 5c 6d bd
       -0.10487242 0.057016432 0.2531211 -0.057949994
000080 85 14 b0 3e 5c 6a ec 3d 44 f4 95 be 91 e7 5b be
       0.34390655 0.11543724 -0.29287922 -0.21475054
000090 91 4a a4 be be b6 65 bf b2 95 a1 3f 98 d9 2a bf
       -0.3208814 -0.8973197 1.2623808 -0.6673827
0000a0 02 00 08 3e 9e bd 4a be 2f 93 06 3e dc 98 02 be
       0.13281253 -0.19798896 0.13142084 -0.12753624
0000b0 2f b1 b2 be 1e e2 a5 3e c8 e3 d2 3e 81 84 06 bf
       -0.34900805 0.32399076 0.41189408 -0.52545935
0000c0 41 1a 17 be 5c 2b 22 3e 15 67 13 3e 12 50 2f be
       -0.14756109 0.15836853 0.14394791 -0.17120388
0000d0 13 99 f2 3d 8e c4 86 be b6 62 96 3e eb 29 02 bf
       0.11845603 -0.26321834 0.29372185 -0.5084521
0000e0 ea aa 97 be d7 a6 d1 3e eb c1 5e bd 9c af 9c 3e
       -0.29622585 0.409476 -0.054384153 0.3060273
0000f0 78 5f 0d 3f 19 f1 94 be 52 75 5d be 46 7a 8a bd
       0.552238 -0.29090193 -0.21626785 -0.06761603
000100 e3 50 f2 3d 50 ec 52 be 1c d9 49 be 48 d3 3a bd
       0.11831834 -0.20597959 -0.19711727 -0.04561165
000110 06 0a 12 3e 5e b7 7d be 6a 30 52 3e 7a ec e8 3c
       0.14261636 -0.2477698 0.20526281 0.028433073
000120 46 2c ab be 65 da 4f 3e aa 30 fd bd 8b c0 71 be
       -0.33432215 0.20298155 -0.123627976 -0.23608606
000130 31 fd 41 be fe f0 90 be 49 d7 9e 3e 45 83 84 3d
       -0.18944241 -0.28308862 0.31023625 0.0647035
000140 3b b7 7f 3e 42 16 02 be 55 ef 9d be 0a fc 6b 3f
       0.2497224 -0.12703803 -0.30846658 0.92181456
000150 ce 33 b0 3e cc a3 e0 3d 6e 0d 94 bf 1e 1e da 3e
       0.34414524 0.10968742 -1.1566598 0.42601103
000160 60 44 de be 2d 81 e1 bb 8b 78 18 3e 4f 1f 1e 3e
       -0.4341154 -0.006881854 0.14889733 0.15441631
000170 55 40 d8 3e aa 93 ec 3b fd f0 44 be b0 cf 9d 3e
       0.4223658 0.0072197514 -0.19232555 0.30822515
000180 f2 68 a6 3d 3d 27 6f 3c 8c e5 46 3c a5 e1 03 bf
       0.081254855 0.0145967575 0.012139689 -0.5151618
000190 99 01 cb 3d db a5 c5 3e 2c 33 b4 3e b8 58 fc be
       0.09912414 0.386031 0.3519529 -0.49286437
0001a0 b2 90 9c be db 1e 16 3f 4b 4a e5 bd 92 ee 79 3e
       -0.30579144 0.5864083 -0.11195811 0.24407414
0001b0 0e 38 82 be d6 09 76 3e 79 8a c7 bd da 40 a9 be
       -0.2543339 0.2402719 -0.097432084 -0.3305729
0001c0 b4 1e b7 3e dc 27 b0 be 6a 52 52 3f 45 06 79 3c
       0.35765612 -0.3440541 0.82157004 0.015199249
0001d0 44 14 f3 3c a4 a7 c4 3d 21 41 83 3d 48 ac c7 bd
       0.02967275 0.096022874 0.06408907 -0.09749657
0001e0 2b 70 8a be cd 13 8b 3c 9d 2e da 3c b3 c1 33 3e
       -0.27038702 0.016977215 0.026633555 0.17554359
0001f0 fd de 01 bd 52 7b 42 bc e3 b8 20 3d d4 08 71 3e
       -0.0317068 -0.011870222 0.03923882 0.23538524
000200 73 3b 75 be fd 67 87 3d 04 ad 2e 3e 26 0e ef 3c
       -0.2394846 0.06611631 0.17058188 0.029181551
000210 f2 2e a4 be 70 f3 bf 3e ac 6f 9f 3e 29 03 c2 bd
       -0.32067066 0.37490416 0.31139886 -0.09473259
000220 7f 2a 17 3f 17 7c cd 3d 68 f8 b7 be a1 2c 0a 3f
       0.5904922 0.10033434 -0.35931706 0.5397435
000230 9e 14 d9 3d e9 bc 1e bf cb 92 ca 3d 75 1e 9d be
       0.105996355 -0.62007004 0.0989128 -0.306873
000240 ef 50 f1 bd 5f 38 92 3e 4a 5d 68 be 98 26 dc 3e
       -0.11783015 0.28558633 -0.22691837 0.42998195
000250 32 33 81 3e 6d 52 bf be ea 12 0e be 71 8b 1b bc
       0.2523437 -0.37367573 -0.13874403 -0.009493695
000260 3d a6 b1 be 7b 63 de bc d6 f1 a7 be 67 f9 af be
       -0.34697142 -0.027147045 -0.32801694 -0.34369966
000270 c5 68 e6 3b 31 52 ad 3d 8c 1d 21 3f 3f 7e aa 3d
       0.0070315325 0.084629424 0.6293571 0.08324861
000280 49 3b 89 3e f7 94 38 bd 68 0a 4e 3d 05 18 4e 3f
       0.26803043 -0.04506394 0.050302893 0.805054
000290 50 ac e0 bd 93 40 07 bf df 35 fc bd 2b 2b f2 3d
       -0.10970366 -0.5283291 -0.123149626 0.1182464
0002a0 89 68 e5 bd 04 ea 5e be e6 70 8f 3e 4c 12 48 3e
       -0.11201579 -0.21768957 0.28015822 0.1953823
0002b0 34 9b b3 3d db 67 26 3d 39 d9 62 bf fd 96 d1 3e
       0.08769837 0.040626388 -0.88612705 0.40935507
0002c0 f0 bf c6 be 8a b1 45 bd 6c d7 ba 3d c5 05 43 3e
       -0.38818312 -0.048265018 0.0912312 0.1904517
0002d0 47 31 6c 3e 85 d1 24 3f de 07 0f bf e5 9b b4 3c
       0.23065673 0.643822 -0.5587138 0.022046993
0002e0 e4 39 a9 bc 1e a1 93 3e ab d5 a6 be f6 d3 db 3e
       -0.020657487 0.2883386 -0.3258489 0.4293515
0002f0 75 4c 9f be d2 00 91 bd f0 11 8c 3c 81 5d d7 be
       -0.3111302 -0.070802346 0.017098397 -0.42063525
000300 c4 1e 8e 3c 62 98 a2 3e 8f 4a 9d bd 5d f4 44 be
       0.017348655 0.31756884 -0.076802365 -0.19233842
000310 e9 ec 00 bf 23 d3 8e bc 7b ef 35 3c df 65 62 3e
       -0.50361496 -0.017434662 0.01110446 0.22109173
000320 bd 36 97 3e 7c 5f 56 3e ac ce 6d 3e 9f da 87 3d
       0.2953395 0.20934862 0.2322337 0.066334955
000330 81 c6 6e bd 85 a1 66 3e 4c 6f 34 3e 0b 34 62 3c
       -0.058294777 0.22522552 0.17620581 0.013806353
000340 77 31 8b 3d 9d f0 94 bd 96 9d 90 3d 08 b0 0d 3e
       0.06796544 -0.07272456 0.07061307 0.13836682
000350 21 7b 1b 3e f1 65 e9 3e 5d a9 03 3e e4 14 52 3e
       0.15183689 0.45585588 0.12857576 0.20515782
000360 b5 de 96 be c2 05 ec 3d 65 6c 0f bd 52 63 92 3d
       -0.29466787 0.11524536 -0.035015482 0.0714785
000370 e7 9e aa be 31 9b 85 be 16 c0 89 be d6 5f b1 bd
       -0.33324358 -0.26094964 -0.26904362 -0.086608574
000380 45 7e 9e bf 02 95 57 3f 65 be f5 3e 1a fc ee bc
       -1.2382284 0.8421174 0.47996822 -0.029172946
000390 29 a4 7d be 85 20 0e be 09 a4 c5 be c0 19 89 be
       -0.24769653 -0.13879593 -0.3860171 -0.26777458
0003a0 ab 45 44 3e 37 1c a7 3e 22 3f f4 3d c2 6b 5b 3f
       0.19167201 0.32638714 0.11926104 0.857113
0003b0 bc 6b f0 be 78 4b 52 be 4e 1e 83 3e 93 f8 02 3e
       -0.46957195 -0.20536602 0.25609058 0.12790136
0003c0 3b 05 8b be be ac 26 be ba 27 b5 be f0 1f 2e bd
       -0.27152428 -0.16276833 -0.3538187 -0.042510927
0003d0 23 f9 ce 3d 0b 71 67 3e 6a a8 cc bd 8c 7c b1 bd
       0.10106113 0.22601716 -0.0999306 -0.086663336
0003e0 8f 9c b2 be f5 15 bf 3e 97 b5 93 3e c1 cf 0f 3e
       -0.3488507 0.3732144 0.2884948 0.14044096
0003f0 b2 87 ea 3c 55 65 5f be 39 f8 e7 bd e8 e6 14 3e
       0.028629158 -0.21815999 -0.113266416 0.14541209

cav_emb.1.bias f4 [64]
000000 de d3 ff bd 34 38 5d 3d 34 67 07 be c7 36 94 3e
       -0.12491582 0.054008678 -0.13222963 0.28948042
000010 26 f4 9b 3d ac 1a a2 bd 0e 50 21 bd 94 41 51 be
       0.07614927 -0.079152435 -0.039382987 -0.20435172
000020 c7 ea 94 be eb bb 8a bd b3 ad 8d 3c 72 45 90 3d
       -0.2908537 -0.06774124 0.01729474 0.07044496
000030 a8 6b aa bd f1 a3 14 be 8c 7e 4f 3c a4 95 09 be
       -0.08321315 -0.14515664 0.0126644485 -0.1343599
000040 aa 91 5c bd 81 e4 e2 3c a7 ac 8c be 9f 34 13 be
       -0.053849854 0.02769685 -0.27475473 -0.14375542
000050 51 48 49 be 40 8b 29 be 5b a3 58 be 26 de 4a be
       -0.19656493 -0.16557026 -0.21156065 -0.19811305
000060 e0 d4 44 bc 2d 75 8a be 90 8c d4 3d 16 48 c9 bd
       -0.012013644 -0.27042523 0.10378373 -0.098282024
000070 6a 9d f0 bc ad bd b7 bd f7 63 c7 be 3d 95 e4 3c
       -0.029371936 -0.08971725 -0.38943455 0.027903194
000080 40 52 fc bd f7 a5 9c bd 44 f0 dc 3c 22 52 35 bd
       -0.123203754 -0.07648843 0.026970036 -0.04426778
000090 45 41 58 bd 30 3f 4a be 5f f4 d4 bd 69 10 b0 bd
       -0.05279662 -0.19750667 -0.103981726 -0.0859688
0000a0 a8 18 70 be e8 29 34 bd ca fd 1d bd e6 97 a8 3c
       -0.23446906 -0.043985277 -0.03857211 0.020580243
0000b0 6b f0 f1 3c af cf ab 3c 9b 07 5b be c6 08 06 3c
       0.029533586 0.020973055 -0.2138962 0.008180803
0000c0 8c 76 53 3d 1a f3 97 be 16 c3 ef bc 39 13 b0 be
       0.051626727 -0.2967766 -0.029267829 -0.34389666
0000d0 8b ca 4b bd 59 b4 e0 bd 04 79 d3 be 16 cd e4 be
       -0.049753707 -0.109718986 -0.41303265 -0.44687718
0000e0 86 f6 5c be 83 28 d2 3c ff 28 f3 3c 44 9e 9d be
       -0.21578416 0.025654083 0.029682634 -0.3078481
0000f0 9e c4 ea bd 12 84 5b be 36 d1 10 be db c9 48 bd
       -0.11463283 -0.214371 -0.14142308 -0.04902063
