route_TSC/model/0.5_hatt_router_joint_0315/ep5/target_q_netveh.pt (torch, 510456 bytes, 26 tensors)

attn f4 [1, 2, 37]
000000 80 04 88 50 f9 05 00 00 00 00 00 00 00 00 00 00
       1.825597e+10 2.143e-42 0.0 0.0
000010 00 00 00 00 00 00 00 00 00 00 00 00 00 00 00 00
       0.0 0.0 0.0 0.0
000020 00 00 00 00 00 00 00 00 00 00 00 00 00 00 00 00
       0.0 0.0 0.0 0.0
000030 00 00 00 00 00 00 00 00 00 00 00 00 00 00 00 00
       0.0 0.0 0.0 0.0
000040 00 00 00 00 00 00 00 00 00 00 00 00 00 00 00 00
       0.0 0.0 0.0 0.0
000050 00 00 00 00 00 00 00 00 00 00 00 00 00 00 00 00
       0.0 0.0 0.0 0.0
000060 00 00 00 00 00 00 00 00 00 00 00 00 00 00 00 00
       0.0 0.0 0.0 0.0
000070 00 00 00 00 00 00 00 00 00 00 00 00 00 00 00 00
       0.0 0.0 0.0 0.0
000080 00 00 00 00 00 00 00 00 00 00 00 00 00 00 00 00
       0.0 0.0 0.0 0.0
000090 00 00 00 00 00 00 00 00 00 00 00 00 00 00 00 00
       0.0 0.0 0.0 0.0
0000a0 00 00 00 00 00 00 00 00 00 00 00 00 00 00 00 00
       0.0 0.0 0.0 0.0
0000b0 00 00 00 00 00 00 00 00 00 00 00 00 00 00 00 00
       0.0 0.0 0.0 0.0
0000c0 00 00 00 00 00 00 00 00 00 00 00 00 00 00 00 00
       0.0 0.0 0.0 0.0
0000d0 00 00 00 00 00 00 00 00 00 00 00 00 00 00 00 00
       0.0 0.0 0.0 0.0
0000e0 00 00 00 00 00 00 00 00 00 00 00 00 00 00 00 00
       0.0 0.0 0.0 0.0
0000f0 00 00 00 00 00 00 00 00 00 00 00 00 00 00 00 00
       0.0 0.0 0.0 0.0
000100 00 00 00 00 00 00 00 00 00 00 00 00 00 00 00 00
       0.0 0.0 0.0 0.0
000110 00 00 00 00 00 00 00 00 00 00 00 00 00 00 00 00
       0.0 0.0 0.0 0.0
000120 00 00 00 00 00 00 00 00
       0.0 0.0

fc0.weight f4 [32, 2315]
000000 53 6e 60 bc 44 ec fc 3b 72 80 93 3c 58 6f f4 3b
       -0.013698178 0.0077185947 0.018005583 0.0074595623
000010 ac e9 85 bb 1c d5 f2 bb b0 9a ca 3b e0 7e f5 ba
       -0.0040866937 -0.0074106585 0.006182991 -0.0018729828
000020 7b b4 83 bc 90 9a a7 3c 0c 4a 3e bc e0 2a 13 ba
       -0.01607727 0.020459443 -0.011614334 -0.0005613994
000030 18 b2 84 3c d7 0b a8 bc 4e 53 83 3c 48 3f 70 bb
       0.016198203 -0.020513458 0.016030934 -0.0036658812
000040 8e 88 18 3c b0 52 83 bc 68 01 9c bb 00 6d 87 3a
       0.009309901 -0.01603064 -0.00476091 0.0010332167
000050 d8 b0 23 3b 38 88 69 3c b8 5c 80 bc d0 4b 81 3b
       0.0024977233 0.0142536685 -0.015669212 0.003945805
000060 15 f7 22 bc a2 bc 5a bc 02 c2 92 bc d6 e7 13 3c
       -0.009946604 -0.013350638 -0.017914776 0.009027442
000070 b8 ae d2 bb bc 68 4f bc 83 f3 8e bc 28 1e b8 3b
       -0.0064295195 -0.012659248 -0.0174501 0.0056188293
000080 fc 79 9d 3b df 23 91 bc 49 83 2a bc a0 0e 97 3a
       0.0048058014 -0.0177173 -0.010407277 0.0011524744
000090 c2 a7 73 bc 50 ce 76 3b d8 ba 47 3b e4 03 4a 3c
       -0.01487154 0.0037659593 0.0030476358 0.012330029
0000a0 a4 61 ca 3b 1a 6f 97 3c 72 38 83 3c d6 e7 76 bc
       0.0061761905 0.018485595 0.016018126 -0.015069922
0000b0 a0 40 4d bb 98 23 4f 3c 62 cb 1d 3c 7c 4e 6b 3c
       -0.0031319037 0.012642764 0.00963101 0.014361974
0000c0 38 77 ff 3b 37 46 28 bc 08 49 62 3c 40 1c a7 bb
       0.0077961944 -0.010270647 0.013811357 -0.005099803
0000d0 70 5e e7 3b 58 bc 30 3c 90 9a 45 3b 30 ad 7b 3c
       0.0070608184 0.010787092 0.003015194 0.015361115
0000e0 8d fd 37 bc ab 97 97 bc 94 71 89 3c dc 2e bd bb
       -0.011229885 -0.018504938 0.016777791 -0.0057734083
0000f0 c0 80 cc 39 70 53 b7 3b 8c 96 bb 3b 72 3e db bb
       0.00039005838 0.0055946633 0.0057247337 -0.0066907937
000100 52 9a 06 3c c4 76 ed 3b a0 3b 05 3a d4 52 98 3c
       0.008215504 0.007246824 0.0005082432 0.018594183
000110 e9 c8 81 bc b8 68 9b bb 9a cd a3 3c 73 d0 14 bc
       -0.015842872 -0.004742708 0.0199955 -0.009082901
000120 e4 48 63 3c 79 e3 a7 bc 20 c5 90 3c 00 76 15 39
       0.013872359 -0.02049421 0.017672122 0.00014253706
000130 04 b5 9b 3b 40 72 6c bb 0e 5a 78 bc 18 4d 10 bb
       0.0047518034 -0.003607884 -0.015158189 -0.0022018608
000140 dc 4b a1 3c ca 9d 61 bc 58 00 91 bb c5 91 15 bc
       0.019689493 -0.01377053 -0.00442509 -0.009128992
000150 75 57 08 bc 41 97 1f bc a4 f1 74 3c 1b cc 9d bc
       -0.008321633 -0.009740652 0.01495019 -0.019262364
000160 48 25 4c bb da bf 8f bc 90 47 b8 bb 1c 4b 7c bc
       -0.003115015 -0.017547537 -0.0056237653 -0.015398767
000170 04 63 48 3c 50 85 de 3a 74 64 82 bb 30 ba c4 3b
       0.012230638 0.0016976986 -0.00397926 0.0060036406
000180 c8 7d 97 bb 14 11 37 3c 80 cf 76 b9 b0 d9 9f 3a
       -0.0046231486 0.011173505 -0.00023537688 0.0012195613
000190 bb aa 93 bc 30 02 83 bc 16 d0 1c bc 60 d3 04 ba
       -0.018025747 -0.015992254 -0.009571096 -0.0005066898
0001a0 e0 1c 6d bc 80 41 8b ba 60 e7 05 3c ca f5 dd bb
       -0.014472216 -0.0010624379 0.00817284 -0.006773685
0001b0 38 78 83 3c fc 84 c5 3b 38 73 86 bc 87 83 0a bc
       0.016048536 0.006027816 -0.016412362 -0.00845421
0001c0 10 86 9d 3c c0 6a 4a 3a b2 e8 92 3c 24 8c 42 3c
       0.019228965 0.00077215955 0.017933223 0.011874232
0001d0 a2 de 7c bc 64 2c fd 3b a4 85 94 bb 10 a5 17 bc
       -0.015433939 0.007726239 -0.0045325328 -0.009255663
0001e0 f0 1c 7b 3b bf fa 5d bc cc 67 16 3c 30 fc 21 3c
       0.0038316809 -0.013548552 0.009180021 0.009886786
0001f0 1a 48 67 bc 78 12 27 bc be 00 18 3c 4c 4d ae bb
       -0.014116311 -0.010197274 0.009277521 -0.005319273
000200 e0 83 1e bb 90 63 bd 3b 68 6a 8e 3c fc 46 43 bc
       -0.002418749 0.005779691 0.017384723 -0.011918779
000210 48 bb f2 3b c0 b9 4d bc 04 3b 31 3c 54 42 72 3c
       0.0074075796 -0.012556493 0.010817293 0.014786322
000220 8a 63 02 bc 85 c9 6e bc b0 b4 1d bb 99 c8 9c bc
       -0.007958302 -0.014574413 -0.0024063997 -0.019138621
000230 26 7f 97 3c d4 96 96 bc ac 2b 5a 3c 86 d4 4b bc
       0.018493246 -0.018382467 0.013316076 -0.012440806
000240 89 c1 89 bc 60 26 7f bc 08 45 99 3c 88 b3 75 bb
       -0.016815918 -0.015573114 0.018709674 -0.0037491042
000250 bc f9 f5 3b 92 d1 0a 3c c4 af 1a 3c a6 dd a7 bc
       0.0075065773 0.008472817 0.00944132 -0.020491432
000260 16 7a 99 bc 4c cc 44 3c 4e db fc bb 60 fb 9b 3a
       -0.018734973 0.012011599 -0.007716573 0.0011900477
000270 e7 a6 98 bc f4 b1 c1 3b 3e fb 81 3c c8 b8 b3 bb
       -0.018634273 0.0059111062 0.015866872 -0.005484674
000280 e8 cf 8e 3b 28 15 5c 3c 0a db 81 3c 9a 16 35 bc
       0.0043582805 0.013432778 0.015851516 -0.011052752
000290 68 f1 22 bb b0 fe e7 bb 18 de 3a bb 98 bf 1a 3c
       -0.0024863128 -0.0070799217 -0.0028513726 0.009445094
0002a0 c0 a8 86 3b dc e9 81 3c e0 74 cf 3b 98 0b 86 3c
       0.004109472 0.015858583 0.0063310713 0.01636295
0002b0 e0 8f 8f ba 20 9e ad 3a 5b ad 19 bc 4c 21 57 3c
       -0.0010952912 0.0013245977 -0.00937971 0.013130497
0002c0 41 7a 5b bc 80 21 70 b9 bd 5b 97 bc 2c d8 17 bc
       -0.013395847 -0.00022900663 -0.018476361 -0.009267848
0002d0 20 31 b9 3a 00 24 f8 3b ba e4 8f 3c 28 97 8c bc
       0.001412902 0.007572651 0.01756512 -0.01716192
0002e0 50 c9 64 bc c8 27 7e bb 73 ee 3c bc 90 ef 47 3c
       -0.013964012 -0.0038781036 -0.01153146 0.012203112
0002f0 38 41 0f 3b 88 f5 86 3c 90 8d f7 ba c2 fd a6 bc
       0.0021858942 0.0164745 -0.0018886793 -0.020384673
000300 68 67 53 3c 5a 39 93 bc f8 7b 20 3c 5c 7e a2 bb
       0.012903072 -0.017971683 0.009795181 -0.004958911
000310 16 75 5a bc 40 48 b3 3b 5d 7b 76 bc 25 63 19 bc
       -0.0133335795 0.0054712594 -0.015044061 -0.009362017
000320 5c ac 9c 3c d4 18 47 bc 50 ed 78 3c e2 7c 97 3c
       0.019125156 -0.012151916 0.015193298 0.018492166
000330 b8 97 ac 3b c7 ea 65 bc 60 70 78 3c b8 f7 12 bc
       0.0052671097 -0.014033026 0.015163511 -0.008970194
000340 60 6d f8 ba fd c7 9f bc e6 94 fb bb a1 e5 9c bc
       -0.0018953495 -0.019504542 -0.007677662 -0.019152464
000350 a4 cc 5c 3c a4 5c c9 3b 43 10 97 bc 1b 6d 2e bc
       0.0134765245 0.006145077 -0.018440371 -0.01064613
000360 60 3e 70 3a 1c 94 9b bc 30 76 c0 3b b8 45 c0 3b
       0.0009164568 -0.018991522 0.005873464 0.005867686
000370 80 2f 14 bb fc 13 a8 bb ce 5a 12 bc 8c 86 c4 3b
       -0.002261132 -0.0051293354 -0.008932782 0.0059974845
000380 3c c6 00 3c ce c5 93 3c ad 88 18 bc e8 44 30 bb
       0.007859763 0.018038657 -0.00930993 -0.002689654
000390 c0 e9 be ba 00 88 74 3c a2 e4 3d bc 1a c8 22 3c
       -0.0014565513 0.014925003 -0.011590155 0.009935403
0003a0 e0 07 e2 ba 1c 9b 9b 3c 78 ea 87 3c fc ea ae bb
       -0.0017244779 0.01899486 0.016591296 -0.005338071
0003b0 b0 33 6f 3c 00 77 ff b9 a0 59 89 3c a4 fc 22 3c
       0.014599726 -0.00048726052 0.01676637 0.0099479295
0003c0 96 24 77 bc 68 2d 4e 3b 58 0f 8a 3c ba 2b 91 bc
       -0.015084406 0.003146017 0.01685302 -0.017721046
0003d0 00 dd 73 3c 00 d6 68 ba 2d 10 2f bc 42 cd 9b 3c
       0.0148842335 -0.0008881986 -0.010685009 0.019018773
0003e0 fc 19 7f 3c a8 19 6e 3c 38 41 13 3c 32 4c 78 bc
       0.01557016 0.014532484 0.008987717 -0.015154885
0003f0 86 ec c9 bb 04 fb 82 3b 32 51 7c bc 4c 57 9c bc
       -0.006162229 0.0039972086 -0.015400218 -0.019084595

fc0.bias f4 [32]
000000 6e f8 ee bb 68 d3 52 3b 00 a7 4a 3a 60 d0 21 ba
       -0.0072927987 0.0032169465 0.00077305734 -0.0006172713
000010 40 a6 3a bc 28 88 ae 3b 30 55 7e 3c 4e 0f 46 bc
       -0.011392176 0.0053262897 0.01552324 -0.01208861
000020 1c fe 3a 3c fe e4 b2 bb c2 2b 19 bc be e4 63 bc
       0.011413123 -0.005459427 -0.009348812 -0.013909517
000030 80 bd 1b 39 6e 3e 93 3c 41 10 2b bc 28 4a 15 bc
       0.00014852546 0.017974105 -0.010440887 -0.0091119185
000040 bc f5 45 3c 78 ca 8b bc b2 46 57 bc 90 59 a3 ba
       0.012082513 -0.017064318 -0.013139414 -0.0012462605
000050 3c 26 e6 3b 10 cf a6 3b 60 c9 be ba 20 37 2d 3a
       0.007023601 0.0050906017 -0.0014555864 0.00066076405
000060 b1 f1 52 bc 9b cc 5f bc 79 2c 77 bc 1e 16 88 3c
       -0.0128750065 -0.013659622 -0.015086287 0.016612109
000070 f4 fa 96 3b 90 b9 04 3c a7 48 a6 bc 40 9e 90 bb
       0.0046075527 0.008100882 -0.020298315 -0.004413396

fc1.weight f4 [32, 32]
000000 a4 af 72 bd c0 0a d8 3b f4 09 c8 bd e2 bf 72 bd
       -0.059249535 0.0065930784 -0.097675234 -0.059265025
000010 85 78 2d 3e c0 d1 83 bc 9e 8a ce 3d 33 ca 15 3e
       0.16940506 -0.016091228 0.10085033 0.14627914
000020 b0 62 df bc 20 4b a3 3b 7e 8e 91 bd 70 54 03 be
       -0.027268738 0.004983321 -0.07107256 -0.12825179
000030 ea 1e b0 3d 24 0f 97 bd 78 54 82 bc 01 4e 1d 3e
       0.085996464 -0.07375935 -0.015909418 0.15361787
000040 fb 17 b6 bd e1 91 24 3e 7f dc 0b be 07 c4 2a 3e
       -0.08891293 0.16071273 -0.13658331 0.16676341
000050 5c d0 14 be 78 91 02 be b8 03 0d 3d 98 1c 12 3d
       -0.14532608 -0.12750804 0.034427375 0.0356718
000060 fc 08 12 bd 30 5b 8f 3c f0 f7 81 bc a4 34 a1 bd
       -0.0356531 0.017499536 -0.015865296 -0.078713685
000070 1a 30 13 be e8 9c e7 3c 0a 7d ea 3d 80 26 fc 3c
       -0.14373818 0.02827306 0.114496306 0.030780077
000080 9e 77 6e bd 72 6e 81 3d d2 3e d3 bd c1 16 15 3e
       -0.058219545 0.06319894 -0.103147164 0.14559461
000090 78 b8 78 3d 72 f1 80 bd 35 70 30 3e c2 9f cf bd
       0.060722798 -0.06296052 0.17230304 -0.10137893
0000a0 b0 07 b4 bc 2a 71 a3 bd 8c be 77 3d d0 09 17 bc
       -0.021976322 -0.07980569 0.060484454 -0.009218648
0000b0 42 5d 26 be 70 53 46 3c 9c 5e 08 bd 59 62 09 be
       -0.16246513 0.012104854 -0.03329335 -0.13416423
0000c0 30 24 43 bc 1c 22 95 bd 6a 8b 2b be 8a 6d 99 bd
       -0.011910483 -0.072818965 -0.16752401 -0.07491596
0000d0 4f 93 0e 3e d0 09 3b bc f6 31 a6 bd ca 28 f8 3d
       0.13923381 -0.011415914 -0.08114998 0.12117155
0000e0 5f 0e 1d 3e 20 e4 5d bc 57 4c 16 3e 50 19 8d bd
       0.15337513 -0.013543159 0.14677559 -0.068895936
0000f0 78 ca 2a 3d e0 83 91 3c 7e 05 d0 bd b1 86 0a 3e
       0.041696995 0.017763078 -0.101572976 0.13527943
000100 98 94 18 3d 50 ee 11 bd 00 50 7b 38 a1 ef 9e bd
       0.037251085 -0.035627663 5.991757e-05 -0.07760549
000110 ed dd 2c 3e 88 50 58 3d 58 6e 8f 3c 78 0c 85 3d
       0.16881533 0.052811176 0.01750867 0.06496519
000120 fa 41 57 bd 96 77 e3 3d a0 65 f0 3b 80 9d 3e 3d
       -0.052553155 0.111067936 0.0073363334 0.046536922
000130 40 9d d1 3b 28 6c 50 bd 80 10 90 3a 4e 58 b1 3d
       0.0063969195 -0.050884396 0.0010991246 0.08659421
000140 cd bd 28 3e 3c c7 34 bd 30 6f 26 bd 32 80 e5 3d
       0.16478653 -0.044135317 -0.04063338 0.11206092
000150 70 c3 4c 3c 00 ab 3c bc 8f 11 2f be f6 6a ed 3d
       0.012497768 -0.011515379 -0.17096542 0.11592667
000160 ff dd 30 3e 2d 4d 1f 3e 13 1e 0f 3e 36 39 a5 3d
       0.17272185 0.15556784 0.13976316 0.08067553
000170 e0 dc 28 3c 90 06 f3 bc 78 87 91 3c 65 43 25 3e
       0.010306567 -0.029666215 0.017764792 0.1613899
000180 c7 85 2b be e5 ca 06 3e 60 d8 3e bd 36 a0 5a bd
       -0.16750251 0.13163336 -0.04659307 -0.053375445
000190 50 ed d4 bd 65 a2 e9 bd d6 a2 5e bd 45 02 8a bd
       -0.10396826 -0.114079274 -0.05435451 -0.06738714
0001a0 a6 99 f6 3d 98 f2 4f bd c0 95 fa 3b b0 e7 6e bc
       0.12041025 -0.050768465 0.007647246 -0.014581606
0001b0 e2 e0 cb 3d a8 10 c5 bc 82 f2 f8 bd 0d e3 17 be
       0.09955002 -0.024055794 -0.1215563 -0.14832707
0001c0 83 69 00 3e 0e db 8e 3d 78 b9 85 bc d6 4f 0d be
       0.1254025 0.06975375 -0.01632379 -0.13799986
0001d0 e4 f0 0c 3d 64 53 1d 3d 2f 2c 1c 3e ea be dc 3d
       0.03440942 0.038409606 0.1525123 0.107786015
0001e0 8f 9c 1c 3e 10 ee 45 3c 38 47 95 3d 66 63 86 3d
       0.15294097 0.012080684 0.072889745 0.065619275
0001f0 0f 59 af bd 88 88 e3 bc 16 24 82 3d d8 ea 9a bc
       -0.085619085 -0.027775064 0.06354539 -0.01891081
000200 5f 99 98 bd 88 a7 15 bd 4a 7f c8 bd 70 d8 9a bd
       -0.07451128 -0.036536723 -0.097899035 -0.075608134
000210 75 b6 22 3e 53 74 1b be 3c df a0 bd d8 80 d5 3c
       0.15889914 -0.15181093 -0.078550786 0.026062414
000220 96 c9 bc 3d 57 17 29 3e 21 43 9a bd 03 1a 1f be
       0.09218137 0.1651281 -0.07532335 -0.15537266
000230 ab 5e cd bd 98 e4 d1 bc 10 db 3b bd 90 0a 30 be
       -0.10027822 -0.025621697 -0.04586321 -0.1719153
000240 75 4f 0c 3e 79 4c b6 bd af 50 94 bd de bf 89 3d
       0.13702185 -0.08901305 -0.07241952 0.06726049
000250 83 0d c4 bd 58 07 66 bd ff b8 1a 3e 1b b2 27 be
       -0.0957289 -0.056159347 0.15109633 -0.16376536
000260 75 b8 10 be b1 e9 25 3e 52 a1 ee 3d 18 39 32 be
       -0.14132865 0.16202427 0.11651863 -0.17404592
000270 00 19 77 3c 89 b1 11 be 29 af be bd 88 b4 8d bc
       0.015081644 -0.1422788 -0.09310753 -0.017297998
000280 a8 e7 55 3d 71 56 29 be 80 d9 48 bb f4 5d 8c 3d
       0.052222878 -0.16536881 -0.0030647218 0.06853858
000290 96 d0 8b 3d ff 08 2d be ac 4a 00 be 99 15 09 be
       0.06826894 -0.16897963 -0.12528485 -0.13387145
0002a0 78 ac 1a 3d e8 02 4f bd 1e bf db 3d 6e b0 ac 3d
       0.037762135 -0.05053988 0.10729812 0.08432089
0002b0 26 66 e3 3d 6c d2 61 bd d0 05 02 bc b8 6d 04 be
       0.11103468 -0.055132315 -0.007935956 -0.1293248
0002c0 10 38 5f 3d 15 ae 1f 3e 0c 89 2b 3d bc 2d 8e 3d
       0.054496825 0.15593751 0.041878745 0.06942317
0002d0 fe 7d 95 3d ae ca a7 3d d7 3b 25 3e 12 64 b1 3d
       0.07299422 0.08192955 0.16136108 0.08661665
0002e0 b2 52 1a be 58 7f 3f 3d 9b 69 29 3e b0 89 dd 3c
       -0.15070608 0.046752304 0.16544192 0.027043194
0002f0 90 c3 21 be 2d cf 09 be 3f b0 2d 3e 98 4b 11 be
       -0.15797257 -0.13457938 0.16961764 -0.14188993
000300 12 4c 88 3d 23 f5 29 3e 7e ad de 3d 01 7b c6 bd
       0.06655134 0.16597418 0.10872935 -0.0969143
000310 ff 14 34 3e 0e e7 ae 3d 30 3b 95 bd ae 94 c9 3d
       0.17586134 0.08540164 -0.0728668 0.098428115
000320 b8 22 91 3c 44 c9 32 be 96 53 1e be b6 1a a1 3d
       0.01771675 -0.17459589 -0.15461573 0.07866423
000330 8c 24 19 3d 27 0d 84 bd c0 36 48 bd 8f 69 26 3e
       0.03738837 -0.06447821 -0.04888034 0.16251205
000340 59 ec 9c bd 20 27 c6 bb a5 4b 1d 3e d4 0b 2b bd
       -0.07662267 -0.0060471445 0.15360887 -0.041759327
000350 b0 67 12 3c d6 61 e4 3d ee 0d b0 3d f7 58 1b be
       0.008935854 0.11151473 0.08596407 -0.15170656
000360 00 2d 9f ba b0 b7 d6 3c 5f 16 33 3e 00 11 40 bd
       -0.0012144148 0.026210636 0.17489003 -0.046891212
000370 36 b4 0d be db ff 11 3e 54 9b 40 3d ba 90 e3 bd
       -0.13838276 0.14257757 0.047023132 -0.11111589
000380 d6 9c fd 3d 9a be 97 bd 6e 42 d2 3d 91 fc 30 be
       0.1238343 -0.07409401 0.10266577 -0.17283846
000390 14 71 6d 3d 03 26 21 be 11 ce 1d be 7d d6 86 bd
       0.057969168 -0.15737157 -0.1541064 -0.06583879
0003a0 34 61 30 be 54 4f 9a bd 20 b7 d1 3b 7a 86 a0 3d
       -0.1722458 -0.07534662 0.006400004 0.07838149
0003b0 c5 08 1f 3e 1e ab ed 3d c8 b9 87 bc ae a3 90 bd
       0.15530689 0.11604904 -0.01656808 -0.070624694
0003c0 36 59 a4 3d c1 fb 2b be cd e2 31 3e be 4c f8 bd
       0.08024828 -0.16795255 0.17371674 -0.121240124
0003d0 50 27 3d 3c 13 46 a5 bd 51 98 f6 bd 46 18 ef 3d
       0.011545017 -0.08070006 -0.12040771 0.11674552
0003e0 ae a3 8e bd 8a 8d 6e bd fa a9 cd 3d c4 87 10 3d
       -0.06964813 -0.05824045 0.10042186 0.035285726
0003f0 e8 7e dc bd 8c 25 2d be b1 0e 31 be 3f f6 a5 bd
       -0.10766393 -0.16908854 -0.1729076 -0.08103608

fc1.bias f4 [32]
000000 88 38 c5 bc 72 38 cb 3d 60 dd f1 bd 5a 59 06 be
       -0.024074808 0.099228755 -0.11809802 -0.13120022
000010 7e fb bf 3d 73 b5 0d 3e f2 1a ca 3d f8 c9 3a bd
       0.0937414 0.13838749 0.09868421 -0.04560277
000020 67 1f 20 3e 82 59 82 bd 20 03 f4 bd 4c a5 44 3d
       0.15636979 -0.063647285 -0.119146585 0.048009202
000030 70 15 93 3d 24 cc 1d 3d ee 3c 2f be de 0b b9 bd
       0.07181823 0.03852476 -0.17113087 -0.090354666
000040 7e a4 2f be 0c 45 7d bd 94 28 f2 bd 46 16 8b bd
       -0.17152593 -0.061833426 -0.11824146 -0.06791358
000050 85 e8 8a bd 8c b4 f6 bd b2 72 9c 3d 9e ef e1 3d
       -0.06782631 -0.12046155 0.07639064 0.110320315
000060 9c fa 0a 3d c0 9f 69 bb 63 81 9e bd d8 a5 17 3d
       0.033930406 -0.0035648197 -0.07739522 0.037023395
000070 24 c1 76 3d ae dc aa 3d 6c 98 1b bd 73 38 84 bd
       0.060242787 0.083428726 -0.037987158 -0.06456079

fc2.weight f4 [3, 32]
000000 26 83 93 ba b8 ec b3 b9 5c 6d ab 3a 10 13 0a ba
       -0.0011254295 -0.0003431791 0.0013078856 -0.0005267123
000010 2c 54 55 3a 2c 74 bd 3a a4 9b c5 3a a0 08 91 b9
       0.0008137848 0.0014454178 0.0015076292 -0.0002766298
000020 80 bc 42 b8 74 8a 26 bb 4b af 06 bb 60 17 99 39
       -4.642876e-05 -0.0025412114 -0.002055126 0.0002919985
000030 9c 89 e7 3a a0 b1 f1 39 10 da e6 3a 68 2e fe 3a
       0.0017664912 0.00046099443 0.0017612595 0.0019392492
000040 41 7e 1a bb 48 7c f3 39 c3 f5 0b bb 00 bc 8f 38
       -0.0023573788 0.00046441169 -0.0021356202 6.853789e-05
000050 24 ba 61 ba 78 ab 13 3b 28 7a bb 3a 40 7e f9 39
       -0.0008610806 0.0022532623 0.0014303373 0.00047587045
000060 b0 ba 60 b9 60 1a cf 3a 34 2a 6e ba 4e e6 00 3b
       -0.00021431851 0.0015800707 -0.0009085268 0.0019668522
000070 84 f3 02 3b ac 97 91 3a 08 cb bd 3a 38 53 21 3a
       0.0019981572 0.0011107824 0.0014480064 0.0006154063
000080 7c 2d 0e 3b f1 c9 30 bb 4a fe 0d 3b 2a 81 2f 3b
       0.0021694591 -0.0026975835 0.002166646 0.0026779869
000090 b0 d4 68 b9 78 bf 13 3b f8 da da ba 90 96 c1 3a
       -0.00022204476 0.0022544544 -0.0016697338 0.0014769603
0000a0 60 bb 6d ba d8 89 a0 3a 0a 4a 43 bb 96 9c 8e ba
       -0.00090687536 0.0012248112 -0.002979877 -0.0010880406
0000b0 03 15 ab ba de 7d 24 bb 18 9a 2d 3a 4f ce 0c bb
       -0.0013052527 -0.0025099437 0.0006622388 -0.0021485274
0000c0 44 49 0d 3b 84 10 c1 3a ce be c2 ba fd 64 b2 ba
       0.0021558562 0.0014729653 -0.001485789 -0.0013610419
0000d0 5c bc e7 3a 98 34 1e 3b f4 a7 6a 3a 42 a2 24 bb
       0.0017680037 0.0024140235 0.00089514186 -0.0025121127
0000e0 04 b2 34 3a 68 b8 c4 3a 2c c2 89 3a 83 e2 31 bb
       0.00068929815 0.0015008571 0.0010510138 -0.0027143068
0000f0 d4 62 67 3a f8 77 0b 3b b0 7a c1 3a d8 a9 28 3a
       0.0008826677 0.0021281224 0.0014761295 0.0006434
000100 00 4f 9d b7 54 b8 94 ba a0 08 7c 3a b1 83 2d bb
       -1.8752646e-05 -0.0011346438 0.00096143223 -0.00264762
000110 94 e1 34 3b 96 0b 0e 3b e0 5a b0 39 be fa 23 3b
       0.0027600275 0.0021674386 0.00033637043 0.002502128
000120 84 72 cf 3a ef 32 9b ba 7c 82 1c ba 54 df e2 ba
       0.0015826975 -0.0011840741 -0.00059703714 -0.0017308989
000130 88 5f 23 3b d8 3b 16 3b 7b 0f 04 bb 16 27 3f 3b
       0.0024928767 0.0022923853 -0.0020150829 0.0029167584
000140 94 20 fe 3a 40 2b 26 39 11 0b cf ba 53 ad a9 ba
       0.0019388371 0.00015847106 -0.0015796145 -0.0012945331
000150 7e 6e 97 ba 08 90 be b9 64 c2 aa 3a 9c 59 9f 3a
       -0.0011553315 -0.00036346936 0.0013027904 0.0012157443
000160 72 d9 2e bb 84 b7 18 3a f9 3a bc ba e1 4d a2 ba
       -0.00266799 0.0005825686 -0.0014360837 -0.0012382829
000170 7e 97 1d 3b 5c 9b c7 3a e6 18 35 bb b0 12 2c 39
       0.0024046595 0.0015228796 -0.0027633249 0.0001641016

fc2.bias f4 [3]
000000 85 2f 24 3e 70 93 14 3c 2e f1 d9 3d
       0.16033752 0.009068355 0.106417045

road_emb.0.weight f4 [144]
000000 00 00 80 3f 00 00 80 3f 00 00 80 3f 00 00 80 3f
       1.0 1.0 1.0 1.0
000010 00 00 80 3f 00 00 80 3f 00 00 80 3f 00 00 80 3f
       1.0 1.0 1.0 1.0
000020 00 00 80 3f 00 00 80 3f 00 00 80 3f 00 00 80 3f
       1.0 1.0 1.0 1.0
000030 00 00 80 3f 00 00 80 3f 00 00 80 3f 00 00 80 3f
       1.0 1.0 1.0 1.0
000040 00 00 80 3f 00 00 80 3f 00 00 80 3f 00 00 80 3f
       1.0 1.0 1.0 1.0
000050 00 00 80 3f 00 00 80 3f 00 00 80 3f 00 00 80 3f
       1.0 1.0 1.0 1.0
000060 00 00 80 3f 00 00 80 3f 00 00 80 3f 00 00 80 3f
       1.0 1.0 1.0 1.0
000070 00 00 80 3f 00 00 80 3f 00 00 80 3f 00 00 80 3f
       1.0 1.0 1.0 1.0
000080 00 00 80 3f 00 00 80 3f 00 00 80 3f 00 00 80 3f
       1.0 1.0 1.0 1.0
000090 00 00 80 3f 00 00 80 3f 00 00 80 3f 00 00 80 3f
       1.0 1.0 1.0 1.0
0000a0 00 00 80 3f 00 00 80 3f 00 00 80 3f 00 00 80 3f
       1.0 1.0 1.0 1.0
0000b0 00 00 80 3f 00 00 80 3f 00 00 80 3f 00 00 80 3f
       1.0 1.0 1.0 1.0
0000c0 00 00 80 3f 00 00 80 3f 00 00 80 3f 00 00 80 3f
       1.0 1.0 1.0 1.0
0000d0 00 00 80 3f 00 00 80 3f 00 00 80 3f 00 00 80 3f
       1.0 1.0 1.0 1.0
0000e0 00 00 80 3f 00 00 80 3f 00 00 80 3f 00 00 80 3f
       1.0 1.0 1.0 1.0
0000f0 00 00 80 3f 00 00 80 3f 00 00 80 3f 00 00 80 3f
       1.0 1.0 1.0 1.0
000100 00 00 80 3f 00 00 80 3f 00 00 80 3f 00 00 80 3f
       1.0 1.0 1.0 1.0
000110 00 00 80 3f 00 00 80 3f 00 00 80 3f 00 00 80 3f
       1.0 1.0 1.0 1.0
000120 00 00 80 3f 00 00 80 3f 00 00 80 3f 00 00 80 3f
       1.0 1.0 1.0 1.0
000130 00 00 80 3f 00 00 80 3f 00 00 80 3f 00 00 80 3f
       1.0 1.0 1.0 1.0
000140 00 00 80 3f 00 00 80 3f 00 00 80 3f 00 00 80 3f
       1.0 1.0 1.0 1.0
000150 00 00 80 3f 00 00 80 3f 00 00 80 3f 00 00 80 3f
       1.0 1.0 1.0 1.0
000160 00 00 80 3f 00 00 80 3f 00 00 80 3f 00 00 80 3f
       1.0 1.0 1.0 1.0
000170 00 00 80 3f 00 00 80 3f 00 00 80 3f 00 00 80 3f
       1.0 1.0 1.0 1.0
000180 00 00 80 3f 00 00 80 3f 00 00 80 3f 00 00 80 3f
       1.0 1.0 1.0 1.0
000190 00 00 80 3f 00 00 80 3f 00 00 80 3f 00 00 80 3f
       1.0 1.0 1.0 1.0
0001a0 00 00 80 3f 00 00 80 3f 00 00 80 3f 00 00 80 3f
       1.0 1.0 1.0 1.0
0001b0 00 00 80 3f 00 00 80 3f 00 00 80 3f 00 00 80 3f
       1.0 1.0 1.0 1.0
0001c0 00 00 80 3f 00 00 80 3f 00 00 80 3f 00 00 80 3f
       1.0 1.0 1.0 1.0
0001d0 00 00 80 3f 00 00 80 3f 00 00 80 3f 00 00 80 3f
       1.0 1.0 1.0 1.0
0001e0 00 00 80 3f 00 00 80 3f 00 00 80 3f 00 00 80 3f
       1.0 1.0 1.0 1.0
0001f0 00 00 80 3f 00 00 80 3f 00 00 80 3f 00 00 80 3f
       1.0 1.0 1.0 1.0
000200 00 00 80 3f 00 00 80 3f 00 00 80 3f 00 00 80 3f
       1.0 1.0 1.0 1.0
000210 00 00 80 3f 00 00 80 3f 00 00 80 3f 00 00 80 3f
       1.0 1.0 1.0 1.0
000220 00 00 80 3f 00 00 80 3f 00 00 80 3f 00 00 80 3f
       1.0 1.0 1.0 1.0
000230 00 00 80 3f 00 00 80 3f 00 00 80 3f 00 00 80 3f
       1.0 1.0 1.0 1.0

road_emb.0.bias f4 [144]
000000 00 00 00 00 00 00 00 00 00 00 00 00 00 00 00 00
       0.0 0.0 0.0 0.0
000010 00 00 00 00 00 00 00 00 00 00 00 00 00 00 00 00
       0.0 0.0 0.0 0.0
000020 00 00 00 00 00 00 00 00 00 00 00 00 00 00 00 00
       0.0 0.0 0.0 0.0
000030 00 00 00 00 00 00 00 00 00 00 00 00 00 00 00 00
       0.0 0.0 0.0 0.0
000040 00 00 00 00 00 00 00 00 00 00 00 00 00 00 00 00
       0.0 0.0 0.0 0.0
000050 00 00 00 00 00 00 00 00 00 00 00 00 00 00 00 00
       0.0 0.0 0.0 0.0
000060 00 00 00 00 00 00 00 00 00 00 00 00 00 00 00 00
       0.0 0.0 0.0 0.0
000070 00 00 00 00 00 00 00 00 00 00 00 00 00 00 00 00
       0.0 0.0 0.0 0.0
000080 00 00 00 00 00 00 00 00 00 00 00 00 00 00 00 00
       0.0 0.0 0.0 0.0
000090 00 00 00 00 00 00 00 00 00 00 00 00 00 00 00 00
       0.0 0.0 0.0 0.0
0000a0 00 00 00 00 00 00 00 00 00 00 00 00 00 00 00 00
       0.0 0.0 0.0 0.0
0000b0 00 00 00 00 00 00 00 00 00 00 00 00 00 00 00 00
       0.0 0.0 0.0 0.0
0000c0 00 00 00 00 00 00 00 00 00 00 00 00 00 00 00 00
       0.0 0.0 0.0 0.0
0000d0 00 00 00 00 00 00 00 00 00 00 00 00 00 00 00 00
       0.0 0.0 0.0 0.0
0000e0 00 00 00 00 00 00 00 00 00 00 00 00 00 00 00 00
       0.0 0.0 0.0 0.0
0000f0 00 00 00 00 00 00 00 00 00 00 00 00 00 00 00 00
       0.0 0.0 0.0 0.0
000100 00 00 00 00 00 00 00 00 00 00 00 00 00 00 00 00
       0.0 0.0 0.0 0.0
000110 00 00 00 00 00 00 00 00 00 00 00 00 00 00 00 00
       0.0 0.0 0.0 0.0
000120 00 00 00 00 00 00 00 00 00 00 00 00 00 00 00 00
       0.0 0.0 0.0 0.0
000130 00 00 00 00 00 00 00 00 00 00 00 00 00 00 00 00
       0.0 0.0 0.0 0.0
000140 00 00 00 00 00 00 00 00 00 00 00 00 00 00 00 00
       0.0 0.0 0.0 0.0
000150 00 00 00 00 00 00 00 00 00 00 00 00 00 00 00 00
       0.0 0.0 0.0 0.0
000160 00 00 00 00 00 00 00 00 00 00 00 00 00 00 00 00
       0.0 0.0 0.0 0.0
000170 00 00 00 00 00 00 00 00 00 00 00 00 00 00 00 00
       0.0 0.0 0.0 0.0
000180 00 00 00 00 00 00 00 00 00 00 00 00 00 00 00 00
       0.0 0.0 0.0 0.0
000190 00 00 00 00 00 00 00 00 00 00 00 00 00 00 00 00
       0.0 0.0 0.0 0.0
0001a0 00 00 00 00 00 00 00 00 00 00 00 00 00 00 00 00
       0.0 0.0 0.0 0.0
0001b0 00 00 00 00 00 00 00 00 00 00 00 00 00 00 00 00
       0.0 0.0 0.0 0.0
0001c0 00 00 00 00 00 00 00 00 00 00 00 00 00 00 00 00
       0.0 0.0 0.0 0.0
0001d0 00 00 00 00 00 00 00 00 00 00 00 00 00 00 00 00
       0.0 0.0 0.0 0.0
0001e0 00 00 00 00 00 00 00 00 00 00 00 00 00 00 00 00
       0.0 0.0 0.0 0.0
0001f0 00 00 00 00 00 00 00 00 00 00 00 00 00 00 00 00
       0.0 0.0 0.0 0.0
000200 00 00 00 00 00 00 00 00 00 00 00 00 00 00 00 00
       0.0 0.0 0.0 0.0
000210 00 00 00 00 00 00 00 00 00 00 00 00 00 00 00 00
       0.0 0.0 0.0 0.0
000220 00 00 00 00 00 00 00 00 00 00 00 00 00 00 00 00
       0.0 0.0 0.0 0.0
000230 00 00 00 00 00 00 00 00 00 00 00 00 00 00 00 00
       0.0 0.0 0.0 0.0

road_emb.1.weight f4 [64, 144]
000000 8f fb b8 3d 44 ea ea bd d7 02 f2 3d 16 ed 40 bc
       0.09032356 -0.11470464 0.11816948 -0.011775276
000010 d0 f8 56 3d 3c 61 a4 bc 23 9b ab bd a1 8d eb 3d
       0.05248338 -0.020065896 -0.08379199 0.11501623
000020 8a 8e 54 bb ee 4e 3a bd 39 5f 3e bd c5 f7 09 3e
       -0.0032433593 -0.04548543 -0.04647753 0.13473423
000030 a7 33 8d 3d 5d 2a 35 bd 43 27 3f 3d 04 14 3b 3d
       0.068946175 -0.044229854 0.046668302 0.045673385
000040 9c f8 2c 3e de af c5 3d 01 12 36 be 42 a1 a4 3d
       0.16891712 0.09652685 -0.17780305 0.0803857
000050 1a 1a 25 be 77 5a 23 bc 16 49 ef 3d 14 c3 4d 3e
       -0.16123238 -0.009970299 0.11683862 0.20093948
000060 70 78 5c 3e 41 63 e1 3d 09 fe 96 bd 53 99 8e be
       0.21530318 0.11005259 -0.07372672 -0.27851352
000070 29 d1 b6 3c 36 29 ee 3d 12 b8 c1 3d b6 c6 88 bc
       0.022316532 0.11628954 0.09458937 -0.016696315
000080 59 aa d6 3b c8 ad 75 be df 94 04 be 33 bd 5b 3e
       0.0065510687 -0.23992074 -0.12947415 0.21458893
000090 34 d0 d7 3c 6a 56 1f 3d 52 89 58 3d 03 f7 f7 bc
       0.026344396 0.03890077 0.052865334 -0.030269152
0000a0 d5 79 cf 3d 8b d4 d6 3d f6 74 8d 3d d3 a7 1d be
       0.101306595 0.10489758 0.06907074 -0.15396051
0000b0 f4 c6 60 bc e4 1f 86 be 78 f4 8f 3d 9a ec 16 3e
       -0.013719309 -0.26196206 0.070290506 0.14738694
0000c0 76 82 8f 3d 68 9d 41 be 42 d5 07 3e 92 05 00 be
       0.07007305 -0.18907702 0.13264945 -0.12502125
0000d0 c4 d9 36 be b8 6c 03 bd b2 6a de bc f1 62 2c be
       -0.17856508 -0.032086104 -0.027150486 -0.16834618
0000e0 c3 a2 aa 3a c0 37 c1 3d ad 55 73 3e 25 8b a8 bc
       0.0013018477 0.094344616 0.23763151 -0.020574162
0000f0 47 85 a0 3d 60 5a 1e 3c bd 04 89 bc 2f 0d 28 bc
       0.07837921 0.009665102 -0.016725892 -0.010257049
000100 45 0d fa 3d 6e 09 26 bd 92 d2 05 be a9 44 b7 bd
       0.12209562 -0.040536337 -0.13068607 -0.08948643
000110 7c ca a7 bd df 29 2f 3d 4a 02 13 bd 92 bc b5 3c
       -0.08192918 0.04276454 -0.035890855 0.022184644
000120 79 05 04 3e 16 a0 83 bd 7c 3d 49 3e 41 b6 b1 bd
       0.12892713 -0.06427018 0.1965236 -0.0867734
000130 67 8d be ba cd f1 1a 3e 6e a0 bb bd 99 e0 09 bd
       -0.0014537991 0.15131302 -0.09161459 -0.03366146
000140 f3 1a 6d 3e 10 40 53 3d 8b 65 cc be 6c 8d 8b ba
       0.23154812 0.051574767 -0.3992122 -0.0010647005
000150 fe 27 54 3d 80 45 25 3e c3 e0 a3 bd b5 9d 2c 3d
       0.051795952 0.16139793 -0.08001854 0.04214259
000160 f3 69 b6 3c ea 2e 00 be 7e 12 83 3e 19 a2 2a bd
       0.022267317 -0.12517896 0.25600046 -0.041658495
000170 42 a9 8a bd c2 28 2d 3e a2 0a c5 3d e5 45 f5 3d
       -0.067705646 0.16910079 0.09621169 0.11976222
000180 1e 08 21 3e ba d4 a9 bd 8e 6a 67 3d ad 78 2e be
       0.15725753 -0.082925275 0.056498103 -0.17038222
000190 c1 e3 6e bd 1a fc 80 bd 65 15 03 bd 52 07 b5 bd
       -0.05832267 -0.062980846 -0.032002825 -0.08839287
0001a0 5b 73 53 3d 46 f1 7a bc ff 04 f7 3c 6b 43 0f 3e
       0.051623683 -0.015316313 0.03015375 0.13990562
0001b0 e0 a0 a9 bd f0 12 c6 bc 2a 2f 84 3e 59 80 cf 3d
       -0.082826376 -0.024178952 0.25817233 0.10131902
0001c0 34 9a 2e be b1 38 27 be 15 ae 49 3d fb 8d 05 3d
       -0.17051011 -0.1633022 0.049238283 0.032606106
0001d0 27 50 10 be ef 40 d4 bd a4 81 a1 3d 8a 8d d5 3d
       -0.14093076 -0.103639476 0.07886055 0.10427387
0001e0 c9 01 7e bd ab fa 03 3d 15 3e ba bd 0b 0d 62 3d
       -0.06201342 0.032221477 -0.090938725 0.05518822
0001f0 1b 23 73 3d 52 01 47 3c bc 12 cd 3d 4e 5d 94 3d
       0.05935965 0.012146311 0.10013339 0.07244359
000200 9b 19 77 3e 63 c0 a1 3b 05 ef c0 3b 49 3f ec 3d
       0.24130861 0.0049362644 0.0058878683 0.11535508
000210 2e fb 90 bc fa ae 80 3e 85 0f 79 3b 94 35 6d bd
       -0.017697897 0.25133497 0.0038003635 -0.057912424
000220 2e 15 cf bd e2 c5 9c bc ea cf 77 bd 53 cd 5b 3e
       -0.101114616 -0.019137327 -0.060501017 0.21465044
000230 3a 5c f0 3d 98 cd 08 3e d8 f5 b2 3c fb 19 49 3d
       0.11736341 0.13359678 0.021845743 0.049097043
000240 93 90 82 3e f7 8e 76 be fa 11 fd 3d f3 7a bd bc
       0.25500926 -0.24077974 0.123569444 -0.023129916
000250 e3 88 02 be ba b8 3f 3d e4 c0 06 3e 45 33 1d be
       -0.1274753 0.04680703 0.1315952 -0.15351589
000260 77 7a bf 3d 33 82 0c 3d 79 38 a2 bc 8e e6 d7 3d
       0.0934953 0.034303855 -0.019802319 0.10542022
000270 8c d9 c0 bd d1 36 5d 3d 4c 31 0f 3e b6 ea 3e bc
       -0.09416494 0.054007355 0.13983649 -0.011652639
000280 2e 4b 89 3e b4 96 fd 3c 86 d6 6b bd 08 ac e1 3c
       0.2681517 0.03095565 -0.057577632 0.027547851
000290 4a 5f 3b be f1 4b 4e bc a9 e9 9d bd 1a 89 5d be
       -0.18298069 -0.012591348 -0.07710583 -0.21634331
0002a0 fc b4 5e b9 5c 17 e4 bd 30 4e 7d bd 94 91 af 3c
       -0.00021238992 -0.11137268 -0.061842144 0.021431722
0002b0 42 21 d6 3d 49 e5 c7 3d c3 aa 83 be fa 4e b1 bd
       0.10455562 0.097605295 -0.25716218 -0.08657642
0002c0 da 33 cc bd 0a e7 b4 3d a3 d6 c3 3d ee bd ee bc
       -0.099708274 0.0883313 0.09562423 -0.0291433
0002d0 d4 91 84 3b 49 ce c8 bb 3a 46 a3 3d f2 89 eb 3d
       0.0040457044 -0.0061281067 0.07972379 0.1150092
0002e0 19 7f c7 3b 6f f5 9b 3e ba fd 53 3e c0 5c 02 be
       0.0060881493 0.30460688 0.20702258 -0.12730694
0002f0 4c 75 08 3d 02 90 97 3c 22 0f a9 bd b2 fb eb 3d
       0.033314988 0.018501285 -0.082548395 0.115226164
000300 d2 5d 56 3e 39 04 8f bc 53 2c 08 3d d4 f8 45 3e
       0.20934227 -0.017458068 0.033245396 0.19333202
000310 4d 08 ed 3d 89 a9 2f 3e 98 60 2b 3d a7 74 1b 3c
       0.11573849 0.17154516 0.041840166 0.009488261
000320 67 b1 3c 3e 73 a4 0f 3e fa 01 c0 bd 16 35 84 3d
       0.18427049 0.14027576 -0.09375377 0.06455438
000330 2f 55 42 3d 9a c5 7c 3d 4b c4 77 bc ee 02 0b 3d
       0.04744452 0.061711885 -0.0151224835 0.03393834
000340 14 8c f7 3d 05 a7 e9 bd c1 17 27 bd 49 a8 63 3d
       0.12087265 -0.114088096 -0.040794138 0.05558041
000350 f2 fd 94 bd c0 27 d0 bd da 34 b8 3d f1 b3 f2 bd
       -0.07274999 -0.10163832 0.08994456 -0.11850727
000360 7a 55 86 3e 9a a4 8c 3c 14 9a 01 bd d4 d7 8b 3e
       0.26237088 0.017168332 -0.03164108 0.273131
000370 50 42 dd 3d f5 fb ba 3d ad dd 44 3d e8 07 4f 3e
       0.10803664 0.09130088 0.04806297 0.2021786
000380 f1 8e 51 3e 3f 49 9e bd 42 1f 6b 3e f0 e2 76 3e
       0.20464684 -0.07728814 0.22961143 0.24110007
000390 2d 86 a6 3a a8 5e dd 3c 8d ac ce bc 60 b3 13 bd
       0.0012704782 0.027022675 -0.025228763 -0.036059737
0003a0 9b fd 6a 3d d1 21 16 bd f6 59 eb 3d 55 14 bf bd
       0.057370763 -0.036653344 0.11491768 -0.0933005
0003b0 b4 78 8a 3e 3c 5f d1 bd 91 72 d6 3c e2 27 8b 3d
       0.27045214 -0.10223243 0.026177676 0.067947164
0003c0 40 d8 c5 bd 0c e2 b9 bd 63 7f 6c bd 1e 1e 88 b9
       -0.09660387 -0.09076318 -0.057738673 -0.0002596238
0003d0 ee a4 ea bd 6d 23 b5 bd 88 d3 87 bc 79 b0 78 3d
       -0.11457239 -0.088446476 -0.016580358 0.060715172
0003e0 5b 5c 40 3e b5 f7 58 3d 93 c4 b2 bd 0d 52 e1 bc
       0.18785231 0.052970607 -0.087289 -0.027504945
0003f0 82 62 ec 3c 4b 8a a1 be 79 57 85 bd 84 7f 1f 3d
       0.028855566 -0.31550822 -0.06510825 0.038939968

road_emb.1.bias f4 [64]
000000 00 00 00 00 00 00 00 00 00 00 00 00 00 00 00 00
       0.0 0.0 0.0 0.0
000010 00 00 00 00 00 00 00 00 00 00 00 00 00 00 00 00
       0.0 0.0 0.0 0.0
000020 00 00 00 00 00 00 00 00 00 00 00 00 00 00 00 00
       0.0 0.0 0.0 0.0
000030 00 00 00 00 00 00 00 00 00 00 00 00 00 00 00 00
       0.0 0.0 0.0 0.0
000040 00 00 00 00 00 00 00 00 00 00 00 00 00 00 00 00
       0.0 0.0 0.0 0.0
000050 00 00 00 00 00 00 00 00 00 00 00 00 00 00 00 00
       0.0 0.0 0.0 0.0
000060 00 00 00 00 00 00 00 00 00 00 00 00 00 00 00 00
       0.0 0.0 0.0 0.0
000070 00 00 00 00 00 00 00 00 00 00 00 00 00 00 00 00
       0.0 0.0 0.0 0.0
000080 00 00 00 00 00 00 00 00 00 00 00 00 00 00 00 00
       0.0 0.0 0.0 0.0
000090 00 00 00 00 00 00 00 00 00 00 00 00 00 00 00 00
       0.0 0.0 0.0 0.0
0000a0 00 00 00 00 00 00 00 00 00 00 00 00 00 00 00 00
       0.0 0.0 0.0 0.0
0000b0 00 00 00 00 00 00 00 00 00 00 00 00 00 00 00 00
       0.0 0.0 0.0 0.0
0000c0 00 00 00 00 00 00 00 00 00 00 00 00 00 00 00 00
       0.0 0.0 0.0 0.0
0000d0 00 00 00 00 00 00 00 00 00 00 00 00 00 00 00 00
       0.0 0.0 0.0 0.0
0000e0 00 00 00 00 00 00 00 00 00 00 00 00 00 00 00 00
       0.0 0.0 0.0 0.0
0000f0 00 00 00 00 00 00 00 00 00 00 00 00 00 00 00 00
       0.0 0.0 0.0 0.0

cav_emb.0.weight f4 [11]
000000 00 00 80 3f 00 00 80 3f 00 00 80 3f 00 00 80 3f
       1.0 1.0 1.0 1.0
000010 00 00 80 3f 00 00 80 3f 00 00 80 3f 00 00 80 3f
       1.0 1.0 1.0 1.0
000020 00 00 80 3f 00 00 80 3f 00 00 80 3f
       1.0 1.0 1.0

cav_emb.0.bias f4 [11]
000000 00 00 00 00 00 00 00 00 00 00 00 00 00 00 00 00
       0.0 0.0 0.0 0.0
000010 00 00 00 00 00 00 00 00 00 00 00 00 00 00 00 00
       0.0 0.0 0.0 0.0
000020 00 00 00 00 00 00 00 00 00 00 00 00
       0.0 0.0 0.0

cav_emb.1.weight f4 [64, 11]
000000 4a 2f 52 3c cd ec 15 bc f5 eb 30 bc b4 0e c3 3c
       0.012828657 -0.009150696 -0.010798444 0.023810722
000010 53 46 d3 39 d7 5a 6a 3e d2 cc f7 bd 85 02 9b 3e
       0.00040297452 0.22886215 -0.12099613 0.3027536
000020 82 f8 0d be f0 6d 1e 3e 30 1c 57 be fb 3d 34 bc
       -0.1386433 0.15471625 -0.21006846 -0.011001105
000030 c8 2d 73 bd 7e 1a 20 3e f5 b7 88 3d 4d 75 ac bd
       -0.059369832 0.15635106 0.06675712 -0.08420811
000040 58 96 a3 3d c2 94 aa bc 29 8e 7f be 9f 87 47 3e
       0.0798766 -0.020822886 -0.24956574 0.19485329
000050 79 2b 08 3e cf f4 79 3e c8 80 46 3d af 68 1c be
       0.13297834 0.24409793 0.04846266 -0.15274309
000060 01 91 22 3e ac 10 87 be b7 c7 4c be 77 5e 50 3e
       0.15875627 -0.26379907 -0.1999806 0.20348535
000070 84 e8 c3 bd 5f f8 77 be 4e 6a 99 be c2 7a 0b bd
       -0.09565833 -0.2421584 -0.29963917 -0.034052618
000080 99 bd 45 bd ea 3e 5f 3e e5 43 2c be 16 a3 6d 3e
       -0.048276518 0.21801344 -0.16822775 0.23206744
000090 30 e5 ff 3b 5a 16 a5 3d 23 7e 3b 3e bc 58 c1 bd
       0.0078093037 0.08060904 0.18309836 -0.09440753
0000a0 96 9c 1c 3d e0 49 b8 3d 1f f3 7e 3c c8 e6 94 bd
       0.03823527 0.089984655 0.015560894 -0.072705805
0000b0 45 ad 9f 3e cb 52 52 bd dc 19 48 3d 4d 05 2b be
       0.31186882 -0.05134849 0.048852786 -0.16701241
0000c0 b2 38 94 3a 01 44 de 3d cd 3a 19 3d a5 7a 62 3e
       0.00113084 0.108528145 0.037409592 0.22117098
0000d0 6c 24 c8 3d 88 ac 7d 3e f3 b1 be bd 05 d6 7d bc
       0.09772572 0.24772847 -0.09311285 -0.015492921
0000e0 30 7f 86 bd fa 3f 95 3e ff 8d a7 3e 1b 03 8c 3d
       -0.06567228 0.29150373 0.32725522 0.0683653
0000f0 91 3c 73 be 45 b1 2c bd 24 9d 50 3e 46 87 cb bd
       -0.23753573 -0.042161245 0.20372444 -0.09937911
000100 70 57 47 3c c5 c3 5a 3d 2e b5 17 be 4a a8 21 bc
       0.012166843 0.053409357 -0.14815208 -0.009866783
000110 0d 90 bd 3d fd bb 6c bc 8d 4d ce bd cc 4b 72 3e
       0.09255991 -0.014449117 -0.100733854 0.23661727
000120 30 27 8c 3e 0f f0 f5 3c 9d 2c ee 3c 37 1f 8d bd
       0.27373648 0.030021695 0.029074008 -0.068907194
000130 64 b5 f5 bc 81 d4 8a be 76 d2 b0 bd 74 69 f8 bc
       -0.02999372 -0.27115253 -0.08633892 -0.030323721
000140 df 85 3e be 44 4b a7 3d 9f 72 6a be 51 1b cb 3e
       -0.18605755 0.08168653 -0.22895287 0.39669278
000150 c8 10 9c bd bf 04 82 3e 12 a5 62 bd a3 2f c1 3d
       -0.07620388 0.25394246 -0.055333205 0.09432914
000160 7d f1 16 3e 30 c5 9d be dd c0 4b be a3 9e 66 bd
       0.14740558 -0.30814505 -0.1989779 -0.05630363
000170 e5 0b 33 be 52 ae fa bd 78 6a 6c 3d bb 0b a5 bd
       -0.17485006 -0.1224028 0.057718724 -0.08058878
000180 d9 66 08 3e d3 5d b8 bc e3 f7 ca 3c 08 1b f5 bd
       0.13320483 -0.022505676 0.024776405 -0.119680464
000190 e4 b0 d6 bd 09 32 e1 bd 7e ba 0c be 85 05 3e 3e
       -0.10482958 -0.109958716 -0.13743016 0.18556793
0001a0 22 7b ef 3d 9f 50 5b be 85 46 2e be 56 44 cd bd
       0.116934076 -0.21417473 -0.17019089 -0.100228
0001b0 5b 4a 4c 3e b4 66 d6 3d 4d a4 90 3d 43 af 59 3e
       0.1995024 0.10468808 0.07062588 0.21258263
0001c0 16 e3 b9 3d 3e 7c f3 3d 0a 8d 82 3e 6b 38 54 3d
       0.09076516 0.11888932 0.2549823 0.051811617
0001d0 0f 4d 14 be 2d 41 8a 3e eb 84 7d be 56 a8 a9 3d
       -0.1448252 0.2700285 -0.24757735 0.08284061
0001e0 cb 34 21 bd d6 c0 1d bc ff 0e d4 bd 9a df ba 3c
       -0.039356988 -0.009628495 -0.10354423 0.0228117
0001f0 97 7d 8f 3e 77 3e 6a be 1f d3 19 3d 3d a0 3a 3e
       0.28025505 -0.22875391 0.037554856 0.18225189
000200 ac 0c 33 3e 71 dc cc 3e 38 ca e7 3e 79 91 10 3e
       0.17485303 0.40011933 0.45271468 0.14117993
000210 39 68 a6 bd 4c 04 6c be e1 01 f9 bd 3d 87 36 3e
       -0.08125348 -0.23048514 -0.121585615 0.17825027
000220 d3 c6 ae 3e 64 77 4f be ab 09 37 3d 3d 10 04 3c
       0.34136066 -0.20260388 0.044686954 0.008060512
000230 05 05 0a be b9 56 66 bd b7 9a cc 3d 41 1d ff 3d
       -0.13478477 -0.05623505 0.09990447 0.124567516
000240 94 72 20 3d 6b 98 34 3e 1a 0c 34 3d 9f 44 09 be
       0.03917177 0.17636268 0.043956853 -0.13405083
000250 98 8c a3 bd a4 0a 13 3e a8 84 e8 3d 71 ee fe 3c
       -0.079858005 0.14359528 0.11353427 0.031119557
000260 c5 ed 35 3e 36 d8 24 3d 58 2a 9d be 2b 5d 23 3e
       0.17766483 0.040245257 -0.30696368 0.1595351
000270 23 59 db 3d e2 76 d0 3d 55 5a 86 be d3 f9 e4 be
       0.10710361 0.10178925 -0.26240793 -0.4472185
000280 a2 b1 ab bd 92 40 0a 3e 6a f5 a3 bd 5a c5 9e 3e
       -0.0838349 0.13501194 -0.080057934 0.31009942
000290 2b a2 87 be 75 41 07 be 0d 3a 6a 3e 73 b3 7e be
       -0.26490912 -0.13208564 0.22873707 -0.24873142
0002a0 12 8b 14 3e c5 ff 79 3d 18 ca 9d be f1 55 80 bb
       0.14506176 0.061034936 -0.30818248 -0.003916495
0002b0 1b 94 46 bd 50 e2 cc be 34 72 b6 bd 36 5f b7 3e
       -0.048481088 -0.40016413 -0.08908501 0.35814828
0002c0 91 e3 bb be 60 88 c3 3c 87 f2 96 be 01 27 2f 3e
       -0.36697057 0.02386874 -0.2948191 0.17104723
0002d0 d0 51 fd 3c 5f 20 e1 bd 15 b1 02 bd aa a5 a5 bc
       0.0309228 -0.109925024 -0.03190716 -0.020220596
0002e0 6c da 93 3e cc ca 68 3d 4a d5 8e bc 9e 05 47 bc
       0.2887758 0.056834027 -0.017435689 -0.012147335
0002f0 e4 c1 ef bd f8 4f ae 3e 64 3e 3a 3d b1 c0 2a 3e
       -0.117069036 0.34045386 0.045469657 0.16675068
000300 93 94 45 be 85 67 e1 bd b4 23 1c be da 86 19 3e
       -0.19294958 -0.11006073 -0.15247995 0.14992848
000310 c1 0e 80 be b1 b1 7c 3c d9 b2 e2 bd 40 e2 81 3e
       -0.25011256 0.015423224 -0.11069269 0.25367928
000320 05 de 8a 3d aa b0 47 3c 61 7a 09 3e de de 73 be
       0.06780628 0.012188116 0.1342559 -0.23815486
000330 1e 01 31 be d8 2f 9f bc 50 f7 84 3c 5a 52 cc bd
       -0.17285582 -0.019431993 0.016231209 -0.09976645
000340 16 37 2b 3b 9d b3 2e be af f0 d4 bb a0 12 e4 3d
       0.0026125363 -0.17060705 -0.0064984183 0.11136365
000350 1f e3 08 be 9a 88 79 be 3a e2 bb be 2c 3c 0b bd
       -0.1336789 -0.24368516 -0.36696035 -0.03399293
000360 75 fe 17 bc 62 e9 89 be b2 13 2c be c3 fd 5e bd
       -0.009276976 -0.2693587 -0.16804388 -0.054441225
000370 e7 1b 84 be 1a 07 16 3e 31 76 d9 3c 72 02 d2 3c
       -0.25802538 0.14651147 0.026545616 0.025635932
000380 27 3b b8 3e ae e4 d5 3d 3e 82 38 be f7 74 c9 bd
       0.3598263 0.10444008 -0.18018433 -0.098367624
000390 cc 2a ef 3d e4 0c 65 3e 58 f7 3a bc 27 61 e9 3c
       0.11678085 0.22368199 -0.01141151 0.028488709
0003a0 8c fe 9b 3e fb 45 25 3e 29 26 a3 3d 3d 20 5c 3e
       0.3046764 0.16139977 0.07966263 0.21496673
0003b0 6f c9 2f 3d e8 5a dc 3c 83 10 f4 3d 5c ca 77 bc
       0.04291671 0.026898816 0.11917212 -0.01512393
0003c0 1e 49 95 bd 7c 1d ba 3e 9f 95 bf be 8b f7 9d 3b
       -0.072893366 0.3635062 -0.3741884 0.004820769
0003d0 e2 4d 86 3e 45 c9 8b be b3 29 25 be f3 38 b1 3e
       0.26231295 -0.27301994 -0.16129188 0.3461376
0003e0 46 a4 40 bd b2 0f 0b 3e b3 e4 47 3e 4f 6e 77 be
       -0.047031663 0.13580206 0.19520836 -0.24163173
0003f0 b3 15 27 3e 85 9b b2 be 44 70 39 ba 1d 63 2e be
       0.16316871 -0.34884277 -0.0007073919 -0.17029996

cav_emb.1.bias f4 [64]
000000 00 00 00 00 00 00 00 00 00 00 00 00 00 00 00 00
       0.0 0.0 0.0 0.0
000010 00 00 00 00 00 00 00 00 00 00 00 00 00 00 00 00
       0.0 0.0 0.0 0.0
000020 00 00 00 00 00 00 00 00 00 00 00 00 00 00 00 00
       0.0 0.0 0.0 0.0
000030 00 00 00 00 00 00 00 00 00 00 00 00 00 00 00 00
       0.0 0.0 0.0 0.0
000040 00 00 00 00 00 00 00 00 00 00 00 00 00 00 00 00
       0.0 0.0 0.0 0.0
000050 00 00 00 00 00 00 00 00 00 00 00 00 00 00 00 00
       0.0 0.0 0.0 0.0
000060 00 00 00 00 00 00 00 00 00 00 00 00 00 00 00 00
       0.0 0.0 0.0 0.0
000070 00 00 00 00 00 00 00 00 00 00 00 00 00 00 00 00
       0.0 0.0 0.0 0.0
000080 00 00 00 00 00 00 00 00 00 00 00 00 00 00 00 00
       0.0 0.0 0.0 0.0
000090 00 00 00 00 00 00 00 00 00 00 00 00 00 00 00 00
       0.0 0.0 0.0 0.0
0000a0 00 00 00 00 00 00 00 00 00 00 00 00 00 00 00 00
       0.0 0.0 0.0 0.0
0000b0 00 00 00 00 00 00 00 00 00 00 00 00 00 00 00 00
       0.0 0.0 0.0 0.0
0000c0 00 00 00 00 00 00 00 00 00 00 00 00 00 00 00 00
       0.0 0.0 0.0 0.0
0000d0 00 00 00 00 00 00 00 00 00 00 00 00 00 00 00 00
       0.0 0.0 0.0 0.0
0000e0 00 00 00 00 00 00 00 00 00 00 00 00 00 00 00 00
       0.0 0.0 0.0 0.0
0000f0 00 00 00 00 00 00 00 00 00 00 00 00 00 00 00 00
       0.0 0.0 0.0 0.0

att.mask f4 [1, 1, 145, 145]
000000 00 00 80 3f 00 00 00 00 00 00 00 00 00 00 00 00
       1.0 0.0 0.0 0.0
000010 00 00 00 00 00 00 00 00 00 00 00 00 00 00 00 00
       0.0 0.0 0.0 0.0
000020 00 00 00 00 00 00 00 00 00 00 00 00 00 00 00 00
       0.0 0.0 0.0 0.0
000030 00 00 00 00 00 00 00 00 00 00 00 00 00 00 00 00
       0.0 0.0 0.0 0.0
000040 00 00 00 00 00 00 00 00 00 00 00 00 00 00 00 00
       0.0 0.0 0.0 0.0
000050 00 00 00 00 00 00 00 00 00 00 00 00 00 00 00 00
       0.0 0.0 0.0 0.0
000060 00 00 00 00 00 00 00 00 00 00 00 00 00 00 00 00
       0.0 0.0 0.0 0.0
000070 00 00 00 00 00 00 00 00 00 00 00 00 00 00 00 00
       0.0 0.0 0.0 0.0
000080 00 00 00 00 00 00 00 00 00 00 00 00 00 00 00 00
       0.0 0.0 0.0 0.0
000090 00 00 00 00 00 00 00 00 00 00 00 00 00 00 00 00
       0.0 0.0 0.0 0.0
0000a0 00 00 00 00 00 00 00 00 00 00 00 00 00 00 00 00
       0.0 0.0 0.0 0.0
0000b0 00 00 00 00 00 00 00 00 00 00 00 00 00 00 00 00
       0.0 0.0 0.0 0.0
0000c0 00 00 00 00 00 00 00 00 00 00 00 00 00 00 00 00
       0.0 0.0 0.0 0.0
0000d0 00 00 00 00 00 00 00 00 00 00 00 00 00 00 00 00
       0.0 0.0 0.0 0.0
0000e0 00 00 00 00 00 00 00 00 00 00 00 00 00 00 00 00
       0.0 0.0 0.0 0.0
0000f0 00 00 00 00 00 00 00 00 00 00 00 00 00 00 00 00
       0.0 0.0 0.0 0.0
000100 00 00 00 00 00 00 00 00 00 00 00 00 00 00 00 00
       0.0 0.0 0.0 0.0
000110 00 00 00 00 00 00 00 00 00 00 00 00 00 00 00 00
       0.0 0.0 0.0 0.0
000120 00 00 00 00 00 00 00 00 00 00 00 00 00 00 00 00
       0.0 0.0 0.0 0.0
000130 00 00 00 00 00 00 00 00 00 00 00 00 00 00 00 00
       0.0 0.0 0.0 0.0
000140 00 00 00 00 00 00 00 00 00 00 00 00 00 00 00 00
       0.0 0.0 0.0 0.0
000150 00 00 00 00 00 00 00 00 00 00 00 00 00 00 00 00
       0.0 0.0 0.0 0.0
000160 00 00 00 00 00 00 00 00 00 00 00 00 00 00 00 00
       0.0 0.0 0.0 0.0
000170 00 00 00 00 00 00 00 00 00 00 00 00 00 00 00 00
       0.0 0.0 0.0 0.0
000180 00 00 00 00 00 00 00 00 00 00 00 00 00 00 00 00
       0.0 0.0 0.0 0.0
000190 00 00 00 00 00 00 00 00 00 00 00 00 00 00 00 00
       0.0 0.0 0.0 0.0
0001a0 00 00 00 00 00 00 00 00 00 00 00 00 00 00 00 00
       0.0 0.0 0.0 0.0
0001b0 00 00 00 00 00 00 00 00 00 00 00 00 00 00 00 00
       0.0 0.0 0.0 0.0
0001c0 00 00 00 00 00 00 00 00 00 00 00 00 00 00 00 00
       0.0 0.0 0.0 0.0
0001d0 00 00 00 00 00 00 00 00 00 00 00 00 00 00 00 00
       0.0 0.0 0.0 0.0
0001e0 00 00 00 00 00 00 00 00 00 00 00 00 00 00 00 00
       0.0 0.0 0.0 0.0
0001f0 00 00 00 00 00 00 00 00 00 00 00 00 00 00 00 00
       0.0 0.0 0.0 0.0
000200 00 00 00 00 00 00 00 00 00 00 00 00 00 00 00 00
       0.0 0.0 0.0 0.0
000210 00 00 00 00 00 00 00 00 00 00 00 00 00 00 00 00
       0.0 0.0 0.0 0.0
000220 00 00 00 00 00 00 00 00 00 00 00 00 00 00 00 00
       0.0 0.0 0.0 0.0
000230 00 00 00 00 00 00 00 00 00 00 00 00 00 00 00 00
       0.0 0.0 0.0 0.0
000240 00 00 00 00 00 00 80 3f 00 00 80 3f 00 00 00 00
       0.0 1.0 1.0 0.0
000250 00 00 00 00 00 00 00 00 00 00 00 00 00 00 00 00
       0.0 0.0 0.0 0.0
000260 00 00 00 00 00 00 00 00 00 00 00 00 00 00 00 00
       0.0 0.0 0.0 0.0
000270 00 00 00 00 00 00 00 00 00 00 00 00 00 00 00 00
       0.0 0.0 0.0 0.0
000280 00 00 00 00 00 00 00 00 00 00 00 00 00 00 00 00
       0.0 0.0 0.0 0.0
000290 00 00 00 00 00 00 00 00 00 00 00 00 00 00 00 00
       0.0 0.0 0.0 0.0
0002a0 00 00 00 00 00 00 00 00 00 00 00 00 00 00 00 00
       0.0 0.0 0.0 0.0
0002b0 00 00 00 00 00 00 00 00 00 00 00 00 00 00 00 00
       0.0 0.0 0.0 0.0
0002c0 00 00 00 00 00 00 00 00 00 00 00 00 00 00 00 00
       0.0 0.0 0.0 0.0
0002d0 00 00 00 00 00 00 00 00 00 00 00 00 00 00 00 00
       0.0 0.0 0.0 0.0
0002e0 00 00 00 00 00 00 00 00 00 00 00 00 00 00 00 00
       0.0 0.0 0.0 0.0
0002f0 00 00 00 00 00 00 00 00 00 00 00 00 00 00 00 00
       0.0 0.0 0.0 0.0
000300 00 00 00 00 00 00 00 00 00 00 00 00 00 00 00 00
       0.0 0.0 0.0 0.0
000310 00 00 00 00 00 00 00 00 00 00 00 00 00 00 00 00
       0.0 0.0 0.0 0.0
000320 00 00 00 00 00 00 00 00 00 00 00 00 00 00 00 00
       0.0 0.0 0.0 0.0
000330 00 00 00 00 00 00 00 00 00 00 00 00 00 00 00 00
       0.0 0.0 0.0 0.0
000340 00 00 00 00 00 00 00 00 00 00 00 00 00 00 00 00
       0.0 0.0 0.0 0.0
000350 00 00 00 00 00 00 00 00 00 00 00 00 00 00 00 00
       0.0 0.0 0.0 0.0
000360 00 00 00 00 00 00 00 00 00 00 00 00 00 00 00 00
       0.0 0.0 0.0 0.0
000370 00 00 00 00 00 00 00 00 00 00 00 00 00 00 00 00
       0.0 0.0 0.0 0.0
000380 00 00 00 00 00 00 00 00 00 00 00 00 00 00 00 00
       0.0 0.0 0.0 0.0
000390 00 00 00 00 00 00 00 00 00 00 00 00 00 00 00 00
       0.0 0.0 0.0 0.0
0003a0 00 00 00 00 00 00 00 00 00 00 00 00 00 00 00 00
       0.0 0.0 0.0 0.0
0003b0 00 00 00 00 00 00 00 00 00 00 00 00 00 00 00 00
       0.0 0.0 0.0 0.0
0003c0 00 00 00 00 00 00 00 00 00 00 00 00 00 00 00 00
       0.0 0.0 0.0 0.0
0003d0 00 00 00 00 00 00 00 00 00 00 00 00 00 00 00 00
       0.0 0.0 0.0 0.0
0003e0 00 00 00 00 00 00 00 00 00 00 00 00 00 00 00 00
       0.0 0.0 0.0 0.0
0003f0 00 00 00 00 00 00 00 00 00 00 00 00 00 00 00 00
       0.0 0.0 0.0 0.0
