route_TSC/model/0.5_astar_dqn_joint_0315/ep35/target_q_netveh.pt (torch, 13784 bytes, 6 tensors)

fc1.weight f4 [64, 8]
0	0x3e91bac8	0.28462815
1	0x3e3a8674	0.18215352
2	0xbef7d896	-0.4840743
3	0x3e980d8a	0.2969783
4	0xbe596b5d	-0.21232362
5	0xbed53104	-0.41638958
6	0x3c427583	0.011868837
7	0xbe77d2b3	-0.24201469
8	0xbe8629be	-0.26203722
9	0x3c783b54	0.015150864
10	0x3eab3e71	0.33446077
11	0xbe552b00	-0.20817184
12	0x3e4dec7d	0.20109744
13	0x3e5e2d1c	0.21696895
14	0x3e7b55fa	0.24544516
15	0xbe827a44	-0.25483906
16	0xbe60c859	-0.21951427
17	0x3c2fc5ff	0.010728358
18	0xbc090172	-0.008362161
19	0xbd123b29	-0.03570095
20	0xbdb487a1	-0.08814932
21	0x3df09c62	0.11748578
22	0xbe0b163f	-0.13582705
23	0x3e31586d	0.17318888
24	0xbdcc45a6	-0.09974222
25	0xbea4f851	-0.322207
26	0xbecbdb28	-0.3981564
27	0x3dd676fb	0.104719125
28	0x3d334996	0.04377135
29	0xbe9b9d56	-0.30393475
30	0xbea44ec2	-0.32091337
31	0x3d890567	0.066904835
32	0x3e5e835f	0.21729802
33	0x3e655547	0.22395812
34	0x3e468f7e	0.19390675
35	0x3c1fe6be	0.009759603
36	0xbe864be1	-0.26229766
37	0xbe3712bd	-0.17878242
38	0x3e8ebe85	0.2787973
39	0x3dc69086	0.096955344
40	0x3e4d6e14	0.20061523
41	0xbe7e7337	-0.24848638
42	0xbe109439	-0.14119042
43	0xbcdbd688	-0.026835695
44	0xbe5bc62c	-0.21462315
45	0x3dc57ac4	0.09642556
46	0xbd5f508e	-0.054520182
47	0x3e0d0705	0.13772209
48	0xbc853f1c	-0.016265444
49	0x3e8eafe0	0.27868557
50	0x3db3ba18	0.08775729
51	0xbe19605a	-0.14978161
52	0xbd45cf9e	-0.048293702
53	0x3e460a25	0.19339807
54	0x3e9d8310	0.30764055
55	0x3d1cd9cd	0.03829365
56	0x3de6e6f3	0.11274519
57	0x3e25a30a	0.16175476
58	0xbf0dc615	-0.55380374
59	0xbea7357d	-0.32657996
60	0x3d93680b	0.07197579
61	0xbef7df4d	-0.48412552
62	0xbeda027d	-0.42580023
63	0xbf5e094c	-0.86732936
64	0xbd8843d6	-0.06653564
65	0x3ec4073b	0.38286766
66	0x3f2b4bba	0.66912425
67	0x3ee73733	0.451593
68	0xbdd110ed	-0.102083065
69	0x3f4380a3	0.7636816
70	0x3e04a9fc	0.12955469
71	0x3e0e8264	0.13916928
72	0xbf8fadec	-1.1224952
73	0xbcab9a87	-0.020947708
74	0x3e8fb6cd	0.28069153
75	0x3dcfa037	0.101379804
76	0x3c8f5533	0.01749668
77	0x3e7e1bac	0.24815243
78	0xbe402012	-0.18762234
79	0x3e8ebda7	0.27879068
80	0x3e18d77c	0.14925951
81	0x3e562ae3	0.20914797
82	0x3e39e1c7	0.18152533
83	0xbdf177f5	-0.11790458
84	0xbea6c951	-0.32575467
85	0xbe8e1c5a	-0.27756006
86	0x3df130e3	0.117769025
87	0xbe017578	-0.12642467
88	0xbef32b9a	-0.47494203
89	0x3d89e5ed	0.06733308
90	0x3daa4a97	0.08315008
91	0xbdf5d0d9	-0.12002725
92	0x3d9a28a9	0.075272866
93	0xbea2dee8	-0.3181069
94	0xbd63c528	-0.055607945
95	0xbf0b2bce	-0.54363716
96	0x3e8fb248	0.28065705
97	0x3eb78749	0.35845402
98	0x3e45521a	0.192696
99	0xbe2ae6e1	-0.16689636
100	0xbe8fac8e	-0.28061336
101	0xbe9e3b9f	-0.30904862
102	0xbe6596f0	-0.2242086
103	0xbdcb0be5	-0.09914378
104	0xbd9c85ff	-0.07642745
105	0x3d1a26a6	0.037634514
106	0x3e6a2a2f	0.22867654
107	0x3dc9998c	0.0984374
108	0x3dcb3ce5	0.09923724
109	0x3f2d2d36	0.6764711
110	0xbf2a0f30	-0.66429424
111	0x3ecd455a	0.40091974
112	0xbe06f507	-0.13179408
113	0xbe5c5e94	-0.21520454
114	0xbe8fdfa2	-0.28100306
115	0xbe29a589	-0.16567053
116	0xbdb29d4e	-0.0872141
117	0xbc52bbfe	-0.012862204
118	0xbe2d38eb	-0.16916244
119	0x3e25945e	0.16169879
120	0xbde21109	-0.110384054
121	0xbe7abbb8	-0.24485672
122	0xbeb4a559	-0.352824
123	0xbe2f89c2	-0.17142394
124	0x3e27af69	0.16375507
125	0xbf0b147b	-0.54328126
126	0xbf3c4147	-0.73537105
127	0xbeb27453	-0.34854373
128	0x3eca5f55	0.39525858
129	0xbd454547	-0.04816177
130	0x3ee2913c	0.4425143
131	0xbe088a3a	-0.13333979
132	0xbe14750f	-0.1449778
133	0xbbcb32c3	-0.0062011196
134	0x3e9fb2dd	0.3119115
135	0xbb8a7932	-0.0042258734
136	0xbeb18d31	-0.34678033
137	0xbed47b5d	-0.4150037
138	0xbefc00f5	-0.4921948
139	0xbe83edbf	-0.25767323
140	0x3dbea56f	0.09308898
141	0xbf0d675a	-0.55235827
142	0x3f068e96	0.5256132
143	0xbe5d3894	-0.21603614
144	0xbebbc341	-0.36672404
145	0x3b517598	0.003196096
146	0x3d770c27	0.060314324
147	0xbe9b6757	-0.3035228
148	0x3e66ff33	0.22558288
149	0x3f11dc88	0.5697713
150	0xbdeba749	-0.115065165
151	0x3c58f77e	0.0132426005
152	0xbdf03271	-0.11728371
153	0x3e8f0ce3	0.2793952
154	0xbe09fdd5	-0.13475735
155	0x3d97a0b1	0.07403696
156	0xbe9d446d	-0.30716267
157	0x3d80dd60	0.06292224
158	0xbe8ad97c	-0.27119052
159	0xbd3ea4ea	-0.046543993
160	0x3e0c52e7	0.137035
161	0xbd01368d	-0.031546164
162	0xbe73e283	-0.23816876
163	0xbc1d28b5	-0.009592225
164	0xbdd985f2	-0.10621251
165	0xbe3dac5a	-0.18522778
166	0x3e0e19d6	0.13877043
167	0x3e15f5e8	0.14644587
168	0xbe1a7eeb	-0.15087478
169	0xbd97330e	-0.07382785
170	0xbdf3f6c3	-0.119123004
171	0xbd867f87	-0.06567293
172	0xbe96c925	-0.29450336
173	0x3e833d5a	0.25632745
174	0xbe0a518d	-0.13507672
175	0xbea425fb	-0.32060227
176	0x3e27977b	0.16366379
177	0x3e740cf1	0.23833062
178	0x3eca3a15	0.39497438
179	0xbe1613ab	-0.1465594
180	0xbdc917c6	-0.098189875
181	0x3e1e47c7	0.15457068
182	0x3e945c92	0.28976876
183	0x3d8b088e	0.06788741
184	0xbebe09ee	-0.3711695
185	0x3e38e6a9	0.1805674
186	0xbeac931d	-0.3370599
187	0x3cf22910	0.029560596
188	0x3e0eb79c	0.13937229
189	0xbf4828a8	-0.78187037
190	0xbe424002	-0.1896973
191	0xbeb6b09a	-0.3568161
192	0xbe17dabb	-0.14829533
193	0xbebb5291	-0.3658643
194	0xbecd88d0	-0.40143442
195	0xbedb7bfc	-0.4286803
196	0x3dd64f5d	0.10464356
197	0xbec1b950	-0.37836695
198	0x3e9955d1	0.29948285
199	0xbee97be9	-0.45602348
200	0xbe9cbf4c	-0.30614698
201	0xbcf5455a	-0.029940296
202	0xbe155e24	-0.14586693
203	0x3dbd0250	0.09228957
204	0x3e42678b	0.18984811
205	0x3d4c32d5	0.049853165
206	0xbece4b5b	-0.40291867
207	0x3e3e8558	0.18605554
208	0x3e8322b2	0.25612408
209	0xbdff2fd9	-0.12460298
210	0x3e69ca7e	0.22831151
211	0xbea3e651	-0.32011655
212	0xbe94e2bc	-0.29079235
213	0x3dd50c4c	0.10402736
214	0x3e706afe	0.23478314
215	0x3e263ea8	0.16234839
216	0x3cafbfff	0.021453856
217	0x3e5f7d82	0.21825221
218	0x3e9be5b3	0.30448684
219	0xbea77f82	-0.32714468
220	0xbe9a922d	-0.30189648
221	0xbdd71e64	-0.105038434
222	0xbdbd9236	-0.09256403
223	0x3da724d1	0.08161319
224	0xbcdeea70	-0.027211398
225	0xbdae0dab	-0.08498701
226	0xbf04e320	-0.51909065
227	0xbd9a1e06	-0.07525258
228	0x3d989003	0.07449343
229	0xbe6cf96b	-0.2314202
230	0xbd92e459	-0.0717246
231	0xbf01916c	-0.5061252
232	0x3dac9806	0.08427434
233	0xbe9662b1	-0.2937217
234	0xbebc6e2f	-0.36802813
235	0x3e018de5	0.12651785
236	0x3c6714cd	0.01410408
237	0x3d4e07c9	0.050300393
238	0xbeaca3c1	-0.33718684
239	0x3e5c572d	0.2151763
240	0x3ea3b08c	0.31970632
241	0x3e7b1b0e	0.2452204
242	0x3cd3e2d4	0.025864996
243	0x3e743b2a	0.23850694
244	0x3c2511e7	0.010075069
245	0xbed2967e	-0.4113044
246	0x3efcf1a9	0.49403122
247	0xbed75832	-0.42059475
248	0xbdeb57b8	-0.114913404
249	0xbe8273ae	-0.25478882
250	0xbf09dfed	-0.5385731
251	0xbe2db27b	-0.16962616
252	0x3d4f35d7	0.050588455
253	0xbf3117fa	-0.6917721
254	0xbd7f2a79	-0.062296364
255	0xbd168508	-0.036747962

fc1.bias f4 [64]
0	0xbe15e077	-0.14636408
1	0x3e9751cc	0.29554594
2	0x3dcfb9ee	0.10142885
3	0xbe8e6492	-0.27811104
4	0x3e8fbc6a	0.28073436
5	0x3e97061f	0.29496858
6	0x3eaf6898	0.34259486
7	0xbf63894b	-0.8888137
8	0x3ed742a0	0.42043018
9	0x3b3454dc	0.00275164
10	0x3e49cb62	0.1970649
11	0x3cf50498	0.029909417
12	0xbde6f685	-0.112774886
13	0x3e849bfd	0.2590026
14	0x3eada6aa	0.33916217
15	0xbe315f6b	-0.17321555
16	0xbdf89185	-0.12137131
17	0x3d3b3a70	0.045710027
18	0x3f0dd194	0.55397916
19	0xbe96b5b6	-0.2943551
20	0x3d03dd3f	0.03219342
21	0x3e123fea	0.14282194
22	0x3ed21b2d	0.41036358
23	0xbf3b1355	-0.73076373
24	0xbf43a089	-0.7641683
25	0x3e8d66f2	0.27617604
26	0x3e473788	0.19454777
27	0x3eac4e55	0.33653513
28	0xbeddc180	-0.4331169
29	0xbeec0b38	-0.4610231
30	0xbd887287	-0.06662469
31	0xbf1964a1	-0.5991917
32	0xbe15a9cf	-0.14615558
33	0x3dbf68d5	0.09346167
34	0x3eb199eb	0.34687743
35	0xbf3cd63d	-0.737644
36	0xbe920b9a	-0.28524476
37	0x3f82349b	1.0172304
38	0x3f0a15fb	0.5393979
39	0x3d82e576	0.063914225
40	0xbedd9410	-0.43277025
41	0x3d974f77	0.073882036
42	0xbe6921ea	-0.22766843
43	0xbf11817e	-0.56838214
44	0xbdb326f4	-0.08747664
45	0x3ea1e58e	0.3162045
46	0xbefa6ef0	-0.48912764
47	0xbe80cea5	-0.25157657
48	0x3d935fad	0.07195983
49	0x3dead53e	0.11466454
50	0xbf3c0576	-0.7344583
51	0xbf10fb27	-0.5663323
52	0x3d2eb9fe	0.042657845
53	0xbe3b1011	-0.18267848
54	0x3cb86b84	0.022512205
55	0xbf01abff	-0.5065307
56	0xbdfa07eb	-0.122085415
57	0x3e15edb5	0.1464146
58	0xbd7be419	-0.061496828
59	0xbdc5888d	-0.096451856
60	0x3e73bdb7	0.23802839
61	0xbef47fee	-0.47753853
62	0x3e839e4a	0.25706702
63	0x3e616280	0.22010231

fc2.weight f4 [32, 64]
0	0x3dab348e	0.083596334
1	0x3dbb6f0b	0.09152039
2	0x3b2b9de9	0.002618665
3	0xbcaf6240	-0.021409154
4	0x3db6a815	0.08918778
5	0x3df15886	0.11784463
6	0xbdeff842	-0.11717273
7	0x3dc7ee55	0.09762255
8	0xbe348b37	-0.17631231
9	0xbe8c4d41	-0.2740269
10	0x3df8638d	0.12128363
11	0xbd6e9c8b	-0.05825476
12	0xbde9bbf8	-0.11412805
13	0x3b289ca5	0.0025728133
14	0x3dcdb538	0.1004433
15	0x3da6bb1d	0.08141158
16	0xbe6ca2af	-0.23108934
17	0x3d1eb980	0.038751125
18	0xbded55b2	-0.11588611
19	0x3e19ea9a	0.150309
20	0x3dc545db	0.096324645
21	0xbd86d9bf	-0.065845005
22	0xbb313f05	-0.002704562
23	0xbd620b52	-0.055186577
24	0xbcae2745	-0.02125896
25	0x3d3e1306	0.04640486
26	0xbc81bbcf	-0.015836624
27	0x3d208862	0.039192565
28	0xbdfabfb4	-0.12243596
29	0xbd466997	-0.048440542
30	0xbde7d503	-0.11319926
31	0xbd884846	-0.0665441
32	0xbde70a27	-0.11281233
33	0x3cb492b4	0.02204261
34	0xbda3a6c4	-0.079907924
35	0x3dac83c5	0.084235705
36	0x3d9855d2	0.07438244
37	0xbc110b51	-0.008852796
38	0xbdfa2dfa	-0.122158006
39	0x3c92e006	0.017929088
40	0xbe0d3ad7	-0.13791977
41	0xbcbdf29e	-0.023186978
42	0xbd492d37	-0.049115386
43	0x3d7d6f0b	0.061873477
44	0x3dec1402	0.11527254
45	0x3d63504a	0.05549649
46	0x3d5f4bcd	0.05451565
47	0x3db81891	0.08989061
48	0x3c7f598e	0.015585316
49	0xbc31ac4c	-0.010844301
50	0x3dc5954a	0.09647615
51	0x3dea8297	0.11450689
52	0x3e8ac698	0.2710464
53	0x3d9d3c69	0.07677538
54	0xbdbe0bee	-0.09279619
55	0x3c4989c8	0.012300916
56	0xbd91a59d	-0.07111666
57	0xbdb2ce36	-0.08730738
58	0x3e21dd92	0.15807179
59	0xbdfc3f31	-0.1231674
60	0x3cf38185	0.029724846
61	0x3d50c2aa	0.050966896
62	0xbe0a45db	-0.1350321
63	0x3d86974b	0.065718256
64	0xbdbc939a	-0.0920784
65	0xbe0ff754	-0.14059192
66	0xbd094d99	-0.03352127
67	0x3d951338	0.07279056
68	0x3da445a0	0.080210924
69	0x3d8d621c	0.069034785
70	0xbbb23b51	-0.0054392
71	0xbcb3b581	-0.021937134
72	0xbc8043c2	-0.01565731
73	0xbd70d58e	-0.05879741
74	0xbdc6eee2	-0.09713532
75	0xbd9b72ca	-0.07590254
76	0x3d5c82d3	0.0538357
77	0xbd84b83d	-0.06480453
78	0xbd315aeb	-0.043299597
79	0xbe0abb35	-0.13547976
80	0x3da43dce	0.08019601
81	0x3d4373b7	0.047717776
82	0xbdbe0310	-0.09277928
83	0x3e02e7d1	0.12783743
84	0xbcfc51e1	-0.030800762
85	0x3cd8ecf9	0.026480185
86	0x3d6880d6	0.056763493
87	0x3d814264	0.06311491
88	0xbcb2a0d2	-0.0218052
89	0x3d452800	0.04813385
90	0xbc39ce06	-0.011340624
91	0x3dd9509e	0.1061108
92	0x3d9f6c44	0.07784322
93	0xbd006d2e	-0.031354122
94	0x3da0730a	0.07834442
95	0xbd207c6c	-0.039181158
96	0xbd92367f	-0.071393006
97	0xbc95655f	-0.018236814
98	0xbd9d3913	-0.07676902
99	0x3cdfa8db	0.027302196
100	0xbe161248	-0.14655411
101	0xbd7626e6	-0.06009569
102	0xbca6f411	-0.020380052
103	0x3da4eb74	0.080527216
104	0xbd7a9174	-0.06117387
105	0x3d84310d	0.06454668
106	0x3cca5977	0.024700863
107	0xbde14eb6	-0.11001341
108	0x3de2a4cb	0.11066588
109	0xbd0b1196	-0.033952318
110	0xbc8bf6d6	-0.017085474
111	0x3bdb9e04	0.0067021865
112	0xbd41ae7c	-0.047285542
113	0xbdb794ea	-0.0896395
114	0x3d359a5f	0.044336673
115	0x3d6f636b	0.05844442
116	0x3d937b86	0.072012946
117	0x3da72c89	0.08162791
118	0xbdefe92c	-0.11714396
119	0x3d80b28a	0.062840536
120	0x3ab66a93	0.001391726
121	0x3d851831	0.06498755
122	0xbd48f6c1	-0.049063448
123	0xbd62ed29	-0.055401955
124	0x3dc2e5c6	0.09516482
125	0xbe0baa29	-0.1363913
126	0x3db7e8d0	0.08979952
127	0xbd6da009	-0.05801395
128	0xbd627fdb	-0.055297714
129	0xbde18dcc	-0.11013374
130	0xbd807fa5	-0.06274346
131	0x3d4c0ed6	0.049818836
132	0x3d5269f6	0.051370583
133	0xbd5c811b	-0.053834062
134	0xbac513fd	-0.0015035864
135	0xbe0a54ac	-0.13508862
136	0xbd8c561c	-0.068523616
137	0xbd14d486	-0.03633549
138	0xbd3022df	-0.043002006
139	0xbcc62147	-0.02418579
140	0xbd7c1e50	-0.061552346
141	0xbdbc4709	-0.091932364
142	0xbd86d0ac	-0.0658277
143	0x3d8aa411	0.067695744
144	0xbde343c6	-0.11096911
145	0x3cb68827	0.02228172
146	0x3d14963a	0.03627608
147	0x3b8b8734	0.004258061
148	0xbd275752	-0.04085476
149	0xbdb090a5	-0.08621339
150	0x3da9d716	0.082929775
151	0x3da104cd	0.07862244
152	0x3d9af51d	0.07566283
153	0x3d06da53	0.032923054
154	0x3dbfd680	0.093670845
155	0xbdc13fe1	-0.09436012
156	0x3d06849c	0.03284131
157	0xbc4988bd	-0.012300667
158	0xbdd42be8	-0.10359937
159	0x3b41dfe9	0.0029582924
160	0x3d0969cd	0.033548165
161	0x3dd85781	0.10563565
162	0xbc3d576d	-0.011556488
163	0x3ad93bb0	0.0016573574
164	0xbdf53b4f	-0.11974203
165	0x3dd2402d	0.10266147
166	0x3d02457b	0.031804543
167	0xbcf885e0	-0.030337274
168	0x3d9c632f	0.07636105
169	0xbdd023bc	-0.10163066
170	0x3d996979	0.074908204
171	0x3d2cc6e8	0.04218188
172	0x3d3154b4	0.04329367
173	0xbca8bfeb	-0.020599326
174	0xbdb98815	-0.09059159
175	0xbe0fdc46	-0.14048871
176	0x3d85f56b	0.065409504
177	0x3d257dd5	0.040403206
178	0x3da798ee	0.08183466
179	0xbda659f5	-0.08122627
180	0x3cb8a8a5	0.022541353
181	0x3dbdf5f0	0.092754245
182	0xbc9884a3	-0.018617934
183	0xbd1ac020	-0.03778088
184	0xbd8680bf	-0.06567525
185	0xbdff4700	-0.12464714
186	0x3dbc8c6f	0.09206473
187	0xbe0a3c74	-0.13499624
188	0xbb82ef71	-0.003995829
189	0xbe16f1e2	-0.14740708
190	0x3dd4cf9d	0.103911616
191	0xbdcd61b7	-0.10028403
192	0x3d9710e4	0.073762685
193	0xbb14d91a	-0.002271241
194	0x3d6d5350	0.05794078
195	0xbb66226a	-0.0035115727
196	0xbd665a72	-0.0562386
197	0x3d8c0288	0.0683642
198	0xbe39fc44	-0.18162638
199	0xbde7d4b2	-0.11319865
200	0x3db60963	0.08888509
201	0x3eb4124c	0.3517021
202	0x3d2dd8ab	0.04244296
203	0x3db0066e	0.08594976
204	0x3e17e17e	0.14832112
205	0x3dbe8713	0.09303107
206	0x3ca1c168	0.019745544
207	0x3d88b1f1	0.06674565
208	0xbd87a68d	-0.06623564
209	0x3e34a8b9	0.17642488
210	0x3d90c9b9	0.070697255
211	0x3b128fa2	0.0022363444
212	0xbd66fd6d	-0.05639403
213	0xbcf8afd6	-0.030357283
214	0x3c9f9489	0.019480007
215	0x3d07dc20	0.033168912
216	0x3dac9e42	0.08428623
217	0xbc3a2121	-0.011360438
218	0x3d5436b5	0.051809985
219	0x3d2f3b11	0.04278094
220	0x3d2e3d38	0.04253885
221	0x3d5c912e	0.05384939
222	0x3dd9174d	0.106001474
223	0xbccc25da	-0.024920393
224	0xbdcdddcd	-0.10052071
225	0x3d4a5914	0.049401358
226	0xbc973388	-0.01845719
227	0xbddf1733	-0.10893097
228	0xbded146c	-0.11576161
229	0x3e0d1731	0.13778378
230	0xbd7f7fcf	-0.062377747
231	0xbdcf444c	-0.101204485
232	0x3d8f8edc	0.0700967
233	0x3d98919d	0.074496485
234	0x3deea908	0.11653334
235	0x3d2705f8	0.040777177
236	0xbd3cbe75	-0.04608007
237	0x3da37557	0.07981365
238	0xbd82063e	-0.06348847
239	0x3dc6cf47	0.09707504
240	0xb8f97bf5	-0.00011896334
241	0x3c978730	0.01849708
242	0xbb27c18d	-0.0025597543
243	0xbe0b62a9	-0.13611855
244	0xbd6e7ffe	-0.05822753
245	0xbdd04c26	-0.10170774
246	0xbd6b0495	-0.057377417
247	0xbdbdb1f2	-0.09262456
248	0xbd8bffcb	-0.06835898
249	0xbd663363	-0.05620135
250	0xbe017c28	-0.12645018
251	0xbe06ad4e	-0.13152048
252	0xbd6fac9c	-0.058514223
253	0xbdb55216	-0.08853547
254	0x3df73bc0	0.12071943
255	0x3dbb819f	0.09155583

fc2.bias f4 [32]
0	0xbee5153f	-0.44742772
1	0xbd16d0a0	-0.036820054
2	0xbe16e833	-0.14737014
3	0x3e88e848	0.26739717
4	0x3d5249ee	0.051340036
5	0xbd83d62b	-0.06437334
6	0xbea4d41a	-0.3219307
7	0x3f13cd61	0.5773526
8	0x3dd34f2b	0.103178345
9	0xbd2bf709	-0.041983638
10	0xbf1192e5	-0.5686477
11	0x3df42b71	0.11922348
12	0xbdfa7876	-0.12230007
13	0x3f0c38bc	0.5477407
14	0xbe2c4e53	-0.16826753
15	0xbd8f9f59	-0.07012815
16	0x3d6f7566	0.05846157
17	0xbdce5175	-0.100741304
18	0x3e92731c	0.28603446
19	0xbefa5c4a	-0.48898536
20	0xbdf6154c	-0.12015781
21	0xbd91551b	-0.07096311
22	0x3dc97ebc	0.09838626
23	0x3e1b6820	0.1517644
24	0xbd7edccb	-0.062222283
25	0x3e77e031	0.24206616
26	0x3d33133c	0.043719515
27	0xbd93efbc	-0.0722346
28	0xbeb8cd9b	-0.36094365
29	0xbf0fb2b7	-0.5613207
30	0xbd8a16d5	-0.06742636
31	0xbdcf1c76	-0.1011285

fc3.weight f4 [3, 32]
0	0x3dd8b26a	0.10580905
1	0x3c2a42e5	0.010391925
2	0x3d9617ec	0.073287815
3	0xbe09746d	-0.13423319
4	0xbbea8508	-0.007156972
5	0xbd506fe7	-0.05088797
6	0x3bb53a8f	0.0055306624
7	0xbda3881a	-0.07984944
8	0x3c52cc9b	0.012866165
9	0xbb9d20d6	-0.004795174
10	0x3dc6a231	0.09698904
11	0xbe5972e8	-0.2123524
12	0xbd40f605	-0.047109623
13	0xbdccc3fc	-0.099983186
14	0x3e0ff79c	0.14059299
15	0xbddf80bb	-0.10913225
16	0xbe573a38	-0.21018302
17	0x3de4359e	0.11143039
18	0xbe0c296f	-0.1368768
19	0x3cdb0d32	0.02673969
20	0xbdad5527	-0.08463507
21	0x3de54cf0	0.11196315
22	0x3dcb0a14	0.099140316
23	0x3ba1df0b	0.004939919
24	0x3d496b2f	0.049174484
25	0xbd91e481	-0.07123662
26	0xbd6a1f84	-0.057158962
27	0x3e20abde	0.15690562
28	0x3d5d724b	0.054064076
29	0x3dce4a18	0.10072726
30	0x3dea055d	0.11426804
31	0xbdc7968f	-0.09745514
32	0xbd9bbc20	-0.07604241
33	0xbde72297	-0.11285894
34	0xbd59a278	-0.053133458
35	0x3db35bcf	0.087577455
36	0xbc194e06	-0.009356981
37	0xbd993146	-0.07480101
38	0x3c399ff0	0.011329636
39	0xbdc381f9	-0.09546275
40	0x3dcf4f53	0.10122552
41	0xbc2f7dcc	-0.010711145
42	0x3ddcd697	0.10783117
43	0xbdb63590	-0.08896935
44	0x3d37cd20	0.044873357
45	0xbd8ee8a2	-0.06977965
46	0x3cd06a17	0.025441213
47	0xbbccc67c	-0.006249247
48	0x3da783f5	0.08179466
49	0xbdf0fa6a	-0.11766513
50	0xbd96c056	-0.07360904
51	0xbdb53464	-0.08847883
52	0x3dd8091c	0.105486125
53	0x3c988944	0.01862014
54	0xbe2b36aa	-0.16720071
55	0x3b8976ee	0.0041950857
56	0xbdeaf6f9	-0.114728875
57	0xbdc5c9f2	-0.09657659
58	0xbd9171e3	-0.071018
59	0x3dd938f4	0.10606566
60	0x3d9b2b62	0.07576634
61	0xbdb2629f	-0.08710217
62	0x3c150716	0.009095928
63	0xbc82324c	-0.015893124
64	0x3cd063b7	0.025438173
65	0xbdff3a1d	-0.12462256
66	0xbda2f931	-0.07957686
67	0xbe4d75ee	-0.20064518
68	0x3da2dc97	0.079522304
69	0xbe523a0b	-0.20529954
70	0xbc98fe7a	-0.018676031
71	0xbd87166a	-0.06596072
72	0xbe1f9236	-0.15583119
73	0x3df3f61a	0.119121745
74	0x3e1b19f4	0.15146619
75	0xbe9bd370	-0.30434752
76	0x3db34cc7	0.087548785
77	0xbdaecf90	-0.08535683
78	0x3e331f02	0.17492297
79	0x3e2870be	0.16449258
80	0xbe6ce0f1	-0.23132683
81	0xbe061c8c	-0.13096827
82	0xbcbb179d	-0.022838408
83	0x3d93a977	0.07210057
84	0xbdae963b	-0.08524748
85	0xbd34f567	-0.044179346
86	0xbe020529	-0.12697281
87	0x3d466ee9	0.048445616
88	0xbce0fb75	-0.027463654
89	0x3d384a4d	0.044992734
90	0x3da5a75c	0.08088562
91	0x3d6dd632	0.0580656
92	0x3d3de188	0.04635766
93	0x3d859d39	0.065241285
94	0xbdc0fed5	-0.09423605
95	0x3db233ac	0.08701262

fc3.bias f4 [3]
0	0xbeba4d4f	-0.36387107
1	0x3dd1d5ff	0.10245895
2	0xbf162699	-0.58652645
