route_TSC/model/0.5_hatt_router_joint_0315/ep40/q_netveh.pt (torch, 510246 bytes, 26 tensors)

attn f4 [1, 2, 37]
0	0x50880180	1.8254397e+10
1	0x000005f9	2.143e-42
2	0x00000000	0.0
3	0x00000000	0.0
4	0x00000000	0.0
5	0x00000000	0.0
6	0x00000000	0.0
7	0x00000000	0.0
8	0x00000000	0.0
9	0x00000000	0.0
10	0x00000000	0.0
11	0x00000000	0.0
12	0x00000000	0.0
13	0x00000000	0.0
14	0x00000000	0.0
15	0x00000000	0.0
16	0x00000000	0.0
17	0x00000000	0.0
18	0x00000000	0.0
19	0x00000000	0.0
20	0x00000000	0.0
21	0x00000000	0.0
22	0x00000000	0.0
23	0x00000000	0.0
24	0x00000000	0.0
25	0x00000000	0.0
26	0x00000000	0.0
27	0x00000000	0.0
28	0x00000000	0.0
29	0x00000000	0.0
30	0x00000000	0.0
31	0x00000000	0.0
32	0x00000000	0.0
33	0x00000000	0.0
34	0x00000000	0.0
35	0x00000000	0.0
36	0x00000000	0.0
37	0x00000000	0.0
38	0x00000000	0.0
39	0x00000000	0.0
40	0x00000000	0.0
41	0x00000000	0.0
42	0x00000000	0.0
43	0x00000000	0.0
44	0x00000000	0.0
45	0x00000000	0.0
46	0x00000000	0.0
47	0x00000000	0.0
48	0x00000000	0.0
49	0x00000000	0.0
50	0x00000000	0.0
51	0x00000000	0.0
52	0x00000000	0.0
53	0x00000000	0.0
54	0x00000000	0.0
55	0x00000000	0.0
56	0x00000000	0.0
57	0x00000000	0.0
58	0x00000000	0.0
59	0x00000000	0.0
60	0x00000000	0.0
61	0x00000000	0.0
62	0x00000000	0.0
63	0x00000000	0.0
64	0x00000000	0.0
65	0x00000000	0.0
66	0x00000000	0.0
67	0x00000000	0.0
68	0x00000000	0.0
69	0x00000000	0.0
70	0x00000000	0.0
71	0x00000000	0.0
72	0x00000000	0.0
73	0x00000000	0.0

fc0.weight f4 [32, 2315]
0	0xbb8ecb0c	-0.004357701
1	0x3c106c7e	0.008814929
2	0x3c9d7160	0.0192191
3	0x3bd85888	0.0066023506
4	0x3c97cfa0	0.01853162
5	0xbc0ac0f9	-0.00846886
6	0x3c9f84d4	0.019472517
7	0xbc30bcff	-0.010787248
8	0x3c8f32fc	0.017480366
9	0x3c2aeff6	0.010433188
10	0xbad4ecd0	-0.0016244892
11	0x3c8cdd20	0.017195284
12	0x3a627240	0.00086382404
13	0x3ca48c94	0.020086564
14	0x3ca85e78	0.020552859
15	0x3ca372f6	0.019952279
16	0xbca9bc9f	-0.020719824
17	0xbca2e4e2	-0.01988453
18	0x3c277b72	0.010222303
19	0x3bb4c1c4	0.0055162627
20	0xbca69353	-0.020333922
21	0x3c69efb4	0.014278341
22	0xba4b7b00	-0.0007762164
23	0x3c8e54a6	0.017374348
24	0xbc9a4b6d	-0.018834794
25	0x3c62750c	0.013821851
26	0xbb7ec910	-0.0038877167
27	0x3ad35260	0.0016122572
28	0x3c559a4c	0.0130372755
29	0xbc254e2a	-0.010089437
30	0xbbd19c84	-0.006396832
31	0xbc9e4fda	-0.019325186
32	0x3b6d8498	0.0036242362
33	0xbbdf5768	-0.0068158396
34	0xbc444efa	-0.01198172
35	0xbc431c30	-0.011908576
36	0x3ca376c6	0.019954097
37	0x3bb14b54	0.005410591
38	0x3c8c1d00	0.017103672
39	0xbc06ed62	-0.008235307
40	0xbc7d8290	-0.015473023
41	0x3bc12c10	0.0058951452
42	0x3c44b0d0	0.012005046
43	0xbbbe7892	-0.005812713
44	0xbaa20720	-0.0012361743
45	0xbc6c0540	-0.014405549
46	0xbca240ec	-0.019806348
47	0x3a496660	0.00076827966
48	0x3c04f068	0.008113958
49	0xbb800a94	-0.003907511
50	0xbbe21fa4	-0.0069007445
51	0x3bc9c790	0.006157823
52	0x3c0ce7f4	0.008600224
53	0x3ca2c688	0.019870058
54	0x3a925220	0.0011163391
55	0xbc63f8b4	-0.013914276
56	0xbbad4b3e	-0.0052885106
57	0xbb3732a0	-0.0027953759
58	0xbbb8b71c	-0.0056370627
59	0x3c37cd68	0.011218406
60	0x3be8c78c	0.007103866
61	0x3c5a52ac	0.013325375
62	0xbc75869d	-0.014985708
63	0x3c689bac	0.014197271
64	0xbbf20c28	-0.007386703
65	0xbc6d0b82	-0.014468076
66	0x3bd3d2a0	0.0064643174
67	0xbc64adfe	-0.013957499
68	0x3c6c09d4	0.01440664
69	0x3c3112c4	0.010807697
70	0xbc81e9a3	-0.015858477
71	0xbc4c6e1b	-0.012477423
72	0x3be63844	0.0070257504
73	0xbc142650	-0.009042338
74	0x3c34b50c	0.011029493
75	0x3b8c62bc	0.004284231
76	0xbc637dcc	-0.013884973
77	0x3c931c80	0.017957926
78	0x3bc94b7c	0.0061430316
79	0x3c96fda6	0.018431496
80	0xba018f60	-0.0004942324
81	0xbb669a20	-0.003518708
82	0x3bfa419c	0.007637216
83	0xbafdcb70	-0.0019362997
84	0xbca8b2c6	-0.020593058
85	0xbc9ff429	-0.019525604
86	0xbc410ce0	-0.011782855
87	0xbc9aafa2	-0.018882576
88	0xbba003f0	-0.004883282
89	0xbc8e58c6	-0.017376315
90	0x3bc5d900	0.0060378313
91	0xbc9f83da	-0.019472051
92	0xbb6f36a0	-0.0036501065
93	0xbc9454d1	-0.01810685
94	0xbc945eb3	-0.018111562
95	0x3c7e5250	0.0155225545
96	0x3c22edc0	0.009944379
97	0x3bddc278	0.0067675672
98	0x3c994700	0.018710613
99	0x3c861da6	0.01637156
100	0xbbed3416	-0.007238875
101	0x3c63c088	0.0139008835
102	0xbb7e1828	-0.0038771722
103	0x3c13c0d2	0.00901814
104	0xbbc2ac5c	-0.005940957
105	0x3b2a4068	0.002597833
106	0xba659080	-0.0008757189
107	0xbc8dacfa	-0.017294396
108	0xbc74e4be	-0.0149471145
109	0x3c178668	0.009248354
110	0xbbb22876	-0.005436952
111	0xbb0fbbd8	-0.0021932032
112	0x3c529910	0.012853876
113	0xbc01d6ad	-0.007924718
114	0xbc0937d1	-0.008375124
115	0xbc7e4b53	-0.015520888
116	0x3c49f51c	0.012326505
117	0x3c271f98	0.010200404
118	0xbb0b0d68	-0.0021217708
119	0x3c00dee4	0.007865641
120	0xbc4a7d5f	-0.012358992
121	0xbc51b960	-0.0128005445
122	0x3c8e701a	0.017387439
123	0xbaa13a70	-0.0012300741
124	0xbc3711e2	-0.011173697
125	0x3c35a28c	0.0110861175
126	0x3c32fd34	0.010924626
127	0xbb6d05b0	-0.003616672
128	0x3bfe475c	0.0077599715
129	0x3b87a1f8	0.004139181
130	0x3c4f7aa8	0.012663521
131	0xbaee1e90	-0.0018167067
132	0x3ad86850	0.001651058
133	0xbbcbf3d8	-0.006224137
134	0x3c1765a6	0.0092405435
135	0x3a69ae60	0.00089142285
136	0x3bd95ecc	0.006633615
137	0xbc87c60c	-0.016573928
138	0xbc88e4e4	-0.016710706
139	0xba810380	-0.0009842962
140	0xbc89b9aa	-0.016812164
141	0xbb9924a0	-0.0046735555
142	0xbc8961d1	-0.016770275
143	0x3c60c274	0.013718236
144	0x3b8b2cd8	0.004247289
145	0xbc565a34	-0.01308303
146	0x3c8980c4	0.016785033
147	0x3c991b1a	0.01868968
148	0x3be6dddc	0.0070454907
149	0x3b373b40	0.00279589
150	0xbbdbe8fa	-0.0067111226
151	0xbbcf0cd4	-0.006318668
152	0x3c8c810a	0.017151374
153	0x3c21d7bc	0.009878095
154	0xbc80a469	-0.015703397
155	0x3c415e60	0.011802286
156	0xbb5a3840	-0.0033297688
157	0x3c5d1c6c	0.013495546
158	0xbc23e2f7	-0.010002843
159	0x3b5e9718	0.003396457
160	0xbc277e39	-0.010222965
161	0x3ca3e2d0	0.020005614
162	0x3a5165a0	0.00079878606
163	0x3b5f2c10	0.0034053363
164	0xbbf324ec	-0.007420173
165	0xbb499b10	-0.003076259
166	0x3b41a858	0.0029549804
167	0x3bdff1e8	0.0068342574
168	0xbb95b160	-0.004568264
169	0x3b7f18a0	0.003892459
170	0x3c180d20	0.009280473
171	0xbc7bd3f4	-0.015370358
172	0x3b60fb70	0.0034329556
173	0x3b6775f0	0.00353181
174	0x3b8541b0	0.0040666685
175	0x3be98ae8	0.0071271546
176	0xbb7931e8	-0.0038024131
177	0xbaae0840	-0.0013277605
178	0xbca3a42a	-0.01997574
179	0x3c8c2454	0.017107166
180	0xbc8b94a0	-0.017038643
181	0xbc41aab5	-0.011820485
182	0xbc8e186e	-0.017345633
183	0xbbc5f10e	-0.006040699
184	0xbc81e922	-0.015858237
185	0xbc141b14	-0.009039659
186	0xbc9ecc2d	-0.019384468
187	0x3c28be14	0.010299224
188	0xbc8a4021	-0.016876282
189	0xba9bd730	-0.0011889692
190	0xbc28a5d2	-0.010293441
191	0x3c0f3e12	0.008742826
192	0x3c7cd690	0.015432015
193	0xbc69bf5b	-0.014266814
194	0xbb6cca78	-0.0036131423
195	0x3b3b4770	0.0028576516
196	0x3b04e848	0.0020280052
197	0x3c486194	0.012230296
198	0xbc1dc193	-0.009628671
199	0x3ad67d70	0.0016364288
200	0x3bcd3980	0.006262958
201	0x3a3cfaa0	0.0007208977
202	0x3c68ccd0	0.014208987
203	0x3c62587c	0.013815042
204	0xbc913fb8	-0.017730579
205	0x3bc9ee10	0.0061624125
206	0x3c102c30	0.008799598
207	0xbc87995c	-0.01655262
208	0x3b0570b8	0.0020361375
209	0x3c85ec5c	0.016348056
210	0x3c97d384	0.018533476
211	0x3c7e5014	0.015522022
212	0x3c8fbfc0	0.017547488
213	0xbc8f548e	-0.017496374
214	0xbc38928c	-0.011265408
215	0xbc9979b8	-0.018734798
216	0x3c9a84ce	0.018862154
217	0x3c664620	0.014054805
218	0xbc865a4d	-0.01640048
219	0x3c227c10	0.009917274
220	0xbc0601ec	-0.008179169
221	0xbab8ef30	-0.0014109369
222	0x387a2c00	5.9645623e-05
223	0x3c49e634	0.012322951
224	0x3c869b56	0.016431492
225	0x3bd913c4	0.0066246707
226	0xbc9a08af	-0.018802969
227	0xbbdc081c	-0.006714834
228	0xbc63f086	-0.013912326
229	0x3c8fbb1c	0.017545275
230	0x3b31c460	0.0027125105
231	0xb9b35cc0	-0.00034210645
232	0xbca3e781	-0.02000785
233	0x3c62760c	0.01382209
234	0xbc8507fc	-0.016239159
235	0xbbfc69d4	-0.0077030454
236	0xbc5cf5c6	-0.013486331
237	0x3c759be4	0.0149907805
238	0xba909d20	-0.0011033155
239	0xbbed19c8	-0.0072357394
240	0x3b720c38	0.0036933552
241	0x3b958020	0.004562393
242	0xbc9b1b27	-0.018933846
243	0x3c1fb9f6	0.009748926
244	0x39d2e680	0.00040226057
245	0xbc9c1e8c	-0.019057535
246	0xbbfccc52	-0.0077147866
247	0x3c5beae8	0.013422705
248	0x3c7b0140	0.015320122
249	0x3c420178	0.0118411705
250	0x3ca9c5f6	0.020724278
251	0x3bdf7948	0.006819878
252	0xba1f8220	-0.0006084759
253	0xbc854022	-0.016265932
254	0xbc78df4d	-0.015189958
255	0xbbad03a0	-0.005279973

fc0.bias f4 [32]
0	0xbc01ba8b	-0.0079180105
1	0x3c8f1c2c	0.017469488
2	0x3c7ff918	0.015623353
3	0xbc6a948c	-0.014317643
4	0xbca3f6ea	-0.020015199
5	0xbc6cb9a7	-0.01444856
6	0xbc04238e	-0.0080651175
7	0x3c358580	0.011079192
8	0xbbe617c4	-0.007021876
9	0x3b5cc680	0.003368765
10	0x38b6f700	8.7244436e-05
11	0xbbc6f764	-0.0060719717
12	0xbbb533f6	-0.005529876
13	0xbc854028	-0.016265944
14	0xbc68b90b	-0.014204274
15	0x3c669a28	0.01407484
16	0x3c99f18a	0.018791933
17	0x3b325ce0	0.0027216002
18	0x3c6ea810	0.014566436
19	0xbc2a3255	-0.010387977
20	0xbb864f80	-0.0040988326
21	0x3c9f0a8c	0.019414209
22	0xba8564c0	-0.001017712
23	0xbc906e6b	-0.017630776
24	0xbca9bee5	-0.020720908
25	0x3a2e97e0	0.00066602044
26	0xbc60ab10	-0.0137126595
27	0xbc44699d	-0.011988071
28	0xbc244ab0	-0.0100275725
29	0xbc1d14bc	-0.009587463
30	0xba746180	-0.000932239
31	0xbc90d807	-0.017681135

fc1.weight f4 [32, 32]
0	0xbc978170	-0.018494338
1	0xbe4e34a9	-0.20137276
2	0x3e0565ae	0.13027069
3	0x3dff9599	0.12479705
4	0xbcd410cf	-0.025886921
5	0x3de21ede	0.11041044
6	0xbdf45538	-0.11930317
7	0xbdeb9a00	-0.115039825
8	0xbe9f2512	-0.3108297
9	0x3e3ee18c	0.18640727
10	0x3e5618ea	0.20907941
11	0xbcf04079	-0.029327618
12	0xbe5068ec	-0.20352525
13	0xbf0462ac	-0.5171306
14	0x3dfdfceb	0.12401756
15	0xbdbeecdd	-0.09322522
16	0x3e3318e2	0.17489961
17	0xbef90c85	-0.48642364
18	0xbcffe8ca	-0.031238932
19	0x3c20c60a	0.009812841
20	0x3defc207	0.1170693
21	0x3e30ce22	0.17266133
22	0xbe58214e	-0.21106455
23	0xbcd6538c	-0.026162885
24	0x3c28064f	0.01025541
25	0x3d55bd9b	0.052182775
26	0x3e1bce4b	0.15215413
27	0xbdafd92c	-0.08586344
28	0xbf24ca07	-0.6437077
29	0x3e75fc7b	0.24022095
30	0xbd293f10	-0.041319907
31	0x3e0583fb	0.13038628
32	0xbe3a2ce6	-0.1818119
33	0xbe3ea1ce	-0.18616411
34	0xbf501735	-0.8128541
35	0xbcf1f2ef	-0.029534785
36	0x3d72812c	0.05920522
37	0xbe0bd0cf	-0.13653873
38	0x3e65912c	0.2241866
39	0xbe24b189	-0.1608335
40	0x3de4cf84	0.11172393
41	0xbf7b05f7	-0.98055977
42	0xbe0c80a9	-0.13720955
43	0xbdbcadd9	-0.09212846
44	0x3d8d6613	0.06904235
45	0xbc853c7b	-0.01626419
46	0x3e00da40	0.12583256
47	0x3e1fc5c7	0.1560279
48	0x3db2795f	0.08714556
49	0x3dcb2fff	0.09921264
50	0x3e13480e	0.14382955
51	0x3e753fc1	0.23950101
52	0xbda32126	-0.07965307
53	0xbe5be0fb	-0.21472542
54	0x3d8c2eea	0.06844886
55	0xbcb6c9c7	-0.022313012
56	0x3dd70cd3	0.10500493
57	0x3e9e2575	0.30887952
58	0x3daeb473	0.08530512
59	0x3e0e9f01	0.13927843
60	0x3d6a4046	0.057190202
61	0xbf5b360b	-0.8562934
62	0x3d74abe9	0.05973426
63	0x3ce372fb	0.027764788
64	0x3e14ab55	0.14518483
65	0x3e00d8a5	0.12582643
66	0x3d5a9757	0.053366985
67	0x3dd0991b	0.101854526
68	0xbcb4fcca	-0.022093195
69	0xbdd4dcc7	-0.103936724
70	0xbe1ef28f	-0.15522216
71	0xbe0562e8	-0.13026011
72	0xbecb461e	-0.39701933
73	0xbe04b385	-0.12959106
74	0x3dafc079	0.08581633
75	0x3e100e84	0.14068037
76	0x3e7246c1	0.23659803
77	0x3da2458a	0.0792342
78	0xbd90202d	-0.07037387
79	0x3d0ffe64	0.035154715
80	0x3e85a0b1	0.2609916
81	0x3e61bde5	0.22045095
82	0x3d365cf5	0.044522244
83	0x3e04b0aa	0.12958017
84	0xbd86abe8	-0.06575757
85	0x3e466472	0.19374254
86	0x3db8e05a	0.09027167
87	0x3d89641c	0.067085475
88	0x3e32d67f	0.17464636
89	0xbd849810	-0.06474316
90	0x3e5fe3fa	0.2186431
91	0x3dc350c7	0.095368914
92	0x3e956508	0.29178643
93	0xbda5cf2d	-0.08096156
94	0x3d750d5c	0.059827194
95	0x3aa89ccf	0.0012864115
96	0x3ca9b0ea	0.020714242
97	0x3cf7b9a7	0.030239893
98	0x3dde5c7d	0.108574845
99	0xbdb2ff73	-0.08740129
100	0x3e3aa4ca	0.18226925
101	0xbdc7c03d	-0.097534634
102	0x3e4a0f63	0.19732432
103	0xbe16079e	-0.14651343
104	0xbcf246dd	-0.029574806
105	0x3e234a14	0.15946227
106	0x3e5b0344	0.21387964
107	0x3dc50b74	0.09621325
108	0xbd13e034	-0.03610249
109	0xbf330235	-0.6992524
110	0x3e43354c	0.190633
111	0xbd26869c	-0.040655717
112	0x3d97cae3	0.074117444
113	0xbf5e15ba	-0.867519
114	0xbe30461f	-0.17214249
115	0x3e8b43d5	0.2720019
116	0xbe66d619	-0.2254261
117	0xbcb9c2a1	-0.022675814
118	0x3cddc757	0.027072592
119	0x3dcef163	0.101046346
120	0x3d94534a	0.07242449
121	0xbd9ec471	-0.07752312
122	0xbd25e86e	-0.040504865
123	0xbe14d2c4	-0.14533526
124	0xbf7b79d1	-0.9823275
125	0x3e8b530b	0.27211794
126	0xbd8ac2b7	-0.0677542
127	0xbdcd6de8	-0.100307286
128	0x3d338810	0.04383093
129	0xbe83fc1c	-0.25778282
130	0xbf101523	-0.5628225
131	0x3d9d4f19	0.07681102
132	0x3d5da2f3	0.05411048
133	0xbe32355c	-0.17403167
134	0x3deb850c	0.11499986
135	0x3ddf0cb5	0.108910955
136	0x3dc41c02	0.095756546
137	0xbeff9d6d	-0.49924794
138	0xbe3d79b5	-0.18503459
139	0xbc17b682	-0.009259822
140	0xbe4d6527	-0.20058118
141	0x3d542cd2	0.051800556
142	0xbd1cdec1	-0.038298372
143	0x3c96429f	0.018342314
144	0x3e825ec4	0.25462925
145	0xbdabd3ea	-0.08390029
146	0x3e733199	0.23749389
147	0xb9dcf345	-0.0004214292
148	0xbd24b067	-0.040207293
149	0x3d01742b	0.031604927
150	0xbdc69cbb	-0.09697863
151	0xbd50c571	-0.050969545
152	0xbd40c812	-0.047065802
153	0x3e267396	0.1625503
154	0x3e8f21ef	0.27955577
155	0xbbe05d5a	-0.006847066
156	0x3de8d0c8	0.11367947
157	0xbef9683d	-0.4871234
158	0xbde56ac1	-0.11202002
159	0x3de3d533	0.11124649
160	0x3d509845	0.050926466
161	0xbd1a8cc3	-0.037731897
162	0xbeec415f	-0.46143624
163	0xbe2c9600	-0.16854095
164	0x3e8e1757	0.27752182
165	0x3d84940a	0.06473549
166	0x3dace050	0.08441222
167	0x3dc75cdf	0.09734511
168	0x3e878791	0.26470616
169	0xbf45b372	-0.77226937
170	0xbe069550	-0.13142896
171	0xbd400c8b	-0.046886962
172	0xbdbc53ce	-0.09195672
173	0xbda11959	-0.07866163
174	0xbd33aca0	-0.0438658
175	0x3d203db3	0.03912134
176	0x3d2585ae	0.04041069
177	0x3d88bc89	0.06676585
178	0x3e139138	0.14410865
179	0x3d36b5e5	0.044607062
180	0x3ccb9f99	0.024856376
181	0x3d68e61b	0.05686007
182	0x3e127582	0.14302638
183	0x3e2c8b32	0.16849974
184	0x3e1de379	0.15418805
185	0xbddaa0b4	-0.10675183
186	0x3e944527	0.2895901
187	0x3e8905ef	0.2676234
188	0x3da31e29	0.07964737
189	0xbeff8bda	-0.49911386
190	0xbd3c840f	-0.04602438
191	0xbeab66cc	-0.33476865
192	0xbeea6ad0	-0.45784616
193	0xbf3649a8	-0.7120614
194	0xbdd9bfd9	-0.10632295
195	0xbdf5e155	-0.12005869
196	0xbd8093da	-0.062782004
197	0xbec41322	-0.38295847
198	0x3df62420	0.12018609
199	0xbe8307e2	-0.25591952
200	0xbdb85632	-0.090008155
201	0xbc57630b	-0.013146172
202	0xbe2cbf7d	-0.16869922
203	0xbe0de5f4	-0.13857251
204	0xbe64e4d9	-0.22352923
205	0x3d11024b	0.035402577
206	0xbda457fb	-0.080245934
207	0xbeca096d	-0.39460316
208	0xbec2430b	-0.37941775
209	0x3d87cf5e	0.06631349
210	0x3e76143d	0.24031158
211	0x3ed1607e	0.4089393
212	0xbe8a380b	-0.26995882
213	0xbf2b67d0	-0.6695528
214	0xbf319058	-0.69360876
215	0x3e50a19f	0.20374154
216	0x3e0dd58d	0.13850994
217	0xbdac1a31	-0.08403433
218	0xbe381f47	-0.17980681
219	0xbe08375e	-0.13302371
220	0xbdc53f49	-0.09631211
221	0x3f24622d	0.64212304
222	0xbc6df3f3	-0.014523494
223	0x3d2a3488	0.041554004
224	0xbdb96d6f	-0.09054076
225	0xbe1c9566	-0.15291366
226	0x3e345f8d	0.17614575
227	0xbdd690e8	-0.104768574
228	0x3e22e22a	0.15906587
229	0x3e73ed23	0.23820929
230	0xbe59e4b5	-0.21278651
231	0xbe90484f	-0.28180167
232	0xbf1745c0	-0.59090805
233	0xbdbb448f	-0.09143936
234	0x3e7f99d7	0.24961029
235	0x3b2ebae9	0.00266617
236	0x3ccf3e35	0.025298217
237	0x3d27a1db	0.04092584
238	0x3d8db365	0.069189824
239	0xbee8f407	-0.45498678
240	0x3e91c958	0.28473926
241	0x3c91818d	0.01776197
242	0xbe363ec0	-0.17797375
243	0xbe15c19c	-0.14624637
244	0xbeab63c2	-0.33474547
245	0x3b12e7b7	0.0022415945
246	0xbe2f2f2c	-0.17107838
247	0xbe56c13f	-0.20972155
248	0x3d4322cb	0.047640603
249	0xbdec499e	-0.11537479
250	0x3d9fe3f3	0.0780715
251	0x3ea0e607	0.31425497
252	0xbddba8e6	-0.10725574
253	0xbe42b03c	-0.1901254
254	0xbe9b9768	-0.3038895
255	0x3dfb5c76	0.12273495

fc1.bias f4 [32]
0	0x3e511cc4	0.2042113
1	0x3edd0099	0.43164518
2	0x3f218a40	0.6310158
3	0x3f09eada	0.5387398
4	0x3e8ee6e7	0.2791054
5	0x3f2a2277	0.6645884
6	0x3f497542	0.78694546
7	0x3e832774	0.25616038
8	0x3ed0aa56	0.40754956
9	0x3e8d3cac	0.2758535
10	0x3f12afe4	0.5729964
11	0x3e0811dc	0.13288063
12	0x3f2c7b1b	0.67375344
13	0xbeb20e13	-0.34776363
14	0x3e15cf21	0.14629795
15	0x3f2e9315	0.6819318
16	0x3e86ec47	0.2635214
17	0x3ea5ae91	0.32359746
18	0x3d60f213	0.05491836
19	0xbe0e7dc7	-0.13915168
20	0x3f3340b2	0.7002059
21	0x3f1a1583	0.60189074
22	0x3eec055e	0.46097845
23	0xbe66b624	-0.22530419
24	0x3dcc3170	0.09970367
25	0x3ef11f8c	0.4709438
26	0x3ef07015	0.46960512
27	0x3f1adc55	0.6049245
28	0x3f328f52	0.6974994
29	0x3f1ef90b	0.6209876
30	0x3ef56727	0.47930261
31	0x3ed6f5dd	0.41984454

fc2.weight f4 [3, 32]
0	0x3de34846	0.110977694
1	0x3c969f98	0.018386647
2	0xbd84ce79	-0.06484694
3	0x3dbbf542	0.091776386
4	0x3e2b0a0c	0.16703051
5	0xbdbff066	-0.09372024
6	0xbe40ee61	-0.18840934
7	0x3d00bc3a	0.031429507
8	0xbd59ea5e	-0.053202026
9	0xbce151b1	-0.027504774
10	0xbdea71d5	-0.11447493
11	0x3dd7b96b	0.105334125
12	0xbda64ee2	-0.081205145
13	0x3cd405be	0.025881644
14	0x3ea78a36	0.32722634
15	0x3a8d5bfe	0.0010784862
16	0x3cd773f9	0.026300417
17	0x3d35b1ba	0.044358946
18	0xbdd7e444	-0.10541585
19	0x3c4841c4	0.012222711
20	0xbdb75429	-0.08951599
21	0x3d3f21aa	0.046662964
22	0xbaf3e292	-0.0018606952
23	0x3c0fe29b	0.008782054
24	0x3e7c38fa	0.2463111
25	0xbd06cb37	-0.032908645
26	0xbe9d540b	-0.30728182
27	0xbdbbc901	-0.09169198
28	0xbe0e5a99	-0.13901748
29	0xbde9206c	-0.11383137
30	0xbdc4a60b	-0.09601983
31	0x3d29ea8b	0.041483443
32	0x3e1cea18	0.15323675
33	0x3de3f989	0.111315794
34	0xbe0d0724	-0.13772255
35	0x3e6efff8	0.23339832
36	0x3dc37c26	0.09545164
37	0xbd96d4ed	-0.07364831
38	0xbcce43cf	-0.025178818
39	0xbd808ef0	-0.06277263
40	0xbc9e746b	-0.019342622
41	0xba35ee71	-0.00069401326
42	0xbdda3185	-0.10653976
43	0xbd5256c9	-0.051352296
44	0xbe2638ee	-0.16232654
45	0x3ca58925	0.020206997
46	0x3ea6155a	0.32438165
47	0xbcee25f3	-0.02907083
48	0x3c8f5341	0.017495753
49	0xbdee07d6	-0.11622588
50	0x3e54d802	0.20785525
51	0x3b7b8105	0.0038376462
52	0xbd5c9e28	-0.053861767
53	0xbd359743	-0.044333708
54	0x3a8b5888	0.0010631243
55	0xb9460ec4	-0.00018888252
56	0xbf2d47dc	-0.67687774
57	0x3dad76b6	0.08469908
58	0x3c8b40ec	0.01699873
59	0xbe2a1941	-0.16611196
60	0xbdd9bd6c	-0.106318325
61	0xbe362d76	-0.1779078
62	0xbda2da43	-0.07951786
63	0x3e65b304	0.2243157
64	0xbdb02b72	-0.086020365
65	0xbe1a40fd	-0.15063854
66	0xbd9aeca1	-0.07564665
67	0xbd89fdd5	-0.06737868
68	0x3d3cd042	0.046097048
69	0xbe116a8f	-0.14200805
70	0x3f1559b8	0.58340025
71	0xbe01fe71	-0.12694718
72	0xbe268076	-0.16259941
73	0xbe0cd861	-0.13754417
74	0xbe154d14	-0.14580184
75	0xbd45a518	-0.04825315
76	0xbdfaaa56	-0.1223952
77	0x3da2975a	0.07939024
78	0x3d148a70	0.036264837
79	0xbdee609b	-0.1163952
80	0xbd5cc26a	-0.053896345
81	0x3d895745	0.067060985
82	0x3ceb2e22	0.028708521
83	0xba9f823a	-0.0012169548
84	0xbe3939e7	-0.18088494
85	0xbe19ecfb	-0.15031807
86	0xba00a7ae	-0.0004907799
87	0xbb01bf93	-0.0019798025
88	0x3e6f5ddb	0.23375647
89	0xbcc0c63f	-0.023532031
90	0x3e2c50ac	0.16827649
91	0xbe01196e	-0.12607357
92	0xbe3284c4	-0.17433459
93	0xbde5a1e7	-0.11212521
94	0xbe12438e	-0.14283583
95	0xbd90d07e	-0.07071017

fc2.bias f4 [3]
0	0xbf4a3d82	-0.79000103
1	0xbf0d86d9	-0.55283886
2	0x3f3e9b63	0.7445585

road_emb.0.weight f4 [144]
0	0x3fb7fe32	1.4374449
1	0x3f8777ad	1.0583397
2	0x3fa472a1	1.2847482
3	0x3f7a70b5	0.9782823
4	0x3f698226	0.91214216
5	0x3f86955e	1.0514333
6	0x3fa32682	1.2746127
7	0x3f9cb0f3	1.2241501
8	0x3f9d0350	1.2266636
9	0x3ec781c2	0.38966185
10	0x3f7a6564	0.9781096
11	0x3f7efe0f	0.9960641
12	0x3f918516	1.136874
13	0x3f6d58cd	0.92713624
14	0x3fa17fa6	1.261708
15	0x3f7283ac	0.94732165
16	0x3f880f19	1.0629607
17	0x3f81462d	1.0099541
18	0x3f9a7e6b	1.206983
19	0x3f85f663	1.0465816
20	0x3fa44df2	1.2836287
21	0x3eb14e76	0.34630173
22	0x3f5e3cfd	0.8681181
23	0x3f654dd5	0.8957189
24	0x3fb6990f	1.426546
25	0x3f84b32b	1.0367178
26	0x3f9a982e	1.2077692
27	0x3f840fe5	1.0317351
28	0x3f67ce21	0.905489
29	0x3f917b7a	1.1365807
30	0x3f9afad6	1.2107799
31	0x3f99a7b7	1.2004308
32	0x3fa3cf69	1.2797672
33	0x3f1d8b59	0.6154075
34	0x3f806e26	1.0033615
35	0x3f7c39c5	0.9852565
36	0x3fb6b2bd	1.4273297
37	0x3f8d4a10	1.1038227
38	0x3fa3ade6	1.2787445
39	0x3f5cac24	0.86200166
40	0x3f802baa	1.0013325
41	0x3f8b2cbc	1.0873027
42	0x3fd8eefe	1.6947935
43	0x3f918a09	1.137025
44	0x3faba616	1.341006
45	0x3eff7337	0.4989259
46	0x3f815eaf	1.010702
47	0x3f56dfb1	0.83935076
48	0x3fa82783	1.3137058
49	0x3f8a2578	1.0792685
50	0x3f9c1a1f	1.2195472
51	0x3f7bcea4	0.98362184
52	0x3f7ce37f	0.9878463
53	0x3f75906f	0.95923513
54	0x3fad1f94	1.3525262
55	0x3f89e7d1	1.077387
56	0x3fb2f3a1	1.39806
57	0x3ee5d622	0.44889933
58	0x3f833f5b	1.025371
59	0x3f5c30f6	0.8601221
60	0x3f98e178	1.1943808
61	0x3f89fef5	1.0780932
62	0x3fa3177c	1.2741542
63	0x3f54325e	0.82889354
64	0x3f60a900	0.87757874
65	0x3f52c72f	0.8233518
66	0x3fb51a43	1.414864
67	0x3f94a568	1.1612978
68	0x3fa324e0	1.2745628
69	0x3f23549b	0.6380097
70	0x3f8c0cf0	1.0941448
71	0x3f48f6d1	0.7850161
72	0x3fc491f9	1.5357047
73	0x3f86640a	1.049928
74	0x3fac24cc	1.344873
75	0x3f7bc989	0.98354393
76	0x3f85c13a	1.0449593
77	0x3f895961	1.0730401
78	0x3f8b1403	1.0865482
79	0x3f8e242b	1.1104788
80	0x3fb2253a	1.3917611
81	0x3f38dca7	0.7221169
82	0x3f8645f5	1.0490099
83	0x3fa63f14	1.2988
84	0x3fac1e30	1.3446712
85	0x3fa3cf20	1.2797585
86	0x3fa87c11	1.3162862
87	0x3f5d84e6	0.8653091
88	0x3f581631	0.8440886
89	0x3f7cc9d1	0.9874545
90	0x3fa9db14	1.3269982
91	0x3f8d5d7c	1.1044154
92	0x3fa27930	1.2693233
93	0x3ee45a12	0.44599968
94	0x3f806672	1.0031264
95	0x3fad5b1b	1.3543428
96	0x3f98a56a	1.192548
97	0x3f828158	1.0195723
98	0x3facd1ca	1.3501523
99	0x3f6df386	0.9294971
100	0x3f696122	0.9116384
101	0x3f63622a	0.8882166
102	0x3fb68c0e	1.4261491
103	0x3f930c80	1.148819
104	0x3fab4244	1.3379598
105	0x3f168b95	0.58806735
106	0x3f8c1de7	1.0946625
107	0x3fac42f5	1.3457934
108	0x3fb47911	1.4099447
109	0x3f6c1686	0.9222187
110	0x3fa51647	1.2897424
111	0x3f6f51c2	0.9348413
112	0x3f7b416a	0.9814669
113	0x3f99a18b	1.2002424
114	0x3fa894a2	1.3170359
115	0x3f9501ab	1.1641134
116	0x3fb0c92d	1.3811394
117	0x3f37bb92	0.71770585
118	0x3fac9971	1.3484327
119	0x3f796db1	0.97433
120	0x3f89b8e8	1.0759554
121	0x3f92a7f4	1.1457505
122	0x3fa5da08	1.2957163
123	0x3f8888c8	1.0666742
124	0x3f93664d	1.1515595
125	0x3f86222d	1.047918
126	0x3fa760b2	1.3076384
127	0x3f990310	1.195406
128	0x3fad78b6	1.3552463
129	0x3f32a215	0.6977857
130	0x3fb04b3b	1.3772959
131	0x3f7ef895	0.99598056
132	0x3faf8cef	1.3714885
133	0x3f8698d9	1.0515395
134	0x3fa4db16	1.287936
135	0x3f592e90	0.84836674
136	0x3f8183de	1.0118368
137	0x3f834629	1.0255786
138	0x3f9976a7	1.1989335
139	0x3f9aafa3	1.208485
140	0x3fb10495	1.3829523
141	0x3f380dcc	0.7189605
142	0x3fa3f543	1.2809223
143	0x3f7cb974	0.9872048

road_emb.0.bias f4 [144]
0	0x3e3e9742	0.18612388
1	0x3e32c428	0.1745764
2	0x3db6fe75	0.089352526
3	0x3e1536bf	0.14571665
4	0x3e84cd6f	0.25937983
5	0x3e132e3e	0.14373109
6	0x3dc3f829	0.09568817
7	0x3eae3441	0.34024242
8	0x3ce470fc	0.027885906
9	0xbf24ff4c	-0.6445205
10	0x3e90024b	0.2812675
11	0x3e940f34	0.2891785
12	0x3e76b806	0.24093637
13	0x3e5c02b1	0.21485402
14	0x3e02c635	0.12770922
15	0x3e779056	0.24176154
16	0x3e323447	0.17402755
17	0x3e36c6ab	0.17849223
18	0x3dfe0a9c	0.12404367
19	0x3e8762b0	0.2644248
20	0x3cb05528	0.02152498
21	0xbf334525	-0.7002738
22	0x3e621d3e	0.22081468
23	0x3e7ba76b	0.24575584
24	0x3e2dbda6	0.16966876
25	0x3e34a8c7	0.17642508
26	0x3e820420	0.25393772
27	0x3e00d735	0.12582095
28	0x3e98d724	0.2985164
29	0x3e61b013	0.22039823
30	0x3dcebdc3	0.10094788
31	0x3e93cafc	0.28865802
32	0x3c8a458d	0.016878868
33	0xbed565a1	-0.416791
34	0x3e9bebfd	0.30453482
35	0x3e84de01	0.25950626
36	0x3df13775	0.11778156
37	0x3e194605	0.14968117
38	0x3e7a4d83	0.24443631
39	0x3e803d73	0.25046882
40	0x3e465673	0.19368915
41	0x3df46bca	0.11934622
42	0x3dc1136a	0.09427531
43	0x3eb30ac8	0.34969163
44	0x3c82593c	0.01591169
45	0xbecf86eb	-0.40532622
46	0x3e86e6a2	0.26347834
47	0x3e8c39f4	0.27387965
48	0x3e819b8f	0.25313994
49	0x3e395373	0.1809824
50	0x3e767dbe	0.24071404
51	0x3e1827e9	0.14858975
52	0x3e89b553	0.26896152
53	0x3e4f458a	0.20241371
54	0x3e0550cd	0.13019104
55	0x3ea35bed	0.3190607
56	0x3d04eb1a	0.032450773
57	0xbf09650f	-0.5366983
58	0x3e88517c	0.26624668
59	0x3e836cd6	0.25668973
60	0x3e271187	0.1631528
61	0x3e42f6a6	0.19039401
62	0x3e908d15	0.28232637
63	0x3e7b2639	0.245263
64	0x3e8e1f60	0.27758312
65	0x3e6e17a7	0.2325121
66	0x3d7d1efa	0.06179712
67	0x3e9fee5f	0.3123655
68	0xbc6b1fb3	-0.014350819
69	0xbe9b2cd6	-0.30307645
70	0x3ea790e7	0.3272774
71	0x3e777738	0.24166572
72	0x3e85e6f1	0.26152757
73	0x3e4a29ca	0.19742504
74	0x3df8a696	0.12141149
75	0x3e2a2713	0.16616468
76	0x3e6f50f0	0.23370719
77	0x3e23296a	0.15933767
78	0x3e59fe76	0.21288475
79	0x3e84a6ef	0.2590861
80	0x3d0aaed8	0.03385815
81	0xbe88cffc	-0.2672118
82	0x3e83bbce	0.2572922
83	0x3e44e7de	0.19229075
84	0x3e4cf907	0.20016871
85	0x3dbde63e	0.09272431
86	0x3ddfe1ee	0.109317645
87	0x3e5f3eaf	0.21801256
88	0x3e809931	0.25116876
89	0x3e51da1b	0.20493357
90	0x3dc1b85e	0.094589934
91	0x3e978d04	0.29599774
92	0x3d10fced	0.03539746
93	0xbf1c3a15	-0.61026126
94	0x3e876c22	0.26449686
95	0x3e17f27c	0.14838594
96	0x3e95bd87	0.2924616
97	0x3e45b02b	0.19305484
98	0x3e16336a	0.1466805
99	0x3e4aec75	0.19816764
100	0x3e8d0143	0.27540025
101	0x3e8de06a	0.27710277
102	0x3e06cd30	0.1316421
103	0x3ea46e78	0.3211553
104	0x3d080577	0.033208337
105	0xbebc2cc0	-0.36752892
106	0x3eae41e8	0.34034657
107	0x3e1f0874	0.15530568
108	0x3e546121	0.20740177
109	0x3e7c2d1b	0.24626581
110	0x3e85c453	0.26126346
111	0x3e48bbad	0.19602843
112	0x3e6525f6	0.22377762
113	0x3d717d30	0.05895728
114	0x3e6a1ce4	0.22862583
115	0x3e51ea51	0.20499541
116	0x3cdc4319	0.026887463
117	0xbe73e821	-0.23819019
118	0x3df20f41	0.11819316
119	0x3e5cd289	0.21564688
120	0x3e984e1b	0.2974709
121	0x3e339a0b	0.17539231
122	0x3e715b49	0.23569979
123	0x3e2cce3b	0.16875546
124	0x3df457c6	0.11930804
125	0x3e081bc8	0.13291848
126	0x3e397873	0.18112354
127	0x3e9ab846	0.30218714
128	0xbb26955f	-0.0025418622
129	0xbe8581d6	-0.2607562
130	0x3e519419	0.20466651
131	0x3e89844c	0.26858747
132	0x3e808c98	0.25107265
133	0x3e21aa69	0.15787663
134	0x3e94d32f	0.2906737
135	0x3e6bf91b	0.23044245
136	0x3e03e1ca	0.128791
137	0x3e48f76d	0.19625635
138	0x3e7a1302	0.24421313
139	0x3e5ee552	0.21767166
140	0x3d4dedfa	0.05027578
141	0xbe8dc7e8	-0.2769158
142	0x3e3a0bb7	0.18168531
143	0x3e5a5968	0.21323168

road_emb.1.weight f4 [64, 144]
0	0xbe73c79a	-0.2380661
1	0xbe05bebc	-0.1306104
2	0xbf298583	-0.6621935
3	0xbd23bf2e	-0.039977245
4	0xbd9d684d	-0.076859094
5	0x3da82f57	0.08212154
6	0x3d8d5cbf	0.069024555
7	0x3e17a8c3	0.14810471
8	0x3dd9de6b	0.10638126
9	0xbd96de1f	-0.07366585
10	0x3e13dd4d	0.14439888
11	0xbdc868ab	-0.09785589
12	0x3e3807fe	0.17971799
13	0xbe1f7cda	-0.15574971
14	0xbeef2f4d	-0.46715775
15	0xbe4ab154	-0.19794208
16	0x3d593729	0.05303112
17	0xbe21a629	-0.15786041
18	0x3e4f86cf	0.20266269
19	0x3d98e2c4	0.07465127
20	0xbcf2090f	-0.029545335
21	0x3de02218	0.10944003
22	0x3e07782d	0.13229437
23	0xbd22ff3d	-0.039794195
24	0xbe074d68	-0.13213122
25	0x3cb48eeb	0.022040805
26	0xbf3a4967	-0.72768253
27	0x3e5076f9	0.20357884
28	0xbe190b22	-0.14945653
29	0x3da0186f	0.0781716
30	0x3d80fd2e	0.0629829
31	0x3e2afb9e	0.16697547
32	0x3cc0ff06	0.023559105
33	0xbd5a1d55	-0.05325063
34	0x3e3d68a7	0.18496953
35	0x3cc79e2e	0.024367418
36	0xbee65b37	-0.44991466
37	0xbcb501a6	-0.022095513
38	0xbef0758b	-0.46964678
39	0xbe9d3b64	-0.30709374
40	0xbe4a910b	-0.19781892
41	0x3d8d7baf	0.069083564
42	0x3f0dc436	0.5537752
43	0xbdae700f	-0.08517467
44	0xbe14a8fd	-0.14517589
45	0x3e64ee48	0.22356522
46	0xbe0ba9f3	-0.13639049
47	0xbc8eaa21	-0.017415108
48	0xbd00a97b	-0.03141163
49	0xbd71e452	-0.059055634
50	0xbeb3ae1b	-0.3509377
51	0x3bf75349	0.00754777
52	0xbe207896	-0.15671
53	0xbe1b7a96	-0.15183482
54	0x3e9db59f	0.30802628
55	0xbe48750f	-0.19575904
56	0xbe8adf93	-0.271237
57	0x3ce60738	0.028079614
58	0x3d23b63a	0.039968707
59	0xbdd7f771	-0.105452426
60	0x3c398374	0.011322845
61	0x3c597059	0.013271415
62	0xbef74355	-0.48293558
63	0xbde82c62	-0.1133659
64	0x3d409e65	0.047026057
65	0x3e02be97	0.12768017
66	0xbda24de9	-0.079250164
67	0xbe5e646f	-0.21718
68	0xbe0f10e0	-0.13971281
69	0xbe03a377	-0.12855326
70	0x3df44602	0.119274154
71	0xbe66f358	-0.22553766
72	0xbe8dbdec	-0.2768396
73	0x3e147ba2	0.14500287
74	0xbe6025db	-0.2188944
75	0xbcc7e79b	-0.02440243
76	0xbd422137	-0.047394957
77	0x3dc6b103	0.09701731
78	0x3ebb4d9e	0.36582655
79	0xbd01f25c	-0.031725273
80	0xbd695242	-0.056963213
81	0x3e30bf1e	0.17260405
82	0x3cb744e0	0.02237171
83	0xbf04cd6c	-0.5187595
84	0x3dcd5825	0.10026578
85	0xbdbfa8ab	-0.09358343
86	0xbe8b8e6a	-0.2725709
87	0xbe27970f	-0.16366218
88	0xbc284fe1	-0.010272951
89	0x3e33ff7e	0.17577931
90	0x3d1721c0	0.03689742
91	0x3db27a94	0.08714786
92	0xbe99ebe2	-0.30062777
93	0x3c93a97d	0.018025154
94	0x3e1a3203	0.1505814
95	0xbdea781c	-0.1144869
96	0xbccaa9d3	-0.024739182
97	0x3d28f051	0.04124481
98	0xbeb213ba	-0.34780675
99	0xbe37ddbd	-0.1795568
100	0xbe893ee6	-0.268058
101	0xbd9ec297	-0.07751959
102	0x3e9261a2	0.28590113
103	0x3d48703a	0.048935153
104	0x3d5ab630	0.053396404
105	0x3e8f1aed	0.2795023
106	0x3e2abd52	0.16673782
107	0xbe2ccdbb	-0.16875355
108	0xbe53dde0	-0.20690107
109	0x3d497323	0.04918207
110	0xbe67f8e5	-0.2265354
111	0xbe221580	-0.15828514
112	0xbe5fe5f9	-0.21865071
113	0x3cc309a5	0.02380831
114	0x3e847450	0.2586999
115	0xbd7a43d0	-0.061099827
116	0xbdbf06e6	-0.09327488
117	0x3dfc7063	0.123261236
118	0xbd9aee9c	-0.075650424
119	0x3cf83f25	0.030303547
120	0x3de0efa6	0.10983209
121	0xbe774655	-0.24147923
122	0x3d4f3a7a	0.050592877
123	0xbdb164dc	-0.086618155
124	0xbde318c1	-0.11088706
125	0xbbd0fb03	-0.006377579
126	0x3ec121bf	0.3772106
127	0x3d9e4e4e	0.07729779
128	0x3d4b0d7d	0.04957341
129	0xbcee41cf	-0.029084114
130	0xbe2d01e1	-0.16895248
131	0x3dbd68c6	0.092484996
132	0x3ab87f4f	0.0014076027
133	0x3cfca509	0.030840414
134	0xbd124810	-0.035713255
135	0xbe3044e5	-0.17213781
136	0xbc33aa0f	-0.010965838
137	0x3dfb859f	0.122813456
138	0x3f25dfe3	0.6479475
139	0xbdc8cf71	-0.09805191
140	0xbd9ea06e	-0.07745443
141	0x3d9f0532	0.07764663
142	0xbeb58d8f	-0.35459563
143	0x3ccd5988	0.025067106
144	0xbe700756	-0.23440298
145	0xbdaa9ae1	-0.08330322
146	0xbf1d3b7c	-0.6141889
147	0x3e2158cc	0.1575653
148	0x3e0893fb	0.133377
149	0x3db7d10b	0.08975419
150	0x3ecacb8d	0.39608422
151	0xbd05c021	-0.03265393
152	0x3ddf849f	0.10913967
153	0x3dfe64c5	0.12421564
154	0x3c85db80	0.016340017
155	0xbdf0b167	-0.11752587
156	0x3e074ec6	0.13213643
157	0xbca9ba55	-0.020718733
158	0xbf059f0c	-0.5219581
159	0x3cf55ae8	0.029950574
160	0x3c8ff8a2	0.017574612
161	0x3df20cc7	0.11818843
162	0x3ea94eae	0.3306784
163	0xbe337ca9	-0.17528023
164	0x3d106eef	0.035262045
165	0xbe3fd192	-0.18732288
166	0x3d77e252	0.06051857
167	0xbeafc90e	-0.3433308
168	0xbe0ce3cc	-0.13758773
169	0xbe1b3196	-0.15155634
170	0xbefb0a14	-0.49031126
171	0x3e580382	0.21095088
172	0x3e87e306	0.26540393
173	0x3e089070	0.13336349
174	0x3e15e3ea	0.14637724
175	0xbe088408	-0.13331616
176	0x3ea88a9d	0.32918254
177	0x3c0518a7	0.008123553
178	0x3dfb5bb6	0.12273352
179	0xbe39c673	-0.18142109
180	0xbe811b33	-0.25216064
181	0xbe302c91	-0.172045
182	0xbe8fa9cd	-0.28059235
183	0x3eaaedc4	0.33384526
184	0x3e124300	0.14283371
185	0x3e0cc83d	0.1374826
186	0x3d90fcf0	0.07079494
187	0xbec8751c	-0.39151847
188	0x3ddd9ac2	0.10820533
189	0xbd99a070	-0.07501304
190	0xbeb68a17	-0.3565223
191	0xbd82cf2c	-0.06387171
192	0xbe9f539e	-0.31118482
193	0x3d31bd01	0.04339314
194	0xbe388a72	-0.18021563
195	0x3e5762e2	0.21033815
196	0x3e8f0cb0	0.27939367
197	0x3dae7347	0.08518081
198	0x3e47918b	0.19489114
199	0xbee3ab2d	-0.44466534
200	0x3e30783d	0.17233367
201	0x3e05dec2	0.13073257
202	0xbe46f21e	-0.19428298
203	0xbd87b53b	-0.06626364
204	0x3e9ab97f	0.30219647
205	0xbe179331	-0.14802243
206	0xbeb2c465	-0.34915462
207	0x3e3e5d1c	0.18590206
208	0x3def4792	0.11683573
209	0x3d56ac59	0.052410457
210	0x3ec2b973	0.38032112
211	0xbe60cedb	-0.21953909
212	0x3eaedadb	0.34151348
213	0xbdaf5f93	-0.08563151
214	0xbe59fa7f	-0.21286963
215	0xbc95c349	-0.018281596
216	0xbec32f8c	-0.38122213
217	0xbe154160	-0.1457572
218	0xbf13c32f	-0.577197
219	0x3e058988	0.13040745
220	0x3df4ba53	0.11949601
221	0x3d60cc8c	0.05488257
222	0x3ea868ce	0.3289246
223	0x3d164b77	0.036693063
224	0x3e8fe945	0.28107658
225	0x3ded2892	0.11580004
226	0xbdef9497	-0.11698263
227	0xbea7aae7	-0.32747576
228	0xbe4e8ffc	-0.20172113
229	0xb79f0471	-1.8956345e-05
230	0xbeccd32b	-0.40004858
231	0x3dd3a176	0.103335306
232	0x3e159749	0.14608492
233	0xbd70df6b	-0.058806818
234	0x3d28ae7c	0.041182026
235	0xbe7fa0ca	-0.2496368
236	0x3e894eab	0.2681783
237	0x3e474c40	0.19462681
238	0xbe7bd491	-0.24592806
239	0xbebc9ceb	-0.3683847
240	0x3c4d67fa	0.012536997
241	0xbe20a3e1	-0.15687515
242	0xbeea2d02	-0.45737463
243	0xbdbdf56c	-0.09275326
244	0xbc2cf6ee	-0.0105569195
245	0xbe8693f6	-0.2628476
246	0x3ee62d2e	0.44956344
247	0xbcdcecb0	-0.02696833
248	0x3e344247	0.17603408
249	0x3d7333a1	0.05937541
250	0xbec7abed	-0.38998356
251	0xbf0794c7	-0.5296139
252	0xbee841d1	-0.45362714
253	0xbc906fbe	-0.017631408
254	0xbf58310c	-0.8444984
255	0x3dca74d0	0.098855615

road_emb.1.bias f4 [64]
0	0x3d29b775	0.041434724
1	0xbbf918d7	-0.007601838
2	0xbd84cd85	-0.06484512
3	0x3cb7a5a0	0.022417843
4	0x3d91f56a	0.07126887
5	0xbd18a74f	-0.037268933
6	0xbd878b9e	-0.06618427
7	0xbc75fc79	-0.015013807
8	0x3cb27eed	0.021789039
9	0xbd50993b	-0.050927382
10	0xbcff943e	-0.031198617
11	0x3b85ab33	0.0040792464
12	0xbe52658b	-0.20546548
13	0xbc9878d4	-0.018612303
14	0x3c930fe1	0.017951908
15	0xbbe587b2	-0.0070047015
16	0xbd64ae89	-0.055830512
17	0xbe1997cd	-0.14999314
18	0xbe2eb370	-0.17060637
19	0xbc7b424c	-0.015335631
20	0xbdfe5726	-0.12418966
21	0xbe157271	-0.14594437
22	0x39187080	0.00014537759
23	0xbd869b3f	-0.065725796
24	0xbd2b9f5d	-0.041900028
25	0x3defd720	0.11710954
26	0xbdd3cd72	-0.1034192
27	0x3d881401	0.066444404
28	0xbdf45821	-0.11930872
29	0xbdfdcc5a	-0.123924926
30	0xbcf5da11	-0.030011209
31	0x3d05a7fb	0.0326309
32	0x3c491713	0.012273568
33	0x3dd7dfc7	0.10540729
34	0x3d461fdb	0.048370223
35	0xbd5bf0fa	-0.05369661
36	0xbd9a7d1e	-0.075433955
37	0xbd7e822a	-0.062135853
38	0x3dc43d15	0.09581963
39	0xbd4b5328	-0.04963985
40	0xbdb76c97	-0.08956259
41	0xbd14a35c	-0.036288604
42	0xbd1180b1	-0.03552312
43	0x3d3c21e9	0.045930777
44	0xbce43832	-0.027858827
45	0xbd649445	-0.055805463
46	0xbdb4a01f	-0.08819603
47	0x3d48f5ad	0.04906242
48	0x3d109f76	0.035308324
49	0xbd5c10b1	-0.053726856
50	0xba10c884	-0.0005523043
51	0xba7ca38d	-0.0009637408
52	0x3c1265bf	0.008935391
53	0x3c5bf807	0.013425834
54	0xbdbf6557	-0.09345501
55	0xbc63cc75	-0.013903727
56	0xbd58fc02	-0.05297471
57	0xbe6a1c0a	-0.22862259
58	0xbd83eb91	-0.06441415
59	0xbd362195	-0.04446562
60	0xbd3739f5	-0.044733007
61	0x3d9e7f6b	0.07739147
62	0x3cbd0068	0.023071483
63	0x3dc6bbc6	0.09703784

cav_emb.0.weight f4 [11]
0	0x3f9395fb	1.1530145
1	0x3f1e7f40	0.6191292
2	0x3f1f974c	0.62340236
3	0x3f638b8b	0.888848
4	0x3fdf8ad0	1.7464237
5	0x3fe6a627	1.8019456
6	0x3fca1e8e	1.5790575
7	0x3f8dd21d	1.1079746
8	0x3f3da602	0.7408143
9	0x3f6282ff	0.88481134
10	0x3f9dabf2	1.2318099

cav_emb.0.bias f4 [11]
0	0x3d980681	0.074231155
1	0x3d246dff	0.040143963
2	0x3d378c79	0.0448117
3	0x3d86efb3	0.06588688
4	0xbbc91180	-0.0061361194
5	0x3e0f2d66	0.13982162
6	0xbc0c79d2	-0.008573966
7	0x3e05b6aa	0.13057962
8	0x3e03c283	0.12867169
9	0xbd4ae7cc	-0.049537465
10	0xbda0d666	-0.07853393

cav_emb.1.weight f4 [64, 11]
0	0xbe88ef86	-0.26745242
1	0x3e02c451	0.12770201
2	0x3e066f80	0.13128471
3	0xbd4dff20	-0.050292134
4	0x3f3d8f58	0.7404685
5	0xbea2f406	-0.318268
6	0x3defb692	0.117047444
7	0x3dcba1d4	0.09942976
8	0x3dba9d2a	0.09112008
9	0xbdd00b6b	-0.10158428
10	0x3db37666	0.08762817
11	0xbe46b0ba	-0.19403353
12	0x3e06b186	0.13153657
13	0xbe3ed5ac	-0.18636197
14	0xbe5a65ac	-0.21327847
15	0xbf074dd7	-0.5285315
16	0x3e990c33	0.2989212
17	0x3bce8b1a	0.0063032033
18	0xbe9c2393	-0.3049589
19	0xbe55004b	-0.20800893
20	0x3e5c745b	0.21528761
21	0x3e8514f7	0.25992557
22	0xbe648301	-0.22315599
23	0xbf164ac8	-0.5870786
24	0xbe14e9f9	-0.14542378
25	0x3df62420	0.12018609
26	0x3f5578d8	0.8338752
27	0x3e8cd214	0.27504027
28	0xbe2a64c9	-0.16640009
29	0x3d0d41d9	0.034486625
30	0x3e0783a6	0.13233814
31	0xbe5b3fb6	-0.21411023
32	0x3f091db5	0.53560954
33	0x3db81b3c	0.089895695
34	0xbe94fee9	-0.2910073
35	0xbe07b6be	-0.13253304
36	0xbe7636ac	-0.24044293
37	0xbf5aa3b4	-0.8540604
38	0x3f9bbe9e	1.2167547
39	0xbf0f86c0	-0.5606499
40	0xbdf3b74b	-0.11900195
41	0xbdb64ca8	-0.0890134
42	0x3de0e37e	0.10980891
43	0xbe324f24	-0.17413002
44	0xbea87f0d	-0.32909432
45	0x3eb78cc3	0.3584958
46	0x3e2698b6	0.16269192
47	0xbea83a80	-0.32857132
48	0xbe51150f	-0.2041819
49	0x3dd93e4b	0.106075846
50	0x3e86bb9b	0.26315007
51	0xbd5c0229	-0.053712998
52	0x3df0e7f5	0.11762992
53	0xbe600376	-0.2187632
54	0x3e5e7152	0.21722916
55	0xbea0cfbe	-0.31408495
56	0xbe47b7ab	-0.19503658
57	0x3eab0f0a	0.3340991
58	0x3e14b8f5	0.1452368
59	0x3f16df87	0.58934826
60	0x3dd688da	0.10475321
61	0xbe5d75d0	-0.21626973
62	0xbe9fbb7d	-0.3119773
63	0x3e1c1f3f	0.15246294
64	0xbdeba7e8	-0.11506635
65	0x3c31b2dc	0.010845866
66	0xbe766de1	-0.24065353
67	0xbdcada7b	-0.09904953
68	0x3da52d38	0.080652654
69	0xbe3ac6fa	-0.18239966
70	0x3dec3ea9	0.11535389
71	0xbc5d7fe0	-0.013519257
72	0xbe9f55b1	-0.31120065
73	0x3e20a911	0.15689494
74	0xbd721328	-0.0591003
75	0xbe083067	-0.13299714
76	0x3b8a9b11	0.004229911
77	0x3bc6575a	0.0060528936
78	0xbe17c756	-0.14822134
79	0xbe0662de	-0.13123652
80	0x3f1d912c	0.6154964
81	0x3da578ec	0.08079705
82	0xbe6585ec	-0.22414368
83	0x3f3f0401	0.74615484
84	0x3e1f9979	0.15585889
85	0x3ec747cb	0.3892196
86	0xbf6043f9	-0.8760372
87	0xbd8a4c42	-0.06752826
88	0xbe9b2b31	-0.3030639
89	0xbafad6f1	-0.0019137544
90	0x3df18d66	0.11794548
91	0x3c972530	0.01845035
92	0x3eed7c4f	0.46383902
93	0xbd93f88c	-0.07225141
94	0xbe83a9c5	-0.2571546
95	0x3e38b85c	0.18039078
96	0x3dc7958b	0.0974532
97	0x3e1b2390	0.15150285
98	0x3e02d39e	0.12776038
99	0xbf07a080	-0.5297928
100	0x3e441f25	0.19152506
101	0x3e3c3a72	0.1838167
102	0x3e2d207a	0.1690692
103	0xbea24e78	-0.31700492
104	0xbe9af0dd	-0.3026189
105	0x3f15f558	0.5857749
106	0xbd0e18a2	-0.03469146
107	0x3d5290f5	0.051407773
108	0xbd634f91	-0.055495802
109	0x3e7000b3	0.23437767
110	0xbe6232cf	-0.22089694
111	0xbe889abd	-0.26680556
112	0x3e6c16c0	0.23055553
113	0x3de53978	0.11192602
114	0x3f35ecdb	0.7106454
115	0x3cd4e569	0.025988298
116	0xbd60ca10	-0.0548802
117	0xbd8edaa9	-0.069753
118	0x3dc1dab4	0.094655424
119	0xbda3eabd	-0.08003757
120	0x3cad136b	0.021127423
121	0x3b661322	0.003510662
122	0xbdb20659	-0.08692617
123	0x3d19a359	0.037509296
124	0xbde4a153	-0.11163583
125	0xbdc5ae9c	-0.09652445
126	0x3c606b83	0.013697508
127	0x3e908795	0.2822844
128	0xbe12c76a	-0.14333883
129	0xbce9bed3	-0.028533375
130	0x3e9f58cb	0.3112243
131	0x3d94546e	0.07242666
132	0xbeb7b7ec	-0.3588251
133	0x3e1ba255	0.15198644
134	0x3e906e0f	0.28208968
135	0xbe05c932	-0.13065031
136	0x3f50a95e	0.81508434
137	0x3dea7961	0.114489324
138	0xbe85500f	-0.26037642
139	0x3ec112e2	0.3770972
140	0x3c83e871	0.016102048
141	0xbeb1f639	-0.34758165
142	0x3e903bcc	0.2817062
143	0xbeaea118	-0.3410728
144	0xbe48685d	-0.19571061
145	0x3e40f189	0.18842138
146	0x3b603bb2	0.0034215269
147	0x3f1b807b	0.6074292
148	0x3da3467e	0.0797243
149	0xbea02c85	-0.31283966
150	0xbe933dbd	-0.2875804
151	0x3e2547cc	0.1614067
152	0xbe68388f	-0.22677825
153	0x3dc88117	0.09790247
154	0xbe8fcf82	-0.28088003
155	0xbe8da8a3	-0.27667722
156	0x3e46c140	0.19409657
157	0xbca4c7e8	-0.020114854
158	0x3f07d2c9	0.5305601
159	0x3d78d02a	0.060745396
160	0x3e713666	0.23555908
161	0xbd19632d	-0.037448097
162	0x3d3a32e0	0.045458674
163	0x3f47a4a6	0.7798561
164	0xbdb0a27b	-0.08624741
165	0xbe965c83	-0.29367456
166	0xbe3079f3	-0.1723402
167	0x3cf17da4	0.029478855
168	0xbdc688c4	-0.09694055
169	0xbd502919	-0.050820444
170	0xbd9524cc	-0.07282409
171	0x3e163a74	0.14670736
172	0xbd9e619f	-0.077334635
173	0x3c0dbdf1	0.008651243
174	0xbeeb1f3d	-0.4592227
175	0x3f0cf16e	0.5505589
176	0xbdfb27c3	-0.12263443
177	0xbe61fc1b	-0.22068827
178	0xbceffe6d	-0.029296124
179	0x3deab6df	0.11460661
180	0xbe20e2ad	-0.1571147
181	0x3f2bc42b	0.67096204
182	0xbefc1cd5	-0.49240747
183	0x3d6dd758	0.058066696
184	0x3d0b1b84	0.033961788
185	0x3c94829f	0.018128691
186	0xbea8be47	-0.3295767
187	0x3e7ff737	0.24996649
188	0xbe2a878b	-0.16653268
189	0xbe145246	-0.1448451
190	0x3de4aed2	0.11166157
191	0xbdb892ff	-0.09012412
192	0x3c7582ca	0.014984796
193	0x3ebc9538	0.36832595
194	0xbccd8398	-0.025087163
195	0xbe2ebe03	-0.17064671
196	0xbede035f	-0.43361947
197	0xbdd92c31	-0.10604132
198	0x3dd265d8	0.102733314
199	0xbd34126a	-0.043962874
200	0x3e52bc63	0.20579676
201	0x3d0bb2cd	0.034106065
202	0x3e6a6b42	0.22892478
203	0x3de1b648	0.110210955
204	0xbdc4bada	-0.096059516
205	0x3e6e3c18	0.23265111
206	0x3e49bd89	0.19701208
207	0x3c8214b1	0.015879007
208	0x3e398704	0.1811791
209	0xbde5a74a	-0.112135485
210	0x3d326b47	0.04355934
211	0x3e575e8f	0.21032165
212	0x3e6b5097	0.22979961
213	0x3efacd46	0.48984736
214	0x3dccf482	0.10007574
215	0x3da30a61	0.07960964
216	0xbe83198f	-0.25605437
217	0x3d983bec	0.07433304
218	0x3c7971e9	0.015224912
219	0x3e293852	0.1652539
220	0xbea4b315	-0.3216788
221	0xbe677ed7	-0.2260698
222	0xbe6ba820	-0.23013353
223	0xbc8b39b8	-0.016995296
224	0xbf9367b4	-1.1516023
225	0x3f565719	0.8372665
226	0x3ebd30b2	0.36951214
227	0xbd1ace90	-0.03779465
228	0xbe6dc464	-0.23219448
229	0xbe2a8822	-0.16653493
230	0xbec305d0	-0.38090372
231	0xbe7773a2	-0.24165204
232	0x3d80e9fd	0.0629463
233	0x3e70f3e5	0.23530538
234	0x3dafb8f9	0.085802026
235	0x3f3e7a77	0.74405617
236	0xbed7206c	-0.42016923
237	0xbe52cc2d	-0.205857
238	0x3e9b27ee	0.303039
239	0x3e2c4dd3	0.16826563
240	0xbe6da201	-0.23206331
241	0xbd0107d6	-0.031501614
242	0xbe615bc1	-0.22007658
243	0xbe07fe21	-0.13280536
244	0xbc6dfdf4	-0.014525879
245	0x3e023964	0.12717205
246	0xbe12aaad	-0.1432292
247	0xbda30bf4	-0.07961264
248	0xbeb1eb2a	-0.34749728
249	0x3eb3a1c7	0.35084364
250	0x3e653f5f	0.22387455
251	0x3dcf3240	0.10117006
252	0x3d373f46	0.044738077
253	0xbdff84a3	-0.1247647
254	0xbd9d8aca	-0.076924875
255	0x3e8d76b2	0.2762962

cav_emb.1.bias f4 [64]
0	0xbd6d627f	-0.05795526
1	0x3dbdb64e	0.092632875
2	0x3d75ec43	0.06003977
3	0x3e7367b8	0.23770034
4	0x3d13760d	0.036001254
5	0xbdc07660	-0.09397578
6	0x3ca6e2d0	0.020371825
7	0xbdb2552a	-0.0870765
8	0xbe004286	-0.12525377
9	0xbbc18e96	-0.00590689
10	0xbdc4fb30	-0.09618223
11	0x3d9ba6a2	0.07600142
12	0xbd3feddd	-0.046857703
13	0xbe20e9ea	-0.15714231
14	0x3db43ced	0.08800683
15	0xbd07c940	-0.03315091
16	0x3ba268fb	0.0049563623
17	0x3c011777	0.00787913
18	0xbde145a8	-0.10999614
19	0xbe0b9803	-0.13632207
20	0xbe126ae7	-0.14298593
21	0xbdea61bb	-0.11444422
22	0xbe1eafd9	-0.15496768
23	0xbd05239f	-0.032504674
24	0x3c0c2506	0.008553749
25	0xbdea054a	-0.1142679
26	0x3d067076	0.032822095
27	0xbd94c081	-0.0726328
28	0xbd90193e	-0.070360646
29	0xbd79d23e	-0.06099152
30	0xbe890fe6	-0.26769942
31	0x3cdcb2bd	0.026940698
32	0xbbdf262f	-0.0068099718
33	0xbd86f73c	-0.06590125
34	0x3d3eac93	0.0465513
35	0xbc989f3c	-0.018630616
36	0xbca66cc4	-0.020315535
37	0xbe28bee0	-0.16479063
38	0x3cc9e78c	0.024646543
39	0xbccc4cf2	-0.024939034
40	0xbdd890e0	-0.10574508
41	0xbd20251f	-0.0390979
42	0xbd8aed5e	-0.067835554
43	0x3ddd0278	0.107914865
44	0xbd39b39c	-0.045337304
45	0x3d175ed8	0.036955684
46	0x3c450f53	0.012027579
47	0x3b0c010b	0.0021362926
48	0xbd2fca0e	-0.042917304
49	0xbe2e6c87	-0.17033587
50	0x3c43126e	0.011906249
51	0xbe4a443f	-0.19752596
52	0xbdcb13fd	-0.09915922
53	0xbe00cdd5	-0.12578519
54	0xbea8f56c	-0.32999742
55	0xbe2191df	-0.15778302
56	0xbe1082f5	-0.14112456
57	0xbbd35a6c	-0.006449988
58	0xbc7fa002	-0.015602114
59	0xbe4867ee	-0.19570896
60	0x3cc8f2ce	0.02452984
61	0xbe439d72	-0.1910303
62	0xbd8cec43	-0.06881001
63	0xbce6ffb8	-0.028198108

att.mask f4 [1, 1, 145, 145]
0	0x3f800000	1.0
1	0x00000000	0.0
2	0x00000000	0.0
3	0x00000000	0.0
4	0x00000000	0.0
5	0x00000000	0.0
6	0x00000000	0.0
7	0x00000000	0.0
8	0x00000000	0.0
9	0x00000000	0.0
10	0x00000000	0.0
11	0x00000000	0.0
12	0x00000000	0.0
13	0x00000000	0.0
14	0x00000000	0.0
15	0x00000000	0.0
16	0x00000000	0.0
17	0x00000000	0.0
18	0x00000000	0.0
19	0x00000000	0.0
20	0x00000000	0.0
21	0x00000000	0.0
22	0x00000000	0.0
23	0x00000000	0.0
24	0x00000000	0.0
25	0x00000000	0.0
26	0x00000000	0.0
27	0x00000000	0.0
28	0x00000000	0.0
29	0x00000000	0.0
30	0x00000000	0.0
31	0x00000000	0.0
32	0x00000000	0.0
33	0x00000000	0.0
34	0x00000000	0.0
35	0x00000000	0.0
36	0x00000000	0.0
37	0x00000000	0.0
38	0x00000000	0.0
39	0x00000000	0.0
40	0x00000000	0.0
41	0x00000000	0.0
42	0x00000000	0.0
43	0x00000000	0.0
44	0x00000000	0.0
45	0x00000000	0.0
46	0x00000000	0.0
47	0x00000000	0.0
48	0x00000000	0.0
49	0x00000000	0.0
50	0x00000000	0.0
51	0x00000000	0.0
52	0x00000000	0.0
53	0x00000000	0.0
54	0x00000000	0.0
55	0x00000000	0.0
56	0x00000000	0.0
57	0x00000000	0.0
58	0x00000000	0.0
59	0x00000000	0.0
60	0x00000000	0.0
61	0x00000000	0.0
62	0x00000000	0.0
63	0x00000000	0.0
64	0x00000000	0.0
65	0x00000000	0.0
66	0x00000000	0.0
67	0x00000000	0.0
68	0x00000000	0.0
69	0x00000000	0.0
70	0x00000000	0.0
71	0x00000000	0.0
72	0x00000000	0.0
73	0x00000000	0.0
74	0x00000000	0.0
75	0x00000000	0.0
76	0x00000000	0.0
77	0x00000000	0.0
78	0x00000000	0.0
79	0x00000000	0.0
80	0x00000000	0.0
81	0x00000000	0.0
82	0x00000000	0.0
83	0x00000000	0.0
84	0x00000000	0.0
85	0x00000000	0.0
86	0x00000000	0.0
87	0x00000000	0.0
88	0x00000000	0.0
89	0x00000000	0.0
90	0x00000000	0.0
91	0x00000000	0.0
92	0x00000000	0.0
93	0x00000000	0.0
94	0x00000000	0.0
95	0x00000000	0.0
96	0x00000000	0.0
97	0x00000000	0.0
98	0x00000000	0.0
99	0x00000000	0.0
100	0x00000000	0.0
101	0x00000000	0.0
102	0x00000000	0.0
103	0x00000000	0.0
104	0x00000000	0.0
105	0x00000000	0.0
106	0x00000000	0.0
107	0x00000000	0.0
108	0x00000000	0.0
109	0x00000000	0.0
110	0x00000000	0.0
111	0x00000000	0.0
112	0x00000000	0.0
113	0x00000000	0.0
114	0x00000000	0.0
115	0x00000000	0.0
116	0x00000000	0.0
117	0x00000000	0.0
118	0x00000000	0.0
119	0x00000000	0.0
120	0x00000000	0.0
121	0x00000000	0.0
122	0x00000000	0.0
123	0x00000000	0.0
124	0x00000000	0.0
125	0x00000000	0.0
126	0x00000000	0.0
127	0x00000000	0.0
128	0x00000000	0.0
129	0x00000000	0.0
130	0x00000000	0.0
131	0x00000000	0.0
132	0x00000000	0.0
133	0x00000000	0.0
134	0x00000000	0.0
135	0x00000000	0.0
136	0x00000000	0.0
137	0x00000000	0.0
138	0x00000000	0.0
139	0x00000000	0.0
140	0x00000000	0.0
141	0x00000000	0.0
142	0x00000000	0.0
143	0x00000000	0.0
144	0x00000000	0.0
145	0x3f800000	1.0
146	0x3f800000	1.0
147	0x00000000	0.0
148	0x00000000	0.0
149	0x00000000	0.0
150	0x00000000	0.0
151	0x00000000	0.0
152	0x00000000	0.0
153	0x00000000	0.0
154	0x00000000	0.0
155	0x00000000	0.0
156	0x00000000	0.0
157	0x00000000	0.0
158	0x00000000	0.0
159	0x00000000	0.0
160	0x00000000	0.0
161	0x00000000	0.0
162	0x00000000	0.0
163	0x00000000	0.0
164	0x00000000	0.0
165	0x00000000	0.0
166	0x00000000	0.0
167	0x00000000	0.0
168	0x00000000	0.0
169	0x00000000	0.0
170	0x00000000	0.0
171	0x00000000	0.0
172	0x00000000	0.0
173	0x00000000	0.0
174	0x00000000	0.0
175	0x00000000	0.0
176	0x00000000	0.0
177	0x00000000	0.0
178	0x00000000	0.0
179	0x00000000	0.0
180	0x00000000	0.0
181	0x00000000	0.0
182	0x00000000	0.0
183	0x00000000	0.0
184	0x00000000	0.0
185	0x00000000	0.0
186	0x00000000	0.0
187	0x00000000	0.0
188	0x00000000	0.0
189	0x00000000	0.0
190	0x00000000	0.0
191	0x00000000	0.0
192	0x00000000	0.0
193	0x00000000	0.0
194	0x00000000	0.0
195	0x00000000	0.0
196	0x00000000	0.0
197	0x00000000	0.0
198	0x00000000	0.0
199	0x00000000	0.0
200	0x00000000	0.0
201	0x00000000	0.0
202	0x00000000	0.0
203	0x00000000	0.0
204	0x00000000	0.0
205	0x00000000	0.0
206	0x00000000	0.0
207	0x00000000	0.0
208	0x00000000	0.0
209	0x00000000	0.0
210	0x00000000	0.0
211	0x00000000	0.0
212	0x00000000	0.0
213	0x00000000	0.0
214	0x00000000	0.0
215	0x00000000	0.0
216	0x00000000	0.0
217	0x00000000	0.0
218	0x00000000	0.0
219	0x00000000	0.0
220	0x00000000	0.0
221	0x00000000	0.0
222	0x00000000	0.0
223	0x00000000	0.0
224	0x00000000	0.0
225	0x00000000	0.0
226	0x00000000	0.0
227	0x00000000	0.0
228	0x00000000	0.0
229	0x00000000	0.0
230	0x00000000	0.0
231	0x00000000	0.0
232	0x00000000	0.0
233	0x00000000	0.0
234	0x00000000	0.0
235	0x00000000	0.0
236	0x00000000	0.0
237	0x00000000	0.0
238	0x00000000	0.0
239	0x00000000	0.0
240	0x00000000	0.0
241	0x00000000	0.0
242	0x00000000	0.0
243	0x00000000	0.0
244	0x00000000	0.0
245	0x00000000	0.0
246	0x00000000	0.0
247	0x00000000	0.0
248	0x00000000	0.0
249	0x00000000	0.0
250	0x00000000	0.0
251	0x00000000	0.0
252	0x00000000	0.0
253	0x00000000	0.0
254	0x00000000	0.0
255	0x00000000	0.0
