route_TSC/model/0.5_astar_dqn_joint_0315/target_q_netveh.pt (torch, 13784 bytes, 6 tensors)

fc1.weight f4 [64, 8]
-0.03182787 0.001562647 -0.12118095 0.13813314 -0.020751178 0.109500274 -0.28620967 -0.25175282
-0.03954109 -0.24616726 -0.06801196 -0.22570065 0.23117317 0.06709029 -0.21109885 0.2903193
0.27573162 0.10844727 0.075324036 -0.100124516 -0.08128859 0.2541419 0.17666581 -0.24012774
0.18135375 -0.06400544 0.22183056 -0.13305598 0.06246211 -0.17243214 0.31435433 0.030673416
0.07532491 -0.13415787 -0.059358653 0.05758269 0.13734071 -0.09336595 0.054629263 0.16897479
-0.2341776 0.06469085 0.033022087 0.028389381 0.0773669 -0.041752264 -0.00157055 -0.302686
0.29156816 -0.27816164 -0.15367515 -0.27336213 -0.07633103 -0.26007012 -0.13533556 -0.2754567
0.16598327 -0.23739788 -0.034415778 -0.124014266 0.13539082 0.24166249 -0.19635631 -0.018546168
0.019468015 0.037281428 0.16348742 -0.12184828 0.033380345 0.066899866 0.044333596 0.2272781
0.24612525 -0.26303774 0.092809714 0.13782136 -0.24223162 0.06160337 0.27813333 0.25111145
0.21067059 0.2469595 -0.28543258 -0.19839603 -0.26041442 0.28769213 0.24116875 -0.24190034
0.13533999 -0.11389742 -0.014473575 0.010019243 0.1816466 0.27403295 0.12846445 -0.25285426
-0.06669132 -0.24630311 0.23583739 0.037620876 0.0033993085 -0.32827196 0.20156346 -0.2739166
-0.1263386 -0.17918226 0.20024131 -0.027770361 -0.1286052 0.07901446 0.08684329 -0.2862299
0.16703273 0.008743324 -0.27385804 -0.091306224 0.22284515 0.22313099 0.18823618 0.31684366
0.1075564 -0.04023026 -0.2182263 -0.23705661 -0.08297826 0.07699112 0.091373585 -0.2466508
-0.14903998 0.15370016 -0.08443763 -0.0030662282 -0.05485651 0.18795647 -0.28111446 -0.27991474
-0.13140878 -0.1573569 0.31976113 0.23041654 0.25621995 0.18338534 -0.24959865 -0.014960883
-0.050755866 0.16061822 -0.046803556 0.2906291 -0.23316438 0.16243286 0.28532055 -0.29214787
0.059214815 0.041177213 0.048619367 -0.22585773 0.15813336 -0.02159535 -0.0888114 0.038284548
-0.17492338 0.29166976 0.29397628 0.18304317 -0.3014301 0.123113774 0.312267 0.25516006
0.025339374 0.008074347 -0.06035725 -0.048660275 -0.1508618 -0.27894497 -0.14488661 0.22252116
0.11889622 -0.17763135 0.12948903 0.06851861 -0.18811034 0.19922982 -0.057865832 -0.022660471
-0.08283183 0.123095535 0.0977106 0.010452064 0.2472867 0.25460994 -0.30174506 -0.072048545
0.2676708 -0.13429 -0.16672058 0.3205411 0.033737294 0.19721958 0.10779949 0.20501664
0.16006315 -0.26708964 0.042023133 -0.061194893 -0.011631369 -0.062166825 -0.1777208 0.04256684
-0.3292668 0.055911608 0.030820427 0.1081571 -0.28155774 -0.047586907 -0.037963033 0.19553807
0.115302265 0.051573843 -0.008417703 0.0049407035 0.2549602 0.019818591 0.08213345 0.043945514
0.21520603 -0.12242088 0.16460112 -0.17926592 0.12701397 -0.13703647 0.12774318 0.037536792
0.16599639 0.1386835 0.1436201 0.0834295 0.2689869 0.02668087 -0.10920785 -0.097159445
0.16909899 -0.08798628 -0.15810908 -0.2917087 0.11892278 0.028959636 -0.1083094 0.17628619
0.22962587 -0.0658008 0.07973728 -0.24257398 0.2453963 0.2462492 -0.16221873 0.20172638
00000000: f15d 02bd bcd1 cc3a b82d f8bd c672 0d3e
00000010: 60fe a9bc ae41 e03d 138a 92be bfe5 80be
00000020: d7f5 21bd 4513 7cbe db49 8bbd 121e 67be
00000030: a9b8 6c3e a266 893d 4c2a 58be bba4 943e
00000040: b22c 8d3e 9a19 de3d 7d43 9a3d 150e cdbd
00000050: a27a a6bd e31e 823e e2e7 343e 0ce4 75be
00000060: ccb4 393e 4915 83bd 8d27 633e d43f 08be
00000070: 45d8 7f3d 0d92 30be 0df3 a03e d146 fb3c
00000080: f243 9a3d ae60 09be 0f22 73bd d4db 6b3d
00000090: 0ba3 0c3e a636 bfbd efc2 5f3d ba07 2d3e
000000a0: 41cc 6fbe a37c 843d 2b42 073d d990 e83c
000000b0: 8a72 9e3d 6c04 2bbd eada cdba a9f9 9abe
000000c0: 6c48 953e 346b 8ebe 055d 1dbe 1ff6 8bbe
000000d0: 7153 9cbd e927 85be 6895 0abe a908 8dbe
000000e0: 85f7 293e 6e18 73be 8ff7 0cbd 31fb fdbd
000000f0: e4a3 0a3e 5f76 773e a111 49be 22ee 97bc
00000100: 637b 9f3c 69b4 183d 3f69 273e 978b f9bd
00000110: d4b9 083d cc02 893d 2597 353d 97bb 683e
00000120: 4208 7c3e e2ac 86be 0513 be3d 0b21 0d3e
00000130: 910b 78be d153 7c3d 7e67 8e3e ae91 803e
00000140: 08ba 573e f3e2 7c3e 3824 92be 5428 4bbe
00000150: 0a55 85be 624c 933e f1f4 763e b9b4 77be
00000160: 9196 0a3e 0d43 e9bd 9322 6dbc c027 243c
00000170: 9101 3a3e 0c4e 8c3e 2f8c 033e 1d76 81be
00000180: 7595 88bd e236 7cbe 5b7f 713e 5918 1a3d
00000190: efc6 5e3b 4313 a8be a766 4e3e cc3e 8cbe
000001a0: e85e 01be 8e7b 37be 0f0c 4d3e ab7e e3bc
000001b0: 15b1 03be 55d2 a13d e5da b13d ba8c 92be
000001c0: a10a 2b3e 2940 0f3c 1f37 8cbe c2fe babd
000001d0: 8531 643e 737c 643e fcc0 403e 5539 a23e
000001e0: 8846 dc3d 7cc8 24bd b776 5fbe f8be 72be
000001f0: 82f0 a9bd 85ad 9d3d 1322 bb3d 0792 7cbe
00000200: f09d 18be 9363 1d3e a3ed acbd c6f2 48bb
00000210: 38b1 60bd a977 403e 3cee 8fbe fc50 8fbe
00000220: 0690 06be 2b22 21be bbb7 a33e 50f2 6b3e
00000230: 432f 833e 5ec9 3b3e ca96 7fbe 7e1e 75bc
00000240: 62e5 4fbd 1a79 243e 16b5 3fbd 56cd 943e
00000250: a5c2 6ebe cd54 263e 8915 923e 6894 95be
00000260: 3c8b 723d 70a9 283d 1a25 473d 4047 67be
00000270: b6ed 213e bbe8 b0bc c0e2 b5bd 42d0 1c3d
00000280: 1d1f 33be bd55 953e 0f84 963e ab6f 3b3e
00000290: 0c55 9abe 1323 fc3d 76e1 9f3e 57a4 823e
000002a0: 8594 cf3c 444a 043c 2a39 77bd ff4f 47bd
000002b0: 847b 1abe e0d1 8ebe 285d 14be 96dc 633e
000002c0: dd7f f33d fee4 35be c698 043e 7c53 8c3d
000002d0: ff9f 40be e702 4c3e b904 6dbd 74a2 b9bc
000002e0: bca3 a9bd 8319 fc3d 7f1c c83d 223f 2b3c
000002f0: ba38 7d3e 3c5c 823e 547e 9abe 308e 93bd
00000300: 260c 893e 5183 09be cdb8 2abe f71d a43e
00000310: 1e30 0a3d eef3 493e fbc5 dc3d e2ef 513e
00000320: 98e7 233e f9bf 88be 7320 2c3d 7fa7 7abd
00000330: 7f91 3ebc a4a2 7ebd 71fc 35be 915a 2e3d
00000340: a895 a8be 9203 653d 1f7b fc3c 7881 dd3d
00000350: 5628 90be 7dea 42bd 207f 1bbd 223b 483e
00000360: 9823 ec3d 183f 533d 68ea 09bc a0e5 a13b
00000370: 258a 823e 995a a23c 9535 a83d 3600 343d
00000380: f85e 5c3e ccb7 fabd 328d 283e 7c91 37be
00000390: f30f 023e 4a53 0cbe 1ccf 023e 2ec0 193d
000003a0: f5fa 293e 0c03 0e3e 2611 133e 16dd aa3d
000003b0: a7b8 893e d791 da3c 5ea8 dfbd 88fb c6bd
000003c0: 4928 2d3e 2732 b4bd 59e7 21be d85a 95be
000003d0: c98d f33d c23c ed3c 52d1 ddbd 5e84 343e
000003e0: 0b23 6b3e 92c2 86bd 4d4d a33d 5065 78be
000003f0: 2b49 7b3e c028 7c3e ab1c 26be 5c91 4e3e

fc1.bias f4 [64]
-0.008213842 -0.00020672724 0.08487834 0.300893 0.24799365 0.19235106 -0.24019454 0.05574059
0.2868311 0.33488598 0.20324042 0.16159254 0.15671264 0.14720856 0.04143935 -0.27570465
-0.2900964 -0.26900232 0.18108271 -0.108023 -0.09743506 -0.021523578 -0.1863141 0.19818904
-0.06495467 0.07727922 -0.24788414 -0.20636965 -0.047277875 -0.034985565 0.15374649 0.11753414
-0.30268112 0.23387808 -0.043867327 -0.095540226 -0.14902169 0.2418988 -0.15142544 -0.16318998
0.2763784 -0.25255898 -0.23316215 0.30045563 -0.038213078 -0.1262373 -0.19718596 -0.21193752
-0.035901185 -0.20701808 -0.061113168 0.00025282608 -0.20088114 0.2599954 0.313425 -0.10199456
0.18712015 -0.07130548 -0.022505324 -0.08825861 -0.27233565 0.22183996 0.28546906 -0.02762636
00000000: 5a93 06bc ecc4 58b9 b2d4 ad3d a60e 9a3e
00000010: 0cf2 7d3e adf7 443e 8ff5 75be 3f50 643d
00000020: 87db 923e 2d76 ab3e 421e 503e 8478 253e
00000030: 4779 203e d7bd 163e 4fbc 293d 2929 8dbe
00000040: 8487 94be acba 89be bf6d 393e 2a3b ddbd
00000050: 088c c7bd 3752 b0bc 20c9 3ebe 11f2 4a3e
00000060: f406 85bd 9144 9e3d 57d5 7dbe 9152 53be
00000070: 72a6 41bd 064d 0fbd b86f 1d3e bdb5 f03d
00000080: 05f9 9abe bc7d 6f3e 3aae 33bd 98aa c3bd
00000090: 2499 18be 52b4 773e 450f 1bbe 461b 27be
000000a0: 7881 8d3e 694f 81be 0fc2 6ebe 52d5 993e
000000b0: 5185 1cbd 5a44 01be 1eeb 49be 2606 59be
000000c0: 1f0d 13bd 8cfc 53be cd51 7abd be8d 8439
000000d0: c9b3 4dbe 1e1e 853e 3e79 a03e 86e2 d0bd
000000e0: 6d9c 3f3e 9c08 92bd 165d b8bc eec0 b4bd
000000f0: 946f 8bbe 042a 633e 0029 923e ad50 e2bc

fc2.weight f4 [32, 64]
0.07929812 -0.021408893 -0.047849923 -0.00963981 0.09307613 0.10281649 -0.033551723 0.012405402
0.089208275 -0.03735518 -0.020840123 -0.11064781 0.013290225 0.104017854 0.0059733684 0.06555816
-0.0783552 0.04170595 -0.05927503 -0.08175828 -0.09086302 -0.03921068 -0.018864855 -0.094280384
-0.11265505 0.0091706235 0.062086836 -0.05913183 0.10376932 0.049186766 0.016338678 0.010403691
0.032659907 -0.055726327 0.07265166 0.025996108 0.08463564 0.033854928 -0.012687116 -0.072423615
0.018577406 0.0649756 0.09215045 -0.03776309 -0.04767203 0.048361495 -0.0005573162 -0.07732872
0.04051923 0.09412414 -0.0899225 0.11691263 -0.01956758 -0.055628072 -0.026136678 0.070292205
0.020269088 -0.041395973 -0.06619367 -0.04259166 -0.09927327 0.072573684 -0.08408185 0.02078741
-0.021886406 -0.05864205 0.072558925 0.0914632 -0.096032016 -0.09655401 -0.009314397 0.07818473
0.026840508 0.071780115 -0.013699166 0.00060151436 -0.06967068 0.018680828 -0.09563029 0.095624834
-0.06267834 -0.013803863 -0.056315113 -0.12394693 0.06668783 -0.043914486 -0.091857314 0.04265941
0.027111664 0.0129604535 0.021358559 0.11290509 -0.08298623 0.062379524 0.028875275 -0.08163101
-0.06987899 -0.014746021 -0.06421556 0.11482566 0.042180005 0.03716693 0.049495265 -0.02284374
0.034063555 -0.11182554 0.037421905 -0.05334439 -0.026221702 -0.010870631 0.04628025 0.042203065
0.051281333 -0.040528897 0.045998756 0.06454943 -0.10057431 -0.03874791 0.0067248056 0.012524503
-0.07178464 -0.10013313 0.0036425623 -0.029149815 -0.06603829 -0.048143875 0.10975245 0.026024142
-0.061805766 -0.010664702 0.06816247 0.05870287 -0.09806899 0.10010582 -0.019380778 -0.09988701
0.0595788 -0.039760705 0.10792202 -0.010781797 0.020866646 -0.081476696 0.0966029 0.056489978
0.046652786 0.10083855 0.010247854 0.03074997 0.020487247 -0.02024821 -0.109221086 0.08737132
0.01768495 -0.0132364975 0.012597012 -0.09957959 -0.026928572 -0.014581198 -0.12002879 0.024923531
-0.046814427 -0.043953255 -0.030260466 0.06940854 -0.0388815 0.056245834 -0.038502704 0.11376152
0.018343195 -0.06946508 0.01572288 0.051264796 -0.03575223 0.082020134 0.074218534 0.083631136
0.042815525 -0.067349285 0.03378025 -0.09256345 -0.05025617 0.11238629 0.009185167 0.017011952
0.020351395 0.05505633 -0.043205615 0.09300917 -0.03234893 -0.010839257 -9.930766e-05 0.060656734
-0.054538228 0.02878081 0.112128556 -0.006520215 0.035696167 -0.0373315 0.09277417 0.025215546
0.10777406 0.096533425 -0.005955242 -0.031128203 -0.055959977 -0.045017634 -0.056206174 0.017329605
0.078966044 -0.021738471 0.00512652 -0.014568494 0.006064485 -0.07286433 0.06517087 0.07452226
-0.06723797 -0.09178679 -0.00400702 0.02862084 0.122480646 0.007163118 -0.0032567873 -0.029755779
-0.033513945 0.10921291 0.10062671 0.09687339 -0.10112516 0.057613805 0.012321525 -0.06791512
-0.0178619 0.06775479 -0.11722634 -0.049146224 0.008236739 0.05876855 0.023077434 -0.09700714
-0.036870517 0.057117566 0.07834623 0.054648414 0.059632216 -0.042283576 -0.05709444 0.049227253
-0.038474604 0.09526496 -0.08964991 -0.059726503 0.012186958 0.084513284 -0.021883728 -0.021564463
00000000: 0e67 a23d b461 afbc 48fe 43bd 4bf0 1dbc
00000010: b39e be3d 7491 d23d 886d 09bd 0740 4b3c
00000020: d4b2 b63d bf01 19bd e8b8 aabc 529b e2bd
00000030: 3ebf 593c 5007 d53d 3fbc c33b 5b43 863d
00000040: b178 a0bd dcd3 2a3d 60ca 72bd e370 a7bd
00000050: 6416 babd 619b 20bd 788a 9abc 1316 c1bd
00000060: b1b7 e6bd 6240 163c c44e 7e3d 3834 72bd
00000070: 0285 d43d 1078 493d b1d8 853c 3e74 2a3c
00000080: 65c6 053d 4a41 64bd 65ca 943d caf5 d43c
00000090: 7355 ad3d 77ab 0a3d 9fdd 4fbc d552 94bd
000000a0: a52f 983c ed11 853d 60b9 bc3d 78ad 1abd
000000b0: bf43 43bd b416 463d db18 12ba 855e 9ebd
000000c0: 7ef7 253d 28c4 c03d 4a29 b8bd e46f ef3d
000000d0: 314c a0bc 43da 63bd 961c d6bc 5cf5 8f3d
000000e0: 5c0b a63c d38e 29bd 8c90 87bd 9874 2ebd
000000f0: c94f cbbd 83a1 943d 1b33 acbd 5c4a aa3c
00000100: 1f4b b3bc a532 70bd c699 943d 0f51 bb3d
00000110: 6fac c4bd 1cbe c5bd 6a9b 18bc 511f a03d
00000120: a0e0 db3c 7401 933d 7772 60bc f2ae 1d3a
00000130: 80af 8ebd 8908 993c d0d9 c3bd f4d6 c33d
00000140: 805d 80bd 9929 62bc adaa 66bd e3d7 fdbd
00000150: a193 883d addf 33bd b01f bcbd a2bb 2e3d
00000160: 4819 de3c 1558 543c 25f8 ae3c c93a e73d
00000170: aff4 a9bd ac81 7f3d d78b ec3c 292e a7bd
00000180: b71c 8fbd 4b99 71bc 7383 83bd b729 eb3d
00000190: f1c4 2c3d 5a3c 183d 8cbb 4a3d cc22 bbbc
000001a0: 3a86 0b3d ca04 e5bd b647 193d a67f 5abd
000001b0: e5ce d6bc bb1a 32bc 5c90 3d3d 1fdd 2c3d
000001c0: 600c 523d a101 26bd 3169 3c3d 7e32 843d
000001d0: e7f9 cdbd 21b6 1ebd c25b dc3b 9333 4d3c
000001e0: d303 93bd 9912 cdbd 0eb8 6e3b 98cb eebc
000001f0: 153f 87bd 8332 45bd e4c5 e03d 9530 d53c
00000200: 0b28 7dbd 01bb 2ebc c498 8b3d 6c72 703d
00000210: 65d8 c8bd 4804 cd3d 70c4 9ebc 9091 ccbd
00000220: e608 743d 1fdc 22bd 3806 dd3d 22a6 30bc
00000230: 87f0 aa3c 41dd a6bd bed7 c53d 0962 673d
00000240: fe16 3f3d 7184 ce3d 9de6 273c 5ce7 fb3c
00000250: dfd4 a73c 93df a5bc 4eaf dfbd bcef b23d
00000260: 07e0 903c e5dd 58bc b363 4e3c 62f0 cbbd
00000270: 4f99 dcbc fae5 6ebc a7d1 f5bd 6f2c cc3c
00000280: 7cc0 3fbd 5408 34bd cce4 f7bc 1126 8e3d
00000290: 3542 1fbd 0862 663d 03b5 1dbd cdfb e83d
000002a0: 7844 963c b543 8ebd 45cd 803c 09fb 513d
000002b0: ee70 12bd 2cfa a73d e3ff 973d cd46 ab3d
000002c0: 555f 2f3d 6cee 89bd 295d 0a3d e891 bdbd
000002d0: 6ad9 4dbd c92a e63d 627d 163c a65c 8b3c
000002e0: f8b7 a63c bf82 613d 5ff8 30bd 977b be3d
000002f0: 5080 04bd 2497 31bc 6543 d0b8 3273 783d
00000300: 7a63 5fbd bcc5 eb3c a8a3 e53d 87a7 d5bb
00000310: 2536 123d eae8 18bd 6200 be3d d590 ce3c
00000320: a5b8 dc3d 51b3 c53d 3124 c3bb 9300 ffbc
00000330: 4a36 65bd 6964 38bd 7238 66bd d1f6 8d3c
00000340: f3b8 a13d e114 b2bc 5efc a73b b1b0 6ebc
00000350: 96b8 c63b e539 95bd 4e78 853d 209f 983d
00000360: 10b4 89bd b6fa bbbd 524d 83bb 4076 ea3c
00000370: 22d7 fa3d 97b8 ea3b d36f 55bb 64c2 f3bc
00000380: eb45 09bd 05ab df3d 6015 ce3d 8e65 c63d
00000390: b51a cfbd 74fc 6b3d 39e0 493c 1517 8bbd
000003a0: 1f53 92bc 06c3 8a3d 5d14 f0bd 8d4d 49bd
000003b0: 63f3 063c 4bb7 703d e30c bd3c aeab c6bd
000003c0: 8a05 17bd 1cf4 693d fd73 a03d 04d7 5f3d
000003d0: e940 743d 8b31 2dbd dcdb 69bd 84a2 493d
000003e0: 8c97 1dbd 461a c33d 5f9a b7bd c7a3 74bd
000003f0: cfab 473c 4d15 ad3d 8145 b3bc f5a7 b0bc

fc2.bias f4 [32]
-0.05882554 -0.06462233 -0.06268583 0.08133376 -0.03956938 -0.08922699 -0.09758003 -0.1170268
-0.063584365 0.047348578 -0.085221305 0.117822915 -0.01835271 -0.07785912 0.031789985 -0.062291868
-0.10315521 0.07993578 0.0635114 0.061047893 -0.104213625 -0.03771152 0.0908779 -0.033083666
0.015693488 -0.08518036 0.011207777 -0.082961194 -0.0025344177 0.04439793 -0.017901946 -0.088829815
00000000: 0df3 70bd b658 84bd 6e61 80bd 5092 a63d
00000010: 8113 22bd a4bc b6bd 0ad8 c7bd bfab efbd
00000020: 8538 82bd 95f0 413d 8288 aebd 244d f13d
00000030: 6c58 96bc 9a74 9fbd 3736 023d c225 7fbd
00000040: 0a43 d3bd 5fb5 a33d 4412 823d 5b0d 7a3d
00000050: f46d d5bd 6577 1abd 311e ba3d bd82 07bd
00000060: a18f 803c 0a73 aebd d3a0 373c 8fe7 a9bd
00000070: 7918 26bb 9bda 353d 1aa7 92bc 68ec b5bd

fc3.weight f4 [3, 32]
0.0089720255 -0.04723747 -0.10995528 0.04818465 0.078231186 -0.06634987 -0.01793364 -0.0626685
-0.04348528 -0.1307386 0.1293752 -0.068700925 -0.1477778 0.06517604 0.048627585 0.070812665
-0.077459455 -0.06044147 -0.08414413 0.1030154 -0.06998623 -0.097091176 0.1398543 0.06397273
0.07558606 0.110793725 -0.058357146 -0.07069182 0.07285725 -0.0273476 -0.11651294 0.03933924
-0.127627 0.09251692 0.08480554 0.11386673 0.01719692 -0.102993645 0.061559957 -0.14020544
0.10879211 0.14041197 -0.10243931 -0.05204723 0.009069841 0.13152616 -0.052633315 0.1211353
-0.14727645 -0.13721946 0.052629467 0.10533407 0.053865705 -0.006322871 0.08798174 0.1220304
-0.1543409 -0.15132262 -0.040347625 -0.057574894 0.031765383 -0.007821424 -0.038280237 -0.056335468
0.011933244 0.06482077 0.11660417 -0.088085465 -0.072677374 0.05883901 -0.13228941 -0.10478543
0.07573141 0.012510599 0.1095562 0.045246653 0.13955435 0.16178314 0.1367377 0.12125806
0.15300101 0.016263165 -0.07977943 0.11238286 -0.06776421 -0.024011942 -0.076352514 -0.0947431
-0.045119084 0.033045992 -0.13399416 -0.06501702 0.116467275 0.1287542 0.015859172 0.027708406
00000000: 67ff 123c 147c 41bd 3c30 e1bd 445d 453d
00000010: ac37 a03d 71e2 87bd 92e9 92bc 5858 80bd
00000020: 9f1d 32bd 57e0 05be ef7a 043e 12b3 8cbd
00000030: 1053 17be 047b 853d b82d 473d 3b06 913d
00000040: 10a3 9ebd 7a91 77bd c253 acbd bdf9 d23d
00000050: f154 8fbd bdd7 c6bd f735 0f3e 2204 833d
00000060: ddcc 9a3d d2e7 e23d e707 6fbd dfc6 90bd
00000070: 2f36 953d 1308 e0bc 569e eebd 2f22 213d
00000080: a7b0 02be 8379 bd3d 87ae ad3d f632 e93d
00000090: 8ee0 8c3c 55ee d2bd 4b26 7c3d 0492 0fbe
000000a0: 66ce de3d 28c8 0f3e b3cb d1bd 7a2f 55bd
000000b0: ac99 143c cbae 063e 0896 57bd c915 f83d
000000c0: a3cf 16be 4283 0cbe ff91 573d 64b9 d73d
000000d0: 49a2 5c3d 1630 cfbb c52f b43d 13eb f93d
000000e0: 8a0b 1ebe 51f4 1abe 8d43 25bd a7d3 6bbd
000000f0: 6b1c 023d 6e25 00bc bdcb 1cbd 05c0 66bd
00000100: a783 433c c0c0 843d 2bce ee3d 2766 b4bd
00000110: e0d7 94bd 2c01 713d e076 07be be99 d6bd
00000120: 1219 9b3d 41f9 4c3c 005f e03d 8e54 393d
00000130: 56e7 0e3e 7baa 253e f804 0c3e 2556 f83d
00000140: 4cac 1c3e 543a 853c 6663 a3bd fc28 e63d
00000150: f6c7 8abd b1b4 c4bc b55e 9cbd ac08 c2bd
00000160: cace 38bd 3c5b 073d c435 09be a527 85bd
00000170: 6586 ee3d 24d8 033e 18eb 813c bdfc e23c

fc3.bias f4 [3]
-0.07024805 -0.015500436 -0.098848045
00000000: 36de 8fbd 8af5 7dbc d870 cabd
