route_TSC/model/0.5_astar_dqn_joint_0315/ep25/target_q_netveh.pt (torch, 13784 bytes, 6 tensors)

fc1.weight f4 [64, 8]
0.27511248 0.16468892 -0.46354473 0.27858225 -0.20870438 -0.39408645 0.014089041 -0.23685779
-0.2477132 0.021690927 0.31590164 -0.20018232 0.20630275 0.21659262 0.23099832 -0.24676377
-0.21594962 0.003879949 0.0043073413 -0.040935345 -0.08816604 0.10973484 -0.1345221 0.15556155
-0.101262316 -0.31982684 -0.37551427 0.09485608 0.03911067 -0.29115388 -0.30782908 0.061172552
0.21073811 0.21941158 0.19598164 0.021056617 -0.26032797 -0.17240964 0.27927494 0.099870905
0.18463269 -0.2465573 -0.12538901 -0.028312093 -0.19577913 0.091208726 -0.0645859 0.12101037
-0.0047029294 0.27536398 0.07171605 -0.14022106 -0.051365376 0.18705463 0.3067616 0.030536195
0.10696926 0.15719604 -0.53799015 -0.31838334 0.0776371 -0.4539602 -0.40489456 -0.8444484
-0.061642215 0.3572561 0.64393944 0.4277485 -0.10908571 0.7433603 0.13549903 0.120128304
-1.0778247 -0.019940553 0.2696139 0.0944652 0.022977522 0.24090621 -0.17287984 0.28031394
0.15305997 0.20570152 0.18576019 -0.11717433 -0.3209026 -0.26958856 0.11708824 -0.13300368
-0.44851416 0.056750987 0.0816843 -0.12417337 0.06583126 -0.31356543 -0.046372216 -0.51600814
0.2691447 0.34739426 0.1775109 -0.17008057 -0.26411915 -0.30698544 -0.21368077 -0.103645205
-0.08545592 0.037478168 0.20934078 0.08749432 0.089360885 0.6609386 -0.64688206 0.39246807
-0.1274261 -0.21078391 -0.28190598 -0.16202296 -0.07499232 -0.011447089 -0.15877515 0.16524386
-0.112598814 -0.23300873 -0.3455172 -0.17064346 0.16977455 -0.52880573 -0.7026106 -0.3460012
0.38002324 -0.04950647 0.42880747 -0.12436653 -0.14289816 -0.0019002358 0.29818672 -0.0029542146
-0.3331252 -0.39683634 -0.4831523 -0.25229773 0.09872778 -0.53000474 0.51475483 -0.20390229
-0.3544972 0.0043543447 0.05770103 -0.29132026 0.22259298 0.5528112 -0.1071216 0.017604256
-0.12361763 0.28037223 -0.122890234 0.060090438 -0.2888181 0.071515374 -0.26352128 -0.050281342
0.12647048 -0.040728506 -0.23951286 -0.011789316 -0.09061295 -0.16664335 0.13911 0.14767207
-0.13800406 -0.08001201 -0.11387734 -0.0633284 -0.27942708 0.23566982 -0.12449744 -0.31045574
0.16179563 0.23864454 0.39143738 -0.1511657 -0.096787415 0.14265528 0.26664284 0.06434472
-0.35273165 0.16722316 -0.31809172 0.024540978 0.14767969 -0.7564796 -0.18143243 -0.33395177
-0.13135564 -0.35308188 -0.3819723 -0.40760764 0.09461896 -0.37099436 0.27953425 -0.44240683
-0.30137143 -0.019422991 -0.14246756 0.07720817 0.19275819 0.04895333 -0.39072496 0.18046369
0.25124457 -0.11312696 0.214685 -0.30252498 -0.27094263 0.10784755 0.22540917 0.16669218
0.015014713 0.2156882 0.29329818 -0.3092584 -0.29820862 -0.11265358 -0.09805341 0.0901645
-0.032699108 -0.07273143 -0.50944567 -0.07095909 0.06981337 -0.22898631 -0.076436795 -0.48540646
0.073774755 -0.2889523 -0.36228883 0.13190398 0.0048887036 0.055348665 -0.31738874 0.19987138
0.31457552 0.23483603 0.03461054 0.23227575 0.020894704 -0.39595568 0.48093218 -0.40324733
-0.10719322 -0.24971104 -0.51561534 -0.16843404 0.05992588 -0.6648869 -0.07237349 -0.039905913
00000000: 8bdb 8c3e 36a4 283e bc55 edbe 55a2 8e3e
00000010: 9ab6 55be b3c5 c9be b9d5 663c d98a 72be
00000020: 87a8 7dbe 2cb1 b13c dcbd a13e 98fc 4cbe
00000030: 0741 533e 75ca 5d3e d38a 6c3e a4af 7cbe
00000040: e621 5dbe be46 7e3b 9924 8d3b d2ab 27bd
00000050: 6690 b4bd a9bc e03d 29c0 09be 874b 1f3e
00000060: 9e62 cfbd 58c0 a3be 6843 c0be e843 c23d
00000070: 8332 203d 1f12 95be c69b 9dbe 1290 7a3d
00000080: bbcb 573e 6ead 603e 69af 483e ed7e ac3c
00000090: b549 85be 278c 30be 20fd 8e3e 1e89 cc3d
000000a0: 5a10 3d3e 8479 7cbe fa65 00be c3ee e7bc
000000b0: 537a 48be a4cb ba3d 9d45 84bd 49d4 f73d
000000c0: 081b 9abb 82fc 8c3e dddf 923d 1c96 0fbe
000000d0: 8064 52bd 408b 3f3e db0f 9d3e 0b27 fa3c
000000e0: b312 db3d 00f8 203e b9b9 09bf 2403 a3be
000000f0: 3300 9f3d 796d e8be 574e cfbe c52d 58bf
00000100: 8c7c 7cbd 46ea b63e 37d9 243f da01 db3e
00000110: 5468 dfbd dc4c 3e3f 42c0 0a3e d405 f63d
00000120: 29f6 89bf 5f5a a3bc d50a 8a3e f976 c13d
00000130: 5b3b bc3c 1eb0 763e 6a07 31be 4f85 8f3e
00000140: c1bb 1c3e 6ba3 523e eb37 3e3e 18f9 efbd
00000150: 584d a4be 8307 8abe f6cb ef3d 1e32 08be
00000160: a6a3 e5be b973 683d 194a a73d 9c4e febd
00000170: 8ad2 863d a68b a0be cbf0 3dbd 1c19 04bf
00000180: 56cd 893e a9dd b13e 6bc5 353e 9a29 2ebe
00000190: a03a 87be 322d 9dbe 22cf 5abe f043 d4bd
000001a0: 8303 afbd b582 193d 6e5d 563e 3930 b33d
000001b0: d702 b73d 4633 293f 109a 25bf 93f1 c83e
000001c0: fd7b 02be bdd7 57be fb55 90be 59e9 25be
000001d0: 9395 99bd 928c 3bbc f495 22be b035 293e
000001e0: 359a e6bd d799 6ebe a1e7 b0be 29bd 2ebe
000001f0: 61d9 2d3e d05f 07bf 4ade 33bf 1227 b1be
00000200: 6892 c23e 4cc7 4abd a78c db3e e1b3 febd
00000210: e553 12be 5511 f9ba eeab 983e 7f9b 41bb
00000220: 638f aabe 222e cbbe bd5f f7be 2b2d 81be
00000230: ca31 ca3d 64ae 07bf f9c6 033f c3cb 50be
00000240: a880 b5be e4ae 8e3b ea57 6c3d ee27 95be
00000250: 6aef 633e 0985 0d3f 9262 dbbd cd36 903c
00000260: 3d2b fdbd f38c 8f3e e0ad fbbd 6421 763d
00000270: f7df 93be a776 923d 43ec 86be cff3 4dbd
00000280: 7a81 013e efd2 26bd dc42 75be fa27 41bc
00000290: 4893 b9bd 8ea4 2abe da72 0e3e 5937 173e
000002a0: f050 0dbe 56dd a3bd 8638 e9bd 52b2 81bd
000002b0: 1111 8fbe 6e53 713e 84f8 febd 0ef4 9ebe
000002c0: c1ad 253e 3c5f 743e 7b6a c83e 2ecb 1abe
000002d0: 7b38 c6bd 3a14 123e 6985 883e 2ac7 833d
000002e0: 3e99 b4be 8c3c 2b3e ebdc a2be 290a c93c
000002f0: 5839 173e a6a8 41bf 6cc9 39be bafb aabe
00000300: 1882 06be 26c7 b4be e091 c3be f3b1 d0be
00000310: 96c7 c13d f9f2 bdbe 1d1f 8f3e 2683 e2be
00000320: 5b4d 9abe f71c 9fbc 04e3 11be 511f 9e3d
00000330: 6762 453e 4983 483d 1a0d c8be 79cb 383e
00000340: 21a3 803e 1caf e7bd 62d6 5b3e 8ee4 9abe
00000350: feb8 8abe 2ddf dc3d a9d1 663e 5bb1 2a3e
00000360: 4500 763c 5edd 5c3e 2e2b 963e 1e57 9ebe
00000370: cdae 98be ecb6 e6bd 3ad0 c8bd 2aa8 b83d
00000380: 80ef 05bd 37f4 94bd 086b 02bf 0053 91bd
00000390: 50fa 8e3d 637b 6abe e58a 9cbd 3287 f8be
000003a0: 3817 973d 8ef1 93be ec7d b9be d611 073e
000003b0: 6b31 a03b 48b5 623d c780 a2be 15ab 4c3e
000003c0: 0b10 a13e db78 703e c8c3 0d3d b2d9 6d3e
000003d0: 5f2b ab3c b4ba cabe be3c f63e 6f76 cebe
000003e0: 1e88 dbbd 40b4 7fbe 5eff 03bf f979 2cbe
000003f0: d774 753d 0736 2abf 8d38 94bd 6274 23bd

fc1.bias f4 [64]
-0.1332209 0.2946801 0.09189092 -0.26713398 0.2733649 0.2780272 0.32926247 -0.8524199
0.3968237 -0.009315289 0.18743657 0.038388774 -0.10279185 0.25359887 0.3169789 -0.16629201
-0.112657025 0.037111163 0.5399957 -0.28253293 0.024876513 0.1418143 0.39292496 -0.70941514
-0.740759 0.26287052 0.1989562 0.33604822 -0.41853943 -0.4501473 -0.06295007 -0.5741132
-0.14945047 0.096078396 0.3457556 -0.69854 -0.26722407 0.985597 0.5274463 0.06697751
-0.41963214 0.064587444 -0.22029307 -0.5344092 -0.0955854 0.30000916 -0.47973794 -0.24566486
0.080005005 0.11004811 -0.70306754 -0.5381013 0.03324345 -0.18374555 0.025220897 -0.48533025
-0.117663495 0.14891002 -0.049351532 -0.082619056 0.2259956 -0.4598868 0.24954575 0.20393421
00000000: 0f6b 08be 4fe0 963e 4f31 bc3d c9c5 88be
00000010: 7cf6 8b3e 9559 8e3e 1795 a83e 3138 5abf
00000020: 7a2c cb3e 279f 18bc 5fef 3f3e 8c3d 1d3d
00000030: 8984 d2bd b6d7 813e 0f4b a23e 7448 2abe
00000040: bab8 e6bd e001 183d 283d 0a3f 28a8 90be
00000050: d4c9 cb3c c537 113e 762d c93e 3b9c 35bf
00000060: 62a2 3dbf f796 863e 2dbb 4b3e 830e ac3e
00000070: cd4a d6be b579 e6be f7eb 80bd 15f9 12bf
00000080: 8b09 19be c0c4 c43d e106 b13e 84d3 32bf
00000090: 98d1 88be 1650 7c3f b906 073f 812b 893d
000000a0: 06da d6be 6c46 843d 8294 61be 0bcf 08bf
000000b0: 47c2 c3bd cd9a 993e 36a0 f5be 928f 7bbe
000000c0: aad9 a33d e760 e13d 3cfc 33bf 02c1 09bf
000000d0: 492a 083d cb27 3cbe 0e9c ce3c 357d f8be
000000e0: 8ff9 f0bd de7b 183e d524 4abd 2e34 a9bd
000000f0: 646b 673e 4876 ebbe ec88 7f3e 21d4 503e

fc2.weight f4 [32, 64]
0.08269439 0.08656239 0.00096609304 -0.024678197 0.08389286 0.1149394 -0.11571373 0.09683617
-0.16641326 -0.2674306 0.120315105 -0.060123373 -0.10762023 0.0061638383 0.09678633 0.07811933
-0.2257138 0.041508757 -0.1118699 0.145499 0.093431406 -0.06613587 -0.0034219779 -0.05060731
-0.02215671 0.046612985 -0.016398326 0.03858748 -0.12050697 -0.04959822 -0.10828833 -0.06338523
-0.1109604 0.017035613 -0.07320752 0.0774267 0.070870735 -0.009099134 -0.118014246 0.015443431
-0.13401449 -0.02121732 -0.04715469 0.057585746 0.10718462 0.050892483 0.05453975 0.089108646
0.013200021 -0.008561612 0.097106166 0.10642338 0.261763 0.07351413 -0.086393215 0.009624984
-0.06844755 -0.08463933 0.14887653 -0.1147724 0.024560185 0.04821084 -0.12957892 0.06279186
-0.08478551 -0.13454157 -0.03630663 0.06709297 0.08092833 0.06641135 -0.003838988 -0.020232642
-0.011352699 -0.06019474 -0.09422088 -0.07288606 0.04874728 -0.06206095 -0.04395354 -0.12953272
0.07649451 0.043846816 -0.091338016 0.12108794 -0.028948523 0.024488406 0.051197067 0.06497144
-0.023799956 0.04981005 -0.009245571 0.10428609 0.07780524 -0.031207535 0.076100975 -0.034360096
-0.07157108 -0.019720133 -0.07020508 0.022147981 -0.13775 -0.05378216 -0.020266565 0.08036908
-0.056101352 0.060592845 0.020997986 -0.104561634 0.109307185 -0.03464067 -0.014608743 0.010841081
-0.04743531 -0.08451465 0.04399536 0.058650795 0.06622073 0.08151805 -0.1105617 0.05765792
0.0020925498 0.061742656 -0.048764747 -0.05460356 0.08810596 -0.12960236 0.08468325 -0.059549917
-0.04917046 -0.104985185 -0.06469093 0.05196605 0.053796504 -0.052108876 -0.0018832006 -0.1321024
-0.06825799 -0.038638588 -0.03852238 -0.024567924 -0.06050619 -0.08563635 -0.064044915 0.06332746
-0.10686529 0.025897488 0.035327476 0.00056285097 -0.03814802 -0.08384866 0.081436366 0.07233671
0.069603086 0.028200304 0.0936888 -0.094777934 0.034278788 -0.009688211 -0.10306372 0.0036518236
0.033136368 0.0978584 -0.013813459 -6.916458e-05 -0.11138702 0.10301157 0.027848512 -0.02721313
0.073813565 -0.09808612 0.06887883 0.043957897 0.037826877 -0.020564185 -0.08830869 -0.13762243
0.060228944 0.038817 0.07548071 -0.080516934 0.025283813 0.08923886 -0.01759405 -0.036000907
-0.0650331 -0.12457022 0.087319925 -0.13235646 -0.0062558935 -0.14197007 0.09768272 -0.09257288
0.067278355 -0.004145237 0.057535656 -0.0052450704 -0.051645186 0.067808576 -0.17740487 -0.11033646
0.08486944 0.33374482 0.03658411 0.08354309 0.14088084 0.091162056 0.02019038 0.06466597
-0.06144346 0.16859533 0.06842954 0.0011302091 -0.055138804 -0.025628006 0.021552948 0.032325745
0.07724366 -0.00979177 0.04690911 0.044201776 0.043235127 0.05363647 0.105207905 -0.02748709
-0.09803704 0.044424955 -0.021881724 -0.105948724 -0.1129347 0.12811154 -0.0608504 -0.09451014
0.07066407 0.07189153 0.11285055 0.040926483 -0.04661354 0.07403875 -0.06315568 0.097198926
2.2233826e-05 0.018587304 -0.0016836495 -0.12928317 -0.054684848 -0.10036101 -0.0560247 -0.084135175
-0.06331927 -0.057582162 -0.12548931 -0.12473612 -0.059566624 -0.08112747 0.11399362 0.08514422
00000000: ad5b a93d 9f47 b13d 6841 7d3a ee29 cabc
00000010: 05d0 ab3d 5965 eb3d 52fb ecbd 0b52 c63d
00000020: 3d68 2abe aaec 88be c467 f63d ed43 76bd
00000030: ff67 dcbd 06fa c93b e937 c63d 07fd 9f3d
00000040: 8521 67be 1605 2a3d 0c1c e5bd b1fd 143e
00000050: f758 bf3d 3e72 87bd 4343 60bb 9c49 4fbd
00000060: fd81 b5bc 42ed 3e3d c855 86bc e80d 1e3d
00000070: 5ccc f6bd 8127 4bbd 46c6 ddbd 1ed0 81bd
00000080: 353f e3bd 458e 8b3c d3ed 95bd e491 9e3d
00000090: ad24 913d 8914 15bc 74b1 f1bd 7206 7d3c
000000a0: 183b 09be f2cf adbc 4725 41bd 08df 6b3d
000000b0: 9c83 db3d a374 503d 1365 5f3d 987e b63d
000000c0: e744 583c 0146 0cbc 99df c63d 80f4 d93d
000000d0: cd05 863e 948e 963d edee b0bd 1cb2 1d3c
000000e0: 3b2e 8cbd 6357 adbd 1773 183e cb0d ebbd
000000f0: 7132 c93c bb78 453d 56b0 04be 0599 803d
00000100: 07a4 adbd 44c5 09be 43b6 14bd 0a68 893d
00000110: c1bd a53d ad02 883d 8897 7bbb edbe a5bc
00000120: ac00 3abc c28e 76bd e0f6 c0bd 4945 95bd
00000130: 3aab 473d 9f33 7ebd a108 34bd 3aa4 04be
00000140: 27a9 9c3d b898 333d 6d0f bbbd f4fc f73d
00000150: 7425 edbc e99b c83c 04b4 513d bf0f 853d
00000160: 20f8 c2bc 9f05 4c3d bc7a 17bc f293 d53d
00000170: 5b58 9f3d f2a6 ffbc d4da 9b3d 2cbd 0cbd
00000180: dc93 92bd 1e8c a1bc aec7 8fbd af6f b53c
00000190: 560e 0dbe af4a 5cbd 1106 a6bc 8b98 a43d
000001a0: 88ca 65bd 3430 783d f803 ac3c 6924 d6bd
000001b0: 72dc df3d 60e3 0dbd 8259 6fbc ca9e 313c
000001c0: 874b 42bd 0416 adbd 7b34 343d d13b 703d
000001d0: bc9e 873d eff2 a63d 2c6e e2bd b62a 6c3d
000001e0: 2923 093b dee5 7c3d 8bbd 47bd fca7 5fbd
000001f0: e670 b43d 7bb6 04be 696e ad3d 9dea 73bd
00000200: f766 49bd 7902 d7bd ae7c 84bd 5ada 543d
00000210: b959 5c3d 1e70 55bd bad5 f6ba da45 07be
00000220: d8ca 8bbd 7f43 1ebd a5c9 1dbd ac42 c9bc
00000230: 57d5 77bd 1c62 afbd fb29 83bd d4b1 813d
00000240: 30dc dabd f826 d43c 8bb3 103d 4a8c 133a
00000250: 1941 1cbd d9b8 abbd 1cc8 a63d 4525 943d
00000260: 108c 8e3d 5304 e73c eadf bf3d ef1a c2bd
00000270: ea67 0c3d 4dbb 1ebc 1213 d3bd 6f53 6f3b
00000280: 00ba 073d fc69 c83d d951 62bc 730c 91b8
00000290: e11e e4bd bbf7 d23d 9022 e43c 12ee debc
000002a0: 912b 973d 60e1 c8bd 5810 8d3d 320d 343d
000002b0: 5bf0 1a3d 3976 a8bc 30db b4bd e5ec 0cbe
000002c0: a0b2 763d 93fe 1e3d a195 9a3d 10e6 a4bd
000002d0: 0020 cf3c ddc2 b63d 6621 90bc b075 13bd
000002e0: 1330 85bd ac1e ffbd cad4 b23d 7488 07be
000002f0: 3dfe ccbb 9a60 11be e10d c83d da96 bdbd
00000300: 3cc9 893d c5d4 87bb 82aa 6b3d d7de abbb
00000310: e789 53bd 39df 8a3d 9fa9 35be 15f8 e1bd
00000320: 07d0 ad3d 9ae0 aa3e 38d9 153d a418 ab3d
00000330: 1143 103e 2cb3 ba3d 4c66 a53c 986f 843d
00000340: 23ac 7bbd 41a4 2c3e c924 8c3d 8623 943a
00000350: 3ad9 61bd d3f1 d1bc cf8f b03c 0068 043d
00000360: ed31 9e3d a96d 20bc c423 403d ec0c 353d
00000370: 5117 313d eab1 5b3d 3e77 d73d 9b2c e1bc
00000380: a5c7 c8bd f1f6 353d 4d41 b3bc a5fb d8bd
00000390: 4f4a e7bd ac2f 033e 453e 79bd 888e c1bd
000003a0: 53b8 903d de3b 933d 301e e73d 87a2 273d
000003b0: d7ed 3ebd a1a1 973d c457 81bd 3b10 c73d
000003c0: c782 ba37 6744 983c e7ad dcba cf62 04be
000003d0: 38fd 5fbd 138a cdbd 287a 65bd 104f acbd
000003e0: 89ad 81bd 46db 6bbd 4580 00be a775 ffbd
000003f0: 22fc 73bd 2926 a6bd 7d75 e93d 1860 ae3d

fc2.bias f4 [32]
-0.4290444 -0.0395569 -0.14113854 0.2533454 0.053614035 -0.061969023 -0.31090584 0.555893
0.10053028 -0.036519904 -0.54888016 0.11716782 -0.117874786 0.52475494 -0.16551374 -0.071689226
0.054899674 -0.09367306 0.2719364 -0.46582416 -0.11803852 -0.072242476 0.09234145 0.14899315
-0.062403046 0.23384959 0.043699637 -0.066472985 -0.34857857 -0.54142255 -0.061323017 -0.09853139
00000000: b5ab dbbe 6a06 22bd 9f86 10be 7db6 813e
00000010: 649a 5b3d 3bd3 7dbd 0d2f 9fbe 014f 0e3f
00000020: d2e2 cd3d e595 15bd 6983 0cbf aff5 ef3d
00000030: 5668 f1bd 5756 063f 6f7c 29be cdd1 92bd
00000040: 7bde 603d a9d7 bfbd 3f3b 8b3e 8180 eebe
00000050: 2ebe f1bd ddf3 93bd 841d bd3d a991 183e
00000060: 569a 7fbd 4476 6f3e 64fe 323d fd22 88bd
00000070: e478 b2be ab9a 0abf d82d 7bbd d3ca c9bd

fc3.weight f4 [3, 32]
0.10363983 0.01546493 0.07173946 -0.13282347 -0.008746944 -0.052814223 7.5275944e-05 -0.082572706
0.018548703 -0.003629024 0.088619635 -0.2097911 -0.05127856 -0.10106738 0.13256526 -0.10496598
-0.20678829 0.11283982 -0.13498645 0.02196551 -0.07790735 0.10747795 0.091137335 0.0011511178
0.04462316 -0.06920564 -0.052981433 0.14664066 0.05862006 0.09756709 0.11284692 -0.0986401
-0.078872316 -0.10903187 -0.05084208 0.08240381 -0.013088318 -0.07300677 0.0105363475 -0.09248672
0.09528805 -0.012754517 0.102681726 -0.08087596 0.03710888 -0.06340865 0.021117326 -0.0007060033
0.08388292 -0.10922615 -0.06633581 -0.08445385 0.103823386 0.012502264 -0.15781513 0.00023120883
-0.109681755 -0.088925496 -0.06594083 0.09725837 0.077693805 -0.08288662 0.010522244 -0.01890437
0.022004094 -0.12180057 -0.07979767 -0.19244036 0.07940172 -0.20127812 -0.01471435 -0.063768744
-0.14877962 0.119635135 0.14148301 -0.29021284 0.08255474 -0.08631575 0.17031783 0.15646002
-0.21707675 -0.12014819 -0.022123104 0.06603885 -0.08550515 -0.038878147 -0.1250602 0.045205407
-0.026550027 0.048205253 0.08053471 0.05061243 0.03962226 0.06609727 -0.09123107 0.0865262
00000000: 1f41 d43d 9e60 7d3c 23ec 923d e002 08be
00000010: 584f 0fbc ba53 58bd 77dd 9d38 e11b a9bd
00000020: 73f3 973c ebd4 6dbb 367e b53d 7ad3 56be
00000030: 7809 52bd 6afc cebd 30bf 073e 67f8 d6bd
00000040: 4fc0 53be 9018 e73d e339 0abe 03f1 b33c
00000050: e48d 9fbd 661d dc3d 36a6 ba3d 1be1 963a
00000060: c6c6 363d b0bb 8dbd 0f03 59bd f828 163e
00000070: 971b 703d 41d1 c73d 491c e73d d203 cabd
00000080: cf87 a1bd 1a4c dfbd c93f 50bd 54c3 a83d
00000090: 6270 56bc 9384 95bd a5a0 2c3c ad69 bdbd
000000a0: 6226 c33d 52f8 50bc cc4a d23d 4ca2 a5bd
000000b0: 7bff 173d 65dc 81bd 3efe ac3c 1413 39ba
000000c0: cfca ab3d f6b1 dfbd 12db 87bd 24f6 acbd
000000d0: 5ba1 d43d 4cd6 4c3c 4a9a 21be a670 7239
000000e0: d4a0 e0bd 921e b6bd fc0b 87bd 652f c73d
000000f0: ee1d 9f3d 76c0 a9bd 7d65 2c3c 56dd 9abc
00000100: ee41 b43c 9472 f9bd f66c a3bd 160f 45be
00000110: 5e9d a23d da1b 4ebe 7514 71bc 3099 82bd
00000120: af59 18be 4403 f53d ece0 103e c796 94be
00000130: 7612 a93d 50c6 b0bd cc67 2e3e 0e37 203e
00000140: 5e49 5ebe 4110 f6bd 833b b5bc 603f 873d
00000150: 531d afbd b13e 1fbd c80f 00be 4e29 393d
00000160: 717f d9bc df72 453d 62ef a43d fb4e 4f3d
00000170: f34a 223d 015e 873d 5bd7 babd a634 b13d

fc3.bias f4 [3]
-0.34466314 0.09517001 -0.5632175
00000000: b077 b0be 7fe8 c23d 062f 10bf
