route_TSC/model/0.5_hatt_router_joint_0315/ep90/q_netveh.pt (torch, 510246 bytes, 26 tensors)

attn f4 [1, 2, 37]
1.8254397e+10 2.143e-42 0.0 0.0 0.0 0.0 0.0 0.0
0.0 0.0 0.0 0.0 0.0 0.0 0.0 0.0
0.0 0.0 0.0 0.0 0.0 0.0 0.0 0.0
0.0 0.0 0.0 0.0 0.0 0.0 0.0 0.0
0.0 0.0 0.0 0.0 0.0 0.0 0.0 0.0
0.0 0.0 0.0 0.0 0.0 0.0 0.0 0.0
0.0 0.0 0.0 0.0 0.0 0.0 0.0 0.0
0.0 0.0 0.0 0.0 0.0 0.0 0.0 0.0
0.0 0.0 0.0 0.0 0.0 0.0 0.0 0.0
0.0 0.0
00000000: 8001 8850 f905 0000 0000 0000 0000 0000
00000010: 0000 0000 0000 0000 0000 0000 0000 0000
00000020: 0000 0000 0000 0000 0000 0000 0000 0000
00000030: 0000 0000 0000 0000 0000 0000 0000 0000
00000040: 0000 0000 0000 0000 0000 0000 0000 0000
00000050: 0000 0000 0000 0000 0000 0000 0000 0000
00000060: 0000 0000 0000 0000 0000 0000 0000 0000
00000070: 0000 0000 0000 0000 0000 0000 0000 0000
00000080: 0000 0000 0000 0000 0000 0000 0000 0000
00000090: 0000 0000 0000 0000 0000 0000 0000 0000
000000a0: 0000 0000 0000 0000 0000 0000 0000 0000
000000b0: 0000 0000 0000 0000 0000 0000 0000 0000
000000c0: 0000 0000 0000 0000 0000 0000 0000 0000
000000d0: 0000 0000 0000 0000 0000 0000 0000 0000
000000e0: 0000 0000 0000 0000 0000 0000 0000 0000
000000f0: 0000 0000 0000 0000 0000 0000 0000 0000
00000100: 0000 0000 0000 0000 0000 0000 0000 0000
00000110: 0000 0000 0000 0000 0000 0000 0000 0000
00000120: 0000 0000 0000 0000

fc0.weight f4 [32, 2315]
-0.004357701 0.008814929 0.0192191 0.0066023506 0.01853162 -0.00846886 0.019472517 -0.010787248
0.017480366 0.010433188 -0.0016244892 0.017195284 0.00086382404 0.020086564 0.020552859 0.019952279
-0.020719824 -0.01988453 0.010222303 0.0055162627 -0.020333922 0.014278341 -0.0007762164 0.017374348
-0.018834794 0.013821851 -0.0038877167 0.0016122572 0.0130372755 -0.010089437 -0.006396832 -0.019325186
0.0036242362 -0.0068158396 -0.01198172 -0.011908576 0.019954097 0.005410591 0.017103672 -0.008235307
-0.015473023 0.0058951452 0.012005046 -0.005812713 -0.0012361743 -0.014405549 -0.019806348 0.00076827966
0.008113958 -0.003907511 -0.0069007445 0.006157823 0.008600224 0.019870058 0.0011163391 -0.013914276
-0.0052885106 -0.0027953759 -0.0056370627 0.011218406 0.007103866 0.013325375 -0.014985708 0.014197271
-0.007386703 -0.014468076 0.0064643174 -0.013957499 0.01440664 0.010807697 -0.015858477 -0.012477423
0.0070257504 -0.009042338 0.011029493 0.004284231 -0.013884973 0.017957926 0.0061430316 0.018431496
-0.0004942324 -0.003518708 0.007637216 -0.0019362997 -0.020593058 -0.019525604 -0.011782855 -0.018882576
-0.004883282 -0.017376315 0.0060378313 -0.019472051 -0.0036501065 -0.01810685 -0.018111562 0.0155225545
0.009944379 0.0067675672 0.018710613 0.01637156 -0.007238875 0.0139008835 -0.0038771722 0.00901814
-0.005940957 0.002597833 -0.0008757189 -0.017294396 -0.0149471145 0.009248354 -0.005436952 -0.0021932032
0.012853876 -0.007924718 -0.008375124 -0.015520888 0.012326505 0.010200404 -0.0021217708 0.007865641
-0.012358992 -0.0128005445 0.017387439 -0.0012300741 -0.011173697 0.0110861175 0.010924626 -0.003616672
0.0077599715 0.004139181 0.012663521 -0.0018167067 0.001651058 -0.006224137 0.0092405435 0.00089142285
0.006633615 -0.016573928 -0.016710706 -0.0009842962 -0.016812164 -0.0046735555 -0.016770275 0.013718236
0.004247289 -0.01308303 0.016785033 0.01868968 0.0070454907 0.00279589 -0.0067111226 -0.006318668
0.017151374 0.009878095 -0.015703397 0.011802286 -0.0033297688 0.013495546 -0.010002843 0.003396457
-0.010222965 0.020005614 0.00079878606 0.0034053363 -0.007420173 -0.003076259 0.0029549804 0.0068342574
-0.004568264 0.003892459 0.009280473 -0.015370358 0.0034329556 0.00353181 0.0040666685 0.0071271546
-0.0038024131 -0.0013277605 -0.01997574 0.017107166 -0.017038643 -0.011820485 -0.017345633 -0.006040699
-0.015858237 -0.009039659 -0.019384468 0.010299224 -0.016876282 -0.0011889692 -0.010293441 0.008742826
0.015432015 -0.014266814 -0.0036131423 0.0028576516 0.0020280052 0.012230296 -0.009628671 0.0016364288
0.006262958 0.0007208977 0.014208987 0.013815042 -0.017730579 0.0061624125 0.008799598 -0.01655262
0.0020361375 0.016348056 0.018533476 0.015522022 0.017547488 -0.017496374 -0.011265408 -0.018734798
0.018862154 0.014054805 -0.01640048 0.009917274 -0.008179169 -0.0014109369 5.9645623e-05 0.012322951
0.016431492 0.0066246707 -0.018802969 -0.006714834 -0.013912326 0.017545275 0.0027125105 -0.00034210645
-0.02000785 0.01382209 -0.016239159 -0.0077030454 -0.013486331 0.0149907805 -0.0011033155 -0.0072357394
0.0036933552 0.004562393 -0.018933846 0.009748926 0.00040226057 -0.019057535 -0.0077147866 0.013422705
0.015320122 0.0118411705 0.020724278 0.006819878 -0.0006084759 -0.016265932 -0.015189958 -0.005279973
00000000: 0ccb 8ebb 7e6c 103c 6071 9d3c 8858 d83b
00000010: a0cf 973c f9c0 0abc d484 9f3c ffbc 30bc
00000020: fc32 8f3c f6ef 2a3c d0ec d4ba 20dd 8c3c
00000030: 4072 623a 948c a43c 785e a83c f672 a33c
00000040: 9fbc a9bc e2e4 a2bc 727b 273c c4c1 b43b
00000050: 5393 a6bc b4ef 693c 007b 4bba a654 8e3c
00000060: 6d4b 9abc 0c75 623c 10c9 7ebb 6052 d33a
00000070: 4c9a 553c 2a4e 25bc 849c d1bb da4f 9ebc
00000080: 9884 6d3b 6857 dfbb fa4e 44bc 301c 43bc
00000090: c676 a33c 544b b13b 001d 8c3c 62ed 06bc
000000a0: 9082 7dbc 102c c13b d0b0 443c 9278 bebb
000000b0: 2007 a2ba 4005 6cbc ec40 a2bc 6066 493a
000000c0: 68f0 043c 940a 80bb a41f e2bb 90c7 c93b
000000d0: f4e7 0c3c 88c6 a23c 2052 923a b4f8 63bc
000000e0: 3e4b adbb a032 37bb 1cb7 b8bb 68cd 373c
000000f0: 8cc7 e83b ac52 5a3c 9d86 75bc ac9b 683c
00000100: 280c f2bb 820b 6dbc a0d2 d33b fead 64bc
00000110: d409 6c3c c412 313c a3e9 81bc 1b6e 4cbc
00000120: 4438 e63b 5026 14bc 0cb5 343c bc62 8c3b
00000130: cc7d 63bc 801c 933c 7c4b c93b a6fd 963c
00000140: 608f 01ba 209a 66bb 9c41 fa3b 70cb fdba
00000150: c6b2 a8bc 29f4 9fbc e00c 41bc a2af 9abc
00000160: f003 a0bb c658 8ebc 00d9 c53b da83 9fbc
00000170: a036 6fbb d154 94bc b35e 94bc 5052 7e3c
00000180: c0ed 223c 78c2 dd3b 0047 993c a61d 863c
00000190: 1634 edbb 88c0 633c 2818 7ebb d2c0 133c
000001a0: 5cac c2bb 6840 2a3b 8090 65ba faac 8dbc
000001b0: bee4 74bc 6886 173c 7628 b2bb d8bb 0fbb
000001c0: 1099 523c add6 01bc d137 09bc 534b 7ebc
000001d0: 1cf5 493c 981f 273c 680d 0bbb e4de 003c
000001e0: 5f7d 4abc 60b9 51bc 1a70 8e3c 703a a1ba
000001f0: e211 37bc 8ca2 353c 34fd 323c b005 6dbb
00000200: 5c47 fe3b f8a1 873b a87a 4f3c 901e eeba
00000210: 5068 d83a d8f3 cbbb a665 173c 60ae 693a
00000220: cc5e d93b 0cc6 87bc e4e4 88bc 8003 81ba
00000230: aab9 89bc a024 99bb d161 89bc 74c2 603c
00000240: d82c 8b3b 345a 56bc c480 893c 1a1b 993c
00000250: dcdd e63b 403b 373b fae8 dbbb d40c cfbb
00000260: 0a81 8c3c bcd7 213c 69a4 80bc 605e 413c
00000270: 4038 5abb 6c1c 5d3c f7e2 23bc 1897 5e3b
00000280: 397e 27bc d0e2 a33c a065 513a 102c 5f3b
00000290: ec24 f3bb 109b 49bb 58a8 413b e8f1 df3b
000002a0: 60b1 95bb a018 7f3b 200d 183c f4d3 7bbc
000002b0: 70fb 603b f075 673b b041 853b e88a e93b
000002c0: e831 79bb 4008 aeba 2aa4 a3bc 5424 8c3c
000002d0: a094 8bbc b5aa 41bc 6e18 8ebc 0ef1 c5bb
000002e0: 22e9 81bc 141b 14bc 2dcc 9ebc 14be 283c
000002f0: 2140 8abc 30d7 9bba d2a5 28bc 123e 0f3c
00000300: 90d6 7c3c 5bbf 69bc 78ca 6cbb 7047 3b3b
00000310: 48e8 043b 9461 483c 93c1 1dbc 707d d63a
00000320: 8039 cd3b a0fa 3c3a d0cc 683c 7c58 623c
00000330: b83f 91bc 10ee c93b 302c 103c 5c99 87bc
00000340: b870 053b 5cec 853c 84d3 973c 1450 7e3c
00000350: c0bf 8f3c 8e54 8fbc 8c92 38bc b879 99bc
00000360: ce84 9a3c 2046 663c 4d5a 86bc 107c 223c
00000370: ec01 06bc 30ef b8ba 002c 7a38 34e6 493c
00000380: 569b 863c c413 d93b af08 9abc 1c08 dcbb
00000390: 86f0 63bc 1cbb 8f3c 60c4 313b c05c b3b9
000003a0: 81e7 a3bc 0c76 623c fc07 85bc d469 fcbb
000003b0: c6f5 5cbc e49b 753c 209d 90ba c819 edbb
000003c0: 380c 723b 2080 953b 271b 9bbc f6b9 1f3c
000003d0: 80e6 d239 8c1e 9cbc 52cc fcbb e8ea 5b3c
000003e0: 4001 7b3c 7801 423c f6c5 a93c 4879 df3b
000003f0: 2082 1fba 2240 85bc 4ddf 78bc a003 adbb

fc0.bias f4 [32]
-0.0079180105 0.017469488 0.015623353 -0.014317643 -0.020015199 -0.01444856 -0.0080651175 0.011079192
-0.007021876 0.003368765 8.7244436e-05 -0.0060719717 -0.005529876 -0.016265944 -0.014204274 0.01407484
0.018791933 0.0027216002 0.014566436 -0.010387977 -0.0040988326 0.019414209 -0.001017712 -0.017630776
-0.020720908 0.00066602044 -0.0137126595 -0.011988071 -0.0100275725 -0.009587463 -0.000932239 -0.017681135
00000000: 8bba 01bc 2c1c 8f3c 18f9 7f3c 8c94 6abc
00000010: eaf6 a3bc a7b9 6cbc 8e23 04bc 8085 353c
00000020: c417 e6bb 80c6 5c3b 00f7 b638 64f7 c6bb
00000030: f633 b5bb 2840 85bc 0bb9 68bc 289a 663c
00000040: 8af1 993c e05c 323b 10a8 6e3c 5532 2abc
00000050: 804f 86bb 8c0a 9f3c c064 85ba 6b6e 90bc
00000060: e5be a9bc e097 2e3a 10ab 60bc 9d69 44bc
00000070: b04a 24bc bc14 1dbc 8061 74ba 07d8 90bc

fc1.weight f4 [32, 32]
0.10920155 -0.43015778 0.05127743 0.10115703 -0.112713985 0.057461333 -0.046436734 -0.08286463
-0.30914268 0.18186551 0.1740245 -0.20502412 -0.31443146 -0.6073812 0.11030226 -0.1417551
0.10447381 -0.42265788 -0.22013548 0.04942762 0.033799257 0.23323727 0.01529825 -0.11064368
-0.017786276 -0.11145092 0.1126738 -0.15242527 -0.6072131 0.32691014 -0.09756993 0.2796989
-0.62072915 -0.1605503 -0.8137488 -0.028751293 -0.14321268 -0.03197534 0.26401573 -0.24888147
0.045305453 -0.8437255 -0.09576426 -0.27355883 0.004005599 -0.13168101 0.10997951 0.13899715
0.050154127 0.18504357 0.29872796 0.34452555 -0.13453831 -0.17321661 -0.2214268 0.14608793
0.089932226 0.39163458 0.019267246 0.10066142 0.15634307 -0.99105006 0.025934124 0.15720166
0.18575034 0.17267232 0.13998988 0.15544286 -0.036828417 -0.13990489 -0.21530584 -0.33329266
-0.48117515 -0.08705351 0.0968954 0.35622516 0.29353905 0.10363895 -0.017969932 0.09027495
0.3022228 0.21357132 -0.04789903 0.002897578 -0.0024045357 0.12970972 0.07419241 0.040212292
0.23386407 0.19400778 0.2620277 0.12414089 0.32420468 -0.043202575 0.10918905 -0.229121
0.07615647 -0.10301796 0.052057892 -0.06840581 0.11855257 -0.116977155 0.26137778 -0.08677933
0.030954283 0.16496919 0.20676412 -0.017198937 -0.08186719 -0.9606394 0.20703423 -0.053559076
0.049454186 -0.8231228 -0.36439863 0.34065562 -0.28867492 -0.08586114 0.13713442 0.10533125
0.07845777 -0.27202365 -0.038957767 -0.15751244 -0.93126565 0.38850164 -0.09131327 0.10778356
-0.17259978 -0.23278141 -0.5775902 0.0357664 0.36108842 -0.03535783 0.22391707 0.07770585
0.059980057 0.014612533 -0.1027908 0.12418606 -0.20950146 -1.0960747 -0.09050567 -0.029813226
0.21489014 -0.014772876 0.32603383 0.1364928 -0.060535587 0.21321961 -0.41289607 0.036478892
-0.15355645 0.055980675 0.22705302 -0.052611507 0.182742 -0.8787166 -0.14161047 0.10057327
-0.04801165 -0.1510301 -0.4861447 -0.21981074 0.26272938 0.008872588 0.10912882 -0.009812836
0.18010846 -0.8853329 -0.19477211 -0.18984693 -0.18788947 -0.13035908 -0.18647853 0.1102239
0.081750736 -0.10028522 0.06283044 -0.009473184 0.045957115 -0.038572315 0.033120256 0.10290877
0.06877651 -0.048852477 0.21061793 0.18732083 0.0074473443 -0.5696041 0.042114362 -0.5323139
-0.46593338 -1.415674 -0.15265349 -0.042058017 -0.10009308 -0.2636123 0.05065772 -0.26321068
-0.1896273 0.030044938 -0.13777666 -0.13860485 -0.31636629 0.050302684 -0.07884533 -0.72655475
-0.60998577 -0.20172717 0.21642834 0.38244367 -0.34428948 -1.1753366 -0.7878645 0.21318547
0.108470306 -0.030523324 -0.20765282 -0.14415364 -0.28552204 0.6640794 -0.3166955 0.095521554
-0.6547369 -0.15669072 0.26798138 -0.49094364 0.1934787 0.30757964 -0.14417142 -0.5131722
-0.7444609 -0.006573317 0.31110153 -0.027661389 0.11623292 -0.022292668 0.11534974 -0.3479117
0.32861367 -0.04976491 -1.0161324 -0.2717469 -0.4856243 -0.3376998 -0.17094946 -1.4154257
0.07910796 -0.25264227 0.09444727 0.31403354 -0.08736899 -0.14368376 -0.1785933 0.07282353
00000000: 10a5 df3d a43d dcbe 4808 523d 6b2b cf3d
00000010: 97d6 e6bd 935c 6b3d 7234 3ebd eeb4 a9bd
00000020: f347 9ebe f43a 3a3e 7b33 323e d8f1 51be
00000030: 29fd a0be 567d 1bbf 27e6 e13d 4028 11be
00000040: 5df6 d53d 9d66 d8be 326b 61be 9e74 4a3d
00000050: 1771 0a3d c0d5 6e3e 83a5 7a3c 2799 e2bd
00000060: 86b4 91bc 6140 e4bd 85c1 e63d 5f15 1cbe
00000070: 5172 1bbf c460 a73e bed2 c7bd b234 8f3e
00000080: 1be8 1ebf 4c67 24be d751 50bf d587 ebbc
00000090: 58a6 12be 93f8 02bd 122d 873e c9da 7ebe
000000a0: 3692 393d 65fe 57bf 0d20 c4bd e70f 8cbe
000000b0: 6641 833b 63d7 06be f03c e13d 4555 0e3e
000000c0: 6a6e 4d3d 107c 3d3e dff2 983e a765 b03e
000000d0: 69c4 09be b25f 31be b5bd 62be 1398 153e
000000e0: 632e b83d 5484 c83e 58d6 9d3c 9327 ce3d
000000f0: 6618 203e 75b5 7dbf cd73 d43c 79f9 203e
00000100: 5635 3e3e 03d1 303e 8259 0f3e 6a2c 1f3e
00000110: 65d9 16bd 3a43 0fbe 2279 5cbe 56a5 aabe
00000120: 975c f6be 1c49 b2bd 1871 c63d 2563 b63e
00000130: c04a 963e a840 d43d ae35 93bc 13e2 b83d
00000140: f2bc 9a3e 71b2 5a3e c631 44bd 4be5 3d3b
00000150: 6a95 1dbb a0d2 043e 31f2 973d a5b5 243d
00000160: 107a 6f3e faa9 463e 7f28 863e 943d fe3d
00000170: 28fe a53e 2ff5 30bd 829e df3d b29e 6abe
00000180: ecf7 9b3d 15fb d2bd a83a 553d 5818 8cbd
00000190: b1cb f23d b891 efbd 4fd3 853e 5db9 b1bd
000001a0: d693 fd3c afed 283e f9b9 533e c9e4 8cbc
000001b0: fca9 a7bd 77ec 75bf c800 543e c360 5bbd
000001c0: 7990 4a3d 2db8 52bf 7592 babe 6a6a ae3e
000001d0: 33cd 93be f7d7 afbd f76c 0c3e e9b7 d73d
000001e0: 78ae a03d af46 8bbe 2e92 1fbd f14a 21be
000001f0: 6d67 6ebf b0e9 c63e 7402 bbbd a1bd dc3d
00000200: ffbd 30be 405e 6ebe f4dc 13bf ca7f 123d
00000210: 95e0 b83e 5fd3 10bd 844a 653e 3f24 9f3d
00000220: a6ad 753d 6869 6f3c fc83 d2bd 4355 fe3d
00000230: 8d87 56be 2d4c 8cbf 095b b9bd de3a f4bc
00000240: 290c 5c3e ef09 72bc e8ed a63e c5c4 0b3e
00000250: 2af4 77bd 3e56 5a3e 1d67 d3be e46a 153d
00000260: e73d 1dbe fe4b 653d 9680 683e 2a7f 57bd
00000270: b820 3b3e 92f3 60bf 5602 11be 5cf9 cd3d
00000280: dda7 44bd a2a7 1abe f5e7 f8be 1116 61be
00000290: 7784 863e 555e 113c ee7e df3d 04c6 20bc
000002a0: 5a6e 383e 2da5 62bf 5772 47be 3c67 42be
000002b0: 1966 40be da7c 05be 3af4 3ebe 11bd e13d
000002c0: ee6c a73d 5662 cdbd 3fad 803d 6a35 1bbc
000002d0: 873d 3c3d 01fe 1dbd 1ba9 073d d5c1 d23d
000002e0: b3da 8c3d 8919 48bd 3aac 573e 08d1 3f3e
000002f0: da08 f43b 93d1 11bf 1c80 2c3d b945 08bf
00000300: d28e eebe ce34 b5bf 3251 1cbe 0745 2cbd
00000310: 9afd ccbd 31f8 86be 787e 4f3d 8dc3 86be
00000320: a92d 42be cd20 f63c 5315 0dbe 6eee 0dbe
00000330: c3fa a1be 300a 4e3d a979 a1bd 7eff 39bf
00000340: 0728 1cbf 9191 4ebe 649f 5d3e a8cf c33e
00000350: b646 b0be 6e71 96bf 7db1 49bf 4b4d 5a3e
00000360: ae25 de3d 0d0c fabc f1a2 54be 039d 13be
00000370: f22f 92be 1c01 2a3f ea25 a2be cea0 c33d
00000380: d69c 27bf 8873 20be db34 893e f75c fbbe
00000390: 481f 463e 147b 9d3e aca1 13be 415f 03bf
000003a0: fd94 3ebf fb64 d7bb b348 9f3e 239a e2bc
000003b0: 860b ee3d 1d9f b6bc 7c3c ec3d 7b21 b2be
000003c0: 0d40 a83e 4ad6 4bbd a010 82bf 6922 8bbe
000003d0: c0a3 f8be fde6 acbe 600d 2fbe ab2c b5bf
000003e0: 5b03 a23d 545a 81be 926d c13d 01c9 a03e
000003f0: 83ee b2bd d621 13be 29e1 36be 8124 953d

fc1.bias f4 [32]
0.53686315 0.41394934 0.9694395 1.0029491 0.21525477 0.8153271 0.97263885 0.15825658
0.5457115 0.28493834 1.0465454 0.22497578 1.13828 -0.46113953 -0.001404241 0.7203897
0.24017608 0.26512602 0.29190946 -0.22599661 1.1005045 0.81213796 0.54196346 -0.08026976
0.36218956 0.52214116 0.84615546 1.0870993 1.2062265 1.1105417 0.91780245 0.8742101
00000000: dd6f 093f 2bf1 d33e 302d 783f a360 803f
00000010: bf6b 5c3e 47b9 503f dcfe 783f 030e 223e
00000020: c0b3 0b3f 70e3 913e 33f5 853f 0d60 663e
00000030: 29b3 913f 7b1a ecbe 820e b8ba 766b 383f
00000040: b8f0 753e 99be 873e 2875 953e a86b 67be
00000050: 55dd 8c3f 46e8 4f3f 1ebe 0a3f 7964 a4bd
00000060: e970 b93e 0bab 053f a59d 583f 1226 8b3f
00000070: a165 9a3f 3b26 8e3f 1af5 6a3f 3ccc 5f3f

fc2.weight f4 [3, 32]
0.21249275 0.23143719 -0.15344204 0.16165772 0.15277638 0.020140335 -0.076438874 -0.085861176
0.15038279 -0.21916121 -0.14314719 0.026751416 -0.12036429 -0.014647715 0.12666531 0.22958504
-0.013396336 0.47975922 -0.98238367 -0.16011095 0.02270556 0.09534231 0.26426208 -0.116156526
0.09760838 -0.060012247 -0.399871 -0.15925552 -0.19806972 -0.106038615 -0.104272164 0.14731061
0.15913387 0.28386575 -0.17735448 0.23738118 0.22173563 0.006988389 0.052326616 -0.006960092
0.17581363 -0.06126164 -0.09583619 -0.1051442 -0.2113267 -0.01678829 0.4206224 -0.1455492
0.008424928 0.079481326 0.13882063 -0.029030694 -0.12866661 0.030629424 -0.10259197 -0.23428279
-0.86161125 0.020689417 0.038698692 -0.22720733 -0.20009924 -0.23925894 -0.060644485 0.22592664
-0.09934735 -0.032843616 -0.084891304 -0.11801035 0.34144145 -0.07982114 0.7719927 -0.24227343
-0.12914506 -0.26331344 -0.23908977 0.13572066 -0.14810427 0.06225011 0.24711595 -0.093579516
0.019035438 0.21416971 0.06946013 -0.002467912 0.09211649 -0.090411566 0.12060031 0.15574174
-0.061281595 0.0043439204 0.3366717 -0.17656985 -0.22142465 -0.14950949 -0.21446867 -0.07179923
00000000: b397 593e dffd 6c3e e91f 1dbe 9a89 253e
00000010: 6971 1c3e 58fd a43c fc8b 9cbd fcd7 afbd
00000020: f2fd 193e cc6b 60be 2d95 12be c925 db3c
00000030: 8e81 f6bd f8fc 6fbc 8db4 013e 5718 6b3e
00000040: 4e7c 5bbc 00a3 f53e 7f7d 7bbf 20f4 23be
00000050: 0301 ba3c d442 c33d 5c4d 873e 79e3 edbd
00000060: e7e6 c73d 67cf 75bd e4bb ccbe e113 23be
00000070: cad2 4abe c62a d9bd a58c d5bd 98d8 163e
00000080: fdf3 223e da56 913e 6a9c 35be 0d14 733e
00000090: aa0e 633e dbfe e43b 6f54 563d 7c11 e4bb
000000a0: 7d08 343e 7ced 7abd c445 c4bd d855 d7bd
000000b0: 0766 58be 9987 89bc d25b d73e d90a 15be
000000c0: b608 0a3c 1bc7 a23d ff26 0e3e c7d1 edbc
000000d0: 2ec1 03be 8fea fa3c bd1b d2bd d4e7 6fbe
000000e0: 8e92 5cbf da7c a93c 8582 1e3d 0aa9 68be
000000f0: d1e6 4cbe 4c00 75be 5a66 78bd 5059 673e
00000100: a076 cbbd 0787 06bd 7edb adbd 69af f1bd
00000110: 6ad1 ae3e 4479 a3bd 50a1 453f 8716 78be
00000120: 9a3e 04be 05d1 86be f3d3 74be 5bfa 0a3e
00000130: a5a8 17be f9f9 7e3d f70b 7d3e 9ea6 bfbd
00000140: 35f0 9b3c 4e4f 5b3e 1d41 8e3d b1bc 21bb
00000150: 92a7 bc3d b329 b9bd 4cfd f63d c37a 1f3e
00000160: 6902 7bbd 7257 8e3b 3c60 ac3e bace 34be
00000170: 25bd 62be 0419 19be ad9d 5bbe 7a0b 93bd

fc2.bias f4 [3]
-1.0697107 -0.97158784 0.54434556
00000000: 48ec 88bf fbb9 78bf 3b5a 0b3f

road_emb.0.weight f4 [144]
1.6348146 1.0860807 1.4051601 0.99569744 0.8542725 1.2282071 1.1849259 1.3311145
0.8592524 0.2233707 1.0491023 0.9973527 1.1743037 0.95417506 1.3930526 0.9304421
0.9647221 0.96984285 1.1242265 1.1614729 0.9292694 0.23713014 0.95794314 0.8864923
1.2754412 0.98553073 1.3800201 1.0030006 0.8810916 1.1648443 1.1030889 1.2981517
0.9396857 0.2281345 1.0622842 0.94591385 1.4581525 1.038801 1.4381455 0.8841236
0.8471136 1.2267816 1.5271053 1.2351891 1.092908 0.17098297 1.051436 0.9052867
1.3433759 0.9746346 1.3815998 0.97502625 0.9170994 1.0143253 1.1542252 1.1741489
1.1419615 0.20129564 1.1039475 0.9060968 1.1307334 0.9161866 1.4334978 0.8336931
0.7944553 0.9237943 1.3016496 1.2662789 0.9280255 0.31533068 1.186884 0.84952664
1.6021608 1.02258 1.656223 1.0325187 0.92863435 1.2035145 1.2227988 1.1645687
0.9819459 0.4387905 1.1206796 1.3502581 1.3135343 1.1173759 1.5929474 0.8847572
0.7540081 0.94352394 1.200702 1.1542178 1.0187303 0.22914691 1.0918015 1.3672168
1.2795515 0.94124395 1.6620796 0.94493264 0.8426362 0.9215327 1.381278 1.1908983
0.88942784 0.20404871 1.1674793 1.3729528 1.5152957 0.9281179 1.5602766 0.88592094
0.9375571 1.3150052 1.3134283 1.2676923 1.2282683 0.45538682 1.4781046 0.94478846
1.1223137 1.0718851 1.5736668 1.011665 1.0162345 1.0332177 1.2778428 1.283536
1.102488 0.40341672 1.5096633 0.95500636 1.2142104 0.9264674 1.5918815 0.8296094
0.8777119 0.9522143 1.1969686 1.2734133 1.017548 0.30567062 1.3859845 0.90635926
00000000: 9b41 d13f b104 8b3f 49dc b33f 07e6 7e3f
00000010: 9ab1 5a3f e435 9d3f a7ab 973f f661 aa3f
00000020: f7f7 5b3f 4abb 643e fc48 863f 8252 7f3f
00000030: 954f 963f d144 743f 8c4f b23f 7431 6e3f
00000040: 07f8 763f 9f47 783f a7e6 8f3f 25ab 943f
00000050: 99e4 6d3f 3ed2 723e c33b 753f 29f1 623f
00000060: a841 a33f be4b 7c3f 80a4 b03f 5362 803f
00000070: 388f 613f 9e19 953f 0432 8d3f d629 a63f
00000080: 3e8f 703f 179c 693e eef8 873f 6927 723f
00000090: bea4 ba3f 6ef7 843f 2715 b83f ed55 623f
000000a0: 70dc 583f 2e07 9d3f 3078 c33f ad1a 9e3f
000000b0: 69e4 8b3f 2916 2f3e 7495 863f dfc0 673f
000000c0: bef3 ab3f a781 793f 43d8 b03f 529b 793f
000000d0: 07c7 6a3f 69d5 813f a7bd 933f 834a 963f
000000e0: cb2b 923f 7220 4e3e 274e 8d3f f6f5 673f
000000f0: dfbb 903f 348b 6a3f db7c b73f e96c 553f
00000100: 6c61 4b3f c97d 6c3f 749c a63f 6d15 a23f
00000110: 1493 6d3f 0673 a13e d1eb 973f 947a 593f
00000120: 9b13 cd3f e7e3 823f 1eff d33f 9329 843f
00000130: fbba 6d3f c30c 9a3f ac84 9c3f 9610 953f
00000140: ce60 7b3f 26a9 e03e 6e72 8f3f 42d5 ac3f
00000150: e421 a83f 2c06 8f3f b3e5 cb3f 737f 623f
00000160: ad06 413f c98a 713f 9ab0 993f 69bd 933f
00000170: c165 823f 7da5 6a3e 27c0 8b3f f600 af3f
00000180: 58c8 a33f 5df5 703f 06bf d43f 1be7 713f
00000190: 02b7 573f 91e9 6b3f b8cd b03f 5b6f 983f
000001a0: 8bb1 633f 25f2 503e f66f 953f ebbc af3f
000001b0: 36f5 c13f 2299 6d3f 25b7 c73f b7cb 623f
000001c0: be03 703f 1752 a83f 6b1e a83f be43 a23f
000001d0: e537 9d3f 7628 e93e 8832 bd3f a8dd 713f
000001e0: faa7 8f3f 8833 893f ea6d c93f 3d7e 813f
000001f0: f913 823f 7a40 843f 5a90 a33f e84a a43f
00000200: 541e 8d3f a38c ce3e a63c c13f 4c7b 743f
00000210: 3f6b 9b3f f82c 6d3f c6c2 cb3f 4861 543f
00000220: bab1 603f 51c4 733f 4436 993f 35ff a23f
00000230: 033f 823f dc80 9c3e f167 b13f 2907 683f

road_emb.0.bias f4 [144]
0.38353923 0.23527455 0.24754842 0.19870348 0.3366416 0.16180821 0.14896514 0.42741248
0.041924667 -0.73134714 0.34073293 0.29702458 0.25181887 0.36215627 0.2872448 0.30498844
0.2875004 0.32707387 0.1904339 0.35018775 -0.031686403 -0.7757466 0.27192235 0.26044434
0.31206834 0.26696935 0.40065077 0.19279212 0.3447996 0.32296294 0.16101596 0.38166884
-0.009838755 -0.72591263 0.36845303 0.29087517 0.317229 0.2682512 0.3895571 0.28358212
0.31115088 0.12174293 0.15970248 0.40549254 0.012635158 -0.57622576 0.34173357 0.28500062
0.3977861 0.27136773 0.394932 0.22751677 0.340124 0.31445405 0.1474293 0.38097277
0.076548725 -0.65334946 0.35816377 0.26935127 0.23311529 0.33884126 0.4371739 0.27528566
0.32666606 0.31794557 0.1583378 0.3873652 -0.026375476 -0.5945004 0.40974644 0.2596882
0.40122423 0.3227429 0.27022362 0.21020842 0.36899835 0.20467523 0.32145417 0.3427677
0.011963379 -0.48846465 0.35633355 0.30278733 0.3270202 0.19535653 0.27084 0.28660515
0.3034016 0.28694046 0.17311138 0.3622078 0.029739847 -0.7653397 0.3646293 0.26263225
0.32443652 0.32516676 0.29879656 0.260824 0.32320002 0.3441616 0.20777886 0.39216292
0.015773328 -0.6409548 0.42176822 0.28382942 0.35340583 0.3387899 0.38219497 0.30623963
0.29733428 0.103161186 0.2584827 0.33461955 0.05462703 -0.4468611 0.2542347 0.2754449
0.3241894 0.2879557 0.37725577 0.27647582 0.2613146 0.2067973 0.23128617 0.39648485
-0.019265195 -0.48836368 0.32028663 0.30045643 0.36385328 0.29649925 0.4171258 0.3171688
0.2595454 0.3582285 0.30254063 0.32782826 0.050088733 -0.65976566 0.31028408 0.26816434
00000000: 415f c43e d0eb 703e 557d 7d3e ed78 4b3e
00000010: 4a5c ac3e 0db1 253e 518a 183e cfd5 da3e
00000020: 33b9 2b3d 9139 3bbf 8c74 ae3e 9b13 983e
00000030: 67ee 803e 8c6c b93e c011 933e 7227 9c3e
00000040: 4133 933e 3a76 a73e 1b01 433e cf4b b33e
00000050: 9ac9 01bd 5497 46bf 6839 8b3e f658 853e
00000060: 6cc7 9f3e 35b0 883e 1922 cd3e 4c6b 453e
00000070: 9389 b03e 665b a53e 5ee1 243e 196a c33e
00000080: bb32 21bc 69d5 39bf e0a5 bc3e 97ed 943e
00000090: d76b a23e 3958 893e 0774 c73e ad31 913e
000000a0: 2b4f 9f3e 5b54 f93d 0c89 233e b89c cf3e
000000b0: b203 4f3c 8883 13bf b4f7 ae3e 9aeb 913e
000000c0: 9faa cb3e b6f0 8a3e 8734 ca3e 28fa 683e
000000d0: bc24 ae3e 1f00 a13e b5f7 163e dd0e c33e
000000e0: 94c5 9c3d e941 27bf 3e61 b73e 69e8 893e
000000f0: c6b5 6e3e 9a7c ad3e 42d5 df3e 3ef2 8c3e
00000100: c640 a73e c3c9 a23e 4e23 223e bb54 c63e
00000110: 6211 d8bc 2e31 18bf 49ca d13e daf5 843e
00000120: 436d cd3e 8f3e a53e c05a 8a3e e040 573e
00000130: 5aed bc3e 6296 513e a495 a43e 3f7f af3e
00000140: 0c02 443c 0a18 fabe 5a71 b63e f106 9b3e
00000150: 316f a73e 8b0b 483e 8aab 8a3e e9bd 923e
00000160: 7457 9b3e dce9 923e 1c44 313e 4d73 b93e
00000170: fba0 f33c 4ded 43bf b1b0 ba3e bc77 863e
00000180: 8b1c a63e 427c a63e ddfb 983e b98a 853e
00000190: 797a a53e f335 b03e fbc3 543e 94c9 c83e
000001a0: 1137 813c 9d15 24bf 01f2 d73e 1752 913e
000001b0: 9cf1 b43e df75 ad3e 0faf c33e 71cb 9c3e
000001c0: 333c 983e 2c46 d33d d857 843e 4153 ab3e
000001d0: 98c0 5f3d faca e4be 0d2b 823e 1d07 8d3e
000001e0: 27fc a53e ee6e 933e ab27 c13e 3d8e 8d3e
000001f0: 07cb 853e acc2 533e 48d6 6c3e 1000 cb3e
00000200: 0bd2 9dbc ce0a fabe 9cfc a33e 6dd5 993e
00000210: fa4a ba3e c0ce 973e 8391 d53e f363 a23e
00000220: 22e3 843e ba69 b73e 9be6 9a3e 1bd9 a73e
00000230: d829 4d3d 67e6 28bf 8edd 9e3e d64c 893e

road_emb.1.weight f4 [64, 144]
-0.2178434 -0.032386534 -0.77287775 -0.17709354 0.22429965 0.08741311 -0.06496692 0.66152453
0.06348892 -0.10704986 0.5889706 -0.37407458 -0.09759235 0.07099271 -0.5935569 -0.43878615
0.21857925 0.015121062 0.05792082 0.530664 -0.0811024 -0.00033078145 0.47158545 -0.27770635
-0.32249272 0.09788198 -0.9205996 0.082984924 0.120386 0.2420718 -0.07330544 0.58255947
-0.03020043 -0.017773973 0.6424735 -0.2515307 -0.43574855 0.11024417 -0.6409439 -0.5451974
0.060792927 0.06578452 0.78723013 0.17983133 -0.19461319 0.23544486 0.20036712 -0.18391196
0.060899474 -0.06997186 -0.5330188 -0.1150225 0.124697156 -0.13650657 0.30957705 0.04505806
-0.31467515 0.049342733 0.38569272 -0.26941252 -0.25322324 0.15203623 -0.6942571 -0.3972271
0.31777972 0.5667051 -0.052062865 0.022714073 -0.18876958 -0.12907916 0.46735 -0.39667442
-0.3938348 0.001329522 -0.39556044 -0.17157213 0.22476143 0.1321982 -0.070952944 -0.13608707
-0.103798084 0.19247268 0.3337688 -0.80994684 0.41202348 -0.17805706 -0.44623902 -0.41443682
0.2552597 0.07812965 -0.09415221 -0.033485346 -0.35004562 0.00027673316 0.49489075 -0.3441508
-0.17703725 0.041039117 -0.5354356 -0.33989897 0.03518355 0.3928978 0.12816574 -0.043116037
0.0020729052 0.24830426 0.5211451 -0.42316926 -0.16791107 0.22415505 -0.53093964 -0.39718914
-0.013176854 0.04654464 0.4394227 -0.26241416 -0.14606418 0.13059947 -0.027837802 -0.22932924
0.038719926 -0.3529078 -0.23597324 -0.22162299 0.039131943 -0.007773617 0.5423528 -0.21873885
-0.00040428157 -0.0076372237 -0.11955409 -0.16700332 -0.031404056 -0.20310931 -0.38120773 -0.51217574
0.15010883 0.5462415 0.87204623 -0.26137114 -0.12053986 0.08483229 -0.29644337 -0.24689133
-0.22128862 -0.13585511 -0.85310924 0.12673855 0.14781423 0.025363073 0.37349668 0.4199022
0.07355309 0.1526924 0.07844544 0.09606729 0.06395653 -0.24593732 -0.7820219 0.03043893
0.004263396 0.05400775 0.30553603 0.25947127 -0.008250247 -0.1597104 0.09862171 -0.10212223
-0.051774684 -0.20018798 -0.8344878 0.1819525 0.25873396 0.10630776 0.120921746 0.286494
0.28173622 0.06172992 0.18232732 0.056382056 -0.2071421 0.05754366 -0.52680296 0.36209413
0.14927614 0.06266973 -0.05669252 0.1518517 0.06126976 -0.02880361 -0.3502363 0.20333625
-0.31959575 0.06984646 -0.43187422 0.19803222 0.27219072 0.13345674 0.047642525 0.08563835
0.12974252 0.18769252 -0.18942928 0.16444379 -0.042800978 -0.12137317 -0.61916363 0.18226953
0.11260226 0.005325905 0.28338173 0.2942684 0.29734203 -0.05925422 -0.20353489 0.2551328
-0.2799776 -0.115525566 -0.8052368 0.092465684 0.11354414 0.008163621 -0.13371466 0.2690773
0.24165982 0.16852045 -0.12566113 -0.2924799 -0.09048929 0.05827758 -0.62897944 0.09011584
0.14685191 -0.10504345 -0.062169455 -0.004601377 0.22263557 0.22453064 -0.23959865 -0.338219
-0.20563419 -0.07904072 -0.6950821 -0.098105095 0.01138206 -0.10096076 0.3397897 0.21663405
0.12970646 0.053834382 -0.37077615 -0.50012445 -0.35439852 -0.13882127 -1.0663197 0.0800738
00000000: 5712 5fbe bea7 04bd 51db 45bf 0258 35be
00000010: cfae 653e a505 b33d 600d 85bd ac59 293f
00000020: 7b06 823d f53c dbbd c7c6 163f b486 bfbe
00000030: 7fde c7bd a064 913d 58f3 17bf 94a8 e0be
00000040: 3dd3 5f3e 55be 773c 623e 6d3d 99d9 073f
00000050: 0419 a6bd bc6c adb9 a673 f13e 872f 8ebe
00000060: c41d a5be 5976 c83d 6aac 6bbf 00f4 a93d
00000070: ef8c f63d ace1 773e 2a21 96bd 9e22 153f
00000080: e466 f7bc b99a 91bc 2579 243f a2c8 80be
00000090: 6f1a dfbe b2c7 e13d e614 24bf 0f92 0bbf
000000a0: 0102 793d 09ba 863d ea87 493f b425 383e
000000b0: ae48 47be 7518 713e 0a2d 4d3e 6b53 3cbe
000000c0: ba71 793d 684d 8fbd ec73 08bf eb90 ebbd
000000d0: 3961 ff3d 61c8 0bbe e280 9e3e cd8e 383d
000000e0: 1a1d a1be 9b1b 4a3d 8479 c53e 70f0 89be
000000f0: 7aa6 81be 63af 1b3e d5ba 31bf 5a61 cbbe
00000100: 06b4 a23e 9613 113f df3f 55bd dd12 ba3c
00000110: d04c 41be 542d 04be 8048 ef3e e918 cbbe
00000120: b7a4 c9be 5b43 ae3a e686 cabe 9bb0 2fbe
00000130: dc27 663e f75e 073e c74f 91bd 695a 0bbe
00000140: 1794 d4bd 8f17 453e bfe3 aa3e ad58 4fbf
00000150: bef4 d23e 9754 36be 7179 e4be 1031 d4be
00000160: 66b1 823e 7002 a03d e0d2 c0bd ee27 09bd
00000170: 2e39 b3be 7f16 9139 5262 fd3e 8934 b0be
00000180: 4149 35be a218 283d 4f12 09bf 3d07 aebe
00000190: a01c 103d e729 c93e e13d 033e 719a 30bd
000001a0: 94d9 073b 7943 7e3e c469 053f a4a9 d8be
000001b0: e1f0 2bbe e788 653e a9eb 07bf 605c cbbe
000001c0: bbe3 57bc 98a5 3e3d 03fc e03e 265b 86be
000001d0: d991 15be debb 053e 1a0c e4bc 49d5 6abe
000001e0: c998 1e3d 55b0 b4be f8a2 71be 23f1 62be
000001f0: d148 203d d3b9 febb a2d7 0a3f 14fd 5fbe
00000200: c1f5 d3b9 ad41 fabb c6d8 f4bd eb02 2bbe
00000210: 8aa1 00bd e3fb 4fbe a92d c3be f31d 03bf
00000220: 21b6 193e 7cd6 0b3f 6c3e 5f3f 70d2 85be
00000230: 9add f6bd 8dbc ad3d 6dc7 97be 15d1 7cbe
00000240: 7c99 62be 9a1d 0bbe 5e65 5abf c0c7 013e
00000250: 9d5c 173e 38c6 cf3c f53a bf3e 6cfd d63e
00000260: 01a3 963d 665b 1c3e 01a8 a03d edbe c43d
00000270: a4fb 823d fed6 7bbe 9632 48bf 105b f93c
00000280: f5b3 8b3b 3b37 5d3d 386f 9c3e 6bd9 843e
00000290: 0b2c 07bc 208b 23be 2efa c93d 7625 d1bd
000002a0: b111 54bd 14fe 4cbe fea0 55bf c251 3a3e
000002b0: c778 843e e2b7 d93d d2a5 f73d 57af 923e
000002c0: bb3f 903e 83d8 7c3d 03b4 3a3e dff0 663d
000002d0: 0f1d 54be e7b2 6b3d 8fdc 06bf 6764 b93e
000002e0: d8db 183e fd58 803d 6a36 68bd 037f 1b3e
000002f0: 00f6 7a3d 8cf5 ebbc 2c52 b3be 6137 503e
00000300: 0ea2 a3be a90b 8f3d 9e1e ddbe f5c8 4a3e
00000310: 955c 8b3e e2a8 083e cf24 433d 2963 af3d
00000320: 39db 043e 7832 403e c0f9 41be f463 283e
00000330: 1450 2fbd 7f92 f8bd 8281 1ebf dda4 3a3e
00000340: 049c e63d ee84 ae3b 6917 913e 59aa 963e
00000350: 373d 983e 8eb4 72bd 736b 50be c4a0 823e
00000360: 3959 8fbe ab98 ecbd 0024 4ebf a65e bd3d
00000370: d489 e83d b5c0 053c 7fec 08be 80c4 893e
00000380: ac75 773e a090 2c3e 50ad 00be edbf 95be
00000390: 7352 b9bd 79b4 6e3d cc04 21bf a78e b83d
000003a0: 5960 163e 0521 d7bd 66a5 7ebd 26c7 96bb
000003b0: 94fa 633e 5ceb 653e 5959 75be 0a2b adbe
000003c0: c591 52be 1ae0 a1bd e7f0 31bf 53eb c8bd
000003d0: d27b 3a3c 84c4 cebd eaf8 ad3e 51d5 5d3e
000003e0: c5d1 043e 7181 5c3d 5fd6 bdbe 2808 00bf
000003f0: b973 b5be 2a27 0ebe 2a7d 88bf bcfd a33d

road_emb.1.bias f4 [64]
0.055621605 0.035929695 -0.014942128 0.005483217 0.1543266 -0.1093029 -0.14261481 -0.051889405
0.023889767 -0.17850907 -0.22401232 -0.05548318 -0.44423676 -0.10253407 -0.048173256 0.02647467
-0.07385486 -0.22297283 -0.49886867 -0.02535588 -0.24133721 -0.47173974 0.0103686545 -0.13303328
-0.026759379 0.2819375 -0.14540255 0.072340116 -0.28039744 -0.25198227 -0.052456256 -0.01335892
0.106987916 0.12055931 -0.0070913993 -0.19949952 -0.11685596 -0.14884552 0.24797522 -0.13830182
-0.10716599 -0.014175885 -0.14984818 -0.025166417 0.03711228 -0.044129148 -0.054250494 -0.05327536
0.053875256 -0.09867703 0.031637818 0.010339058 -0.020313745 0.108349904 -0.1471065 -0.08303466
-0.17197803 -0.35813087 -0.1794468 -0.062272966 -0.15183675 0.14328112 0.11796821 -0.13056825
00000000: 7bd3 633d 042b 133d d4cf 74bc 8fac b33b
00000010: cb07 1e3e 33da dfbd 9e09 12be fc89 54bd
00000020: 79b4 c33c 15cb 36be 7c63 65be 5542 63bd
00000030: 0073 e3be 62fd d1bd 5251 45bd 68e1 d83c
00000040: 3841 97bd fd52 64be b76b ffbe 22b7 cfbc
00000050: 1a21 77be df87 f1be 4ae1 293c e039 08be
00000060: 7c36 dbbc 1d5a 903e 68e4 14be 0e27 943d
00000070: 4190 8fbe d203 81be 5fdc 56bd 5fdf 5abc
00000080: 7b1c db3d cde7 f63d f85e e8bb 9a49 4cbe
00000090: 2d52 efbd f66a 18be 37ed 7d3e fe9e 0dbe
000000a0: d879 dbbd f941 68bc cd71 19be cd29 cebc
000000b0: 0c03 183d c4c0 34bd c435 5ebd 4437 5abd
000000c0: 4dac 5c3d 2f17 cabd a896 013d 2765 293c
000000d0: 0369 a6bc 8ee6 dd3d 16a3 16be 130e aabd
000000e0: 021b 30be ee5c b7be e7c0 37be f011 7fbd
000000f0: 187b 1bbe 49b8 123e 5199 f13d afb3 05be

cav_emb.0.weight f4 [11]
1.1715757 0.43140054 0.51656663 0.6875538 2.061078 1.9011712 1.924595 0.70026934
0.52089953 1.3809451 1.7309575
00000000: 31f6 953f 88e0 dc3e b63d 043f 8703 303f
00000010: b4e8 0340 9459 f33f 2159 f63f da44 333f
00000020: ac59 053f cfc2 b03f 0490 dd3f

cav_emb.0.bias f4 [11]
0.08812111 -0.002908983 0.078901 0.14379889 0.013104084 0.06974727 -0.05957354 0.15518348
0.26607028 0.030971022 0.0023159422
00000000: d778 b43d a3a4 3ebb d996 a13d 0440 133e
00000010: 83b2 563c a8d7 8e3d 6203 74bd 6be8 1e3e
00000020: 5d3a 883e f1b6 fd3c 10c7 173b

cav_emb.1.weight f4 [64, 11]
-0.40553942 0.44485456 0.1967567 0.07342731 0.51655495 -0.4389358 0.47573644 0.15840952
0.29463995 -0.345859 0.07575906 -0.28256702 -0.20634204 -0.07312652 -0.22141603 -0.42310327
0.3928077 -0.17302376 -0.41785747 -0.13692479 0.58736587 0.43185267 -0.4314496 -0.72717416
0.078912355 0.57553875 0.8118162 0.15897565 -0.031211553 0.16406994 0.14144863 -0.04487422
0.31827083 0.08877527 -0.3179683 -0.041103527 -0.17594329 -0.92860293 1.3165948 -0.78252023
0.06671095 -0.16763884 0.1100668 -0.12662046 -0.28126284 0.42503074 0.4182459 -0.53780293
-0.10964071 0.12968065 0.08543417 -0.23681675 0.11603282 -0.36101776 0.3769423 -0.668012
-0.02679049 0.32191792 -0.097547255 0.25102767 0.6864391 -0.30629072 -0.25575644 -0.13705745
0.037600815 -0.09761809 -0.29039404 0.18686098 0.22831899 -0.32875684 0.25670168 -0.035060603
-0.33144554 0.15663972 -0.0015018869 -0.28885704 -0.34467712 -0.30437467 0.40583095 -0.06228328
-0.096478574 0.017761758 -0.2964483 0.8928396 0.113299064 0.2715016 -0.97440094 0.5834534
-0.78653485 0.059006445 0.17511879 0.24940056 0.26378554 0.04681229 0.027258197 0.5581569
0.18970963 -0.13423243 -0.13627 -0.5423537 0.13229701 0.44159952 0.3372231 -0.25240484
-0.34576726 0.66524994 -0.060908575 0.4047197 -0.34971106 0.29066905 -0.08285315 -0.23206227
0.23867321 -0.27238065 0.8390283 0.056946777 -0.00014577166 0.0866053 0.10814003 -0.2099839
-0.3406784 -0.026132325 0.106041126 0.32114834 0.0064327368 -0.019192252 -0.01670731 0.25788563
-0.3737314 0.09141884 0.17518191 0.0897794 -0.27520087 0.22562878 0.15301454 0.08507025
0.53357303 0.08100401 -0.45437682 0.53368056 0.18939462 -0.7456802 0.106495276 -0.38693202
-0.24486667 0.326533 -0.0015072933 0.4069708 0.17049682 -0.3836336 -0.025909794 -0.15249895
-0.45608622 0.08572012 -0.37926316 -0.2889028 -0.17627786 0.09080423 0.8063797 0.05968219
0.30049774 -0.053489845 0.23780143 0.760189 -0.11260354 -0.59754485 -0.118936576 0.09776207
-0.16513112 -0.23566554 0.34007192 0.28545386 -0.0061763367 0.075513996 -1.0082757 0.4873845
-0.48333746 0.09681115 -0.07006375 -0.0060269944 0.33069623 0.6797105 -0.5589299 0.04264518
0.018489126 0.41869748 -0.41062894 0.43933588 0.011349017 0.09608301 -0.22350731 -0.5524824
0.008874875 0.31433216 -0.14972106 -0.24304278 -0.37518278 -0.081695355 0.054318417 0.20844886
0.2685651 0.17212744 0.12140093 0.07012949 -0.08671538 0.2536937 0.16877446 0.035268754
0.09188292 -0.031396292 -0.18481837 0.23445597 0.29005474 0.47506207 0.097954266 0.28085792
-0.34660345 -0.20022427 -0.039864212 0.04327129 -0.32921842 -0.2172733 -0.24528752 -0.08932933
-1.3261782 0.83239514 0.55525255 -0.021710472 -0.20220093 -0.16402878 -0.36873478 -0.29591724
0.14575635 0.30780238 0.031040553 0.9102787 -0.43908533 -0.16680647 0.22296727 0.02810879
-0.3450647 -0.13842273 -0.4855723 0.09773936 0.23391317 0.41859695 -0.2084323 -0.07828885
-0.3493198 0.43300644 0.14190462 0.16411929 -0.008500949 -0.210922 -0.11345528 0.03946592
00000000: dda2 cfbe fac3 e33e 977a 493e 0f61 963d
00000010: f23c 043f 31bc e0be ba93 f33e 1b36 223e
00000020: 0cdb 963e 6e14 b1be 9127 9b3d a0ac 90be
00000030: 544b 53be 5bc3 95bd e2ba 62be fea0 d8be
00000040: 171e c93e 242d 31be 6af1 d5be 0336 0cbe
00000050: 9c5d 163f cb1b dd3e f6e6 dcbe 1628 3abf
00000060: cd9c a13d 8256 133f 30d3 4f3f 83ca 223e
00000070: 5faf ffbc f301 283e e9d7 103e 08ce 37bd
00000080: 65f4 a23e cfcf b53d becc a2be 2c5c 28bd
00000090: 7a2a 34be ecb8 6dbf 2e86 a83f 3f53 48bf
000000a0: c09f 883d 84a9 2bbe b46a e13d cba8 01be
000000b0: af01 90be a19d d93e 5424 d63e 74ad 09bf
000000c0: 4f8b e0bd 01cb 043e 1cf8 ae3d 1780 72be
000000d0: 9da2 ed3d 52d7 b8be 95fe c03e d602 2bbf
000000e0: bb77 dbbc 6dd2 a43e dbc6 c7bd b386 803e
000000f0: 79ba 2f3f 23d2 9cbe 82f2 82be ca58 0cbe
00000100: 5003 1a3d feeb c7bd 87ae 94be 7c58 3f3e
00000110: 74cc 693e d152 a8be 676e 833e b59b 0fbd
00000120: 3bb3 a9be 2a66 203e f6da c4ba 12e5 93be
00000130: 8579 b0be ffd6 9bbe 13c9 cf3e c11c 7fbd
00000140: 8f96 c5bd 1b81 913c 12c8 97be 2391 643f
00000150: 5709 e83d 4202 8b3e 5772 79bf 345d 153f
00000160: 595a 49bf beb0 713d 5752 333e dc62 7f3e
00000170: e60e 873e 3ebe 3f3d 954c df3c 5fe3 0e3f
00000180: 3e43 423e 3a74 09be 5d8a 0bbe b1d7 0abf
00000190: de78 073e 5519 e23e 82a8 ac3e 353b 81be
000001a0: 6808 b1be d24d 2a3f 457b 79bd 6c37 cf3e
000001b0: 540d b3be 93d2 943e eaae a9bd bba1 6dbe
000001c0: c066 743e 7a75 8bbe 8fca 563f 0641 693d
000001d0: 48da 18b9 1f5e b13d 8578 dd3d 0506 57be
000001e0: 666d aebe 7513 d6bc 172c d93d 8e6d a43e
000001f0: b5c9 d23b 1239 9dbc c5dd 88bc 9609 843e
00000200: b959 bfbe cd39 bb3d e362 333e 43de b73d
00000210: 21e7 8cbe 3b0b 673e d8af 1c3e 5039 ae3d
00000220: 3e98 083f 6ee5 a53d 14a4 e8be 4a9f 083f
00000230: aaf0 413e e6e4 3ebf 321a da3d f41b c6be
00000240: 54be 7abe 552f a73e 5f90 c5ba 7a5e d03e
00000250: b896 2e3e a06b c4be c740 d4bc af28 1cbe
00000260: 2284 e9be 088e af3d c82e c2be 11eb 93be
00000270: 2f82 34be 91f7 b93d e66e 4e3f 5075 743d
00000280: d7da 993e 2b18 5bbd 3882 733e bf9b 423f
00000290: af9c e6bd b3f8 18bf 0595 f3bd 7b37 c83d
000002a0: 2218 29be 4f52 71be e81d ae3e 0227 923e
000002b0: de62 cabb 15a7 9a3d 2e0f 81bf 768a f93e
000002c0: 0278 f7be ed44 c63d 957d 8fbd 187e c5bb
000002d0: 0451 a93e 8201 2e3f 0816 0fbf b6ac 2e3d
000002e0: 8276 973c 845f d63e f53d d2be a2f0 e03e
000002f0: 3af1 393c 2bc7 c43d 1adf 64be 7d6f 0dbf
00000300: ec67 113c 25f0 a03e 7a50 19be 35e0 78be
00000310: f517 c0be e54f a7bd fd7c 5e3d 9e73 553e
00000320: 5d81 893e 2d42 303e 0da1 f83d 0da0 8f3d
00000330: d597 b1bd 24e4 813e 36d3 2c3e f875 103d
00000340: 1d2d bc3d 6699 00bd 0741 3dbe 3a15 703e
00000350: 0e82 943e 563b f33e 3f9c c83d 9ccc 8f3e
00000360: 0276 b1be 9707 4dbe a848 23bd 3c3d 313d
00000370: 518f a8be e47c 5ebe a72c 7bbe 4cf2 b6bd
00000380: 35c0 a9bf d917 553f 0825 0e3f 29da b1bc
00000390: c30d 4fbe 29f7 27be ceca bcbe 7782 97be
000003a0: 2741 153e 4698 9d3e c248 fe3c 0608 693f
000003b0: cbcf e0be 51cf 2abe 8851 643e 6844 e63c
000003c0: 52ac b0be b0be 0dbe ef9c f8be 932b c83d
000003d0: ef86 6f3e 5752 d63e 476f 55be e855 a0bd
000003e0: 0bda b2be 05b3 dd3e 724f 113e e30e 283e
000003f0: 9047 0bbc f0fb 57be 3e5b e8bd 04a7 213d

cav_emb.1.bias f4 [64]
-0.12153817 0.047788594 -0.18166605 0.28688127 0.13006543 -0.07712587 -0.13129704 -0.24234107
-0.5522548 -0.1557931 0.043991063 0.08803073 -0.14126532 -0.20616929 -0.03273245 -0.1967665
-0.068079956 0.032091785 -0.29918298 -0.12693138 -0.21326798 -0.1884651 -0.23354669 -0.25498846
0.045320466 -0.43976572 0.10984549 -0.12446407 -0.045279242 -0.12754188 -0.3977341 -0.076552
-0.11014538 -0.07229152 0.033963732 -0.034567356 -0.047704972 -0.20919849 -0.14711195 -0.16515526
-0.2784586 -0.09258864 -0.05197945 -0.105693236 0.0252456 -0.07914493 -0.23542733 0.02817175
0.09095106 -0.30082637 -0.04858359 -0.43710178 -0.044089176 -0.14077654 -0.39810517 -0.587347
-0.28292495 -0.03511982 0.05145093 -0.34466338 -0.04273459 -0.19052993 -0.16102046 -0.045933325
00000000: 01e9 f8bd f9bd 433d aa06 3abe 1ae2 923e
00000010: df2f 053e 2bf4 9dbd bb72 06be 4228 78be
00000020: 9260 0dbf 3a88 1fbe f92f 343d 7549 b43d
00000030: dba7 10be 0b1e 53be 7612 06bd 287d 49be
00000040: 816d 8bbd ad72 033d 832e 99be 4dfa 01be
00000050: ec62 5abe fffc 40be dd26 6fbe d98d 82be
00000060: f4a1 393d f928 e1be acf6 e03d 05e7 febd
00000070: ba76 39bd 579a 02be cea3 cbbe 4cc7 9cbd
00000080: e793 e1bd 940d 94bd 8e1d 0b3d 8096 0dbd
00000090: 4a66 43bd 2138 56be 84a4 16be 761e 29be
000000a0: 2092 8ebe 1d9f bdbd 67e8 54bd b275 d8bd
000000b0: dccf ce3c bd16 a2bd dd13 71be 71c8 e63c
000000c0: 8d44 ba3d ea05 9abe 96ff 46bd cecb dfbe
000000d0: da96 34bd ba27 10be 71d4 cbbe 5f5c 16bf
000000e0: 8adb 90be cdd9 0fbd 36be 523d b877 b0be
000000f0: 770a 2fbd 471a 43be 8ce2 24be 9524 3cbd

att.mask f4 [1, 1, 145, 145]
1.0 0.0 0.0 0.0 0.0 0.0 0.0 0.0
0.0 0.0 0.0 0.0 0.0 0.0 0.0 0.0
0.0 0.0 0.0 0.0 0.0 0.0 0.0 0.0
0.0 0.0 0.0 0.0 0.0 0.0 0.0 0.0
0.0 0.0 0.0 0.0 0.0 0.0 0.0 0.0
0.0 0.0 0.0 0.0 0.0 0.0 0.0 0.0
0.0 0.0 0.0 0.0 0.0 0.0 0.0 0.0
0.0 0.0 0.0 0.0 0.0 0.0 0.0 0.0
0.0 0.0 0.0 0.0 0.0 0.0 0.0 0.0
0.0 0.0 0.0 0.0 0.0 0.0 0.0 0.0
0.0 0.0 0.0 0.0 0.0 0.0 0.0 0.0
0.0 0.0 0.0 0.0 0.0 0.0 0.0 0.0
0.0 0.0 0.0 0.0 0.0 0.0 0.0 0.0
0.0 0.0 0.0 0.0 0.0 0.0 0.0 0.0
0.0 0.0 0.0 0.0 0.0 0.0 0.0 0.0
0.0 0.0 0.0 0.0 0.0 0.0 0.0 0.0
0.0 0.0 0.0 0.0 0.0 0.0 0.0 0.0
0.0 0.0 0.0 0.0 0.0 0.0 0.0 0.0
0.0 1.0 1.0 0.0 0.0 0.0 0.0 0.0
0.0 0.0 0.0 0.0 0.0 0.0 0.0 0.0
0.0 0.0 0.0 0.0 0.0 0.0 0.0 0.0
0.0 0.0 0.0 0.0 0.0 0.0 0.0 0.0
0.0 0.0 0.0 0.0 0.0 0.0 0.0 0.0
0.0 0.0 0.0 0.0 0.0 0.0 0.0 0.0
0.0 0.0 0.0 0.0 0.0 0.0 0.0 0.0
0.0 0.0 0.0 0.0 0.0 0.0 0.0 0.0
0.0 0.0 0.0 0.0 0.0 0.0 0.0 0.0
0.0 0.0 0.0 0.0 0.0 0.0 0.0 0.0
0.0 0.0 0.0 0.0 0.0 0.0 0.0 0.0
0.0 0.0 0.0 0.0 0.0 0.0 0.0 0.0
0.0 0.0 0.0 0.0 0.0 0.0 0.0 0.0
0.0 0.0 0.0 0.0 0.0 0.0 0.0 0.0
00000000: 0000 803f 0000 0000 0000 0000 0000 0000
00000010: 0000 0000 0000 0000 0000 0000 0000 0000
00000020: 0000 0000 0000 0000 0000 0000 0000 0000
00000030: 0000 0000 0000 0000 0000 0000 0000 0000
00000040: 0000 0000 0000 0000 0000 0000 0000 0000
00000050: 0000 0000 0000 0000 0000 0000 0000 0000
00000060: 0000 0000 0000 0000 0000 0000 0000 0000
00000070: 0000 0000 0000 0000 0000 0000 0000 0000
00000080: 0000 0000 0000 0000 0000 0000 0000 0000
00000090: 0000 0000 0000 0000 0000 0000 0000 0000
000000a0: 0000 0000 0000 0000 0000 0000 0000 0000
000000b0: 0000 0000 0000 0000 0000 0000 0000 0000
000000c0: 0000 0000 0000 0000 0000 0000 0000 0000
000000d0: 0000 0000 0000 0000 0000 0000 0000 0000
000000e0: 0000 0000 0000 0000 0000 0000 0000 0000
000000f0: 0000 0000 0000 0000 0000 0000 0000 0000
00000100: 0000 0000 0000 0000 0000 0000 0000 0000
00000110: 0000 0000 0000 0000 0000 0000 0000 0000
00000120: 0000 0000 0000 0000 0000 0000 0000 0000
00000130: 0000 0000 0000 0000 0000 0000 0000 0000
00000140: 0000 0000 0000 0000 0000 0000 0000 0000
00000150: 0000 0000 0000 0000 0000 0000 0000 0000
00000160: 0000 0000 0000 0000 0000 0000 0000 0000
00000170: 0000 0000 0000 0000 0000 0000 0000 0000
00000180: 0000 0000 0000 0000 0000 0000 0000 0000
00000190: 0000 0000 0000 0000 0000 0000 0000 0000
000001a0: 0000 0000 0000 0000 0000 0000 0000 0000
000001b0: 0000 0000 0000 0000 0000 0000 0000 0000
000001c0: 0000 0000 0000 0000 0000 0000 0000 0000
000001d0: 0000 0000 0000 0000 0000 0000 0000 0000
000001e0: 0000 0000 0000 0000 0000 0000 0000 0000
000001f0: 0000 0000 0000 0000 0000 0000 0000 0000
00000200: 0000 0000 0000 0000 0000 0000 0000 0000
00000210: 0000 0000 0000 0000 0000 0000 0000 0000
00000220: 0000 0000 0000 0000 0000 0000 0000 0000
00000230: 0000 0000 0000 0000 0000 0000 0000 0000
00000240: 0000 0000 0000 803f 0000 803f 0000 0000
00000250: 0000 0000 0000 0000 0000 0000 0000 0000
00000260: 0000 0000 0000 0000 0000 0000 0000 0000
00000270: 0000 0000 0000 0000 0000 0000 0000 0000
00000280: 0000 0000 0000 0000 0000 0000 0000 0000
00000290: 0000 0000 0000 0000 0000 0000 0000 0000
000002a0: 0000 0000 0000 0000 0000 0000 0000 0000
000002b0: 0000 0000 0000 0000 0000 0000 0000 0000
000002c0: 0000 0000 0000 0000 0000 0000 0000 0000
000002d0: 0000 0000 0000 0000 0000 0000 0000 0000
000002e0: 0000 0000 0000 0000 0000 0000 0000 0000
000002f0: 0000 0000 0000 0000 0000 0000 0000 0000
00000300: 0000 0000 0000 0000 0000 0000 0000 0000
00000310: 0000 0000 0000 0000 0000 0000 0000 0000
00000320: 0000 0000 0000 0000 0000 0000 0000 0000
00000330: 0000 0000 0000 0000 0000 0000 0000 0000
00000340: 0000 0000 0000 0000 0000 0000 0000 0000
00000350: 0000 0000 0000 0000 0000 0000 0000 0000
00000360: 0000 0000 0000 0000 0000 0000 0000 0000
00000370: 0000 0000 0000 0000 0000 0000 0000 0000
00000380: 0000 0000 0000 0000 0000 0000 0000 0000
00000390: 0000 0000 0000 0000 0000 0000 0000 0000
000003a0: 0000 0000 0000 0000 0000 0000 0000 0000
000003b0: 0000 0000 0000 0000 0000 0000 0000 0000
000003c0: 0000 0000 0000 0000 0000 0000 0000 0000
000003d0: 0000 0000 0000 0000 0000 0000 0000 0000
000003e0: 0000 0000 0000 0000 0000 0000 0000 0000
000003f0: 0000 0000 0000 0000 0000 0000 0000 0000
