route_TSC/model/0.5_hatt_router_joint_0315/ep60/target_q_netveh.pt (torch, 510456 bytes, 26 tensors)

attn f4 [1, 2, 37]
0	0x508802ce	1.8255081e+10
1	0x000005f9	2.143e-42
2	0x00000000	0.0
3	0x00000000	0.0
4	0x00000000	0.0
5	0x00000000	0.0
6	0x00000000	0.0
7	0x00000000	0.0
8	0x00000000	0.0
9	0x00000000	0.0
10	0x00000000	0.0
11	0x00000000	0.0
12	0x00000000	0.0
13	0x00000000	0.0
14	0x00000000	0.0
15	0x00000000	0.0
16	0x00000000	0.0
17	0x00000000	0.0
18	0x00000000	0.0
19	0x00000000	0.0
20	0x00000000	0.0
21	0x00000000	0.0
22	0x00000000	0.0
23	0x00000000	0.0
24	0x00000000	0.0
25	0x00000000	0.0
26	0x00000000	0.0
27	0x00000000	0.0
28	0x00000000	0.0
29	0x00000000	0.0
30	0x00000000	0.0
31	0x00000000	0.0
32	0x00000000	0.0
33	0x00000000	0.0
34	0x00000000	0.0
35	0x00000000	0.0
36	0x00000000	0.0
37	0x00000000	0.0
38	0x00000000	0.0
39	0x00000000	0.0
40	0x00000000	0.0
41	0x00000000	0.0
42	0x00000000	0.0
43	0x00000000	0.0
44	0x00000000	0.0
45	0x00000000	0.0
46	0x00000000	0.0
47	0x00000000	0.0
48	0x00000000	0.0
49	0x00000000	0.0
50	0x00000000	0.0
51	0x00000000	0.0
52	0x00000000	0.0
53	0x00000000	0.0
54	0x00000000	0.0
55	0x00000000	0.0
56	0x00000000	0.0
57	0x00000000	0.0
58	0x00000000	0.0
59	0x00000000	0.0
60	0x00000000	0.0
61	0x00000000	0.0
62	0x00000000	0.0
63	0x00000000	0.0
64	0x00000000	0.0
65	0x00000000	0.0
66	0x00000000	0.0
67	0x00000000	0.0
68	0x00000000	0.0
69	0x00000000	0.0
70	0x00000000	0.0
71	0x00000000	0.0
72	0x00000000	0.0
73	0x00000000	0.0

fc0.weight f4 [32, 2315]
0	0xbb9b6359	-0.004742068
1	0x3c0fafdf	0.008769958
2	0x3c9d087e	0.019169088
3	0x3bd97f7b	0.0066375113
4	0x3c902ff8	0.017600998
5	0xbc0a096b	-0.008425097
6	0x3c9b09a5	0.018925497
7	0xbc2abbe8	-0.010420777
8	0x3c83e362	0.016099636
9	0x3c31b47e	0.010846255
10	0xbb056748	-0.002035575
11	0x3c86e1c6	0.016465079
12	0x3ac3ee3d	0.001494832
13	0x3c96ddd8	0.01841633
14	0x3ca6d7eb	0.02036663
15	0x3c9b7e0e	0.018981006
16	0xbc9f9e29	-0.019484596
17	0xbca1973e	-0.019725438
18	0x3c1d6198	0.009605788
19	0x3baeb690	0.0053318217
20	0xbc9ee274	-0.01939509
21	0x3c69eaf4	0.014277209
22	0xbab611b6	-0.0013890776
23	0x3c89cf18	0.016822383
24	0xbc974d75	-0.018469552
25	0x3c5023ae	0.012703819
26	0xbb924f2a	-0.0044650035
27	0x3afb5365	0.0019174634
28	0x3c487c36	0.012236645
29	0xbc270883	-0.0101949
30	0xbbe08538	-0.0068518184
31	0xbc95e74e	-0.018298771
32	0x3b70b51c	0.0036729043
33	0xbbee09f3	-0.0072643696
34	0xbc433ed4	-0.011916835
35	0xbc3a4f74	-0.011371482
36	0x3c97bac3	0.018521672
37	0x3baf1399	0.0053429124
38	0x3c875f73	0.016525006
39	0xbbf22036	-0.0073890937
40	0xbc6eead7	-0.014582357
41	0x3bd227b2	0.0064134235
42	0x3c4764dc	0.012170043
43	0xbbcaf524	-0.006193774
44	0xbaac4222	-0.0013142268
45	0xbc59ca3d	-0.013292846
46	0xbc9853ef	-0.01859471
47	0x3aae049c	0.001327652
48	0x3c04b8dc	0.008100715
49	0xbb889e4c	-0.004169261
50	0xbbc63226	-0.0060484586
51	0x3bba9ade	0.005694731
52	0x3c0bdd36	0.0085366275
53	0x3c9fb868	0.019497111
54	0x3a9c8f80	0.0011944622
55	0xbc503bb1	-0.012709544
56	0xbbb54e7b	-0.0055330372
57	0xbb619112	-0.0034418744
58	0xbb9a7f82	-0.004714907
59	0x3c2c5a5b	0.010519589
60	0x3bdfb93a	0.0068275006
61	0x3c551d0f	0.013007416
62	0xbc6791b8	-0.014133863
63	0x3c5a8690	0.013337746
64	0xbbdd03eb	-0.006744852
65	0xbc5e6896	-0.01357474
66	0x3bcbcb4c	0.0062193032
67	0xbc4ebd73	-0.01261841
68	0x3c57a5b5	0.013162066
69	0x3c269859	0.010168158
70	0xbc6ba84a	-0.014383385
71	0xbc4a26a3	-0.012338313
72	0x3bef7582	0.007307709
73	0xbc1bdee6	-0.009513592
74	0x3c3930a0	0.011303097
75	0x3b86cd1b	0.004113806
76	0xbc56ee69	-0.013118365
77	0x3c8bd792	0.017070565
78	0x3bac9311	0.005266555
79	0x3c9008cc	0.01758232
80	0x39b05233	0.0003363058
81	0xbb811ed1	-0.003940441
82	0x3be9ff6b	0.007141044
83	0xbb124a75	-0.0022322212
84	0xbca49106	-0.020088684
85	0xbc9ca925	-0.019123623
86	0xbc2f082d	-0.010683102
87	0xbc9ad2c0	-0.018899322
88	0xbb9da2ed	-0.004810682
89	0xbc8e68a9	-0.01738389
90	0x3bb61fc2	0.005557985
91	0xbc9e24e9	-0.01930471
92	0xbb446395	-0.0029966582
93	0xbc8da810	-0.017292053
94	0xbc8f9cd5	-0.017530838
95	0x3c77e770	0.015130863
96	0x3c191cc0	0.009345233
97	0x3be3b39e	0.0069489023
98	0x3c92e3df	0.017930923
99	0x3c810288	0.015748277
100	0xbbfbc1b2	-0.0076830024
101	0x3c4f9a1d	0.012671021
102	0xbb86b94f	-0.004111446
103	0x3c0d54ce	0.008626176
104	0xbbce2d5e	-0.0062920293
105	0x3b20631f	0.0024473143
106	0xba03f5bb	-0.000503387
107	0xbc8a2212	-0.01686195
108	0xbc5ffedd	-0.013671604
109	0x3c1559dc	0.009115662
110	0xbbc0f674	-0.0058887545
111	0xbb209fad	-0.0024509237
112	0x3c56e6f3	0.013116586
113	0xbbf7f368	-0.007566858
114	0xbbeef605	-0.0072925114
115	0xbc6bd289	-0.014393457
116	0x3c373d1a	0.011184001
117	0x3c257697	0.010099075
118	0xbb118e55	-0.002221008
119	0x3beaa789	0.007161085
120	0xbc3f926b	-0.011692624
121	0xbc52395a	-0.0128310565
122	0x3c8bad02	0.01705027
123	0xba4a8c52	-0.0007726598
124	0xbc390f99	-0.011295223
125	0x3c274ae1	0.010210724
126	0x3c31e0a5	0.010856782
127	0xbb719ccd	-0.0036867142
128	0x3bf08d35	0.007341052
129	0x3b89d951	0.0042068143
130	0x3c52a8e6	0.012857651
131	0xbb124e84	-0.002232463
132	0x3af773e4	0.0018879143
133	0xbbd47d6e	-0.006484679
134	0x3c187670	0.009305581
135	0x3abfc884	0.0014631902
136	0x3bc5b3da	0.006033403
137	0xbc8719b5	-0.01649175
138	0xbc84120b	-0.016121885
139	0xbae2f093	-0.0017314128
140	0xbc7ba701	-0.015359641
141	0xbbab9fc0	-0.0052375495
142	0xbc7e7c0a	-0.015532503
143	0x3c4f20df	0.012642114
144	0x3b5d8d25	0.0033806053
145	0xbc58096a	-0.013185838
146	0x3c8a25cf	0.016863732
147	0x3c918b6f	0.017766682
148	0x3be77d7a	0.0070645185
149	0x3b468a07	0.0030294673
150	0xbbc6220d	-0.0060465396
151	0xbbe229fa	-0.0069019767
152	0x3c80685e	0.015674766
153	0x3c234a43	0.009966436
154	0xbc7be5ad	-0.015374583
155	0x3c3a38bc	0.011366066
156	0xbb81c063	-0.003959702
157	0x3c58011b	0.013183857
158	0xbc1271a3	-0.008938226
159	0x3b46a57f	0.0030311046
160	0xbc1daad2	-0.009623246
161	0x3ca1aa89	0.019734638
162	0x3ab9e43e	0.0014182401
163	0x3b382fea	0.002810473
164	0xbbec7fb3	-0.0072173714
165	0xbb54661d	-0.0032409497
166	0x3b3201ca	0.002716171
167	0x3be37624	0.0069415737
168	0xbb89fe47	-0.0042112204
169	0x3b8faee9	0.0043848646
170	0x3c161130	0.009159371
171	0xbc66708e	-0.014064921
172	0x3b54c48c	0.0032465784
173	0x3b6182db	0.0034410271
174	0x3b664099	0.0035133718
175	0x3bf1a372	0.0073742205
176	0xbb898a49	-0.004197393
177	0xbaa81a84	-0.0012825285
178	0xbca321d2	-0.019913588
179	0x3c8340c1	0.016022088
180	0xbc855d73	-0.016279912
181	0xbc3497c5	-0.011022513
182	0xbc825456	-0.015909355
183	0xbbd4ef5c	-0.0064982604
184	0xbc8146b0	-0.015780777
185	0xbc109ff9	-0.008827203
186	0xbc9c2727	-0.019061638
187	0x3c2a084a	0.010377953
188	0xbc83d341	-0.016091945
189	0xb9f24e0b	-0.00046215983
190	0xbc22fa18	-0.009947322
191	0x3bf73694	0.007544348
192	0x3c7b22e5	0.015328144
193	0xbc6c3fb2	-0.014419483
194	0xbb48a1d0	-0.0030614026
195	0x3b263502	0.0025361185
196	0x3ab6f6a4	0.0013959003
197	0x3c43d2fb	0.011952157
198	0xbc2169cc	-0.009851884
199	0x3a9b2c67	0.0011838794
200	0x3bde9358	0.006792467
201	0x394879fe	0.00019118932
202	0x3c69783c	0.0142498575
203	0x3c65813d	0.014007864
204	0xbc897f75	-0.016784409
205	0x3baeb444	0.005331548
206	0x3c14752c	0.009061139
207	0xbc850c4b	-0.016241213
208	0x3af5acff	0.0018743573
209	0x3c73aefc	0.0148732625
210	0x3c8efdc3	0.017454987
211	0x3c66f170	0.014095649
212	0x3c8e61cb	0.017380616
213	0xbc875ca5	-0.016523669
214	0xbc3d68f4	-0.011560667
215	0xbc96bf8c	-0.018401884
216	0x3c947a08	0.018124595
217	0x3c4ffe90	0.01269497
218	0xbc7db195	-0.015484233
219	0x3c1fc317	0.009751103
220	0xbc0204f5	-0.007935752
221	0xbaccfe72	-0.0015639795
222	0xb9a2bc65	-0.00031039413
223	0x3c45a44e	0.012063099
224	0x3c83b8d3	0.016079342
225	0x3be87713	0.007094273
226	0xbc96d6d0	-0.018412977
227	0xbbd69b5f	-0.0065492834
228	0xbc5b8a93	-0.013399738
229	0x3c8edb1c	0.017438464
230	0x3b0b3292	0.002123986
231	0x38a972bb	8.079918e-05
232	0xbc9dbf5e	-0.01925629
233	0x3c65f287	0.014034874
234	0xbc73ef9e	-0.014888672
235	0xbbf939a6	-0.007605749
236	0xbc4a079a	-0.012330914
237	0x3c6b2c6f	0.0143538555
238	0xb9c0f1dd	-0.00036801296
239	0xbbd5f024	-0.006528871
240	0x3b3f69ec	0.0029207421
241	0x3b9398d8	0.0045043044
242	0xbc8f0b3c	-0.017461412
243	0x3c0d35f2	0.008618819
244	0x3a82d557	0.0009981793
245	0xbc95fdd2	-0.018309508
246	0xbc006860	-0.007837385
247	0x3c5fb301	0.013653518
248	0x3c7b2dc3	0.015330735
249	0x3c43d13f	0.011951744
250	0x3ca5d0d6	0.020241182
251	0x3bc1d9d1	0.0059158583
252	0xba5b6c5c	-0.0008370334
253	0xbc7cd661	-0.015431971
254	0xbc79040b	-0.015198718
255	0xbbbfa1fe	-0.0058481684

fc0.bias f4 [32]
0	0xbc014f64	-0.007892463
1	0x3c8a4f2f	0.01688346
2	0x3c75f541	0.015012086
3	0xbc615719	-0.013753676
4	0xbca110cb	-0.019661328
5	0xbc5f6556	-0.013635
6	0xbbe87a7f	-0.007094681
7	0x3c25e6dd	0.010125843
8	0xbbcd3c05	-0.0062632584
9	0x3b44f92f	0.0030055752
10	0xb99dd520	-0.00030104164
11	0xbbd18843	-0.0063944175
12	0xbbad8b7a	-0.005296168
13	0xbc736a3d	-0.014856872
14	0xbc663147	-0.014049835
15	0x3c56f9d1	0.013121084
16	0x3c97afa0	0.018516362
17	0x3afa02ee	0.001907436
18	0x3c5bfc53	0.013426858
19	0xbc240909	-0.01001192
20	0xbb6ea02c	-0.0036411388
21	0x3c9a3740	0.018825173
22	0xba87c178	-0.0010357341
23	0xbc8a4356	-0.016877811
24	0xbca718b3	-0.02039752
25	0x38a0831e	7.653817e-05
26	0xbc619968	-0.013769485
27	0xbc3121b8	-0.010811262
28	0xbc1a6d34	-0.00942545
29	0xbc11275d	-0.008859483
30	0xbae2a49a	-0.0017291487
31	0xbc8c5e22	-0.01713473

fc1.weight f4 [32, 32]
0	0xbb0121df	-0.0019704027
1	0xbe44d73d	-0.19222732
2	0x3deb8365	0.11499671
3	0x3e00ea50	0.12589383
4	0xbcb291ba	-0.021798003
5	0x3ddc1763	0.10746648
6	0xbda38383	-0.07984068
7	0xbdb79eac	-0.08965811
8	0xbe8c8ec0	-0.2745266
9	0x3e35da86	0.17759141
10	0x3e4ab65a	0.19796124
11	0xbd060383	-0.032718193
12	0xbe3d3a38	-0.1847924
13	0xbee4069d	-0.44536296
14	0x3df86e39	0.12130398
15	0xbd891c0a	-0.06694801
16	0x3e21bc70	0.1579454
17	0xbed5ead0	-0.4178071
18	0xbd7332ca	-0.059374608
19	0x3bef9808	0.0073118247
20	0x3dc87349	0.09787614
21	0x3e287de0	0.16454268
22	0xbe3dce7b	-0.18535797
23	0xbd6ba181	-0.05752707
24	0x3c6879a4	0.014189158
25	0x3d1a0efe	0.037611954
26	0x3e13cc0f	0.14433311
27	0xbdaaaa52	-0.08333267
28	0xbf156630	-0.5835905
29	0x3e753175	0.23944648
30	0xbccc1c22	-0.024915759
31	0x3e177d3a	0.14793864
32	0xbe30ee99	-0.17278518
33	0xbe37c495	-0.17946084
34	0xbf3c1dc7	-0.73482937
35	0xbc6ad318	-0.014332555
36	0xbd2f7826	-0.04283919
37	0xbe2031c6	-0.15643987
38	0x3e54bd63	0.2077537
39	0xbe37e8f4	-0.17959958
40	0x3daba825	0.083816804
41	0xbf668deb	-0.900603
42	0xbe206c70	-0.15666366
43	0xbdd6f7a2	-0.10496451
44	0x3d3f734d	0.04674082
45	0xbc07bb23	-0.008284363
46	0x3dc41ca8	0.09575778
47	0x3e09ca1c	0.13456005
48	0x3d6db07e	0.058029644
49	0x3dbc1c31	0.091850646
50	0x3e0da22c	0.13831395
51	0x3e746cac	0.2386958
52	0xbdb2628e	-0.08710204
53	0xbe4d0484	-0.20021254
54	0x3d89c34d	0.06726704
55	0xbc799d06	-0.015235191
56	0x3daeffbd	0.08544872
57	0x3e9f69a2	0.3113528
58	0x3d7d352a	0.06181828
59	0x3dd7db69	0.10539896
60	0x3d62b11d	0.05534469
61	0xbf72b76d	-0.94811136
62	0x3d45202b	0.04812638
63	0x3d0b7ab6	0.034052573
64	0x3e0f8001	0.14013673
65	0x3dfb9b7e	0.12285517
66	0x3d7134e1	0.05888832
67	0x3dae785a	0.08519049
68	0xbc463646	-0.012097901
69	0xbdc39e2f	-0.095516555
70	0xbe307177	-0.17230783
71	0xbe082bd7	-0.13297974
72	0xbec1ee29	-0.37877014
73	0xbde546bd	-0.11195133
74	0x3db283aa	0.08716519
75	0x3e0a8506	0.13527307
76	0x3e61c1ec	0.22046632
77	0x3d9ac81f	0.07557701
78	0xbd6cd914	-0.05782421
79	0x3d3c6b4e	0.04600077
80	0x3e8390cc	0.2569641
81	0x3e532f86	0.20623598
82	0x3cdf6de9	0.027274089
83	0x3db5a4c3	0.088693164
84	0xbd8fd958	-0.07023877
85	0x3e399d8d	0.18126507
86	0x3d9672f8	0.07346147
87	0x3d850e41	0.06496859
88	0x3e3a164f	0.18172573
89	0xbd3f2df5	-0.046674687
90	0x3e5b94b6	0.21443447
91	0x3db337d3	0.08750882
92	0x3e90847a	0.28226072
93	0xbd992392	-0.074774876
94	0x3d8aabd2	0.067710534
95	0xbd20ec91	-0.039288107
96	0x3d12a397	0.035800543
97	0x3d18b45b	0.037281375
98	0x3dc54e67	0.09634095
99	0xbd3fa7d6	-0.04679092
100	0x3e2cb403	0.16865544
101	0xbdbe75c7	-0.09299808
102	0x3e5a69a7	0.21329366
103	0xbe026848	-0.12735093
104	0xbba0f823	-0.0049123927
105	0x3e187099	0.14886703
106	0x3e53e021	0.20690967
107	0x3dc86162	0.09784199
108	0xbc99cb5d	-0.018773729
109	0xbf1fef60	-0.6247463
110	0x3e38faf9	0.18064488
111	0xbd148e09	-0.036268268
112	0x3d9a6569	0.07538874
113	0xbf46af09	-0.7761083
114	0xbe38a334	-0.18031007
115	0x3e829429	0.25503662
116	0xbe57af8f	-0.21063064
117	0xbcfd2343	-0.030900603
118	0x3d09d50a	0.033650436
119	0x3da6e9f2	0.0815009
120	0x3da772bb	0.0817618
121	0xbdab1610	-0.083538175
122	0xbd07d031	-0.03315753
123	0xbe045b13	-0.12925367
124	0xbf64e707	-0.8941502
125	0x3e884e59	0.26622275
126	0xbd5d38eb	-0.05400936
127	0xbd88169f	-0.0664494
128	0xbcc18ce0	-0.023626745
129	0xbe63aa5e	-0.22232959
130	0xbf0f0b97	-0.5587706
131	0x3d751227	0.059831765
132	0x3da4759d	0.080302455
133	0xbe33935f	-0.17536686
134	0x3db99e0f	0.090633504
135	0x3da7bba2	0.08190085
136	0x3da2cd05	0.079492606
137	0xbf0300cb	-0.51173085
138	0xbe11b518	-0.14229238
139	0xbc949455	-0.018137136
140	0xbe521dc1	-0.20519163
141	0xbe808bcb	-0.25106654
142	0xbd476692	-0.048681803
143	0xbbbdbd7c	-0.0057904106
144	0x3e74a3b0	0.23890567
145	0xbd80b82e	-0.062851295
146	0x3e801bf0	0.25021315
147	0x3ceb50ab	0.028724989
148	0xbd403a9c	-0.046930894
149	0x3d940b8f	0.07228767
150	0xbdb64967	-0.08900719
151	0xbd10f45e	-0.035389297
152	0xbd75b6d2	-0.059988804
153	0x3e0ade2e	0.13561317
154	0x3e859a7a	0.2609442
155	0xbccd1a19	-0.025036858
156	0x3e0730f9	0.13202275
157	0xbf294d47	-0.6613354
158	0xbe001c5e	-0.12510821
159	0x3db34368	0.08753091
160	0x3d2aa77e	0.04166364
161	0xbd2a281f	-0.04154217
162	0xbed0224a	-0.4065116
163	0xbe2ad597	-0.1668304
164	0x3e76b30e	0.24091741
165	0x3ca66b85	0.020314941
166	0x3dadc80f	0.08485424
167	0x3d90217f	0.07037639
168	0x3e7e9683	0.24862103
169	0xbf2f8787	-0.68566173
170	0xbe1d3bd7	-0.15354858
171	0xbd81a96a	-0.06331141
172	0xbdc0dba9	-0.09416897
173	0xbd7a1250	-0.06105262
174	0xbd89bc49	-0.06725366
175	0x3d2b0cc1	0.04176021
176	0x3d1a84a5	0.037724156
177	0x3d9116d7	0.070844345
178	0x3e14fd19	0.14549674
179	0x3d3bdc34	0.0458643
180	0x3cad673c	0.02116739
181	0x3d509406	0.050922416
182	0x3e0ee75d	0.13955446
183	0x3e2d9fa9	0.16955437
184	0x3dee5126	0.116365716
185	0xbdbc90c6	-0.09207301
186	0x3e8c582a	0.27411014
187	0x3e7e55d7	0.24837433
188	0x3d983502	0.074319854
189	0xbece50ba	-0.40295964
190	0xbcc5231b	-0.024064591
191	0xbea14278	-0.31496024
192	0xbed5d2bb	-0.41762337
193	0xbf48a156	-0.7837118
194	0xbdaed6ae	-0.08537041
195	0xbdf53780	-0.119734764
196	0xbcfeef63	-0.031120008
197	0xbeaf0a11	-0.34187368
198	0x3dbd3fb4	0.09240666
199	0xbe73028b	-0.23731439
200	0xbe03bc5f	-0.12864827
201	0xbbc2cfd6	-0.005945186
202	0xbe193451	-0.14961363
203	0xbde62c9d	-0.11238978
204	0xbe6a64af	-0.2288997
205	0x3d0a5fc1	0.033782724
206	0xbda6eb54	-0.08150354
207	0xbed12d66	-0.4085495
208	0xbeb78621	-0.3584452
209	0xbbb5a0c9	-0.0055428487
210	0x3e5edf4b	0.21764867
211	0x3ebd2358	0.36941028
212	0xbe8c9685	-0.27458587
213	0xbf34a3f4	-0.7056267
214	0xbf2ed17b	-0.6828839
215	0x3e23baf1	0.15989281
216	0x3dfddafb	0.12395283
217	0xbd0ad34b	-0.03389291
218	0xbe197843	-0.14987282
219	0xbdf827f4	-0.121169955
220	0xbe2a1007	-0.16607676
221	0x3f1f77fe	0.6229247
222	0xbdb1d499	-0.08683128
223	0x3d168ea5	0.03675713
224	0xbdcf02e5	-0.10107974
225	0xbe174915	-0.14773972
226	0x3e2ffde4	0.17186695
227	0xbe4543cf	-0.19264148
228	0x3e16b6ea	0.14718214
229	0x3e5cca81	0.21561624
230	0xbe3fd1e7	-0.18732415
231	0xbe8ee78b	-0.27911028
232	0xbf0d5e3e	-0.5522193
233	0xbdb5367f	-0.08848285
234	0x3e7031ad	0.2345645
235	0xbb0bbab9	-0.0021321012
236	0x3ccc9a69	0.024975972
237	0x3c6a70fc	0.014309164
238	0x3d834607	0.06409841
239	0xbed0f23d	-0.40809813
240	0x3e8854f8	0.26627326
241	0x3c475a80	0.012167573
242	0xbe8448b2	-0.25836712
243	0xbe538b87	-0.20658694
244	0xbe9998f1	-0.29999498
245	0x3c200dd5	0.009768923
246	0xbe28f13f	-0.16498278
247	0xbe969760	-0.29412365
248	0x3d205409	0.039142642
249	0xbdde0638	-0.1084103
250	0x3d93bdc2	0.07213928
251	0x3e958642	0.29203993
252	0xbdc9cd6e	-0.09853636
253	0xbe3cb5c1	-0.18428709
254	0xbe8cc3ae	-0.27493042
255	0x3de5054e	0.111826524

fc1.bias f4 [32]
0	0x3e722ee3	0.23650698
1	0x3ec348a2	0.38141352
2	0x3f2235f0	0.6336355
3	0x3f12b9b6	0.5731462
4	0x3e7a20de	0.244266
5	0x3f321098	0.6955657
6	0x3f3bb7eb	0.7332751
7	0x3e5c872c	0.21535939
8	0x3edab27b	0.42714295
9	0x3e686783	0.22695737
10	0x3f1b7b04	0.6073458
11	0x3df7c4ca	0.120980814
12	0x3f31b407	0.69415325
13	0xbeb353f8	-0.35025
14	0x3e070266	0.13184509
15	0x3f1f2b40	0.6217537
16	0x3e6522fc	0.22376627
17	0x3e84c236	0.2592942
18	0x3db33138	0.08749622
19	0xbe103bfb	-0.1408538
20	0x3f3878e2	0.7205945
21	0x3f197629	0.59945923
22	0x3edb6aec	0.42855012
23	0xbe4044c9	-0.1877624
24	0x3de349ba	0.110980466
25	0x3ee72df6	0.45152253
26	0x3efe95e6	0.49723738
27	0x3f21569c	0.6302278
28	0x3f3c806e	0.7363347
29	0x3f26461d	0.64950734
30	0x3f04d280	0.518837
31	0x3eec2d75	0.4612843

fc2.weight f4 [3, 32]
0	0x3df8755d	0.1213176
1	0x3d7d5a3d	0.061853636
2	0xbd9a32f6	-0.07529251
3	0x3de9ff6a	0.114256695
4	0x3e212326	0.15736064
5	0xbd82025a	-0.06348105
6	0xbe263be0	-0.16233778
7	0x3b4dabff	0.0031383035
8	0xbd447169	-0.04795972
9	0xbc09ed67	-0.008418418
10	0xbddc777b	-0.107649766
11	0x3dfb9ccd	0.12285767
12	0xbda7f36e	-0.082007274
13	0x3ba25e4c	0.0049550887
14	0x3e8c64e2	0.27420717
15	0x3db28bbf	0.08718061
16	0xbb080e29	-0.0020760393
17	0x3de1b2c5	0.11020426
18	0xbe3812dd	-0.17975946
19	0x3c09b6da	0.008405412
20	0xbd9eb7bb	-0.077498876
21	0x3cb98a0a	0.02264883
22	0xbbeafb2c	-0.0071710553
23	0xbbbd21b9	-0.0057718423
24	0x3db9abc2	0.09065963
25	0xbc737784	-0.014860038
26	0xbe91a238	-0.28444076
27	0xbdc1cdd5	-0.094630875
28	0xbe133f0b	-0.14379518
29	0xbdf2813e	-0.11841057
30	0xbdb74ff1	-0.089507945
31	0x3d857902	0.06517221
32	0x3e069dd2	0.13146141
33	0x3dfaef16	0.12252633
34	0xbe082498	-0.1329521
35	0x3e4e24d4	0.20131236
36	0x3dc7ec43	0.0976186
37	0xbd8a05d7	-0.06739395
38	0xbcc2c180	-0.023773909
39	0xbd1037fb	-0.035209637
40	0xbc6980df	-0.014251917
41	0x3b344d61	0.0027511942
42	0xbde0424b	-0.109501444
43	0xbd2f5d6e	-0.04281371
44	0xbe1db9d5	-0.1540292
45	0xbc10dfdc	-0.008842435
46	0x3e9cf72b	0.30657324
47	0xbd06b619	-0.032888506
48	0x3b320135	0.0027161364
49	0xbd24fd60	-0.0402807
50	0x3e753e40	0.23949528
51	0x39a382f4	0.0003118735
52	0xbd5c90b9	-0.053848956
53	0xbd35c0ea	-0.04437343
54	0xbc4a8263	-0.012360188
55	0x3af84e5f	0.0018944255
56	0xbf338e32	-0.7013885
57	0x3d66be91	0.056334082
58	0x3ca6b014	0.020347632
59	0xbe243ef9	-0.16039647
60	0xbde7b4f6	-0.113138124
61	0xbe300325	-0.171887
62	0xbdab7a03	-0.08372881
63	0x3e45e60d	0.19326039
64	0xbdb47333	-0.08811035
65	0xbdca56a0	-0.09879804
66	0xbd9ab979	-0.07554907
67	0xbd92160f	-0.071331136
68	0x3d499c6d	0.049221445
69	0xbe09fe98	-0.13476026
70	0x3f0eba30	0.5575285
71	0xbdf446d5	-0.11927573
72	0xbe0983e3	-0.13429217
73	0xbdf4b106	-0.11947827
74	0xbe152bd5	-0.14567502
75	0xbc9ccdf1	-0.01914117
76	0xbdfb71e1	-0.1227758
77	0x3d600b81	0.05469847
78	0x3d9e6148	0.07733399
79	0xbd95a005	-0.07305912
80	0xbc815d28	-0.01579149
81	0x3d9a7287	0.075413756
82	0x3d1b31d8	0.03788933
83	0xbc23b8da	-0.0099928025
84	0xbe2c1216	-0.16803774
85	0xbe088739	-0.13332833
86	0xbd34a74c	-0.04410486
87	0xbd095a82	-0.03353358
88	0x3df422e3	0.119207166
89	0xbc424ee3	-0.011859628
90	0x3e27ac0a	0.16374221
91	0xbe03d183	-0.12872891
92	0xbe32743b	-0.17427151
93	0xbdebff4c	-0.115233034
94	0xbe1019f7	-0.14072405
95	0xbd928529	-0.071543045

fc2.bias f4 [3]
0	0xbf4e8c73	-0.8068306
1	0xbf0e351e	-0.555498
2	0x3f2a75f4	0.6658623

road_emb.0.weight f4 [144]
0	0x3fb967ac	1.4484763
1	0x3f87ca42	1.0608599
2	0x3fa5154a	1.2897122
3	0x3f79bc45	0.975529
4	0x3f60c6df	0.87803453
5	0x3f88e2f7	1.0694264
6	0x3f9a1053	1.2036232
7	0x3f9d5949	1.2292873
8	0x3f980af2	1.187834
9	0x3ec36959	0.3816631
10	0x3f7e318c	0.9929435
11	0x3f80f57c	1.0074916
12	0x3f93bd80	1.1542206
13	0x3f696ebd	0.911846
14	0x3fa2603e	1.2685621
15	0x3f6d28b9	0.9264026
16	0x3f83e938	1.0305548
17	0x3f7c879a	0.9864441
18	0x3f93aa2d	1.1536309
19	0x3f88260f	1.0636615
20	0x3f9fc452	1.2481787
21	0x3eba83d0	0.3642869
22	0x3f6597fb	0.8968503
23	0x3f6d1435	0.9260896
24	0x3fb14d7a	1.3851769
25	0x3f83c71a	1.0295136
26	0x3f9c6ba1	1.2220346
27	0x3f80a672	1.0050795
28	0x3f626927	0.884417
29	0x3f8bfd00	1.0936584
30	0x3f93d0d1	1.1548101
31	0x3f9a304b	1.2045988
32	0x3f9f15cd	1.2428528
33	0x3f152230	0.5825529
34	0x3f819e67	1.0126466
35	0x3f7d097b	0.9884259
36	0x3fb5d95f	1.4206961
37	0x3f885e98	1.0653868
38	0x3fa388d0	1.2776127
39	0x3f5945b5	0.8487199
40	0x3f77f65c	0.9686029
41	0x3f8ae418	1.0850859
42	0x3fd34f2c	1.6508536
43	0x3f934d19	1.1507903
44	0x3fa73715	1.3063685
45	0x3ee7c458	0.45266986
46	0x3f800bf6	1.000365
47	0x3f61aec7	0.88157314
48	0x3fab696e	1.339155
49	0x3f88e107	1.0693673
50	0x3f9b6970	1.2141552
51	0x3f77dfb4	0.9682572
52	0x3f75d404	0.96026635
53	0x3f70b12e	0.94020355
54	0x3fadad65	1.3568541
55	0x3f8cc10e	1.0996416
56	0x3fad8a9f	1.3557929
57	0x3ed7b8a1	0.42133048
58	0x3f836e00	1.0267944
59	0x3f61314d	0.8796585
60	0x3f93a13c	1.153358
61	0x3f840e55	1.0316874
62	0x3fa2990c	1.2702956
63	0x3f532d8e	0.82491386
64	0x3f5df20b	0.86697453
65	0x3f5533ec	0.8328235
66	0x3fb3e781	1.4055024
67	0x3f9668cb	1.175073
68	0x3f9f1137	1.2427129
69	0x3f205ae1	0.6263867
70	0x3f8c4e31	1.0961362
71	0x3f533a54	0.82510877
72	0x3fc2bad6	1.5213268
73	0x3f82a06e	1.0205209
74	0x3fadf888	1.3591471
75	0x3f7c2af8	0.98503065
76	0x3f814223	1.0098308
77	0x3f8a1ebe	1.0790632
78	0x3f8e67f8	1.1125479
79	0x3f8b785c	1.0896106
80	0x3faa8352	1.3321326
81	0x3f33cff6	0.702392
82	0x3f86c069	1.0527469
83	0x3fa66b4d	1.3001496
84	0x3fae8771	1.3635083
85	0x3f9c8097	1.2226743
86	0x3fa9bf20	1.3261452
87	0x3f5c663e	0.8609351
88	0x3f50499f	0.81362337
89	0x3f7b000c	0.98046947
90	0x3fb0b691	1.3805715
91	0x3f8b43a3	1.0880016
92	0x3f9ee6b9	1.2414161
93	0x3ed39533	0.41324767
94	0x3f81c107	1.0137032
95	0x3fac7e9a	1.3476136
96	0x3f994d5c	1.1976733
97	0x3f80125b	1.0005602
98	0x3fae258f	1.3605212
99	0x3f6b415e	0.9189662
100	0x3f61593d	0.8802679
101	0x3f61d8e8	0.882216
102	0x3fba5917	1.4558438
103	0x3f90a829	1.1301318
104	0x3fa44cb1	1.2835904
105	0x3f0f686e	0.5601872
106	0x3f8b99e3	1.0906337
107	0x3fabcc90	1.3421803
108	0x3fb690e7	1.4262971
109	0x3f6a4f2f	0.91527075
110	0x3fa4631b	1.2842745
111	0x3f6ab7bd	0.9168661
112	0x3f794d14	0.97383237
113	0x3f99845b	1.1993517
114	0x3fa53b82	1.2908785
115	0x3f91312c	1.1343131
116	0x3fad2fde	1.3530233
117	0x3f342672	0.7037116
118	0x3fabc493	1.3419365
119	0x3f77cef3	0.96800154
120	0x3f8d99fa	1.1062615
121	0x3f8eaaf6	1.1145923
122	0x3fa5f2fa	1.2964776
123	0x3f84c783	1.0373386
124	0x3f8ebc23	1.1151165
125	0x3f86bee1	1.0527002
126	0x3fa3d4de	1.2799337
127	0x3f9646a0	1.1740303
128	0x3faac92a	1.334264
129	0x3f2f23a2	0.68413746
130	0x3faeabb8	1.3646154
131	0x3f80e854	1.0070901
132	0x3fb0a3f4	1.3800035
133	0x3f847d50	1.0350742
134	0x3fa5c4cb	1.2950681
135	0x3f543e4f	0.82907575
136	0x3f7e256d	0.9927586
137	0x3f7f1405	0.9963992
138	0x3f972596	1.1808345
139	0x3f977232	1.1831725
140	0x3faaffe6	1.3359344
141	0x3f327d5d	0.6972254
142	0x3fa2d216	1.2720363
143	0x3f7bccba	0.9835926

road_emb.0.bias f4 [144]
0	0x3e505968	0.20346606
1	0x3e2b3973	0.16721134
2	0x3dd39012	0.103302136
3	0x3e1fcd77	0.15605722
4	0x3e87176c	0.26385057
5	0x3e0eeae2	0.13956788
6	0x3dce4ea6	0.10073595
7	0x3eaa8e7e	0.33311838
8	0x3ca5ab0b	0.020223161
9	0xbf2220a3	-0.6333105
10	0x3e8dd214	0.2769934
11	0x3e89fec4	0.26952183
12	0x3e754f5a	0.23956051
13	0x3e74349b	0.23848192
14	0x3e0e6e2e	0.13909218
15	0x3e826cf3	0.25473747
16	0x3e355cca	0.17711177
17	0x3e3e4714	0.18581802
18	0x3dfa3e2b	0.12218889
19	0x3e85eecf	0.2615876
20	0xba5f1a73	-0.0008510716
21	0xbf2dfd6b	-0.6796481
22	0x3e59b8a6	0.21261844
23	0x3e6f29b0	0.23355746
24	0x3e3f1c6b	0.18663184
25	0x3e29aceb	0.16569869
26	0x3e84dcb5	0.25949636
27	0x3e094a10	0.13407159
28	0x3e958e75	0.2921025
29	0x3e68fff2	0.22753885
30	0x3dceec41	0.101036556
31	0x3e93913b	0.2882174
32	0x3a4ef42c	0.0007894661
33	0xbee30dd4	-0.44346488
34	0x3e98bce1	0.29831603
35	0x3e81f124	0.25379288
36	0x3e0ba15d	0.13635774
37	0x3e19cea0	0.15020227
38	0x3e7dee9a	0.2479805
39	0x3e8208c9	0.25397328
40	0x3e49d7ca	0.19711223
41	0x3ded0529	0.1157325
42	0x3db57a1c	0.08861181
43	0x3eab1315	0.33412996
44	0x3b10cfab	0.0022096436
45	0xbee5af11	-0.44860128
46	0x3e80d986	0.25165957
47	0x3e843036	0.25818032
48	0x3e81c5be	0.25346178
49	0x3e34b808	0.17648327
50	0x3e7ea600	0.24868011
51	0x3e28f3cf	0.16499256
52	0x3e899e0a	0.26878387
53	0x3e63dc68	0.22252047
54	0x3dfb5a6b	0.12273105
55	0x3e9cd594	0.30631697
56	0x3cc3e99d	0.023915106
57	0xbf0e2f05	-0.55540496
58	0x3e839add	0.2570409
59	0x3e79f818	0.24411047
60	0x3e238876	0.15970024
61	0x3e49a67c	0.19692415
62	0x3e93621e	0.28785795
63	0x3e724e05	0.23662575
64	0x3e8cb3b8	0.27480865
65	0x3e796059	0.2435316
66	0x3d91f2b5	0.07126371
67	0x3e9c21b4	0.30494463
68	0xbcb9176b	-0.022594174
69	0xbea33e55	-0.31883493
70	0x3ea04793	0.31304607
71	0x3e6f7045	0.23382671
72	0x3e87e8ed	0.26544896
73	0x3e57988c	0.21054286
74	0x3e0663ea	0.13124052
75	0x3e2a5a2f	0.16635965
76	0x3e81adc3	0.25327882
77	0x3e1aa607	0.15102397
78	0x3e6c48f3	0.23074703
79	0x3e864dc7	0.26231214
80	0x3c9e9bb1	0.019361349
81	0xbe8fd265	-0.28090206
82	0x3e8023f4	0.2502743
83	0x3e46bbcf	0.19407581
84	0x3e4f8576	0.20265755
85	0x3dd0a434	0.10187569
86	0x3dfb3629	0.122661896
87	0x3e67506d	0.22589274
88	0x3e7e1ab5	0.24814875
89	0x3e4dc647	0.20095168
90	0x3dd1559c	0.10221407
91	0x3e957a72	0.2919498
92	0x3cd3005d	0.02575701
93	0xbf217896	-0.63074625
94	0x3e8410d4	0.2579409
95	0x3e1b7bc7	0.15183936
96	0x3e90cfa8	0.2828343
97	0x3e45e541	0.19325735
98	0x3e210ae0	0.15726805
99	0x3e4d1bd2	0.20030144
100	0x3e89b0c8	0.26892686
101	0x3e880b45	0.26571098
102	0x3e0eaa1f	0.13932084
103	0x3ea089b3	0.31355056
104	0x3ca135a7	0.019678904
105	0xbeca6ee8	-0.3953774
106	0x3ea74114	0.32666838
107	0x3e234f1d	0.15948148
108	0x3e58bb2d	0.21165152
109	0x3e7b9919	0.24570121
110	0x3e84331f	0.25820252
111	0x3e5bf861	0.21481468
112	0x3e5f0202	0.2177811
113	0x3d761f0e	0.06008821
114	0x3e5e4862	0.217073
115	0x3e624dbf	0.2209997
116	0x3cae46c9	0.021273987
117	0xbe808aba	-0.2510584
118	0x3e025f68	0.12731707
119	0x3e5daf09	0.21648802
120	0x3e9177d3	0.2841173
121	0x3e321227	0.17389737
122	0x3e70942a	0.2349402
123	0x3e3c906b	0.18414466
124	0x3e0211d3	0.12702112
125	0x3e0c2a81	0.13688089
126	0x3e3257f3	0.17416362
127	0x3e998cb1	0.29990152
128	0xbc2f3f25	-0.010696207
129	0xbe8a8c4e	-0.2706017
130	0x3e535213	0.20636778
131	0x3e8327ef	0.25616404
132	0x3e83dfbf	0.25756642
133	0x3e1e11e7	0.15436517
134	0x3e918d4c	0.28428113
135	0x3e7a58e8	0.24447978
136	0x3e0e32f9	0.13886632
137	0x3e5436b0	0.20723987
138	0x3e6f0747	0.2334262
139	0x3e61db1a	0.22056237
140	0x3d1709cd	0.03687458
141	0xbe9926f8	-0.29912543
142	0x3e3babd1	0.18327262
143	0x3e5ec50b	0.21754853

road_emb.1.weight f4 [64, 144]
0	0xbe5b6ccf	-0.21428226
1	0xbe17be9f	-0.1481881
2	0xbf216504	-0.6304476
3	0xbd693e63	-0.056944262
4	0xbd1d0f38	-0.03834459
5	0x3dc6479f	0.096816294
6	0x3d1a9ee8	0.0377492
7	0x3e631573	0.22176151
8	0x3dc28943	0.09498837
9	0xbd9fc5ea	-0.07801421
10	0x3e52c8a2	0.20584348
11	0xbcc71fb9	-0.024307119
12	0x3d1f2814	0.03885658
13	0xbe3f028e	-0.18653318
14	0xbee5e070	-0.44897795
15	0xbe6d6fd4	-0.2318719
16	0x3d9aea60	0.07564235
17	0xbd9f44d5	-0.077768005
18	0x3e22765d	0.15865465
19	0x3e125763	0.14291148
20	0xbd2db4ea	-0.04240886
21	0x3d9d0236	0.07666437
22	0x3e38adce	0.18035051
23	0x3d15ba45	0.036554594
24	0xbddb7610	-0.10715878
25	0x3ce3e6f3	0.027820086
26	0xbf362165	-0.71144706
27	0x3e2c5bdb	0.16831915
28	0xbdf0c924	-0.117571145
29	0x3db9c6ed	0.09071145
30	0x3d1db2aa	0.038500465
31	0x3e5fe040	0.21862888
32	0x3c7a7f20	0.015289098
33	0xbd8f3655	-0.06992785
34	0x3e7cc282	0.24683574
35	0x3db121ed	0.08649049
36	0xbecdc1f1	-0.40187028
37	0xbc1db2f9	-0.00962519
38	0xbee73444	-0.45157063
39	0xbeacb70a	-0.33733398
40	0xbe24c8f8	-0.16092288
41	0x3da749a4	0.08168343
42	0x3f0cb1d4	0.54958844
43	0xbd9a1e80	-0.07525349
44	0xbe16af24	-0.14715248
45	0x3e490a5f	0.19632863
46	0xbdab36c0	-0.08360052
47	0x3db7a7a9	0.089675255
48	0xbcc02a87	-0.023457779
49	0xbdcb1e73	-0.09917917
50	0xbeac0a4e	-0.33601612
51	0xbc64bd20	-0.013961107
52	0xbe0a65e1	-0.13515426
53	0xbdf003a2	-0.11719443
54	0x3e9c1624	0.30485642
55	0xbe3f3536	-0.18672642
56	0xbe88ad73	-0.2669483
57	0x3cc3da64	0.023907848
58	0x3dbfdff3	0.09368887
59	0xbcb7dcdb	-0.02244418
60	0xbd8caa05	-0.06868366
61	0x3d0b09aa	0.033944763
62	0xbef17592	-0.47160012
63	0xbe293242	-0.16523078
64	0x3d9dce2b	0.07705339
65	0x3e64c248	0.22339737
66	0xbd36205b	-0.04446445
67	0xbe4c573a	-0.1995515
68	0xbe13938c	-0.14411753
69	0xbe074090	-0.13208222
70	0x3e23e178	0.16003978
71	0xbdf613bd	-0.120154835
72	0xbea730de	-0.3265447
73	0x3e35bf69	0.17748798
74	0xbe549bb3	-0.2076252
75	0xbd470839	-0.048591826
76	0xbccc0996	-0.024906915
77	0x3e01631a	0.1263546
78	0x3ea51434	0.32241976
79	0x3bd8d1b9	0.0066167978
80	0xbd54ff4a	-0.052001275
81	0x3e220ba7	0.15824758
82	0x3d438cfc	0.047741875
83	0xbef64389	-0.480984
84	0x3dfe2009	0.12408454
85	0xbd425107	-0.047440555
86	0xbe8a34a3	-0.26993284
87	0xbe4cfa53	-0.20017366
88	0x3c3dc7d6	0.011583289
89	0x3e1b756c	0.15181512
90	0x3d7bfb83	0.061519157
91	0x3dfab3a0	0.12241292
92	0xbe98ce19	-0.2984474
93	0x3cbd6271	0.02311823
94	0x3e498125	0.19678171
95	0xbdb2ebe2	-0.08736397
96	0x3d7a8038	0.061157435
97	0x3bc22aa0	0.0059254915
98	0xbead27ac	-0.3381933
99	0xbe53876d	-0.2065713
100	0xbe68aec2	-0.22722915
101	0x3bf1f8ea	0.007384409
102	0x3e8c7d57	0.27439377
103	0x3db07348	0.08615738
104	0x3d39b4de	0.045338504
105	0x3e8319e5	0.25605693
106	0x3e57f58c	0.21089762
107	0xbe0f6bf5	-0.14006026
108	0xbe57d10f	-0.21075843
109	0x3d6a8306	0.05725386
110	0xbe806ff6	-0.2508542
111	0xbe3d3846	-0.18478498
112	0xbe446d80	-0.19182396
113	0x3d04c71a	0.03241644
114	0x3e7402f7	0.23829256
115	0xbd40134e	-0.04689341
116	0xbdd337d7	-0.10313385
117	0x3dd3fa51	0.103504784
118	0xbd762a8f	-0.06009918
119	0x3daafd5e	0.08349107
120	0xbb4a5278	-0.003087191
121	0xbe61c728	-0.22048628
122	0x3baa8d10	0.0052048042
123	0xbdc86a3a	-0.09785886
124	0xbda8e979	-0.082476564
125	0x3b3b618d	0.002859208
126	0x3eb6e12a	0.35718662
127	0x3d91a46a	0.071114376
128	0x3d4f1487	0.050556686
129	0xbd18492c	-0.037179157
130	0xbe1e353c	-0.15449995
131	0x3e192fc6	0.1495963
132	0xbd4eb251	-0.050463025
133	0x3cc57b51	0.024106653
134	0xbdb1d94d	-0.08684025
135	0xbe65f48a	-0.22456565
136	0x3b4331de	0.0029784362
137	0x3e394403	0.1809235
138	0x3f1aa56b	0.6040866
139	0xbda33989	-0.07969958
140	0xbd9cc3ff	-0.07654571
141	0x3d8de68c	0.06928739
142	0xbea960bd	-0.33081618
143	0x3d9dbea3	0.07702377
144	0xbe5795a7	-0.21053182
145	0xbe08cb9b	-0.1335892
146	0xbf208209	-0.6269842
147	0x3e0df60a	0.13863388
148	0x3dd25bc5	0.1027141
149	0x3d96ab6c	0.07356915
150	0x3eaeacc6	0.3411619
151	0xbcb14fe7	-0.021644546
152	0x3ddb61ea	0.10712035
153	0x3e1a6995	0.15079339
154	0x3d815260	0.0631454
155	0xbdd295d3	-0.10282483
156	0x3b7ebeba	0.0038871006
157	0xbd2361e4	-0.039888278
158	0xbf0a649f	-0.54059786
159	0x3cef6ef9	0.02922772
160	0xb89114fa	-6.918046e-05
161	0x3dc4fba4	0.09618309
162	0x3e89e8f2	0.26935536
163	0xbe1efa59	-0.15525188
164	0x3cc24af1	0.023717375
165	0xbe1b5262	-0.15168145
166	0x3daf8705	0.08570675
167	0xbea763ea	-0.32693416
168	0xbdfd5934	-0.1237053
169	0xbe330d0a	-0.17485443
170	0xbf05ec20	-0.52313423
171	0x3e43d429	0.19123901
172	0x3e6b7dc5	0.22997196
173	0x3dbd3088	0.09237772
174	0x3dad00c7	0.08447414
175	0xbdfff9bb	-0.12498804
176	0x3e9e101f	0.30871674
177	0x3d1bbf16	0.03802403
178	0x3e33935d	0.17536683
179	0xbe2c9726	-0.16854534
180	0xbe72eb35	-0.23722537
181	0xbe109e3e	-0.14122865
182	0xbe9307f0	-0.28716993
183	0x3eab0f69	0.33410195
184	0x3deb8a06	0.11500935
185	0x3dfeb769	0.124373265
186	0x3d82b9f0	0.06383121
187	0xbeaa817d	-0.33301917
188	0x3dd1450f	0.1021825
189	0xbd2ed146	-0.042680047
190	0xbe9d4244	-0.3071462
191	0xbd0054eb	-0.031330984
192	0xbeafe8df	-0.34357354
193	0xba6e0ac2	-0.00090805825
194	0xbe44b9a4	-0.19211441
195	0x3e4ed543	0.2019854
196	0x3e7a87f2	0.24465922
197	0x3e12940a	0.14314285
198	0x3e38ef0d	0.1805994
199	0xbec60f03	-0.38683328
200	0x3e2f0503	0.17091756
201	0x3e2427df	0.16030835
202	0xbe1bfcbd	-0.15233131
203	0xbd2deca4	-0.042462006
204	0x3e3aae73	0.1823061
205	0xbdf2f2c1	-0.11862708
206	0xbeb3fff8	-0.35156226
207	0x3e3bf67f	0.1835575
208	0x3dc0552d	0.09391246
209	0x3d03070d	0.031989146
210	0x3eb3e8fa	0.35138685
211	0xbe3831f5	-0.17987807
212	0x3ea4b088	0.32165933
213	0xbd80462d	-0.06263385
214	0xbe190a07	-0.14945231
215	0x3bd68a9a	0.0065472843
216	0xbede7e63	-0.434558
217	0xbde2ba62	-0.11070706
218	0xbf0cbe93	-0.54978293
219	0x3dfe9767	0.124312215
220	0x3dbd5539	0.092447706
221	0x3d3768a4	0.044777527
222	0x3e62375a	0.22091427
223	0x3ce290ed	0.027656997
224	0x3e8d5cee	0.27609962
225	0x3e07dcd2	0.1326783
226	0xbd8fe00c	-0.070251554
227	0xbea5851c	-0.32328117
228	0xbe544cb8	-0.20732391
229	0x3cfb8844	0.030704625
230	0xbec27dbe	-0.3798656
231	0x3dc6732c	0.09689936
232	0x3df057f6	0.11735527
233	0xbdb0032c	-0.08594355
234	0x3ccb8eb5	0.024848321
235	0xbe836315	-0.2566153
236	0x3e882922	0.26593882
237	0x3e59cf0b	0.21270387
238	0xbe471ac8	-0.1944381
239	0xbebd0a9e	-0.36922163
240	0x3b8738ca	0.004126643
241	0xbe51b568	-0.20479357
242	0xbeddc640	-0.43315315
243	0xbdbc4c47	-0.09194236
244	0xbd16eadf	-0.036845084
245	0xbe6120fc	-0.21985239
246	0x3ed33e80	0.4125862
247	0xbd1450fa	-0.036210038
248	0x3e31e94c	0.17374152
249	0x3da82aa5	0.08211259
250	0xbea5303a	-0.32263356
251	0xbf076831	-0.5289336
252	0xbeee818a	-0.46583205
253	0xbce5540a	-0.027994175
254	0xbf4a116d	-0.7893284
255	0x3dc0e6c4	0.09419015

road_emb.1.bias f4 [64]
0	0x3cf0775c	0.02935379
1	0x3c7866ce	0.015161229
2	0xbd4b82d1	-0.049685303
3	0x3c1acbfb	0.009448047
4	0x3db02fc1	0.08602858
5	0xbd1d75b4	-0.03844233
6	0xbd8a9009	-0.06765754
7	0xbcac73d4	-0.021051325
8	0x3ccc053c	0.02490484
9	0xbd789a4f	-0.060694035
10	0xbd63f55e	-0.055653922
11	0xbbe799e0	-0.007067904
12	0xbe6c5e7d	-0.2308292
13	0xbc4950b0	-0.012287304
14	0x3c56ca08	0.013109691
15	0x3b7ff5ab	0.0039056342
16	0xbd806e07	-0.06270986
17	0xbe01e484	-0.12684828
18	0xbe3a98a6	-0.18222293
19	0xbceaefa8	-0.02867873
20	0xbe0732b8	-0.13202941
21	0xbe417527	-0.18892346
22	0x3b1fae82	0.002436549
23	0xbd9af492	-0.07566179
24	0xbceeb558	-0.029139206
25	0x3e0736ef	0.13204549
26	0xbd886f45	-0.06661848
27	0x3d84ca0d	0.06483851
28	0xbde387aa	-0.1110986
29	0xbdededb2	-0.116176024
30	0xbd08bece	-0.03338509
31	0x3d130171	0.035890047
32	0x3cf9ba67	0.030484391
33	0x3dc0c376	0.09412281
34	0x3d389629	0.04506508
35	0xbd7ca9df	-0.06168544
36	0xbda68b8c	-0.08132085
37	0xbd7a35b1	-0.06108636
38	0x3ded3967	0.11583214
39	0xbd9b3b67	-0.075796895
40	0xbdc03d19	-0.093866535
41	0xbcdb0d35	-0.026739696
42	0xbd5c7b27	-0.053828385
43	0x3d64baaa	0.05584208
44	0xbb5f7201	-0.0034095051
45	0xbce18c71	-0.027532788
46	0xbd9a0002	-0.07519533
47	0x3c79278e	0.0152071845
48	0x3d3219a5	0.043481488
49	0xbd3ef17b	-0.046617012
50	0x3c95d491	0.018289836
51	0x3adcf90d	0.0016858891
52	0xbabc8ae0	-0.001438465
53	0x3ce294bf	0.027658818
54	0xbdbc4931	-0.09193648
55	0xbc8b5641	-0.017008903
56	0xbd85f0fd	-0.065401055
57	0xbe600acc	-0.21879119
58	0xbdb5e4fd	-0.08881567
59	0xbd4f269d	-0.050573934
60	0xbd860793	-0.065444134
61	0x3da75f43	0.081724666
62	0x3cdcb6cc	0.026942633
63	0x3da93fc1	0.08264113

cav_emb.0.weight f4 [11]
0	0x3f9027d1	1.1262151
1	0x3f243879	0.6414867
2	0x3f31db62	0.69475377
3	0x3f67135a	0.90263903
4	0x3fe09da2	1.7548106
5	0x3fe136f6	1.7594898
6	0x3fc9a5cc	1.5753722
7	0x3f8ce4b2	1.1007292
8	0x3f3bc50f	0.7334756
9	0x3f7bba8f	0.9833154
10	0x3fa4a462	1.2862666

cav_emb.0.bias f4 [11]
0	0x3d80173b	0.06254431
1	0x3d0746a1	0.03302634
2	0x3d29572c	0.0413429
3	0x3d974d1b	0.073877536
4	0xbb906a1d	-0.004407181
5	0x3e0bf254	0.1366666
6	0xbcb1977d	-0.02167868
7	0x3df28fc9	0.11843831
8	0x3e0df2f3	0.13862209
9	0xbd20a5ba	-0.03922055
10	0xbd7be950	-0.0615018

cav_emb.1.weight f4 [64, 11]
0	0xbe960461	-0.29300216
1	0x3e07b508	0.13252652
2	0x3da36d58	0.0797984
3	0x3c2097cb	0.009801815
4	0x3f2c4912	0.67298996
5	0xbe9d27ce	-0.3069443
6	0x3e4fa5ed	0.2027814
7	0x3e0b33dd	0.13594003
8	0x3dc68979	0.096941896
9	0xbe0eb239	-0.13935174
10	0x3daf4ded	0.08559785
11	0xbe4fac72	-0.20280626
12	0x3c0521a8	0.0081257
13	0xbe2e947c	-0.1704883
14	0xbe5a9779	-0.21346845
15	0xbefa34ea	-0.48868495
16	0x3e8e7540	0.2782383
17	0xbcbb2a40	-0.022847295
18	0xbe95d43a	-0.2926348
19	0xbe3908ec	-0.1806981
20	0x3ea4635b	0.32107052
21	0x3e9ab93f	0.30219457
22	0xbe826660	-0.2546873
23	0xbed38738	-0.413141
24	0xbd2a63b8	-0.041599005
25	0x3dd8c7e8	0.10585004
26	0x3f5878ce	0.84559333
27	0x3e81e27f	0.25368115
28	0xbe407723	-0.18795447
29	0x3c278795	0.010225196
30	0x3dc92e26	0.09823255
31	0xbe1d6b17	-0.15372883
32	0x3eec1f33	0.46117553
33	0x3de3cb2c	0.11122736
34	0xbe8eee79	-0.27916315
35	0xbe08c24d	-0.1335537
36	0xbe8b513f	-0.27210423
37	0xbf4c5aac	-0.79825854
38	0x3f9538cd	1.1657959
39	0xbf0f8bb6	-0.56072557
40	0xbd408966	-0.047006033
41	0xbde21789	-0.11039645
42	0x3dcc741f	0.09983086
43	0xbe0bda0a	-0.13657394
44	0xbe9b9282	-0.30385214
45	0x3ea542eb	0.32277617
46	0x3e68fc8a	0.22752586
47	0xbeb5bd62	-0.3549605
48	0xbe249fd5	-0.16076596
49	0x3dbf5ecf	0.09344255
50	0x3e688b36	0.22709355
51	0xbd9bf3ec	-0.07614884
52	0x3de335d8	0.11094254
53	0xbe4cba61	-0.19992973
54	0x3e63de38	0.22252738
55	0xbea63707	-0.32463858
56	0xbe98d547	-0.29850218
57	0x3edc24ac	0.42996728
58	0x3cd3d4a3	0.025858229
59	0x3ef6bb22	0.48189646
60	0x3e54dc30	0.2078712
61	0xbe4c3aa4	-0.19944245
62	0xbe735935	-0.23764499
63	0x3d7d214c	0.061799332
64	0xbda17fe7	-0.078857236
65	0xbdbb406e	-0.09143148
66	0xbe5c96fd	-0.21541972
67	0xbd8b5acd	-0.06804428
68	0x3e09ab40	0.13444233
69	0xbe74882a	-0.23880067
70	0x3e0acc80	0.13554573
71	0x3cca50bb	0.024696698
72	0xbe95e17e	-0.292736
73	0x3e208896	0.15677103
74	0xbddbe21e	-0.10736488
75	0xbe189ea1	-0.14904262
76	0xbd9f91cb	-0.0779148
77	0xbd2f2daf	-0.042768177
78	0xbdb3257c	-0.08747384
79	0xbd929f82	-0.0715933
80	0x3f19425b	0.59866875
81	0xbd4daed7	-0.05021557
82	0xbe71cc11	-0.23613001
83	0x3f3b209a	0.7309662
84	0x3e7d4c75	0.24736197
85	0x3e7961e3	0.24353747
86	0xbf5cd937	-0.86268944
87	0x3dbadad1	0.09123767
88	0xbe916b91	-0.2840238
89	0xbd2a1b87	-0.04153016
90	0x3e0b15f7	0.13582598
91	0x3d0dd237	0.034624305
92	0x3ee476e5	0.4462196
93	0xbd83f207	-0.064426474
94	0xbe7eff2f	-0.24902032
95	0x3e2f9ebe	0.17150399
96	0x3d9adfdf	0.07562231
97	0x3de9c9c9	0.114154406
98	0x3dd88351	0.105719216
99	0xbf0373ea	-0.51348746
100	0x3e0ef967	0.13962327
101	0x3e5c87b8	0.21536148
102	0x3e58042c	0.21095341
103	0xbec1ee6e	-0.3787722
104	0xbe8b3041	-0.27185252
105	0x3f07d4c8	0.53059053
106	0xbcc80b37	-0.02441941
107	0x3dac3c64	0.08409956
108	0xbde48fec	-0.111602634
109	0x3e49bfc1	0.19702055
110	0xbe2f3e7d	-0.17113681
111	0xbea2c83a	-0.31793386
112	0x3e83cd44	0.25742543
113	0xbdf49632	-0.1194271
114	0x3f3da6e4	0.7408278
115	0xbbdc87ae	-0.0067300415
116	0x3d03a623	0.032140862
117	0x3cc4b11c	0.024010234
118	0x3cb0a5af	0.02156338
119	0xbd6dd3d3	-0.05806334
120	0xbc589da8	-0.013221182
121	0xbbc25237	-0.005930211
122	0xbd49ef3e	-0.049300425
123	0x3d81d2a1	0.063390024
124	0xbc8c40bc	-0.017120712
125	0xbe12e579	-0.1434535
126	0xbb3755b0	-0.0027974658
127	0x3e860e7d	0.2618293
128	0xbde97d4a	-0.1140085
129	0x3d5c6462	0.05380667
130	0x3e900a93	0.28133067
131	0x3d48070f	0.048834857
132	0xbea58f82	-0.3233605
133	0x3e4058f4	0.18783933
134	0x3e8d3772	0.27581364
135	0xbdcba482	-0.09943487
136	0x3f3a537a	0.72783625
137	0x3daabe35	0.0833706
138	0xbe88e4da	-0.267371
139	0x3eb7ca8b	0.35896716
140	0x3d535815	0.051597673
141	0xbeb79d8e	-0.35862392
142	0x3e454a53	0.19266634
143	0xbe951872	-0.29120213
144	0xbe43ec40	-0.19133091
145	0x3e6ed0dc	0.23321861
146	0xbdf0fa72	-0.11766519
147	0x3ef942d1	0.4868379
148	0x3e0378a9	0.12838997
149	0xbe8de46d	-0.27713338
150	0xbe54e5c0	-0.20790768
151	0x3dd0f1e1	0.10202385
152	0xbe6f7363	-0.2338386
153	0xbb466a1d	-0.003027565
154	0xbe8dd2a3	-0.27699766
155	0xbe74897f	-0.23880576
156	0x3e2dfda6	0.1699129
157	0x3c49d867	0.012319661
158	0x3efcb2ae	0.49355072
159	0x3ce9657e	0.028490778
160	0x3e51a077	0.20471369
161	0xbd879bbe	-0.06621502
162	0x3cc36040	0.023849607
163	0x3f4808f3	0.78138655
164	0xbdacb0b1	-0.08432139
165	0xbeb312e2	-0.34975344
166	0xbdf55619	-0.119793124
167	0x3ddfeca5	0.10933808
168	0xbda74e2b	-0.08169206
169	0xbdde6612	-0.10859312
170	0x3c0ee61a	0.008721853
171	0x3dfefd67	0.124506764
172	0xbdbe5578	-0.092936456
173	0x3c329d05	0.010901694
174	0xbf0459a3	-0.51699275
175	0x3f086a72	0.5328742
176	0xbe352bcc	-0.17692488
177	0xbe7cc24f	-0.24683498
178	0x3cbb9390	0.022897512
179	0x3e0e5bb0	0.13902164
180	0xbcf9775d	-0.030452425
181	0x3f197d0f	0.5995645
182	0xbef0974a	-0.46990424
183	0x3db43c5c	0.08800575
184	0x3d3e2147	0.046418454
185	0x3d084d72	0.033276983
186	0xbe9e8b26	-0.30965537
187	0x3e96ffe3	0.294921
188	0xbe76d835	-0.24105914
189	0xbdebb59c	-0.115092486
190	0x3decdc24	0.11565426
191	0xbe0db166	-0.13837203
192	0x3b38fc67	0.0028226615
193	0x3ea07dd8	0.3134601
194	0xbcfd2f66	-0.03090639
195	0xbe41f681	-0.1894169
196	0xbf0378cb	-0.5135619
197	0xbd8120e6	-0.06305103
198	0x3d801cc1	0.06255484
199	0x3d89fe6a	0.06737979
200	0x3e7bf5b4	0.24605447
201	0x3da19591	0.07889856
202	0x3e93b2bf	0.2884731
203	0x3da9fd8a	0.08300312
204	0xbde1afdb	-0.1101987
205	0x3e73a110	0.23791909
206	0x3e2689aa	0.16263452
207	0x3ce27693	0.027644431
208	0x3debf1b3	0.1152071
209	0xbdaf07b9	-0.08546395
210	0x3d97c2be	0.07410191
211	0x3e23e95d	0.1600699
212	0x3dd95193	0.10611262
213	0x3ef9de21	0.48802283
214	0x3d91e439	0.07123608
215	0x3e0155dd	0.1263041
216	0xbe71219e	-0.2354798
217	0x3d2afb51	0.04174358
218	0x3bf0a260	0.0073435754
219	0x3df7e523	0.12104251
220	0xbea5b8dd	-0.32367602
221	0xbe72289b	-0.23648302
222	0xbe71f373	-0.23628025
223	0xbd000cb1	-0.031262103
224	0xbf8996ae	-1.0749109
225	0x3f4e8c2b	0.8068263
226	0x3ebbedf1	0.36704972
227	0xbd29d52f	-0.041463073
228	0xbe66c046	-0.22534284
229	0xbe11c566	-0.14235458
230	0xbeb50f90	-0.35363436
231	0xbe62290a	-0.22085968
232	0x3dc8878c	0.097914785
233	0x3e6af832	0.22946241
234	0x3dadecf8	0.08492464
235	0x3f431708	0.7620702
236	0xbed42a5d	-0.4143857
237	0xbe520dc0	-0.20513058
238	0x3e8903d9	0.26760748
239	0x3e08f809	0.13375868
240	0xbe5e0dad	-0.21684904
241	0xbd141a9d	-0.036158193
242	0xbe6269c7	-0.22110663
243	0xbe143e4a	-0.14476886
244	0x3c0ed6c5	0.008718197
245	0x3e02905a	0.12750378
246	0xbdba00e5	-0.09082202
247	0xbd878241	-0.06616641
248	0xbeb37b71	-0.35055116
249	0x3e9ecdf2	0.310165
250	0x3e5b64ed	0.21425219
251	0x3e0b97de	0.13632151
252	0x3d934b34	0.07192078
253	0xbe2bdf50	-0.16784406
254	0xbd622cf4	-0.055218652
255	0x3e62acdb	0.22136252

cav_emb.1.bias f4 [64]
0	0xbd96f708	-0.07371336
1	0x3daa8e87	0.08327966
2	0x3c98f7a3	0.01867277
3	0x3e7b9e71	0.2457216
4	0x3d1caf24	0.038252965
5	0xbdad3d06	-0.08458905
6	0x3c6e52ff	0.014546155
7	0xbda95a8e	-0.08269225
8	0xbe0b0c95	-0.13579018
9	0xbcabee64	-0.020987697
10	0xbd546946	-0.05185821
11	0x3d504edd	0.05085646
12	0xbd12fd00	-0.03588581
13	0xbe10ed1a	-0.14152947
14	0x3db00cbc	0.08596179
15	0xbd463b41	-0.048396353
16	0xbc278751	-0.010225133
17	0x3cb1f867	0.021724893
18	0xbe1db3eb	-0.15400665
19	0xbdf050bc	-0.11734149
20	0xbe154008	-0.14575207
21	0xbdde6589	-0.1085921
22	0xbe11164b	-0.1416866
23	0xbd935338	-0.07193607
24	0x3b485fbf	0.0030574647
25	0xbdfa67f4	-0.12226859
26	0x3d7f5e46	0.062345766
27	0xbdabfe60	-0.083981276
28	0xbd3e79f0	-0.046503007
29	0xbd4fe5bb	-0.050756197
30	0xbe8dba3b	-0.27681145
31	0x3d035545	0.03206374
32	0xbd4fd8e6	-0.05074396
33	0xbd60ba0b	-0.054864924
34	0x3d35fa84	0.044428363
35	0xbcda48c3	-0.026646024
36	0xbd15673f	-0.036475416
37	0xbe214c13	-0.15751676
38	0x3cb894dc	0.02253192
39	0xbd34548c	-0.044025943
40	0xbe0b19a1	-0.13583995
41	0xbd46dca1	-0.048550252
42	0xbd56198d	-0.05227046
43	0x3db5bfee	0.08874498
44	0xbca40b9a	-0.020025063
45	0x3d114ccf	0.03547364
46	0xbda0518c	-0.07828054
47	0x3c3aa495	0.0113917785
48	0xbcad628e	-0.021165159
49	0xbe4eddd5	-0.2020181
50	0xbbf0dc56	-0.007350485
51	0xbe4e11b4	-0.2012394
52	0xbd841897	-0.06450003
53	0xbdc3eb2c	-0.0956634
54	0xbebabab1	-0.3647056
55	0xbe3e3065	-0.18573149
56	0xbe189636	-0.14901051
57	0x3a0cbf7c	0.00053691096
58	0xbc33b938	-0.010969453
59	0xbe587b08	-0.21140683
60	0xbcc53d17	-0.024076981
61	0xbe34fce0	-0.17674589
62	0xbd857c22	-0.06517817
63	0xbd073d73	-0.033017587

att.mask f4 [1, 1, 145, 145]
0	0x3f800000	1.0
1	0x00000000	0.0
2	0x00000000	0.0
3	0x00000000	0.0
4	0x00000000	0.0
5	0x00000000	0.0
6	0x00000000	0.0
7	0x00000000	0.0
8	0x00000000	0.0
9	0x00000000	0.0
10	0x00000000	0.0
11	0x00000000	0.0
12	0x00000000	0.0
13	0x00000000	0.0
14	0x00000000	0.0
15	0x00000000	0.0
16	0x00000000	0.0
17	0x00000000	0.0
18	0x00000000	0.0
19	0x00000000	0.0
20	0x00000000	0.0
21	0x00000000	0.0
22	0x00000000	0.0
23	0x00000000	0.0
24	0x00000000	0.0
25	0x00000000	0.0
26	0x00000000	0.0
27	0x00000000	0.0
28	0x00000000	0.0
29	0x00000000	0.0
30	0x00000000	0.0
31	0x00000000	0.0
32	0x00000000	0.0
33	0x00000000	0.0
34	0x00000000	0.0
35	0x00000000	0.0
36	0x00000000	0.0
37	0x00000000	0.0
38	0x00000000	0.0
39	0x00000000	0.0
40	0x00000000	0.0
41	0x00000000	0.0
42	0x00000000	0.0
43	0x00000000	0.0
44	0x00000000	0.0
45	0x00000000	0.0
46	0x00000000	0.0
47	0x00000000	0.0
48	0x00000000	0.0
49	0x00000000	0.0
50	0x00000000	0.0
51	0x00000000	0.0
52	0x00000000	0.0
53	0x00000000	0.0
54	0x00000000	0.0
55	0x00000000	0.0
56	0x00000000	0.0
57	0x00000000	0.0
58	0x00000000	0.0
59	0x00000000	0.0
60	0x00000000	0.0
61	0x00000000	0.0
62	0x00000000	0.0
63	0x00000000	0.0
64	0x00000000	0.0
65	0x00000000	0.0
66	0x00000000	0.0
67	0x00000000	0.0
68	0x00000000	0.0
69	0x00000000	0.0
70	0x00000000	0.0
71	0x00000000	0.0
72	0x00000000	0.0
73	0x00000000	0.0
74	0x00000000	0.0
75	0x00000000	0.0
76	0x00000000	0.0
77	0x00000000	0.0
78	0x00000000	0.0
79	0x00000000	0.0
80	0x00000000	0.0
81	0x00000000	0.0
82	0x00000000	0.0
83	0x00000000	0.0
84	0x00000000	0.0
85	0x00000000	0.0
86	0x00000000	0.0
87	0x00000000	0.0
88	0x00000000	0.0
89	0x00000000	0.0
90	0x00000000	0.0
91	0x00000000	0.0
92	0x00000000	0.0
93	0x00000000	0.0
94	0x00000000	0.0
95	0x00000000	0.0
96	0x00000000	0.0
97	0x00000000	0.0
98	0x00000000	0.0
99	0x00000000	0.0
100	0x00000000	0.0
101	0x00000000	0.0
102	0x00000000	0.0
103	0x00000000	0.0
104	0x00000000	0.0
105	0x00000000	0.0
106	0x00000000	0.0
107	0x00000000	0.0
108	0x00000000	0.0
109	0x00000000	0.0
110	0x00000000	0.0
111	0x00000000	0.0
112	0x00000000	0.0
113	0x00000000	0.0
114	0x00000000	0.0
115	0x00000000	0.0
116	0x00000000	0.0
117	0x00000000	0.0
118	0x00000000	0.0
119	0x00000000	0.0
120	0x00000000	0.0
121	0x00000000	0.0
122	0x00000000	0.0
123	0x00000000	0.0
124	0x00000000	0.0
125	0x00000000	0.0
126	0x00000000	0.0
127	0x00000000	0.0
128	0x00000000	0.0
129	0x00000000	0.0
130	0x00000000	0.0
131	0x00000000	0.0
132	0x00000000	0.0
133	0x00000000	0.0
134	0x00000000	0.0
135	0x00000000	0.0
136	0x00000000	0.0
137	0x00000000	0.0
138	0x00000000	0.0
139	0x00000000	0.0
140	0x00000000	0.0
141	0x00000000	0.0
142	0x00000000	0.0
143	0x00000000	0.0
144	0x00000000	0.0
145	0x3f800000	1.0
146	0x3f800000	1.0
147	0x00000000	0.0
148	0x00000000	0.0
149	0x00000000	0.0
150	0x00000000	0.0
151	0x00000000	0.0
152	0x00000000	0.0
153	0x00000000	0.0
154	0x00000000	0.0
155	0x00000000	0.0
156	0x00000000	0.0
157	0x00000000	0.0
158	0x00000000	0.0
159	0x00000000	0.0
160	0x00000000	0.0
161	0x00000000	0.0
162	0x00000000	0.0
163	0x00000000	0.0
164	0x00000000	0.0
165	0x00000000	0.0
166	0x00000000	0.0
167	0x00000000	0.0
168	0x00000000	0.0
169	0x00000000	0.0
170	0x00000000	0.0
171	0x00000000	0.0
172	0x00000000	0.0
173	0x00000000	0.0
174	0x00000000	0.0
175	0x00000000	0.0
176	0x00000000	0.0
177	0x00000000	0.0
178	0x00000000	0.0
179	0x00000000	0.0
180	0x00000000	0.0
181	0x00000000	0.0
182	0x00000000	0.0
183	0x00000000	0.0
184	0x00000000	0.0
185	0x00000000	0.0
186	0x00000000	0.0
187	0x00000000	0.0
188	0x00000000	0.0
189	0x00000000	0.0
190	0x00000000	0.0
191	0x00000000	0.0
192	0x00000000	0.0
193	0x00000000	0.0
194	0x00000000	0.0
195	0x00000000	0.0
196	0x00000000	0.0
197	0x00000000	0.0
198	0x00000000	0.0
199	0x00000000	0.0
200	0x00000000	0.0
201	0x00000000	0.0
202	0x00000000	0.0
203	0x00000000	0.0
204	0x00000000	0.0
205	0x00000000	0.0
206	0x00000000	0.0
207	0x00000000	0.0
208	0x00000000	0.0
209	0x00000000	0.0
210	0x00000000	0.0
211	0x00000000	0.0
212	0x00000000	0.0
213	0x00000000	0.0
214	0x00000000	0.0
215	0x00000000	0.0
216	0x00000000	0.0
217	0x00000000	0.0
218	0x00000000	0.0
219	0x00000000	0.0
220	0x00000000	0.0
221	0x00000000	0.0
222	0x00000000	0.0
223	0x00000000	0.0
224	0x00000000	0.0
225	0x00000000	0.0
226	0x00000000	0.0
227	0x00000000	0.0
228	0x00000000	0.0
229	0x00000000	0.0
230	0x00000000	0.0
231	0x00000000	0.0
232	0x00000000	0.0
233	0x00000000	0.0
234	0x00000000	0.0
235	0x00000000	0.0
236	0x00000000	0.0
237	0x00000000	0.0
238	0x00000000	0.0
239	0x00000000	0.0
240	0x00000000	0.0
241	0x00000000	0.0
242	0x00000000	0.0
243	0x00000000	0.0
244	0x00000000	0.0
245	0x00000000	0.0
246	0x00000000	0.0
247	0x00000000	0.0
248	0x00000000	0.0
249	0x00000000	0.0
250	0x00000000	0.0
251	0x00000000	0.0
252	0x00000000	0.0
253	0x00000000	0.0
254	0x00000000	0.0
255	0x00000000	0.0
